results/Test24/-190808.onnx (onnx, 75612 bytes, 7 tensors)

network_body._body_endoder.seq_layers.0.weight f4 [128, 6]
0	0xbe6fcbc3	-0.23417573
1	0xbf024aef	-0.5089559
2	0x3e191e7b	0.14953034
3	0x3e597027	0.21234189
4	0x3ea2708c	0.3172649
5	0xbd0e74cd	-0.03477936
6	0xbe45991c	-0.19296688
7	0xbed5a94b	-0.41730723
8	0xbdb1dd29	-0.08684761
9	0xbe73b377	-0.23798929
10	0x3f11792f	0.56825536
11	0x3eefa099	0.46802214
12	0xbef337f9	-0.4750364
13	0xbf09a2e8	-0.537642
14	0xbed5b821	-0.41742042
15	0xbdd14a59	-0.10219259
16	0x3d862a51	0.0655104
17	0x3e4d5a0d	0.20053883
18	0xbf795fb1	-0.9741164
19	0x3f18f438	0.5974765
20	0xbed983a6	-0.42483252
21	0xbdd09a0d	-0.10185633
22	0xbbd3134d	-0.00644151
23	0xbea95ceb	-0.33078703
24	0xbe59cd3b	-0.21269695
25	0x3dcf8ff2	0.10134877
26	0xbec80aa2	-0.39070612
27	0x3ef0227f	0.46901318
28	0xbef501f6	-0.4785306
29	0xbe315cc7	-0.17320548
30	0xbe1ed737	-0.15511785
31	0xbf47a4de	-0.7798594
32	0x3f10f153	0.5661823
33	0xbd4e8be7	-0.05042639
34	0x3eed1d8e	0.4631161
35	0xbe0bacba	-0.13640109
36	0xbf353db0	-0.7079725
37	0x3e0f9137	0.14020239
38	0xbf74e2b6	-0.95658433
39	0x3eaf4587	0.34232733
40	0xbe57c298	-0.21070325
41	0x3ee68944	0.450266
42	0x3ee1a2f7	0.44069645
43	0x3e6e9e4c	0.23302573
44	0x3e73e596	0.23818049
45	0x3eb8174c	0.35955274
46	0xbdea44fb	-0.11438938
47	0xbedc5143	-0.43030748
48	0xbe6860d7	-0.22693191
49	0x3f7685b4	0.96297765
50	0x3e649985	0.22324188
51	0xbe7c5038	-0.24639976
52	0x3f79dc48	0.9760175
53	0xbe8120bb	-0.25220284
54	0xbc0a0b93	-0.008425611
55	0xbefe8f44	-0.49718678
56	0x3f71e5cd	0.94491273
57	0x3f56cb5c	0.8390405
58	0x3d7c7158	0.06163153
59	0x3dd1dab3	0.10246792
60	0xbef898ce	-0.4855408
61	0x3eefbbac	0.4682287
62	0xbd7bb6b0	-0.06145352
63	0x3e8ebe62	0.27879626
64	0x3f0285f3	0.5098564
65	0x3cc76486	0.024339925
66	0xbccc5058	-0.024940655
67	0xbce4be9c	-0.02792292
68	0xbcaf24d5	-0.021379868
69	0xbe089a74	-0.13340169
70	0xbe354b1b	-0.17704432
71	0xbc696786	-0.014245873
72	0x3e6b0e72	0.22954729
73	0xbecf56cd	-0.4049591
74	0xbef3c0fb	-0.4760817
75	0x3f30225b	0.6880242
76	0xbf16b25d	-0.5886591
77	0xbedd3a67	-0.4320862
78	0xbed74cf9	-0.42050913
79	0xbf67d986	-0.9056629
80	0x3e1135df	0.14180706
81	0xbe873e67	-0.26414797
82	0xbdf5ad3f	-0.11995935
83	0xbeed9a93	-0.46406993
84	0xbd5875c3	-0.05284668
85	0x3e5eda43	0.21762948
86	0x3e8fa4aa	0.28055316
87	0xbf1483bb	-0.58013505
88	0x3e18fb4a	0.14939609
89	0x3f1acaae	0.60465515
90	0xbc2d97cd	-0.010595274
91	0x3e0b6b33	0.13615112
92	0xbe4c0760	-0.19924688
93	0x3d8fbb7f	0.07018184
94	0xbf1764d2	-0.59138215
95	0x3d427c10	0.047481596
96	0x3bf48564	0.0074621905
97	0xbe70a0be	-0.23498818
98	0xbefed464	-0.49771416
99	0x3f2ccfbd	0.67504483
100	0xbd9d827a	-0.07690902
101	0xbf211041	-0.62915426
102	0x3f0b8561	0.54500395
103	0xbf2887d7	-0.65832275
104	0xbc98b092	-0.018638883
105	0xbd82b599	-0.06382293
106	0x3f2cb5d2	0.67464936
107	0x3deb5f17	0.11492746
108	0xbee02737	-0.4377992
109	0x3e94fb8b	0.29098162
110	0xbf019dcb	-0.506314
111	0x3ea87105	0.32898727
112	0x3eb66e78	0.35631156
113	0xbe885b7d	-0.266323
114	0xbe9c5518	-0.3053367
115	0xbde45330	-0.11148679
116	0x3ea9905d	0.33117953
117	0x3cc65f69	0.024215417
118	0x3f157777	0.58385414
119	0x3f57e9ab	0.84340924
120	0x3f61b106	0.8816074
121	0xbec23216	-0.37928838
122	0x3f628ae9	0.8849321
123	0xbed0532e	-0.4068846
124	0xbe94f460	-0.29092693
125	0xbe077d66	-0.1323143
126	0xbf0f624a	-0.5600935
127	0xbd5adc73	-0.053432893
128	0xbd2c89e1	-0.04212368
129	0xbee61484	-0.44937527
130	0xbe1e61db	-0.15467016
131	0x3e4a0bcb	0.19731061
132	0x3e240f93	0.16021566
133	0xbeb1ba14	-0.3471228
134	0x3da22727	0.07917624
135	0xbe7f93cb	-0.24958722
136	0x3e899d1d	0.2687768
137	0x3ec509f0	0.38484144
138	0x3f16adae	0.58858764
139	0xbea6d197	-0.3258178
140	0xbf0f2f87	-0.55931896
141	0x3e4ec9bc	0.20194143
142	0x3ee2e316	0.44313878
143	0xbf3d4890	-0.73938847
144	0x3e4c3355	0.19941457
145	0xbedb4cf7	-0.42832157
146	0x3f327182	0.6970445
147	0x3e0b0e97	0.13579784
148	0xbf1a7f53	-0.6035053
149	0xbe86d670	-0.26335478
150	0xbd7ecff8	-0.062210053
151	0xbeaa65e8	-0.33280873
152	0x3e9ac191	0.30225804
153	0xbec55fa7	-0.3854954
154	0x3f16b428	0.58868647
155	0x3e8de5d5	0.2771441
156	0xbf185c1a	-0.59515536
157	0xbe8051f9	-0.2506254
158	0xbed34806	-0.41265887
159	0x3f9e06ac	1.2345786
160	0xbd9fdd68	-0.07805902
161	0x3e16eca1	0.14738704
162	0x3e98ab4c	0.2981819
163	0x3e97c77e	0.29644388
164	0xbe0bd90c	-0.13657016
165	0x3f3c5154	0.73561597
166	0x3e349095	0.17633279
167	0xbc9e2f7c	-0.019309752
168	0x3ea7c456	0.3276698
169	0xbed98035	-0.42480627
170	0x3eb8c17a	0.3608511
171	0x3ece9f01	0.40355685
172	0x3e96bb93	0.29439983
173	0xbd59247e	-0.053013317
174	0x3df5b5b1	0.119975455
175	0x3eda43cd	0.42629853
176	0x3f9b3ddc	1.2128253
177	0x3e25c42e	0.16188118
178	0xbe619e6a	-0.22033086
179	0xbed162d0	-0.408957
180	0x3ebb722f	0.36610553
181	0x3e8340ab	0.25635275
182	0x3ea43d8e	0.32078212
183	0xbd9c57e7	-0.076339535
184	0x3dc0ae33	0.09408226
185	0x3efed735	0.49773565
186	0xbe827bbe	-0.25485033
187	0xbf1219af	-0.5707044
188	0x3f0ab648	0.5418439
189	0xbf159581	-0.5843125
190	0xbdc8bb84	-0.09801391
191	0x3e984676	0.29741257
192	0x3ec4351d	0.38321772
193	0x3f2f1d73	0.6840431
194	0xbf685a22	-0.9076253
195	0xbf6d7504	-0.92756677
196	0x3ec5fa4c	0.38667524
197	0xbe40a317	-0.18812214
198	0x3d0c3819	0.034233186
199	0x3f20eda6	0.6286262
200	0x3dfcfe78	0.123532236
201	0xbefe5cea	-0.49680263
202	0x3aca3a39	0.0015428729
203	0x3e33815e	0.17529818
204	0x3edee1f3	0.4353176
205	0x3ebb5985	0.36591735
206	0xbf84acf3	-1.036528
207	0xbed9c321	-0.42531684
208	0xbc7893e1	-0.015171976
209	0xbe0eeba5	-0.13957079
210	0xbeeea5c5	-0.46610847
211	0x3f1069d2	0.5641147
212	0xbe8281d9	-0.2548969
213	0xbd9ecd67	-0.07754021
214	0x3daf938f	0.085730664
215	0x3d68b7dd	0.05681597
216	0x3e8acfa7	0.2711155
217	0x3cfabaff	0.030606745
218	0xbef3e77c	-0.47637546
219	0x3dc218cf	0.09477388
220	0xbd1f8778	-0.038947552
221	0x3eb14bd4	0.34628165
222	0x3ed07ba1	0.4071932
223	0xbd8f4f57	-0.06997555
224	0x3dc891ab	0.09793409
225	0x3f79f547	0.9763989
226	0x3e715c58	0.23570383
227	0x3f324779	0.6964031
228	0x3c9187bb	0.017764917
229	0xbd284850	-0.041084588
230	0x3d8bfe2b	0.06835588
231	0x3ef32399	0.47488096
232	0xbe3fa265	-0.18714292
233	0xbe65507b	-0.22393982
234	0xbedd481d	-0.4321908
235	0x3eae90db	0.3409489
236	0x3e64b272	0.22333696
237	0x3ee9fbb3	0.45699844
238	0xbe85a506	-0.26102465
239	0x3e1b7be7	0.15183984
240	0xbe7ab65e	-0.2448363
241	0x3ef6ea97	0.48225853
242	0xbf187ec2	-0.5956842
243	0x3f3b15d7	0.730802
244	0xbec2dbab	-0.38058218
245	0x3e92ba72	0.2865787
246	0x3f9b8ae5	1.2151762
247	0xbe72f71a	-0.23727074
248	0x3f09eb94	0.5387509
249	0xbdf7aac0	-0.12093115
250	0xbf1123f8	-0.5669551
251	0x3e86532c	0.2623533
252	0x3e006a84	0.12540632
253	0xbe4912dd	-0.19636102
254	0xbf384bae	-0.7199048
255	0xbe865fa8	-0.26244855

network_body._body_endoder.seq_layers.0.bias f4 [128]
0	0xba65790a	-0.0008753693
1	0x3a56b107	0.0008189831
2	0xbc0ef4f1	-0.008725391
3	0xbcbf9fac	-0.023391567
4	0xbbd2b0cb	-0.006429767
5	0xb9cd4b90	-0.00039156945
6	0x3bf860d5	0.0075799027
7	0xbbf4c076	-0.007469232
8	0x3bbfc309	0.0058521074
9	0xba96329f	-0.0011459178
10	0x3b8d4896	0.0043116314
11	0xbb90f615	-0.0044238665
12	0x3b1bd66e	0.0023778933
13	0x3a501da0	0.0007938985
14	0x3c037b6b	0.008025031
15	0xbbce241d	-0.006290926
16	0xbbd32717	-0.006443869
17	0x3b053cde	0.002033047
18	0x3bf40898	0.0074473135
19	0x3b7cd11d	0.003857679
20	0xbb23775a	-0.0024942965
21	0x3b0efcf2	0.0021818248
22	0x3aa545fb	0.0012609357
23	0xbc0b9f9a	-0.008521939
24	0xbab499c5	-0.0013778737
25	0xbb4540cc	-0.0030098436
26	0xbb24c120	-0.0025139526
27	0xbbf6d3af	-0.007532559
28	0xba0a46e7	-0.00052748475
29	0xbb7129a2	-0.0036798497
30	0xba1408b7	-0.00056470506
31	0x3b0168fb	0.001974641
32	0xbc45f8a3	-0.012083205
33	0xbc15dd3e	-0.0091469865
34	0x3a1ba615	0.0005937529
35	0xbcb85800	-0.0225029
36	0x3bff17c5	0.007784816
37	0xbb232bf2	-0.002489802
38	0xbb05dd0b	-0.0020425941
39	0xbada146b	-0.0016638165
40	0x3c4ac608	0.012376316
41	0x3a8637d8	0.0010240031
42	0xbca3a5f8	-0.019976601
43	0x3a69fa59	0.00089255493
44	0x39ae3fd8	0.00033235434
45	0xb895088b	-7.106465e-05
46	0xbbafd064	-0.0053654183
47	0x3bb2c564	0.0054556597
48	0xbafb430c	-0.0019169762
49	0x3ae75d47	0.00176517
50	0xbc75e630	-0.015008494
51	0x3c0bff9f	0.008544832
52	0xbac428f8	-0.0014965823
53	0xbb307b13	-0.0026928827
54	0x3b84717c	0.0040418487
55	0x3c360d9e	0.011111645
56	0xbac148b9	-0.0014746404
57	0xbbbe516e	-0.005808047
58	0xba09d08d	-0.0005257212
59	0xba87b7e6	-0.0010354489
60	0xbc1d32fd	-0.009594676
61	0xbcae2d77	-0.021261914
62	0xb8ce5652	-9.838924e-05
63	0xbb85f7ae	-0.0040883636
64	0xbb051a0d	-0.0020309717
65	0x3a10c76b	0.00055228797
66	0xb7fd7c2c	-3.0217772e-05
67	0x3c21252b	0.009835522
68	0x3be29be7	0.0069155577
69	0xbbf43736	-0.0074528707
70	0xba52429d	-0.00080207904
71	0x3b2d4bda	0.0026442916
72	0xbb027547	-0.0019906329
73	0x3c6896b3	0.014196086
74	0x3b87e04c	0.0041466113
75	0xbbe441df	-0.0069658603
76	0x3b98c48f	0.0046621035
77	0xbac67d74	-0.0015143589
78	0xbb9447a9	-0.004525144
79	0x3a39bca2	0.00070852984
80	0x39543b0b	0.00020239891
81	0x3b9c7fa8	0.00477596
82	0x3b9b1ec2	0.004733891
83	0xbba438a8	-0.0050116368
84	0x3c6f4d67	0.0146058565
85	0x39c67028	0.00037849066
86	0x3a995eac	0.0011701188
87	0x3c92cbad	0.017919386
88	0xbb675156	-0.0035296283
89	0xbc841f25	-0.016128132
90	0xba90c78d	-0.0011045799
91	0xbbb1601a	-0.0054130675
92	0xbb54ed21	-0.0032489973
93	0xbbb85e12	-0.0056264484
94	0xba041039	-0.0005037818
95	0x3997dccb	0.00028965468
96	0x3b919af8	0.0044435225
97	0x3b1f06e3	0.002426558
98	0xbbf1ff6a	-0.007385184
99	0x3b2b85df	0.0026172323
100	0xba439e07	-0.00074622076
101	0xbc83cf9b	-0.016090205
102	0x3c35524a	0.0110669825
103	0x3af3b866	0.0018594384
104	0x38f61c02	0.00011735411
105	0x3abccea6	0.0014404848
106	0x3a01748d	0.0004938327
107	0x3b2e28fc	0.0026574722
108	0xbb941976	-0.0045196367
109	0xbc271c0f	-0.010199561
110	0x3a5f0489	0.00085074507
111	0x3bae9ed7	0.005328994
112	0xbb39d3a0	-0.0028354898
113	0xbb75fdc5	-0.0037535292
114	0xbbaad1ca	-0.005212997
115	0xb9ec9cd2	-0.00045130268
116	0xb9e0305b	-0.00042760637
117	0x3b253768	0.0025210027
118	0x3be8783b	0.0070944107
119	0xbc1bb1eb	-0.009502868
120	0x3b2014c3	0.0024426437
121	0x3b0a8c15	0.0021140624
122	0x3b16ecd3	0.0023029342
123	0xbb803e91	-0.0039137085
124	0xbbb7ad34	-0.005605364
125	0xbb47a7ca	-0.0030465
126	0xbc1700fa	-0.009216541
127	0x3ab39be4	0.0013703075

network_body._body_endoder.seq_layers.2.weight f4 [128, 128]
0	0xbdcce856	-0.10005252
1	0x3e1f9c6c	0.15587014
2	0x3c090f20	0.0083654225
3	0xbd3465f4	-0.044042543
4	0xbcf67a57	-0.030087633
5	0xbde336a3	-0.110944055
6	0x3ccba071	0.024856778
7	0xba8182c0	-0.0009880885
8	0x3df81703	0.12113764
9	0xbd9c7190	-0.07638848
10	0xbdae709f	-0.085175745
11	0xbc99f603	-0.018794065
12	0x3db1604c	0.08660945
13	0xbd11cf97	-0.035598364
14	0x3df847a4	0.12123039
15	0x3aa2e0c6	0.0012426607
16	0x3c44c92c	0.012010854
17	0xbd6c449a	-0.05768261
18	0xbc5e4e1d	-0.013568428
19	0xbc93f6bf	-0.018061994
20	0x3d5430a2	0.051804192
21	0xbe755da4	-0.23961502
22	0xbc76f62d	-0.015073341
23	0xbc5f1139	-0.013614946
24	0xbe53728a	-0.20649162
25	0xbe865654	-0.26237738
26	0x3e02ae91	0.12761904
27	0x3ce9bad6	0.028531473
28	0x3cae4ccd	0.021276856
29	0xbe99a721	-0.30010322
30	0xbe079230	-0.1323936
31	0x3d110e25	0.03541388
32	0xbe177ac9	-0.14792933
33	0xbd863d70	-0.06554687
34	0x3dd5b823	0.10435512
35	0x3d777285	0.06041195
36	0x3cc6c574	0.024264075
37	0x3c720f03	0.014774087
38	0x3dfbcfc9	0.12295491
39	0x3debd029	0.11514313
40	0x3d680f9d	0.056655515
41	0xbd5b2270	-0.05349964
42	0xbd37b207	-0.044847514
43	0x3dc1f54f	0.09470617
44	0xbd344169	-0.044007692
45	0xbda9681e	-0.08271812
46	0xbbeade7d	-0.007167636
47	0xbc5fa976	-0.0136512425
48	0x3dbbfb0d	0.091787435
49	0x3e492184	0.19641691
50	0xbe09c89d	-0.13455434
51	0xbd569f04	-0.052397743
52	0x3d199587	0.037496116
53	0xbcbe9ef2	-0.02326915
54	0x3cabb383	0.020959621
55	0xbd441bab	-0.04787795
56	0x3d66f8b3	0.05638952
57	0x3d5e5b58	0.05428633
58	0x3d1ef500	0.03880787
59	0xbd98b617	-0.07456606
60	0xbe0f084c	-0.13968009
61	0x3dede5b2	0.116160765
62	0xbdef28ae	-0.11677681
63	0xbe3e499c	-0.18582767
64	0x3d3d2173	0.046174478
65	0xbd22d04a	-0.03974942
66	0xbce493c4	-0.027902491
67	0x3da00717	0.07813852
68	0x3db901d5	0.090335526
69	0x3d565d0e	0.052334838
70	0x3d1ea9ee	0.038736276
71	0x3da6abf6	0.08138268
72	0x3d67ac71	0.056560937
73	0x3d99f562	0.07517506
74	0xbccc49ee	-0.024937596
75	0xbdce02b6	-0.10059111
76	0xbd9a1ae7	-0.075246625
77	0x3c83f858	0.01610963
78	0x3daf7dc7	0.08568912
79	0x3c344f79	0.011005276
80	0x3d1c4923	0.038155686
81	0x3c9d9a46	0.019238602
82	0x3d0030a2	0.03129638
83	0x3c94ab0d	0.01814797
84	0xbd2324a1	-0.039829854
85	0xbd5444b0	-0.051823318
86	0x3d7830ea	0.060593523
87	0xbd74d6c2	-0.05977512
88	0xbdca9c62	-0.09893109
89	0x3d0f1f21	0.034941796
90	0xbd290285	-0.04126217
91	0x3d97c21b	0.074100696
92	0x3d62fd96	0.05541762
93	0x3bf41e03	0.0074498667
94	0xbd1df3b3	-0.038562488
95	0xbdc4014d	-0.095705606
96	0xbe138805	-0.14407356
97	0x3dd3202b	0.1030887
98	0x3cbb57fc	0.022869103
99	0x3dbef35f	0.09323763
100	0x3e0fff83	0.14062314
101	0xbe01c109	-0.12671293
102	0x3df5cf4b	0.120024286
103	0x3a917bf0	0.0011099558
104	0x3e3cb24c	0.1842739
105	0xbaf132fc	-0.0018402035
106	0x3e2c0a5e	0.1680083
107	0x3e35821b	0.17725413
108	0xbdef36c8	-0.116803706
109	0x3d4abbcd	0.049495507
110	0xbe0cb2db	-0.13740103
111	0x3da7ed01	0.08199502
112	0xbd54bd6b	-0.051938456
113	0x3e7a2e04	0.24431616
114	0xbc8a1700	-0.01685667
115	0x3da27fcf	0.07934534
116	0x3d0d3643	0.034475576
117	0x3c8b2685	0.016986141
118	0xbd66af24	-0.05631937
119	0x3cb1434a	0.021638531
120	0xbdcd979d	-0.100386836
121	0xbd6cb12f	-0.057786163
122	0xbc0a7255	-0.00845011
123	0xbdff8c50	-0.12477934
124	0xbd641674	-0.055685475
125	0x3da891aa	0.08230908
126	0xbba5c412	-0.005058774
127	0x3d816d14	0.06319633
128	0xbd8da7f0	-0.06916797
129	0xbd08e357	-0.033419933
130	0xbdb1ced0	-0.086820245
131	0x3dc67c63	0.09691694
132	0xbdd45883	-0.10368445
133	0xbce30af7	-0.02771519
134	0x3dd0eee2	0.10201813
135	0xbd7f7b0c	-0.062373206
136	0xbcd4e8c4	-0.025989898
137	0xbdd1aa9b	-0.102376185
138	0xbd8f55e2	-0.06998803
139	0x3dabebf3	0.08394613
140	0xbbe4fcde	-0.006988152
141	0x3da80f9b	0.082061015
142	0xbdd1f1d9	-0.10251207
143	0xbbf1c7ef	-0.0073785703
144	0x3cce7e1a	0.025206614
145	0xbd56555d	-0.052327503
146	0xbdbe8646	-0.093029544
147	0x3c15d53d	0.009145078
148	0x3e0ea541	0.13930227
149	0x3dce370f	0.10069095
150	0xbe14aa16	-0.14518008
151	0xbdfae2f6	-0.122503206
152	0xbe20d00a	-0.1570436
153	0x3e0cf87e	0.13766667
154	0xbd388001	-0.04504395
155	0x3dec178a	0.11527927
156	0xbd0ff640	-0.03514695
157	0x3c11e97a	0.008905763
158	0xbdb30721	-0.08741594
159	0x3c013868	0.007886983
160	0xbb914ae2	-0.0044339756
161	0xbe065171	-0.13117005
162	0x3d811d17	0.063043766
163	0xbcd66d65	-0.02617521
164	0x3d80d36f	0.06290328
165	0xbe1023eb	-0.14076202
166	0xbdd1774b	-0.102278315
167	0x3deb19dd	0.114795424
168	0xbb262093	-0.0025349006
169	0x3d0142ed	0.031557966
170	0xbd1e4e9c	-0.038649186
171	0x3dd599a0	0.10429692
172	0x3c6899dd	0.01419684
173	0x3c1e5e66	0.009666061
174	0x3cbe4c2f	0.023229687
175	0x3e5ff250	0.21869779
176	0xbd04a1f3	-0.03238101
177	0xbd3a0ac8	-0.045420438
178	0x3b9fc58d	0.004875845
179	0x3c6e81d0	0.014557317
180	0x3d879f0f	0.06622135
181	0xbd69b56e	-0.05705779
182	0xbd00213b	-0.03128169
183	0x3d3c9aab	0.04604594
184	0xbdba5521	-0.09098268
185	0xbd8abd5d	-0.067743994
186	0xbdbd12d2	-0.09232105
187	0x3c960166	0.018311214
188	0xbd80eee6	-0.06295566
189	0x3df7a23b	0.1209149
190	0x3df9f139	0.12204213
191	0xbe58bce4	-0.21165806
192	0x3b87b2eb	0.0041412017
193	0x3d8475c2	0.06467773
194	0x3cc80cc5	0.024420151
195	0xbde70715	-0.11280648
196	0xbdf83d94	-0.1212112
197	0x3d249c35	0.040188033
198	0xbcf3ba06	-0.029751789
199	0x3dc7e5f9	0.09760661
200	0xbcfed07a	-0.031105269
201	0x3c050b4e	0.008120371
202	0x3d7b10b2	0.06129522
203	0xbe12ae28	-0.14324248
204	0x3e536968	0.20645678
205	0x3db2965f	0.08720087
206	0xbe157873	-0.14596729
207	0xbd84c9ca	-0.06483801
208	0xbb25099d	-0.0025182732
209	0x3db116ce	0.08646928
210	0xbceb4adc	-0.02872222
211	0x3cce4e99	0.025183963
212	0xbd7d3ba4	-0.061824456
213	0x3cf0dfb6	0.029403549
214	0x3e2b65d9	0.1673807
215	0x3db27b36	0.08714907
216	0xbd8271f0	-0.06369388
217	0xbd0e3420	-0.03471768
218	0xbe275468	-0.16340792
219	0x3d6e4c1f	0.058178063
220	0x3db53ab0	0.088490844
221	0x3daabf72	0.083372965
222	0x3c03629e	0.008019118
223	0xbdd52b65	-0.104086675
224	0xbcc950e3	-0.024574703
225	0xbd8ddf72	-0.069273844
226	0xb9812c12	-0.00024637632
227	0xbd1fefaa	-0.03904692
228	0xbcc43b72	-0.023954127
229	0x3c446e5d	0.011989203
230	0xbdc0a5eb	-0.09406646
231	0xbe1338c1	-0.14377119
232	0xbd1da8ff	-0.038491245
233	0x3e2b67e2	0.16738847
234	0x3d91a64d	0.071117975
235	0xbd5f1107	-0.054459598
236	0xbd78c8ad	-0.060738254
237	0x3d531a0a	0.051538505
238	0x3d676e59	0.05650172
239	0x3decadbc	0.11556575
240	0x3c75aa34	0.014994193
241	0x3a5d1405	0.0008433464
242	0x3c30b5de	0.010785548
243	0x3d896e7f	0.067105286
244	0xbdcc6e6c	-0.09981999
245	0x3cbd8b1a	0.023137618
246	0x3d45e868	0.048317343
247	0x3dd2d97c	0.10295388
248	0x3c11a982	0.0088905115
249	0xbd931d72	-0.071833506
250	0xbde35115	-0.110994495
251	0xbe0f0b48	-0.13969147
252	0xbd10322e	-0.035204105
253	0x3e51a95c	0.20474762
254	0x3e002f4c	0.12518042
255	0xbdbf37dd	-0.09336827

network_body._body_endoder.seq_layers.2.bias f4 [128]
0	0xba8ad76a	-0.0010592763
1	0x3b0c47ba	0.0021405057
2	0xbbf0b210	-0.0073454455
3	0xbae3ba6b	-0.0017374282
4	0xbc10c5b2	-0.008836197
5	0x3c3bc632	0.011460828
6	0x3ba28dd0	0.004960753
7	0x3a698123	0.00089074875
8	0x3ad34951	0.0016119872
9	0xbacd82ab	-0.0015679201
10	0xbbd5878e	-0.0065164035
11	0xbc45ba5d	-0.012068358
12	0x3ba0bc2b	0.004905244
13	0x3b9a6acd	0.0047124387
14	0xbc00df7a	-0.007865781
15	0xbba98a66	-0.005173969
16	0x3b2fb50d	0.0026810796
17	0x3be00c4d	0.006837404
18	0xbb96c952	-0.004601636
19	0xbb665157	-0.0035143697
20	0x37c8ef5b	2.3953316e-05
21	0xbbbdaebd	-0.0057886527
22	0x3b6718bf	0.0035262553
23	0x3bb0814c	0.005386507
24	0x3c65d8bf	0.014028727
25	0xb92294ca	-0.00015504952
26	0xbbd10d3f	-0.006379753
27	0x3b009678	0.0019620936
28	0xbbc4995f	-0.0059997286
29	0x3c886898	0.016651437
30	0xbbfa02db	-0.007629735
31	0xbbfcb4b2	-0.0077119702
32	0xbc1717f8	-0.009222023
33	0xbbb0d5a6	-0.0053965626
34	0x3b0dd910	0.0021644272
35	0xbb3c32f0	-0.0028716885
36	0x39f40f35	0.00046550637
37	0xbbf30359	-0.0074161706
38	0x3b1715a6	0.0023053675
39	0x3a75d83f	0.00093782315
40	0xbaa8d3d8	-0.0012880517
41	0x3ad8d806	0.0016543872
42	0xbb6685e1	-0.0035175013
43	0x3b4b9ef8	0.0031070095
44	0xba55192d	-0.00081290567
45	0xbb19e941	-0.0023484977
46	0x3c884e34	0.016638853
47	0x3b674c0a	0.0035293126
48	0x3b13c1c4	0.0022545913
49	0x3b02c38d	0.0019952983
50	0x3b63a083	0.0034733124
51	0x3b0d635c	0.0021574115
52	0xbc2e84c6	-0.010651773
53	0x3b06b9b9	0.0020557477
54	0x3c222f24	0.0098989345
55	0x3c218e49	0.009860584
56	0xb9e12a66	-0.00042946934
57	0xbb7b7732	-0.0038370606
58	0xbb0f0a17	-0.0021826082
59	0x3b1ef922	0.0024257381
60	0xbb14002c	-0.002258311
61	0x3b1726f0	0.002306398
62	0x388f76bb	6.8408866e-05
63	0x3c04df09	0.008109816
64	0xbb376dc8	-0.0027989019
65	0xba0a755a	-0.0005281769
66	0x3bf14371	0.007362776
67	0xbad294d1	-0.0016066079
68	0xbc270174	-0.010193218
69	0xbc75b18a	-0.014995942
70	0xbb7f9282	-0.0038997238
71	0xba8fe4d9	-0.0010978236
72	0xbaea88da	-0.0017893568
73	0x3b694280	0.0035592616
74	0xbc41e1ee	-0.011833651
75	0xbb9527e1	-0.004551873
76	0xb9f43ca0	-0.00046584476
77	0xba43892f	-0.00074591016
78	0x3bb6f04c	0.005582845
79	0xbbadae4b	-0.0053003184
80	0x3c18019e	0.009277729
81	0x3bf19ac8	0.0073731877
82	0x3b06a9b4	0.0020547928
83	0xbc4f5600	-0.012654781
84	0xbc00e6de	-0.007867543
85	0x3c0cd458	0.008595549
86	0x3b9b13af	0.004732571
87	0xba6b4a6c	-0.00089756283
88	0x3bbeea6c	0.005826285
89	0xbabe97b2	-0.0014541058
90	0x3c0a3b6b	0.008437018
91	0xbc4c5e76	-0.012473693
92	0x3a73ded6	0.00093029195
93	0xb88cdd4b	-6.716939e-05
94	0x3ae97ae7	0.0017813117
95	0xbbbf617f	-0.00584048
96	0xbb19b86f	-0.0023455878
97	0xbbcccbd8	-0.006249886
98	0xba9cf531	-0.0011974928
99	0xb81482a4	-3.540762e-05
100	0x3c6db207	0.014507777
101	0xbb869a8b	-0.0041077784
102	0x3b52763a	0.0032113926
103	0xbaa28b7a	-0.0012401186
104	0x3ba0d779	0.004908499
105	0x3b737daa	0.003715376
106	0xbb6d4e16	-0.0036209873
107	0x3b60af07	0.0034284012
108	0x3a6bbd67	0.0008992762
109	0x39afec4e	0.00033554662
110	0x3bece51a	0.0072294595
111	0xba123ee3	-0.0005578829
112	0x3bae36d1	0.005316593
113	0xbbd84a0b	-0.0066006235
114	0xbbc96285	-0.0061457776
115	0xbb7781c2	-0.003776655
116	0x3a277045	0.0006387274
117	0xbbb189ae	-0.005418024
118	0xb99f0f0f	-0.00030338063
119	0xbc2ae060	-0.010429472
120	0xbc8bf201	-0.01708317
121	0x3988da8f	0.0002610278
122	0xbbab90a0	-0.0052357465
123	0xbbed8572	-0.007248574
124	0x3ab054f5	0.0013453054
125	0xbb14a978	-0.002268402
126	0xbb3f9e6f	-0.002923872
127	0xbb636328	-0.0034696553

action_model._continuous_distribution.log_sigma f4 [1, 3]
0	0xbbf21855	-0.0073881545
1	0x3b353b94	0.002765392
2	0xbbcec1bf	-0.0063097174

action_model._continuous_distribution.mu.weight f4 [3, 128]
0	0xbd31e231	-0.043428604
1	0x3c324d44	0.010882679
2	0xbd1b3019	-0.037887666
3	0x3c0d91f1	0.008640752
4	0x3a1e91df	0.0006048958
5	0x3c3c3833	0.011488008
6	0xbabe7683	-0.0014531169
7	0x3c94baa6	0.018155407
8	0x3c3798f7	0.011205903
9	0xbbe2edd5	-0.0069253244
10	0x3cb4f745	0.022090564
11	0x3c8c6867	0.017139627
12	0xbccfa0bb	-0.025345197
13	0xbae99dc8	-0.0017823512
14	0x3d1b9c04	0.037990585
15	0x3d1be741	0.038062338
16	0xbd1219cc	-0.035669133
17	0xbbb34fdb	-0.005472166
18	0xbb486e5c	-0.0030583357
19	0xbc7174f0	-0.014737353
20	0x3c5520b2	0.013008283
21	0x3b2bb23e	0.002619877
22	0xbc110273	-0.008850682
23	0x3c214d5b	0.009845103
24	0x3b330965	0.0027318832
25	0xbb4ff64b	-0.0031732495
26	0xbb3e9968	-0.0029083136
27	0x3c86741d	0.016412789
28	0xba0779d9	-0.0005167998
29	0xbc1346b4	-0.008989025
30	0x3bd66de8	0.0065438636
31	0x3c9a33c0	0.018823504
32	0xbc28ffff	-0.0103149405
33	0xbb921c6f	-0.004458956
34	0xbc567953	-0.013090449
35	0x3b308a17	0.0026937777
36	0x3bcd73d4	0.0062699113
37	0x3cae5a82	0.021283392
38	0xbbdddeae	-0.0067709303
39	0x3cc0957b	0.023508778
40	0x3b541b2f	0.0032364835
41	0xbc55dc1f	-0.013052969
42	0x3c2e1145	0.010624235
43	0xbcdf03b2	-0.027223442
44	0x3bf39dd1	0.0074345847
45	0x3bf5d435	0.0075021037
46	0xbc2fda8a	-0.010733256
47	0xbc8ed59e	-0.017435845
48	0x3cba3cdc	0.022734098
49	0xbc9e6127	-0.019333435
50	0xbc45514a	-0.012043307
51	0xbc92f10f	-0.017937211
52	0xbc1b112d	-0.009464544
53	0xbcc03e3c	-0.023467176
54	0xbc1552c9	-0.009113976
55	0x3c8bd48d	0.017069126
56	0xbc02cc2b	-0.007983248
57	0x3cd62b9f	0.026143847
58	0x3c832d7b	0.016012898
59	0xbca62fc2	-0.020286445
60	0x3b0aa9fa	0.0021158443
61	0x3ab4a070	0.0013780724
62	0x3c7157f3	0.014730441
63	0xbce7408e	-0.028229024
64	0xbb4ac970	-0.003094282
65	0xbbd52308	-0.00650442
66	0xbc961399	-0.018319892
67	0x3c310ffa	0.010807032
68	0x3c8bbbb5	0.01705728
69	0x3c26f00a	0.010189066
70	0xbad51072	-0.0016255511
71	0x3d1c4db2	0.038160034
72	0x3c0202be	0.007935224
73	0xbc8a13f9	-0.016855227
74	0x3c2a300c	0.010387432
75	0xbbafa562	-0.0053602913
76	0x3c3dea8b	0.011591564
77	0xbd2ff3fe	-0.0429573
78	0xbc1d6deb	-0.009608726
79	0xbac0befe	-0.0014705358
80	0xbb712985	-0.003679843
81	0xbcfeb441	-0.031091811
82	0xbc8ef56a	-0.017451007
83	0x3bd8a21b	0.0066111214
84	0x3cf346b8	0.029696807
85	0x3d74350b	0.0596209
86	0x3aa933ec	0.0012909151
87	0xbbc0f322	-0.0058883587
88	0xbc7662c1	-0.015038193
89	0xbb70f2bd	-0.0036765777
90	0xbcb83f9d	-0.02249127
91	0x3cf62cdd	0.03005069
92	0x3c071a15	0.008245965
93	0xbcdd8660	-0.027041614
94	0xbc5d0dd1	-0.013492064
95	0xbc7649c5	-0.015032236
96	0x3b7f5020	0.003895767
97	0x3c435fbd	0.011924681
98	0xbc89e5ad	-0.01683315
99	0xbbe4abfc	-0.00697851
100	0xbc7aaf29	-0.0153005505
101	0x3a968716	0.001148435
102	0xbd0db783	-0.03459884
103	0xbc37a22d	-0.011208099
104	0x3c792f86	0.015209084
105	0x3cea539a	0.028604317
106	0x3be0edc1	0.00686428
107	0x3c203f03	0.009780648
108	0xbc43fcca	-0.011962125
109	0xbc50c134	-0.012741376
110	0xbc4132c3	-0.011791888
111	0x3d1440c1	0.036194567
112	0xbbe3a591	-0.0069472273
113	0xbc98224f	-0.018571047
114	0xb910dafe	-0.00013814491
115	0x3cbc2d19	0.022970723
116	0x3d0f4691	0.034979407
117	0x3c3d8e10	0.011569515
118	0xb9e6a4d4	-0.00043991825
119	0x3d01db4e	0.031703286
120	0xbbe20f44	-0.0068987925
121	0x3b9f764f	0.0048663984
122	0x3d12daad	0.035853077
123	0x3c915ba0	0.017743886
124	0x3d348cf6	0.044079743
125	0xbba9351e	-0.0051638028
126	0xb8656d6e	-5.469977e-05
127	0x3cf4c5fa	0.029879559
128	0x3a3d9513	0.00072319916
129	0x3b047e4d	0.0020216883
130	0x3be54019	0.0069961664
131	0xbc904aee	-0.017613854
132	0x3d080c0a	0.033214606
133	0x3d144ec7	0.03620794
134	0xbba512c2	-0.0050376365
135	0xbd1f6732	-0.038916774
136	0xb8ceb453	-9.8564335e-05
137	0x3cb6a677	0.022296173
138	0x3ca080bb	0.019592633
139	0x3ca3f381	0.020013573
140	0x3a16b55e	0.0005749072
141	0xbc647360	-0.013943523
142	0xbb0f42b2	-0.0021859822
143	0x3cd88178	0.026428923
144	0xbbe098f4	-0.006854171
145	0xbd285643	-0.04109789
146	0x3c908354	0.017640747
147	0xbcbc4d5c	-0.022986107
148	0x3bad7eab	0.005294641
149	0x3c196a05	0.009363656
150	0xb914d811	-0.00014194871
151	0xbcd98e6e	-0.026557174
152	0xbc9d73e9	-0.01922031
153	0xbb0422b6	-0.002016229
154	0xbc52baa2	-0.01286188
155	0xbcac1526	-0.021006178
156	0x3ca1a82d	0.019733513
157	0xbcd696f3	-0.026195025
158	0x3c84f6e2	0.016231004
159	0x3cbb8949	0.022892611
160	0x3c6874a4	0.014187966
161	0x3b99bb5b	0.004691524
162	0x3bb91f39	0.005649474
163	0x3cb81e7f	0.02247548
164	0xbcab5fda	-0.020919729
165	0x3c0d0b6c	0.00860868
166	0xbb833301	-0.004003883
167	0xbcaca5a7	-0.021075083
168	0x3a9c3b8c	0.0011919602
169	0xbac1ef6f	-0.0014796088
170	0x3ce0e5a7	0.027453257
171	0x3c85cda5	0.01633341
172	0x3c87156c	0.016489707
173	0xbba92e3d	-0.0051629827
174	0xbc452cb9	-0.0120345885
175	0xbc473f34	-0.012161065
176	0x3ce2894a	0.027653355
177	0xbcb0109a	-0.021492291
178	0xbba5c6c1	-0.0050590937
179	0xbb9785fb	-0.004624126
180	0x3b24d893	0.0025153502
181	0x3c62225f	0.01380214
182	0xbc3c3436	-0.011487057
183	0xbd273829	-0.040825043
184	0x3bf4acb4	0.007466877
185	0x38fd89c1	0.00012089639
186	0xbc1dfdb9	-0.009643012
187	0xbad777fe	-0.0016438959
188	0x3c384291	0.011246339
189	0xbd000e31	-0.031263534
190	0xbcba8851	-0.022770079
191	0xbc0a809f	-0.008453517
192	0x3c592d5c	0.013255443
193	0xbc1604f0	-0.009156451
194	0xbbb5dfd2	-0.005550363
195	0x3cd6ba37	0.026211841
196	0x39be481b	0.00036293347
197	0x3c053e78	0.0081325695
198	0x3bb32b28	0.005467791
199	0x3d0d72a8	0.034533173
200	0x3d2b4936	0.041817866
201	0x3c7eb68d	0.015546453
202	0x3d29dfac	0.041473076
203	0x3cc46edc	0.023978643
204	0xba44c1cf	-0.00075056864
205	0x3d17b2cf	0.03703576
206	0xbc980ac3	-0.01855982
207	0x3b458b68	0.0030142907
208	0xbcb95799	-0.022624778
209	0xbb8ab5b5	-0.004233087
210	0xbb2c28b7	-0.0026269385
211	0x3cd20679	0.025637852
212	0xbbbadb0a	-0.005702381
213	0x3d20d896	0.039269052
214	0xbbcf3d65	-0.0063244575
215	0x3c88dd45	0.016707072
216	0xbcb96422	-0.022630755
217	0xbb86412e	-0.0040971255
218	0x3b0e19e4	0.0021682912
219	0x3bf1116c	0.007356813
220	0xbc842a92	-0.01613358
221	0x38dddf25	0.00010579665
222	0x3cb139e9	0.021634059
223	0x3c68c818	0.014207862
224	0xbbb4bc08	-0.005515579
225	0x3c86430b	0.01638939
226	0x3b2e3339	0.0026580824
227	0x3a9128c1	0.0011074768
228	0xbcbf1e9b	-0.023330024
229	0x3cbd9666	0.023143005
230	0x3a9ee758	0.0012123389
231	0x3b7fd4e0	0.0039036795
232	0x3d5d787b	0.054069977
233	0xbd13ee7a	-0.0361161
234	0x3c305465	0.010762309
235	0x3cb62b99	0.022237586
236	0x3b6b506e	0.0035906094
237	0x3c982b69	0.018575387
238	0xbcac6619	-0.021044778
239	0x3cbe2995	0.023213187
240	0xbc3c3e3d	-0.011489448
241	0xbb43fccf	-0.0029905324
242	0x3cb0c14d	0.021576548
243	0x3d05ce62	0.032667525
244	0xbbbcfe84	-0.0057676453
245	0x3cce41d5	0.025177876
246	0xbb61d329	-0.0034458137
247	0x3bc800ce	0.0061036116
248	0x3ce984b4	0.02850566
249	0xbb85d017	-0.004083644
250	0xbc9e7d13	-0.01934675
251	0xbbcf82a8	-0.006332714
252	0xbbb56c3c	-0.005536584
253	0x3b359fa0	0.0027713552
254	0x3b1395f2	0.0022519794
255	0x3bba5c84	0.0056872983

action_model._continuous_distribution.mu.bias f4 [3]
0	0xbbb2c60d	-0.0054557384
1	0xbbde1a2f	-0.0067780237
2	0x3ae733af	0.0017639304
