results/Test29/-1235.onnx (onnx, 75159 bytes, 6 tensors)

network_body._body_endoder.seq_layers.0.weight f4 [128, 6]
00000000: 4018 243f 52f3 1d3e 9f72 64be 83bb a6be
00000010: 774d b0bd 8057 023f 1e4e 173f c5e6 eb3e
00000020: a517 1f3d 56ba 3fbf f9dc 343e f522 b4bd
00000030: 6e8b d9be 250a 36bd fd77 b83e c451 cb3d
00000040: 83d3 c4be 2094 06bd b041 e73d bee0 ffbd
00000050: d05f 2cbf c840 9e3e 5a8b 033e 1ace b2be
00000060: 5498 0d3e 539f 763e 5543 f33d 3831 05be
00000070: e1b7 7bbe ad2c 12bd ab77 97be 88d2 f33d
00000080: 957b 703e 1fa0 9e3e 94a7 ec3e d87d fa3e
00000090: f540 98be 7f77 5d3f def7 0a3f fe66 043d
000000a0: 81bb 6cbe b4d0 de3d ce55 1abc 682e 0d3f
000000b0: cb62 1f3e a357 593e 72f2 83bc 3267 85bc
000000c0: aa9b c0ba 226f 503e 7d35 973e 5553 19bf
000000d0: 2cab 14bf 027e b03d b4c6 5abf b6a2 4dbf
000000e0: f55a e63e 4180 bf3e ddb1 4fbe a60b 043f
000000f0: f4b5 acbe 1719 e83e fbc3 34bf 3407 02bf
00000100: 95b6 4e3e 1028 a03c adf1 773e dfa2 d5be
00000110: 4837 cf3e b56d c7be 7f78 a5bd 66bd d33c
00000120: 88e2 b23c e132 953e 3d55 b23e 45e7 04bf
00000130: 16cf 01bf 2de3 f2be 94ae d4be 798e 3dbc
00000140: 14af a2be 48f2 db3e d34a 473e 4fca 153f
00000150: 3d1c f7be 4e33 11bf 8060 dbbe 7416 593d
00000160: 42bc 07be c5e3 833e 8cb8 fb3e a9de a1bd
00000170: 2b9f 9bbe 45cb 2abe 936c 9dbe 0289 3ebe
00000180: fba7 1c3e 4e0a 17be 733b 87be 21d1 30be
00000190: e556 f8be 3fd6 8ebe 4737 c1be 4b25 8abe
000001a0: e122 f0be 2c2b 933e 2382 01bf 641b 473e
000001b0: ff09 dfbd 2e7b 8b3d 612c 813f b09e 073f
000001c0: 87bb 6dbe 5466 aa3e d33b 003f 819a 203e
000001d0: f666 50be 966b 463e e1ef f3be 404b 223f
000001e0: 3118 333e 13ba 71bf 6033 9f3e f59b fbbe
000001f0: 8c30 98be 9ef4 80be 15f1 47be 60ac 9abe
00000200: b16e 133e 5b64 bebe b3bc 01bf 5553 953d
00000210: 8045 b43e 3a23 dd3c 7890 823e 6030 603e
00000220: 1b08 ebbe 8b57 403e e348 a33e 21bf b1bd
00000230: 8871 123f d4d4 ab3e 2982 d43e 9cf7 a1ba
00000240: e32f 193f 8571 ed3b 7edd c4bd 2cb4 a03a
00000250: 5d57 353f c440 ea3e ed84 ee3e 721f 01bf
00000260: a19d d93e b052 38bf 7028 8b3d 6a3b 63be
00000270: c4f4 02bf b475 00be e828 5e3e 6ce3 7f3e
00000280: 1b50 ad3e 0da6 8bbe 5e09 a43d d768 2e3c
00000290: 1383 643e d926 cf3c 181d debe 6474 0abf
000002a0: d193 04bf 5da0 47be d3e2 413f 24c4 3f3d
000002b0: 8646 96bd cdb3 113e 2639 b93e a471 64be
000002c0: 3c6d 193e cd27 733e 1206 d1be 1a96 863f
000002d0: ad1a 9e3e 3ce1 ce3d 6795 103f a1f1 afbe
000002e0: 2ad9 32bf 345f 023e 33d9 87be aad8 9ebe
000002f0: 4052 79bf 70e8 02bf 92bc f23e fefe 073e
00000300: 559d 44be d591 ebbe e83f fe3e eeab a0be
00000310: cf45 77bd 09fe c3be 997b f9be 285c a03c
00000320: 16a8 98be 7d01 843e 8a33 d0be e3ac 06be
00000330: 2500 13bf 8194 65bf ab33 c43d 7d55 a53d
00000340: 0290 f9be 05f6 cc3e 9ab1 adbe 417d 0ebe
00000350: c43f 983e 97f6 a03e d427 db3d c54a c1be
00000360: 2fa9 253f 31de 3f3d ed75 0f3e 762a 413d
00000370: 6f9e 8fbd fc94 4ebe d69d 77bc 38b3 1abf
00000380: 4b29 9abd cfe0 67bf 2548 59be 9e73 b6be
00000390: 432c 7d3e 54be aebe 063f 853e 7f26 f93e
000003a0: e41d 953e 062c 68be a7aa bbbe 3951 38be
000003b0: 41b3 f43b 5e03 b83e 48ee 21be f375 30bf
000003c0: 8a8c 0cbd d3f7 91bd a9a7 653e bafa 96bd
000003d0: 61b3 a7bd cbf0 8abd 3247 2c3d 462f 3d3f
000003e0: fe0f f6be 6dc5 0e3f 0203 16be cc20 e0be
000003f0: 850b 173e 23a0 71be 579d 8b3f 849b fdbe
0.640995 0.1542485 -0.2230935 -0.32564935 -0.08608525 0.50914764 0.5910357 0.460745
0.03884091 -0.748937 0.1766242 -0.0879573 -0.4248919 -0.04444327 0.36029044 0.09927705
-0.3844262 -0.032856107 0.11291826 -0.12494038 -0.673337 0.309088 0.12846127 -0.34922868
0.1382764 0.24084215 0.11878077 -0.13007057 -0.24581863 -0.035687137 -0.29583487 0.1190539
0.23484643 0.30981538 0.46221602 0.48924136 -0.29737058 0.8651046 0.54284465 0.032324784
-0.23118402 0.10879651 -0.0094198715 0.55148935 0.1556503 0.21224837 -0.016106818 -0.016284559
-0.0014694829 0.20354894 0.29532996 -0.5989278 -0.5807369 0.08617784 -0.85459447 -0.803264
0.4499127 0.37402537 -0.20282693 0.51580274 -0.3373257 0.45331642 -0.7061154 -0.5079224
0.20186837 0.019550353 0.24213286 -0.41725823 0.40471864 -0.38950887 -0.080796234 0.025847148
0.021836534 0.2914038 0.34830657 -0.5191539 -0.50706613 -0.47438946 -0.41539443 -0.011569613
-0.317742 0.42958283 0.19462137 0.58511823 -0.48263732 -0.5671891 -0.4284706 0.05299993
-0.13255408 0.25759712 0.49164236 -0.07903797 -0.30394873 -0.16679104 -0.30746898 -0.18606952
0.15298454 -0.14750025 -0.26412544 -0.17267276 -0.48503795 -0.27897832 -0.37737486 -0.26981577
-0.4690161 0.28743875 -0.505892 0.19444042 -0.108905785 0.06810604 1.0091668 0.5297651
-0.23216067 0.33281195 0.50091285 0.15683939 -0.20351776 0.19376978 -0.4764395 0.6339607
0.17489697 -0.9442455 0.31093884 -0.49142423 -0.29724538 -0.25186628 -0.19525559 -0.30209637
0.14397694 -0.3718594 -0.5067856 0.07291285 0.35209274 0.026994336 0.25500846 0.21893454
-0.4590462 0.18783395 0.31891546 -0.08679033 0.57204485 0.33560812 0.41505554 -0.0012357119
0.59838694 0.0072461986 -0.09612559 0.0012260727 0.7083643 0.45752537 0.4658579 -0.50438607
0.42503074 -0.7200117 0.06794822 -0.22190633 -0.5115473 -0.125449 0.21695292 0.24989098
0.33850178 -0.27275124 0.08009599 0.010645113 0.22315626 0.025287079 -0.43381572 -0.5408385
-0.5178805 -0.19494767 0.7573673 0.046817914 -0.0733767 0.14228745 0.36176413 -0.22308975
0.14983076 0.23745652 -0.40824944 1.0514557 0.30879727 0.10101554 0.5647797 -0.34364036
-0.69862616 0.1273163 -0.26532897 -0.31024677 -0.9739113 -0.5113592 0.47409493 0.13280866
-0.19200642 -0.460097 0.49658132 -0.31381172 -0.06036931 -0.3827975 -0.4872711 0.019575194
-0.2981574 0.25782385 -0.4066432 -0.13151889 -0.57422096 -0.89679724 0.095801674 0.08072946
-0.48742682 0.40031448 -0.33924562 -0.13914968 0.2973615 0.31438133 0.10700956 -0.37752357
0.6471128 0.046842758 0.14009829 0.047159635 -0.07012641 -0.2017402 -0.015113315 -0.60429716
-0.07527407 -0.90577406 -0.21218927 -0.35635084 0.24723916 -0.34129584 0.26024646 0.48662183
0.29124367 -0.22673044 -0.36653635 -0.17999734 0.007467658 0.3594007 -0.15813553 -0.68929976
-0.034313716 -0.07127347 0.22427239 -0.07372041 -0.08188511 -0.06784209 0.042060085 0.7390026
-0.48059076 0.5577 -0.14649585 -0.43775022 0.14750488 -0.23596244 1.0907391 -0.49532712

network_body._body_endoder.seq_layers.0.bias f4 [128]
00000000: 0000 0000 0000 0000 0000 0000 0000 0000
00000010: 0000 0000 0000 0000 0000 0000 0000 0000
00000020: 0000 0000 0000 0000 0000 0000 0000 0000
00000030: 0000 0000 0000 0000 0000 0000 0000 0000
00000040: 0000 0000 0000 0000 0000 0000 0000 0000
00000050: 0000 0000 0000 0000 0000 0000 0000 0000
00000060: 0000 0000 0000 0000 0000 0000 0000 0000
00000070: 0000 0000 0000 0000 0000 0000 0000 0000
00000080: 0000 0000 0000 0000 0000 0000 0000 0000
00000090: 0000 0000 0000 0000 0000 0000 0000 0000
000000a0: 0000 0000 0000 0000 0000 0000 0000 0000
000000b0: 0000 0000 0000 0000 0000 0000 0000 0000
000000c0: 0000 0000 0000 0000 0000 0000 0000 0000
000000d0: 0000 0000 0000 0000 0000 0000 0000 0000
000000e0: 0000 0000 0000 0000 0000 0000 0000 0000
000000f0: 0000 0000 0000 0000 0000 0000 0000 0000
00000100: 0000 0000 0000 0000 0000 0000 0000 0000
00000110: 0000 0000 0000 0000 0000 0000 0000 0000
00000120: 0000 0000 0000 0000 0000 0000 0000 0000
00000130: 0000 0000 0000 0000 0000 0000 0000 0000
00000140: 0000 0000 0000 0000 0000 0000 0000 0000
00000150: 0000 0000 0000 0000 0000 0000 0000 0000
00000160: 0000 0000 0000 0000 0000 0000 0000 0000
00000170: 0000 0000 0000 0000 0000 0000 0000 0000
00000180: 0000 0000 0000 0000 0000 0000 0000 0000
00000190: 0000 0000 0000 0000 0000 0000 0000 0000
000001a0: 0000 0000 0000 0000 0000 0000 0000 0000
000001b0: 0000 0000 0000 0000 0000 0000 0000 0000
000001c0: 0000 0000 0000 0000 0000 0000 0000 0000
000001d0: 0000 0000 0000 0000 0000 0000 0000 0000
000001e0: 0000 0000 0000 0000 0000 0000 0000 0000
000001f0: 0000 0000 0000 0000 0000 0000 0000 0000
0.0 0.0 0.0 0.0 0.0 0.0 0.0 0.0
0.0 0.0 0.0 0.0 0.0 0.0 0.0 0.0
0.0 0.0 0.0 0.0 0.0 0.0 0.0 0.0
0.0 0.0 0.0 0.0 0.0 0.0 0.0 0.0
0.0 0.0 0.0 0.0 0.0 0.0 0.0 0.0
0.0 0.0 0.0 0.0 0.0 0.0 0.0 0.0
0.0 0.0 0.0 0.0 0.0 0.0 0.0 0.0
0.0 0.0 0.0 0.0 0.0 0.0 0.0 0.0
0.0 0.0 0.0 0.0 0.0 0.0 0.0 0.0
0.0 0.0 0.0 0.0 0.0 0.0 0.0 0.0
0.0 0.0 0.0 0.0 0.0 0.0 0.0 0.0
0.0 0.0 0.0 0.0 0.0 0.0 0.0 0.0
0.0 0.0 0.0 0.0 0.0 0.0 0.0 0.0
0.0 0.0 0.0 0.0 0.0 0.0 0.0 0.0
0.0 0.0 0.0 0.0 0.0 0.0 0.0 0.0
0.0 0.0 0.0 0.0 0.0 0.0 0.0 0.0

network_body._body_endoder.seq_layers.2.weight f4 [128, 128]
00000000: 3f8e ab3d 7da7 3ebd 6579 2a3e fc55 86bd
00000010: 0e9a 06bb bf1b fb3d e7a7 2b3e 5e28 84bb
00000020: bce6 43bc a525 8cbc a351 873d 8a88 423d
00000030: ed8d e33d a273 ca3d 8529 b33d f9a3 543b
00000040: 039b 5c3d ba9d 1e3d 1873 acbd 51b3 8e3d
00000050: 8194 8a3c 7972 41bd 4ce2 15bd 2100 8ebd
00000060: bc36 053e 28c6 0d3d 3b0e 95bd 7dc3 8bbd
00000070: 143e 443d b89a 01be 0ac1 293e 2d4d 57bd
00000080: 87d6 203e ff99 3fbe 5815 363d 7211 e43d
00000090: 335c 233d 20f6 e63b 8e28 babd 640a 4a3b
000000a0: 54f7 50bd 223b b03d 57d0 ffbd ed2e 52be
000000b0: 2072 5fbd 0c02 e73d 175b 35be 19cf 14be
000000c0: d2ae aabd cdad 75bc 040a 4c3e 4c21 183d
000000d0: 9d3a 48bd 5cb4 92bc 56fb 2a3c 7226 3cbe
000000e0: ba4f abbc c912 913c f11c 9b3c 8c86 46bd
000000f0: f02d 96bd 1588 833d 1012 c63d b088 f6bd
00000100: d0d5 3ebe e9c0 b13d 645e 143d 5583 2bbc
00000110: d267 103d 8d18 1fbe 8c97 b1bc 92b5 b6bd
00000120: d1aa b5bd 6a22 083d 93ec cfbd aa95 b0bd
00000130: 4eb8 a03d a7ef 433d fc87 2cbe cdfd 073e
00000140: d44a 413d 66aa 12bd 2ffd 903d 2215 e33c
00000150: c9dc 313d bcdf 8b3a 67e0 853d f675 9bbd
00000160: 7833 6bbd 39aa 7bbc a362 693d 6358 343e
00000170: 3be6 ac3d cd6a 89bd e2f6 083d 2b93 51bc
00000180: 24c4 fb3d 70d3 d13d c9a7 11be 48da c9bc
00000190: 09ae 01be 804f 86bc 6f99 253e 7776 f63c
000001a0: 5c8e 2f3e 21cd a23d 62d6 fb3d d100 9b3d
000001b0: 4ec6 17ba 61f0 1cbd 82c0 0d3d 8956 893d
000001c0: c66a f5bc d099 863d 75b3 e53c b06c 493d
000001d0: f2a4 403d b1e1 c33c 1767 833d 2171 c6bd
000001e0: d054 e8bd ff93 cfbd 7240 ad3d 6b33 57be
000001f0: ff24 5b3b 48a7 4d3d 8981 1abe c142 c13c
00000200: 83d8 0f3d 4706 10be 1705 0e3d 8e26 233d
00000210: 688e eb3b 2d72 523c b436 903b 08db c3bc
00000220: 3e79 e0bd 6fec 16bd 8480 a3bc 97d4 d6bc
00000230: ae41 e7bc 22ce 783d 0339 9fbd bf8a 4b3c
00000240: 2239 183e a555 ccbd d415 0a3e b529 c5bd
00000250: be74 9ebd 22f8 6fbd a995 b8bd e185 0e3c
00000260: 6c35 88bd c4bb 86bd 8b99 41be 93a1 0bbe
00000270: 1960 8bbd 95b6 5a3e 96cd 81bd 9b79 13be
00000280: 0e0f 873c 5645 79bc 0e93 2b3a 3b72 25be
00000290: 5220 c6bc 0ff4 ec3d 7783 8e3d b975 663e
000002a0: e2db 713d f813 41be ebf8 81bc 19a2 223e
000002b0: 17e3 573a 412a ebbd a539 db3d e31d e83d
000002c0: 7057 c2bd cc0a 0a3d cd15 683e 1acd 833d
000002d0: 80a5 95bd 3a84 a83d 94bf 8f3d f3cf c8bd
000002e0: fb75 5f3d 743c 373d 2e68 dcbc 7e5b 4f3d
000002f0: be32 6c3d 5dd5 193d ce20 fc3c eacc e8bc
00000300: bb25 a2bd 11f2 9abe 580f 513d 982f d3bd
00000310: e339 73bd f620 353d c93e 413c 5370 c6bd
00000320: c599 21bd 40cd f23d 2a60 d4bd 2830 e23c
00000330: 58f9 9fbb 3c09 433d 3fb1 f4bd 3475 653d
00000340: f71e 22bd 925b 383d 469d ddbd b003 ff3d
00000350: 1f47 403d f66a 5f3c b9cf c8bd b2da aa3d
00000360: 515c c8bd 1d82 45bd 94dc 46bd 10c8 38bc
00000370: 1fbd 6ebe 5898 32bc 3fc1 163d 5abb e9bc
00000380: 0f93 27be 0b99 bf3d 8ec8 163d a023 6d3e
00000390: 1603 923c 6f55 c7bc 648f 31bd b6cf 7e3d
000003a0: 6fc4 d83c 9673 3a3c d16c 1cbd fe53 983c
000003b0: 5d0c 92bd bc1d 08be f4e9 083e f164 11be
000003c0: 415e 2dbe f138 e7bc ac86 ff3d e6a7 2d3e
000003d0: 17c5 e4bc f9e9 8d3d 94e5 78bd 6a1d c5bd
000003e0: 3124 1d3e 09ba 4cbd 4fd8 3b3e 19b5 e5bd
000003f0: e510 f4bd 2edc 61bd f76b dbbd 8786 eebb
0.08376741 -0.046546448 0.16647871 -0.06559369 -0.00205386 0.122611515 0.16763268 -0.0040331325
-0.011956867 -0.017107794 0.06607368 0.047493495 0.111110546 0.098853365 0.087481536 0.0032446368
0.05385877 0.03872464 -0.0842039 0.06967796 0.016916515 -0.04722831 -0.036592767 -0.06933618
0.13009161 0.034612805 -0.07278105 -0.06824396 0.047910765 -0.12656677 0.16577545 -0.052563835
0.15706836 -0.18711089 0.04445395 0.1113614 0.03988285 0.0070483834 -0.090897664 0.0030828947
-0.05101712 0.08605029 -0.124909095 -0.20525713 -0.054552197 0.11279687 -0.1771053 -0.14532126
-0.083341256 -0.014995051 0.19925696 0.03714113 -0.048884023 -0.017908268 0.0104359 -0.1837404
-0.02091204 0.017709153 0.018934699 -0.048468158 -0.07332981 0.0642244 0.09671414 -0.1203779
-0.1863625 0.08679373 0.03622283 -0.010468324 0.03525526 -0.15536709 -0.021678708 -0.089213505
-0.08870471 0.033235945 -0.10152545 -0.08622296 0.07847653 0.047835972 -0.16848749 0.13280411
0.047190502 -0.035807036 0.07079541 0.027720038 0.043423448 0.0010671536 0.06536942 -0.07590859
-0.05742213 -0.015360408 0.056978833 0.17611842 0.084423505 -0.06709824 0.03343857 -0.012791435
0.1229327 0.10245407 -0.14224161 -0.024640217 -0.12664045 -0.01639533 0.16171812 0.030085785
0.1714415 0.079492815 0.1229675 0.07568515 -0.00057897426 -0.03831518 0.034607418 0.067059584
-0.02995814 0.06572306 0.028039673 0.049175918 0.047032304 0.023911329 0.06416147 -0.096895464
-0.11344302 -0.1013565 0.084595576 -0.21015708 0.00334388 0.05020836 -0.15088476 0.023591401
0.03511859 -0.14064895 0.034672823 0.03983169 0.007188607 0.012844604 0.0044010524 -0.023908153
-0.10960625 -0.036846574 -0.019958742 -0.026224418 -0.02822956 0.06074346 -0.07774546 0.012423216
0.14865544 -0.09977273 0.1348489 -0.096270956 -0.077371106 -0.058586247 -0.090129204 0.008698911
-0.066508144 -0.06578782 -0.18906228 -0.13635854 -0.068054385 0.21358712 -0.063380405 -0.14401858
0.01648667 -0.015214285 0.0006545045 -0.16156857 -0.024185333 0.11569988 0.06958669 0.22505845
0.059047587 -0.18855274 -0.015865764 0.15882148 0.0008235438 -0.11482669 0.10704354 0.113338254
-0.09489334 0.033701703 0.22664566 0.064356044 -0.07306957 0.08228345 0.070189625 -0.09805288
0.054555874 0.044735387 -0.026905145 0.050624363 0.05766558 0.037556995 0.030777361 -0.028418023
-0.07917353 -0.30262807 0.051040024 -0.10311812 -0.059381377 0.044220887 0.011794754 -0.09689393
-0.039453287 0.118555546 -0.10369904 0.027610853 -0.004882019 0.04761623 -0.119478695 0.056019977
-0.03958031 0.045009203 -0.10821013 0.12451875 0.046942826 0.013636341 -0.09805245 0.08342494
-0.09783233 -0.04821979 -0.048550203 -0.011278167 -0.23314331 -0.010900579 0.036805388 -0.028531719
-0.16364692 0.093553625 0.036812358 0.23158121 0.017823737 -0.02433273 -0.04334964 0.062209807
0.026460854 0.011380097 -0.038189713 0.018594738 -0.07131264 -0.13292593 0.13370496 -0.14198662
-0.16930486 -0.028225394 0.124768585 0.1695858 -0.027926011 0.06929392 -0.060765818 -0.09624751
0.15345837 -0.049982104 0.18344234 -0.11216182 -0.11917285 -0.05514162 -0.10713952 -0.0072792205

action_model._continuous_distribution.log_sigma f4 [1, 3]
00000000: 0000 0000 0000 0000 0000 0000
0.0 0.0 0.0

action_model._continuous_distribution.mu.weight f4 [3, 128]
00000000: 2bcf bc3c 3a08 6dbb c60c 94bb 5536 633b
00000010: fa7e fc3c ee27 0cbc 5f06 773c 1946 10bc
00000020: 48f2 50bd 0fd8 76bc a3b0 8d3c 3a7a 123b
00000030: df95 0f3c 3eba 02bc 7f76 20bb 6fa2 d4bc
00000040: cd5b 44bc 3dc1 91bb 02d4 73bc 7ad5 1fbc
00000050: 27ea 34bc 3f4b 9d3c 43d9 21bd 1228 63bc
00000060: 55d5 cc3c a649 28b9 a065 49bb 001e ad3b
00000070: 8290 a93c 6fd5 313c efed 59bb 77db 023b
00000080: 0bff c63c bff7 603b a3c1 92ba f148 9d3c
00000090: 6f83 a0bb 8aef 723c 0fcc 51bc db62 403c
000000a0: 9e24 c3bc 3958 123d a2fa 07bb ccbc 813c
000000b0: 8b36 80bc e752 953b 58b7 57bd 332b 903c
000000c0: 3c1c a6bc 5f0d f23c 9ff8 8b3c 2ddf 063d
000000d0: 75a2 86bc 2837 0d3b ff49 3b3c 307c 8dbb
000000e0: c09a 703c 0759 df3c daee 97bb 1935 983b
000000f0: 8878 ebbb 0d26 1cbd 4ca8 bebc fa79 6bbc
00000100: fce7 a5bc 2ab6 81ba d381 85bc 5744 9f3c
00000110: 963e 17bd 75e6 5f3b c2b3 afbc d9cc 1cbd
00000120: a748 f8bb 2a5f fcbb 3848 613c 5099 cd3c
00000130: 299b bb3b acd9 a338 0840 00bd 9fe3 3fbc
00000140: 3572 e2bb aa8a 153c 80ed 7abc 9d08 b43c
00000150: 9b6e 0939 1dd3 f9bb 4987 073c 7a47 fb3b
00000160: d784 6cbc 2032 5fbc 71e6 00bc a0dc 7b3c
00000170: d0c0 64bc d73e 27bc e89b 1d3d 1f43 c9b9
00000180: 3c23 063c ead5 8f3c 5659 013c 2282 083d
00000190: 7fab 503c 0749 b03c 3519 83bc ce0b c43c
000001a0: 1850 7dbc 3306 563c 9eaf 48bc 9a94 383c
000001b0: 97b3 6f3b ef0b 34bc 2574 d0bb eeee 183c
000001c0: a0e8 f13c 8fac 86bc 65b1 953c 1028 623b
000001d0: 3fdb 86bb bf98 bbb8 2510 fabc b18d 44ba
000001e0: 27e8 90bc d914 8b3b 5e92 c63c faa6 74bb
000001f0: 3a3b 8d3b 7ffe 2ebd b27f 8c3c 6ba7 88bc
00000200: b38c 9b3c aa65 7f3c 7cdd 13bc fea5 983b
00000210: 46d9 3a3c 3bcb 9f3c 03ae 0c3d 78ca 64ba
00000220: 256e 703b c95f b6bc 15d1 9dbc 4d99 ec3b
00000230: d5f2 dc3c b01a e3bc 40e3 46ba d2da be3c
00000240: e0ea c4bb 98de 1ebb 3561 3d3c 32c1 f8bc
00000250: 780f f03c 2a4e 80bb cf9f 6fbc 8b30 3e3c
00000260: 1f1c ffb8 78e0 c1ba fae6 163b fccb 813c
00000270: 0376 1cbc d7fe 0a3d 30ac 5c3c 035d 1bbc
00000280: 61dd 0f3a 4dc8 4bbc 4202 9d3a 2c06 43bc
00000290: 8cf3 a4bc c3e9 b73c cf1e 633c 05d6 55bc
000002a0: 59ec 173c a3bc 37bc 34ad 91bc e3cc b13c
000002b0: 9f38 083b 0362 283c 3bd2 07bb 3400 133c
000002c0: a6c5 893c e7c3 5cbc 784a 1ebc 107a 223c
000002d0: 89d2 9c3c 3bf0 1b3c 5582 183b cd1b 9e3c
000002e0: 0b52 9a3a 23a1 9c3b e809 f43b da89 dbbb
000002f0: 8893 b13b cad3 433c a474 9fbb 2f45 1dbb
00000300: 3f71 66bc c5b9 8d3b 3e1e a5bc cd7f 9b3a
00000310: fd8c d0bc 25ec 053d c429 28bc 90e3 133b
00000320: 6dc6 59bc f8be 783b d169 c73c 7393 48bc
00000330: efea 863b d7c5 073c a3cd a8bc 0876 573c
00000340: ed68 e5bc 6d78 ce3b 4a25 b9bc b157 bdbc
00000350: 0aca d1bc a53a ad3c 966d 00bd f659 07bc
00000360: 8dc0 efba 8407 893b 747e b0bc b997 a4bc
00000370: a76c 803c 7662 a0bc e198 c43a 26d0 0b3c
00000380: 3aea d73c 090f 843c 73dc 33bc b276 3c3c
00000390: 9581 5eba ad02 763c addb 24bb 06d3 143b
000003a0: 168c 323c f012 e2bb ff99 d8bb a301 54bb
000003b0: d0af 04bb 8737 5dbc 25bf 16bc bbcc 96bb
000003c0: 83d0 053d cc75 01bc 7b09 603a e4ee 3bbd
000003d0: 5db3 833c 6d8a cb3b 16dd 9c3b a279 5c3b
000003e0: 3bb7 073b 8196 80bc faf8 bc3c 397e c63c
000003f0: 46fe 45bc 770c 44bb b860 013b a8ac e8bb
0.023048004 -0.0036168233 -0.0045181243 0.0034669836 0.030822266 -0.008554442 0.015077203 -0.008805775
-0.051012307 -0.015066161 0.017296141 0.0022350685 0.008763759 -0.007978974 -0.0024484692 -0.02595636
-0.011984778 -0.0044480846 -0.01488209 -0.009755487 -0.011042154 0.01920092 -0.039513838 -0.013864534
0.025004068 -0.00016049165 -0.003073074 0.0052831173 0.02069879 0.010854109 -0.0033253392 0.0019967237
0.024291536 0.0034327356 -0.0011196624 0.01919982 -0.0048984806 0.014827618 -0.012804999 0.011742319
-0.023821171 0.035728667 -0.0020748754 0.015837096 -0.015651008 0.004557002 -0.052665085 0.017598724
-0.020277135 0.029547391 0.017086325 0.03292768 -0.016434887 0.0021547768 0.011431216 -0.004317783
0.014685333 0.027264131 -0.0046366276 0.0046450016 -0.0071859993 -0.038122226 -0.02327361 -0.014372343
-0.02025222 -0.0009896208 -0.016297257 0.019441767 -0.03692492 0.0034164463 -0.02144802 -0.038281295
-0.00757702 -0.007701774 0.013750128 0.02509752 0.0057252836 7.81299e-05 -0.031311065 -0.011711984
-0.006910587 0.009127298 -0.0153154135 0.021976763 0.00013106542 -0.0076240436 0.008272001 0.007668433
-0.014435968 -0.013622791 -0.0078674415 0.015372425 -0.013961986 -0.010207853 0.038478762 -0.00038387717
0.0081871115 0.017558057 0.0078948345 0.03332723 0.0127362 0.021519197 -0.01600323 0.02393141
-0.01546099 0.013063001 -0.012248902 0.011265898 0.003657555 -0.010989173 -0.0063615018 0.009334309
0.02952987 -0.016439704 0.018273065 0.0034508742 -0.0041154916 -8.945306e-05 -0.030525276 -0.00074979203
-0.017688824 0.0042444286 0.024239715 -0.003733097 0.004310039 -0.042723175 0.017150734 -0.016681394
0.018987989 0.015588203 -0.009024974 0.0046584597 0.011404341 0.019506088 0.034345638 -0.000872768
0.0036686745 -0.02226247 -0.019264737 0.0072204233 0.02697126 -0.027722687 -0.00075869635 0.023297701
-0.0060094446 -0.0024241563 0.0115588205 -0.03036556 0.029304251 -0.003915568 -0.014625504 0.011608253
-0.000121645855 -0.0014791628 0.0023025856 0.015844338 -0.009549621 0.03393444 0.013468787 -0.009482625
0.0005488005 -0.012437892 0.0011978822 -0.011903327 -0.020135663 0.022450333 0.013862326 -0.0130515145
0.009272658 -0.011214408 -0.017782785 0.021704143 0.0020785702 0.010277274 -0.0020724672 0.008972216
0.016817879 -0.013474441 -0.009661309 0.009916797 0.01914336 0.009517725 0.0023271043 0.019300366
0.0011773718 0.004779951 0.00744747 -0.006699783 0.0054191984 0.01195235 -0.0048661996 -0.0023997535
-0.014065086 0.004325124 -0.020156022 0.0011863649 -0.025457853 0.032695908 -0.010263864 0.0022566058
-0.013291937 0.0037955623 0.02434245 -0.012242186 0.0041173617 0.008286915 -0.020605868 0.013150699
-0.028004134 0.006300977 -0.022600789 -0.023113104 -0.025609035 0.021146128 -0.03135451 -0.008261194
-0.0018291638 0.004181804 -0.021544673 -0.020091878 0.01567681 -0.0195782 0.0014999175 0.008533513
0.026356805 0.01612045 -0.010977852 0.011502909 -0.0008487937 0.015015286 -0.002515535 0.0022708788
0.010897657 -0.00689923 -0.0066101546 -0.0032349608 -0.0020246394 -0.013502008 -0.009200846 -0.0046020425
0.032669555 -0.00790162 0.00085463346 -0.04588212 0.016076738 0.00621157 0.0047870977 0.0033641835
0.002070858 -0.015696766 0.02306794 0.02423011 -0.012084549 -0.0029914656 0.0019741487 -0.0071006604

action_model._continuous_distribution.mu.bias f4 [3]
00000000: 0000 0000 0000 0000 0000 0000
0.0 0.0 0.0
