results/Test29/checkpoint.pt (torch, 149922 bytes, 12 tensors)

network_body._body_endoder.seq_layers.0.weight f4 [128, 6]
0	0x3f241840	0.640995
1	0x3e1df352	0.1542485
2	0xbe64729f	-0.2230935
3	0xbea6bb83	-0.32564935
4	0xbdb04d77	-0.08608525
5	0x3f025780	0.50914764
6	0x3f174e1e	0.5910357
7	0x3eebe6c5	0.460745
8	0x3d1f17a5	0.03884091
9	0xbf3fba56	-0.748937
10	0x3e34dcf9	0.1766242
11	0xbdb422f5	-0.0879573
12	0xbed98b6e	-0.4248919
13	0xbd360a25	-0.04444327
14	0x3eb877fd	0.36029044
15	0x3dcb51c4	0.09927705
16	0xbec4d383	-0.3844262
17	0xbd069420	-0.032856107
18	0x3de741b0	0.11291826
19	0xbdffe0be	-0.12494038
20	0xbf2c5fd0	-0.673337
21	0x3e9e40c8	0.309088
22	0x3e038b5a	0.12846127
23	0xbeb2ce1a	-0.34922868
24	0x3e0d9854	0.1382764
25	0x3e769f53	0.24084215
26	0x3df34355	0.11878077
27	0xbe053138	-0.13007057
28	0xbe7bb7e1	-0.24581863
29	0xbd122cad	-0.035687137
30	0xbe9777ab	-0.29583487
31	0x3df3d288	0.1190539
32	0x3e707b95	0.23484643
33	0x3e9ea01f	0.30981538
34	0x3eeca794	0.46221602
35	0x3efa7dd8	0.48924136
36	0xbe9840f5	-0.29737058
37	0x3f5d777f	0.8651046
38	0x3f0af7de	0.54284465
39	0x3d0466fe	0.032324784
40	0xbe6cbb81	-0.23118402
41	0x3dded0b4	0.10879651
42	0xbc1a55ce	-0.0094198715
43	0x3f0d2e68	0.55148935
44	0x3e1f62cb	0.1556503
45	0x3e5957a3	0.21224837
46	0xbc83f272	-0.016106818
47	0xbc856732	-0.016284559
48	0xbac09baa	-0.0014694829
49	0x3e506f22	0.20354894
50	0x3e97357d	0.29532996
51	0xbf195355	-0.5989278
52	0xbf14ab2c	-0.5807369
53	0x3db07e02	0.08617784
54	0xbf5ac6b4	-0.85459447
55	0xbf4da2b6	-0.803264
56	0x3ee65af5	0.4499127
57	0x3ebf8041	0.37402537
58	0xbe4fb1dd	-0.20282693
59	0x3f040ba6	0.51580274
60	0xbeacb5f4	-0.3373257
61	0x3ee81917	0.45331642
62	0xbf34c3fb	-0.7061154
63	0xbf020734	-0.5079224
64	0x3e4eb695	0.20186837
65	0x3ca02810	0.019550353
66	0x3e77f1ad	0.24213286
67	0xbed5a2df	-0.41725823
68	0x3ecf3748	0.40471864
69	0xbec76db5	-0.38950887
70	0xbda5787f	-0.080796234
71	0x3cd3bd66	0.025847148
72	0x3cb2e288	0.021836534
73	0x3e9532e1	0.2914038
74	0x3eb2553d	0.34830657
75	0xbf04e745	-0.5191539
76	0xbf01cf16	-0.50706613
77	0xbef2e32d	-0.47438946
78	0xbed4ae94	-0.41539443
79	0xbc3d8e79	-0.011569613
80	0xbea2af14	-0.317742
81	0x3edbf248	0.42958283
82	0x3e474ad3	0.19462137
83	0x3f15ca4f	0.58511823
84	0xbef71c3d	-0.48263732
85	0xbf11334e	-0.5671891
86	0xbedb6080	-0.4284706
87	0x3d591674	0.05299993
88	0xbe07bc42	-0.13255408
89	0x3e83e3c5	0.25759712
90	0x3efbb88c	0.49164236
91	0xbda1dea9	-0.07903797
92	0xbe9b9f2b	-0.30394873
93	0xbe2acb45	-0.16679104
94	0xbe9d6c93	-0.30746898
95	0xbe3e8902	-0.18606952
96	0x3e1ca7fb	0.15298454
97	0xbe170a4e	-0.14750025
98	0xbe873b73	-0.26412544
99	0xbe30d121	-0.17267276
100	0xbef856e5	-0.48503795
101	0xbe8ed63f	-0.27897832
102	0xbec13747	-0.37737486
103	0xbe8a254b	-0.26981577
104	0xbef022e1	-0.4690161
105	0x3e932b2c	0.28743875
106	0xbf018223	-0.505892
107	0x3e471b64	0.19444042
108	0xbddf09ff	-0.108905785
109	0x3d8b7b2e	0.06810604
110	0x3f812c61	1.0091668
111	0x3f079eb0	0.5297651
112	0xbe6dbb87	-0.23216067
113	0x3eaa6654	0.33281195
114	0x3f003bd3	0.50091285
115	0x3e209a81	0.15683939
116	0xbe5066f6	-0.20351776
117	0x3e466b96	0.19376978
118	0xbef3efe1	-0.4764395
119	0x3f224b40	0.6339607
120	0x3e331831	0.17489697
121	0xbf71ba13	-0.9442455
122	0x3e9f3360	0.31093884
123	0xbefb9bf5	-0.49142423
124	0xbe98308c	-0.29724538
125	0xbe80f49e	-0.25186628
126	0xbe47f115	-0.19525559
127	0xbe9aac60	-0.30209637
128	0x3e136eb1	0.14397694
129	0xbebe645b	-0.3718594
130	0xbf01bcb3	-0.5067856
131	0x3d955355	0.07291285
132	0x3eb44580	0.35209274
133	0x3cdd233a	0.026994336
134	0x3e829078	0.25500846
135	0x3e603060	0.21893454
136	0xbeeb081b	-0.4590462
137	0x3e40578b	0.18783395
138	0x3ea348e3	0.31891546
139	0xbdb1bf21	-0.08679033
140	0x3f127188	0.57204485
141	0x3eabd4d4	0.33560812
142	0x3ed48229	0.41505554
143	0xbaa1f79c	-0.0012357119
144	0x3f192fe3	0.59838694
145	0x3bed7185	0.0072461986
146	0xbdc4dd7e	-0.09612559
147	0x3aa0b42c	0.0012260727
148	0x3f35575d	0.7083643
149	0x3eea40c4	0.45752537
150	0x3eee84ed	0.4658579
151	0xbf011f72	-0.50438607
152	0x3ed99da1	0.42503074
153	0xbf3852b0	-0.7200117
154	0x3d8b2870	0.06794822
155	0xbe633b6a	-0.22190633
156	0xbf02f4c4	-0.5115473
157	0xbe0075b4	-0.125449
158	0x3e5e28e8	0.21695292
159	0x3e7fe36c	0.24989098
160	0x3ead501b	0.33850178
161	0xbe8ba60d	-0.27275124
162	0x3da4095e	0.08009599
163	0x3c2e68d7	0.010645113
164	0x3e648313	0.22315626
165	0x3ccf26d9	0.025287079
166	0xbede1d18	-0.43381572
167	0xbf0a7464	-0.5408385
168	0xbf0493d1	-0.5178805
169	0xbe47a05d	-0.19494767
170	0x3f41e2d3	0.7573673
171	0x3d3fc424	0.046817914
172	0xbd964686	-0.0733767
173	0x3e11b3cd	0.14228745
174	0x3eb93926	0.36176413
175	0xbe6471a4	-0.22308975
176	0x3e196d3c	0.14983076
177	0x3e7327cd	0.23745652
178	0xbed10612	-0.40824944
179	0x3f86961a	1.0514557
180	0x3e9e1aad	0.30879727
181	0x3dcee13c	0.10101554
182	0x3f109567	0.5647797
183	0xbeaff1a1	-0.34364036
184	0xbf32d92a	-0.69862616
185	0x3e025f34	0.1273163
186	0xbe87d933	-0.26532897
187	0xbe9ed8aa	-0.31024677
188	0xbf795240	-0.9739113
189	0xbf02e870	-0.5113592
190	0x3ef2bc92	0.47409493
191	0x3e07fefe	0.13280866
192	0xbe449d55	-0.19200642
193	0xbeeb91d5	-0.460097
194	0x3efe3fe8	0.49658132
195	0xbea0abee	-0.31381172
196	0xbd7745cf	-0.06036931
197	0xbec3fe09	-0.3827975
198	0xbef97b99	-0.4872711
199	0x3ca05c28	0.019575194
200	0xbe98a816	-0.2981574
201	0x3e84017d	0.25782385
202	0xbed0338a	-0.4066432
203	0xbe06ace3	-0.13151889
204	0xbf130025	-0.57422096
205	0xbf659481	-0.89679724
206	0x3dc433ab	0.095801674
207	0x3da5557d	0.08072946
208	0xbef99002	-0.48742682
209	0x3eccf605	0.40031448
210	0xbeadb19a	-0.33924562
211	0xbe0e7d41	-0.13914968
212	0x3e983fc4	0.2973615
213	0x3ea0f697	0.31438133
214	0x3ddb27d4	0.10700956
215	0xbec14ac5	-0.37752357
216	0x3f25a92f	0.6471128
217	0x3d3fde31	0.046842758
218	0x3e0f75ed	0.14009829
219	0x3d412a76	0.047159635
220	0xbd8f9e6f	-0.07012641
221	0xbe4e94fc	-0.2017402
222	0xbc779dd6	-0.015113315
223	0xbf1ab338	-0.60429716
224	0xbd9a294b	-0.07527407
225	0xbf67e0cf	-0.90577406
226	0xbe594825	-0.21218927
227	0xbeb6739e	-0.35635084
228	0x3e7d2c43	0.24723916
229	0xbeaebe54	-0.34129584
230	0x3e853f06	0.26024646
231	0x3ef9267f	0.48662183
232	0x3e951de4	0.29124367
233	0xbe682c06	-0.22673044
234	0xbebbaaa7	-0.36653635
235	0xbe385139	-0.17999734
236	0x3bf4b341	0.007467658
237	0x3eb8035e	0.3594007
238	0xbe21ee48	-0.15813553
239	0xbf3075f3	-0.68929976
240	0xbd0c8c8a	-0.034313716
241	0xbd91f7d3	-0.07127347
242	0x3e65a7a9	0.22427239
243	0xbd96faba	-0.07372041
244	0xbda7b361	-0.08188511
245	0xbd8af0cb	-0.06784209
246	0x3d2c4732	0.042060085
247	0x3f3d2f46	0.7390026
248	0xbef60ffe	-0.48059076
249	0x3f0ec56d	0.5577
250	0xbe160302	-0.14649585
251	0xbee020cc	-0.43775022
252	0x3e170b85	0.14750488
253	0xbe71a023	-0.23596244
254	0x3f8b9d57	1.0907391
255	0xbefd9b84	-0.49532712

network_body._body_endoder.seq_layers.0.bias f4 [128]
0	0x00000000	0.0
1	0x00000000	0.0
2	0x00000000	0.0
3	0x00000000	0.0
4	0x00000000	0.0
5	0x00000000	0.0
6	0x00000000	0.0
7	0x00000000	0.0
8	0x00000000	0.0
9	0x00000000	0.0
10	0x00000000	0.0
11	0x00000000	0.0
12	0x00000000	0.0
13	0x00000000	0.0
14	0x00000000	0.0
15	0x00000000	0.0
16	0x00000000	0.0
17	0x00000000	0.0
18	0x00000000	0.0
19	0x00000000	0.0
20	0x00000000	0.0
21	0x00000000	0.0
22	0x00000000	0.0
23	0x00000000	0.0
24	0x00000000	0.0
25	0x00000000	0.0
26	0x00000000	0.0
27	0x00000000	0.0
28	0x00000000	0.0
29	0x00000000	0.0
30	0x00000000	0.0
31	0x00000000	0.0
32	0x00000000	0.0
33	0x00000000	0.0
34	0x00000000	0.0
35	0x00000000	0.0
36	0x00000000	0.0
37	0x00000000	0.0
38	0x00000000	0.0
39	0x00000000	0.0
40	0x00000000	0.0
41	0x00000000	0.0
42	0x00000000	0.0
43	0x00000000	0.0
44	0x00000000	0.0
45	0x00000000	0.0
46	0x00000000	0.0
47	0x00000000	0.0
48	0x00000000	0.0
49	0x00000000	0.0
50	0x00000000	0.0
51	0x00000000	0.0
52	0x00000000	0.0
53	0x00000000	0.0
54	0x00000000	0.0
55	0x00000000	0.0
56	0x00000000	0.0
57	0x00000000	0.0
58	0x00000000	0.0
59	0x00000000	0.0
60	0x00000000	0.0
61	0x00000000	0.0
62	0x00000000	0.0
63	0x00000000	0.0
64	0x00000000	0.0
65	0x00000000	0.0
66	0x00000000	0.0
67	0x00000000	0.0
68	0x00000000	0.0
69	0x00000000	0.0
70	0x00000000	0.0
71	0x00000000	0.0
72	0x00000000	0.0
73	0x00000000	0.0
74	0x00000000	0.0
75	0x00000000	0.0
76	0x00000000	0.0
77	0x00000000	0.0
78	0x00000000	0.0
79	0x00000000	0.0
80	0x00000000	0.0
81	0x00000000	0.0
82	0x00000000	0.0
83	0x00000000	0.0
84	0x00000000	0.0
85	0x00000000	0.0
86	0x00000000	0.0
87	0x00000000	0.0
88	0x00000000	0.0
89	0x00000000	0.0
90	0x00000000	0.0
91	0x00000000	0.0
92	0x00000000	0.0
93	0x00000000	0.0
94	0x00000000	0.0
95	0x00000000	0.0
96	0x00000000	0.0
97	0x00000000	0.0
98	0x00000000	0.0
99	0x00000000	0.0
100	0x00000000	0.0
101	0x00000000	0.0
102	0x00000000	0.0
103	0x00000000	0.0
104	0x00000000	0.0
105	0x00000000	0.0
106	0x00000000	0.0
107	0x00000000	0.0
108	0x00000000	0.0
109	0x00000000	0.0
110	0x00000000	0.0
111	0x00000000	0.0
112	0x00000000	0.0
113	0x00000000	0.0
114	0x00000000	0.0
115	0x00000000	0.0
116	0x00000000	0.0
117	0x00000000	0.0
118	0x00000000	0.0
119	0x00000000	0.0
120	0x00000000	0.0
121	0x00000000	0.0
122	0x00000000	0.0
123	0x00000000	0.0
124	0x00000000	0.0
125	0x00000000	0.0
126	0x00000000	0.0
127	0x00000000	0.0

network_body._body_endoder.seq_layers.2.weight f4 [128, 128]
0	0x3dab8e3f	0.08376741
1	0xbd3ea77d	-0.046546448
2	0x3e2a7965	0.16647871
3	0xbd8655fc	-0.06559369
4	0xbb069a0e	-0.00205386
5	0x3dfb1bbf	0.122611515
6	0x3e2ba7e7	0.16763268
7	0xbb84285e	-0.0040331325
8	0xbc43e6bc	-0.011956867
9	0xbc8c25a5	-0.017107794
10	0x3d8751a3	0.06607368
11	0x3d42888a	0.047493495
12	0x3de38ded	0.111110546
13	0x3dca73a2	0.098853365
14	0x3db32985	0.087481536
15	0x3b54a3f9	0.0032446368
16	0x3d5c9b03	0.05385877
17	0x3d1e9dba	0.03872464
18	0xbdac7318	-0.0842039
19	0x3d8eb351	0.06967796
20	0x3c8a9481	0.016916515
21	0xbd417279	-0.04722831
22	0xbd15e24c	-0.036592767
23	0xbd8e0021	-0.06933618
24	0x3e0536bc	0.13009161
25	0x3d0dc628	0.034612805
26	0xbd950e3b	-0.07278105
27	0xbd8bc37d	-0.06824396
28	0x3d443e14	0.047910765
29	0xbe019ab8	-0.12656677
30	0x3e29c10a	0.16577545
31	0xbd574d2d	-0.052563835
32	0x3e20d687	0.15706836
33	0xbe3f99ff	-0.18711089
34	0x3d361558	0.04445395
35	0x3de41172	0.1113614
36	0x3d235c33	0.03988285
37	0x3be6f620	0.0070483834
38	0xbdba288e	-0.090897664
39	0x3b4a0a64	0.0030828947
40	0xbd50f754	-0.05101712
41	0x3db03b22	0.08605029
42	0xbdffd057	-0.124909095
43	0xbe522eed	-0.20525713
44	0xbd5f7220	-0.054552197
45	0x3de7020c	0.11279687
46	0xbe355b17	-0.1771053
47	0xbe14cf19	-0.14532126
48	0xbdaaaed2	-0.083341256
49	0xbc75adcd	-0.014995051
50	0x3e4c0a04	0.19925696
51	0x3d18214c	0.03714113
52	0xbd483a9d	-0.048884023
53	0xbc92b45c	-0.017908268
54	0x3c2afb56	0.0104359
55	0xbe3c2672	-0.1837404
56	0xbcab4fba	-0.02091204
57	0x3c9112c9	0.017709153
58	0x3c9b1cf1	0.018934699
59	0xbd46868c	-0.048468158
60	0xbd962df0	-0.07332981
61	0x3d838815	0.0642244
62	0x3dc61210	0.09671414
63	0xbdf688b0	-0.1203779
64	0xbe3ed5d0	-0.1863625
65	0x3db1c0e9	0.08679373
66	0x3d145e64	0.03622283
67	0xbc2b8355	-0.010468324
68	0x3d1067d2	0.03525526
69	0xbe1f188d	-0.15536709
70	0xbcb1978c	-0.021678708
71	0xbdb6b592	-0.089213505
72	0xbdb5aad1	-0.08870471
73	0x3d08226a	0.033235945
74	0xbdcfec93	-0.10152545
75	0xbdb095aa	-0.08622296
76	0x3da0b84e	0.07847653
77	0x3d43efa7	0.047835972
78	0xbe2c87fc	-0.16848749
79	0x3e07fdcd	0.13280411
80	0x3d414ad4	0.047190502
81	0xbd12aa66	-0.035807036
82	0x3d90fd2f	0.07079541
83	0x3ce31522	0.027720038
84	0x3d31dcc9	0.043423448
85	0x3a8bdfbc	0.0010671536
86	0x3d85e067	0.06536942
87	0xbd9b75f6	-0.07590859
88	0xbd6b3378	-0.05742213
89	0xbc7baa39	-0.015360408
90	0x3d6962a3	0.056978833
91	0x3e345863	0.17611842
92	0x3dace63b	0.084423505
93	0xbd896acd	-0.06709824
94	0x3d08f6e2	0.03343857
95	0xbc51932b	-0.012791435
96	0x3dfbc424	0.1229327
97	0x3dd1d370	0.10245407
98	0xbe11a7c9	-0.14224161
99	0xbcc9da48	-0.024640217
100	0xbe01ae09	-0.12664045
101	0xbc864f80	-0.01639533
102	0x3e25996f	0.16171812
103	0x3cf67677	0.030085785
104	0x3e2f8e5c	0.1714415
105	0x3da2cd21	0.079492815
106	0x3dfbd662	0.1229675
107	0x3d9b00d1	0.07568515
108	0xba17c64e	-0.00057897426
109	0xbd1cf061	-0.03831518
110	0x3d0dc082	0.034607418
111	0x3d895689	0.067059584
112	0xbcf56ac6	-0.02995814
113	0x3d8699d0	0.06572306
114	0x3ce5b375	0.028039673
115	0x3d496cb0	0.049175918
116	0x3d40a4f2	0.047032304
117	0x3cc3e1b1	0.023911329
118	0x3d836717	0.06416147
119	0xbdc67121	-0.096895464
120	0xbde854d0	-0.11344302
121	0xbdcf93ff	-0.1013565
122	0x3dad4072	0.084595576
123	0xbe57336b	-0.21015708
124	0x3b5b24ff	0.00334388
125	0x3d4da748	0.05020836
126	0xbe1a8189	-0.15088476
127	0x3cc142c1	0.023591401
128	0x3d0fd883	0.03511859
129	0xbe100647	-0.14064895
130	0x3d0e0517	0.034672823
131	0x3d23268e	0.03983169
132	0x3beb8e68	0.007188607
133	0x3c52722d	0.012844604
134	0x3b9036b4	0.0044010524
135	0xbcc3db08	-0.023908153
136	0xbde0793e	-0.10960625
137	0xbd16ec6f	-0.036846574
138	0xbca38084	-0.019958742
139	0xbcd6d497	-0.026224418
140	0xbce741ae	-0.02822956
141	0x3d78ce22	0.06074346
142	0xbd9f3903	-0.07774546
143	0x3c4b8abf	0.012423216
144	0x3e183922	0.14865544
145	0xbdcc55a5	-0.09977273
146	0x3e0a15d4	0.1348489
147	0xbdc529b5	-0.096270956
148	0xbd9e74be	-0.077371106
149	0xbd6ff822	-0.058586247
150	0xbdb895a9	-0.090129204
151	0x3c0e85e1	0.008698911
152	0xbd88356c	-0.066508144
153	0xbd86bbc4	-0.06578782
154	0xbe41998b	-0.18906228
155	0xbe0ba193	-0.13635854
156	0xbd8b6019	-0.068054385
157	0x3e5ab695	0.21358712
158	0xbd81cd96	-0.063380405
159	0xbe13799b	-0.14401858
160	0x3c870f0e	0.01648667
161	0xbc794556	-0.015214285
162	0x3a2b930e	0.0006545045
163	0xbe25723b	-0.16156857
164	0xbcc62052	-0.024185333
165	0x3decf40f	0.11569988
166	0x3d8e8377	0.06958669
167	0x3e6675b9	0.22505845
168	0x3d71dbe2	0.059047587
169	0xbe4113f8	-0.18855274
170	0xbc81f8eb	-0.015865764
171	0x3e22a219	0.15882148
172	0x3a57e317	0.0008235438
173	0xbdeb2a41	-0.11482669
174	0x3ddb39a5	0.10704354
175	0x3de81de3	0.113338254
176	0xbdc25770	-0.09489334
177	0x3d0a0acc	0.033701703
178	0x3e6815cd	0.22664566
179	0x3d83cd1a	0.064356044
180	0xbd95a580	-0.07306957
181	0x3da8843a	0.08228345
182	0x3d8fbf94	0.070189625
183	0xbdc8cff3	-0.09805288
184	0x3d5f75fb	0.054555874
185	0x3d373c74	0.044735387
186	0xbcdc682e	-0.026905145
187	0x3d4f5b7e	0.050624363
188	0x3d6c32be	0.05766558
189	0x3d19d55d	0.037556995
190	0x3cfc20ce	0.030777361
191	0xbce8ccea	-0.028418023
192	0xbda225bb	-0.07917353
193	0xbe9af211	-0.30262807
194	0x3d510f58	0.051040024
195	0xbdd32f98	-0.10311812
196	0xbd7339e3	-0.059381377
197	0x3d3520f6	0.044220887
198	0x3c413ec9	0.011794754
199	0xbdc67053	-0.09689393
200	0xbd2199c5	-0.039453287
201	0x3df2cd40	0.118555546
202	0xbdd4602a	-0.10369904
203	0x3ce23028	0.027610853
204	0xbb9ff958	-0.004882019
205	0x3d43093c	0.04761623
206	0xbdf4b13f	-0.119478695
207	0x3d657534	0.056019977
208	0xbd221ef7	-0.03958031
209	0x3d385b92	0.045009203
210	0xbddd9d46	-0.10821013
211	0x3dff03b0	0.12451875
212	0x3d40471f	0.046942826
213	0x3c5f6af6	0.013636341
214	0xbdc8cfb9	-0.09805245
215	0x3daadab2	0.08342494
216	0xbdc85c51	-0.09783233
217	0xbd45821d	-0.04821979
218	0xbd46dc94	-0.048550203
219	0xbc38c810	-0.011278167
220	0xbe6ebd1f	-0.23314331
221	0xbc329858	-0.010900579
222	0x3d16c13f	0.036805388
223	0xbce9bb5a	-0.028531719
224	0xbe27930f	-0.16364692
225	0x3dbf990b	0.093553625
226	0x3d16c88e	0.036812358
227	0x3e6d23a0	0.23158121
228	0x3c920316	0.017823737
229	0xbcc7556f	-0.02433273
230	0xbd318f64	-0.04334964
231	0x3d7ecfb6	0.062209807
232	0x3cd8c46f	0.026460854
233	0x3c3a7396	0.011380097
234	0xbd1c6cd1	-0.038189713
235	0x3c9853fe	0.018594738
236	0xbd920c5d	-0.07131264
237	0xbe081dbc	-0.13292593
238	0x3e08e9f4	0.13370496
239	0xbe1164f1	-0.14198662
240	0xbe2d5e41	-0.16930486
241	0xbce738f1	-0.028225394
242	0x3dff86ac	0.124768585
243	0x3e2da7e6	0.1695858
244	0xbce4c517	-0.027926011
245	0x3d8de9f9	0.06929392
246	0xbd78e594	-0.060765818
247	0xbdc51d6a	-0.09624751
248	0x3e1d2431	0.15345837
249	0xbd4cba09	-0.049982104
250	0x3e3bd84f	0.18344234
251	0xbde5b519	-0.11216182
252	0xbdf410e5	-0.11917285
253	0xbd61dc2e	-0.05514162
254	0xbddb6bf7	-0.10713952
255	0xbbee8687	-0.0072792205

network_body._body_endoder.seq_layers.2.bias f4 [128]
0	0x00000000	0.0
1	0x00000000	0.0
2	0x00000000	0.0
3	0x00000000	0.0
4	0x00000000	0.0
5	0x00000000	0.0
6	0x00000000	0.0
7	0x00000000	0.0
8	0x00000000	0.0
9	0x00000000	0.0
10	0x00000000	0.0
11	0x00000000	0.0
12	0x00000000	0.0
13	0x00000000	0.0
14	0x00000000	0.0
15	0x00000000	0.0
16	0x00000000	0.0
17	0x00000000	0.0
18	0x00000000	0.0
19	0x00000000	0.0
20	0x00000000	0.0
21	0x00000000	0.0
22	0x00000000	0.0
23	0x00000000	0.0
24	0x00000000	0.0
25	0x00000000	0.0
26	0x00000000	0.0
27	0x00000000	0.0
28	0x00000000	0.0
29	0x00000000	0.0
30	0x00000000	0.0
31	0x00000000	0.0
32	0x00000000	0.0
33	0x00000000	0.0
34	0x00000000	0.0
35	0x00000000	0.0
36	0x00000000	0.0
37	0x00000000	0.0
38	0x00000000	0.0
39	0x00000000	0.0
40	0x00000000	0.0
41	0x00000000	0.0
42	0x00000000	0.0
43	0x00000000	0.0
44	0x00000000	0.0
45	0x00000000	0.0
46	0x00000000	0.0
47	0x00000000	0.0
48	0x00000000	0.0
49	0x00000000	0.0
50	0x00000000	0.0
51	0x00000000	0.0
52	0x00000000	0.0
53	0x00000000	0.0
54	0x00000000	0.0
55	0x00000000	0.0
56	0x00000000	0.0
57	0x00000000	0.0
58	0x00000000	0.0
59	0x00000000	0.0
60	0x00000000	0.0
61	0x00000000	0.0
62	0x00000000	0.0
63	0x00000000	0.0
64	0x00000000	0.0
65	0x00000000	0.0
66	0x00000000	0.0
67	0x00000000	0.0
68	0x00000000	0.0
69	0x00000000	0.0
70	0x00000000	0.0
71	0x00000000	0.0
72	0x00000000	0.0
73	0x00000000	0.0
74	0x00000000	0.0
75	0x00000000	0.0
76	0x00000000	0.0
77	0x00000000	0.0
78	0x00000000	0.0
79	0x00000000	0.0
80	0x00000000	0.0
81	0x00000000	0.0
82	0x00000000	0.0
83	0x00000000	0.0
84	0x00000000	0.0
85	0x00000000	0.0
86	0x00000000	0.0
87	0x00000000	0.0
88	0x00000000	0.0
89	0x00000000	0.0
90	0x00000000	0.0
91	0x00000000	0.0
92	0x00000000	0.0
93	0x00000000	0.0
94	0x00000000	0.0
95	0x00000000	0.0
96	0x00000000	0.0
97	0x00000000	0.0
98	0x00000000	0.0
99	0x00000000	0.0
100	0x00000000	0.0
101	0x00000000	0.0
102	0x00000000	0.0
103	0x00000000	0.0
104	0x00000000	0.0
105	0x00000000	0.0
106	0x00000000	0.0
107	0x00000000	0.0
108	0x00000000	0.0
109	0x00000000	0.0
110	0x00000000	0.0
111	0x00000000	0.0
112	0x00000000	0.0
113	0x00000000	0.0
114	0x00000000	0.0
115	0x00000000	0.0
116	0x00000000	0.0
117	0x00000000	0.0
118	0x00000000	0.0
119	0x00000000	0.0
120	0x00000000	0.0
121	0x00000000	0.0
122	0x00000000	0.0
123	0x00000000	0.0
124	0x00000000	0.0
125	0x00000000	0.0
126	0x00000000	0.0
127	0x00000000	0.0

action_model._continuous_distribution.log_sigma f4 [1, 3]
0	0x00000000	0.0
1	0x00000000	0.0
2	0x00000000	0.0

action_model._continuous_distribution.mu.weight f4 [3, 128]
0	0x3cbccf2b	0.023048004
1	0xbb6d083a	-0.0036168233
2	0xbb940cc6	-0.0045181243
3	0x3b633655	0.0034669836
4	0x3cfc7efa	0.030822266
5	0xbc0c27ee	-0.008554442
6	0x3c77065f	0.015077203
7	0xbc104619	-0.008805775
8	0xbd50f248	-0.051012307
9	0xbc76d80f	-0.015066161
10	0x3c8db0a3	0.017296141
11	0x3b127a3a	0.0022350685
12	0x3c0f95df	0.008763759
13	0xbc02ba3e	-0.007978974
14	0xbb20767f	-0.0024484692
15	0xbcd4a26f	-0.02595636
16	0xbc445bcd	-0.011984778
17	0xbb91c13d	-0.0044480846
18	0xbc73d402	-0.01488209
19	0xbc1fd57a	-0.009755487
20	0xbc34ea27	-0.011042154
21	0x3c9d4b3f	0.01920092
22	0xbd21d943	-0.039513838
23	0xbc632812	-0.013864534
24	0x3cccd555	0.025004068
25	0xb92849a6	-0.00016049165
26	0xbb4965a0	-0.003073074
27	0x3bad1e00	0.0052831173
28	0x3ca99082	0.02069879
29	0x3c31d56f	0.010854109
30	0xbb59edef	-0.0033253392
31	0x3b02db77	0.0019967237
32	0x3cc6ff0b	0.024291536
33	0x3b60f7bf	0.0034327356
34	0xba92c1a3	-0.0011196624
35	0x3c9d48f1	0.01919982
36	0xbba0836f	-0.0048984806
37	0x3c72ef8a	0.014827618
38	0xbc51cc0f	-0.012804999
39	0x3c4062db	0.011742319
40	0xbcc3249e	-0.023821171
41	0x3d125839	0.035728667
42	0xbb07faa2	-0.0020748754
43	0x3c81bccc	0.015837096
44	0xbc80368b	-0.015651008
45	0x3b9552e7	0.004557002
46	0xbd57b758	-0.052665085
47	0x3c902b33	0.017598724
48	0xbca61c3c	-0.020277135
49	0x3cf20d5f	0.029547391
50	0x3c8bf89f	0.017086325
51	0x3d06df2d	0.03292768
52	0xbc86a275	-0.016434887
53	0x3b0d3728	0.0021547768
54	0x3c3b49ff	0.011431216
55	0xbb8d7c30	-0.004317783
56	0x3c709ac0	0.014685333
57	0x3cdf5907	0.027264131
58	0xbb97eeda	-0.0046366276
59	0x3b983519	0.0046450016
60	0xbbeb7888	-0.0071859993
61	0xbd1c260d	-0.038122226
62	0xbcbea84c	-0.02327361
63	0xbc6b79fa	-0.014372343
64	0xbca5e7fc	-0.02025222
65	0xba81b62a	-0.0009896208
66	0xbc8581d3	-0.016297257
67	0x3c9f4457	0.019441767
68	0xbd173e96	-0.03692492
69	0x3b5fe675	0.0034164463
70	0xbcafb3c2	-0.02144802
71	0xbd1cccd9	-0.038281295
72	0xbbf848a7	-0.00757702
73	0xbbfc5f2a	-0.007701774
74	0x3c614838	0.013750128
75	0x3ccd9950	0.02509752
76	0x3bbb9b29	0.0057252836
77	0x38a3d9ac	7.81299e-05
78	0xbd004008	-0.031311065
79	0xbc3fe39f	-0.011711984
80	0xbbe27235	-0.006910587
81	0x3c158aaa	0.009127298
82	0xbc7aed80	-0.0153154135
83	0x3cb4089d	0.021976763
84	0x39096e9b	0.00013106542
85	0xbbf9d31d	-0.0076240436
86	0x3c078749	0.008272001
87	0x3bfb477a	0.007668433
88	0xbc6c84d7	-0.014435968
89	0xbc5f3220	-0.013622791
90	0xbc00e671	-0.0078674415
91	0x3c7bdca0	0.015372425
92	0xbc64c0d0	-0.013961986
93	0xbc273ed7	-0.010207853
94	0x3d1d9be8	0.038478762
95	0xb9c9431f	-0.00038387717
96	0x3c06233c	0.0081871115
97	0x3c8fd5ea	0.017558057
98	0x3c015956	0.0078948345
99	0x3d088222	0.03332723
100	0x3c50ab7f	0.0127362
101	0x3cb04907	0.021519197
102	0xbc831935	-0.01600323
103	0x3cc40bce	0.02393141
104	0xbc7d5018	-0.01546099
105	0x3c560633	0.013063001
106	0xbc48af9e	-0.012248902
107	0x3c38949a	0.011265898
108	0x3b6fb397	0.003657555
109	0xbc340bef	-0.010989173
110	0xbbd07425	-0.0063615018
111	0x3c18eeee	0.009334309
112	0x3cf1e8a0	0.02952987
113	0xbc86ac8f	-0.016439704
114	0x3c95b165	0.018273065
115	0x3b622810	0.0034508742
116	0xbb86db3f	-0.0041154916
117	0xb8bb98bf	-8.945306e-05
118	0xbcfa1025	-0.030525276
119	0xba448db1	-0.00074979203
120	0xbc90e827	-0.017688824
121	0x3b8b14d9	0.0042444286
122	0x3cc6925e	0.024239715
123	0xbb74a6fa	-0.003733097
124	0x3b8d3b3a	0.004310039
125	0xbd2efe7f	-0.042723175
126	0x3c8c7fb2	0.017150734
127	0xbc88a76b	-0.016681394
128	0x3c9b8cb3	0.018987989
129	0x3c7f65aa	0.015588203
130	0xbc13dd7c	-0.009024974
131	0x3b98a5fe	0.0046584597
132	0x3c3ad946	0.011404341
133	0x3c9fcb3b	0.019506088
134	0x3d0cae03	0.034345638
135	0xba64ca78	-0.000872768
136	0x3b706e25	0.0036686745
137	0xbcb65fc9	-0.02226247
138	0xbc9dd115	-0.019264737
139	0x3bec994d	0.0072204233
140	0x3cdcf2d5	0.02697126
141	0xbce31ab0	-0.027722687
142	0xba46e340	-0.00075869635
143	0x3cbedad2	0.023297701
144	0xbbc4eae0	-0.0060094446
145	0xbb1ede98	-0.0024241563
146	0x3c3d6135	0.0115588205
147	0xbcf8c132	-0.03036556
148	0x3cf00f78	0.029304251
149	0xbb804e2a	-0.003915568
150	0xbc6f9fcf	-0.014625504
151	0x3c3e308b	0.011608253
152	0xb8ff1c1f	-0.000121645855
153	0xbac1e078	-0.0014791628
154	0x3b16e6fa	0.0023025856
155	0x3c81cbfc	0.015844338
156	0xbc1c7603	-0.009549621
157	0x3d0afed7	0.03393444
158	0x3c5cac30	0.013468787
159	0xbc1b5d03	-0.009482625
160	0x3a0fdd61	0.0005488005
161	0xbc4bc84d	-0.012437892
162	0x3a9d0242	0.0011978822
163	0xbc43062c	-0.011903327
164	0xbca4f38c	-0.020135663
165	0x3cb7e9c3	0.022450333
166	0x3c631ecf	0.013862326
167	0xbc55d605	-0.0130515145
168	0x3c17ec59	0.009272658
169	0xbc37bca3	-0.011214408
170	0xbc91ad34	-0.017782785
171	0x3cb1cce3	0.021704143
172	0x3b08389f	0.0020785702
173	0x3c286203	0.010277274
174	0xbb07d23b	-0.0020724672
175	0x3c130034	0.008972216
176	0x3c89c5a6	0.016817879
177	0xbc5cc3e7	-0.013474441
178	0xbc1e4a78	-0.009661309
179	0x3c227a10	0.009916797
180	0x3c9cd289	0.01914336
181	0x3c1bf03b	0.009517725
182	0x3b188255	0.0023271043
183	0x3c9e1bcd	0.019300366
184	0x3a9a520b	0.0011773718
185	0x3b9ca123	0.004779951
186	0x3bf409e8	0.00744747
187	0xbbdb89da	-0.006699783
188	0x3bb19388	0.0054191984
189	0x3c43d3ca	0.01195235
190	0xbb9f74a4	-0.0048661996
191	0xbb1d452f	-0.0023997535
192	0xbc66713f	-0.014065086
193	0x3b8db9c5	0.004325124
194	0xbca51e3e	-0.020156022
195	0x3a9b7fcd	0.0011863649
196	0xbcd08cfd	-0.025457853
197	0x3d05ec25	0.032695908
198	0xbc2829c4	-0.010263864
199	0x3b13e390	0.0022566058
200	0xbc59c66d	-0.013291937
201	0x3b78bef8	0.0037955623
202	0x3cc769d1	0.02434245
203	0xbc489373	-0.012242186
204	0x3b86eaef	0.0041173617
205	0x3c07c5d7	0.008286915
206	0xbca8cda3	-0.020605868
207	0x3c577608	0.013150699
208	0xbce568ed	-0.028004134
209	0x3bce786d	0.006300977
210	0xbcb9254a	-0.022600789
211	0xbcbd57b1	-0.023113104
212	0xbcd1ca0a	-0.025609035
213	0x3cad3aa5	0.021146128
214	0xbd006d96	-0.03135451
215	0xbc0759f6	-0.008261194
216	0xbaefc08d	-0.0018291638
217	0x3b890784	0.004181804
218	0xbcb07e74	-0.021544673
219	0xbca497b9	-0.020091878
220	0x3c806ca7	0.01567681
221	0xbca06276	-0.0195782
222	0x3ac498e1	0.0014999175
223	0x3c0bd026	0.008533513
224	0x3cd7ea3a	0.026356805
225	0x3c840f09	0.01612045
226	0xbc33dc73	-0.010977852
227	0x3c3c76b2	0.011502909
228	0xba5e8195	-0.0008487937
229	0x3c7602ad	0.015015286
230	0xbb24dbad	-0.002515535
231	0x3b14d306	0.0022708788
232	0x3c328c16	0.010897657
233	0xbbe212f0	-0.00689923
234	0xbbd899ff	-0.0066101546
235	0xbb5401a3	-0.0032349608
236	0xbb04afd0	-0.0020246394
237	0xbc5d3787	-0.013502008
238	0xbc16bf25	-0.009200846
239	0xbb96ccbb	-0.0046020425
240	0x3d05d083	0.032669555
241	0xbc0175cc	-0.00790162
242	0x3a60097b	0.00085463346
243	0xbd3beee4	-0.04588212
244	0x3c83b35d	0.016076738
245	0x3bcb8a6d	0.00621157
246	0x3b9cdd16	0.0047870977
247	0x3b5c79a2	0.0033641835
248	0x3b07b73b	0.002070858
249	0xbc809681	-0.015696766
250	0x3cbcf8fa	0.02306794
251	0x3cc67e39	0.02423011
252	0xbc45fe46	-0.012084549
253	0xbb440c77	-0.0029914656
254	0x3b0160b8	0.0019741487
255	0xbbe8aca8	-0.0071006604

action_model._continuous_distribution.mu.bias f4 [3]
0	0x00000000	0.0
1	0x00000000	0.0
2	0x00000000	0.0

network_body._body_endoder.seq_layers.0.weight f4 [128, 6]
0	0x3f1d0a93	0.6134426
1	0x3f0a6149	0.54054695
2	0x3f0c7a28	0.54873896
3	0xbf2d264a	-0.6763655
4	0x3ef97984	0.48725522
5	0xbef96df5	-0.48716703
6	0x3e76f5e5	0.24117239
7	0x3f104cbe	0.563671
8	0x3e9762a3	0.2956744
9	0xbdb7ff44	-0.08984235
10	0x3eda0ff0	0.42590284
11	0xbe939daf	-0.2883124
12	0x3d7627b6	0.060096465
13	0xbf48d88f	-0.7845544
14	0xbe9a8b23	-0.30184278
15	0xbc14c23c	-0.009079512
16	0xbc82cbf5	-0.015966395
17	0xbd6d41d8	-0.05792412
18	0x3e8e72e0	0.27822018
19	0x3ecd2a4b	0.4007133
20	0xbf1e5aa2	-0.61857045
21	0xbf3a1194	-0.7268307
22	0xbe98cb98	-0.2984283
23	0x3edc70da	0.4305485
24	0xbc9a7b25	-0.018857548
25	0xbe6c628a	-0.23084465
26	0xbddacf2f	-0.106840484
27	0x3bb5b2bd	0.005544989
28	0xbe688a19	-0.2270893
29	0xbce68d02	-0.02814341
30	0x3ef28b79	0.47372034
31	0x3e209c8b	0.15684716
32	0xbf155a8d	-0.58341295
33	0x3e9cbebe	0.30614275
34	0x3e843fe1	0.25829986
35	0xbf3d715d	-0.74001104
36	0x3d66aeab	0.05631892
37	0x3d50db1c	0.05099021
38	0x3ea085ed	0.31352177
39	0x3df5a1fc	0.11993787
40	0xbe69a363	-0.22816233
41	0x3eb32fdf	0.3499746
42	0xbe0d752e	-0.13814232
43	0xbecf34c9	-0.4046996
44	0x3e823799	0.25433043
45	0xbf2675c2	-0.65023434
46	0xbe952a77	-0.2913396
47	0x3dbc62ed	0.09198556
48	0xbf598f65	-0.8498443
49	0x3e32f64a	0.17476764
50	0xbe3035eb	-0.17208068
51	0x3f1cd707	0.61265606
52	0xbd7ef501	-0.062245373
53	0xbf1655cd	-0.5872467
54	0x3f313f9d	0.6923769
55	0x3f11e325	0.5698722
56	0xbe5bb01a	-0.21453896
57	0xbdef8931	-0.11696089
58	0x3ba1563e	0.004923611
59	0x3f06da7a	0.5267712
60	0xbeeaf33b	-0.45888695
61	0xbda810ab	-0.08206304
62	0xbebeb076	-0.37244004
63	0xbe698a55	-0.22806676
64	0x3e5c8829	0.21536316
65	0xbef7847a	-0.4834326
66	0x3ee06f99	0.43835142
67	0x3ec658b6	0.38739556
68	0xbec7dcb4	-0.3903557
69	0x3e875630	0.26432943
70	0x3ef54b7e	0.47909158
71	0x3e89bb49	0.269007
72	0x3f4d85d7	0.8028235
73	0xbe30e260	-0.17273855
74	0x3de562b3	0.11200466
75	0xbef160c8	-0.4714415
76	0x3e50fcd3	0.20408945
77	0x3ddef454	0.10886446
78	0xbebcdd02	-0.36887366
79	0x3e2f0822	0.17092946
80	0xbf121f1a	-0.5707871
81	0x3e22f01d	0.15911908
82	0xbf7489d2	-0.955228
83	0x3ea0aa7e	0.31380075
84	0x3f037ff0	0.5136709
85	0xbe5d171b	-0.21590845
86	0x3e20adef	0.1569135
87	0xbee28ae6	-0.44246596
88	0x3f03d0da	0.5149056
89	0x3e5de67d	0.21669956
90	0x3e344b36	0.17606816
91	0x3e36f4cc	0.1786682
92	0x3dcfa96e	0.10139738
93	0xbd9b8d8b	-0.075953566
94	0x3d9a45cb	0.07532843
95	0x3e511623	0.204186
96	0x3cca86a6	0.024722409
97	0xbe6a69fb	-0.22891991
98	0xbf76aab1	-0.96354204
99	0xbedc13ca	-0.42983848
100	0xbe39ad6e	-0.18132564
101	0xbc2c61f7	-0.0105214035
102	0xbf8802be	-1.0625837
103	0x3e90cda4	0.2828189
104	0xbedf5db2	-0.4362617
105	0x3f269796	0.6507505
106	0x3f0e7f22	0.5566274
107	0x3c82daac	0.015973412
108	0x3e2c2a51	0.16813017
109	0xbb2b2a7c	-0.0026117852
110	0xbee46026	-0.44604605
111	0xbd103398	-0.035205454
112	0xbf3a69d9	-0.7281776
113	0xbecbf0fb	-0.3983229
114	0x3ec55ba6	0.38546485
115	0xbb71b341	-0.0036880525
116	0x3f0051d0	0.50124836
117	0x3db6677c	0.08906457
118	0x3f0e99ab	0.5570323
119	0xbde2d91b	-0.11076566
120	0xbe011ece	-0.12609407
121	0xbdf002d1	-0.11719287
122	0x3de3f417	0.11130541
123	0x3fc0add0	1.5053043
124	0xbd863d74	-0.0655469
125	0x3edce227	0.4314129
126	0xbe5b5420	-0.2141881
127	0x3e853dc7	0.26023695
128	0xbe897527	-0.26847193
129	0x3f2c540d	0.6731575
130	0xbe285b45	-0.16441067
131	0x3d628b52	0.055308647
132	0x3e5977bb	0.2123708
133	0x3e8bfbb8	0.27340484
134	0x3f106ef6	0.5641931
135	0x3e8d8713	0.27642116
136	0xbdb1713e	-0.08664177
137	0x3dc8ab69	0.09798319
138	0xbe86d0b7	-0.26331112
139	0xbf00207b	-0.5004956
140	0xbed7f634	-0.42180026
141	0xbd8aee7e	-0.0678377
142	0x3e99bbfc	0.30026233
143	0x3e87f517	0.26554176
144	0xbedc6b99	-0.4305084
145	0xbf6393d5	-0.8889745
146	0x3ec36323	0.38161573
147	0x3e1cb557	0.1530355
148	0x3f180e4f	0.59396833
149	0xbe65615c	-0.22400421
150	0xbe4e8fa1	-0.20171978
151	0x3e1dcce2	0.15410188
152	0xbf15610d	-0.5835121
153	0x3dea2648	0.11433083
154	0x3da4b744	0.08042768
155	0x3ead6817	0.33868477
156	0xbbd571a8	-0.006513793
157	0xbdd4e039	-0.103943296
158	0x3f313eec	0.69236636
159	0xbef76ebe	-0.48326677
160	0x3dd9f1e0	0.10641837
161	0xbeffcefc	-0.49962604
162	0xbe1d6c30	-0.15373302
163	0xbd958de5	-0.07302455
164	0xbdd89778	-0.10575765
165	0x3ec5ca9f	0.3863115
166	0xbe8a6b66	-0.27035064
167	0xbe97980f	-0.296082
168	0x3dffcacc	0.12489852
169	0xbdc47e71	-0.09594429
170	0x3ea08b01	0.31356052
171	0x3e554b7f	0.2082958
172	0xbf565107	-0.8371739
173	0xbe58d4f9	-0.21174993
174	0x3d8cd845	0.06877188
175	0xbe316c40	-0.1732645
176	0x3e59bbd3	0.21263056
177	0xbf1dbdac	-0.6161754
178	0xbeb2088a	-0.3477214
179	0xbf3c6e76	-0.7360605
180	0x3e07c584	0.1325894
181	0x3eb0d1a6	0.3453495
182	0x3d8e46f7	0.06947129
183	0x3e828ef6	0.25499696
184	0x3ee983c3	0.4560834
185	0xbf06056f	-0.5235204
186	0x3d90cba8	0.07070094
187	0x3ef6eb3f	0.48226354
188	0x3d43f92b	0.047845047
189	0x3d7ccc2c	0.06171815
190	0x3eab948c	0.3351177
191	0xbe9e4783	-0.30913934
192	0x3f066ffa	0.5251461
193	0xbe0520c3	-0.13000779
194	0x3b3890f0	0.0028162561
195	0xbd6f0fbf	-0.058364626
196	0xbe7b13e8	-0.24519312
197	0xbeb1fd12	-0.3476339
198	0xbc3ad820	-0.011404067
199	0xbe5522d5	-0.20814069
200	0xbe84bffc	-0.25927722
201	0xbc5a676b	-0.013330321
202	0xbefa8ce3	-0.48935613
203	0xbf41802c	-0.755862
204	0xbe0e093b	-0.13870709
205	0x3faccb99	1.3499633
206	0x3f379cf0	0.7172384
207	0x3ef9c5a9	0.48783615
208	0xbe9ee9a6	-0.31037635
209	0x3e829425	0.2550365
210	0x3f8cc71e	1.0998266
211	0xbde41211	-0.111362584
212	0xbec6d52e	-0.38834518
213	0xbeb2e360	-0.34939098
214	0xbeede9fa	-0.46467572
215	0xbdc25ed3	-0.094907425
216	0x3e8c67fb	0.2742308
217	0x3ecc5cd8	0.39914584
218	0x3e2c1d21	0.16807987
219	0xbef1bcdb	-0.47214398
220	0xbf5ad214	-0.85476804
221	0xbdbc6e2f	-0.09200703
222	0xbf214ea3	-0.63010615
223	0x3e8b9597	0.27262565
224	0xbf1058c9	-0.56385475
225	0xbea621bc	-0.32447612
226	0x3df495b6	0.119426176
227	0xbf0a0667	-0.5391602
228	0x3f01fc46	0.50775564
229	0xbda58f34	-0.080839545
230	0xbf2b74be	-0.6697501
231	0xbe05a7bb	-0.13052265
232	0xbec34e5d	-0.38145724
233	0x3f56c612	0.8389598
234	0xbd0d68c0	-0.034523726
235	0xbec99c5d	-0.39377108
236	0x3f306c82	0.6891557
237	0xbdd28d2d	-0.102808334
238	0xbea58a37	-0.32332012
239	0x3de12a9f	0.109944575
240	0x3eb9bf86	0.36278933
241	0x3f2a2715	0.66465884
242	0xbe4f5288	-0.20246327
243	0xbe4d5598	-0.20052183
244	0x3e84a96d	0.25910512
245	0xbe058542	-0.13039115
246	0x3e9814d5	0.29703394
247	0x3f0bf826	0.5467552
248	0xbe24249a	-0.16029587
249	0xbe8430ff	-0.2581863
250	0xbf06b9b9	-0.5262714
251	0xbe38916e	-0.18024227
252	0x3f2025a4	0.62557435
253	0xbe74d2e1	-0.23908569
254	0x3ebebf1d	0.37255183
255	0x3e3cfa09	0.18454756

network_body._body_endoder.seq_layers.0.bias f4 [128]
0	0x00000000	0.0
1	0x00000000	0.0
2	0x00000000	0.0
3	0x00000000	0.0
4	0x00000000	0.0
5	0x00000000	0.0
6	0x00000000	0.0
7	0x00000000	0.0
8	0x00000000	0.0
9	0x00000000	0.0
10	0x00000000	0.0
11	0x00000000	0.0
12	0x00000000	0.0
13	0x00000000	0.0
14	0x00000000	0.0
15	0x00000000	0.0
16	0x00000000	0.0
17	0x00000000	0.0
18	0x00000000	0.0
19	0x00000000	0.0
20	0x00000000	0.0
21	0x00000000	0.0
22	0x00000000	0.0
23	0x00000000	0.0
24	0x00000000	0.0
25	0x00000000	0.0
26	0x00000000	0.0
27	0x00000000	0.0
28	0x00000000	0.0
29	0x00000000	0.0
30	0x00000000	0.0
31	0x00000000	0.0
32	0x00000000	0.0
33	0x00000000	0.0
34	0x00000000	0.0
35	0x00000000	0.0
36	0x00000000	0.0
37	0x00000000	0.0
38	0x00000000	0.0
39	0x00000000	0.0
40	0x00000000	0.0
41	0x00000000	0.0
42	0x00000000	0.0
43	0x00000000	0.0
44	0x00000000	0.0
45	0x00000000	0.0
46	0x00000000	0.0
47	0x00000000	0.0
48	0x00000000	0.0
49	0x00000000	0.0
50	0x00000000	0.0
51	0x00000000	0.0
52	0x00000000	0.0
53	0x00000000	0.0
54	0x00000000	0.0
55	0x00000000	0.0
56	0x00000000	0.0
57	0x00000000	0.0
58	0x00000000	0.0
59	0x00000000	0.0
60	0x00000000	0.0
61	0x00000000	0.0
62	0x00000000	0.0
63	0x00000000	0.0
64	0x00000000	0.0
65	0x00000000	0.0
66	0x00000000	0.0
67	0x00000000	0.0
68	0x00000000	0.0
69	0x00000000	0.0
70	0x00000000	0.0
71	0x00000000	0.0
72	0x00000000	0.0
73	0x00000000	0.0
74	0x00000000	0.0
75	0x00000000	0.0
76	0x00000000	0.0
77	0x00000000	0.0
78	0x00000000	0.0
79	0x00000000	0.0
80	0x00000000	0.0
81	0x00000000	0.0
82	0x00000000	0.0
83	0x00000000	0.0
84	0x00000000	0.0
85	0x00000000	0.0
86	0x00000000	0.0
87	0x00000000	0.0
88	0x00000000	0.0
89	0x00000000	0.0
90	0x00000000	0.0
91	0x00000000	0.0
92	0x00000000	0.0
93	0x00000000	0.0
94	0x00000000	0.0
95	0x00000000	0.0
96	0x00000000	0.0
97	0x00000000	0.0
98	0x00000000	0.0
99	0x00000000	0.0
100	0x00000000	0.0
101	0x00000000	0.0
102	0x00000000	0.0
103	0x00000000	0.0
104	0x00000000	0.0
105	0x00000000	0.0
106	0x00000000	0.0
107	0x00000000	0.0
108	0x00000000	0.0
109	0x00000000	0.0
110	0x00000000	0.0
111	0x00000000	0.0
112	0x00000000	0.0
113	0x00000000	0.0
114	0x00000000	0.0
115	0x00000000	0.0
116	0x00000000	0.0
117	0x00000000	0.0
118	0x00000000	0.0
119	0x00000000	0.0
120	0x00000000	0.0
121	0x00000000	0.0
122	0x00000000	0.0
123	0x00000000	0.0
124	0x00000000	0.0
125	0x00000000	0.0
126	0x00000000	0.0
127	0x00000000	0.0

network_body._body_endoder.seq_layers.2.weight f4 [128, 128]
0	0xbe1135ff	-0.14180754
1	0xbdb146da	-0.08656092
2	0xbe009666	-0.12557372
3	0xbd29015d	-0.041261066
4	0xbdf9e160	-0.1220119
5	0xbc777661	-0.015103907
6	0xbda6294e	-0.08113347
7	0x3dd49e3c	0.10381743
8	0x3d050972	0.03247971
9	0xbbcf8c8b	-0.0063338927
10	0xbdc838c1	-0.0977645
11	0xbcdde347	-0.027085913
12	0xbd142524	-0.036168233
13	0xbe824dbd	-0.25449935
14	0xbd6165cc	-0.05502872
15	0xbd05d59b	-0.032674413
16	0xbc1982ba	-0.009369547
17	0x3dcca7a8	0.099929154
18	0x3c293301	0.010327102
19	0xbdcc5510	-0.09977162
20	0x3d2809d9	0.041025016
21	0xbe2790ea	-0.16363874
22	0x3bfbfa0d	0.0076897205
23	0xbe1b80f7	-0.15185915
24	0x3c6e30f0	0.014538035
25	0x3cb1f303	0.021722322
26	0x3d1ff963	0.039056193
27	0x3e108817	0.14114414
28	0x3d0e7e59	0.034788463
29	0xbe00c56a	-0.12575307
30	0x3d3249b6	0.043527327
31	0xbd62e972	-0.055398412
32	0xbe37e5d5	-0.17958768
33	0x3d2974a1	0.04137099
34	0xbd192d84	-0.037396923
35	0x3dda672d	0.106642105
36	0xbdaac8ad	-0.08339057
37	0xbe1e87b5	-0.15481456
38	0xbe16eb08	-0.14738095
39	0xbe40bdbc	-0.18822378
40	0x3d9a6360	0.075384855
41	0x3d9a16e0	0.07523894
42	0xbc3bf12b	-0.011471073
43	0x3cfb1397	0.03064899
44	0xbd00d2dc	-0.03145109
45	0x3ddca13f	0.10772943
46	0xbd909cb7	-0.07061141
47	0xbd94e056	-0.07269351
48	0xbd0e64bf	-0.034764048
49	0xbcb489d9	-0.022038387
50	0xbcb2622e	-0.021775331
51	0xbe22458a	-0.1584684
52	0x3c63e9d4	0.013910729
53	0x3e09eab2	0.13468435
54	0x3cea8ff9	0.028633105
55	0x3e255ad3	0.16147928
56	0x3cedd342	0.0290314
57	0x3ddd2663	0.10798337
58	0x3dc3f4b9	0.095681615
59	0x3d3cb044	0.046066537
60	0xbdb69c85	-0.089165725
61	0x3d8ee473	0.06977167
62	0x3deb494e	0.11488591
63	0xbb1ee7dc	-0.0024247086
64	0xbd2bb827	-0.04192367
65	0x3de71032	0.11282386
66	0x3e033319	0.12812461
67	0x3da2443c	0.07923171
68	0x3ccad1cb	0.02475824
69	0xbd6b407a	-0.057434537
70	0x3d8b1a00	0.067920685
71	0x3d83d71d	0.06437514
72	0x3b953fe2	0.0045547346
73	0xbdfd16c0	-0.12357855
74	0x3ddd133e	0.10794686
75	0x3cbeb7e2	0.023281042
76	0xbd20972c	-0.03920667
77	0x3e273ed3	0.1633256
78	0x3d5c228c	0.053743884
79	0xbaffc660	-0.0019514076
80	0x3d959636	0.07304041
81	0xbdcea9a0	-0.10090947
82	0x3d1bb681	0.038015846
83	0x3dc50a5b	0.09621116
84	0xbbc2b8ec	-0.0059424546
85	0x3da9bb74	0.08287707
86	0x3cc95fec	0.024581872
87	0x3d909f81	0.07061673
88	0xbd454406	-0.048160575
89	0xbcb3141d	-0.021860177
90	0xbcd3fb79	-0.025876747
91	0x3cf02388	0.029313818
92	0x3c500f20	0.012698919
93	0x3dbd1037	0.09231608
94	0x3c825524	0.015909739
95	0xbc159419	-0.0091295475
96	0x3d1d2f3a	0.038375117
97	0xbd290b17	-0.04127034
98	0x3d56b612	0.05241973
99	0xbdd2d587	-0.10294633
100	0xbd134bdb	-0.035961013
101	0xbd110445	-0.035404462
102	0x3d5eb466	0.05437126
103	0xbcc3d62c	-0.023905836
104	0xbcafc843	-0.021457797
105	0x3db77cd4	0.08959356
106	0xbd417292	-0.047228403
107	0x3d32c0b5	0.04364081
108	0xbd9dfc85	-0.0771418
109	0xbdc59c56	-0.09648959
110	0xbd9ae460	-0.0756309
111	0x3b954049	0.0045547825
112	0x3c25a22f	0.010109468
113	0x3cd5fffa	0.026123036
114	0xbd7184b1	-0.058964435
115	0x3a5fda52	0.0008539307
116	0xbe6e3d08	-0.23265469
117	0x3dc74ee1	0.09731842
118	0x3e80519d	0.25062266
119	0x3ca77cc6	0.020445239
120	0x3df72295	0.12067143
121	0x3db89332	0.0901245
122	0xbb0f9dff	-0.0021914241
123	0x3c7264dd	0.0147945555
124	0x3e6ede09	0.23326887
125	0xbbc1104b	-0.005891835
126	0x3bae3ff4	0.0053176824
127	0x3cd04efa	0.025428284
128	0x3e0678a9	0.13131966
129	0xbdccc6b0	-0.09998834
130	0x3e004fc4	0.12530428
131	0xbcfa830a	-0.030580062
132	0xbd9bcd52	-0.07607521
133	0x3d6e60f7	0.05819794
134	0x3dea4877	0.11439603
135	0xbd623d8d	-0.05523448
136	0xbdf5b354	-0.11997095
137	0xbcf51e19	-0.029921578
138	0x3cce0e31	0.025153251
139	0x3996992f	0.0002872436
140	0xbcfa50ea	-0.030556161
141	0x3d9456dd	0.0724313
142	0x3d4c9910	0.04995066
143	0xbd125320	-0.035723805
144	0xbdd85ec0	-0.10564947
145	0xbd45f523	-0.048329484
146	0x3d8c5614	0.068523556
147	0x3d83793f	0.0641961
148	0xbc3b2adf	-0.0114237955
149	0xbd5d343e	-0.0540049
150	0x3ca2fe97	0.019896789
151	0xbd65859a	-0.056035616
152	0xbd2e88fd	-0.04261111
153	0xbc0a6ee7	-0.008449293
154	0x3d96b5ea	0.07358916
155	0x3a950b04	0.0011371081
156	0x3e059d19	0.13048209
157	0xbcd16f07	-0.025565637
158	0xbdfb86a4	-0.1228154
159	0x3ce3eb50	0.027822167
160	0xbbc1d98e	-0.005915827
161	0x3d3529fa	0.044229485
162	0xbcb4795f	-0.02203053
163	0x3cb2a5f2	0.021807645
164	0x3cf3916f	0.029732434
165	0xbe14c36d	-0.14527674
166	0x3dcffebe	0.1015601
167	0x3caa805f	0.020813165
168	0x3c25bcee	0.010115845
169	0x3c6ee2d0	0.0145804435
170	0x3c37823c	0.011200484
171	0x3d999d9c	0.07500765
172	0xbdd1618d	-0.102236845
173	0xbd752002	-0.05984498
174	0xbd314c40	-0.04328561
175	0xbdf1f3c9	-0.118140765
176	0xbd90b49a	-0.07065697
177	0xbcac7153	-0.021050131
178	0xbcedc17a	-0.02902292
179	0x3d276941	0.040871862
180	0x3c972e0e	0.018454578
181	0xbdc08b27	-0.09401541
182	0x3dc268a3	0.09492614
183	0x3a694b5d	0.00088994746
184	0xbe5f4927	-0.21805249
185	0xbdf57859	-0.11985845
186	0xbd6ba231	-0.057527725
187	0x3df7b98d	0.12095938
188	0x3c85fb5b	0.016355207
189	0x3d963130	0.073336005
190	0xbd061fdd	-0.03274523
191	0xbcc3a419	-0.023881959
192	0xbcf6e31d	-0.030137593
193	0x3b3d7f3f	0.0028914956
194	0x3d73d886	0.059532665
195	0xbdbb3f96	-0.091429874
196	0xbc402983	-0.011728647
197	0xbc78e81f	-0.015192061
198	0xbd988de5	-0.07448939
199	0x3db701df	0.08935904
200	0x3d8ba951	0.06819404
201	0xbe1688c7	-0.14700614
202	0x3dd4a3bc	0.10382792
203	0x3db79df7	0.08965676
204	0xbe1ef6b8	-0.15523803
205	0xbe204d4d	-0.15654488
206	0x3e0c5fed	0.13708468
207	0x3c06e1f6	0.008232584
208	0x3e0aeb25	0.13566263
209	0x3d6f32a2	0.058397897
210	0xbccb8079	-0.024841534
211	0xbd01f0be	-0.03172373
212	0x3cb4c54a	0.022066731
213	0xbdecc798	-0.11561507
214	0x3e2089c6	0.15677556
215	0xbd2f0240	-0.042726755
216	0x3cfddf3c	0.030990236
217	0x3d415803	0.047203075
218	0x3bada60c	0.0052993353
219	0x3d43ab6f	0.047770914
220	0x3e071f08	0.13195431
221	0xbd1a309b	-0.03764401
222	0x3e6ff658	0.23433816
223	0xbceafe3c	-0.028685682
224	0x3d8ceb22	0.068807855
225	0x3e119cb1	0.1421993
226	0xbd1dc5d4	-0.03851874
227	0x3e2f51d0	0.17121053
228	0x3ccaf1ee	0.024773564
229	0x3d045fe4	0.03231801
230	0x3dfea605	0.124340095
231	0xbd6e6c39	-0.058208678
232	0x3d898163	0.06714132
233	0xbda154b0	-0.07877481
234	0x3c475981	0.0121673355
235	0x3bac9cf8	0.0052677356
236	0x3df2fcf0	0.1186465
237	0xbddb6596	-0.10712735
238	0x3d0f45e5	0.034978766
239	0xbceb7d1e	-0.028746184
240	0xbd8259fd	-0.0636482
241	0xbd348ca5	-0.04407944
242	0xbdaa5d52	-0.08318581
243	0xbdc95787	-0.09831148
244	0x3d5a57e0	0.05330646
245	0x3d8a7b56	0.06761806
246	0xbd8c06a1	-0.06837202
247	0xbbc8df02	-0.0061301
248	0xbcd4d3b7	-0.02597986
249	0x3d9cebe3	0.07662179
250	0x3dd79f3c	0.105284184
251	0x3d196aa5	0.03745522
252	0xbd99dba2	-0.07512595
253	0x3d2bf336	0.04197999
254	0xbd0cb4ca	-0.0343521
255	0x3e011ac8	0.12607872

network_body._body_endoder.seq_layers.2.bias f4 [128]
0	0x00000000	0.0
1	0x00000000	0.0
2	0x00000000	0.0
3	0x00000000	0.0
4	0x00000000	0.0
5	0x00000000	0.0
6	0x00000000	0.0
7	0x00000000	0.0
8	0x00000000	0.0
9	0x00000000	0.0
10	0x00000000	0.0
11	0x00000000	0.0
12	0x00000000	0.0
13	0x00000000	0.0
14	0x00000000	0.0
15	0x00000000	0.0
16	0x00000000	0.0
17	0x00000000	0.0
18	0x00000000	0.0
19	0x00000000	0.0
20	0x00000000	0.0
21	0x00000000	0.0
22	0x00000000	0.0
23	0x00000000	0.0
24	0x00000000	0.0
25	0x00000000	0.0
26	0x00000000	0.0
27	0x00000000	0.0
28	0x00000000	0.0
29	0x00000000	0.0
30	0x00000000	0.0
31	0x00000000	0.0
32	0x00000000	0.0
33	0x00000000	0.0
34	0x00000000	0.0
35	0x00000000	0.0
36	0x00000000	0.0
37	0x00000000	0.0
38	0x00000000	0.0
39	0x00000000	0.0
40	0x00000000	0.0
41	0x00000000	0.0
42	0x00000000	0.0
43	0x00000000	0.0
44	0x00000000	0.0
45	0x00000000	0.0
46	0x00000000	0.0
47	0x00000000	0.0
48	0x00000000	0.0
49	0x00000000	0.0
50	0x00000000	0.0
51	0x00000000	0.0
52	0x00000000	0.0
53	0x00000000	0.0
54	0x00000000	0.0
55	0x00000000	0.0
56	0x00000000	0.0
57	0x00000000	0.0
58	0x00000000	0.0
59	0x00000000	0.0
60	0x00000000	0.0
61	0x00000000	0.0
62	0x00000000	0.0
63	0x00000000	0.0
64	0x00000000	0.0
65	0x00000000	0.0
66	0x00000000	0.0
67	0x00000000	0.0
68	0x00000000	0.0
69	0x00000000	0.0
70	0x00000000	0.0
71	0x00000000	0.0
72	0x00000000	0.0
73	0x00000000	0.0
74	0x00000000	0.0
75	0x00000000	0.0
76	0x00000000	0.0
77	0x00000000	0.0
78	0x00000000	0.0
79	0x00000000	0.0
80	0x00000000	0.0
81	0x00000000	0.0
82	0x00000000	0.0
83	0x00000000	0.0
84	0x00000000	0.0
85	0x00000000	0.0
86	0x00000000	0.0
87	0x00000000	0.0
88	0x00000000	0.0
89	0x00000000	0.0
90	0x00000000	0.0
91	0x00000000	0.0
92	0x00000000	0.0
93	0x00000000	0.0
94	0x00000000	0.0
95	0x00000000	0.0
96	0x00000000	0.0
97	0x00000000	0.0
98	0x00000000	0.0
99	0x00000000	0.0
100	0x00000000	0.0
101	0x00000000	0.0
102	0x00000000	0.0
103	0x00000000	0.0
104	0x00000000	0.0
105	0x00000000	0.0
106	0x00000000	0.0
107	0x00000000	0.0
108	0x00000000	0.0
109	0x00000000	0.0
110	0x00000000	0.0
111	0x00000000	0.0
112	0x00000000	0.0
113	0x00000000	0.0
114	0x00000000	0.0
115	0x00000000	0.0
116	0x00000000	0.0
117	0x00000000	0.0
118	0x00000000	0.0
119	0x00000000	0.0
120	0x00000000	0.0
121	0x00000000	0.0
122	0x00000000	0.0
123	0x00000000	0.0
124	0x00000000	0.0
125	0x00000000	0.0
126	0x00000000	0.0
127	0x00000000	0.0

value_heads.value_heads.extrinsic.weight f4 [1, 128]
0	0x3dcfaea0	0.10140729
1	0x3d649988	0.05581048
2	0xbd8ccfe8	-0.068755925
3	0xbd1b335c	-0.037890777
4	0xbdcf3c1c	-0.10118887
5	0x3e00da34	0.12583238
6	0x3e111ba8	0.14170706
7	0xbe263d8a	-0.16234413
8	0x3e1bd06a	0.15216222
9	0xbddf68c7	-0.109086566
10	0x3d490e98	0.049086183
11	0x3e0c0ec4	0.13677508
12	0x3dcd18e4	0.10014513
13	0x3c1fc850	0.009752348
14	0x3e2cdbb4	0.16880685
15	0x3e17dac2	0.14829543
16	0x3e350bd0	0.17680287
17	0x3ccd48f0	0.025059193
18	0xbe405565	-0.18782575
19	0xbd5d088c	-0.05396323
20	0xbe015f70	-0.12634063
21	0x3deaa158	0.11456555
22	0xbdc6dfd1	-0.09710658
23	0xbc1884f0	-0.0093090385
24	0xbdea3c18	-0.11437243
25	0xbdd6e9f4	-0.10493842
26	0x3d9efd00	0.077631
27	0xbe3537f0	-0.1769712
28	0xbe0f056e	-0.13966915
29	0xbd2a1f34	-0.041533664
30	0xbd988fdc	-0.07449314
31	0xbd8f1164	-0.06985739
32	0x3e0be386	0.13661012
33	0x3e41d350	0.18928266
34	0xbd553680	-0.05205393
35	0x3d8c0c0c	0.06838235
36	0x3dd82964	0.1055477
37	0x3e34d39e	0.1765885
38	0x3e33de32	0.1756523
39	0x3a923c00	0.0011156797
40	0x3d9db180	0.07699871
41	0x3e53bdba	0.20677844
42	0xbdb2949c	-0.08719751
43	0xbd81612a	-0.06317361
44	0x3d441310	0.047869742
45	0x3df47c68	0.11937791
46	0x3de5fd60	0.11229968
47	0x3e4ae010	0.19812036
48	0xbdbe33b7	-0.092872076
49	0x3d476d60	0.048688293
50	0xbd832db6	-0.06405203
51	0x3d09cfc0	0.03364539
52	0xbdf2ce69	-0.11855776
53	0xbe1fb8aa	-0.15597787
54	0xbd580a98	-0.052744478
55	0x3de12a1c	0.1099436
56	0xbe071a8a	-0.13193718
57	0x3e556328	0.20838606
58	0xbc2431a0	-0.010021597
59	0x3d829e94	0.063779026
60	0xbe2ee0a1	-0.17077877
61	0xbdcdcf29	-0.10049278
62	0xbb43ef80	-0.0029897392
63	0xbb14abc0	-0.0022685379
64	0x3cbd66a0	0.023120224
65	0x3d89630c	0.06708345
66	0xbe549105	-0.20758446
67	0xbe12d776	-0.14340004
68	0xbcce60b8	-0.025192603
69	0x3dc80d50	0.09768164
70	0x3daa9de0	0.083308935
71	0x3c116740	0.008874714
72	0x3d3b1368	0.045672804
73	0xbe39bd6a	-0.18138662
74	0xbdbab602	-0.091167465
75	0xbe3bb4b8	-0.18330657
76	0x3d7dffd8	0.06201157
77	0x3cca0698	0.024661347
78	0x3d60b948	0.054864198
79	0xbe213bbb	-0.15745442
80	0x3bb69b80	0.0055727363
81	0x3da87eec	0.082273334
82	0x3dcefc28	0.10106689
83	0xbbd206c0	-0.006409496
84	0xbda6bf68	-0.081419766
85	0x3d8056b4	0.06266537
86	0x3e1981b6	0.14990887
87	0x3d47a5d0	0.048742115
88	0x3e53892e	0.20657799
89	0xbc731af0	-0.014837965
90	0x3dccb404	0.09995273
91	0x3e334f60	0.17510748
92	0x3d8305b4	0.06397572
93	0xbe295d8b	-0.1653959
94	0x3d29d228	0.041460186
95	0xbd8368f0	-0.064164996
96	0x3dc83f8c	0.097777456
97	0x3e39d3ea	0.18147245
98	0x3ddc4560	0.1075542
99	0x3d9176d0	0.0710274
100	0xbe361b77	-0.17783915
101	0xbd833f08	-0.06408507
102	0x3e4a5ef2	0.19762781
103	0x3e4f2fb4	0.20233041
104	0xbd9844e4	-0.07435015
105	0xbe31fff8	-0.173828
106	0x3e5677ce	0.2094414
107	0x3d7c2870	0.061562
108	0x3e209cfa	0.15684882
109	0xbce8c0a8	-0.028412178
110	0xbe58ba9b	-0.21164934
111	0xbe13793c	-0.14401716
112	0xbe4332e1	-0.19062378
113	0xbe40df46	-0.18835172
114	0x3e5b8548	0.21437562
115	0xbe00c9f4	-0.12577039
116	0xbe253018	-0.16131628
117	0x3d7a5468	0.061115652
118	0xbdbd6fbe	-0.09249829
119	0x3dfe8780	0.12428188
120	0x3e173d92	0.14769581
121	0x3dc63f20	0.09680009
122	0xbdc29530	-0.095011115
123	0xbd4d0a84	-0.050058857
124	0xbda5688e	-0.08076583
125	0xbdfc6a25	-0.12324933
126	0x3c800548	0.015627518
127	0xbd1f5404	-0.038898483
