results/Test11/MoveToTarget/MoveToTarget-187066.pt (torch, 443481 bytes, 36 tensors)

network_body._body_endoder.seq_layers.0.weight f4 [128, 6]
00000000: b2bc b8bd f5d9 94bc cdf5 ff3b 7319 94be
00000010: e0fa 0dbf 60ec 8e3e fe7b 543e 9351 1cbf
00000020: fbb9 263f c904 24bf 43ba 633d 9b6c a1be
00000030: a5a7 3fbd 778a 673d a09e b73e c33a 41be
00000040: 5f42 083e 2229 2a3d 9f2d 193f a7f0 5bbf
00000050: fb7c 43be 2478 b0bd 3b7b 603f 33f5 e23e
00000060: bbf3 073e 4d0c 04bf 0feb f7be a911 a43e
00000070: e95f 023f 0d73 ac3e 65ee 83be 7be9 643d
00000080: bb79 763e dd38 a8be 63e8 2c3e b6fd cd3e
00000090: 1731 68bd 1538 87be e23c 00bf dc5e 513f
000000a0: 19b2 94be 85e8 4c3f 211c f1bd 962c 183f
000000b0: 31dd a23e 8d42 363f 8465 41bf c777 4abf
000000c0: cb43 7cbe 29aa 80be 6b76 8fbe 7d03 f33e
000000d0: 9047 fa3e 92bd a8bd bb31 e43e 784d 1a3e
000000e0: c7d9 c33e 997c b23d 4592 373e d4f0 84be
000000f0: 7264 ad3e e1cd 903e 3e2f cd3e 6ee4 09bf
00000100: 84c2 fabe c448 2eba 1b67 bfbe c5a6 343f
00000110: 5d54 8dbd 6156 71be 5804 66bf c534 cabe
00000120: 4b65 f5bd 4e12 75be d5d3 36bf fee3 193e
00000130: 4b9b 073e aff9 303e a6dc 193f 2d14 5dbf
00000140: 4f17 8abe 5304 083f 76d0 05bf 2ad8 28bf
00000150: 6c46 83be b52d 19be abeb 9c3e e35c ca3e
00000160: b189 12be c428 ecbe 8fe9 113f e772 9ebc
00000170: fed2 42bf 39c1 203e f8dd 0fbf 01c8 1cbf
00000180: fffd 12bf 5d59 9fbe 8110 9cbe 0c9e 9cbd
00000190: 0e4e 1a3f e6ca ef3e e850 c33d 555b d6bd
000001a0: 6b99 ee3e 5c03 04bf 9806 6fbe db36 76bf
000001b0: a892 ee3c 4f38 1cbe 9d39 093e 918e 8cbc
000001c0: ae25 e1be ee0f b1be bce3 323e f5b8 3abe
000001d0: 294d a3bd 7e4a 2ebe fc1f bb3e bf2c 303f
000001e0: bb5f 993e 3c24 573d d7ee 9bbe 02e3 17bf
000001f0: 89eb 29bf 830c a43d a3d6 443e e37c 1fbd
00000200: 327f c53e 874f 0c3f 6484 123e d676 803e
00000210: a946 a9be a229 803d 0cf7 cfbd bd1e 413f
00000220: 8393 3e3f d31a cebc 4b0f 04be c4f8 36be
00000230: 7642 f8be 3b4a 2e3f 72ad 1bbe 1af0 cabb
00000240: c326 203e 6e29 febd f2d9 333f 65ad 37bf
00000250: 9e4d 99be 0f68 a2be 51c2 043e 78cd 183e
00000260: d9f8 bc3e aaa6 0a3f ca63 023f 38e2 ca3e
00000270: a7c7 c2be 3dbd 20be ab21 143e a372 22bf
00000280: 624a cbbe 2c29 5bbe 1047 63bd 8a18 c2be
00000290: f16d a53e 95a6 d33d b32d a93e cfa7 1cbe
000002a0: 7382 8abe 3f6d 353d cec5 96bd 7387 09bf
000002b0: d3a3 1f3f 46b0 8f3e 6bcc f7be e86a 82be
000002c0: 1a51 b23e c0cb c63e 11af 2abf be1f 41be
000002d0: 9730 0dbe be14 11bf 7d8a 9b3e 9340 133f
000002e0: fe83 c63e 7831 643f a18a 80be d414 d43e
000002f0: ddfd 803e 75b0 af3e f52d 683d 1e2d 1b3f
00000300: 0855 ed3e b48b 42be 15a0 983d 225a ad3e
00000310: 0b67 38be de9e beb9 2e5f 9b3e ba2d 56be
00000320: 5c57 c03c b654 523f 6b65 923d 25b1 1e3f
00000330: d9c4 463f 4205 063d f4b6 8e3e f0b8 6fbf
00000340: cd80 1bbe ef23 933e 756b b53e a833 d63e
00000350: 1f19 d53d 2be4 f43e 541c 7dbe 65e6 e9be
00000360: ff31 a43e 5820 7b3f 40fb a0be dd82 2d3f
00000370: d120 7cbe 7d61 77be 2868 263f f963 373f
00000380: a7b1 bc3e 9586 013e a2ff 83be e381 ad3e
00000390: b9af a6be 40a6 3b3e 8051 fd3e 0113 f33c
000003a0: 7fd1 02bf 1fdc a9bc d3ba ba3e 2966 c23e
000003b0: 2257 b93d ee4a 2ebe 0c54 b1be 1012 a23e
000003c0: c0db 21bd 7784 83be a46f aabe 804d 133f
000003d0: bba9 edbd 95ea 433f f98b 30be 7a8c 623e
000003e0: 4102 073f e2b0 da3e 836d 94bd 94a4 d83d
000003f0: b702 b43e f3fb 0c3e ece6 11bd 2c1f 913e
-0.09020366 -0.018170336 0.007811284 -0.28925666 -0.5546093 0.27914715 0.20750424 -0.6106197
0.65127534 -0.640698 0.055597555 -0.31528172 -0.046790738 0.056528535 0.3586321 -0.18870072
0.13306569 0.041543134 0.5983524 -0.8591408 -0.19090645 -0.08616665 0.87688035 0.44327697
0.1327657 -0.5158127 -0.48421523 0.32044724 0.509276 0.33681527 -0.25767818 0.055886727
0.24069874 -0.32855883 0.16885523 0.4023263 -0.05668744 -0.26409975 -0.500929 0.8178537
-0.29042128 0.80042297 -0.11772943 0.5944303 0.3180938 0.711953 -0.75545526 -0.79089016
-0.24635236 -0.25129822 -0.28020033 0.474636 0.48882723 -0.08239283 0.4456919 0.15068614
0.38252088 0.08715171 0.17926891 -0.25964987 0.33865696 0.28282073 0.40075105 -0.5386418
-0.4897653 -0.0006648416 -0.3738335 0.7056697 -0.06900857 -0.23568107 -0.8985038 -0.39493385
-0.11982211 -0.23932764 -0.7141698 0.15028378 0.13242833 0.17282747 0.6010231 -0.8635891
-0.26970908 0.531316 -0.5227121 -0.6595484 -0.25639665 -0.14958842 0.3064855 0.39523992
-0.14310338 -0.46124852 0.5699701 -0.0193419 -0.761032 0.15698709 -0.5619807 -0.6124268
-0.5741882 -0.31122866 -0.3048134 -0.076473325 0.6027535 0.46834487 0.09536916 -0.10466639
0.46601424 -0.51567626 -0.23342359 -0.9617745 0.029122666 -0.15255855 0.13400884 -0.017157825
-0.4397406 -0.34582466 0.17469686 -0.18234618 -0.079737015 -0.17020604 0.3654784 0.6881828
0.2995585 0.05252479 -0.30455658 -0.5933076 -0.66375023 0.08010199 0.19222502 -0.03893746
0.38573605 0.5480885 0.14308316 0.25090665 -0.33061722 0.06257941 -0.10154542 0.7543753
0.74443835 -0.025159275 -0.12896459 -0.17868334 -0.48488206 0.68082017 -0.15202883 -0.006193173
0.15639786 -0.12410246 0.70254433 -0.71748954 -0.2994203 -0.31720015 0.12964751 0.1492213
0.36908606 0.5416056 0.50933516 0.39625716 -0.38042948 -0.15697189 0.14465968 -0.6345617
-0.39705187 -0.21402425 -0.055487692 -0.37909347 0.3231044 0.103345074 0.33042678 -0.15298389
-0.2705265 0.04429364 -0.07361947 -0.53722304 0.6235935 0.28064173 -0.48398146 -0.25472188
0.348275 0.38827324 -0.6667338 -0.18859765 -0.13788067 -0.56672275 0.30379096 0.5752041
0.38772577 0.89137983 -0.25105765 0.4142214 0.25193682 0.34314314 0.056684453 0.6061572
0.46353936 -0.18998605 0.07452408 0.33857828 -0.18008058 -0.0003635799 0.30346054 -0.20915881
0.023479156 0.8216051 0.0714825 0.6198905 0.77644116 0.032719858 0.27873957 -0.9364157
-0.15185852 0.28738353 0.35433546 0.41836286 0.10405182 0.47830328 -0.24717838 -0.4568359
0.32069394 0.9809623 -0.3144169 0.67777807 -0.24621893 -0.24158283 0.6500268 0.7163692
0.36854288 0.12648995 -0.2578097 0.33888158 -0.3255594 0.18325138 0.49476242 0.029672148
-0.51100916 -0.020734845 0.3647066 0.37968567 0.090498224 -0.17020771 -0.34634435 0.31654406
-0.03951621 -0.25687 -0.332883 0.5754013 -0.11604639 0.7652982 -0.17240895 0.221239
0.52737814 0.42713076 -0.0724745 0.10578266 0.3515832 0.13767986 -0.035620615 0.28344095

network_body._body_endoder.seq_layers.0.bias f4 [128]
00000000: 07e4 97bc 7a14 473d ad07 903c 3364 4f3d
00000010: b97e 413d 87ee 043d 0188 6c3d bb10 403d
00000020: e9d4 1f3d 60f1 bd3c f08f 553b 3e2d 59bc
00000030: d987 693d ca76 a03c ca80 583c 2fe7 143c
00000040: 3a79 8c3d a30d 983c f059 2d3c 7638 573c
00000050: 18f5 debb 6402 3d3d 4758 373d 8244 213d
00000060: c52d 063d 2242 103d 33dd fabc a05f 2c3d
00000070: e1ed 88bb e011 c43c e79e 2b3d e4b3 353d
00000080: d614 ac3b 96ce 213d 84ca 9cbc 009c 103d
00000090: 4e35 4d3d 62cd 0abc 01a3 033d 2825 533c
000000a0: 496d 743d 37d1 1f3d aaef 9cbc 73a2 423d
000000b0: 3d9f 03bc 15f7 6d3b 3192 423d 47c9 ad3b
000000c0: 7719 103d 8b13 223d 5529 d63c 87d6 a9bc
000000d0: 23c0 58bb 6d35 b23c 5f6c de3c 9371 9cbc
000000e0: dd8d 25bd 23b8 023d 29b4 5c3b 29c8 0c3d
000000f0: 2239 fabb 05da 16bd b043 aeba a52d b6bb
00000100: f8a4 10bd e555 2cbc dc97 303d 2276 813c
00000110: f2ca b73c 2978 6dbd 5e48 803c 644a 0dbc
00000120: 236e 183d 79f4 f03c 45d5 00bd 9f5b ae3c
00000130: 0d7b 3bbd f6d5 4b3d 1b39 323c 1b2f 5ebb
00000140: 0169 a13c 696e c1ba f4fe 393a 5b8c 29bb
00000150: a04b 563d 3f17 23bd 1452 123d 20cb b2bb
00000160: 146d 5d3c 7a31 f438 9893 b63c 7fdc be3c
00000170: 8668 46bd 52fa 08bd 5f9d 073d 43d5 6e3d
00000180: 8c1f 3d3d c6d2 153d df47 1a3b cc47 6ebc
00000190: 5361 60bd 5fcb 3a3c 914f d73c c043 043b
000001a0: 4257 403d a739 44bc 6da8 f53a 5ad3 2e3d
000001b0: 613b e33c 2a33 323d fa22 d33c 1435 0ebd
000001c0: df29 873d 0934 04bd 6292 10bd 9672 3d3d
000001d0: 8177 14bb 6e88 c8bc 7900 9cbc b95e 2d3c
000001e0: b97c 573d d62d b337 0409 103d 5ec1 bdbc
000001f0: cd98 eb39 ae9f 723c d87d 203d 8631 503d
-0.01854135 0.048603512 0.017581785 0.050632667 0.047239993 0.03245404 0.05774689 0.046890955
0.039021406 0.023186386 0.0032587014 -0.0132554155 0.05701432 0.019587893 0.013214299 0.009088322
0.0685906 0.01856119 0.010580525 0.01313602 -0.00680412 0.046144858 0.044761922 0.039371975
0.032758493 0.03521932 -0.030623054 0.042083383 -0.004178748 0.023934305 0.041899588 0.04436101
0.0052515073 0.039503656 -0.019139536 0.035305023 0.050099663 -0.008471819 0.032137875 0.012887277
0.059674535 0.039017882 -0.01915725 0.047518205 -0.008033571 0.0036310602 0.0475027 0.005303535
0.035180535 0.03956942 0.026142756 -0.020732177 -0.0033073507 0.021753991 0.027151285 -0.019097125
-0.040418494 0.031913888 0.003367672 0.034370575 -0.0076362053 -0.036829013 -0.0013295319 -0.0055596405
-0.035313576 -0.010518526 0.043113574 0.0158034 0.022435639 -0.05797592 0.015659507 -0.008623693
0.03721441 0.029413449 -0.03145339 0.021283923 -0.045771647 0.049764596 0.010877873 -0.0033902589
0.01970339 -0.0014757636 0.0007095181 -0.0025871012 0.052318215 -0.03981709 0.035722807 -0.0054563433
0.013514776 0.000116440424 0.022287175 0.0232985 -0.048439525 -0.03344185 0.033109065 0.05830885
0.046172664 0.036577962 0.0023541374 -0.014543485 -0.054780316 0.0114010265 0.026283057 0.0020181984
0.046958216 -0.011976636 0.0018742211 0.04268203 0.027738275 0.043505825 0.025773514 -0.034718588
0.06599783 -0.032276187 -0.03529585 0.046251856 -0.0022654238 -0.024479117 -0.019043194 0.010581666
0.05260918 2.1359807e-05 0.035164848 -0.023163494 0.00044936538 0.014808578 0.039182514 0.05082848

network_body._body_endoder.seq_layers.2.weight f4 [128, 128]
00000000: c02d 76bd ece6 0fbe 52c3 20bd 0a7a 9ebc
00000010: 2ae0 213e 8ef1 ed3b 1f18 923d 25ae 37be
00000020: 8d37 ddbc a9d9 bbbd 0cdd 08bd 3f4d f0bc
00000030: 6a11 bfbc 04bd 07be a4c3 b53c 3b12 de3d
00000040: 1636 2bbd 6908 803d 15e4 20be 342e acbd
00000050: 0d59 18be 2d89 96bc c88a 223b f7c2 2ebe
00000060: 5bd3 5b3d ba18 54bd ce0a 19be d74e 8b3c
00000070: 2d21 2d3e 43e7 293e efc0 a1bc 7330 34be
00000080: bd9e 0c3c 66d1 78bd a968 33bd bd33 0abd
00000090: 788d 923d a695 aebd f770 08be 9c8e df3d
000000a0: 0b70 60bd 8aeb 2dbd 7e57 f63c 8389 323d
000000b0: cb20 c3bb f730 0fbe a10a 82bd 1a0e 2f3e
000000c0: f222 9d3d 65b2 2ebe f586 533d 8a93 2dbe
000000d0: 1c7c 07bd a5d2 db3d 5b96 c53b 12e0 e03d
000000e0: 075e 16bc 29f5 543d a1b5 9cbd cad6 c3bc
000000f0: 0713 6fbd dd02 1c3e bf00 7d3d 8869 dd3d
00000100: 014c 8c3b cf7a 84bd 7b99 b83d 3c09 78bc
00000110: 0674 d83c dd9f 203e b85e 183c f76d 2ebd
00000120: fdd3 6b3d 2ce2 513d 1886 c8bc 3815 aa3d
00000130: a169 4a3d f6d6 0ebe 7ce7 6a3e 47ec 31be
00000140: 6e7c 74bd 0754 dfbb 44ec 8ebd 72cb 943d
00000150: 00f0 343d 684a d6bd e624 0a3c 9b84 25be
00000160: ab65 87be 062a 03bd 5997 a43b 6527 26bd
00000170: cd84 5d3c da23 3f3d 6198 143d 89f8 48bd
00000180: 9a83 ed3c d4da d23c 41e4 083d c07e 36bd
00000190: f3ab 4d3d c99e 48bd 6ea7 333d f086 c73d
000001a0: 3f82 183d 5f54 35bd d209 09be 4112 373d
000001b0: fc7e 1cbd 7249 c0bb de9b f93d ca07 e83d
000001c0: 14c0 4f3d 9255 573d 1d38 3bbe 07a9 3b3d
000001d0: 17cd 733c 2218 7abc eff2 aa3d bb6f 263e
000001e0: 1a9f 813d b132 933d 8c24 4bbe 2a76 76bd
000001f0: eb62 74bd ba3f 3c3d 6cb0 09be 82bb 07be
00000200: f77e 613d f2d2 52bd b931 523d b11c 2cbe
00000210: c9d0 003e 8623 5e3d 1fc2 0f3e f837 86bd
00000220: e691 f63d 130b 6c3d 88df 06bb 513c b03d
00000230: ee1f a23d e192 1b3d ba03 3ebe 2f9b 32bd
00000240: 64b9 c13d 6726 00be ca9d 533b bf04 68bd
00000250: 29be 3fbd 0d05 a13c 42c2 50be 77c5 a9bd
00000260: 4cde debd 3362 173e e70a 0fbd d924 7b3d
00000270: e02e a4bd 9363 373b bc34 f13d aec4 1f3e
00000280: 4028 9d3d 515c 723d 7d86 e3bd 8b41 ae3d
00000290: c1ba 8b3d 59bd 7cbb 9975 93bb 8a31 85bd
000002a0: af22 953c 7f96 32bc a141 233d 75e9 b1bd
000002b0: 0473 febd c608 483d 2289 66bd b1b1 e2bd
000002c0: cf5f 2bbe aa76 b33d 8806 053e 4b72 9cbd
000002d0: 6ebe 63bc 17c8 693a 3f23 39bd 4c50 263d
000002e0: 84e5 7b3c 418a e63d b11e 0cbd 7819 8d3d
000002f0: a759 00bd d712 cf3d 2d70 3dbc 506c a7bd
00000300: 97cd 683d e003 733d 2d08 8b3c 3cb6 c9bc
00000310: 39fb 9b3c 0a0f 38bd 0931 bd3c 81c7 9d3d
00000320: 6ea4 0dbe a297 c13d b75d 973d 0774 ee3c
00000330: 4e35 67bd a015 09bd 610d 593d 836d 323c
00000340: fa73 843e 777d fa3d 712c 72bd b1c4 a63d
00000350: a612 563e 1cec 34be c276 e53b 3d89 26bc
00000360: d1c4 91bd bb17 7f3d 5634 a7bd 4085 52bd
00000370: 9f74 42bd aa66 b2bd 430d e6bd 6df7 26bd
00000380: b317 12be f017 67bd e774 2dbe 5ccc 833d
00000390: 3f8a ee3d 9f8e eb3b eda3 f23d f785 8dbd
000003a0: f3e4 debd 5e95 23bc 52fa 96bb 0662 5fbd
000003b0: 05b8 34bd ce29 9e3d cb8b b8bb 3433 ad3d
000003c0: 2bb2 783c 0dca 423d 45db f1bd 6a75 60be
000003d0: a530 9dbc 0e06 6c3d 3b69 dcbd 0f26 e73c
000003e0: 5b57 c23d 1aa7 a33d 32b4 f53c 620f 293e
000003f0: f121 d23d e7d8 ddbd 5c62 7fbc 4975 a0bb
-0.060102224 -0.14052933 -0.039248772 -0.019345302 0.15808168 0.0072614616 0.07133507 -0.17937525
-0.027004028 -0.09172375 -0.03341393 -0.029333709 -0.023323733 -0.13255697 0.022188015 0.10843321
-0.041799627 0.06251604 -0.15712006 -0.0840725 -0.1487772 -0.018375957 0.0024801958 -0.1706656
0.05366836 -0.051781394 -0.14945528 0.017005367 0.16907187 0.16592126 -0.019745318 -0.17596607
0.008582768 -0.060746573 -0.043800984 -0.033740748 0.07155889 -0.08524637 -0.13324343 0.109158725
-0.054794353 -0.042460956 0.030071016 0.043588173 -0.005954837 -0.13983522 -0.063496836 0.17095223
0.07672681 -0.1706024 0.051642377 -0.16950813 -0.033077344 0.10733537 0.0060298867 0.10980238
-0.009177691 0.051991615 -0.076518305 -0.02390613 -0.058367755 0.15235467 0.06176829 0.10811144
0.0042815213 -0.064687364 0.09013649 -0.01513892 0.026422512 0.15685983 0.009299926 -0.04258534
0.057575215 0.051241085 -0.024478003 0.083048284 0.04941714 -0.13949189 0.22939867 -0.17375289
-0.059688978 -0.0068154368 -0.06978658 0.072653666 0.044174194 -0.104634106 0.008431649 -0.16163866
-0.26444754 -0.0320225 0.005022925 -0.040564913 0.013520432 0.04666505 0.036278132 -0.049065147
0.028993417 0.025739111 0.033420805 -0.044554472 0.05021281 -0.048979554 0.043860845 0.09742534
0.037233587 -0.044269916 -0.13382652 0.044695143 -0.03820704 -0.0058681304 0.121879324 0.11329611
0.05072029 0.05257184 -0.18283124 0.045815494 0.01488044 -0.015264543 0.08347117 0.1625356
0.06329174 0.07187403 -0.1983816 -0.060171284 -0.059664648 0.045959212 -0.13446206 -0.13255122
0.055052724 -0.051470704 0.05131695 -0.1680782 0.12579645 0.054233097 0.14038895 -0.06553644
0.12039547 0.05762775 -0.0020580012 0.086052544 0.07916246 0.03798187 -0.18556109 -0.043605026
0.094591886 -0.1251465 0.0032290095 -0.05664515 -0.04681221 0.019655729 -0.20386603 -0.082896166
-0.108822435 0.14783554 -0.034922507 0.061314438 -0.08016753 0.0027982935 0.117776364 0.15602371
0.07673693 0.05917007 -0.11109636 0.08508595 0.0682273 -0.0038565008 -0.0045001027 -0.065035895
0.018205015 -0.010900139 0.03985751 -0.086871065 -0.12424281 0.048836492 -0.056283124 -0.11069048
-0.16735767 0.08762868 0.12990773 -0.07638987 -0.013900382 0.00089180603 -0.04519963 0.04060392
0.015374545 0.112568386 -0.034208957 0.068896234 -0.0313355 0.10111015 -0.011562389 -0.08174956
0.05683669 0.059329867 0.016971672 -0.024623029 0.01904069 -0.044936217 0.02309467 0.07704068
-0.13832256 0.0945275 0.073909216 0.02910806 -0.05644732 -0.03346789 0.052991275 0.010890367
0.25869733 0.12230962 -0.059124414 0.08142985 0.20905551 -0.17668194 0.0070026824 -0.010164556
-0.07117618 0.06227849 -0.08164279 -0.05139661 -0.0474745 -0.08710988 -0.11232998 -0.040763307
-0.14266853 -0.056419313 -0.16939126 0.06435463 0.11647462 0.0071886326 0.118476726 -0.069103174
-0.10883512 -0.009984342 -0.004607477 -0.05453684 -0.044120807 0.07722817 -0.005631899 0.08457032
0.015179197 0.047555972 -0.118094005 -0.2191979 -0.019188235 0.05762296 -0.107622586 0.02821639
0.09489318 0.079908565 0.02999315 0.16509774 0.1026038 -0.108323865 -0.015587416 -0.004896794

network_body._body_endoder.seq_layers.2.bias f4 [128]
00000000: 9a69 babc 9118 193d 3460 6c3c 74f9 343d
00000010: 7913 6b3d 760a e4bc 8e7f 1d3d f658 cfbc
00000020: 3c84 0d3d a887 2f3d 1fb6 253d 2703 4f3d
00000030: 52ea 7f3d c8b3 3d3c e3dc 58bc 1581 4d3d
00000040: 65b0 00bd da37 f437 e5e9 e93c e121 09bd
00000050: 43d4 b33c 57af 063d 4981 e53c 4a7c b03c
00000060: ffc1 c5bc 6b3c 333d 9137 00bd c4a8 3abc
00000070: bdee 663d ecc6 e53c 0fae 203d 627d dc3c
00000080: ccf4 633c 1393 143c 9577 06bc f905 1cbc
00000090: 8808 05bc 15b5 143d baf7 033d 6da1 273d
000000a0: 4791 f0bc 7e16 4f3d e0dd f13c 9b04 96bc
000000b0: 55e4 c73c ec8c 16bd afec 0ebd 620c 833c
000000c0: 4990 0d3b bb2d d3bc 109f 83ba 505f a5bc
000000d0: 761b c5bc 2154 bbbc 4928 7cbc 6b41 0b3c
000000e0: 80bd f63b e34a 0a3d 1ae6 ac3c cdf9 c83b
000000f0: 4324 c1bc a9c2 06bd 844d 073d 7b6c bbbb
00000100: 90d8 fc3c f7ac 483c bbcb c6bc 0c40 423c
00000110: 7320 0a3d 681a 4dbc 7b22 6bbc 0514 843c
00000120: 161d ff3b ee22 5ebc 1922 e13c d3b7 033d
00000130: 142e b73c 8a93 723c ce12 0b3d 52a0 3a3c
00000140: 933b 323d ccab d1bc 2083 313d be4d 1c3d
00000150: 586a f8bb 9831 4b3d c1e6 0d3d 0c0c ec3c
00000160: e90c d43c bfee 283c 275a 0cbb 36f1 883c
00000170: e60b ca3b d538 443d 48c2 65bb c2f0 cf3c
00000180: 743a 7fbb 4de7 c4bc f2ba 94bc 8bca 2a3c
00000190: cfd3 ab3c 7d16 523c b4c7 aa3c a764 cdba
000001a0: 544b 4f3d ac4e 133d ad91 b63c c76e 263d
000001b0: db32 fa3c ab91 99bb 2249 923a 43d2 2b3c
000001c0: 2892 a93c 030e 523d b347 d43c d287 1d3c
000001d0: 9fe8 343d 1dc2 87bc 492c fbbc 8a01 08bc
000001e0: 8a65 b3bc 45a1 3a3d cda9 3d3d 7768 cb3b
000001f0: fde8 b5bc ca63 52bc cdbe 7c3c 5cbe 92bc
-0.022755433 0.037376944 0.0144272335 0.04418321 0.057391617 -0.02783702 0.038451724 -0.025310975
0.034549937 0.04285398 0.040456887 0.050540116 0.062479325 0.011578508 -0.013236257 0.05017193
-0.031418223 2.9113075e-05 0.028553912 -0.033479575 0.0219518 0.03288206 0.02801575 0.02154364
-0.024140356 0.04375879 -0.031302992 -0.011392776 0.056380022 0.028048955 0.039228495 0.026915256
0.013913345 0.009068268 -0.0082072215 -0.009522908 -0.00811971 0.036305506 0.032218672 0.040925432
-0.029366149 0.05055856 0.029524744 -0.018312743 0.02440087 -0.036755487 -0.034893688 0.015997116
0.0021600893 -0.025778642 -0.0010041911 -0.02018705 -0.024060946 -0.022867264 -0.015390464 0.008499484
0.0075299144 0.033762824 0.021105815 0.006133294 -0.023576861 -0.032900486 0.03303291 -0.005719719
0.030864984 0.012248269 -0.024267068 0.01185609 0.033722352 -0.012518503 -0.0143514825 0.016122827
0.0077854497 -0.013558133 0.02748208 0.03215773 0.022360839 0.014805684 0.03395348 0.011390762
0.043513846 -0.025594614 0.04333794 0.03816008 -0.0075810365 0.049607843 0.034643892 0.028814338
0.025885062 0.010310828 -0.002141604 0.01671658 0.006165969 0.04790576 -0.0035058428 0.025383357
-0.0038944753 -0.024036074 -0.018155549 0.010424267 0.020975022 0.012822744 0.020847179 -0.0015670256
0.050608948 0.0359637 0.02228626 0.04063299 0.030541828 -0.0046865544 0.0011160711 0.010487142
0.020699576 0.051282894 0.025913095 0.009614902 0.044167157 -0.016572053 -0.030660765 -0.008301148
-0.021899004 0.045563955 0.046304513 0.0062075215 -0.022205824 -0.012841174 0.01542635 -0.017913036

action_model._continuous_distribution.log_sigma f4 [1, 3]
00000000: 851f 4fbc cee0 95b8 c2ea 33bc
-0.012641792 -7.146747e-05 -0.010981264

action_model._continuous_distribution.mu.weight f4 [3, 128]
00000000: 293e 11bd 5030 7c3c bcc6 973b befa be3c
00000010: 0c25 c33c 5331 82bd 1e53 123d ccba 9dbc
00000020: bcc0 7b3d 7da5 173c 2009 823d a441 233d
00000030: c24c 083d c174 72bc fa46 a9bc 3b9f 223d
00000040: 970c 0fbd dc35 02bd 1ebe 5d3c 6c8f 6ebd
00000050: f831 a83c 6f78 343d a965 2e3c 20ad 9a3b
00000060: 1e3f 67bd c4e9 223d 22c9 01bd 1d1c f5bc
00000070: 19f2 c63c af56 4d3c 9d0a d13c 162f 0ebc
00000080: b940 7ebd 63db 503c e2ed ccbb 9bf2 5bbd
00000090: 2ff1 48bd 7481 df3c 0adb 1d3a dc0d 0c3d
000000a0: 9175 35bd a4db 5c3d 92c9 9a3c 5a71 4cbd
000000b0: 7370 e13c bb1f 88bd b685 9cbd 9bb5 3fbd
000000c0: bdc3 93bc ecaa bdbc 33c8 4dbd 8d83 5bbd
000000d0: 8723 14bd 72cb c0bc c5f5 9dbc 82bc ac3c
000000e0: 837f 40bd 34ca 99bb 18e0 2e3c 1c0d ccbc
000000f0: 5aec 01bd cb21 5cbd b271 f73c 218b 63bb
00000100: 54d7 e33b 73b0 ce3c 9bf8 c2bb 5ffc 3e3c
00000110: fcb5 253a ec58 bebc 9447 debb 84b7 1e3c
00000120: 9cfd 27bc cefb dfbc 3911 fc3c befb 813d
00000130: 473b 11bd f673 3f3c ef91 6b3d 7d3b adbb
00000140: 93ca 4fbc 1030 82bc 7e51 e83c c1d4 c63c
00000150: 0756 71bc 14e2 083d b9fa b73c 74bf cdbb
00000160: 7c15 c23c 9fef 99bd bbd5 48bd fc8e ac3c
00000170: 03d9 cbbc c9c7 b63d 2072 383c d205 05bd
00000180: 2604 28bc 73d9 3abd d1e9 2ebd 8ea8 7b3a
00000190: 604f 9b3c 9493 ca3c c1c7 873c adb3 cabc
000001a0: 8243 393d 91b8 483d 998d dd3c a1da 433d
000001b0: 397a f8bb 1480 89bd 27db 02bc 485c 15bd
000001c0: 25cb 73bc fb24 1e3d f3fa 7a3c b32a 57ba
000001d0: 1ede 2b3d fa0f 9dbc 511a 73bd 9481 9cbd
000001e0: 2f2b 90bd b6f4 ae3b ebb1 723d 673c 15bd
000001f0: 9ee3 f0bc 250e 15bd 2d1e d33c 4ef1 27bd
00000200: a0cf 5ebc 71d6 aa3b 8957 9abd 2e52 553c
00000210: 84be 6e3d ef18 4dbb 77e1 733d 0576 94bc
00000220: 2996 fbbb b1e2 1f3c f7ee 39bc 8d93 82bd
00000230: 42b6 773d b451 1abc fb03 07bd 2bf8 1d3c
00000240: bba1 0bbd 615b 93bc d170 1d3d 013f b8bc
00000250: 3b07 b5bc 97b0 463c 55eb 733d abee af3c
00000260: dbdf ecbc 5639 e83c 7f5f a6bc 9e94 4ebc
00000270: f27f 4c3d 28c7 bf3c 3619 183d 20c7 883c
00000280: 5baa 863b 7671 24bd 9c57 c9bb 1ccb cdbb
00000290: 550a 253d a0a7 cabb 83af 5d3d ce7f 6dbc
000002a0: da13 ccbc b776 47bc 6bdd cf3c 0bd0 09bd
000002b0: 8e0d a8bb 5d8a fdbc c72e 8cbc 0da0 71bc
000002c0: 3cdb 2e3d 7c78 dfbc 08c3 e03c fb4c cabb
000002d0: d55b 70bb 4b4c f33a e47b 01bc da7b 2cbd
000002e0: 67e4 433d c976 443d 4e7c 663b e5e2 963c
000002f0: e174 003c 4217 c5bb 64d8 43bc 29f4 b03c
00000300: c880 3abc 0606 e1bc edd8 7dbc 5f65 8fbc
00000310: 6c73 123d e40e 0b3c b0b0 b3bc f998 0d3d
00000320: 51c1 433d 1a28 3fbd cca1 cbba 10d8 6e3c
00000330: dec1 873d 5023 d4bc d303 2fbd 2cd9 e1bc
00000340: 0e50 8f3d 00c2 a0bc 57c3 babc fabd 103d
00000350: 8857 efbc 043a 5f3c 6b85 313d 08b0 4d3d
00000360: 469b 68bd b2f7 aebb c626 ae3c 4e34 14bc
00000370: 12a7 613c d105 9e3c c2c4 91bd 4720 6b3c
00000380: a5bb 19bc 9734 28bd f22a b0bc 41ae 07bc
00000390: 6b05 8abd 9c32 febc bf7c 75bd 0e16 683d
000003a0: 4a0f 543d 94ed 313c fc3b 55bb 62d7 1dbd
000003b0: 1671 28bc a535 a2bd 8d90 2dbd 9b82 553d
000003c0: 2d79 a2bb cca6 bebb 6489 5d3c 54e8 85ba
000003d0: c69f d73c 67e4 9c3c 19dd dbbc 849d 12bd
000003e0: 127f 7a3c 1747 0b3d 5e98 dd3c 4cd9 c3bc
000003f0: e1de bbbc d1e0 acbc bd0e d83b aacf 99bb
-0.03545967 0.015392378 0.0046318453 0.023312923 0.023821376 -0.06357064 0.035723798 -0.01925411
0.061463103 0.009255764 0.06349397 0.03985752 0.033276327 -0.014798344 -0.020663727 0.039702635
-0.034924116 -0.031789646 0.013534097 -0.058242247 0.02053164 0.044060167 0.010644355 0.004720345
-0.056456678 0.039773718 -0.031685956 -0.029920632 0.024285363 0.012532874 0.025517756 -0.008678218
-0.062073443 0.012747618 -0.006253944 -0.053698163 -0.049058136 0.027283408 0.0006021714 0.034192905
-0.044301573 0.053920403 0.018894944 -0.049912788 0.02751944 -0.06646677 -0.07642691 -0.04680405
-0.018037671 -0.023152791 -0.050239753 -0.053592253 -0.036166694 -0.02353451 -0.019282231 0.021085981
-0.046996605 -0.004693294 0.010673545 -0.024908595 -0.031719543 -0.053743165 0.030205581 -0.0034720378
0.0069531593 0.025230622 -0.0059500462 0.01165685 0.0006321368 -0.02323576 -0.006783435 0.009687308
-0.010253336 -0.02734175 0.030769931 0.06346844 -0.035456922 0.011685362 0.05751222 -0.0052866326
-0.012682575 -0.015892059 0.028359171 0.02427137 -0.014729983 0.03341873 0.022458421 -0.0062789265
0.023691885 -0.07516407 -0.049031954 0.021064274 -0.024883753 0.08924825 0.011257678 -0.032476254
-0.010254895 -0.045617532 -0.042703453 0.0009600007 0.018958747 0.024728574 0.016574742 -0.02474388
0.045230396 0.04900414 0.027045058 0.047815923 -0.0075829295 -0.06713882 -0.00798682 -0.03646496
-0.014879976 0.038609486 0.01531862 -0.0008207962 0.041959874 -0.019172657 -0.05935127 -0.076419026
-0.070394866 0.0053392304 0.059251707 -0.036434557 -0.029405411 -0.036390442 0.025771225 -0.04100161
-0.013599306 0.0052135517 -0.07536227 0.013020081 0.05828716 -0.003129538 0.059541192 -0.018122682
-0.0076778126 0.009758637 -0.011348478 -0.06375799 0.06047655 -0.009418894 -0.03296278 0.009641687
-0.034089785 -0.017987909 0.03843767 -0.02249098 -0.022098174 0.012127063 0.059550602 0.02147611
-0.028915336 0.028347652 -0.020309208 -0.012608675 0.049926706 0.023410395 0.037133418 0.016696513
0.0041096634 -0.040147267 -0.006144477 -0.006280316 0.040293057 -0.0061845332 0.05412246 -0.014495803
-0.02491181 -0.0121743 0.025374135 -0.03364567 -0.005128569 -0.030949766 -0.017112149 -0.014747632
0.042689547 -0.027279131 0.027436748 -0.0061737276 -0.003667583 0.0018562166 -0.007903073 -0.0421103
0.047825243 0.047964845 0.0035169306 0.018418739 0.007840366 -0.0060147354 -0.011953447 0.0216008
-0.011383243 -0.027468693 -0.015493614 -0.017504392 0.035754606 0.008487437 -0.021934837 0.034569714
0.047791783 -0.046669103 -0.001553589 0.0145778805 0.06628774 -0.025895745 -0.042728256 -0.027569376
0.06997691 -0.019623756 -0.022798223 0.035337426 -0.029216543 0.013624672 0.043340128 0.050216705
-0.056788705 -0.005339586 0.021258723 -0.0090456735 0.013772743 0.019289883 -0.07117607 0.014350957
-0.009383117 -0.04106578 -0.021504853 -0.008281291 -0.06739315 -0.031029992 -0.05993342 0.056661658
0.051772393 0.010859866 -0.0032536974 -0.038535483 -0.010280868 -0.07920388 -0.042374182 0.05212651
-0.004958293 -0.0058182236 0.013521526 -0.0010216334 0.026321303 0.01915188 -0.026838826 -0.03579475
0.015289085 0.034003343 0.027050193 -0.023907326 -0.022933425 -0.021103295 0.006593554 -0.004693945

action_model._continuous_distribution.mu.bias f4 [3]
00000000: 3b10 1b3d 92cf 823c ec9b 453a
0.037857275 0.015968118 0.0007538188

exp_avg f4 [128, 6]
00000000: 2f78 02b7 7ac9 3fb7 ff1e 7e38 4a7f 69b8
00000010: 53b7 3bb7 18ec 20b8 50cd 6337 4387 5b38
00000020: e308 2239 082b 8038 33a7 4e38 ce40 0239
00000030: f8f2 b0b8 7c28 12b8 2c58 1339 0783 7a38
00000040: 06b2 a637 2070 16b6 9687 78b8 d6ae 32b9
00000050: 7901 4c38 aebd 70b8 180f 52b8 f5b1 2ab9
00000060: b834 96b8 7943 00b9 e8b7 e037 ce2c 5db8
00000070: 4229 0b38 fc8e 50b9 8093 8534 791f 3c39
00000080: 908b 29b9 5f08 3439 1090 9238 4063 8236
00000090: b647 09b9 7984 e938 4ecb 27b9 a8d2 1938
000000a0: e28f f738 a09f f2b9 2579 3c38 1c37 d638
000000b0: 00aa 7c37 8d3a 8939 ac00 85b8 07ad b738
000000c0: 3013 8938 984e 9e37 afcd 91b9 d885 0c39
000000d0: d53c 1bb9 f4a3 9b39 46f6 17b9 ee55 98b9
000000e0: 16fe 8e39 73ce 4538 a2c5 52b9 00f8 3eb4
000000f0: a843 fdb8 9cdf a0b7 aed9 46b8 c603 ceb7
00000100: d0bf 1935 fa8c 09b7 c791 d238 903a 0737
00000110: 5c34 3b38 a82c 9338 e7e6 ac38 fc1c 46b9
00000120: 7438 5fb9 cb3d 90b7 b03e 2939 0a38 10b8
00000130: 2ce6 c638 d217 90b8 cef2 78b9 cd58 94b8
00000140: e439 5839 b671 8d38 6eb5 1838 8d1b a239
00000150: f12c de38 1c9c 51b9 0808 1d37 fe8c 9bb8
00000160: 9172 4ab9 fa4e d938 2086 4a39 8d87 3238
00000170: 57d5 7eb8 2781 a938 0a9b 24b8 778a 9cb9
00000180: e2f6 a438 b5bb d6b8 644e 92b9 522c 1bb9
00000190: 5315 33b8 30f0 cbb9 a6eb 1fb9 125f acb8
000001a0: 441c e638 ad90 97b9 38b5 8438 e869 d039
000001b0: e2d7 19b7 005e d337 b6e2 e037 4cdc 9c38
000001c0: 7b10 2b37 7af5 3c37 a29e b0b7 9bc9 cfb8
000001d0: e183 6eb8 5a7b 41b9 1ce7 a4b7 d490 cfb9
000001e0: f010 21b6 f11f 4236 0cf4 ad38 9dc1 15b8
000001f0: 403d 26b4 b543 3138 8db6 2f38 edba e4b8
00000200: 36cb b8b8 abf8 13b8 fcee 16b8 cdee 87b9
00000210: fcde 9d39 60c1 3139 6a11 84b9 9c47 ed39
00000220: 7a7a 13b9 13d4 6b39 b83d 8fb7 5ce6 f238
00000230: 6449 c0b8 081f d438 d53e ef37 bc11 20b8
00000240: a112 3ab8 1c3a f837 d61e 0439 d913 3038
00000250: 6215 3938 7cf5 4938 6422 0a39 981f c5b7
00000260: 421d a4b8 a8ae e937 1441 85b8 c7e0 57b8
00000270: b0a5 6636 0469 3938 93f3 cf37 a599 9f37
00000280: 0edf cd37 fafe 8f38 4a04 3d39 c42f 8cb9
00000290: 6473 2238 2a0e 0ab9 4fa3 2eb9 4852 b038
000002a0: 68ef 6e36 122d 6337 0803 93b6 6011 b235
000002b0: 74e3 e536 4830 bab7 f61e 0638 467f cb37
000002c0: 8bd1 58b8 4cdf a437 b156 33b8 2452 7b38
000002d0: 555b 9638 ca8a c4b8 c0ee 30b9 d7ca feb8
000002e0: c7e0 92b7 7397 b5b9 440c efb8 2dd4 8a39
000002f0: 1234 98b9 1993 2439 c370 1039 3865 b237
00000300: a84f 38b8 ce4a 0fb9 0704 f838 c013 dcb7
00000310: a497 2cb8 a4d2 b9b8 e74b 0ab9 48e9 6f39
00000320: 103a 99b8 749b 0139 cf37 2939 7857 cbb8
00000330: b6b1 22b8 fd53 b8b7 906b afb8 e9a0 12b8
00000340: 3e58 86b8 9250 29b8 cc25 1e38 fa19 b738
00000350: 2e63 0f38 aa1b 4939 44aa c936 cc6d 05b8
00000360: 265e 5e38 d061 ab39 e060 a538 3cf0 ea39
00000370: d93c 2e39 58a2 2539 63b9 4fb9 a359 8138
00000380: 3eed 3a39 30a0 8337 fae3 8c38 6860 2237
00000390: e6ad 1038 406a 63b5 ebb1 3638 2254 1838
000003a0: 94f8 e336 88ca 4fb7 2cd2 20b9 444b 9fb8
000003b0: 2ef9 9638 763c 2bb9 4753 2437 7eac b4b8
000003c0: ec47 6cb8 fe2f 14b7 5906 02b9 be5e eab8
000003d0: 3b96 1b38 8d96 01ba 313f ab38 e021 2739
000003e0: 7047 52b7 fb18 6b39 a48f a937 360e 3839
000003f0: 3d71 1eb8 af91 26b9 10b1 a336 5350 d4b8
-7.776586e-06 -1.1431397e-05 6.0587186e-05 -5.5670076e-05 -1.1188752e-05 -3.8366852e-05 1.3578057e-05 5.233964e-05
0.00015452834 6.111531e-05 4.9269944e-05 0.00012421908 -8.4375904e-05 -3.4846817e-05 0.00014051859 5.9726673e-05
1.987164e-05 -2.2417007e-06 -5.9254082e-05 -0.00017040534 4.863876e-05 -5.7397112e-05 -5.008196e-05 -0.00016278758
-7.162377e-05 -0.00012232167 2.6788519e-05 -5.2732234e-05 3.3178607e-05 -0.00019889692 2.48805e-07 0.00017940802
-0.00016169087 0.00017169256 6.988656e-05 3.885856e-06 -0.00013092053 0.00011134981 -0.00016002098 3.667423e-05
0.00011804678 -0.00046276767 4.4935518e-05 0.0001021458 1.5059952e-05 0.000261743 -6.342059e-05 8.758349e-05
6.536243e-05 1.8871666e-05 -0.000278098 0.00013401301 -0.00014804614 0.00029686058 -0.00014492226 -0.00029055722
0.0002727366 4.716073e-05 -0.00020100785 -1.7785351e-07 -0.00012076582 -1.9177613e-05 -4.740961e-05 -2.455887e-05
5.7276065e-07 -8.19866e-06 0.000100407335 8.060262e-06 4.4633038e-05 7.017824e-05 8.244608e-05 -0.00018893549
-0.00021287968 -1.7194912e-05 0.00016140449 -3.4384466e-05 9.4842486e-05 -6.870892e-05 -0.00023741575 -7.0737304e-05
0.00020620931 6.744584e-05 3.6408594e-05 0.00030919575 0.00010594156 -0.00019989948 9.359799e-06 -7.417238e-05
-0.000193069 0.00010362077 0.00019314187 4.256475e-05 -6.0757007e-05 8.0826045e-05 -3.924504e-05 -0.00029857803
7.866115e-05 -0.00010239278 -0.00027905696 -0.00014798463 -4.2696785e-05 -0.0003889813 -0.00015251208 -8.219307e-05
0.000109725195 -0.00028908756 6.328005e-05 0.00039751758 -9.169775e-06 2.5196932e-05 2.6808451e-05 7.479693e-05
1.0196231e-05 1.1262828e-05 -2.1054704e-05 -9.908081e-05 -5.6866444e-05 -0.00018451866 -1.9657942e-05 -0.00039590022
-2.4000728e-06 2.8926845e-06 8.29474e-05 -3.5704685e-05 -1.5482237e-07 4.2263146e-05 4.1893265e-05 -0.00010906705
-8.811655e-05 -3.527912e-05 -3.598536e-05 -0.00025927127 0.0003011151 0.00016952073 -0.00025189976 0.00045257516
-0.00014064639 0.0002249035 -1.7075668e-05 0.00011582367 -9.1689435e-05 0.00010114728 2.8520279e-05 -3.816349e-05
-4.4363205e-05 2.9590963e-05 0.00012599988 4.1980154e-05 4.412735e-05 4.815076e-05 0.00013173517 -2.3498942e-05
-7.825579e-05 2.7857095e-05 -6.354056e-05 -5.1469335e-05 3.4369114e-06 4.420524e-05 2.4789746e-05 1.9025823e-05
2.4541772e-05 6.8662644e-05 0.00018026042 -0.0002673847 3.8731276e-05 -0.00013165982 -0.0001665477 8.40766e-05
3.5604116e-06 1.3540748e-05 -4.3812943e-06 1.326709e-06 6.851211e-06 -2.219541e-05 3.1976924e-05 2.4258752e-05
-5.1693565e-05 1.9654304e-05 -4.2757663e-05 5.9919563e-05 7.169569e-05 -9.37186e-05 -0.0001687361 -0.00012149446
-1.7509226e-05 -0.0003463585 -0.00011398693 0.00026479494 -0.00029030495 0.00015695057 0.00013774917 2.1266387e-05
-4.3943204e-05 -0.0001366541 0.00011826312 -2.623524e-05 -4.1149222e-05 -8.860722e-05 -0.00013188981 0.0002287972
-7.3064235e-05 0.0001236031 0.00016137886 -9.6960866e-05 -3.8789316e-05 -2.197362e-05 -8.364685e-05 -3.495897e-05
-6.406054e-05 -4.0367777e-05 3.7705337e-05 8.7309585e-05 3.4186225e-05 0.0001917916 6.0100883e-06 -3.1811927e-05
5.3016607e-05 0.00032688538 7.8858575e-05 0.00044810947 0.000166166 0.00015796104 -0.0001981012 6.1678955e-05
0.00017826722 1.569101e-05 6.718184e-05 9.678399e-06 3.449423e-05 -8.4718704e-07 4.355788e-05 3.631798e-05
6.7940655e-06 -1.2385317e-05 -0.00015337084 -7.59573e-05 7.198971e-05 -0.00016330354 9.794551e-06 -8.615198e-05
-5.6333767e-05 -8.8326615e-06 -0.00012400131 -0.000111756366 3.7094793e-05 -0.0004943393 8.165686e-05 0.0001593898
-1.2533608e-05 0.00022420652 2.0213258e-05 0.00017552901 -3.7775597e-05 -0.00015885265 4.8783913e-06 -0.00010123909

exp_avg_sq f4 [128, 6]
00000000: 9eed 7231 ed19 c431 261f 0332 4456 7c32
00000010: 43d4 3e30 5cb0 a132 d3f0 f931 a701 7131
00000020: e42f f932 0009 6832 6332 1431 f5c5 8432
00000030: 42d6 8032 c569 0133 9b4e a433 5f44 8833
00000040: 7fcb 0032 e3ec 8933 4d53 4d33 e586 2f33
00000050: 38b8 a733 2e7f 1634 9dc7 c632 575e 3034
00000060: 7bb3 2f34 0ef6 5d34 6b14 aa34 df93 2e35
00000070: e0f3 d633 2f29 1c35 8c4b 8d33 ff75 3634
00000080: 7e69 b334 266e cc34 08ce 5633 02b1 1235
00000090: 660f 8034 9765 0035 1faa 5735 a61a b335
000000a0: 2058 2634 6fc0 b735 a928 2334 aad6 d434
000000b0: 4ef4 9834 604e 6535 9565 9933 2e6e c534
000000c0: bf02 7834 c124 0235 b114 ea34 c4f2 b035
000000d0: ec7d 3334 4a37 5335 096e 9034 105f f934
000000e0: 9de4 2235 24cc 8335 f887 0334 03e3 5435
000000f0: b77d da32 e435 2733 aec9 c033 af02 9533
00000100: 307b 9f31 d09e b933 bad5 7633 4e1d c733
00000110: a3fc b333 f840 2534 9e40 5332 97d9 fe33
00000120: c01f e233 377e 0a34 6167 6034 6964 a734
00000130: 80c0 3033 04bd 8034 871a 9e33 b4eb aa33
00000140: 4b7f ea33 ef05 6634 ff70 ab32 3874 2e34
00000150: c56a c133 4f43 3134 19ff 6634 cceb df34
00000160: c5f1 5333 086e 9c34 cb2a 9b33 4206 ea33
00000170: 189b c433 ca90 4e34 5aaf c032 0e22 2d34
00000180: e1a7 4733 cdba 8d33 84c7 fd33 6e6d 4934
00000190: 10e4 1433 81af 7034 63d0 dc33 2ce3 fb33
000001a0: bbe4 1234 82fc 8734 e807 ea32 4e3b 9634
000001b0: 81fe 4032 222d 8432 55e7 b832 e06c 2533
000001c0: 76ba 2e31 a2ff f132 f20e 1433 9047 8333
000001d0: 8f60 f233 fe9d 2b34 d2eb c732 aae9 8434
000001e0: 5ca2 5a32 e956 e131 a7ac 9732 4b87 6332
000001f0: c330 5a30 b05d 8732 a7f5 e232 1273 f232
00000200: 4ec7 8733 9397 df33 7d4c 5732 51c5 0934
00000210: 4cfa a134 c53d 5c35 5a00 1535 2ae0 0936
00000220: 5a63 5c34 f23e a335 bb7f 2834 4d35 9c34
00000230: dee1 9734 2e7e 4e35 564f a733 6634 ff34
00000240: 44e9 0532 8a84 0132 3f3d 0533 1bd9 8732
00000250: 5625 e130 95f9 9b32 e9bb 3c33 5c2b bd33
00000260: 9846 e833 0cd5 8734 b183 0633 2319 4134
00000270: a99e 8731 3b37 0931 57c0 8f31 c152 a331
00000280: 0490 1230 7b7a bd31 f181 9233 b88b c533
00000290: cb19 7134 1451 9a34 3f5f 3733 d5dd 8134
000002a0: 464d 8031 552f 8331 d847 d431 5f97 e831
000002b0: cc8f 0031 90a7 f331 88b4 9f32 56c5 1a33
000002c0: 348f 6633 4493 df33 ec91 af31 ba68 aa33
000002d0: dc20 4d33 de1e ae33 4f85 4334 b049 7a34
000002e0: 984b ff32 2ef3 9234 ea3c cf33 97e6 9634
000002f0: 3168 ac34 d7f5 3135 fd4e ac33 122e 2635
00000300: c052 8333 8ea0 ab33 667f f133 0348 6634
00000310: 9b9c b732 c5c3 1f34 da52 e933 8e74 8a34
00000320: 3114 9634 1291 1d35 5bc8 9333 6f01 0735
00000330: f465 9032 0156 9b32 e325 2f33 06f2 0f33
00000340: 9022 8031 864d 8733 ce0e 8c33 66b3 0134
00000350: f9c7 ea33 f303 8234 f729 bc32 5b5c 3334
00000360: 0064 4434 c681 e634 1960 b734 b739 6f35
00000370: 9ea2 b433 49d3 2235 8240 0534 5906 8934
00000380: 8665 9934 350b 1835 6a91 8933 84dd 0935
00000390: fea1 2f32 116c 8932 5114 0233 85ac 1b33
000003a0: 9c0c 7131 1121 0933 2512 9633 70e9 f933
000003b0: ef4a e533 0e3b 7e34 c642 b732 69ec 9534
000003c0: 9c7c 0b34 ff1a 8a34 b844 dc34 4751 3135
000003d0: 2a62 bb33 97de 4635 1b5a c033 3d83 6734
000003e0: 3de9 6e34 fcba 1635 cbdf 6033 997f c234
000003f0: 7be9 f333 d8d1 6634 e126 3a34 34f9 fa34
3.5350705e-09 5.707298e-09 7.632286e-09 1.4687945e-08 6.942324e-10 1.8823066e-08 7.2742323e-09 3.5071055e-09
2.9009193e-08 1.3506224e-08 2.1565476e-09 1.5456843e-08 1.4998594e-08 3.013135e-08 7.6511434e-08 6.34543e-08
7.49685e-09 6.422649e-08 4.7806044e-08 4.086805e-08 7.810053e-08 1.4016106e-07 2.3141007e-08 1.6425598e-07
1.636344e-07 2.0671743e-07 3.1679824e-07 6.503523e-07 1.0009512e-07 5.817446e-07 6.579566e-08 1.6992998e-07
3.3418104e-07 3.8078105e-07 5.0013142e-08 5.464682e-07 2.3853062e-07 4.783155e-07 8.03413e-07 1.3344295e-06
1.5492014e-07 1.3690568e-06 1.519535e-07 3.9644266e-07 2.848996e-07 8.54232e-07 7.1430954e-08 3.6774276e-07
2.3097799e-07 4.848226e-07 4.3600951e-07 1.3183676e-06 1.6716484e-07 7.868408e-07 2.690215e-07 4.644903e-07
6.068238e-07 9.819673e-07 1.2249791e-07 7.93065e-07 2.5435709e-08 3.893173e-08 8.977382e-08 6.938841e-08
4.641514e-09 8.6436216e-08 5.747072e-08 9.27199e-08 8.3812914e-08 1.5390458e-07 1.2296509e-08 1.1867376e-07
1.05297204e-07 1.2898168e-07 2.0899235e-07 3.1179232e-07 4.115327e-08 2.3979385e-07 7.3622736e-08 7.959116e-08
1.09196286e-07 2.1422578e-07 1.9958405e-08 1.6247293e-07 9.006684e-08 1.6508896e-07 2.1513223e-07 4.1708552e-07
4.9347154e-08 2.9137323e-07 7.225534e-08 1.08976124e-07 9.1551726e-08 1.9237919e-07 2.2431482e-08 1.612427e-07
4.6485983e-08 6.599803e-08 1.1817522e-07 1.8759394e-07 3.4666357e-08 2.241559e-07 1.02824536e-07 1.17294206e-07
1.3680521e-07 2.5329433e-07 2.724478e-08 2.7982827e-07 1.1233738e-08 1.5387347e-08 2.1525617e-08 3.8516077e-08
2.5426323e-09 2.8172341e-08 3.4472528e-08 6.11318e-08 1.1286567e-07 1.5983093e-07 2.3273888e-08 2.475693e-07
1.2726186e-08 6.5582424e-09 1.7657227e-08 1.3243901e-08 7.937723e-10 1.5758673e-08 2.6421572e-08 2.8224836e-08
6.322681e-08 1.0411818e-07 1.25320385e-08 1.2830903e-07 3.0170702e-07 8.2046273e-07 5.5507337e-07 2.0545071e-06
2.052524e-07 1.2162766e-06 1.5692687e-07 2.9096046e-07 2.8290282e-07 7.6924596e-07 7.7909746e-08 4.7535576e-07
7.794657e-09 7.538924e-09 3.102218e-08 1.5814797e-08 1.6381516e-09 1.8157872e-08 4.3943064e-08 8.808885e-08
1.0816183e-07 2.5300722e-07 3.131908e-08 1.798367e-07 3.9470547e-09 1.9967519e-09 4.1837143e-09 4.7533324e-09
5.331915e-10 5.5145484e-09 6.822291e-08 9.198942e-08 2.2454257e-07 2.8743727e-07 4.2694634e-08 2.4189526e-07
3.7340753e-09 3.817983e-09 6.1781797e-09 6.7692976e-09 1.870819e-09 7.0912805e-09 1.8592132e-08 3.6035395e-08
5.368129e-08 1.0411034e-07 5.1097597e-09 7.9352915e-08 4.7760167e-08 8.108121e-08 1.8209288e-07 2.3309872e-07
2.9720283e-08 2.7371556e-07 9.650269e-08 2.8107453e-07 3.2113306e-07 6.629538e-07 8.023742e-08 6.190686e-07
6.115215e-08 7.992013e-08 1.1245611e-07 2.1446617e-07 2.137522e-08 1.487925e-07 1.08649786e-07 2.5789308e-07
2.7954368e-07 5.869816e-07 6.8816654e-08 5.0293505e-07 1.681017e-08 1.8083485e-08 4.077982e-08 3.35149e-08
3.7292196e-09 6.300529e-08 6.521951e-08 1.2079326e-07 1.0932849e-07 2.421726e-07 2.1905164e-08 1.6704273e-07
1.8290302e-07 4.293526e-07 3.4156326e-07 8.9118424e-07 8.411483e-08 6.0657163e-07 1.2410058e-07 2.5522857e-07
2.857234e-07 5.664072e-07 6.40601e-08 5.1358825e-07 1.0223173e-08 1.5998042e-08 3.028646e-08 3.6245655e-08
3.5077283e-09 3.1927872e-08 6.98822e-08 1.1637428e-07 1.0677274e-07 2.3677077e-07 2.1334369e-08 2.7925424e-07
1.2990716e-07 2.5724145e-07 4.1028193e-07 6.605591e-07 8.725722e-08 7.408466e-07 8.957087e-08 2.1561296e-07
2.2250329e-07 5.615145e-07 5.2357603e-08 3.6228155e-07 1.1358039e-07 2.149676e-07 1.7336744e-07 4.6747448e-07

exp_avg f4 [128]
00000000: 1221 a5b7 42da 4d37 a0d7 d437 7536 9eb8
00000010: 9f30 29b9 bc20 8b37 4f24 09b9 4547 9438
00000020: ca1b 9ab8 c0c5 7bb8 582b 8cb6 f94e b038
00000030: c047 b6b8 0235 0eb8 37cf eab8 827b 9338
00000040: e7da 10b9 b17f 7ab9 66c0 8b37 662c e1b8
00000050: 8509 13b8 1b8d a0b8 8481 d538 b02e 9a36
00000060: 6a18 3937 028d 62b8 5e21 8fb6 9277 0eb9
00000070: dcfb cb36 b028 6db7 843c bab8 1077 fb37
00000080: 6ab4 91b8 84db c937 724f b1b7 a476 c038
00000090: d4b6 8039 fe8a b338 68a7 8036 be7a 3ab8
000000a0: c69e 21b9 421d 7738 ae52 2cb8 8e22 a1b8
000000b0: d415 a0b6 3434 b2b8 9c9b f3b8 1adf 3bb8
000000c0: 82c7 1638 e863 23b8 576e 1fb8 be04 1938
000000d0: 6eac 31b8 2037 2c38 089d 9d37 10c7 96b5
000000e0: 7885 1837 306b c336 ac15 b537 bc6c bb37
000000f0: 420e 3138 fd33 e737 8725 bab7 d857 4436
00000100: a601 2cb9 48b2 3bb8 6a12 7438 660e 9738
00000110: db98 8e38 6c56 1ab6 2451 70b8 b8cd 1838
00000120: 8c35 28b9 e072 1cb9 f814 00b7 df08 a8b7
00000130: 7060 d437 d487 1239 064e c4b8 d8f7 f738
00000140: e53b 0f38 cedd b038 6911 5839 8e93 98b8
00000150: 6b49 a538 f2b4 8e37 624c 68b7 4908 0037
00000160: 9f74 0c39 1a83 0e39 81c7 5cb7 7a29 3db8
00000170: aaab 58b7 022e 9937 1c3f ef37 4071 6b38
00000180: c892 b6b7 3ff4 0ab7 27e7 a9b8 c008 bc36
00000190: 0895 4238 ac99 f138 90e2 9d38 82b3 dc36
000001a0: 4c37 e0b8 b7c8 00b8 e731 54b8 36e2 5ab9
000001b0: ab63 8a38 7221 07b9 e8fe a7b8 901a eab6
000001c0: 1471 82b7 6447 0a37 5df0 3038 bba3 82b8
000001d0: 538b 1137 150e 4e38 e337 4d38 7077 1337
000001e0: 0b92 5fb9 5e23 aeb8 f099 4738 e464 4cb7
000001f0: 13b4 c338 ad24 b437 cfa4 ccb7 727c ee38
-1.9684932e-05 1.2269769e-05 2.5372778e-05 -7.5441705e-05 -0.00016135209 1.6585334e-05 -0.00013078864 7.070465e-05
-7.348468e-05 -6.0027232e-05 -4.177371e-06 8.407044e-05 -8.691801e-05 -3.3904806e-05 -0.00011196586 7.032511e-05
-0.00013814458 -0.00023889427 1.6659684e-05 -0.00010737106 -3.5056397e-05 -7.6556775e-05 0.000101807556 4.594993e-06
1.1032544e-05 -5.4013923e-05 -4.2656166e-06 -0.00013586719 6.0791917e-06 -1.4135774e-05 -8.880443e-05 2.9976974e-05
-6.9477435e-05 2.4063287e-05 -2.1137039e-05 9.177372e-05 0.0002455028 8.5612744e-05 3.834186e-06 -4.446017e-05
-0.00015413304 5.8916637e-05 -4.1084997e-05 -7.6835146e-05 -4.7709127e-06 -8.497425e-05 -0.000116161274 -4.4792054e-05
3.5948593e-05 -3.8955273e-05 -3.8011316e-05 3.648246e-05 -4.2360676e-05 4.1059335e-05 1.8788982e-05 -1.1233806e-06
9.090982e-06 5.823931e-06 2.1586973e-05 2.234277e-05 4.2213367e-05 2.7561555e-05 -2.2190403e-05 2.9257408e-06
-0.00016403812 -4.475031e-05 5.8191283e-05 7.202923e-05 6.799559e-05 -2.2998092e-06 -5.7296027e-05 3.6431215e-05
-0.00016041676 -0.00014920114 -7.634277e-06 -2.0031292e-05 2.5317277e-05 0.00013974245 -9.360541e-05 0.00011824042
3.4149638e-05 8.433648e-05 0.00020605851 -7.275409e-05 7.881488e-05 1.7011978e-05 -1.3846062e-05 7.631324e-06
0.00013394885 0.00013591014 -1.31594725e-05 -4.509974e-05 -1.2914572e-05 1.8260445e-05 2.8520408e-05 5.613384e-05
-2.1764441e-05 -8.282309e-06 -8.1016035e-05 5.6038552e-06 4.6392e-05 0.00011520399 7.528544e-05 6.5774084e-06
-0.00010691452 -3.070451e-05 -5.0591214e-05 -0.0002087437 6.5989174e-05 -0.00012887063 -8.0106605e-05 -6.9768357e-06
-1.5549864e-05 8.242063e-06 4.2185526e-05 -6.22938e-05 8.675112e-06 4.9127342e-05 4.8927857e-05 8.7896915e-06
-0.00021321343 -8.303554e-05 4.7588663e-05 -1.2182838e-05 9.331866e-05 2.147475e-05 -2.439544e-05 0.00011371904

exp_avg_sq f4 [128]
00000000: 2ad9 c031 7ea3 c731 f310 ad32 e2a9 3833
00000010: 6680 5034 34ef 0034 c627 e034 c409 8e34
00000020: d28d d234 7697 9f34 ddcb db32 924d 6533
00000030: 6746 da33 0929 9333 aaa9 0c34 9303 7d33
00000040: 4532 8a33 40d0 d033 fee5 6032 4a46 4b33
00000050: db8a da31 2e3c 0b33 fb38 2135 ca7b 7d34
00000060: 68d3 e131 0c6d a433 f0bb 0831 1dcb c833
00000070: 6b0b 3531 05ec 1133 19b4 9c33 abf6 5a34
00000080: 38e7 8533 7588 3f34 f658 4e32 c3be 9e33
00000090: f9d8 9134 1bed 2b34 22da 4c32 a1b4 9233
000000a0: 3255 5b34 4093 3334 a0be 1134 e4bc aa32
000000b0: 03b6 1933 a233 b533 f526 c533 b208 f433
000000c0: 97f4 a933 ec48 7d33 4411 bb32 cf77 8e32
000000d0: 958e 4433 047c 6d34 95c0 1c32 dce0 9b31
000000e0: f8ae 2c32 5b5e 1134 46c1 b933 6c36 0d34
000000f0: 7efc 8733 d8d1 5731 c512 c230 cd86 c331
00000100: decf 6134 9b76 6834 a489 2534 94f8 3733
00000110: 6792 2734 fd7c 0931 946d 2033 df4b 5b32
00000120: 6ad3 cd33 6bbc 4a33 b8f9 b633 2b4c 9832
00000130: 9d48 3032 e686 9734 4698 8933 5aaa 0033
00000140: b3d5 a332 701a 7d33 fa7c 0534 e726 c833
00000150: 9fd1 3534 3168 fd32 3875 5232 12e6 ef31
00000160: 04ce 3134 535e d834 0be8 1d33 748d a831
00000170: 17b3 3132 fa8e 7832 c23d c633 6a5a 9832
00000180: bda6 a533 1d2d ea31 a0cf f832 34e5 d433
00000190: 3a3b 0832 5b97 3034 0264 ac33 02b6 4a32
000001a0: a5f1 af34 9ce4 7232 70bd 0b34 431e 5134
000001b0: afcd b133 373c 5033 0ee1 d532 3441 c731
000001c0: 3753 8833 05c9 1132 9a3f 2a32 f49a b333
000001d0: 6630 5832 6770 cd33 57fd 9e33 de88 d331
000001e0: e7be 3634 1d9e 1933 409b aa34 3df2 ac31
000001f0: 1358 a033 5501 7034 f78c 9c31 19cc e533
5.612624e-09 5.810249e-09 2.0147558e-08 4.2995346e-08 1.941822e-07 1.200795e-07 4.175219e-07 2.6456667e-07
3.9218736e-07 2.972626e-07 2.5587662e-08 5.3388767e-08 1.0164222e-07 6.852685e-08 1.310024e-07 5.8909404e-08
6.43527e-08 9.723635e-08 1.309081e-08 4.7328548e-08 6.360421e-09 3.2418193e-08 6.006009e-07 2.3607495e-07
6.572396e-09 7.6566806e-08 1.9897435e-09 9.350172e-08 2.6345457e-09 3.3975102e-08 7.297076e-08 2.039257e-07
6.2353536e-08 1.7837904e-07 1.20110055e-08 7.392148e-08 2.7166223e-07 1.6011874e-07 1.19239605e-08 6.831511e-08
2.0426958e-07 1.6724243e-07 1.3573526e-07 1.9876502e-08 3.5788627e-08 8.437861e-08 9.1806136e-08 1.1363717e-07
7.9141664e-08 5.8972475e-08 2.1777517e-08 1.6585458e-08 4.5764484e-08 2.2117462e-07 9.124183e-09 4.5366573e-09
1.0051501e-08 1.3538504e-07 8.64989e-08 1.3151447e-07 6.3323554e-08 3.14059e-09 1.4120692e-09 5.690572e-09
2.103038e-07 2.1649832e-07 1.5416896e-07 4.283409e-08 1.5606348e-07 2.0007171e-09 3.7352564e-08 1.2764729e-08
9.5845124e-08 4.7203155e-08 8.520459e-08 1.7729766e-08 1.0261059e-08 2.8224093e-07 6.407258e-08 2.9957256e-08
1.9072877e-08 5.8930198e-08 1.2432056e-07 9.320302e-08 1.6933198e-07 2.9500457e-08 1.2250261e-08 6.9819714e-09
1.6559358e-07 4.0301765e-07 3.6765453e-08 4.905525e-09 1.0343476e-08 1.4468009e-08 9.231327e-08 1.7736244e-08
7.713741e-08 6.815425e-09 2.8965417e-08 9.913711e-08 7.9297084e-09 1.644634e-07 8.0275655e-08 1.1799331e-08
3.277211e-07 1.4138234e-08 1.3014301e-07 1.9475651e-07 8.2796184e-08 4.848354e-08 2.4898807e-08 5.799075e-09
6.34813e-08 8.485817e-09 9.909764e-09 8.363523e-08 1.2583859e-08 9.566502e-08 7.4035306e-08 6.1564682e-09
1.7019521e-07 3.576689e-08 3.1777927e-07 5.033398e-09 7.466601e-08 2.2352226e-07 4.5562234e-09 1.07007686e-07
