results/Test17/MoveToTarget/MoveToTarget-5576.onnx (onnx, 75159 bytes, 6 tensors)

network_body._body_endoder.seq_layers.0.weight f4 [128, 6]
0	0xbeaa8ed8	-0.33312106
1	0xbe3c9788	-0.1841718
2	0xbf1f80da	-0.62305987
3	0xbf4c4f64	-0.7980864
4	0xb9f5c0ce	-0.00046873692
5	0xbf11c8d2	-0.5694705
6	0x3f175ce1	0.59126097
7	0xbe842ea7	-0.25816843
8	0x3d8edd58	0.06975812
9	0x3f05c6b7	0.5225634
10	0x3e809d50	0.2512002
11	0x3e0a549f	0.13508843
12	0x3f27ecd5	0.6559575
13	0x3f360e45	0.71115524
14	0xbf11ce1c	-0.5695512
15	0x3f2498a6	0.64295423
16	0xbe8444e1	-0.258338
17	0x3dd00ec4	0.10159066
18	0xbe84a231	-0.25904992
19	0x3e24fbcb	0.16111676
20	0xbd531b4e	-0.05153971
21	0x3da49687	0.08036523
22	0xbe95ce7f	-0.29259107
23	0x3f40cfa0	0.7531681
24	0xbed54838	-0.4165666
25	0xbea6d015	-0.3258063
26	0x3e81849d	0.25296488
27	0x3f92fac3	1.1482776
28	0xbecfc605	-0.40580764
29	0xbcb15d2f	-0.021650879
30	0xbd0809e9	-0.033212576
31	0x3e3f47d4	0.18679744
32	0xbe6e3cd2	-0.23265389
33	0xbf1feede	-0.6247386
34	0xbeae0513	-0.33988246
35	0x3c53d05f	0.0129280975
36	0xbe9b1fed	-0.30297795
37	0xbd028d6b	-0.031873148
38	0x3f9003f3	1.1251205
39	0xbe9b9952	-0.30390412
40	0xbef0dc8e	-0.4704327
41	0x3f19c0a5	0.6005958
42	0x3becb9c3	0.007224293
43	0xbdb0e08d	-0.0863658
44	0x3d87d9d2	0.06633343
45	0xbeddd2ed	-0.43324986
46	0xbece92de	-0.40346426
47	0x3f7942b6	0.9736742
48	0x3c825f30	0.01591453
49	0x3f092c74	0.53583455
50	0xbf0824f3	-0.5318138
51	0x3f1f769c	0.6229036
52	0xbea0d7a1	-0.31414512
53	0x3d9e7f7c	0.077391595
54	0xbe2b3019	-0.16717567
55	0x3e47654a	0.19472232
56	0xbd8d5e4a	-0.0690275
57	0xbe8c8581	-0.27445605
58	0x3f31e649	0.6949201
59	0xbe8f74b2	-0.2801872
60	0x3e1a3fe7	0.1506344
61	0x3d0cb8d2	0.034355946
62	0x3db45b16	0.08806436
63	0xbdf68100	-0.120363235
64	0x3d1f6f95	0.038924772
65	0x3e055371	0.13020112
66	0xbdde080c	-0.108413786
67	0xbf245ff4	-0.6420891
68	0xbe3a415f	-0.18189
69	0x3f83720f	1.0269183
70	0x3dcfc71c	0.10145399
71	0xbee7d83b	-0.45282158
72	0xbe9a2672	-0.30107456
73	0xbe406e39	-0.18792047
74	0x3ee721f7	0.451431
75	0xbe249912	-0.16074017
76	0x3e2f4837	0.17117392
77	0x3e7ba8c6	0.245761
78	0x3df335e1	0.11875511
79	0x3f140f76	0.5783609
80	0x3da25435	0.079262175
81	0xbc751014	-0.014957447
82	0xbefd3dd6	-0.4946124
83	0x3de163e7	0.11005383
84	0x3eb39d9e	0.3508119
85	0xbeae7edc	-0.3408116
86	0xbee1505d	-0.44006625
87	0xbf3ae7f4	-0.7301018
88	0xbec7f2aa	-0.39052325
89	0xbf366644	-0.71249795
90	0x3e92d14f	0.28675315
91	0xbf010d87	-0.50411266
92	0xbee806e9	-0.45317772
93	0x3f12d5df	0.5735759
94	0xbeee95a4	-0.46598542
95	0x3e6f15f5	0.2334822
96	0x3dd4e38e	0.10394965
97	0xbf31cfd0	-0.6945772
98	0x3e057b41	0.13035299
99	0x3e0ffa91	0.14060427
100	0xbe8a0540	-0.2695713
101	0x3d615534	0.055012897
102	0xbe5b8a15	-0.21439393
103	0x3eb30a24	0.34968674
104	0xbeb88a49	-0.36043003
105	0xbf170099	-0.58985287
106	0xbe6648af	-0.22488664
107	0xbeec6872	-0.46173435
108	0xbd725c5a	-0.059170105
109	0xbec2f4a6	-0.38077277
110	0xbf00e867	-0.5035462
111	0x3dc84d1f	0.09780335
112	0x3f0865ea	0.5328051
113	0x3f664db0	0.8996229
114	0xbea318ca	-0.3185485
115	0x3e95fa46	0.29292506
116	0x3dc777ed	0.09739671
117	0x3d95fff0	0.07324207
118	0xbe353b01	-0.1769829
119	0xb8b3b32d	-8.568759e-05
120	0xbe75951e	-0.23982665
121	0x3daf0200	0.08545303
122	0x3f402caf	0.7506818
123	0x3e2ba70e	0.16762945
124	0xbe92b315	-0.28652254
125	0x3f6e47bc	0.9307821
126	0xbefee4fd	-0.4978408
127	0xbe8f1842	-0.27948195
128	0xbee0e13e	-0.43921846
129	0xbefcfd5e	-0.49412054
130	0xbe8870a2	-0.26648432
131	0xbf405455	-0.7512868
132	0xbf45fdca	-0.77340376
133	0x3c150d43	0.0090974
134	0xbec20052	-0.3789087
135	0xbf7c3cea	-0.9853045
136	0xbd513b3e	-0.05108189
137	0x3ed39fae	0.41332763
138	0x3ed912a3	0.4239703
139	0xbeb7355f	-0.35782906
140	0x3f06e4be	0.5269278
141	0xbd8c225e	-0.068424925
142	0xbd31d447	-0.043415334
143	0x3e42df8b	0.19030587
144	0x3e5fe6e4	0.21865422
145	0xbed2e2d7	-0.4118869
146	0x3e27e915	0.16397507
147	0xbed6beb9	-0.41942385
148	0xbe906c27	-0.28207514
149	0x3f0335c7	0.5125393
150	0x3ef5902e	0.47961563
151	0x3e5ebeb8	0.21752441
152	0xbeae7250	-0.3407159
153	0x3ea3d71c	0.32000053
154	0x3f583634	0.8445771
155	0xbe9f152e	-0.31070846
156	0x3e9d8bc9	0.3077071
157	0x3efa1c74	0.48849833
158	0x3ebc4520	0.36771488
159	0xbeecfc4d	-0.4628624
160	0xbeda0b40	-0.42586708
161	0x3eb3237c	0.3498801
162	0x3f0b6908	0.5445714
163	0x3e01ead5	0.12687238
164	0x3ef2e9ba	0.47443944
165	0x3db4bd4e	0.088251695
166	0x3e8d465b	0.2759274
167	0x3e440a68	0.19144595
168	0xbedf7e73	-0.4365116
169	0xbe872549	-0.26395634
170	0x3d15f5b6	0.03661128
171	0xbedb987d	-0.42889777
172	0xbe4877b0	-0.19576907
173	0x3cefb6f9	0.029262053
174	0xbd6eb689	-0.058279548
175	0xbdfb5a8c	-0.1227313
176	0xbead2de5	-0.33824077
177	0x3ce7fa32	0.028317545
178	0x3ee211e6	0.4415428
179	0xbddd41bb	-0.10803553
180	0x3edd5f5f	0.43236825
181	0x3e4e8b7b	0.20170395
182	0xbe1e8011	-0.15478541
183	0xbe8a5e65	-0.27025142
184	0xbe48e1f7	-0.19617449
185	0xbe8624eb	-0.2620004
186	0x3e696408	0.22792065
187	0xbec4952c	-0.3839506
188	0x3e8906b2	0.2676292
189	0x3e64e215	0.22351868
190	0x3f1fd26a	0.6243044
191	0xbb52d428	-0.0032169912
192	0xbf3193e4	-0.6936629
193	0xbed0d8b8	-0.40790343
194	0xbf31e07a	-0.6948315
195	0x3f2651f1	0.6496878
196	0xbe8f14c7	-0.2794554
197	0x3dfd61a8	0.12372142
198	0x3cff4072	0.03115866
199	0xbed50c7d	-0.4161109
200	0x3ea28299	0.31740263
201	0xbe4bdb7c	-0.19907945
202	0xbdbe6e75	-0.09298412
203	0x3f0984c6	0.5371822
204	0xbf70b849	-0.94031197
205	0x3f1ee7d1	0.62072474
206	0x3e339cc8	0.17540276
207	0xbf98940b	-1.1920179
208	0xbdf547ce	-0.11976586
209	0x3e11f76a	0.14254537
210	0x3d2f97ab	0.04286925
211	0x3e536138	0.20642555
212	0x3a73d531	0.00093014824
213	0x3e29f05b	0.16595595
214	0xbeb8e473	-0.36111793
215	0x3db63c58	0.088982284
216	0xbdcff3f9	-0.10153956
217	0x3f143a63	0.5790159
218	0xbe82a33f	-0.25515172
219	0xbefa1a33	-0.48848113
220	0xbe25649e	-0.16151664
221	0xbf143c5d	-0.5790461
222	0xbd947772	-0.07249345
223	0x3e1c9bfc	0.15293878
224	0xbe950724	-0.2910701
225	0xbed2cb31	-0.41170648
226	0x3d992415	0.07477585
227	0x3e3cda5d	0.18442674
228	0xbd5ef795	-0.05443533
229	0x3e59cc3d	0.21269317
230	0xbe1ee84e	-0.15518305
231	0x3cf46fa5	0.029838393
232	0xbc7a7480	-0.015286565
233	0x3e77cc5d	0.24199052
234	0x3e921122	0.28528696
235	0x3e2e7d6c	0.17040032
236	0x3f052315	0.52006656
237	0x3f8a3f9e	1.0800664
238	0x3e5abf81	0.21362115
239	0xbef28f9b	-0.47375187
240	0x3ed2e1c8	0.41187882
241	0x3f06a6c9	0.52598244
242	0xbf23dd97	-0.64009994
243	0x3e22baee	0.1589162
244	0x3df3fb00	0.11913109
245	0xbe8368be	-0.2566585
246	0x3f87b6a2	1.060261
247	0x3e23d3c5	0.15998752
248	0xbdaffb77	-0.08592885
249	0x3dedc451	0.1160971
250	0x3debd97b	0.115160905
251	0xbc6b9364	-0.014378402
252	0xbe8350ef	-0.25647685
253	0x3e578675	0.21047385
254	0x3eaac1dd	0.3335103
255	0x3dd51241	0.10403872

network_body._body_endoder.seq_layers.0.bias f4 [128]
0	0x00000000	0.0
1	0x00000000	0.0
2	0x00000000	0.0
3	0x00000000	0.0
4	0x00000000	0.0
5	0x00000000	0.0
6	0x00000000	0.0
7	0x00000000	0.0
8	0x00000000	0.0
9	0x00000000	0.0
10	0x00000000	0.0
11	0x00000000	0.0
12	0x00000000	0.0
13	0x00000000	0.0
14	0x00000000	0.0
15	0x00000000	0.0
16	0x00000000	0.0
17	0x00000000	0.0
18	0x00000000	0.0
19	0x00000000	0.0
20	0x00000000	0.0
21	0x00000000	0.0
22	0x00000000	0.0
23	0x00000000	0.0
24	0x00000000	0.0
25	0x00000000	0.0
26	0x00000000	0.0
27	0x00000000	0.0
28	0x00000000	0.0
29	0x00000000	0.0
30	0x00000000	0.0
31	0x00000000	0.0
32	0x00000000	0.0
33	0x00000000	0.0
34	0x00000000	0.0
35	0x00000000	0.0
36	0x00000000	0.0
37	0x00000000	0.0
38	0x00000000	0.0
39	0x00000000	0.0
40	0x00000000	0.0
41	0x00000000	0.0
42	0x00000000	0.0
43	0x00000000	0.0
44	0x00000000	0.0
45	0x00000000	0.0
46	0x00000000	0.0
47	0x00000000	0.0
48	0x00000000	0.0
49	0x00000000	0.0
50	0x00000000	0.0
51	0x00000000	0.0
52	0x00000000	0.0
53	0x00000000	0.0
54	0x00000000	0.0
55	0x00000000	0.0
56	0x00000000	0.0
57	0x00000000	0.0
58	0x00000000	0.0
59	0x00000000	0.0
60	0x00000000	0.0
61	0x00000000	0.0
62	0x00000000	0.0
63	0x00000000	0.0
64	0x00000000	0.0
65	0x00000000	0.0
66	0x00000000	0.0
67	0x00000000	0.0
68	0x00000000	0.0
69	0x00000000	0.0
70	0x00000000	0.0
71	0x00000000	0.0
72	0x00000000	0.0
73	0x00000000	0.0
74	0x00000000	0.0
75	0x00000000	0.0
76	0x00000000	0.0
77	0x00000000	0.0
78	0x00000000	0.0
79	0x00000000	0.0
80	0x00000000	0.0
81	0x00000000	0.0
82	0x00000000	0.0
83	0x00000000	0.0
84	0x00000000	0.0
85	0x00000000	0.0
86	0x00000000	0.0
87	0x00000000	0.0
88	0x00000000	0.0
89	0x00000000	0.0
90	0x00000000	0.0
91	0x00000000	0.0
92	0x00000000	0.0
93	0x00000000	0.0
94	0x00000000	0.0
95	0x00000000	0.0
96	0x00000000	0.0
97	0x00000000	0.0
98	0x00000000	0.0
99	0x00000000	0.0
100	0x00000000	0.0
101	0x00000000	0.0
102	0x00000000	0.0
103	0x00000000	0.0
104	0x00000000	0.0
105	0x00000000	0.0
106	0x00000000	0.0
107	0x00000000	0.0
108	0x00000000	0.0
109	0x00000000	0.0
110	0x00000000	0.0
111	0x00000000	0.0
112	0x00000000	0.0
113	0x00000000	0.0
114	0x00000000	0.0
115	0x00000000	0.0
116	0x00000000	0.0
117	0x00000000	0.0
118	0x00000000	0.0
119	0x00000000	0.0
120	0x00000000	0.0
121	0x00000000	0.0
122	0x00000000	0.0
123	0x00000000	0.0
124	0x00000000	0.0
125	0x00000000	0.0
126	0x00000000	0.0
127	0x00000000	0.0

network_body._body_endoder.seq_layers.2.weight f4 [128, 128]
0	0x3ce4cf71	0.027930947
1	0x3cae0021	0.021240296
2	0x3d84a6cf	0.06477129
3	0xbd99a9ca	-0.07503088
4	0x3de931ed	0.11386476
5	0x3d517a72	0.051142164
6	0xbe4973cb	-0.19673078
7	0x3d1876f6	0.037222825
8	0xbd04385d	-0.032280315
9	0x3d83e780	0.064406395
10	0x3bb7e316	0.0056117876
11	0xbb9b9b3e	-0.004748731
12	0x3d1d8261	0.038454417
13	0xbc128aea	-0.0089442525
14	0xbe09891f	-0.13431214
15	0x3e0f9c0d	0.14024372
16	0x3bcb89cf	0.0062114964
17	0x3d216f4d	0.039412785
18	0xbd593bc7	-0.053035524
19	0xbc3de582	-0.011590363
20	0x397e57bd	0.00024256013
21	0xbc77832e	-0.015106959
22	0xbda0cdf5	-0.07851783
23	0x3d86d9f7	0.06584542
24	0x3ad2f431	0.0016094503
25	0xbd65b7e5	-0.05608358
26	0xbd3bb9b6	-0.045831405
27	0x3d9a9ef6	0.07549851
28	0xbdd94f2d	-0.10610805
29	0x3d865210	0.06558621
30	0x3c816849	0.015796797
31	0xbd9196d4	-0.07108846
32	0xbceeac95	-0.029135028
33	0x3d407858	0.04698977
34	0x3d8a2b79	0.06746573
35	0x3d987877	0.07444852
36	0x3e552b48	0.20817292
37	0x3d1861a4	0.037202492
38	0xbc9334be	-0.017969485
39	0xbd29fc88	-0.0415006
40	0xbdc52140	-0.096254826
41	0xbcbdf9e2	-0.023190442
42	0x3d2d8392	0.042361803
43	0x3e3e86b6	0.18606076
44	0xbd650834	-0.055916026
45	0xbd0665ec	-0.032812044
46	0x3d1a2963	0.037637126
47	0x3d0e3828	0.034721524
48	0xbd7b8826	-0.06140914
49	0xbe9d8f0c	-0.307732
50	0x3dbab6fd	0.091169335
51	0xbd8518a8	-0.064988434
52	0xbcb06c39	-0.02153598
53	0xbd8e231b	-0.069402896
54	0x3da9ed34	0.08297196
55	0xbe18f15f	-0.14935826
56	0xbbe0324c	-0.0068419334
57	0xbd2c98f0	-0.04213804
58	0x3ca50da2	0.020148102
59	0x3bcb45ab	0.0062033734
60	0x3dc2d276	0.095127985
61	0xbd1da0a1	-0.038483266
62	0x3e584f56	0.21124014
63	0x3d03a7bd	0.03214239
64	0xbd8602ad	-0.06543479
65	0x3d666bb4	0.056255057
66	0xbdc4df0f	-0.096128576
67	0xbd9bd940	-0.076097965
68	0x3d13bd54	0.03606923
69	0xbd443797	-0.047904577
70	0x3b83bf38	0.004020598
71	0xbced93d7	-0.02900116
72	0xbbb43d63	-0.005500482
73	0xbd205d5a	-0.039151527
74	0x3d7b1c9a	0.061306573
75	0x3b9f2052	0.004856148
76	0x3cf815d2	0.030283842
77	0x3c51da90	0.012808457
78	0xbbfdd895	-0.007746766
79	0xbd4c315c	-0.04985176
80	0xbdb28b04	-0.087179214
81	0x3c84cd08	0.016211048
82	0x3d5b72d2	0.053576298
83	0x3e03aad2	0.12858132
84	0x3ddc91c7	0.10769992
85	0xbd07ed84	-0.033185497
86	0xbd505148	-0.050858766
87	0x3d309034	0.043106273
88	0x3de938be	0.11387776
89	0xbc1bb1ea	-0.009502867
90	0xbdba212b	-0.090883575
91	0xbdb17f05	-0.08666805
92	0xbd66ccb6	-0.05634757
93	0xbd8880b6	-0.06665175
94	0x3d116bc8	0.03550318
95	0x3d454b9a	0.048167802
96	0x3dd39728	0.10331565
97	0xbdd26724	-0.10273579
98	0xbddcc7eb	-0.10780319
99	0x3a96eb74	0.0011514262
100	0xbdf364bf	-0.1188445
101	0xbd9b33cb	-0.07578238
102	0xbc5a2333	-0.013314056
103	0x3de45c75	0.11150447
104	0xbcd286b0	-0.02569899
105	0x3cf592a2	0.029977147
106	0xbd9a48d5	-0.07533423
107	0x3de8624d	0.113468744
108	0xbdbe0a4d	-0.092793085
109	0xbb8672ab	-0.004103025
110	0x3dbffbd1	0.09374202
111	0xbccdb5ed	-0.025111163
112	0x3dd541cf	0.104129426
113	0x3c9be1e8	0.019028619
114	0x3d43c763	0.047797572
115	0xbcca1bce	-0.024671461
116	0x3def9e30	0.11700094
117	0x3dc797ef	0.09745776
118	0x3e149024	0.1450811
119	0xbd437e71	-0.047728006
120	0xbe082b91	-0.1329787
121	0x3c97fead	0.018554056
122	0xbc7c92df	-0.015415876
123	0x3e5dccbc	0.21660131
124	0xbd7e5629	-0.062093887
125	0xbd244cd6	-0.04011234
126	0x3d4a358d	0.049367476
127	0x3cd0834d	0.025453234
128	0x3c99a793	0.018756663
129	0x3d90061e	0.07032417
130	0x3d6d55b9	0.05794308
131	0x3dbc6308	0.09198576
132	0xbd388273	-0.04504628
133	0xbe5cfbc7	-0.2158042
134	0x3d5cd460	0.053913474
135	0x3e1b6a84	0.15177351
136	0xbd599561	-0.053120974
137	0x3c3f7ae9	0.011687019
138	0xbd334e41	-0.0437758
139	0xbd9a0e01	-0.07522202
140	0xbd4ee376	-0.050509892
141	0x3e6ed13f	0.23322009
142	0xbc7a5a16	-0.015280267
143	0xbcb66e80	-0.022269487
144	0x3c669a7d	0.014074919
145	0xbd43b93a	-0.047784068
146	0xbd25a750	-0.040442765
147	0xbda31faa	-0.07965024
148	0xbc4ba64f	-0.012429788
149	0x3d93425f	0.07190394
150	0x3c35d58a	0.011098275
151	0xbc95f999	-0.018307494
152	0x3cc8eae7	0.024526073
153	0xbe1c8119	-0.15283622
154	0x3db7e5fd	0.08979414
155	0xbe00370f	-0.12521003
156	0x3d37d83d	0.044883955
157	0x3e4151b8	0.1887883
158	0x3cc8bde1	0.024504604
159	0x3d064a35	0.032785613
160	0xbdeb1e89	-0.114804335
161	0xbdda669f	-0.10664105
162	0x3dad8fbc	0.08474681
163	0xbd9f52a3	-0.077794336
164	0xbe407a3e	-0.18796632
165	0x3d10bb05	0.035334606
166	0xbc26a281	-0.01017058
167	0xbd184ffa	-0.037185647
168	0xbd6b8021	-0.05749524
169	0x3d906040	0.07049608
170	0x3d56e78e	0.05246692
171	0x3db844ab	0.089974724
172	0xbbda2677	-0.0066574174
173	0xbd62b6d8	-0.055350155
174	0xbe0f3ab1	-0.13987233
175	0xbe88024c	-0.26564252
176	0x3e1bf7cc	0.15231246
177	0x3d03cd84	0.032178417
178	0xbd7fc355	-0.062442143
179	0x3aa3341c	0.0012451443
180	0x3c43b3b2	0.011944698
181	0xbd5f3792	-0.054496355
182	0x3e486774	0.19570714
183	0x3e02e57c	0.12782854
184	0xbbed830e	-0.007248289
185	0x3d089819	0.033348177
186	0xbd2de35f	-0.042453166
187	0x3d3b7734	0.045767978
188	0xbe2103d9	-0.15724124
189	0xbdc2556e	-0.09488951
190	0x3db12b8a	0.086508825
191	0x3c2920e3	0.010322782
192	0xbb7c089c	-0.003845728
193	0xbd7a6bb4	-0.06113787
194	0x3db090bd	0.08621357
195	0x3e0add25	0.13560922
196	0x3dcaa665	0.098950185
197	0xbd6c2203	-0.057649624
198	0x3cd891c7	0.0264367
199	0x3cc2fdbd	0.023802632
200	0xbdc84ed2	-0.09780659
201	0x3dbb5dbf	0.0914874
202	0x3d038cde	0.032116763
203	0x3d84d045	0.06485037
204	0xbcfe556a	-0.031046588
205	0xbe7b5735	-0.24544986
206	0xbe0fca5c	-0.14042038
207	0x3d71eb99	0.059062574
208	0xbde215d2	-0.11039318
209	0xbdd308b7	-0.103043966
210	0xbd6f93ae	-0.058490448
211	0xbbec02d4	-0.0072024856
212	0x3df5b078	0.11996549
213	0xbde6a8e1	-0.1126268
214	0x3e84040a	0.25784332
215	0x3d3e1829	0.04640976
216	0xbd97da6e	-0.07414709
217	0x3d0a9bc0	0.03383994
218	0xbc9efa42	-0.019406442
219	0x3e19864c	0.14992636
220	0xbe2397b0	-0.15975833
221	0xbcc1f457	-0.02367608
222	0xbabff1c4	-0.0014644195
223	0x3938d6ed	0.00017627674
224	0xbd6da550	-0.058018982
225	0xbd37e59a	-0.0448967
226	0xbe46dd9b	-0.19420473
227	0x3d60ca06	0.054880165
228	0xbc234dc6	-0.009967273
229	0xbdb1d807	-0.08683782
230	0x3cb0545d	0.021524603
231	0x3d2a659e	0.041600816
232	0xbc9d5443	-0.019205218
233	0x3d1edd43	0.03878523
234	0x3d4c1f7e	0.04983472
235	0xbc8b50fe	-0.017006394
236	0x3de2df38	0.11077732
237	0xbda37a73	-0.0798234
238	0xbd7b8cd4	-0.0614136
239	0x3bd5a088	0.006519381
240	0xbc64b33b	-0.0139587475
241	0x3dcb5db5	0.099299826
242	0x3d83483e	0.064102635
243	0x3db6aa9b	0.08919259
244	0xbd4dc5c4	-0.050237432
245	0xbdcee04f	-0.10101377
246	0x3d1ef259	0.03880534
247	0x3d6f9c48	0.05849865
248	0x3e387397	0.18012844
249	0x3cd4f361	0.025994958
250	0x3d27a80c	0.040931746
251	0xbe2c9702	-0.1685448
252	0x3e280604	0.16408545
253	0x3dbe9d39	0.093073316
254	0xb929345d	-0.00016136603
255	0x3e9b0bce	0.30282444

action_model._continuous_distribution.log_sigma f4 [1, 3]
0	0x00000000	0.0
1	0x00000000	0.0
2	0x00000000	0.0

action_model._continuous_distribution.mu.weight f4 [3, 128]
0	0x3bb2c9a3	0.005456166
1	0x3c0f9277	0.008762947
2	0x3c2d6015	0.01058199
3	0x3b430253	0.0029756024
4	0xbbd4b64b	-0.0064914576
5	0xbaa8648e	-0.001284735
6	0x3b1c5e2f	0.0023859849
7	0xbd0a98ba	-0.033837058
8	0x3c29d40d	0.010365498
9	0x3b01c2b5	0.0019799892
10	0xbc8b255d	-0.01698559
11	0xbc8013e6	-0.015634488
12	0x3bf5118d	0.007478899
13	0x3c5fd372	0.013661252
14	0xbbe51cc7	-0.006991956
15	0xbb062587	-0.0020469145
16	0xb8e68e4a	-0.00010993758
17	0x3bf37b9d	0.0074305073
18	0x3d0b5eaf	0.034025844
19	0xbc0e83cf	-0.008698418
20	0x3c9bd3b7	0.019021852
21	0xbc31b4b9	-0.01084631
22	0x396a341b	0.0002233539
23	0x3b2d3cb7	0.0026433894
24	0x3c8959c1	0.01676643
25	0xbbca7f4b	-0.0061797253
26	0xba894215	-0.0010471964
27	0x3b1bbd43	0.0023763932
28	0x3c2dd9ac	0.010610979
29	0x3c3ca0b8	0.011512928
30	0xbab43b6b	-0.0013750618
31	0xbd0d7c67	-0.034542467
32	0x39b377c1	0.00034230764
33	0x3cfcbf6d	0.030852998
34	0x3bd905fa	0.006623027
35	0xbbcd1bd3	-0.0062594204
36	0xbc04b3fb	-0.008099551
37	0xbd1e15ad	-0.03859489
38	0x3ce4fcaa	0.02795251
39	0x3d17568e	0.03694778
40	0x3d03a9c4	0.032144323
41	0x39e8c812	0.00044399552
42	0xbbd607e5	-0.006531703
43	0xbc73cf60	-0.014880985
44	0x3c2ebc0d	0.010664952
45	0xbbc3c8f7	-0.0059748846
46	0xbc8994fe	-0.016794678
47	0xbb96c0f6	-0.0046006395
48	0xbba8932e	-0.0051444983
49	0x3be3c5cb	0.006951069
50	0x3c8e5fee	0.017379727
51	0xbc383fe5	-0.011245702
52	0xbbef54bf	-0.0073038037
53	0xbbd236a7	-0.0064152065
54	0x3bae1e58	0.005313676
55	0x3bdb38d0	0.006690122
56	0x3ce1fc32	0.027586076
57	0x3c4cc099	0.012497091
58	0xba8f1d2e	-0.001091873
59	0xbc6f551f	-0.014607697
60	0xbd247237	-0.040147986
61	0xbbd7a850	-0.0065813437
62	0xbb012914	-0.0019708322
63	0xbafb1613	-0.0019156359
64	0xbcc403a0	-0.02392751
65	0x3c1f1d21	0.009711535
66	0xbb830cc0	-0.0039993227
67	0xb93aeccf	-0.0001782656
68	0xbd2d758e	-0.042348437
69	0x3c12ba3e	0.008955536
70	0x39e2345f	0.000431451
71	0xbbdf332a	-0.006811519
72	0x3cc2fe40	0.023802876
73	0xbb63d1bb	-0.003476246
74	0xbad7852f	-0.001644289
75	0x3cc46d81	0.023977997
76	0xbbf5096b	-0.0074779293
77	0x3c55badd	0.01304504
78	0xbd3f8e3b	-0.0467665
79	0xbb6ef443	-0.003646151
80	0xbc3c673f	-0.011499225
81	0xbb4469e8	-0.0029970352
82	0x3d58f8aa	0.05297152
83	0x39b761c7	0.0003497733
84	0xbbc22c99	-0.0059257266
85	0xbc1db217	-0.009624979
86	0x3b8657de	0.00409983
87	0xbb6a25f2	-0.0035728184
88	0x3ca75bf2	0.020429585
89	0xba39ddb5	-0.0007090227
90	0xba398732	-0.00070773356
91	0xbb898f2b	-0.004197975
92	0xbbebc06a	-0.0071945684
93	0x3c8233a1	0.01589376
94	0x3add0f08	0.0016865442
95	0xbcf526eb	-0.029925784
96	0xbcb44462	-0.022005264
97	0x3bacf5eb	0.005278339
98	0x3c2c4ed2	0.010516839
99	0x3cb2d908	0.021832004
100	0x3c11e2e4	0.008904193
101	0x3c8a042b	0.01684769
102	0x3c825026	0.015907358
103	0x39b27673	0.00034039057
104	0xbc4d4d3a	-0.012530619
105	0xbc5c72f2	-0.0134551395
106	0x3b3a5da8	0.002843717
107	0xbc033400	-0.008008003
108	0x3c5e852d	0.013581556
109	0x3c0ad179	0.008472794
110	0x3b703f3a	0.003665878
111	0xba4de617	-0.00078544155
112	0x3be0ce5b	0.006860537
113	0xbb0f529d	-0.002186931
114	0x3bdb5d53	0.0066944747
115	0x3c9787bb	0.018497339
116	0xbcc90f89	-0.02454354
117	0x3bbdd763	0.0057934984
118	0x3d1e180d	0.038597155
119	0xbb79ecd7	-0.0038135552
120	0xbcfc9d03	-0.030836588
121	0x3c51b03b	0.012798364
122	0x3c4c258f	0.012460127
123	0x3c56beda	0.013107026
124	0xbb90e5f1	-0.0044219424
125	0x3d04d4db	0.032429557
126	0xbceb4ead	-0.028724039
127	0xbc402378	-0.011727206
128	0xbc1530fb	-0.009105916
129	0x3c3db6b7	0.011579207
130	0x3b471377	0.0030376592
131	0xbcde6abf	-0.02715051
132	0xbc9ba7ed	-0.019000972
133	0x3cb75a07	0.022381796
134	0x3b93034f	0.0044864784
135	0xbc0361b2	-0.008018898
136	0xbd48a15f	-0.04898202
137	0xbd1df301	-0.038561825
138	0x3d017b7f	0.031611916
139	0x3ca1d399	0.019754218
140	0x3ce41715	0.027843038
141	0x3cb89b19	0.022534894
142	0x3c83f614	0.01610855
143	0x3b540905	0.003235401
144	0xbb6af5ba	-0.003585203
145	0x3cace591	0.02110556
146	0xbaa6a755	-0.0012714664
147	0xbba3f853	-0.005003968
148	0xbb0fcdc1	-0.0021942707
149	0x3bda98df	0.0066710557
150	0x3ce6170b	0.02808716
151	0xbc22c6b6	-0.009935072
152	0xbb97ffea	-0.0046386616
153	0x3cb7f203	0.022454267
154	0xbcaf4015	-0.021392861
155	0x3c9d79f8	0.019223198
156	0xbc1c2ae3	-0.009531709
157	0x3c386bdb	0.0112561835
158	0x3c2a5883	0.010397079
159	0x39ca0cbd	0.00038537933
160	0x3cc7028b	0.024293205
161	0x3d1a52df	0.03767669
162	0x3bdff2da	0.00683437
163	0x3c5e6b3f	0.013575374
164	0xbbb6176d	-0.005556992
165	0xbc8404bf	-0.016115544
166	0x3c3d7120	0.011562616
167	0x3c280660	0.010255426
168	0xbc2a50cb	-0.010395239
169	0xbcd0d31a	-0.025491286
170	0xbc54f5a8	-0.012998022
171	0xbcce70eb	-0.025200328
172	0x3c9f6f2e	0.019462194
173	0x3bfd1c38	0.007724311
174	0xbbb007a3	-0.005372004
175	0x3bd1f555	0.0064074197
176	0xbcac4e65	-0.021033475
177	0xbcb99711	-0.022655042
178	0x3ce19147	0.027535094
179	0x39abfe90	0.00032805325
180	0xbc98756f	-0.018610684
181	0x3c99821b	0.018738797
182	0x3c424532	0.011857318
183	0xbcc62f83	-0.024192577
184	0xbc208f1c	-0.009799745
185	0x3cca0e16	0.02466492
186	0xbb799da8	-0.0038088355
187	0x3ce6372f	0.028102485
188	0x3c381a7f	0.011236786
189	0x3c6a0df5	0.014285554
190	0x3c20a6fb	0.009805436
191	0xbd10f2f2	-0.03538794
192	0xbbfbd878	-0.007685717
193	0x3abe080e	0.001449825
194	0x3bcc7d54	0.006240526
195	0x3c939d30	0.018019289
196	0xbc89ab1e	-0.016805228
197	0x3b615bd2	0.0034387005
198	0x3d0845b3	0.033269595
199	0xbbf0ee17	-0.0073526013
200	0xbcd8157f	-0.026377438
201	0x3a9ef4b8	0.0012127375
202	0xba9f0fa4	-0.0012135399
203	0xbce149ea	-0.027501065
204	0x3bd2ed0f	0.006436951
205	0x3b8b2133	0.004245901
206	0x3be09103	0.0068532242
207	0xbcd42323	-0.02589566
208	0xbc5a226d	-0.013313872
209	0x3cc20585	0.023684273
210	0x3cccbd23	0.024992531
211	0x3ba96ee3	0.0051706894
212	0x3d1ef19b	0.03880463
213	0x3c9949c9	0.018711941
214	0xbc1e241f	-0.009652167
215	0x3c30078f	0.01074399
216	0x3af78d4f	0.0018886718
217	0xbd02bc17	-0.031917658
218	0x3d0097a5	0.03139462
219	0x3c3b219b	0.011421586
220	0x3a7c14f5	0.000961616
221	0xbca759d2	-0.020428572
222	0x3ce6ef2d	0.02819022
223	0x3b33f0d9	0.0027456789
224	0x3b3e8e02	0.0029076342
225	0xbc559dcf	-0.013038113
226	0xbc615d57	-0.013755164
227	0xbb10284f	-0.0021996682
228	0xbc264c09	-0.010149964
229	0x3cdeba58	0.027188465
230	0x3c66b738	0.014081769
231	0xbd14e74d	-0.036353398
232	0xbb4caa47	-0.0031229423
233	0xbc8137c6	-0.015773665
234	0x3c9bdaf8	0.01902531
235	0xbc52ca23	-0.012865576
236	0x3c9dedf6	0.019278508
237	0xbc901401	-0.017587664
238	0xbc2c8d66	-0.010531759
239	0x3cae91cc	0.021309756
240	0xbc69f243	-0.014278951
241	0x3a39bab5	0.00070850115
242	0xbb982773	-0.0046433746
243	0x3a53ecf7	0.0008084322
244	0x3d3a5a98	0.045496553
245	0x3d08ca1a	0.033395864
246	0x3c96b1fb	0.018395415
247	0xbc9266d9	-0.017871307
248	0xbc3884e3	-0.011262151
249	0xbad42778	-0.0016186079
250	0xbd0106d0	-0.031500638
251	0xbc17ef8f	-0.009273424
252	0xbc81e246	-0.015854966
253	0x3c618b58	0.013766132
254	0xbb023a7b	-0.0019871283
255	0x3be1e2a7	0.006893474

action_model._continuous_distribution.mu.bias f4 [3]
0	0x00000000	0.0
1	0x00000000	0.0
2	0x00000000	0.0
