results/Test28/checkpoint.pt (torch, 442914 bytes, 36 tensors)

network_body._body_endoder.seq_layers.0.weight f4 [128, 6]
00000000: f2f8 5b3e 3c5e e9be 61f9 e2bd a194 75be
00000010: 7e68 12bf a9fb 4c3e 9d90 75bd 135b 1f3f
00000020: 9139 6e3f 6702 b83e a944 a5be 833d f73e
00000030: f83c 463f a797 093f 0eda 28bf 327b cd3e
00000040: e705 6abd 5b9a 633e 99e0 35be 1ee6 c6be
00000050: 362e e7bd 97b3 8cbe 2c26 15bf 4196 52be
00000060: dc38 2abf e09c 1fbf 53a3 913e 5dc9 7dbf
00000070: d6a3 76bd b701 923b 2727 193d bbc3 d5be
00000080: 38a6 1fbe b8db e4bd ec6c 06be a3cd 9a3e
00000090: cb3d 163e c6a3 5bbe 9501 4fbd 30cb 3bbd
000000a0: 29cd d8bd dafc 413e 261f 833e 6260 efbe
000000b0: 519a 28bf 12cb 743f 534f 813e 871d 863e
000000c0: aae2 943d b330 9bbe 79d8 2dbe b699 093f
000000d0: d952 83bd faca fbbd e8fd 6f3e d700 34bf
000000e0: 126c 61be c481 9bbe c69b 2a3f 4ce7 453e
000000f0: 0ead c7be 6a51 213f 7b83 81be b9a9 babc
00000100: b8c4 d8bd dca2 4a3e def5 bcbe 81cd 233e
00000110: d133 843e 9cbc 6f3e 241b babe fca3 aebe
00000120: 61bd cb3e 6ce5 bb3e a3bf bf3e 44cc bdbe
00000130: c723 813f 21e5 1cbf a38a 073f be75 f73d
00000140: c75a cfba 94b2 9a3e 766b 2fbe 0a9a d23e
00000150: 65b3 59be 05d3 25bf 95b6 193d 048d 103f
00000160: 26a1 d0be d1c7 133f 4bd7 09be 3492 27be
00000170: bb32 ff3e 0109 a4be 696f 723d 3d18 cfbe
00000180: 8229 fe3e c4c7 82be 4c8c 4cbe 9e38 2bbd
00000190: 5887 64be dfd7 723e b9ce 03bf f684 9c3e
000001a0: 5423 b4be e224 14bf e51d d13d 8f2e 51bf
000001b0: 0098 b5bd 4e82 5a3e 41fd 2bbf 2ab6 423e
000001c0: e921 f0be 5c8b 273e 7e6f 9dbb 4559 23bf
000001d0: c774 8c3d a67d 9b3d dcb5 223e 57b3 a43e
000001e0: dfe5 083f 8b22 3b3e 0467 6b3e e30c 02bf
000001f0: 091f 6fbd a550 b23e 253a 88bd 4529 02bf
00000200: 62b6 d43b 4737 5a3d 6387 1c3f 7e9c 26bf
00000210: c4a8 6a3e cdae 963d 33d5 1b3f 3fcb f33e
00000220: 31b5 0e3e 64a7 11bf 2677 eebe 338c 47be
00000230: 6487 98bd 29c9 70bf 146e 313f 9db5 68be
00000240: c966 14bf b8f5 a9be 620b 3dbd 6930 ae3e
00000250: 9500 de3e 4ffe 90be e58f 86be 7244 ed3d
00000260: 891a f9bb 474a ed3e 930e 413c 8fc9 81be
00000270: dfb6 293e 7690 cbbd ec4b a2bc ae65 91be
00000280: 371c fbbd f5a1 77bf 1db0 cbbd cd3c 9b3e
00000290: f703 ac3d 013f 813d 8678 98be f9fa 08bf
000002a0: df86 afbe 927d 21bf 0a91 d7be 74a1 c83d
000002b0: 4850 193e c475 43bf a6d9 cd3d 324f 0c3f
000002c0: a91b 313f 1663 863e 6bc9 68bb ddd7 7ebe
000002d0: c69d 09be 1a4c ed3c 5912 0bbe 2658 a93e
000002e0: 6e3c 9ebe 1486 f8be 8c76 2a3d 3bf1 733e
000002f0: b9d8 553e f14d f03e 193d 39be e1d4 4cbf
00000300: 0beb 343d 9e45 c83d f88f 093f d16c f13d
00000310: 964d 0cbe a45d 7cbe 7236 b7be 99b8 ecbd
00000320: 24d2 b2be 7625 8cbe 7db0 9e3e 3f88 c2be
00000330: c0f7 043f a49c d5be e700 e53e 7d8c 22bf
00000340: 1f0d 263f 238c cabd 509d 88be c45c 323f
00000350: 5126 0cbe 5fbd 513e 4a89 ef3e 87c5 89be
00000360: b3b9 e03c 8205 30be 65b1 3d3e 1bbb 6cbf
00000370: 9f3a 4abe 515b b0bd b3a3 17bf efb3 59bf
00000380: 760e 06bf 986c 76be 87a7 813e cba2 06be
00000390: d64f 00bf 2940 9d3e 7ec0 94be 90ae 05be
000003a0: 74f3 a23e 5cee 7a3e ec5e 1c3e 8378 eb3c
000003b0: 4056 033e 2e2f 9ebe 0e9e b03e ce51 1ebd
000003c0: 1386 4cbe 4641 3d3e 03a9 afbd 028d 41be
000003d0: 0a7e 17bf 91e6 b93e 22c9 9fbe 6f0e ad3e
000003e0: 5eeb 33bc f050 773d 5f03 c9bd b0bf e0be
000003f0: 8c66 f73e 2e62 53bb acec 4f3f ce8a be3e
0.21481684 -0.45579708 -0.110827215 -0.23982479 -0.5719069 0.20017876 -0.059952367 0.62248343
0.9305659 0.35939333 -0.32278946 0.48289117 0.7743678 0.5374703 -0.65957725 0.40133053
-0.057134535 0.2222685 -0.17761458 -0.3884744 -0.11288111 -0.27480766 -0.5826137 -0.2056513
-0.6649301 -0.6234875 0.2844492 -0.9913538 -0.06021484 0.004455771 0.037390854 -0.41750893
-0.15590751 -0.111747205 -0.13127488 0.30235013 0.1467201 -0.21449193 -0.050538618 -0.04584807
-0.10586006 0.18944111 0.25609702 -0.46753222 -0.6586047 0.9562236 0.25255832 0.26194403
0.07269795 -0.30310592 -0.16977109 0.5375017 -0.06412286 -0.12294574 0.23436701 -0.7031378
-0.22013882 -0.3037244 0.6664394 0.19326514 -0.38999218 0.63014853 -0.25295624 -0.022786008
-0.10584396 0.19788688 -0.36906332 0.15996362 0.25820783 0.23411793 -0.36348832 -0.34109485
0.39792922 0.36698472 0.37450895 -0.37069905 1.0089043 -0.6128712 0.5294592 0.120830044
-0.00158199 0.3021437 -0.17130837 0.41133147 -0.2125984 -0.64775115 0.03752764 0.5646517
-0.40747947 0.5772677 -0.13461034 -0.16364366 0.49843392 -0.3203812 0.05918828 -0.4044818
0.49641043 -0.25543034 -0.19975394 -0.04180204 -0.22317255 0.23715161 -0.5148731 0.3057019
-0.35183203 -0.5786878 0.1021078 -0.8171167 -0.08866882 0.2133877 -0.6718331 0.19014803
-0.4690087 0.16361755 -0.0048045507 -0.6380809 0.06858211 0.07592325 0.15889686 0.32168075
0.53475755 0.18274896 0.22988516 -0.50800914 -0.058379207 0.34827152 -0.06651715 -0.5084422
0.0064914683 0.053275373 0.61144084 -0.6508254 0.22915941 0.07357559 0.6087219 0.47616002
0.13936307 -0.5689604 -0.46575278 -0.19487076 -0.07447699 -0.94056946 0.6930859 -0.2272553
-0.5796934 -0.3319528 -0.046153434 0.3402131 0.4335982 -0.28319022 -0.26281658 0.115853205
-0.00760204 0.46345732 0.01178326 -0.2534909 0.16573666 -0.09939663 -0.019811593 -0.28397888
-0.12261241 -0.967315 -0.099457 0.30319825 0.08399194 0.06310845 -0.29779452 -0.53507954
-0.34282586 -0.6308223 -0.42102844 0.0979642 0.14972031 -0.7635157 0.10051279 0.5480834
0.6918283 0.26247472 -0.0035520445 -0.24887033 -0.13439092 0.028966952 -0.13581218 0.33075064
-0.3090548 -0.48539793 0.04161696 0.23822491 0.20883454 0.46934465 -0.18089713 -0.8001233
0.044169467 0.097789034 0.53735304 0.11788333 -0.13701472 -0.24645096 -0.35783726 -0.11558647
-0.3492595 -0.2737233 0.30994025 -0.37994573 0.51940536 -0.4172107 0.4472725 -0.6349562
0.6486377 -0.0989001 -0.2668252 0.696728 -0.13686492 0.20482396 0.4678443 -0.26908514
0.027432298 -0.17189601 0.18524702 -0.92473 -0.19748925 -0.08611167 -0.5923416 -0.8504018
-0.52365816 -0.24064863 0.25323126 -0.13148038 -0.5012182 0.30713013 -0.2905311 -0.13054872
0.31826365 0.2450499 0.15270585 0.028743988 0.1282587 -0.3089537 0.34495586 -0.038652234
-0.1997302 0.18481931 -0.08577158 -0.18901446 -0.59176695 0.3630872 -0.3120814 0.33800074
-0.010981409 0.060379922 -0.09815096 -0.43896246 0.48320425 -0.0032254565 0.8122051 0.37215275

network_body._body_endoder.seq_layers.0.bias f4 [128]
00000000: 5b71 ae3b 4899 193c 5129 16ba fddf b8bb
00000010: e9e3 bcbb da0a 26bc b8a7 5bba f33a 1939
00000020: e449 90bb 0258 11bc a69e 81bb 2fc7 6cbb
00000030: 3d53 b1bb 5c37 c23a 12c5 be3a 8258 8d3b
00000040: 9cac 6d3c dba3 cf3b f275 473c 2bfa 65ba
00000050: 7168 7dbb a8b5 c9b9 1741 953a 4219 3b3b
00000060: 8d2f 2aba 4424 aebb 8c21 e8ba de64 2539
00000070: 9d62 ccb9 3e98 4cbb be8d 2639 09e5 93bb
00000080: 779f dcba 7532 593c 4d76 e23a 1862 21ba
00000090: 75ae b7bb 03da 14bc 65b3 0abc 0755 c8bb
000000a0: 9b32 183c 2bc8 9c3a e283 6538 bbf7 44bb
000000b0: 2f18 1ebb a266 3939 8db0 4b3b b553 daba
000000c0: e8ac 85bb 3514 d1ba f45e 4b3c 93a0 c5bb
000000d0: 0203 c6bb 0dd7 48bc 65b6 3b3a a4e4 f0bb
000000e0: d3ea 02bc fc4f 443b c2f0 d939 2e12 0839
000000f0: e082 17bb 97d7 36bb 798d 0c3b b620 5fba
00000100: 534e 8dbb 0316 b1bb 8f66 9abb 51bc 96bb
00000110: 50e0 8bba f227 2cbb f641 a9b9 7733 2cbc
00000120: dd3b 383c 6dff e73a ab35 9f3b 566d 053b
00000130: dd9c 8c3b 1fac f63a c5ed eebb 61ab e4ba
00000140: 9ba0 7e3b 22fa afba 5771 b23a 8ef5 34bb
00000150: 509d 70bb f293 d5bb 6edd ffb9 43ba 9dba
00000160: 969a 4ebb 1e03 d43a 3818 93ba 4c48 15bb
00000170: c912 9e39 a9c2 17bb 5c60 363b 0998 84ba
00000180: e116 a4bb 4200 843b 1e35 aebb e7e2 003d
00000190: 3367 23ba e0c4 1bbb c0bc 613b 030e bfba
000001a0: ffb2 25bc aa12 ed3b 666f 4f3b e6ad 5d3b
000001b0: 9d7a e0bb 69cd dfba 4538 183b 8bba 0c3b
000001c0: 3bf7 8f3a 62e6 6a3b 90b8 653b 1d8e e53a
000001d0: ea56 ecba e59a 603b ee44 55bb ca12 aaba
000001e0: 7391 403b e47b 86bb 62fb 6d3a 41ce 00bb
000001f0: 0a56 4bbb 1112 3dbb ea00 1c3b 4ce2 5e3b
0.0053235716 0.009374924 -0.00057282025 -0.005641936 -0.0057644737 -0.010134423 -0.0008379179 0.00014613177
-0.0044033397 -0.00887108 -0.00395568 -0.0036129465 -0.005411534 0.0014817524 0.0014554581 0.0043135295
0.014506485 0.0063366718 0.012174116 -0.00087729347 -0.0038666988 -0.00038473052 0.0011387196 0.002854899
-0.0006492071 -0.005314382 -0.0017710193 0.00015773202 -0.00038983385 -0.0031218673 0.00015883797 -0.004513387
-0.0016832192 0.013256659 0.0017277688 -0.00061562797 -0.0056055137 -0.009085181 -0.008465623 -0.0061136517
0.009289409 0.001196151 5.472068e-05 -0.0030054885 -0.0024123301 0.00017681209 0.0031080574 -0.0016657027
-0.00407945 -0.0015951457 0.012412775 -0.006031105 -0.006042839 -0.012258303 0.0007160663 -0.007351475
-0.007990557 0.00299549 0.00041568844 0.00012976743 -0.002311878 -0.0027899498 0.002144663 -0.0008511649
-0.0043123155 -0.0054042353 -0.004711933 -0.004600086 -0.0010671709 -0.0026268926 -0.00032283337 -0.010510317
0.011244741 0.0017700024 0.0048586926 0.0020359359 0.0042911605 0.0018819607 -0.007291528 -0.0017446094
0.0038853053 -0.0013425986 0.00136141 -0.0027612182 -0.003671486 -0.0065178806 -0.00048802368 -0.001203366
-0.0031525246 0.0016175245 -0.0011222428 -0.0022778688 0.00030150104 -0.0023156798 0.002782843 -0.0010116111
-0.00500761 0.004028351 -0.0053163907 0.03146639 -0.00062333344 -0.002376847 0.003444478 -0.0014576319
-0.010113477 0.007234891 0.0031652092 0.0033825575 -0.006850554 -0.0017074767 0.0023226899 0.0021473493
0.0010983715 0.0035842885 0.0035052635 0.0017513667 -0.0018031274 0.0034272012 -0.0032542306 -0.001297557
0.002938357 -0.0041041244 0.00090782915 -0.0019654187 -0.0031026625 -0.002884988 0.0023804256 0.0034009395

network_body._body_endoder.seq_layers.2.weight f4 [128, 128]
00000000: 7c5c d8bd b09f 55bd f032 fbbd e2c6 5e3d
00000010: e039 643d 78ed 8abd 8d8e 673d abc8 013e
00000020: 5211 a93d 71e1 66bd 2572 ce3d a098 f43c
00000030: b99b 11bd 0217 ca3d 45f9 68be 2a09 4cbc
00000040: 8218 6ebc c56e 2ebd e33a d53c 8add 903d
00000050: 8d46 013e 0916 4c3c b6d9 c13d 1632 983d
00000060: 1bd9 a53d 05f8 c3bc 36e4 15be e766 e23d
00000070: 835a c8bd a516 c4bc b5b1 1a3e aa13 2abd
00000080: f530 8ebc 6bc0 2fbd 1946 dabd e80b debd
00000090: 11cc 85bd c6b4 a43c baab 713d 9eae e23d
000000a0: 7756 fd3c 674d 133c 822c 923d 995b 873a
000000b0: e99d fe3d 8620 b83d 298c 353d 94ff 973c
000000c0: bd3d 893c 20a1 083d a491 733c 8a89 16bb
000000d0: 9ace a2bd caeb 0dbd fbaf 95bd c94c bebd
000000e0: 65da c4bc 0db7 103e 866f 8cbc 27f7 8abc
000000f0: 9bdb e03d 42bd df3b 55c4 ecbc a9f7 f73b
00000100: af71 e73c e058 32bd 6f58 0e3d cfa2 aabc
00000110: 27c1 143e 033b 123e e283 9f3a 0309 22bd
00000120: 9da1 fe3c 3e91 09bd f092 a53c 36b7 6abe
00000130: 15d1 c7bd f64a 4dbd c322 fa3d d325 083d
00000140: 3eca f7bc 87f7 623e 6bc4 56be 1499 913d
00000150: d453 643d 40d1 3fbd f354 bc3b dabb cb3c
00000160: a9d1 89bd 666e 8dbd 764f e63d 483f be3d
00000170: d09f 8a3d a771 45be b425 4c3c de22 593d
00000180: 2208 0f3e c3f0 41be 5376 243d e2ab 77bc
00000190: 8add ed3c db73 a53d bf60 a63d 33a6 173e
000001a0: 7630 31bd ec8a 22bc 34c9 3dbd 28c1 7abe
000001b0: 257b e8bb 8c3e 483e dac5 22bd 645f ccbd
000001c0: 38f4 69bd de88 183d 6f3e d83d b35d 61bd
000001d0: a901 5dbd ea1d 04bd 0fff 9dbd 7119 2fbc
000001e0: 0991 133c d2a8 bf3c 519b 23bd 09b7 d6bd
000001f0: 42fd 8c3d b533 9dbd 8aa0 75bd 3226 233d
00000200: 81c1 fcbc 1f1f 5cbe 108b e4bc ac88 c3bd
00000210: 5148 4abd 1742 883d 89eb 533d 4297 b8bc
00000220: acee 493e 9c39 043d 68c9 babc 3779 26bd
00000230: 3888 c83b 69b3 c1bd 8541 17bd 5a2a 293e
00000240: 9071 5fbc b9e4 8d3b 147f 0a3d 328b 4abe
00000250: f743 b8bd 2926 d6bd 2b05 5a3d 318f cb3d
00000260: ee82 39be f815 82bb 3844 1e3e 3351 f03c
00000270: eafa 073e aab3 edbd 37dc 693d 0329 06bb
00000280: 6a07 0abe 855c 98bd ea19 6bbd 5146 703d
00000290: ae43 4dbe 8da0 d83d bceb 57bb b4b1 0b3d
000002a0: e3a8 5bbe 709b e4bd 8284 583d e9bc fc3d
000002b0: b582 80bd ebb4 a53d 2bd5 8b3d fc23 80bd
000002c0: 0984 3d3c c149 333e fec3 683c a3dd 26bb
000002d0: 3efb 23bd fdae b93d 5f02 463c de16 5d3c
000002e0: 4caa 5e3d ad97 1d3e 897e f4bd b5ec e03d
000002f0: 019e 99bd 6c88 eb3d 62b3 57bd b596 1b3d
00000300: 30e6 a43d 8b77 c1bc ca7d 253d 35d4 92bc
00000310: 93a0 793c 0cb2 573d 7d6e 173e fc6d d8bc
00000320: 41dd 8cbd 7513 dfbd 4eb8 21be ad9c 2ebd
00000330: 8688 11bd 5d68 af3d 2e2e 94bc dc84 013e
00000340: 438d 15bc 062a 3abd 9ca7 1a3d 0769 36be
00000350: 9c5a 0d3e b9b7 a4bc 7825 b53d 0a99 fabd
00000360: ca47 913d c5f8 9abc 1fb4 dc3b 5a3b 91bd
00000370: 755a 87bd c65b 873a 4024 f2bd 16aa 7fbd
00000380: bb3f c83d e091 4d3d 8846 c33c 5673 153e
00000390: 9f02 413d 222c 323d 9240 31bb 7646 613d
000003a0: f912 63bd 244d 4dbc 3f13 f9bb aee8 a53d
000003b0: ae1d 81bd 98b9 933d a400 863d 5974 e8ba
000003c0: e154 00be 7f9f 72bd 245b 07bd fd1e b53d
000003d0: f2e2 fd3c c24f c3bd 9b44 30bd b4e9 a13c
000003e0: 1c0e 7d3c 64dd 46bc 5514 42bd 8d19 28bd
000003f0: 2eea 433d 4629 993d 549e 1d3a 2dec 02be
-0.10564515 -0.052154243 -0.12265575 0.05438889 0.055719256 -0.06783575 0.05653243 0.12674205
0.08255257 -0.05636734 0.10080365 0.029857934 -0.0355489 0.0986767 -0.22751339 -0.012453357
-0.01453221 -0.042586107 0.026029056 0.07073505 0.12624569 0.012456425 0.09465353 0.07431428
0.0809805 -0.023921976 -0.14637837 0.11054783 -0.09782889 -0.023936579 0.15106852 -0.04152266
-0.017357329 -0.042908113 -0.10657901 -0.10842115 -0.06533063 0.02010573 0.05900166 0.11068462
0.030925019 0.008990622 0.071373954 0.0010326981 0.12432463 0.08990578 0.04432312 0.018554486
0.016753072 0.033356786 0.014866266 -0.0022970163 -0.07949562 -0.034648694 -0.07308956 -0.09291989
-0.02402992 0.14132328 -0.017143022 -0.016963555 0.109793864 0.006827981 -0.028902212 0.007567365
0.02825245 -0.04354179 0.034752306 -0.020829586 0.14526807 0.14280324 0.0012170041 -0.039559375
0.031082923 -0.03358578 0.020211667 -0.22921452 -0.09756676 -0.050120316 0.122136615 0.033239197
-0.030247804 0.22164737 -0.20973365 0.071092755 0.055744007 -0.046830416 0.0057474314 0.024869848
-0.067294426 -0.069058225 0.11245625 0.09289414 0.06768763 -0.19281636 0.012460161 0.053011768
0.13967946 -0.189395 0.040151905 -0.015116664 0.029036302 0.08078738 0.081239216 0.14809494
-0.043259107 -0.009920817 -0.04633446 -0.24487746 -0.007094758 0.1955511 -0.039739467 -0.09979132
-0.05711767 0.0372399 0.10558783 -0.055021 -0.05395666 -0.03225509 -0.07714664 -0.010687218
0.009006747 0.02339593 -0.039943043 -0.1048413 0.068842426 -0.07675878 -0.059967555 0.039831348
-0.030853989 -0.21496247 -0.027898341 -0.095475525 -0.049385373 0.06653231 0.051738296 -0.022533063
0.19719952 0.032281503 -0.022801116 -0.040642943 0.006119754 -0.09458048 -0.03692772 0.16520062
-0.013637915 0.0043302444 0.033812597 -0.19779661 -0.08997338 -0.10456497 0.053227585 0.09939421
-0.18116352 -0.003969904 0.15455711 0.029335594 0.1327931 -0.11606534 0.05709478 -0.0020471222
-0.1347939 -0.07439522 -0.05739776 0.05866081 -0.20045349 0.10577498 -0.0032946905 0.034105018
-0.21451144 -0.1116246 0.052860744 0.12340719 -0.062749304 0.08091148 0.06827768 -0.062568635
0.011567124 0.17508604 0.014206884 -0.0025461696 -0.040034525 0.090665795 0.012085526 0.0134942215
0.054361627 0.15389891 -0.11938197 0.10982648 -0.0750084 0.1150063 -0.052661307 0.037985522
0.08051717 -0.023616573 0.040403165 -0.017923454 0.015236038 0.052660033 0.14788242 -0.026419632
-0.06878138 -0.10892383 -0.15792963 -0.042629886 -0.03553059 0.085648276 -0.018088426 0.12648338
-0.009127918 -0.045450233 0.0377575 -0.17813502 0.13804096 -0.020107137 0.08845037 -0.12236221
0.07093771 -0.01891745 0.0067353393 -0.070913985 -0.0660905 0.0010327033 -0.118233204 -0.062418066
0.097777806 0.050187945 0.023837343 0.14594778 0.04712164 0.04349912 -0.0027046544 0.054998837
-0.055438016 -0.012530599 -0.0076011713 0.08101021 -0.06304489 0.072131336 0.06543091 -0.001773487
-0.12532379 -0.05923414 -0.033045903 0.08843801 0.030992005 -0.09536697 -0.043034177 0.019764759
0.0154452585 -0.012137745 -0.04738267 -0.041039992 0.047830753 0.074785754 0.00060126674 -0.12785406

network_body._body_endoder.seq_layers.2.bias f4 [128]
00000000: a79c b3ba c4da 09bb f0e7 913a 453a 38bb
00000010: 295f 84bb 719e 98bb ffb8 c8ba 0bad e0ba
00000020: 14cc b239 9864 6abb 2905 c0b9 04ac 2abb
00000030: d3d7 c8ba 4315 9bba cf71 483a 987a fab9
00000040: a925 5c3b 22b8 0ebb fb89 473b 4ef1 afba
00000050: f808 9eba 44c1 b4ba b384 e4bb eab4 e1ba
00000060: 39b9 8d3a 2be9 08bb a0ee 1d3b 0088 57bb
00000070: ad9e b2bb 56b8 d1ba 70f5 65bb 7ce1 88bb
00000080: e0ac bf39 6dde a23a 3fb3 28ba ee09 edba
00000090: 8771 a1ba d34f 1ab8 12cc 3e39 f656 b6bb
000000a0: 78eb dcba 00ff 22bb 7c48 43bb 5a3e 78ba
000000b0: 577c 8bba 2b00 0bba 0aef 17bb 4ecb b4b9
000000c0: fe45 6cbb acd8 52bb ec50 6fbb 1f10 403b
000000d0: 562f f5ba 33f0 6c3a f934 9bbb fb66 d53a
000000e0: bc6d 92bb e153 ffb9 62a1 223a bbff 9fba
000000f0: 5802 df3b dac7 bd39 a4c4 143b a02c 08bc
00000100: ced8 1cbb 3ebe 22ba 8a8b a8bb a154 31bb
00000110: bb96 52bb b346 83bb 13df 8dbb d783 103b
00000120: c4e1 45bb 9346 ceba 6bbe c238 d88f e7ba
00000130: 444d 21bb 1784 b13b 56d2 c63b 19dc 0d3a
00000140: 2de2 42ba 420a 03bb 8de3 acbb ddae 97bb
00000150: 1288 32bb 4ba0 163a 9a6d 0bbb d013 cf39
00000160: d8d1 773b b191 443b 073c 19ba 32e3 55ba
00000170: 689f 283a fab5 c93a b266 9eba 7cdd ab3a
00000180: b7d6 6b3a 5647 db39 e71b 72ba bf39 36bb
00000190: ae54 fcb9 c855 80bb 1a3f b7bb bb6b 87bb
000001a0: 8794 c0bb ef86 0dbb ad98 a63b f9ab 423b
000001b0: 3f06 713b 7e55 7bba e4ed ba39 eecb 03ba
000001c0: 459c 60bb 9ae1 1cba fbff 853a ea39 05bb
000001d0: 5051 2abb 0d5f 293a b15a a03b 8260 f0b9
000001e0: 22f8 1f3c 8494 89bb 3636 f0ba 2163 c33a
000001f0: 127d acbb 9f1f bfbb e0ca b0bb 1811 88b8
-0.0013703302 -0.0021034935 0.0011131745 -0.0028110903 -0.0040396643 -0.0046575596 -0.0015313922 -0.0017141415
0.00034102856 -0.0035765525 -0.00036624938 -0.002604247 -0.001532311 -0.0011831898 0.00076463533 -0.00047775055
0.0033591783 -0.0021777232 0.0030447233 -0.0013423355 -0.0012057116 -0.0013790508 -0.006973827 -0.0017220054
0.0010812647 -0.0020890932 0.002409853 -0.0032887459 -0.0054510445 -0.0016000371 -0.003508892 -0.0041772705
0.0003655916 0.0012425907 -0.0006435401 -0.0018084624 -0.0012317159 -3.6790803e-05 0.00018195834 -0.005564566
-0.0016854843 -0.002487123 -0.0029797843 -0.00094697403 -0.0010641915 -0.0005302454 -0.002318325 -0.0003448375
-0.003605246 -0.0032172604 -0.003651674 0.0029306484 -0.0018706124 0.0009038478 -0.0047365394 0.0016281301
-0.0044686478 -0.00048699885 0.00062038575 -0.0012206951 0.0068056993 0.0003619779 0.0022700215 -0.008311421
-0.0023932937 -0.0006208158 -0.0051435875 -0.00270585 -0.00321333 -0.0040062307 -0.004329571 0.002205124
-0.0030194381 -0.0015737585 9.286109e-05 -0.001766677 -0.0024612704 0.0054173577 0.0060675545 0.000541152
-0.00074342155 -0.0019995128 -0.0052761496 -0.0046289996 -0.0027241749 0.00057459314 -0.0021275044 0.00039496878
0.0037814286 0.0029994065 -0.00058454316 -0.000815916 0.0006432445 0.0015389316 -0.0012085049 0.0013112272
0.00089965336 0.00041824084 -0.0009235725 -0.0027805415 -0.00048128277 -0.003916476 -0.005592239 -0.0041327155
-0.005877081 -0.002159532 0.0050841183 0.0029704554 0.0036777405 -0.00095876295 0.00035653927 -0.00050276413
-0.0034272831 -0.0005984545 0.0010223383 -0.002032871 -0.0025988407 0.0006461002 0.0048936238 -0.0004584827
0.009763749 -0.0041986126 -0.0018326703 0.0014906862 -0.005263933 -0.005832627 -0.0053952783 -6.488169e-05

action_model._continuous_distribution.log_sigma f4 [1, 3]
00000000: 3c59 79bd 5eba 55bd c2fa d1bc
-0.060876116 -0.052179687 -0.025632266

action_model._continuous_distribution.mu.weight f4 [3, 128]
00000000: 3f78 c43c 4b7c 143d 7509 733b ffc5 b63c
00000010: dcb0 c33c de8f 813b ee8e f13b 884e c03c
00000020: 02a5 d7bc 5f29 83bb 9ddb 40bb 06a7 93bb
00000030: ad42 81bb d414 6c3c 6fb5 85bc 9f80 d73b
00000040: 5ed5 05bc f0aa f43a aa30 c2bc 785e 803c
00000050: 84f4 f83c 7ae9 b33c b89f 86bc e0d2 57bc
00000060: b1cd cabb ff23 093d 2d22 b33c d377 8cbc
00000070: 6585 33bc 6a06 483d d1b9 f8ba 4b0b 9bbc
00000080: 0fdb c8ba 2049 813c 63e1 eabc c9f6 d9bb
00000090: 695e 4c3b 3614 a93c 9f49 0e3d 9558 60bb
000000a0: 3005 a5bc 2ab2 da3b 8328 5abc 616f cdbb
000000b0: 844c cf3b b29a 073d 0f70 d93b 6e35 e13c
000000c0: 446d bdbb 08eb e7bb 1987 94bc b0b6 8c3c
000000d0: 6d0c 54bc dd7d a63c 78b5 2b3d 0515 cebb
000000e0: 20eb ac3b bde0 513b 55ed 523c 4326 bd3b
000000f0: d066 5f3b a4b2 b53c 8207 133d c5b7 8dbc
00000100: 3f75 4e3c 2b69 823c 7131 38bc a208 8cbc
00000110: f4f8 9ebb ead8 d5ba 18ec 2dbc 7e29 43bc
00000120: 9b1b 2e3b bf36 efba de6a 36bc bb7c 84bc
00000130: 7626 dcbb 2b97 1d3b e6ac e4bc de14 77bc
00000140: 5207 eabc b018 7f3c 5982 c0bc c37d 44bc
00000150: 7136 833c 494d 16bc d7e6 3f3c e673 ad3c
00000160: b0ad 6cbc 8ce8 f03c 83f1 983b a636 86bb
00000170: 90c5 4bbc daa0 a23c 3841 223c fd39 b83c
00000180: 61b2 133d dc25 f53c 0962 793c db29 323d
00000190: eaf5 4c3c 6933 83bb de39 96bb 607b 583b
000001a0: bc4f 223b 28d0 413c 973d 71bb 887e b7bc
000001b0: 2845 813c 4206 c7bb 0e8a 913c 1213 28bc
000001c0: 1ef0 783b d252 5a3b bbaa 35bc 3ae8 003b
000001d0: 6980 8ebc 0a32 bf3c 8888 323d 4b4f 9dba
000001e0: d29e 18bb d3e9 033c a673 ff3b 4c3c 8abb
000001f0: 4d5e f8bb a5e2 14bc 7c76 26bd 80e3 873c
00000200: 9748 c0bb 3f5a a33a 6134 e3ba c81a 1e3d
00000210: 25a1 15bd 46a3 dabc e40c a2bb 8fbb 31bc
00000220: 0796 fa3c 022a fcbc 51d9 a5bc 5ea5 f83b
00000230: 3e6e 3cbc 2bc3 40bc 0387 57bc 0121 c83b
00000240: 8ec2 853b 0b23 51bb e9a5 7b3c ca5d 1e3c
00000250: ccda fc3c b427 623c b1d1 72bc a29c 523c
00000260: f7a0 d73c 6e6e 1dbb a6fe 503b 2b06 50bc
00000270: 4104 b9bb efbe 613c 1f6f 49bb 45c4 37ba
00000280: 5fec 3e3c 47c1 4bbc b7b5 203c 0a9e 19bc
00000290: ebe2 80bc ba7f 873c 5dca 6bbc 70a5 70bc
000002a0: 2e88 a83c 1a50 73bc 4141 203b 95ff 013b
000002b0: c384 f13a dc35 b8b9 ec85 14bb 96e3 ce3b
000002c0: e4c9 6cba 5f1b b8bc 3d4e 2439 7115 423d
000002d0: b77c 563b 15ef a9bb 3ee6 77bb abe4 023d
000002e0: f73e 0d3b adfb b4bc 03fc ca3a b266 7b3c
000002f0: 82be fa3c 36d8 30bc ffae f63b d1db ebbc
00000300: 2163 c4bc a383 753b 02c7 b83c c86d cf3c
00000310: b5d4 203c 88a0 c9bc a827 943c b5f0 b7bb
00000320: a4e6 dabc f44f e73b 271a e53b e674 50bb
00000330: 6cbd 00bd 992d 9e3c d480 49bc 252f e13b
00000340: d882 d93c 8109 ba3b a107 d3bc 0b5c a2bc
00000350: d0f2 7dbb 4633 12bc f304 ef3c b3e1 173d
00000360: 65f7 773c 5bc0 a33c d059 70bd c0a7 993b
00000370: f681 7d3c 6ec8 38bc c7fa 503b 7ab6 653b
00000380: 4fbe 103c f61c 80bc abc6 863c 964d 853c
00000390: f93d 37bc c3d4 d1bc 7282 1a3c 95a3 92bc
000003a0: eef1 e5bb 300a b639 ebe1 ea3c dd54 dc3b
000003b0: 9e16 f23b 737b 5b3c 0345 163d 4a9e a7bb
000003c0: 0e3e 1cbc 5d93 b23b 744d 733c 12a6 15bd
000003d0: 0a23 34bc b833 1c3c e650 98bc 4765 783c
000003e0: 6bb1 be3c 5c58 13bb 4f31 063d 138b 313b
000003f0: a462 23bb 4060 8f3c ebfc 10bc 80e8 0d3c
0.023983119 0.036251348 0.0037084494 0.022311209 0.023888044 0.003953918 0.007371775 0.023474947
-0.026323799 -0.0040027346 -0.0029427775 -0.0045059947 -0.003944716 0.014409263 -0.016321866 0.006576612
-0.0081685465 0.0018666666 -0.023704845 0.015670046 0.030390032 0.021961916 -0.016433582 -0.013172835
-0.006189071 0.033481594 0.021866882 -0.01714698 -0.010957097 0.048834242 -0.0018976276 -0.018926283
-0.0015324074 0.015781939 -0.028671926 -0.0066517335 0.0031184203 0.02063952 0.03473818 -0.0034232487
-0.020144075 0.006674071 -0.013315323 -0.006269381 0.00632626 0.033106513 0.006635673 0.027491298
-0.0057808477 -0.0070775785 -0.018130826 0.017176956 -0.012942416 0.020323688 0.04192111 -0.006289127
0.0052770525 0.0032024824 0.012873967 0.0057723834 0.003408838 0.022179909 0.035895832 -0.017299542
0.012601196 0.015919289 -0.0112422565 -0.01709396 -0.004851455 -0.0016315256 -0.010615371 -0.011911748
0.0026566747 -0.0018250569 -0.011133878 -0.016172757 -0.006718452 0.0024046402 -0.027914476 -0.015080659
-0.028567944 0.015569851 -0.023499655 -0.011992875 0.01601717 -0.0091737 0.011712751 0.021173429
-0.014445707 0.029407762 0.0046674623 -0.00409587 -0.012437239 0.01985209 0.009903245 0.022488588
0.036058787 0.02992528 0.015221127 0.043496948 0.012509802 -0.0040039313 -0.004584535 0.0033032522
0.0024766764 0.0118294135 -0.0036810392 -0.022399202 0.015780047 -0.006073744 0.017766025 -0.010258453
0.0037984918 0.0033313525 -0.011088069 0.0019669668 -0.017395215 0.02333929 0.043587238 -0.001200178
-0.0023288024 0.0080513535 0.007795769 -0.0042186137 -0.007579601 -0.009087239 -0.04064034 0.016587973
-0.0058680284 0.0012462809 -0.0017334336 0.03859976 -0.036530633 -0.026689183 -0.0049453843 -0.01084794
0.030589117 -0.03078175 -0.020245226 0.0075880727 -0.011500893 -0.011765282 -0.013154748 0.00610745
0.0040820306 -0.0031911756 0.01535938 0.009665916 0.03086605 0.013803411 -0.014820502 0.012854727
0.026321871 -0.002402212 0.0031890064 -0.012696783 -0.005646259 0.013778432 -0.00307364 -0.00070101424
0.011653035 -0.012436218 0.009808949 -0.009376058 -0.015733203 0.016540397 -0.014391509 -0.014687881
0.020572748 -0.014850641 0.0024452957 0.0019836177 0.0018426407 -0.00035135343 -0.0022662831 0.0063137515
-0.00090327696 -0.022473989 0.00015669405 0.04738373 0.0032728144 -0.0051859715 -0.0037826444 0.031956356
0.0021552423 -0.022092665 0.0015486482 0.015344309 0.03060842 -0.010793736 0.0075281854 -0.02879134
-0.02397305 0.0037462495 0.022555832 0.025320902 0.009816338 -0.02461268 0.018085316 -0.0056134113
-0.026721306 0.0070590917 0.006991643 -0.0031807958 -0.031430647 0.019308852 -0.012298781 0.006872075
0.026551649 0.0056774025 -0.025760474 -0.01981928 -0.0038749464 -0.008923357 0.029177165 0.037080478
0.015134667 0.019989183 -0.058679402 0.004689187 0.01547288 -0.011278255 0.0031887756 0.0035051391
0.008834436 -0.01563881 0.016452154 0.016272347 -0.011184209 -0.025614148 0.009430515 -0.017900268
-0.0070173657 0.00034721335 0.02867218 0.0067239837 0.00738795 0.013396132 0.03668691 -0.005115305
-0.009536279 0.005449696 0.014850009 -0.03653533 -0.010994682 0.009533815 -0.018593263 0.015160865
0.023277959 -0.0022483086 0.032761868 0.0027090951 -0.002493062 0.01750195 -0.008849363 0.008661389

action_model._continuous_distribution.mu.bias f4 [3]
00000000: 5907 4a3a ba22 953a 5e2b ca3a
0.00077067834 0.0011378147 0.0015424301

exp_avg f4 [128, 6]
00000000: dcef f83a de0e 6eb9 bbc0 703a 9435 593b
00000010: 268b b2b9 ed3d 83bb 200b 26bb 23b7 8739
00000020: dae9 61ba baa8 77bb a092 cb39 e3a3 953b
00000030: 28a8 7cb4 6067 0133 cb9d b3b3 4224 ecb4
00000040: 121b 4233 62ae 0e35 ef54 ec3a 975e 45b9
00000050: 4e2c 063a 8e15 343b ed06 94b9 ce9e 59bb
00000060: 9ca1 633a 56c6 54b8 843b bab8 c623 423a
00000070: c694 9fb8 1c9b 6aba 5b76 21bb e0b8 9239
00000080: 9b2e 34ba 5cdf 85bb 5915 dc39 cec6 a13b
00000090: 4aa0 9d3a b0c0 f9b8 97f8 8739 37e1 e33a
000000a0: 7e50 3bb9 66b0 09bb b5eb 64ae 920d 822c
000000b0: 2052 8aad 9d53 6dae 5414 c32c 7865 8f2e
000000c0: b3c9 742d 0f48 e5ab bc19 bc2c 8d33 d12d
000000d0: 0cf6 2bac 80ce fcad 0c31 39bb 8971 8139
000000e0: 2424 f2b9 c736 6cbb 4a2a c239 8cb9 8e3b
000000f0: 83c6 93ba afdf cc38 ec7d dc37 5cee baba
00000100: c9a7 1939 f3e4 e13a fc59 8731 9b37 07b0
00000110: fc15 4e30 28c0 f631 7dd3 4ab0 5617 15b2
00000120: 4649 02b1 d67c 782f 6f7c 66b0 b5b9 62b1
00000130: 995d ba2f e1fd 8831 6b0f 9fb7 94ad dd34
00000140: 5a2c d7b6 b444 cab6 1842 2635 386c f436
00000150: b178 213a af71 d0b8 acde e339 6130 be3a
00000160: 4955 1cb9 edd4 e5ba a5a8 3db8 bc8f a136
00000170: 4fc2 06b7 8069 93b8 9557 f236 5e23 b238
00000180: c670 163a 6380 d4b8 7cb1 193a 28e4 c13a
00000190: 4c60 1fb9 094e eaba a0ef 4d3a 3ed0 bcb8
000001a0: 06c6 8a39 0347 ac3a 309c 0db9 ba2f d0ba
000001b0: def1 00ba 6139 3f38 583b 1b39 257a 2eba
000001c0: 1d6b 8f38 25d8 523a b4c7 a63a f7cc e5b8
000001d0: b405 8839 d6ac d13a c959 2cb9 1061 fdba
000001e0: c728 013b 7918 31b9 c54a 8e39 f795 213b
000001f0: 5dd2 84b9 2c44 43bb fa04 7a2b ae71 aca9
00000200: 11e9 8729 8457 9d2b 4455 01aa 3823 beab
00000210: 5a48 659f 70c7 111c 7875 9c9d a803 059e
00000220: d0aa 5a1c d0bb 201e 7099 303a 1efc a2b8
00000230: fdc7 8d39 04b6 943a 3a7a f4b8 35b5 b3ba
00000240: c2f9 08b7 fe6d 6c35 1c3f 1cb6 38b9 57b7
00000250: 8452 b135 2058 8237 6670 6bb0 7288 c32e
00000260: 56e9 32af 9768 b2b0 61a6 122f 7698 d730
00000270: de22 42a7 e00d da25 62b5 2ca7 28f5 c6a7
00000280: 7c8a 2326 8a6d f027 90be 962d 9703 51ac
00000290: 2ea6 2e2d 8ab5 3e2e c2c2 9cac e275 66ae
000002a0: 56a1 042c 7412 45aa 9af6 0f2b 1fd0 332c
000002b0: d5cd 93aa da4a 59ac e9b3 b02c c8f0 21ab
000002c0: d967 2f2c 17c2 132d 25e9 72ab 7a8e 32ad
000002d0: 2bd1 74ab 005b bd29 75df 4daa aac5 acab
000002e0: 3d04 0e2a c2c8 d02b 74ab 1c9c 6ea1 2a1b
000002f0: c47a 9c9c e8af 1b9d 3ff2 7f1b 5e23 3c1d
00000300: 154b b032 4453 13b1 0190 6d31 356c 0633
00000310: e6fc 5cb1 fe70 22b3 fad4 aa3a ecfc 10b9
00000320: 40cf 1a3a 504a 043b 767b 59b9 51dd 1fbb
00000330: 404b f0ba 3f79 4139 50a8 cab9 8a87 30bb
00000340: eb1a 9139 1b53 553b 655b 80b6 6e3d c334
00000350: 4041 9eb5 2024 b2b6 126e 1235 cd45 d736
00000360: 655c 6b3a 1f12 82b8 5015 45b9 b05b 6d3a
00000370: 281b c3b8 9b6a 8fba 1ede 29bb 2e93 9439
00000380: a455 56ba 1f90 87bb bcdc de39 bbd1 a33b
00000390: d2c0 023a f00d 2eb8 7885 54b7 99cf 1e3a
000003a0: 758a 82b8 cee9 3fba 212c e3ba 7063 4639
000003b0: 113e 25ba 8d03 35bb 8eca 9439 6cbe 5a3b
000003c0: a023 7438 a859 fb36 ac10 f9b8 6c56 e5b8
000003d0: 2883 3c37 dc91 0a39 5a18 3c34 161e 9eb2
000003e0: abc5 0f33 1245 9034 202d edb2 4d57 aeb4
000003f0: 3b72 889a daec c418 78f7 0d98 b4ad b39a
0.0018992382 -0.00022702987 0.00091839925 0.0033143507 -0.0003405448 -0.004005185 -0.002533622 0.00025885654
-0.00086179154 -0.0037789778 0.0003882842 0.004566656 -2.3530504e-07 3.0129172e-08 -8.3640394e-08 -4.3984807e-07
4.5193765e-08 5.315288e-07 0.0018030683 -0.00018822621 0.0005118296 0.0027478668 -0.0002823392 -0.0033206227
0.00086834445 -5.0729454e-05 -8.880257e-05 0.00074058434 -7.609422e-05 -0.00089495047 -0.0024637196 0.00027985033
-0.00068734 -0.0040854644 0.00041977575 0.0049370294 0.0012025919 -0.00011909136 0.0002593442 0.0017385845
-0.00017863695 -0.0021009683 -5.2050548e-11 3.696329e-12 -1.5725254e-11 -5.3961825e-11 5.54449e-12 6.5209116e-11
1.391458e-11 -1.6291429e-12 5.3461385e-12 2.3783442e-11 -2.4437145e-12 -2.8740788e-11 -0.0028257994 0.00024689388
-0.00046184764 -0.0036043392 0.0003703407 0.004355615 -0.0011274371 9.769142e-05 2.628468e-05 -0.001426171
0.00014653722 0.001723437 3.939247e-09 -4.9191734e-10 7.4973605e-10 7.181388e-09 -7.3787715e-10 -8.6782475e-09
-1.895914e-09 2.2599819e-10 -8.3850343e-10 -3.299289e-09 3.3899708e-10 3.9869836e-09 -1.8961457e-05 4.1290753e-07
-6.4126625e-06 -6.028067e-06 6.1936e-07 7.284365e-06 0.0006159647 -9.939388e-05 0.00043462717 0.0014510268
-0.0001490909 -0.001753477 -4.5218174e-05 4.814907e-06 -8.032263e-06 -7.029157e-05 7.222358e-06 8.494289e-05
0.00057388505 -0.00010132862 0.0005862934 0.0014792727 -0.00015199295 -0.001787604 0.00078558363 -9.003327e-05
0.0002646895 0.0013143722 -0.00013504992 -0.0015883364 -0.00049188535 4.5591387e-05 0.00014804059 -0.0006655774
6.838723e-05 0.00080430723 0.0012724311 -0.000109577486 0.0002594419 0.0015996944 -0.00016436646 -0.0019331295
0.0019708143 -0.00016889152 0.00027140058 0.0024656036 -0.00025333735 -0.0029795272 8.882475e-13 -7.658055e-14
6.035635e-14 1.1179811e-12 -1.1487084e-13 -1.3510087e-12 -4.8552484e-20 4.823424e-22 -4.1414316e-21 -7.0417175e-21
7.235092e-22 8.509168e-21 0.0006736731 -7.7717224e-05 0.0002704262 0.0011345749 -0.00011657593 -0.001371062
-8.164383e-06 8.807691e-07 -2.3282546e-06 -1.2858123e-05 1.3211543e-06 1.5538244e-05 -8.565223e-10 8.891811e-11
-1.6271903e-10 -1.2980931e-09 1.3337732e-10 1.5686641e-09 -2.694181e-15 3.7826374e-16 -2.3968123e-15 -5.522184e-15
5.6739667e-16 6.6732144e-15 1.7137652e-11 -2.970268e-12 9.927654e-12 4.3362237e-11 -4.455409e-12 -5.2400646e-11
1.8847888e-12 -1.7503517e-13 5.1146034e-13 2.555296e-12 -2.625527e-13 -3.0879106e-12 5.022195e-12 -5.753284e-13
2.4926643e-12 8.399079e-12 -8.6299224e-13 -1.0149765e-11 -8.697649e-13 8.409072e-14 -1.8285185e-13 -1.2276198e-12
1.2613604e-13 1.483501e-12 -5.183767e-22 1.4114231e-22 -1.0354948e-21 -2.060502e-21 2.117138e-22 2.4899877e-21
2.052324e-08 -2.1438646e-09 3.4569896e-09 3.129772e-08 -3.215797e-09 -3.782133e-08 0.0013033443 -0.00013827131
0.00059055164 0.0020185895 -0.00020740725 -0.002439339 -0.0018332973 0.00018451082 -0.00038653845 -0.0026936256
0.0002767661 0.0032550755 -3.825337e-06 3.6366276e-07 -1.1790908e-06 -5.309019e-06 5.454941e-07 6.415625e-06
0.00089783064 -6.2022584e-05 -0.00018795324 0.0009054495 -9.303383e-05 -0.0010941805 -0.0025919746 0.00028338417
-0.00081762136 -0.0041370536 0.000425076 0.004999367 0.0004987839 -4.1497813e-05 -1.266726e-05 0.0006058156
-6.224673e-05 -0.00073209114 -0.0017331877 0.00018919795 -0.0006303499 -0.0027620525 0.00028379675 0.003337766
5.820731e-05 7.4908203e-06 -0.000118763506 -0.00010935668 1.123621e-05 0.00013215042 1.7517723e-07 -1.8407302e-08
3.347456e-08 2.6872345e-07 -2.7610952e-08 -3.2473545e-07 -5.643283e-23 5.090397e-24 -1.8348763e-24 -7.43133e-23

exp_avg_sq f4 [128, 6]
00000000: 5faa 0f38 6677 1035 b9cc 8336 ae29 ee38
00000010: 2986 a235 9679 2c39 210d 2a38 2a58 4f35
00000020: 3235 dc36 f6e5 2b39 3045 e935 4b1a 7739
00000030: 0e8d 7637 0b0c 4034 3fd6 7f36 1311 0c38
00000040: b818 d834 1103 3338 2ff0 1a37 0b48 0c34
00000050: b761 ae35 8e4b eb37 07d1 9d34 1d47 2938
00000060: b186 3937 1641 3934 c122 d735 334f 1a38
00000070: 0e69 d034 b2b0 5f38 0376 ee37 16f3 f134
00000080: 072d 6c36 ed51 c838 0e18 8835 3117 1139
00000090: 8022 b636 1793 dd33 b7b2 c135 4199 b937
000000a0: 8c46 7934 cfd8 ff37 9a07 9336 c3f6 ff32
000000b0: 81c9 0e36 cab6 ea36 0101 9033 8328 8a36
000000c0: dda0 0037 9811 3633 2464 2136 733e 2e37
000000d0: ccfb cc33 92c7 ac36 70ca 1438 ac8f 3235
000000e0: 5c1c 9636 3711 1439 9de1 c835 e260 5739
000000f0: 8237 7b37 abd2 9034 0a20 f035 2792 7138
00000100: 01ed 2235 4eac ae38 2d7c d235 49c6 8e32
00000110: ec0c 1b36 a7f0 2c36 f8af 2033 25cc 7236
00000120: 9da7 ff36 f972 2433 3f08 7936 33f8 bd36
00000130: 571e b933 7c3f a436 2278 8837 b6ac 2834
00000140: f387 9436 0dbc 0338 65ca bd34 28fe 1f38
00000150: 95fb 8537 0f2c 8434 1994 4236 231a 5c38
00000160: ccb5 1435 f56d 9a38 13cf 4236 2b2e c132
00000170: a094 8e36 a5b2 4e36 b382 5933 c8c1 ae36
00000180: 56dc 5337 d6df 8234 5ad5 1236 2832 5b38
00000190: 1f3d 1335 1686 9d38 ec09 2b36 29d9 d632
000001a0: 7449 1136 51ed 9e36 34b4 7133 dbc8 d036
000001b0: 88ad 9237 48fd b934 19e6 3c36 5b04 9a38
000001c0: f03c 5135 1002 df38 4961 8f37 1be6 9b34
000001d0: 697f 2736 f557 8238 0e64 2f35 ecc7 b938
000001e0: 1549 cc37 9485 d234 fa7c 6836 1822 ae38
000001f0: a0d8 6c35 2726 fb38 4058 3136 4348 bb32
00000200: 8dca 8636 2854 2b36 f9c7 5233 e6b0 a936
00000210: 1376 0937 e56f 5533 01a2 d936 6f40 f936
00000220: 9339 f033 86fd 0a37 25a4 ba36 3540 0534
00000230: cfeb cf35 fbff da37 b9e7 9534 73c3 1d38
00000240: 844e 1c36 783a 0733 36a5 5c36 7728 0237
00000250: 122b 9833 5f94 b836 cc22 ce35 8dd0 7732
00000260: 048c 2336 4a92 2f36 e18c 0b33 95c3 1836
00000270: ae2f 5036 7f67 a232 756e 0b36 f77a 6236
00000280: 09c0 3633 5aaa 9036 c025 b936 455d 0d33
00000290: a497 9e36 bac0 a936 da18 9f33 4b1f 0337
000002a0: e0c2 7a36 a1ea 1333 d9ec 5136 5317 d536
000002b0: e36c a633 51ba 0f37 ada6 fe36 652e 1c33
000002c0: 1689 b736 3a74 9836 5bc6 af33 4006 a136
000002d0: e6e1 c736 e22a 2933 378a 9b36 e917 fa36
000002e0: 5b5b be33 99f3 0937 6831 2c36 1eb7 a032
000002f0: 4cf2 3036 6553 6536 80dc 3433 2968 6836
00000300: 2ac6 c337 c0f2 1334 5cdb 8e37 7f15 a937
00000310: 3f8c a634 8f03 af37 c9d7 9237 92f2 8134
00000320: 17ea 2836 7c7f 5738 eb30 1235 7afb 9a38
00000330: 222e 9c37 d7e0 7a34 b3d4 0a37 a26c 4238
00000340: fa1f 0d35 8e94 8c38 eb2b 4236 9b7c d932
00000350: e2ac 2536 98ce 9f36 93b5 7433 9092 c236
00000360: f79d a837 5885 c434 2ed4 4d36 d6f3 a238
00000370: 3716 5d35 4ce1 eb38 f5d8 d537 a0a9 0335
00000380: d8c1 7d36 d0fd da38 d01e 9435 8f36 1d39
00000390: e560 2836 1e37 6b33 a10e ac35 9c63 3937
000003a0: f74e 0434 9360 8137 54a4 b237 d806 eb34
000003b0: 36c9 ae36 76c3 c138 b534 8435 d29d 0d39
000003c0: 282a b236 03c0 0134 0afc 8535 54e7 d837
000003d0: faf7 9134 e2a5 1a38 ba36 8636 6e3a 2933
000003e0: 4f1d a736 b9cd 0537 0178 be33 1de3 2237
000003f0: 6713 6837 5fb0 9933 a6aa 1137 b4b0 1b37
3.4252527e-05 5.381793e-07 3.927937e-06 0.00011356488 1.2108986e-06 0.00016448493 4.0543386e-05 7.7241805e-07
6.5627037e-06 0.00016393498 1.7379989e-06 0.0002356555 1.46955845e-05 1.7885775e-07 3.8122669e-06 3.3394503e-05
4.025112e-07 4.267978e-05 9.235037e-06 1.3064725e-07 1.2992449e-06 2.8049366e-05 2.9395616e-07 4.035897e-05
1.105822e-05 1.7253146e-07 1.6028863e-06 3.679022e-05 3.8819456e-07 5.3331903e-05 2.8426764e-05 4.5066616e-07
3.519295e-06 9.552003e-05 1.013979e-06 0.00013836917 5.428039e-06 1.031787e-07 1.4431633e-06 2.2125083e-05
2.3215597e-07 3.0499328e-05 4.3818263e-06 2.9798121e-08 2.127694e-06 6.995023e-06 6.705705e-08 4.1174367e-06
7.666848e-06 4.239118e-08 2.404916e-06 1.0385748e-05 9.545292e-08 5.1492325e-06 3.5474484e-05 6.651924e-07
4.47365e-06 0.00014120793 1.4966823e-06 0.0002054009 1.497369e-05 2.697537e-07 1.7890718e-06 5.7594993e-05
6.069459e-07 8.329061e-05 1.5682359e-06 1.6621145e-08 2.3104321e-06 2.5770075e-06 3.7412946e-08 3.6179638e-06
7.619105e-06 3.8288793e-08 3.7108691e-06 5.661533e-06 8.6202526e-08 4.8949714e-06 1.6268405e-05 1.5709051e-07
4.4265703e-06 3.140797e-05 3.5351255e-07 3.8145256e-05 1.5971988e-05 2.4618973e-07 2.8994457e-06 5.247643e-05
5.5398846e-07 7.363773e-05 2.9028786e-06 2.2489152e-08 4.249232e-06 3.0800377e-06 5.064312e-08 5.208163e-06
1.2627881e-05 2.437725e-07 2.1879882e-06 5.226038e-05 5.485071e-07 7.511319e-05 2.548676e-06 2.5011632e-08
2.164944e-06 4.736394e-06 5.627608e-08 6.2222657e-06 1.7485363e-05 3.4643222e-07 2.8148118e-06 7.3441035e-05
7.7947243e-07 0.00010633853 1.709223e-05 2.9038424e-07 2.4959102e-06 6.215266e-05 6.533818e-07 8.858726e-05
2.4352727e-05 3.921274e-07 3.464344e-06 8.303317e-05 8.823208e-07 0.00011975719 2.6426424e-06 2.1802526e-08
4.017091e-06 2.552997e-06 4.907631e-08 5.057186e-06 8.193328e-06 4.9694695e-08 6.4859637e-06 7.4282793e-06
1.11863436e-07 8.284469e-06 5.562341e-06 1.2409949e-07 1.5491331e-06 2.6106825e-05 2.7922013e-07 3.7613743e-05
2.3291514e-06 3.1485314e-08 3.287872e-06 7.758025e-06 7.085886e-08 5.5009e-06 1.5358323e-06 1.4424711e-08
2.4370393e-06 2.6162184e-06 3.2491588e-08 2.2763609e-06 3.1022169e-06 1.8906347e-08 2.0776909e-06 3.37482e-06
4.2549832e-08 4.311366e-06 5.5178243e-06 3.291395e-08 4.7264202e-06 5.059029e-06 7.408535e-08 7.815494e-06
3.7366335e-06 3.44395e-08 3.128129e-06 6.35061e-06 7.749784e-08 8.566844e-06 7.5891935e-06 3.6363776e-08
5.469784e-06 4.5434836e-06 8.185153e-08 4.7989015e-06 5.95696e-06 3.938738e-08 4.6354503e-06 7.453364e-06
8.864182e-08 8.222553e-06 2.5658755e-06 1.8709724e-08 2.636708e-06 3.4172201e-06 4.211006e-08 3.4631323e-06
2.3338089e-05 1.3778754e-07 1.7029866e-05 2.015638e-05 3.1021952e-07 2.0863283e-05 1.7505039e-05 2.4204616e-07
2.517021e-06 5.1378724e-05 5.4460423e-07 7.3901334e-05 1.8618131e-05 2.336486e-07 8.274964e-06 4.6354377e-05
5.2573125e-07 6.703391e-05 2.8933816e-06 2.5318789e-08 2.4687547e-06 4.76262e-06 5.6975818e-08 5.7987127e-06
2.0100719e-05 3.6604865e-07 3.0670885e-06 7.77018e-05 8.236124e-07 0.00011247638 2.5492607e-05 4.904814e-07
3.781277e-06 0.00010442326 1.1035827e-06 0.00014993011 2.509035e-06 5.476533e-08 1.2819256e-06 1.1050051e-05
1.2322185e-07 1.542297e-05 2.1295775e-05 4.377714e-07 5.209028e-06 9.2393646e-05 9.850106e-07 0.000135056
5.309721e-06 1.2083915e-07 9.982625e-07 2.5856927e-05 2.718878e-07 3.687095e-05 3.999882e-06 3.940152e-08
4.9804e-06 7.975316e-06 8.869393e-08 9.708831e-06 1.3832795e-05 7.1566994e-08 8.682406e-06 9.279862e-06

exp_avg f4 [128]
00000000: e60e eeb8 1bb7 0739 6167 8132 945e c5b8
00000010: 3ac6 d4b7 e3b8 1239 aec0 79b8 860d 022c
00000020: 0d48 65ab 8671 0139 a9df 4c38 a737 87af
00000030: d17c f82e c4ad 5d34 ba71 50b8 bc8f 2136
00000040: 6980 54b8 3dd0 3cb8 6739 bf37 fecc 65b8
00000050: 7518 b1b8 b171 2ca9 80c7 911b 1ffc 22b8
00000060: 036e ec34 7788 432e f80d 5a25 ab03 d1ab
00000070: 7912 c5a9 d2f0 a1aa 045b 3d29 6ea1 aa1a
00000080: 4053 93b0 f4fc 90b8 4179 c138 6e3d 4334
00000090: 0912 02b8 2e93 1439 e80d aeb7 6b63 c638
000000a0: b459 7b36 171e 1eb2 caec 4418 388b 23b2
000000b0: 1837 9ab3 69d2 7830 3832 6727 aa32 b5b7
000000c0: 88b9 46ac 3880 9a91 1d8e 0eb8 e2d8 8ab1
000000d0: 6878 0f37 ccbd 7e37 e0a7 e8b6 e20b 3c38
000000e0: 8e5f bd30 c0ae 622c f784 f8a9 847e 02ad
000000f0: 1a5f 6220 34fb 2c38 da05 b037 e8a2 f7a2
00000100: 712f b937 ece5 4ab6 5618 5738 81a0 a3b8
00000110: 1465 26b7 a182 d5b2 902f f52d 9080 0839
00000120: 2e33 66b7 c07e 8cb6 2ebd 1cb6 648e bc2d
00000130: a9c0 1230 c3dd d9b7 ec47 5837 dc69 16b6
00000140: 6d42 3e38 36b0 1f36 89c4 ffb4 f634 79a3
00000150: 3c83 e5b7 5398 c0ac 502e 1429 feca cc1f
00000160: 18ba 7d38 0061 6b38 b051 8236 6500 d138
00000170: cfc2 1327 30fb f237 a703 4c2b e8f0 3828
00000180: ff09 16b4 de83 4838 6e3a e5b7 717f 9cb9
00000190: 5d05 29b6 a632 7a26 c617 57ae 6ca6 5db8
000001a0: 187c d137 707c c2b8 1298 5fa6 c27f 849d
000001b0: 8b9f a138 90bc 0db5 d7a4 80b8 c5c2 8fb6
000001c0: 0f25 34b7 3310 51b9 6b99 e936 ea78 19b7
000001d0: fb78 8eb7 da68 7eb6 dbe4 fe36 04ae 05a9
000001e0: 7ff8 64b8 68bb 2f39 1e0e d0b7 d0b3 a018
000001f0: 628f d89e 3e3c d938 a7d9 e3b8 74d1 0429
-0.000113514994 0.00012942815 1.5064588e-08 -9.4113086e-05 -2.5364676e-05 0.0001399252 -5.9545673e-05 1.8481618e-12
-8.1457134e-13 0.0001234469 4.884569e-05 -2.45959e-10 1.1299906e-10 2.0645444e-07 -4.969698e-05 2.4074534e-06
-5.066433e-05 -4.501663e-05 2.2795704e-05 -5.478877e-05 -8.444573e-05 -3.8290284e-14 2.4117162e-22 -3.8858616e-05
4.403847e-07 4.4459072e-11 1.8913219e-16 -1.4851361e-12 -8.751762e-14 -2.8766448e-13 4.2045374e-14 7.0571156e-23
-1.0719319e-09 -6.913571e-05 9.2255425e-05 1.8183138e-07 -3.1011212e-05 0.00014169209 -2.0748892e-05 9.459894e-05
3.7454129e-06 -9.203652e-09 2.5451954e-24 -9.519503e-09 -7.181205e-08 9.0520885e-10 3.2084913e-15 -2.1600474e-05
-2.8240483e-12 -2.4375937e-28 -3.398779e-05 -4.0409853e-09 8.5514985e-06 1.518377e-05 -6.933682e-06 4.483376e-05
1.3778718e-09 3.2213537e-12 -1.1036478e-13 -7.4177366e-12 1.9174411e-19 4.1241947e-05 2.098356e-05 -6.7121968e-18
2.207581e-05 -3.0234178e-06 5.128266e-05 -7.802342e-05 -9.917905e-06 -2.4855867e-08 2.7874397e-11 0.00013017864
-1.37209845e-05 -4.187081e-06 -2.3355929e-06 2.143636e-11 5.3388277e-10 -2.5971682e-05 1.2891349e-05 -2.241336e-06
4.5361394e-05 2.3795415e-06 -4.764045e-07 -1.3509532e-17 -2.7360038e-05 -5.4738796e-12 3.290277e-14 8.673318e-20
6.0493214e-05 5.6118704e-05 3.8838116e-06 9.96597e-05 2.0505954e-15 2.8965616e-05 7.248043e-13 1.026629e-14
-1.3973475e-07 4.7806527e-05 -2.7326136e-05 -0.0002984959 -2.5186084e-06 8.6804815e-16 -4.8906455e-11 -5.28455e-05
2.4972527e-05 -9.273819e-05 -7.757476e-16 -3.5072208e-21 7.7067954e-05 -5.280099e-07 -6.1342194e-05 -4.2844063e-06
-1.0737464e-05 -0.00019937828 6.9618013e-06 -9.147663e-06 -1.6984055e-05 -3.790998e-06 7.596432e-06 -2.9682867e-14
-5.4590866e-05 0.00016759115 -2.4802106e-05 4.1540595e-24 -2.2929191e-20 0.00010358587 -0.000108647444 2.949156e-14

exp_avg_sq f4 [128]
00000000: 6777 1034 2958 4f34 0b0c 4033 0a48 0c33
00000010: 1641 3933 1af3 f133 1893 dd32 cbf6 ff31
00000020: 9811 3632 b18f 3234 b3d2 9033 49c6 8e31
00000030: fb72 2432 b6ac 2833 102c 8433 2d2e c131
00000040: d6df 8233 2cd9 d631 46fd b933 18e6 9b33
00000050: 9685 d233 4348 bb31 eb6f 5532 3540 0533
00000060: 783a 0732 8fd0 7731 7f67 a231 455d 0d32
00000070: a1ea 1332 652e 1c32 e02a 2932 1eb7 a031
00000080: c0f2 1333 91f2 8133 dae0 7a33 957c d931
00000090: 5a85 c433 a0a9 0334 1d37 6b32 d706 eb33
000000a0: 03c0 0133 703a 2932 5bb0 9932 2b18 9131
000000b0: 8bbc 8532 aa47 4732 542d 3831 40b7 9633
000000c0: ed4b 5732 cf26 cc32 d827 ba32 f5f4 7731
000000d0: 919e 0b34 8531 9433 803f 7934 1431 5c34
000000e0: b6a7 6631 be17 9132 7ced 1332 f266 7832
000000f0: e9dd 6f32 53b0 3333 6907 6833 f08c 8731
00000100: 137b bb32 6b14 8e31 65d6 b333 3abf 7c33
00000110: 5710 3733 967e 3732 f6f4 8232 9703 6a34
00000120: 48bd 0e33 cdab 1c34 52c6 1432 7265 dd32
00000130: 9114 0c32 e531 4f33 7415 0c34 72d8 2e31
00000140: 5448 3633 2952 a531 c595 6132 60ab 9431
00000150: aa43 1d34 02db 0433 dcd5 0f33 c768 c931
00000160: faef 8333 3165 b333 aabf 6631 8c61 0134
00000170: b253 f532 bebe 0634 da6c 9d32 7107 0032
00000180: e73d 8a31 4f1c 1a34 ec5d ed33 5919 6c33
00000190: dc1e 7332 f76b 0931 4650 8631 6504 e332
000001a0: c369 1a33 760f 3b34 c898 e131 140f b131
000001b0: 4138 7b33 afa8 8f32 ec2f 9c33 8fff ae31
000001c0: 41e1 0d32 5ec2 7334 f876 d833 e3ec 8131
000001d0: 4537 bf33 7247 7d32 7816 3532 2e73 1432
000001e0: 5f38 d433 cbf6 ba33 e507 1434 aa98 b931
000001f0: 01d6 1d32 0fbd 9a33 c0d3 9633 e61c ba32
1.3454483e-07 1.931045e-07 4.4714437e-08 3.266181e-08 4.3132864e-08 1.1266657e-07 2.5794677e-08 7.449534e-09
1.0597795e-08 1.6629816e-07 6.7438485e-08 4.1552863e-09 9.5722e-09 3.9272628e-08 6.154744e-08 5.622289e-09
6.094312e-08 6.2529093e-09 8.660804e-08 7.259604e-08 9.803186e-08 5.4506315e-09 1.2423679e-08 3.102487e-08
7.8713285e-09 3.6061782e-09 4.7265867e-09 8.228487e-09 8.609875e-09 9.090944e-09 9.846843e-09 4.677431e-09
3.4446884e-08 6.051153e-08 5.8412162e-08 6.3296945e-09 9.151218e-08 1.2262035e-07 1.3691332e-08 1.09442844e-07
3.0209787e-08 9.850382e-09 1.7891741e-08 4.222803e-09 1.5568977e-08 1.1599619e-08 2.680129e-09 7.018252e-08
1.2531911e-08 2.3766374e-08 2.1671369e-08 3.6082473e-09 1.300307e-07 6.9007946e-08 2.3213033e-07 2.0506951e-07
3.3564738e-09 1.6891018e-08 8.610524e-09 1.4458907e-08 1.39620875e-08 4.183705e-08 5.402345e-08 3.94504e-09
2.1825633e-08 4.135065e-09 8.374335e-08 5.884724e-08 4.262287e-08 1.0680784e-08 1.5245387e-08 2.1794254e-07
3.32341e-08 1.4591133e-07 8.659827e-09 2.5773918e-08 8.153749e-09 4.8241322e-08 1.304632e-07 2.5443367e-09
4.244096e-08 4.8114726e-09 1.3130777e-08 4.32685e-09 1.464638e-07 3.093283e-08 3.3489286e-08 5.8617817e-09
6.143814e-08 8.353744e-08 3.3578353e-09 1.2049549e-07 2.8559814e-08 1.2549114e-07 1.8326705e-08 7.452273e-09
4.023366e-09 1.4352666e-07 1.1053257e-07 5.4971085e-08 1.4151478e-08 1.9997495e-09 3.9090393e-09 2.6428276e-08
3.595211e-08 1.7421357e-07 6.565731e-09 5.153092e-09 5.8491654e-08 1.67241e-08 7.273033e-08 5.09312e-09
8.258497e-09 2.2701849e-07 1.0079924e-07 3.781325e-09 8.904184e-08 1.4742783e-08 1.0540695e-08 8.640923e-09
9.882273e-08 8.706191e-08 1.3786446e-07 5.4015645e-09 9.187262e-09 7.2055734e-08 7.0234364e-08 2.1666391e-08
