results/Test20/MoveToTarget/checkpoint.pt (torch, 442914 bytes, 36 tensors)

network_body._body_endoder.seq_layers.0.weight f4 [128, 6]
00000000: 7c7f f03e b6b1 113f 3433 263e 8b5e 153e
00000010: 2618 f13e 6429 d23e dc60 053f 4653 94be
00000020: 33a3 2abd 33d3 82bd d9df afbe cd52 363f
00000030: 652f edbd 2165 163f 6a8d a5be 84e5 093f
00000040: 4359 9dbe ca7e 0a3d 3577 5a3e bb5e e63e
00000050: 4914 c0bc 5500 21bb 1f09 823b 6937 613f
00000060: 771c f33d d4f3 e7bd a10a 11bf c1b6 073e
00000070: bcaf c03d 4c51 c03e 2abe 403f b5b3 963e
00000080: 90aa c13e 1be2 69bf 7cba 4c3d b711 e8be
00000090: 42c6 e6bd 13b8 0a3f 352e b0bd bfd1 bc3c
000000a0: b78c 55bf d2cb 28bf c821 e73d ee39 bebe
000000b0: 3c82 f13e 3257 c0be fdd8 a8be 1146 0dbe
000000c0: 4d38 b53e 8da4 08be b454 4e3d 109f 3fbf
000000d0: ac9f babe 2754 87ba e728 443d 0974 b6be
000000e0: 749f b03e e72a fe3d 7056 29bf 46f0 de3b
000000f0: 7f95 5ebc 90bc c73c e145 27be d364 ab3e
00000100: 612d e9be 3647 46bf 2d39 2e3f 6a24 213f
00000110: a50a d23e 47a8 6bbe af41 21be 1fa6 05be
00000120: 2437 3f3f 2bd5 30be 32b7 233f d4ac 403f
00000130: 1f72 1dbf 7d49 8a3e a3b3 ff3e 7bc2 283e
00000140: c337 b7bd dad3 153f bec3 083f 6ef7 623d
00000150: ab11 fabe 75a9 593e 3ae8 14be a704 013f
00000160: 9270 6a3e e8ef 12bf 3c6f acbe e9a2 31be
00000170: 5edf 35bf e9e0 8fbd dbe9 c43e 2dec 67bf
00000180: bb3a c5be 9139 63bf cbb8 3d3e bd0e 323e
00000190: 9c44 103e c082 e33e 6139 4d3e ed4b 19be
000001a0: 9172 da3e d3a1 5d3b e2a4 4c3e 4649 b9bd
000001b0: 7763 413e 1ef8 7f3e bb4f 34bf 5dc0 45bf
000001c0: f0fa 56bf 9a3b 32bf e5e3 30be 476b 133f
000001d0: e450 193f f442 0f3e 5bf9 043e d2bf 813d
000001e0: 39c6 7a3e 3da4 523f 1778 233f 1592 2a3c
000001f0: 3a51 683d 4711 873d 9522 71be 6e54 1f3f
00000200: 278a 9b3e e7e6 8c3e 4855 9cbe 3939 bbbe
00000210: 01a1 443f 21b5 803e 396f 913e d624 453d
00000220: 8544 e1be f83a d63e fa6c 31bd dbd8 26bf
00000230: e8c3 943e ca5f 023b d675 33bd 508a e83d
00000240: 5f17 283e 0162 363b 6aec 923e 0570 533e
00000250: e178 b0be 1669 b1be 8266 803e 15df 6cbe
00000260: 9c6a 90bd 7f54 2cbf 549b 16bf 9ef7 14bf
00000270: 0421 1d3e 7e85 47be de44 e0be 11f9 1dbe
00000280: 49fb be3e 1435 5b3e da7f 6abe 51d7 9dbe
00000290: f4e3 9d3e 64ee a9be 4884 febe 9ee8 a3be
000002a0: f837 d53e 7fcb ea3d fec1 c33e e74c 66bf
000002b0: fc32 413f 29fd 3abe ef4b 2d3e 26b2 a5be
000002c0: 5d48 d13e e559 d4be 7edc 90bb c19c 39bf
000002d0: 4ffe c7be bf70 04be aeac 6fbf 0f52 7b3e
000002e0: ccdb d8be 1f28 713d 2c2c 833e f131 0e3d
000002f0: 3e54 a6be 9b01 b53e 2cae 83be c2d2 c13e
00000300: abd3 28bf 2f0a 9a3e 6c6c bbbe c877 bcbe
00000310: 7cce 883e 56fa c23c b053 cabe 2bc3 673d
00000320: 6f10 98be 8e35 3e3f 2360 f9bb 9b6e 62bc
00000330: 4b5c 883e 97ab 3f3f 1f11 6a3f 2981 12be
00000340: aa19 10be c420 bf3e d262 b6be b0db 3e3e
00000350: 08f8 32bd 6833 e0be fe13 00be 8c5c babd
00000360: 5864 13be f7e6 9fbd 89fb 9ebe 27c7 8dbe
00000370: 6772 d6be 14cb a0bc 88f1 933b 9697 1a3f
00000380: a4e6 66be 076d 223f 4ab4 833e 3d2a bb3c
00000390: 810f dc3e 844d 673f 1723 3ebe c668 893e
000003a0: 7274 643f 46e3 893e 188d 4abe 7d0e b83e
000003b0: 5055 a2be d756 eb3e 3c5f 82be 7c66 cdbe
000003c0: bff9 8e3d f9d0 f2be 3f1b 233f 0373 4ebe
000003d0: ee62 c9bb 8b38 68bd 761d 0b3f b730 9bbe
000003e0: 72de d03e 0eff ae3e 5e85 9cbe 79c1 30be
000003f0: 0fb9 e7bc e9cf a73c 5f16 3f3e 6d26 ec3e
0.46972263 0.5691179 0.1623047 0.14586847 0.47088736 0.41047204 0.5210092 -0.28969783
-0.041659545 -0.06387939 -0.3435047 0.71220094 -0.115813054 0.5874806 -0.32334453 0.5386584
-0.30732164 0.03381232 0.21334536 0.4499415 -0.023447173 -0.0024566848 0.0039683725 0.87975174
0.118706636 -0.113258034 -0.56656843 0.13253309 0.09408519 0.37562025 0.7529017 0.2943398
0.3782544 -0.91360635 0.049982533 -0.45326015 -0.112682834 0.54187125 -0.08602563 0.023049233
-0.8341784 -0.65936005 0.1128574 -0.37153572 0.47169673 -0.37566525 -0.3297805 -0.1379626
0.35394517 -0.13344021 0.050373748 -0.74852085 -0.36449945 -0.0010324762 0.04789057 -0.35635403
0.34496653 0.12410527 -0.6614752 0.006803545 -0.013585447 0.024381906 -0.1633525 0.3347536
-0.45542434 -0.7745241 0.68055993 0.6294619 0.41023746 -0.23013411 -0.15747713 -0.13051651
0.7469351 -0.17268817 0.6395141 0.75263715 -0.6150226 0.27009192 0.4994174 0.16480438
-0.089461826 0.58526385 0.5342368 0.05541175 -0.48841605 0.21256049 -0.14541712 0.50397724
0.22894505 -0.5739732 -0.33678615 -0.17347302 -0.71043956 -0.0702532 0.38459668 -0.9059475
-0.3852137 -0.88759714 0.18527524 0.17388435 0.14088672 0.44435692 0.2004142 -0.1497037
0.42665532 0.0033818379 0.19984773 -0.09047179 0.18885599 0.24996993 -0.7043416 -0.7724665
-0.8397665 -0.69622195 -0.17274435 0.5758557 0.59889054 0.13990384 0.12985747 0.06335415
0.24489678 0.8228186 0.6385512 0.010410805 0.05671809 0.06595092 -0.23548348 0.62238204
0.3037884 0.27519915 -0.30533814 -0.36567095 0.7680817 0.2513819 0.2840517 0.048130833
-0.4399759 0.41841865 -0.04331682 -0.65174645 0.29055715 0.001989352 -0.04381355 0.11354506
0.16415165 0.002782941 0.28695995 0.20648201 -0.34467223 -0.34650487 0.25078207 -0.23131974
-0.07051584 -0.6731643 -0.5883076 -0.58190334 0.15344626 -0.19484517 -0.43802541 -0.15427043
0.3730109 0.21406966 -0.22900334 -0.30828336 0.30837977 -0.3318969 -0.49710298 -0.3201341
0.41644263 0.11464595 0.38233942 -0.89961094 0.7546842 -0.18260635 0.16923498 -0.3236248
0.4087552 -0.41474834 -0.004420816 -0.7250481 -0.3906121 -0.12933634 -0.93622863 0.24543022
-0.42355192 0.058876153 0.25619638 0.034715597 -0.32486147 0.35352787 -0.2571882 0.37856108
-0.6594798 0.30085894 -0.36606157 -0.36810136 0.26720035 0.02380101 -0.39516973 0.05658261
-0.29700038 0.7430047 -0.0076103373 -0.013820316 0.26632914 0.748712 0.91432375 -0.14307083
-0.1407229 0.37329686 -0.3562227 0.18638492 -0.043693572 -0.4378922 -0.12507626 -0.09099683
-0.14393747 -0.07807725 -0.3105128 -0.27691004 -0.41884157 -0.019628085 0.0045148768 0.6038755
-0.2254892 0.6344761 0.25723487 0.02284729 0.4298058 0.90352654 -0.18568073 0.26837748
0.8924018 0.26931208 -0.19780385 0.35948554 -0.31705713 0.4596469 -0.25463283 -0.40117252
0.06981229 -0.47425058 0.6371345 -0.20161061 -0.0061458265 -0.05669455 0.5434183 -0.30310604
0.40794712 0.34178966 -0.305705 -0.17261304 -0.028286485 0.020484881 0.18660878 0.46123067

network_body._body_endoder.seq_layers.0.bias f4 [128]
00000000: 8f44 96bc 0d39 4abc 1157 8e3b b217 b13c
00000010: 211e 693a 54df 003d ef95 0f3c df4a 33bc
00000020: 78b5 0b3d 7e7e 14bc 5d0d ffbb a6cc 9139
00000030: a1c8 0d3b 6818 a33c 891f 2a3c 1f6d d13b
00000040: 4b18 0e3b 4bf6 ee3c 816f 623c 5097 043d
00000050: 6f0a 733c 28c1 193d 8a35 6bbb 69dd debb
00000060: fa50 9d3c b58a f5bc 630e b53c 84b9 01bd
00000070: 2c6c aeb9 004b 4b3d 2fff 8b3d 223b b63c
00000080: ead7 923d 2fa3 023d e817 163d 92f3 21bc
00000090: 9594 343d b3c1 9fbb 8d8c a03a 492a c43c
000000a0: 6d0a 5d3c a4cf b63c 0262 773c 866d 103d
000000b0: f9ac ca3c 1fae a23c eafa 7c3c a64b 243d
000000c0: 1294 553c 77e0 f33c 6803 0d3d b1a9 f03b
000000d0: a699 fa3c e23f 903c 29ea 0c3d 8fad 38bb
000000e0: 5d64 b6bc e2d6 26bc ae7c e83c a0a4 06bc
000000f0: a77d 063d 944e d2bb 0e2a 533d 529f 7d3c
00000100: df4a 823c 5633 043c a162 083d 406d ef3c
00000110: 14bf 913c 7767 c3bc 2eb9 463c 7de5 913b
00000120: 2049 e83c 782b bf3c 724f 293c 77ec c53c
00000130: b6a2 8c3c 2f6e 0d3d 3ce0 6c3c 5e8e 37bc
00000140: 403a 633c 2174 f03b cce6 f0bb 2e54 0f3d
00000150: ba64 953c 1ea3 193d 3161 f73c 284c ad3c
00000160: e2a8 e2bb 3a05 41bd e0aa c93c c8cd 753c
00000170: 931f 36bc 2c70 7bb9 a902 a33c 5803 573d
00000180: 92e7 333d 484d 73bc 2d00 853b 666c 223d
00000190: 83ff 9f3c a8e3 3f3c 250e d9bb a1a8 103c
000001a0: 3b6a 953c 878b 3c3c b0e2 6f3c 9f48 cd3c
000001b0: 0728 f43c d9ec ffbc 6411 383d d38a e33a
000001c0: 9388 cd3c d8aa 573c b48b 4b3c 0014 1f3c
000001d0: cc52 883d 7660 123b 58f1 c83c 7b93 8e3c
000001e0: 3861 ceba 0c4b 153d 7999 0d3d 51fa 1fbc
000001f0: cfab c83c de1d f83c 0c16 41ba 7621 a13c
-0.018343238 -0.0123427035 0.004343875 0.021617744 0.0008892734 0.031462982 0.008763774 -0.010943144
0.03410861 -0.009063361 -0.0077835754 0.0002780903 0.0021634477 0.019909099 0.010383495 0.006391182
0.002168196 0.029170176 0.01382053 0.032370865 0.0148340305 0.037537724 -0.0035890066 -0.0068012965
0.019203652 -0.029973367 0.022101587 -0.031671062 -0.0003326846 0.049632072 0.06835782 0.022244994
0.071700886 0.031893905 0.036643893 -0.009884732 0.04408701 -0.0048753857 0.0012248919 0.023945944
0.013491255 0.022315808 0.0150990505 0.0352607 0.024740683 0.019858418 0.015440682 0.040111206
0.013035791 0.02977012 0.034427077 0.0073444475 0.030590843 0.017608587 0.034403 -0.002817962
-0.022264654 -0.010183068 0.028379764 -0.008217961 0.032834675 -0.0064180586 0.05155378 0.015479879
0.015904842 0.00806888 0.033297185 0.0292269 0.017791308 -0.023853047 0.012129111 0.004452406
0.028355181 0.023336157 0.010333883 0.024160607 0.01716743 0.034528907 0.0144577585 -0.011203377
0.013868868 0.0073380624 -0.007351732 0.03499239 0.018236507 0.037509076 0.030197712 0.021154478
-0.006917105 -0.047124125 0.024617612 0.015002675 -0.011115926 -0.00023979013 0.01989873 0.052493423
0.043922015 -0.014849968 0.004058859 0.039654158 0.019531017 0.011711992 -0.0066240006 0.008829267
0.018239131 0.011507875 0.014641449 0.025059042 0.029804243 -0.031240867 0.04493846 0.0017360098
0.025089538 0.013163291 0.012423445 0.009709358 0.06656417 0.0022335327 0.024529144 0.017404309
-0.0015745526 0.036448523 0.03457019 -0.00976427 0.024495987 0.03028768 -0.0007365651 0.019669276

network_body._body_endoder.seq_layers.2.weight f4 [128, 128]
00000000: 7594 1dbe 6d94 3f3d 4933 063b a444 6e3e
00000010: 15ea e43c 2afc acbd 726f 34bd aee4 e93d
00000020: dcf2 4dbd 1f1f 22bd 7008 1b3e eecf f83d
00000030: f7eb 8b3d b13c 0abc 3e35 003d e51a 0ebd
00000040: a807 113e d3f5 c03b af64 26bd 7d7d 0e3e
00000050: 7583 ba3c 3761 21be 5be0 4abd cb39 b83d
00000060: eac4 043d 1248 983d 0aa4 823c 6bba ddbd
00000070: 6ded b2bc 2421 383d 304d 4c3d c77f 7c3e
00000080: 2b65 d7bc af4a 673d d79d 2f3c 0906 b63d
00000090: 083a b73b 43af 41bd 025a d63d 6279 debc
000000a0: f2f8 123c 69d3 193d bd2b 453d cb78 90bd
000000b0: 0f5a 9abd fb03 16bd f01e 0d3e 49c6 70bd
000000c0: c462 3fbe 7aba a03d 82f0 8abd 789a d4bc
000000d0: 6f2b ecbd c277 21bd 4740 7e3d ec0b 70bc
000000e0: 27e1 de3d 3d99 ee3c 657e 7cbc a08c 0a3c
000000f0: fa74 503d d600 25bb 3550 ce3c 630a 083c
00000100: ef27 d0bd a2cd f33d cab8 823d 8552 853c
00000110: 6ec6 983d f15a 30bd 474b 6a3d abbf a73d
00000120: 2206 123d ddbc a4bc e0d3 81bd cb4f 00be
00000130: 4bca 963c 124e a03d ff55 5d3d 8e07 f9bc
00000140: b38e d3bb 37ca 6ebd 3885 7f3b 8260 003e
00000150: 2021 c9bd 8953 e6bc 6e6d 9bbd 2591 523d
00000160: 4396 42bc 9c01 0e3e 983c 94bd 24de 19bc
00000170: 26c6 ab3d 1f7d e33d 2f10 373d 0ceb 073c
00000180: a767 1fbe 944b 643d b39c d83d 90ca 443d
00000190: a3b8 583d 6fa4 0e3e 63fa c2bd b694 cbbd
000001a0: e1e3 f13d 5c48 fbbc c5bd 1cbe fc9b c8bc
000001b0: 83fa 6fbd 6d42 4f3c a739 25bd 1275 cebc
000001c0: 2994 bb3d 6f0a 713d 292e 403c 656d d8bd
000001d0: ee11 12be fcca b23d b922 b7bd 944d 88bd
000001e0: 7309 233d 7f25 083e 6f2f b8bd 1a6b 56bc
000001f0: 33f1 693d 8044 953c 3e7c 313d 59e9 973d
00000200: f33f 9ebd c2cd 03be 031c b9bb d1a9 413e
00000210: 42bd b53d 11ed fbbd 9ea2 dbbd 3585 d6bd
00000220: 4c39 61bd 97e6 fcbd 4e6d c7bc 97ac 013c
00000230: 9e2c 333e e32a da3d 0ce5 00be 5c25 3bbd
00000240: a92f ab3c dfc0 0d3d be85 34be e648 90bd
00000250: cd7a 2f3e ef7b b53d 4c80 863d 28c1 09be
00000260: 822e 8abd 8ab1 273e 15c3 5dbc 8d33 96bc
00000270: 22f9 eebd f18e dabd 62f3 b53d ac31 2abd
00000280: cfff d03b 437d 8a3d 1f1c c6bd 18db 1b3d
00000290: 359e 863c 207e 6dbd e8d6 673e e065 b1bd
000002a0: 4e70 753d 3c18 1a3b 5de0 bc3c 55a7 c23d
000002b0: aad7 1e3c e101 87bb 1fe5 b13d f43c b0bd
000002c0: 02ae 1f3d 6551 7b3b 5863 81be 3b66 d73c
000002d0: ef1f 80bd d3f1 5ebe b1fa 563d 7957 13bd
000002e0: bb06 243d 00d1 5d3d ffd0 fdbd 0323 56bd
000002f0: ad16 503d b7fb 2bbc 6882 6d3d aa6b 0d3e
00000300: d10a 9ebc be95 c53c 1b5b b23c d15b 533c
00000310: f23f 8c3e 6e1f 8ebd 6a6a 993d a06f 49be
00000320: 950e ea3b 5d99 efbd 5405 e93b 0552 963c
00000330: 3832 65bd 994b febb 54f1 6bbe 4ed8 debd
00000340: d13f 9dbc 3287 1f3e f4fa e7bc 25cf 39bc
00000350: c68c 36bc c8af a53d 2382 82bd fa0a 863d
00000360: 2433 983d 0a6b 8fbd ebec e2bc bd9b 173e
00000370: 444f 9f3d 85ff 1b3d 9a8f 6cbd 0154 3ebe
00000380: 78a5 f2bd b053 883b 1dee 1a3d a4c2 523d
00000390: df60 60be c4e2 7db9 adf5 afbd 6e78 71be
000003a0: ad8f 46bc 9f7a 98bd c263 6f3d 7bc3 d43d
000003b0: e160 0bbd d69a b1bd dfbe 02bd f599 6d3d
000003c0: c761 75bd 43d5 28bd 1b78 b9bd eb86 0dbe
000003d0: a6ef 5f3d 2d3d 11be 1c7c 10bd 14e4 1c3d
000003e0: a4ba b1bd f31f 83bd 7214 143e ca89 e7bc
000003f0: 5724 b63c def0 703d b444 8cbc aeab 3fbd
-0.15388663 0.04677241 0.0020477346 0.23268372 0.02794365 -0.08446534 -0.044051595 0.1142057
-0.050280437 -0.03958046 0.15139937 0.121490344 0.06832116 -0.0084373215 0.031300776 -0.034693617
0.14163077 0.0058886795 -0.040623363 0.13915057 0.022767762 -0.15759741 -0.04953037 0.08995398
0.032414354 0.07435621 0.01594736 -0.10826572 -0.021841729 0.04495348 0.0498783 0.24658118
-0.026293358 0.05646771 0.010718784 0.0888787 0.0055916347 -0.047286283 0.104663864 -0.02715749
0.008970486 0.037555132 0.048137415 -0.070542894 -0.075367086 -0.03662489 0.13781333 -0.05878285
-0.1869002 0.078480676 -0.067841545 -0.025952563 -0.11531722 -0.03942085 0.06207302 -0.01465128
0.10882788 0.029125804 -0.015410994 0.008456379 0.050892808 -0.00251775 0.02518473 0.008303258
-0.10163867 0.11904456 0.06382902 0.0162747 0.074597225 -0.04305548 0.057200696 0.08190855
0.03565038 -0.020109588 -0.0633924 -0.12530439 0.018407008 0.07827391 0.05403709 -0.03039911
-0.00645622 -0.058298316 0.0038989317 0.12536815 -0.09820771 -0.028116005 -0.075892314 0.05140795
-0.0118766455 0.13867801 -0.0723812 -0.009391341 0.08387403 0.11107849 0.04469317 0.008295786
-0.15566884 0.05573614 0.10576763 0.04804474 0.05291046 0.13929914 -0.09520414 -0.09940474
0.118110426 -0.030674152 -0.15306766 -0.024488442 -0.058588516 0.0126501145 -0.040338185 -0.025202308
0.09159119 0.05884784 0.011729755 -0.1056774 -0.14264652 0.087301224 -0.0894217 -0.06655422
0.039803933 0.13295554 -0.08993422 -0.013087058 0.05711479 0.01822114 0.043331377 0.074175544
-0.07727041 -0.12871459 -0.005649091 0.18912436 0.08873989 -0.12301076 -0.10724376 -0.10474626
-0.054986283 -0.12348669 -0.024344113 0.007914684 0.17497489 0.10652711 -0.12587374 -0.045689926
0.02089675 0.034607764 -0.17629144 -0.07045154 0.17136689 0.08861529 0.065674394 -0.1345259
-0.06747152 0.1637632 -0.013535281 -0.018335128 -0.11668612 -0.10671795 0.08884312 -0.041551277
0.006378151 0.06762173 -0.096733324 0.03805074 0.01643286 -0.05798161 0.22640574 -0.08662009
0.059921555 0.002351298 0.023056203 0.09504572 0.009694973 -0.004120097 0.086862795 -0.08605376
0.038984306 0.0038348075 -0.25271106 0.026293864 -0.06256091 -0.21771936 0.05248517 -0.035972092
0.04004548 0.054154396 -0.123933785 -0.052279484 0.050802875 -0.010497025 0.057985693 0.13810602
-0.019292267 0.024119254 0.021771958 0.012900309 0.27392536 -0.069395885 0.07491 -0.19671488
0.0071428516 -0.116991736 0.007111231 0.018349657 -0.055956095 -0.007760477 -0.23041278 -0.108811006
-0.01919547 0.15578917 -0.028317906 -0.011340891 -0.011141961 0.08090168 -0.06372478 0.06545062
0.07431629 -0.07002838 -0.027700862 0.14805503 0.077787906 0.03808548 -0.057754137 -0.18586732
-0.11847967 0.004160367 0.03782474 0.051455155 -0.21911953 -0.00024212437 -0.08591781 -0.23581097
-0.012119216 -0.07445263 0.058444746 0.103888474 -0.034027938 -0.08672111 -0.03192031 0.058008153
-0.0599077 -0.041219007 -0.090561114 -0.13820998 0.054671906 -0.14183493 -0.03527461 0.03830345
-0.08678177 -0.06402578 0.14460924 -0.028263945 0.022234125 0.05882346 -0.017122604 -0.046794586

network_body._body_endoder.seq_layers.2.bias f4 [128]
00000000: 22d6 873b 9c41 a13c 6ad6 663c e66d 393c
00000010: 941b 8d3b 3fa0 c73c 852f 58bc a373 2c3c
00000020: 2b74 b53b 9e42 91bc 6ab1 903b 6ac8 97bc
00000030: f12f 83bc fe00 c13c 01f6 b0bb 376b cb3c
00000040: fce9 88bc 8ba5 c2bb 008e 88bc 2bbc c63c
00000050: dee5 b33b fd93 97bb cebd 243c 920a f6ba
00000060: ea35 bf3c 15c2 a23c b060 bc3c a623 ae3c
00000070: c48f e2ba 3542 743c 818a a2bb 5d7b 8fba
00000080: e96e 8fbb dead 223c bf42 b23b b3f1 8abb
00000090: d09a 5b3c 9073 f53c a8cc 983c ac71 953c
000000a0: 833a 7d3c 4f0f 11bc 2c80 e23b 855d 8abb
000000b0: 8d58 b93c e736 09bc ee5f a6bc 1abd 9fbb
000000c0: e61d 6a3c 32c0 d83c 05ed 3cbc e982 913c
000000d0: e07d cf3c eee9 32bc 1af3 7e3c 2183 323c
000000e0: 3b14 043c 0967 0a3d 4328 5dbb db1a b83c
000000f0: beca 2f3c 5aec 0e3c b03d 02bc f870 2dbc
00000100: 38c6 aab9 87e6 5cbc b254 dc3c eaf8 e63b
00000110: ba71 20bc 9b71 9e3b af8c 753c ea88 2d3d
00000120: cc7a ad3c eaac bb3c c056 f43c b727 9e3c
00000130: 992d c0bb eeca 053d c618 f73c abea 4abc
00000140: 431e 193d ab48 433c 33a3 e9ba d32a 8d3c
00000150: 6c9e 273c dd8c 09bb c550 74bc 6998 073d
00000160: 7b71 4dbc eb34 2a3c 31d3 bd3b af04 c43c
00000170: 46bb 57bc 12f1 023d ce31 b3b9 609a 383c
00000180: 2713 5cbc 3f48 543b 4842 26bc 17f9 013d
00000190: b5b6 4bbc 6f05 503c f6e9 8a3c bb28 48bc
000001a0: df8a a23c 698e 8f3c 603d b63a a791 fd3c
000001b0: 4e50 783c 803a d63c e805 923c 6be4 43bc
000001c0: ebd1 f1bb d86e 93bc ba0b 0a3d 171e 52bc
000001d0: 6b6c 213b 3a17 133d fede 84bc f910 cd3c
000001e0: 3d38 713c e6ac 293c 7795 38bc 94d7 4a3b
000001f0: 742b 28bc 406c be3a 0d39 973c 5f69 f8ba
0.0041453997 0.019684605 0.014089206 0.011317706 0.004306266 0.024368403 -0.013194923 0.010525617
0.00553753 -0.01773196 0.0044156807 -0.018528182 -0.016014071 0.023560043 -0.0054004197 0.024831397
-0.016713135 -0.0059401444 -0.016669273 0.024259647 0.005490049 -0.004625796 0.010055019 -0.0018771461
0.023341138 0.019867936 0.022995323 0.021257233 -0.0017285277 0.014908363 -0.0049603586 -0.0010946799
-0.004377235 0.0099291485 0.0054400857 -0.0042402386 0.013403609 0.029962331 0.018652275 0.01824268
0.015455845 -0.0088537475 0.006912252 -0.004222574 0.022625232 -0.008374906 -0.020309415 -0.0048748376
0.014289355 0.026458833 -0.011531119 0.017762618 0.025328577 -0.010920031 0.01556089 0.010895521
0.008061464 0.03378967 -0.0033745922 0.022473743 0.01072949 0.008723343 -0.007949278 -0.010586016
-0.0003257261 -0.013482696 0.026895855 0.007048716 -0.0097927395 0.00483532 0.014987155 0.0423669
0.021176718 0.0229096 0.029826522 0.019306047 -0.0058648107 0.032664232 0.03016318 -0.012385051
0.037382375 0.011919181 -0.0017825126 0.017232334 0.010230642 -0.0020988502 -0.014911835 0.033104334
-0.012539263 0.010388593 0.0057929982 0.023928015 -0.013167208 0.031968184 -0.00034178648 0.011267275
-0.013432301 0.0032391695 -0.010147639 0.03173169 -0.0124336975 0.012696608 0.016957264 -0.012216742
0.01984161 0.017523961 0.0013903789 0.030953242 0.015155865 0.026150942 0.017825082 -0.011956315
-0.0073797605 -0.01799719 0.03370259 -0.012824557 0.0024631273 0.035910822 -0.016219612 0.025032507
0.014722881 0.010356164 -0.011266104 0.0030951248 -0.010264266 0.0014528111 0.018459821 -0.0018952301

action_model._continuous_distribution.log_sigma f4 [1, 3]
00000000: e424 97bd 18cf 92bd 9944 e53b
-0.07380083 -0.07168406 0.006996703

action_model._continuous_distribution.mu.weight f4 [3, 128]
00000000: 61ef eb3b 922b 1e3d 31bf 30bd 96af 543c
00000010: 2b05 25bc 056b 733d 01a3 1cbd 5144 7bbd
00000020: 688e 33bd 6652 23bd 2adb 883c a1e0 eabc
00000030: 44f2 dcbc e985 643d 6ffc e5bc f888 8c3d
00000040: caae 10bd 3153 eebc 0e79 e1bc dcf3 703d
00000050: 92bd 4ebb 1846 b1bc be90 38bc 83bc b2bd
00000060: f705 b33c 53d2 113d 9139 413d 6f7a 69bd
00000070: 7bb5 4fbc 767f 093d 1dbb ebbb a1ca c43c
00000080: f80b 87bb da45 213d f4c7 1cbc f8da 94ba
00000090: fbef 403c ff6d 2f3d 6360 4dbd 981c 313d
000000a0: 09f3 7f3c 6a30 46bc 91d2 8dbc 81b9 b73c
000000b0: 380a 543d 7850 90bc 6b66 08bd 5d6e 86bb
000000c0: 3885 3cbd 5121 943d 6e5d 4cbd b3d1 ad3c
000000d0: 4f17 c13b df75 76bd fb7c ff3c e852 81bd
000000e0: 3bac 173d 0f44 703d cfc0 3bbd e8ef cd3c
000000f0: cc1b e9bc 47c5 083d 1237 a53b f72e 83bd
00000100: 2952 a5bc bc33 62bb 3220 073d 9a95 89bd
00000110: 4515 26bd d618 96bc c0ec 0f3d 43f9 aaba
00000120: 0c91 f83c d71f 123d 4cdb 673c 5a71 303d
00000130: 1d46 24bd 8e12 7bbc f137 5f3d 3e62 c53b
00000140: e545 883c 74f7 243d ad24 2ebd 7f99 663d
00000150: ab81 14ba 0188 40bd 61e0 42bd cd57 5c3d
00000160: 1910 1cbd 8cee 84bd bee7 5f3b bb90 7e3c
00000170: da8d 70bd 54db 91bd 4776 303c 8010 dcbc
00000180: beb1 65bd fdb5 90bd 48d9 03bd 4a5f 5fbd
00000190: 1dbd 03bd 58fb 10bb 57dd 373d 4c09 b9bc
000001a0: 592c 72bd 41a0 a93a 73fe 7a3b 5c37 873d
000001b0: 31d0 073d b8f7 46bd 417e 4abc 501c 16bd
000001c0: bb52 5fbb e262 203a 3c8f 0d3c 0d73 97bb
000001d0: 1bd5 ce3c 1474 7b3c 6f36 0cbd 1644 803a
000001e0: a2b0 44bc 97d6 67ba bbed 6f3c 146e 4d3c
000001f0: cba0 aebc ef2e 6f3c acf0 ff3b 080d 58bd
00000200: ff68 d7bb 1c00 9fbc 8b93 a13d 9da1 84bc
00000210: 0361 fdbc c61f ff3c eb52 6f3d ad70 3cbd
00000220: 8538 023d e290 2b3d 8e0f cc3d 9979 5d3a
00000230: 86f4 503d 57ae 01bd 53c5 e8bc de04 5ebd
00000240: d4cd 793c 0f5d 39bc cef4 f93b cee3 953b
00000250: b65f 03bd 4fd3 3bbc e3d6 3ebd f8e9 5e3c
00000260: c77e 22bd acac 943c 7601 6fbc 983f babd
00000270: 400d c53c fa01 f7ba 9371 753d c42e 953c
00000280: f9c7 c4bc 0fff d63c e3b8 19bd c296 813d
00000290: 3718 c23d 96d7 d63c b397 b1bb 2bcc 203c
000002a0: c0f0 543d f132 2fbc dace 7e3c 860d 0a3d
000002b0: a09d c93b d590 b4bc 6994 ca3b 30c1 843c
000002c0: 2cb3 c33d b5bc 4e3d 4aa7 973b c9c4 0cbc
000002d0: e77c 33bd c021 913c 95e9 fc3c 9f7a c13d
000002e0: 6014 043d 53c5 07bc 9762 b63b 8b32 3dbd
000002f0: 797b e2bc 7ff6 4b3c 3990 8dba 08ae a3bb
00000300: cf6c 1f3d d040 783d cb98 17bc be97 e8ba
00000310: 3eb4 a4ba e9c8 f2bc aa57 363d 8f30 5ebd
00000320: e1bd 22bd 7243 60bc d416 4b3d 4889 1b3c
00000330: 0031 473d e8d4 8ebd b0ad 953d a5f6 1f3d
00000340: 630a 93bd 528d 8c3c cde6 0fbd 4b2c 8b3c
00000350: 080a 24bd 8a7d 23bd 3a09 c9bc 580e a53d
00000360: 8153 833d 92d4 c63c f881 c4bc 7b30 34bd
00000370: fe41 5d3d f821 933d e553 483d c5a6 bdbc
00000380: c1e3 3f3d 61a6 47bc dfb6 563c 1f33 15bd
00000390: 081c 563d 3013 d8bc 82f6 88bc db5a 923d
000003a0: d564 54bd b535 983d cc23 7b3d 260a 3c3d
000003b0: 5bfb 79bc 673e e2bc f61b 21bd c95d 2b3b
000003c0: 21e7 773d 320c 2d3c 625f 91bd 043c 1d3d
000003d0: 22af 4c3d de6f 6fbd d1a3 043d d2f0 28bd
000003e0: 6060 6fbd 5c55 803b 8e17 e53c ace0 66b9
000003f0: ba9e 7d3d 2038 07ba 7a00 04bd e55d cabc
0.007200167 0.03861577 -0.043151084 0.012981316 -0.010072033 0.059428234 -0.03824139 -0.06134445
-0.04383698 -0.039873503 0.016706068 -0.028671565 -0.02697099 0.05579177 -0.028074471 0.06862062
-0.03532294 -0.029092403 -0.027523544 0.058826312 -0.0031546098 -0.021639869 -0.011264978 -0.08727362
0.02185343 0.03560097 0.04717404 -0.057001527 -0.012677546 0.03356882 -0.0071939365 0.024022402
-0.0041213 0.039373256 -0.009569157 -0.0011356762 0.011775966 0.04282951 -0.05014075 0.04324016
0.015621909 -0.012096504 -0.01731232 0.022427322 0.051767558 -0.017616495 -0.0333008 -0.004102512
-0.046025485 0.07232917 -0.04989379 0.021218156 0.005892671 -0.060171004 0.031187525 -0.06314641
0.037029486 0.058658656 -0.045838173 0.02513881 -0.028455637 0.033391263 0.0050419653 -0.06405442
-0.020180779 -0.00345157 0.03298969 -0.06717987 -0.040547628 -0.01832239 0.03513789 -0.0013044256
0.030342601 0.035674896 0.014151406 0.04307685 -0.040105928 -0.015324248 0.05449671 0.0060236743
0.01663489 0.040275052 -0.042515446 0.05629873 -0.0005665074 -0.047004703 -0.047577266 0.05379467
-0.03810129 -0.06490812 0.0034165229 0.015537436 -0.05872903 -0.07121912 0.010770387 -0.026863337
-0.05607771 -0.070659615 -0.032189637 -0.054534234 -0.032162774 -0.0022122469 0.04488882 -0.02258744
-0.059124324 0.0012941436 0.0038298636 0.06602356 0.03315753 -0.048576087 -0.012359203 -0.036648095
-0.003407641 0.00061182503 0.008640107 -0.0046218694 0.025248101 0.015347499 -0.0342316 0.0009785916
-0.012005003 -0.0008843927 0.014644082 0.012538452 -0.021316906 0.014598592 0.0078106727 -0.052746803
-0.006573796 -0.019409232 0.0788947 -0.016190344 -0.030930048 0.03114308 0.058428686 -0.046005893
0.031792182 0.041886218 0.09963904 0.00084486004 0.051014446 -0.031660404 -0.028414404 -0.05420386
0.015246827 -0.011313691 0.00762806 0.0045742756 -0.0320737 -0.011463954 -0.04659165 0.013605587
-0.039671686 0.018148743 -0.014587751 -0.09094161 0.02405417 -0.0018845194 0.059922766 0.018210776
-0.024021136 0.026244668 -0.037529837 0.06327583 0.09477275 0.026225846 -0.0054196953 0.009814302
0.05198741 -0.010693298 0.015552247 0.033704303 0.0061528236 -0.022041718 0.0061822427 0.0162054
0.09555659 0.050472934 0.0046280967 -0.008591839 -0.043820288 0.017716289 0.0308731 0.09447216
0.032245994 -0.008286792 0.005565952 -0.04619078 -0.027646767 0.012448906 -0.0010800428 -0.0049951114
0.038922127 0.060608685 -0.009252737 -0.0017745418 -0.0012565923 -0.029636817 0.044517197 -0.054245528
-0.039731864 -0.013687955 0.049582317 0.00949318 0.048630714 -0.069742024 0.07308519 0.039053578
-0.071797155 0.01715723 -0.03513222 0.016988894 -0.04004863 -0.039914645 -0.024540532 0.080593765
0.064124115 0.024271283 -0.023987755 -0.043991547 0.054018013 0.071842134 0.048908133 -0.023150811
0.046848062 -0.012185664 0.013105123 -0.036425706 0.052272826 -0.026376337 -0.016719107 0.071462356
-0.051853973 0.07432119 0.061313435 0.045908116 -0.015257682 -0.027617646 -0.039333306 0.002614843
0.060523156 0.01056199 -0.07098271 0.038387313 0.049971707 -0.058456294 0.03238279 -0.04124529
-0.05844152 0.0039164256 0.027965333 -0.00022018206 0.06191895 -0.00051582046 -0.032227017 -0.024702976

action_model._continuous_distribution.mu.bias f4 [3]
00000000: 953f a63c 2f71 5fbc f8f3 7938
0.02029399 -0.013637825 5.959344e-05

exp_avg f4 [128, 6]
00000000: a28b 78b9 4c9c 4538 5634 01b9 f41e f038
00000010: 4c9c 4538 7395 2639 9c89 6cb9 56c4 82b8
00000020: 2d45 1b39 9ba6 7ab8 54c4 82b8 2a0c 48b8
00000030: ef4b 8fb8 5b3b 1238 05cc 4a38 6a03 8038
00000040: 5b3b 1238 8982 4b38 3a25 52b9 6aef 8f38
00000050: df1a 14b8 74ef 8b38 63ef 8f38 82f4 f938
00000060: 4d52 85b9 90e7 3fb9 c59d ea38 33aa 95b9
00000070: 90e7 3fb9 a5f7 75b9 45c4 0db9 d9c7 2bb7
00000080: 2cb7 9b37 ae82 0c38 c5c7 2bb7 c9d5 2eb9
00000090: cd64 07b8 d146 2637 405b 4938 f9f4 5538
000000a0: d146 2637 92f5 2a36 c237 b1b7 3742 5cb5
000000b0: 67f7 69b8 7821 f6b5 3f42 5cb5 9c9a 1437
000000c0: c701 00b8 46a4 3936 589e c536 849f 3f37
000000d0: 46a4 3936 eec5 f4b6 474d 6538 269d b4b7
000000e0: 54fd 77b8 6b16 57b8 259d b4b7 b6b8 6937
000000f0: 6ca1 1137 d69f e137 1142 8238 69d7 d938
00000100: d69f e137 d822 7ab8 567b 32b9 fa4b bfb8
00000110: 8dc1 1539 7ea8 34b8 fc4b bfb8 303b 7bb9
00000120: 4eb2 f2b8 fe61 90b8 b245 86b9 8ecc 28b9
00000130: fe61 90b8 da1e 1139 4e9a 24ba 5e18 f337
00000140: 8e74 a5b8 b35e f338 5a18 f337 f846 1539
00000150: 923b c338 1448 2337 7a88 2639 30fb 1638
00000160: 1448 2337 95a6 8fb8 ba8e 5cb8 f8c9 f437
00000170: a820 a837 2e5d a8b8 0eca f437 3358 f5b7
00000180: 3c34 b039 30f0 8ab8 a32d 69b9 4656 22b9
00000190: 30f0 8ab8 421b b4b8 3934 1cb9 6a2c 66b7
000001a0: af9b 4739 935d 4739 0a2c 66b7 9c90 c2b8
000001b0: ec34 54b7 a2bf 2037 2cf6 5838 329a 73b7
000001c0: a2bf 2037 e6f2 4537 5294 e1b9 9e28 9b38
000001d0: 2c9a 0db9 b4e2 e139 7d28 9b38 e836 5b39
000001e0: f3e4 2bba c036 8937 2bfe aab8 3aa2 d639
000001f0: c036 8937 caf7 de38 28c8 02ba d0ff cd38
00000200: 6553 c638 9287 f239 c9ff cd38 fdf9 1439
00000210: 73f2 2eba a192 9eb8 0298 ef38 faa2 efb8
00000220: a192 9eb8 e2a1 ed38 b01e 8e38 976f 07b6
00000230: 3228 2bb8 5da4 24b8 716f 07b6 bcce 1338
00000240: 0802 8a38 2a65 8bb7 be53 1a38 4416 1339
00000250: 2a65 8bb7 a468 76b8 f46f 0937 d680 7736
00000260: ac8c 0936 ac59 9a36 cb80 7736 0887 a2b6
00000270: 446b 86b9 25e5 01b9 a140 2239 595b 3fb9
00000280: 25e5 01b9 f86c 55b9 63f9 c238 ae8d b7b7
00000290: 580c f7b8 6009 82b8 ab8d b7b7 a852 c9b6
000002a0: 90f4 53b8 eead 53b8 c494 97b6 fb8e 11b8
000002b0: eead 53b8 fa8d 95b8 caca fe38 8af4 90b6
000002c0: 5212 a737 d583 3738 44f4 90b6 1c8f 14b9
000002d0: 489f 983a b340 cab9 05a7 1939 00a9 62ba
000002e0: b340 cab9 4ad2 01ba 678a 9ab9 ac8c e1b8
000002f0: a9bc cf38 bb11 91b9 b48c e1b8 90b5 f937
00000300: 36e2 373a eab0 12b9 65d5 c8b8 b2a8 c7b9
00000310: eab0 12b9 c6d4 ebb9 6eba 4539 8fa3 3038
00000320: cbd6 0db9 565d 0a38 83a3 3038 f472 8ab7
00000330: 6f8b a1b9 7054 56b7 6646 94b9 cc0a 2039
00000340: 7054 56b7 f6ff 4f39 5d9c 6339 8b14 37b8
00000350: 961b 9c36 f03d 79b9 9314 37b8 21a0 15b9
00000360: 0000 31b3 9470 5537 d298 7536 00f7 fb34
00000370: 9470 5537 3c0a beb7 e4ac bb37 79c4 c3b7
00000380: b0c6 9438 a791 41b8 79c4 c3b7 bc37 b0b8
00000390: 6ee5 12b9 428d 0b39 76fc c2b8 d014 0e38
000003a0: 428d 0b39 4035 ce38 7e00 8739 a444 d1b7
000003b0: b93b 28b8 e5dd 46b9 cc44 d1b7 907c 1db9
000003c0: d83c 2639 7fe7 8cb8 dbbf 5fb9 764e 2cb9
000003d0: 7fe7 8cb8 c3d3 a038 fc86 73b9 e780 b6b7
000003e0: 7cd9 b738 9812 5538 cd80 b6b7 7e71 10b9
000003f0: 5aff dab9 4c48 8f38 ac0c f238 4c90 6439
-0.0002370314 4.7114023e-05 -0.00012321895 0.00011449857 4.7114023e-05 0.00015886668 -0.00022557977 -6.2354535e-05
0.00014807722 -5.975981e-05 -6.235452e-05 -4.7695044e-05 -6.832915e-05 3.486439e-05 4.835056e-05 6.1041515e-05
3.486439e-05 4.8520542e-05 -0.00020041029 6.863366e-05 -3.5310975e-05 6.672638e-05 6.8633606e-05 0.000119187884
-0.00025429056 -0.00018301443 0.000111873764 -0.00028546303 -0.00018301443 -0.00023457276 -0.00013519924 -1.0238925e-05
1.8562736e-05 3.3500306e-05 -1.0238907e-05 -0.00016673574 -3.2280386e-05 9.910859e-06 4.8007118e-05 5.1011306e-05
9.910859e-06 2.5474915e-06 -2.1126009e-05 -8.205274e-07 -5.578194e-05 -1.8338169e-06 -8.205279e-07 8.857485e-06
-3.0519233e-05 2.7662768e-06 5.889491e-06 1.1421627e-05 2.7662768e-06 -7.2948087e-06 5.4669825e-05 -2.153085e-05
-5.912532e-05 -5.1280873e-05 -2.1530848e-05 1.3930889e-05 8.680257e-06 2.689652e-05 6.211189e-05 0.000103874896
2.689652e-05 -5.9637096e-05 -0.00017021349 -9.1217415e-05 0.0001428185 -4.3072265e-05 -9.121743e-05 -0.00023959274
-0.00011572671 -6.8847075e-05 -0.000256104 -0.00016097931 -6.8847075e-05 0.0001383977 -0.00062790967 2.8979204e-05
-7.889523e-05 0.00011604782 2.8979197e-05 0.00014236185 9.3094204e-05 9.732339e-06 0.00015881835 3.5996723e-05
9.732339e-06 -6.8498e-05 -5.2585012e-05 2.9181116e-05 2.0042367e-05 -8.02822e-05 2.9181156e-05 -2.9247347e-05
0.00033608254 -6.625091e-05 -0.00022237613 -0.00015481663 -6.625091e-05 -8.588146e-05 -0.00014896774 -1.3719409e-05
0.00019036116 0.00019012978 -1.3719322e-05 -9.2775765e-05 -1.26485065e-05 9.581361e-06 5.172768e-05 -1.451983e-05
9.581361e-06 1.1798669e-05 -0.00043025851 7.3985415e-05 -0.00013504241 0.0004308425 7.3985175e-05 0.00020905922
-0.00065572484 1.6357168e-05 -8.153574e-05 0.0004093813 1.6357168e-05 0.00010631939 -0.0004988932 9.8228105e-05
9.456909e-05 0.00046258845 9.8228054e-05 0.00014207508 -0.0006673701 -7.561339e-05 0.00011424722 -0.00011426765
-7.561339e-05 0.00011331194 6.776804e-05 -2.0181521e-06 -4.0807012e-05 -3.9253722e-05 -2.0181435e-06 3.5240068e-05
6.580731e-05 -1.66172e-05 3.6794452e-05 0.00014027307 -1.66172e-05 -5.8748425e-05 8.191902e-06 3.688086e-06
2.0496473e-06 4.599997e-06 3.6880836e-06 -4.843696e-06 -0.0002563839 -0.00012387762 0.000154736 -0.00018249209
-0.00012387762 -0.00020353857 9.297093e-05 -2.1881275e-05 -0.00011780177 -6.200629e-05 -2.188127e-05 -5.9998893e-06
-5.0534087e-05 -5.0468305e-05 -4.5174693e-06 -3.4703855e-05 -5.0468305e-05 -7.131319e-05 0.00012149436 -4.3200025e-06
1.9916482e-05 4.3753378e-05 -4.3199707e-06 -0.00014167692 0.0011644149 -0.00038576647 0.00014653437 -0.0008646399
-0.00038576647 -0.0004952295 -0.00029476287 -0.00010755038 9.90567e-05 -0.00027669765 -0.00010755044 2.976766e-05
0.0007014604 -0.0001398955 -9.576491e-05 -0.00038081926 -0.0001398955 -0.0004498122 0.00018856835 4.2113996e-05
-0.00013526824 3.298869e-05 4.2113952e-05 -1.6504411e-05 -0.000308122 -1.2775054e-05 -0.0002828121 0.00015262811
-1.2775054e-05 0.00019836411 0.00021706657 -4.3649732e-05 4.6523737e-06 -0.00023769564 -4.364976e-05 -0.000142694
-4.1211024e-08 1.2722001e-05 3.6596798e-06 4.693211e-07 1.2722001e-05 -2.265453e-05 2.2372646e-05 -2.3337301e-05
7.0941984e-05 -4.6150435e-05 -2.3337301e-05 -8.402715e-05 -0.00014009114 0.00013308696 -9.2976654e-05 3.387482e-05
0.00013308696 9.832764e-05 0.00025749573 -2.4946705e-05 -4.0109942e-05 -0.00018965414 -2.4946778e-05 -0.0001501909
0.0001585366 -6.71884e-05 -0.00021338409 -0.00016432427 -6.71884e-05 7.668838e-05 -0.00023224571 -2.1756116e-05
8.7666296e-05 5.0800474e-05 -2.1756068e-05 -0.0001377519 -0.00041770452 6.832238e-05 0.000115418195 0.00021797529

exp_avg_sq f4 [128, 6]
00000000: 2d63 4234 89c6 8a33 02cb b133 f55d 1f34
00000010: 89c6 8a33 ff26 2834 f82c a133 ac2d 5733
00000020: 138d 9733 ed1a e233 ad2d 5733 478e 7334
00000030: fa80 ac33 1b26 4633 0653 5233 06e1 e733
00000040: 1b26 4633 2c0e 9e33 19ae 1034 ae9a 9533
00000050: 1dd9 1e34 b80b 1d34 ad9a 9533 8bb3 5f34
00000060: 3689 8034 0abd 2134 1c65 b433 64dc b334
00000070: 0abd 2134 f03a eb34 8d13 0a33 aaa0 5232
00000080: 3aa2 5033 e988 9432 aba0 5232 875c 1433
00000090: 4182 5b33 7a4a a132 c810 a932 1d35 3233
000000a0: 7a4a a132 87b8 0c33 0381 9431 3246 0d31
000000b0: 0bc7 1b32 77b0 8131 3146 0d31 d32d a131
000000c0: d95f b431 e899 0d31 7cda fe30 c401 9c31
000000d0: e899 0d31 1d3b 7f31 ae8c 2032 c1e3 b331
000000e0: 0470 9532 3272 5e32 c3e3 b331 0f75 2632
000000f0: 5422 9e33 a5b5 2633 1c5d 4a33 5a5b c433
00000100: a5b5 2633 defa 9833 796b d533 2a90 3d33
00000110: 9886 0134 39a1 b333 2b90 3d33 5316 f533
00000120: 4972 0a34 3b4c 8333 fe8c 3234 ae37 2634
00000130: 3b4c 8333 4b0f 2c34 3056 8035 b161 ed34
00000140: 9a41 1835 4ddc 8f35 b361 ed34 57d2 4a35
00000150: 2e44 1734 ea91 7c33 8935 bc33 308c 1234
00000160: ea91 7c33 4b88 c433 f282 6734 f94c 9733
00000170: ec99 9333 3fcb 2934 f84c 9733 56d1 f733
00000180: 4015 a133 e22e 0233 3696 8233 8992 9133
00000190: e22e 0233 a31f a533 de39 5b34 d6b0 e933
000001a0: f1e6 9134 e979 7534 d2b0 e933 7256 3634
000001b0: 2f3e 4532 68b4 9431 7136 0c32 ea13 fe31
000001c0: 68b4 9431 45a0 3f32 70b8 af35 a622 2535
000001d0: a791 3435 ae6a b935 a822 2535 d647 9a35
000001e0: 6f7b cb35 f655 1f35 ccb3 4c35 1a01 b235
000001f0: f655 1f35 6b84 8835 7190 a335 7c43 1835
00000200: a6d3 5235 51a0 b135 7b43 1835 009c 6a35
00000210: ad19 b734 0b80 4834 5262 c034 b90e d334
00000220: 0b80 4834 8482 3a35 ac53 6b33 b19d c532
00000230: dc30 5533 9628 5f33 b19d c532 5bba 8133
00000240: 51ae 3934 68e9 b233 83ac 2634 df4b 5134
00000250: 68e9 b233 85eb 0e34 b019 2630 0cdd 4c2f
00000260: 0f79 a42f 9aaf c32f 0bdd 4c2f 6342 e52f
00000270: 75e9 0434 7dd6 a533 5f74 4233 1034 2934
00000280: 7dd6 a533 2177 6f34 c405 ce32 3ee2 1432
00000290: 45b4 ca32 8c97 9232 3ee2 1432 7f20 7d32
000002a0: ae29 8832 1fe4 f831 e1e0 d132 87f8 3232
000002b0: 1fe4 f831 6602 cd32 01e0 9133 a960 2733
000002c0: cdb2 8033 4c85 a533 a860 2733 9403 c233
000002d0: 2fb5 e135 b3cd 0035 438f 8134 1748 9d35
000002e0: b3cd 0035 64b4 4535 9345 4435 ad46 f434
000002f0: 03b5 0835 8711 8b35 ac46 f434 9790 be35
00000300: 3430 fd34 177b 0034 a3b4 b133 8bf4 9434
00000310: 177b 0034 f236 3734 de72 6135 7fda d134
00000320: 699c a634 be7c 6a35 7fda d134 c529 2a35
00000330: beab bd34 de78 ec33 0cbb c933 47b7 8634
00000340: de78 ec33 ae96 6c34 f5ea c534 cb2e d733
00000350: 1087 9b33 d2ca 5034 cc2e d733 c002 0e34
00000360: 7e14 1c32 7443 4b31 742e 6331 cc26 c631
00000370: 7443 4b31 f7af 8431 7e13 6733 5ee7 d232
00000380: 81f8 c832 05c9 6033 60e7 d232 f0ed 5c33
00000390: 7c54 fc35 14b9 6335 b46f a535 0776 f935
000003a0: 14b9 6335 c8d7 ef35 e3e9 4c35 7b62 8234
000003b0: 6761 7034 95c0 1635 7862 8234 b7b6 a434
000003c0: 817d c433 b3ab 5033 b673 4b34 a4d3 d533
000003d0: b3ab 5033 9d42 d833 1841 ab33 a66d 1633
000003e0: a859 0934 2bcf 9b33 a86d 1633 04a2 da33
000003f0: 4b37 1935 ea99 6834 6fb5 a834 a35f 0235
1.8103738e-07 6.462239e-08 8.279132e-08 1.484221e-07 6.462239e-08 1.5660406e-07 7.5053265e-08 5.0100127e-08
7.057147e-08 1.0528843e-07 5.010013e-08 2.2682899e-07 8.032835e-08 4.6135124e-08 4.8969945e-08 1.0797707e-07
4.6135124e-08 7.360026e-08 1.3474381e-07 6.966489e-08 1.4793882e-07 1.4626028e-07 6.9664885e-08 2.0833811e-07
2.3941692e-07 1.5063065e-07 8.400295e-08 3.3501703e-07 1.5063065e-07 4.3815044e-07 3.214841e-08 1.226014e-08
4.8576318e-08 1.7291727e-08 1.22601405e-08 3.454309e-08 5.1108376e-08 1.8776735e-08 1.968182e-08 4.149216e-08
1.8776735e-08 3.2764117e-08 4.322034e-09 2.0558102e-09 9.067445e-09 3.774456e-09 2.05581e-09 4.6909263e-09
5.249586e-09 2.0605686e-09 1.8543029e-09 4.5403983e-09 2.0605686e-09 3.7140986e-09 9.345213e-09 5.2354783e-09
1.7396822e-08 1.2948066e-08 5.235479e-09 9.689088e-09 7.3636926e-08 3.881509e-08 4.7116473e-08 9.143578e-08
3.881509e-08 7.123684e-08 9.9381346e-08 4.4136108e-08 1.2063026e-07 8.364663e-08 4.413611e-08 1.1412762e-07
1.2893828e-07 6.114029e-08 1.6628834e-07 1.5480211e-07 6.114029e-08 1.6024312e-07 9.561827e-07 4.421577e-07
5.6719875e-07 1.0718446e-06 4.4215776e-07 7.555695e-07 1.4087775e-07 5.880603e-08 8.76417e-08 1.364831e-07
5.880603e-08 9.151753e-08 2.1561189e-07 7.045487e-08 6.873219e-08 1.5813292e-07 7.045486e-08 1.1539912e-07
7.501012e-08 3.0310623e-08 6.08092e-08 6.778743e-08 3.0310623e-08 7.689166e-08 2.0417016e-07 1.0882074e-07
2.7176387e-07 2.2861754e-07 1.08820714e-07 1.698152e-07 1.1481048e-08 4.3278767e-09 8.161451e-09 7.394637e-09
4.3278767e-09 1.1154104e-08 1.3092194e-06 6.151771e-07 6.726718e-07 1.3814622e-06 6.151772e-07 1.1494801e-06
1.5160603e-06 5.9357205e-07 7.625756e-07 1.3262354e-06 5.9357205e-07 1.0171328e-06 1.2186484e-06 5.6722615e-07
7.8539085e-07 1.3234186e-06 5.672261e-07 8.7398803e-07 3.4105088e-07 1.8673033e-07 3.5834324e-07 3.9312525e-07
1.8673033e-07 6.9480325e-07 5.47913e-08 2.3005528e-08 4.9637364e-08 5.1958146e-08 2.3005528e-08 6.0409285e-08
1.7292884e-07 8.331227e-08 1.5522714e-07 1.9492244e-07 8.331227e-08 1.3310462e-07 6.042695e-10 1.8632224e-10
2.9917444e-10 3.5595066e-10 1.8632222e-10 4.1702028e-10 1.2378389e-07 7.7224264e-08 4.5274984e-08 1.5758292e-07
7.7224264e-08 2.2301948e-07 2.3984178e-08 8.666175e-09 2.3597872e-08 1.7065553e-08 8.666175e-09 1.4733927e-08
1.5851437e-08 7.2436843e-09 2.4433065e-08 1.0417472e-08 7.2436843e-09 2.3866232e-08 6.792835e-08 3.897063e-08
5.992988e-08 7.707658e-08 3.8970626e-08 9.03448e-08 1.6816538e-06 4.798305e-07 2.413236e-07 1.1718392e-06
4.798305e-07 7.365072e-07 7.3116934e-07 4.5499965e-07 5.0927355e-07 1.0361408e-06 4.5499962e-07 1.4198184e-06
4.7159995e-07 1.1965709e-07 8.2750624e-08 2.7745077e-07 1.1965709e-07 1.7063192e-07 8.3986185e-07 3.908826e-07
3.1033713e-07 8.7353317e-07 3.908826e-07 6.339072e-07 3.5328952e-07 1.1011592e-07 9.3938155e-08 2.5092797e-07
1.1011592e-07 2.203403e-07 3.6865063e-07 1.0020229e-07 7.242318e-08 1.9445295e-07 1.002023e-07 1.3225781e-07
9.0850545e-09 2.957873e-09 3.3059253e-09 5.766969e-09 2.957873e-09 3.8617105e-09 5.3801607e-08 2.4552431e-08
2.339607e-08 5.233689e-08 2.4552435e-08 5.1439144e-08 1.8800051e-06 8.4833414e-07 1.2325968e-06 1.8586296e-06
8.4833414e-07 1.7869688e-06 7.633627e-07 2.428604e-07 2.2387177e-07 5.61596e-07 2.4286032e-07 3.0680323e-07
9.14979e-08 4.8584933e-08 1.8947944e-07 9.9570826e-08 4.8584933e-08 1.0070401e-07 7.9746485e-08 3.502432e-08
1.2791736e-07 7.2554336e-08 3.502433e-08 1.01808865e-07 5.7077403e-07 2.1662677e-07 3.142445e-07 4.8567944e-07

exp_avg f4 [128]
00000000: e2ac 2438 d3f1 59b8 2fb8 f337 58e4 6f38
00000010: a2eb 1fb9 8b26 0fb7 5090 0a37 eb8c 37b5
00000020: 62b3 1a36 f382 96b7 4005 bc37 fa69 9fb8
00000030: 5ea3 70b8 3e94 ca37 7e11 0837 8efd cb37
00000040: 4090 67b8 eacf 3fb7 04f5 0537 824c 8138
00000050: b0b0 6437 75aa ab38 da24 84b8 c4b8 e1b5
00000060: 2553 68b7 b540 4e36 f57d d8b8 0ef6 98b7
00000070: 4666 30b8 ac97 71b6 3a8b a8b9 64f5 bbb8
00000080: 2a7c f4b8 f532 1338 109b 32b7 0f91 18b8
00000090: e5dd 3137 bc23 a3b7 2996 e838 0464 aeb7
000000a0: 25d7 6ab8 0c16 98b7 40ce 6e38 e466 5b38
000000b0: 58e2 81b8 6838 7438 88d2 97b8 40ec 02b7
000000c0: 8fb4 73b8 5edc f6b7 7c1e 07b9 a2ea 5237
000000d0: 77b8 6636 10eb 4a37 747b e737 5045 3437
000000e0: 772f 0d36 8652 18b9 4eef 37b9 d80b 06b8
000000f0: e009 88b8 a492 f6b6 c349 05b8 3feb c5b7
00000100: efc5 8137 2147 f5b6 9317 2db9 6641 09b8
00000110: 7c12 c6b8 0b32 3f37 4a12 9138 c013 79b8
00000120: 80a4 47b6 c25f 3d37 5bc8 d838 9c7f 21b7
00000130: 297a 97b8 5ce9 ddb8 3fab 55b8 c423 d236
00000140: 8186 04b9 fb84 dcb7 1ce6 9fb7 b95d b038
00000150: e286 0c38 76a4 5338 580b 32b9 ed6f 3937
00000160: 7c19 43b8 504d d636 235e 8fb7 20be 2038
00000170: ccae 92b8 8ad8 2537 6f78 9337 f461 2eb9
00000180: 86fb abb8 367b 6736 8df9 5938 d408 95b8
00000190: ec0d 8838 d0b0 0fb7 e8e4 0bb7 90b4 97b8
000001a0: fe65 bdb6 cb1d deb8 2b57 a837 34f0 a6b8
000001b0: ceb8 89b8 d9ed 4537 1aa7 23b8 9c75 c837
000001c0: 14d0 a637 99f7 af38 f055 f436 a197 4f38
000001d0: 80e4 7ab9 7010 1136 38dc abb7 4043 2e39
000001e0: 0627 c1b7 c61d 1eb8 88f2 f236 1b7c 2638
000001f0: a805 48b8 b12b a938 ac36 91b6 48ab b436
3.9261657e-05 -5.1962048e-05 2.9053625e-05 5.7194702e-05 -0.00015251202 -8.532438e-06 8.259041e-06 -6.8377875e-07
2.3052203e-06 -1.7942371e-05 2.2413791e-05 -7.6014505e-05 -5.7372607e-05 2.4149307e-05 8.110304e-06 2.4317556e-05
-5.5209035e-05 -1.1432896e-05 7.984465e-06 6.16545e-05 1.3630997e-05 8.1856655e-05 -6.3011146e-05 -1.681758e-06
-1.3847636e-05 3.0734057e-06 -0.00010323144 -1.823439e-05 -4.205692e-05 -3.6000083e-06 -0.0003214719 -8.9625624e-05
-0.00011657954 3.509499e-05 -1.064573e-05 -3.637472e-05 1.0601686e-05 -1.9447754e-05 0.000110905916 -2.078899e-05
-5.5990316e-05 -1.8130078e-05 5.6935707e-05 5.2309493e-05 -6.193359e-05 5.8226666e-05 -7.2394556e-05 -7.80361e-06
-5.8103873e-05 -2.9428102e-05 -0.0001288596 1.2571605e-05 3.4380043e-06 1.2094868e-05 2.7594833e-05 1.0744974e-05
2.1038265e-06 -0.00014526592 -0.00017541388 -3.195912e-05 -6.486825e-05 -7.3484425e-06 -3.1778367e-05 -2.3593775e-05
1.5470168e-05 -7.3098495e-06 -0.00016507348 -3.2724252e-05 -9.444819e-05 1.1396139e-05 6.9175454e-05 -5.938462e-05
-2.9749062e-06 1.1287573e-05 0.00010337002 -9.626059e-06 -7.222995e-05 -0.00010581568 -5.0942643e-05 6.2626514e-06
-0.00012638608 -2.6287968e-05 -1.906143e-05 8.409791e-05 3.350422e-05 5.0459486e-05 -0.00016979629 1.1052919e-05
-4.6515357e-05 6.3866974e-06 -1.7090764e-05 3.832404e-05 -6.994381e-05 9.885183e-06 1.7579847e-05 -0.00016630423
-8.200765e-05 3.44934e-06 5.1969244e-05 -7.106518e-05 6.4875785e-05 -8.564632e-06 -8.338342e-06 -7.2338735e-05
-5.6445124e-06 -0.00010591334 2.0067751e-05 -7.960238e-05 -6.5670916e-05 1.1797493e-05 -3.9017854e-05 2.3896624e-05
1.9885636e-05 8.390769e-05 7.281771e-06 4.949386e-05 -0.00023926981 2.1616252e-06 -2.0487336e-05 0.00016618986
-2.3025565e-05 -3.7697864e-05 7.2403964e-06 3.9693066e-05 -4.7688984e-05 8.066686e-05 -4.3277014e-06 5.384358e-06

exp_avg_sq f4 [128]
00000000: 69be 4033 eb6d 1533 779a 0933 9dc8 4f33
00000010: faa2 e033 e844 1232 e603 6032 d536 c430
00000020: 1eab c430 c1d8 7931 7d8a e732 19a4 0333
00000030: a35b 3633 27d9 a434 4e65 2f33 c423 5233
00000040: 59cf b432 0b49 a233 cd88 4e31 d15a e534
00000050: b04c dd34 327a d334 793c 0b34 b83b 8932
00000060: 137d 7833 3044 0e2f 9454 6633 70c8 ce31
00000070: 3fd7 ac31 0f78 e832 c9e4 b234 dea2 a934
00000080: 1172 b233 4fbb 9134 7c37 a433 b36e 9533
00000090: bc27 0d31 0d76 9232 1324 1e35 fc16 3534
000000a0: 01e9 1033 99ed d032 5387 2134 64a7 ac33
000000b0: a243 9a32 907b ed33 b3ba 9034 e8db 4a33
000000c0: 12ec 2b32 441e 6432 a415 2e33 38f1 0831
000000d0: 9388 0130 fdcb 5f30 3bf7 2934 12c6 df30
000000e0: aab2 cc2f 7556 ef33 e3f0 c333 f48d 4e32
000000f0: 8907 9033 589d d033 b2df ed32 0f09 8e33
00000100: 5d72 9a33 c342 0132 72ba 1034 e1e3 2134
00000110: d015 0a34 c4b6 5230 3e27 b232 ca95 e032
00000120: ce69 ce34 6071 9a32 5196 b633 5aec 4633
00000130: 2a4a 0f34 5f7e 9833 8eb6 c433 ac84 8230
00000140: a947 3933 173f 1433 256b 3a33 076f 5c33
00000150: 6b41 6834 f0e7 8c33 5ca0 8433 1dd9 b72f
00000160: 4eb7 3933 d51f 7b31 eb38 a733 e83f bd33
00000170: 674b 1633 a2bc 0d33 3f69 c533 1829 a433
00000180: 659a 0732 82a3 0f31 37ae b432 a993 0c34
00000190: 9d26 6333 ba20 8533 80d4 b933 357a 2934
000001a0: 7347 cf31 9213 fe33 8ad9 ca30 f2ef ac33
000001b0: 6d31 8633 aefa ac2f df4f cd33 71ee ab32
000001c0: e690 c431 78f3 d832 b36b 3f33 1a4c 9233
000001d0: d034 6f33 0af8 8334 7d34 1d34 a3c0 d634
000001e0: 980b 8133 a0eb b932 ccc9 1e32 e4bb 0734
000001f0: 29ac 0134 6401 8934 fe8c 1232 f044 c733
4.487666e-08 3.4791736e-08 3.2038283e-08 4.83784e-08 1.0460458e-07 8.513986e-09 1.30394024e-08 1.4276461e-09
1.4309511e-09 3.635748e-09 2.6954917e-08 3.065006e-08 4.245852e-08 3.070538e-07 4.08375e-08 4.8926964e-08
2.1049049e-08 7.556999e-08 3.0054708e-09 4.2720652e-07 4.1220255e-07 3.9390721e-07 1.2967384e-07 1.5976056e-08
5.7855754e-08 1.293905e-10 5.362797e-08 6.018176e-09 5.0303295e-09 2.7062951e-08 3.3321547e-07 3.1597204e-07
8.3095195e-08 2.714464e-07 7.646938e-08 6.958489e-08 2.0540787e-09 1.705032e-08 5.891208e-07 1.68653e-07
3.373953e-08 2.4322434e-08 1.5043524e-07 8.039822e-08 1.7958715e-08 1.10586484e-07 2.6957932e-07 4.7231794e-08
1.0007186e-08 1.3278228e-08 4.0532214e-08 1.9927722e-09 4.712401e-10 8.141681e-10 1.5829293e-07 1.628168e-09
3.7234332e-10 1.1145031e-07 9.124212e-08 1.20230546e-08 6.706893e-08 9.7143754e-08 2.7692156e-08 6.614038e-08
7.1919864e-08 7.523968e-09 1.3478873e-07 1.5077195e-07 1.2860187e-07 7.665728e-10 2.0739773e-08 2.6145148e-08
3.8447473e-07 1.7979517e-08 8.502378e-08 4.6315428e-08 1.3344894e-07 7.101038e-08 9.160168e-08 9.496453e-10
4.3138844e-08 3.4516315e-08 4.3403947e-08 5.132372e-08 2.1630483e-07 6.561447e-08 6.175898e-08 3.3441774e-10
4.3240384e-08 3.6543402e-09 7.786897e-08 8.812623e-08 3.4993175e-08 3.300068e-08 9.1926715e-08 7.64432e-08
7.8931395e-09 2.0902182e-09 2.1033982e-08 1.3092234e-07 5.2887675e-08 6.199248e-08 8.653387e-08 1.578381e-07
6.0326157e-09 1.18313565e-07 1.4759263e-09 8.05302e-08 6.248852e-08 3.1464736e-10 9.560585e-08 2.001545e-08
5.720824e-09 2.5256426e-08 4.4568605e-08 6.8124976e-08 5.5694557e-08 2.4581124e-07 1.464086e-07 4.0000768e-07
6.0091395e-08 2.1643984e-08 9.242694e-09 1.2641209e-07 1.2076693e-07 2.551925e-07 8.530376e-09 9.279199e-08
