results/Test30/-500031.pt (torch, 442341 bytes, 36 tensors)

network_body._body_endoder.seq_layers.0.weight f4 [128, 6]
00000000: 1827 48bd ee01 003d 2308 933e 161d af3c
00000010: 2a5e 68bf 7908 c4bd 7241 a9bf 8a8e dabc
00000020: 3a1e 023d 1344 3abe b1b7 a8bb 5175 f9be
00000030: 3658 e53e 45c9 f4be fcc2 bbbe d1d5 e9be
00000040: 16c1 72bc db33 583d e068 86be 544b 14bf
00000050: da90 24be b0fa 1e3f 7e4f 96be 3f81 9abe
00000060: 2047 b93d 04fe c73d 69e4 463f 9604 18bd
00000070: 6ccf a6be 68f8 3bbe 1a72 813f 7fe1 88be
00000080: 6711 263f 8cd0 20bf fa58 edbe 9cae 64be
00000090: 3c24 a03d 84a4 e6be 4ed5 41bf 1a61 c6bc
000000a0: 8909 91be 6589 a53e 2e17 023f 21b3 933d
000000b0: ec03 8b3e 933a da3d 1385 763e ae92 c43e
000000c0: 2817 be3c 4165 cabe 2fb6 bb3d dc2c 543e
000000d0: 7fdb 99be 5431 20bf 0d27 b23e 8549 163f
000000e0: 8dd1 853e 1d50 ffbe cb3a 26bf 0651 8a3e
000000f0: b32d 43bf 2d86 543d 61c5 0a3e 3890 d43e
00000100: 0424 1a3f ae59 00be 8e40 7e3b 9659 223e
00000110: 1fdd b2bd d6d9 72be 7137 813d 4a37 043f
00000120: da22 e83e 2733 35be 768c ac3d 740c dd3e
00000130: 0b78 25bf f608 013f d3c9 013f 8c25 413f
00000140: 8668 ec3e e13a 153f 19fd 01be e0ac 2a3c
00000150: e930 75bd 741e 8d3e 1e40 5cbf ccec f5be
00000160: 1dc9 033f 6384 8fbe 3e90 813e cf48 80be
00000170: f77f c43e 2f77 373f 0331 103e c9c0 383c
00000180: 4463 2c3f 7daf 0fbf fa77 263f bc93 013e
00000190: db23 6abf d8e5 f0be 9599 36bf cb05 a7be
000001a0: ee9c a93e a00a cdbe 373d 803f f9d0 cf3e
000001b0: b25f e7bd fb97 93bd dbc8 4a3e 6bc0 f1be
000001c0: 4d2c 08bf ab4c 1fbf a3fb f73d b9d1 8e3c
000001d0: 1aca 09bf b1d7 1c3f 2d58 763e 5354 a3bd
000001e0: 0d4e 0fbf 6f1d 6d3e 67e4 493f b383 cb3e
000001f0: c7b9 6bbe e882 acbe 557b 033e f79d 28bd
00000200: 1140 593d b9eb 30bd 3190 103f 28bb e1bd
00000210: c529 b53b 8d48 42be d45b 0f3f 4b8c 6d3f
00000220: 4783 00be 5a04 bdbd fb33 e33e 52d7 903e
00000230: 5f5c 283e 26d9 713e aa88 12bf b6fd 69be
00000240: 103c 073f ee7f 763e 0a0f 6bbd 1754 dc3e
00000250: c90e f3bd 5f66 8abe e889 ebbd 6d2b 8abe
00000260: 8f0a 9ebe 205b 84be c6a1 d5bd e941 aa3d
00000270: 50c2 ca3e 4fe9 63bf cf04 0e3d e53f ffbd
00000280: c243 febe c0be c53e 460a 29bf 1cb1 5a3e
00000290: 5547 153d 9803 603f 0cfe 6dbe 9f74 e3be
000002a0: ef37 34be f175 763c e977 83be 9a61 32be
000002b0: fb03 e53d 0104 313e 406e 0c3d a4f9 e03e
000002c0: 91e6 38bf 658c 513f a2ec 86be 807e 733e
000002d0: 7255 8d3c 5c19 4ebd 2f0a 4abf f0ac 02bc
000002e0: c07b 2a3f 7249 0b3e 31ff 583e 4ed7 92be
000002f0: 5e74 973d 893e 4c3f 397f 36be 61a6 033e
00000300: 94a1 dbbe 563e 233f 0713 b5be 5518 85bd
00000310: 9114 a63c bd9e 37bf e1d2 e5be c1de 08bf
00000320: e121 3ebe 017d 983e 7748 babe c2c0 763d
00000330: 158e f8be ae82 5cbd c94f 683f 04db d13e
00000340: 3d90 5c3e fc8c ef3e 98dc bbbe 0237 1b3e
00000350: 9642 a43d c6dd 3c3f 5d4d 893d a1fa e73d
00000360: 3931 c5be 407e 1e3e 4a41 323e 480c d2bc
00000370: 611e 9f3b f074 5b3e b90d 4c3f c62c f93d
00000380: ce6d 3ebf 36e5 cd3e a045 8cbf b987 d93e
00000390: d78b a13e 49ee 793e d2c2 1ebf b0ab edbe
000003a0: 7642 dcbc 97d5 85be 12a9 ae3e 95e6 353e
000003b0: 888c 20bf 5595 2c3f 725a bb3e 08b5 27be
000003c0: 7b58 3cbd 4ff9 a2be 8e0d 3dbd 0791 57be
000003d0: ddfd 07bb 2378 09bd b301 793d 89ad eabe
000003e0: e9c9 6abe 830e 57be 57f7 5f3d 75eb 023e
000003f0: bef5 f7bc b6b6 3a3e 333f 5dbe b393 9e3e
-0.048865408 0.03125184 0.28717145 0.021376174 -0.9076868 -0.095719285 -1.3223097 -0.026679296
0.031767108 -0.18190031 -0.005148851 -0.48722318 0.44793862 -0.47809806 -0.366722 -0.4567094
-0.014816543 0.05278383 -0.26251888 -0.5792744 -0.16070881 0.6210127 -0.29357523 -0.30176732
0.09046769 0.097652465 0.77692276 -0.03711375 -0.32580125 -0.18356478 1.0112946 -0.2673454
0.64870304 -0.6281822 -0.46356946 -0.22332233 0.07819411 -0.4504739 -0.757161 -0.024216224
-0.28327587 0.32331386 0.5081662 0.072119005 0.2715143 0.106557034 0.24074201 0.38393158
0.023204401 -0.39530376 0.09165608 0.20720237 -0.30050275 -0.6257527 0.34795418 0.5870593
0.26136437 -0.4986581 -0.6493346 0.2701494 -0.76241606 0.051885772 0.13551857 0.4151628
0.60211205 -0.1253421 0.0038795802 0.15854487 -0.08733582 -0.2371591 0.06309403 0.51646864
0.4533909 -0.17695294 0.08425228 0.43173563 -0.64636296 0.504043 0.50698584 0.75447917
0.46173495 0.5829297 -0.12694205 0.010417193 -0.059861097 0.27562296 -0.86035335 -0.48032224
0.5147875 -0.2803069 0.2530536 -0.2505555 0.3837888 0.71666235 0.14081196 0.011276432
0.6733897 -0.5612715 0.6502682 0.12654012 -0.9146096 -0.47050357 -0.713281 -0.32621607
0.3312754 -0.4004717 1.0018681 0.4058912 -0.11297549 -0.07206722 0.19803183 -0.47217116
-0.531926 -0.6222636 0.12108543 0.017433988 -0.5382401 0.6126662 0.24057074 -0.07975068
-0.5597847 0.2315576 0.7886414 0.39748916 -0.23020087 -0.33693624 0.12840016 -0.041166272
0.053039614 -0.043193553 0.5647002 -0.11022025 0.005528661 -0.18972988 0.55999494 0.92792195
-0.12550078 -0.092293456 0.44375595 0.28289276 0.16441487 0.23617992 -0.5723978 -0.2285069
0.52826023 0.24072239 -0.05738739 0.43032905 -0.118680544 -0.27031228 -0.11500913 -0.26986256
-0.3086743 -0.25850773 -0.104312465 0.083133526 0.39601374 -0.89027876 0.034672555 -0.12463359
-0.4966107 0.38622093 -0.660313 0.21356624 0.03644498 0.87505484 -0.23241442 -0.44424912
-0.17599462 0.015042768 -0.25677422 -0.17420045 0.111824 0.17286684 0.03428483 0.4394046
-0.72226816 0.8185485 -0.26352412 0.23778725 0.017252658 -0.050317153 -0.7892179 -0.007975802
0.6659508 0.13602236 0.21191098 -0.2867989 0.07395242 0.7978292 -0.17821969 0.12856437
-0.42896712 0.6376699 -0.3536608 -0.064987816 0.020273479 -0.7172659 -0.4488745 -0.53464895
-0.18567611 0.2978287 -0.3638341 0.060242422 -0.485459 -0.053835563 0.9074674 0.40987408
0.21539398 0.4678725 -0.36691737 0.15157703 0.08020513 0.737759 0.06704209 0.113271005
-0.38514116 0.15477848 0.17407718 -0.025640622 0.0048559164 0.21431327 0.7970844 0.12166743
-0.743863 0.40213937 -1.0958748 0.4248636 0.31552002 0.24407305 -0.6201602 -0.4642005
-0.02688716 -0.2613952 0.34113365 0.17763741 -0.62714434 0.6741536 0.36592442 -0.16377652
-0.04598282 -0.31830832 -0.046155505 -0.21051417 -0.002075068 -0.033561837 0.060792636 -0.45835522
-0.22928585 -0.2100163 0.05467924 0.12785132 -0.030268546 0.18233761 -0.2160614 0.3097206

network_body._body_endoder.seq_layers.0.bias f4 [128]
00000000: f56f e537 1971 f6bb 7112 64bb d0a2 0cbc
00000010: f0f9 5abb 42cf dcbb 813f 89ba 797f 6dbb
00000020: 7ff3 cbbb a3be 73bb fd88 66ba 6ec7 b0ba
00000030: 1676 81bb 7704 23bb 1c98 553b bab5 f5bb
00000040: ece1 df3a 10a1 56bb 3051 d0bb 11e6 17bb
00000050: 17dc cbbb 1b5c bfbb 0f96 55bb d676 86ba
00000060: 8734 2bba 6372 85bb c733 a1bb 3898 95bb
00000070: f4fb 143a 9dda bc3b d5f2 91b9 1c1b d7ba
00000080: bc94 003b a5a4 993b e5a9 803b 1f3f 10ba
00000090: 2d44 193b c6b8 0dbb 0dd7 e6bb 4fb1 1cbb
000000a0: 014c 4f3a 070d fc3a 2a6a a63b ae3f fabb
000000b0: 446f 67bb 06cc 49bb a25f aa3b a118 57bb
000000c0: 756b 48bb a751 3ebb 20a5 a8ba 8040 ba3b
000000d0: f7d5 0ebb d648 76ba 5638 d3ba d065 3a3b
000000e0: ad46 b23b 05ab 5fbb 31b9 c93a 4242 4fba
000000f0: 517c 793b 5576 b8bb 6479 043b dd05 7db9
00000100: 32a9 063b 96d7 06bc 3edd 7cbb 727e 2abc
00000110: cfcb a6ba 12a6 2cbb bfa0 47bb adef a03a
00000120: f733 05bb 13cb 3abb 5a84 a2bb 6d54 b7bb
00000130: f133 cfbb d900 a6bb 6a55 debb 2f68 63bb
00000140: 9b78 02bc f01b 36bb 0586 fdbb 554a f13a
00000150: 60be 893a 5487 b5bb d6b9 7cba d333 cfbb
00000160: 6a8d dc3b edeb db3a 2b3d 77bb 435a 8b3b
00000170: 130e 763b e76b 4abb 6a70 e03a 98fb a13b
00000180: cff7 9f3b 6c26 573a ac74 cabb a54f cdbb
00000190: fa68 9b39 7987 3fba 07d9 04bb 4d80 a6bb
000001a0: 9ac8 19bb fde2 46bb 176d 883a c01b e0ba
000001b0: 9a68 86ba 157f ebba 2848 3bb9 1f24 133a
000001c0: e4a3 063b 691d 3a3b 0bfb 9cbb 075c 623b
000001d0: aba4 023b 1b6a b4bb 856e dcba e9a0 63bb
000001e0: f543 e0bb a40f 623b 2954 1bba 136e 43bb
000001f0: 8093 d53b 945c cfbb 6d13 cb3b 9946 4fbb
2.7351061e-05 -0.0075208065 -0.003480103 -0.008583739 -0.0033413135 -0.0067385742 -0.0010471196 -0.003623931
-0.0062240954 -0.0037192486 -0.00087942166 -0.0013487169 -0.0039508445 -0.0024874487 0.0032591885 -0.00749847
0.001708088 -0.003274981 -0.0063573346 -0.0023177902 -0.006221305 -0.0058398372 -0.0032590663 -0.0010258805
-0.00065309595 -0.004072474 -0.0049195024 -0.004565265 0.0005683296 0.0057633654 -0.0002783748 -0.0016411277
0.0019619903 0.0046888166 0.003926503 -0.000550257 0.0023386583 -0.0021625026 -0.007044679 -0.0023909395
0.0007907749 0.0019229957 0.0050785737 -0.0076369857 -0.0035314122 -0.0030791773 0.0051993886 -0.0032821076
-0.0030581628 -0.0029040368 -0.0012866594 0.0056839585 -0.0021795013 -0.00093950087 -0.0016114812 0.0028442033
0.005440554 -0.0034129035 0.0015390274 -0.00079062965 0.0038068483 -0.0056293407 0.0020213956 -0.00024130144
0.0020547626 -0.008230111 -0.003858402 -0.0104061235 -0.0012725535 -0.0026344103 -0.0030460802 0.001227846
-0.0020325163 -0.002850239 -0.004959625 -0.005594781 -0.0063233306 -0.005066019 -0.0067850845 -0.003469955
-0.007963325 -0.0027787648 -0.0077369236 0.0018408993 0.0010509007 -0.005539814 -0.0009640729 -0.0063233166
0.006730725 0.0016778685 -0.0037725668 0.0042527034 0.003754501 -0.0030887069 0.0017123346 0.0049433224
0.004881836 0.00082073244 -0.006178459 -0.006265598 0.00029642117 -0.0007306259 -0.002027096 -0.0050812126
-0.0023465515 -0.0030347698 0.0010408488 -0.0017098114 -0.0010254562 -0.001796695 -0.0001786059 0.00056129874
0.0020544464 0.0028398877 -0.004790669 0.0034539716 0.0019934576 -0.005505813 -0.0016817605 -0.003473336
-0.0068440386 0.0034494186 -0.00059253216 -0.0029820248 0.0065178275 -0.006328175 0.006197384 -0.0031627773

network_body._body_endoder.seq_layers.2.weight f4 [128, 128]
00000000: 3735 d03d f3b4 a7bd fb2a 8a3d de88 82bc
00000010: 85e4 2abd 6002 693d 06ac fbbc ffd0 713d
00000020: 1ac5 093e 6237 8f3c ed4a 153d ae4c afbc
00000030: c32a b43d 1285 d23b 0592 6d3d 644d 7bbc
00000040: 2351 3ebd 5351 b8bc 10a6 b4bd b175 a03d
00000050: 2e7d 20be e4bc eb3c 1dae 0bbe 5e7b 53bd
00000060: 12f4 cb3c 5c8d fe3d 05d8 07be e2a7 d83d
00000070: f639 913d fe9c 56be 0178 bb3c e200 5ebd
00000080: 87c3 063a e5a8 0cbe 93ca d33c 3362 1dbe
00000090: 44e5 0b3e 9432 573d f1ab d5bd e89f 183d
000000a0: 1d20 bbbd 9331 37bd 2d54 96bb d3d3 903d
000000b0: 8858 433d 7804 4c3d e3ad 25bd ae54 093d
000000c0: 975b 513d 0f74 9eba 8b51 8d3d f663 2e3b
000000d0: 5f8e 97bd 2f23 2d3d d4bb 4dbd c9dc 41bd
000000e0: 495b 0fbd 5f96 ba3b cbf3 043e b14c 573e
000000f0: 4f63 bebd cd5a a73c 5eae 70be ccc9 bdbd
00000100: 424a b93d 59be e73d 08bd d8bd 164c c23b
00000110: 3d19 533c b179 413e 64e2 9bbd 78b6 433e
00000120: e550 fbbd 88aa 65be c442 8bbc 68f1 b93d
00000130: 3c94 79bd 3542 ccbd 7008 063e ea0b 693d
00000140: f486 c33c e851 cc3d ae09 e13d 44b6 983c
00000150: 6f4b 253d eda5 0b3e 9a75 d1bb 3b5b 1abc
00000160: 42fd 98bd 76d7 033d 8a45 9a3d 41c0 22bd
00000170: 406b 1e3c d925 4ebd 08b2 913b 1e65 1e3e
00000180: 57b6 1b3e 720b 0cbe 8ac2 063d fc73 98bd
00000190: 816a dfbd ad20 57bd fda0 d4bd d27c ee3a
000001a0: 2551 403d 697a a63d fc1d ddbd b423 2f3e
000001b0: e19b debd e6d8 14be f40e 5b3e 0542 ab3d
000001c0: 6388 2f3e 0f61 363e 86ea 0f3d b03e 2dbe
000001d0: 796c 09be ea07 af3d e2a7 fbba 68ef 00be
000001e0: b694 3a3e 608c 573d d5c1 d83b 924f e63d
000001f0: 7ba9 95bd 7109 503d b03b a8bd 72e6 f7bc
00000200: 8c32 b93d 512c d1bd 63a5 f03b c2ee 29bd
00000210: 86e5 1f3e 0f73 89bd 9045 df3d 35b0 35be
00000220: a869 c13d fa4d 4fbd 787a a8bc cfae b9bd
00000230: 7910 db3c 8e37 7fbc 03b2 793d 452c 953d
00000240: bd51 f93d 2a7d 85bd cb1d fe3d 34c9 4bbd
00000250: dfd6 e33c 1e59 96bd 6b71 dcbd b8ef 7ebd
00000260: 026a 1ebd d111 663c 9739 cabd 9907 b43d
00000270: 88ee d6ba c828 0dbd 3a5a eb3d afa7 0c3e
00000280: 7655 093e fcb2 d8bc e0bd fa3d 095b 5fbc
00000290: 8db9 27bd 3f6b c23b 2007 81bc 9fc9 f13b
000002a0: e6b1 8e3d fc14 c2bd dc5d 063e 7a7e 003e
000002b0: f750 283e 4220 733d 86fe ac3d f3e3 b5bc
000002c0: febf 663d 08e5 3e3e 76b8 143e 217f 17be
000002d0: c0c6 48bd c0ce ca3c df96 953d d687 423e
000002e0: 19b6 bc3d 0170 173d acd2 b13d 5d8d 1d3e
000002f0: a3df 53bc 0cd0 32be 83b0 b4bd 7c67 47be
00000300: c300 873d 7d7d 35bb 39a8 cebc 313a 9e3d
00000310: d41d b63d fa08 993c c4d7 d5bd 4030 313d
00000320: 58cd 343d 6b99 5f3c 5d12 25ba 3e61 14bc
00000330: 187e 1abe ebca 833d 3493 d73d 313d 39bd
00000340: c7da a6bd 487c f13a e58d 93bb 9dd5 cfbc
00000350: bf76 703d 1732 0b3d 509a 203e 2df8 49be
00000360: e310 32be 7979 a43d 1113 a0bc 5d9a e1bd
00000370: 69be 8f3d a776 bc3c 49f9 1b3e 1023 a23d
00000380: 7ebf 1cbe 4f67 483d a2fe ddbd e61a f13d
00000390: 6541 543b b810 4d3e e5d0 823e 1e85 51bc
000003a0: e1dc 543d 414c 49be b409 79bd b729 d539
000003b0: e3cf 01be c52c 333c 6f9a cebd 7e9e 093e
000003c0: eff4 d2bd 9f11 0f3e 8467 9fbb 4d1f 7bbd
000003d0: 600e 113e 6b60 943d 84e5 18bd b9d0 6e3c
000003e0: 664f 043d 6a87 e6bd 55be 8f3d 0888 a13b
000003f0: 74f2 363e 2107 b6bd a82c 223e 7bed 38be
0.101664 -0.0818881 0.06746479 -0.015934404 -0.04172184 0.05688703 -0.030721676 0.059037205
0.13454095 0.017482463 0.036448408 -0.021398868 0.08797219 0.0064245546 0.058000583 -0.015338276
-0.046464097 -0.022499716 -0.088207364 0.07834948 -0.15672752 0.028776594 -0.13640638 -0.051631324
0.024896655 0.12429306 -0.13265999 0.10578896 0.07091133 -0.20958325 0.02288437 -0.05420006
0.000514083 -0.13736303 0.02585343 -0.15369491 0.13661677 0.05253847 -0.10433186 0.037261873
-0.091369845 -0.044725012 -0.0045876713 0.07071652 0.04769185 0.04980895 -0.040449034 0.033528022
0.051112738 -0.0012089032 0.06900319 0.0026609874 -0.07400202 0.04226988 -0.050227955 -0.047329698
-0.034999166 0.005694195 0.12983625 0.21025349 -0.09296285 0.02042904 -0.23504016 -0.09267005
0.09047367 0.11315603 -0.1058293 0.0059294803 0.012884435 0.18894078 -0.0761154 0.19112575
-0.12271289 -0.22428334 -0.01699961 0.09079248 -0.060932383 -0.099735655 0.13089156 0.056896128
0.023868062 0.0997656 0.109881744 0.018641599 0.040355142 0.13637514 -0.006392193 -0.009421165
-0.0747018 0.0321879 0.07532795 -0.03973413 0.009669125 -0.050329063 0.004446272 0.1546826
0.15206276 -0.13676241 0.03290037 -0.07443997 -0.10908986 -0.052521396 -0.103822686 0.0018195158
0.046952385 0.08128817 -0.10796735 0.17103463 -0.10869575 -0.14535865 0.21392423 0.083622016
0.17141871 0.17810462 0.03513577 -0.16918445 -0.13420285 0.08546431 -0.0019199813 -0.12591326
0.18220791 0.052624106 0.0066149035 0.112456456 -0.073077165 0.050790254 -0.082145095 -0.030261252
0.09042844 -0.10213531 0.0073439344 -0.041487463 0.156149 -0.06711399 0.1090194 -0.17742999
0.094439805 -0.050611474 -0.02056621 -0.09066545 0.026741253 -0.01557721 0.06096078 0.07283834
0.121737935 -0.06518014 0.12408026 -0.04975243 0.02781242 -0.073412165 -0.1076382 -0.062240332
-0.038675316 0.014042334 -0.09874266 0.08790512 -0.0016397992 -0.03446272 0.11491819 0.13735841
0.13411507 -0.026452534 0.12243247 -0.013632544 -0.04094844 0.005933195 -0.015750468 0.0073787714
0.06967525 -0.09476659 0.13121742 0.12548247 0.16437136 0.059356935 0.08446984 -0.022203421
0.05633544 0.18642056 0.14523491 -0.1479459 -0.049017668 0.02475679 0.07304167 0.1899713
0.0921442 0.03697205 0.086827606 0.15385957 -0.012931737 -0.17462176 -0.088227294 -0.1947307
0.06591942 -0.0027693205 -0.0252267 0.07725943 0.08892408 0.018681038 -0.10441545 0.043258905
0.044141144 0.013647418 -0.0006296987 -0.0090563875 -0.15087163 0.06435188 0.10526124 -0.045224372
-0.08147197 0.001842388 -0.004502999 -0.025370413 0.058706995 0.033983316 0.15683866 -0.19723578
-0.17389254 0.080309816 -0.019540342 -0.110157706 0.0701874 0.023005797 0.15231813 0.07916844
-0.15307423 0.048926648 -0.10839583 0.117727086 0.003238761 0.20025909 0.2555 -0.012788085
0.05196846 -0.19657995 -0.06080027 0.00040657606 -0.12676959 0.010935967 -0.100880496 0.13439366
-0.103006236 0.13971566 -0.004864635 -0.061309148 0.1416564 0.07244953 -0.03732826 0.014576131
0.032302283 -0.11256297 0.07018725 0.0049295463 0.17865926 -0.088880785 0.15837348 -0.18059342

network_body._body_endoder.seq_layers.2.bias f4 [128]
00000000: e2b6 0cba d66b 393a ff64 e337 8c9f a2bb
00000010: 31c8 6e3a f3d6 3cbb be90 e3bb d93c c5bb
00000020: d5de 3dbb 15f2 17bb 23be 01bc 8e2e 2bbb
00000030: 15d8 363b 851e 6fbb e9e6 44bb 6927 433a
00000040: f88a 0b3b 4eeb a1ba e1c1 743b 42bd cbba
00000050: f67a caba 96d2 c2bb 4d38 fcbb da6e 8c3a
00000060: 10ea 83bb 7944 4dbb 6ae5 543b af24 acba
00000070: bef8 8ebb 2757 5cbb a157 0a3a a2ca 69bb
00000080: e539 39bb 6913 c7bb bb98 3a3b 3163 9bbb
00000090: aa81 bcba 5e25 3d3a 3897 1fbb 73f8 87bc
000000a0: 427b 383b 7ffc 68bb 95e9 30bb 6020 54bb
000000b0: 4007 75ba f19e eaba f8d3 4a3a b602 e9ba
000000c0: 2842 2f3b a8a2 8fba d355 15bb 18d9 c4bb
000000d0: 0d9c 90b9 83cc 923b 8a4e 86ba 983f 63bb
000000e0: 100b b0bb 31c1 56bb 5807 d83b e6dc 61bb
000000f0: 9042 20bb 0585 d33a 91be a8bb 9349 edbb
00000100: 30d8 cebb 3227 91ba 5bf4 b83a 833d 053b
00000110: 321f 053b a6d0 0cbb 822c 393b 25d0 eaba
00000120: 61fd 2d3b 3b64 49bb 8480 d739 363a a1bb
00000130: 1a7e e1bb 11a1 5fba b8dc ee3b e767 51bb
00000140: a07d 92ba ded1 4eba 8da0 d3ba 34f0 c03a
00000150: 1dfe 59ba 6a46 a53b c31f ca3b 230c d83a
00000160: 16f8 6d3b a5b8 35bb ca84 b9bb 3051 e2ba
00000170: 9805 273a 70d3 49bb 85b5 04bb e1da 05bb
00000180: 887c 2a3a f20a 3b3b 12b9 adb7 e247 2638
00000190: bfe9 5539 f013 043c e6ce 63ba 0f2b 40ba
000001a0: d7de 96bb f064 013b 5cc7 d5ba 414d 04bb
000001b0: 1e73 3eba e6ae a73b 7dd7 6f39 4860 9539
000001c0: 1c1e beba 8c81 5bbb 49c9 7abb 97e4 8bbb
000001d0: ac3f cdbb b24c 8abb 57e1 51ba 4edf 9f3a
000001e0: 51c4 c2bb 1ca3 c83a 4e64 07bb 0ed3 b0ba
000001f0: f5f2 013b c653 c0ba 80e5 70bc 6307 9cba
-0.0005367828 0.0007073259 2.7107539e-05 -0.004962867 0.00091088103 -0.0028814643 -0.006944745 -0.0060192165
-0.002897193 -0.0023185064 -0.007918867 -0.0026120278 0.002789979 -0.0036486697 -0.003004486 0.0007444532
0.0021292549 -0.0012353451 0.0037347006 -0.0015544074 -0.0015448022 -0.005945514 -0.0076971413 0.0010714189
-0.004025705 -0.003132133 0.0032485374 -0.0013133491 -0.0043631485 -0.0033621283 0.000527734 -0.0035673757
-0.0028263268 -0.006075312 0.0028472382 -0.004742049 -0.0014381905 0.0007215346 -0.0024351608 -0.016597962
0.002814964 -0.003555089 -0.0026994694 -0.003236793 -0.00093470886 -0.0017900151 0.0007737274 -0.0017777297
0.0026742313 -0.001095851 -0.002278675 -0.006007325 -0.00027582087 0.004479946 -0.0010246795 -0.0034675356
-0.0053724125 -0.003276896 0.0065926723 -0.003446394 -0.0024453737 0.0016137665 -0.0051496704 -0.0072414367
-0.0063123927 -0.0011074303 0.001411091 0.0020330853 0.0020312783 -0.002148667 0.0028255288 -0.0017914815
0.002654873 -0.0030729908 0.00041103747 -0.0049202694 -0.0068814876 -0.00085307757 0.0072894953 -0.00319528
-0.0011176355 -0.0007889549 -0.001614587 0.0014720024 -0.0008315759 0.0050437944 0.006168337 0.0016483109
0.00363112 -0.0027728465 -0.0056615816 -0.0017266627 0.0006371378 -0.0030796193 -0.0020249796 -0.0020424651
0.0006503542 0.002854046 -2.0709387e-05 3.964443e-05 0.0002040034 0.008061394 -0.0008690193 -0.0007330635
-0.0046042013 0.0019744001 -0.0016310024 -0.0020187648 -0.00072650786 0.005117285 0.00022873092 0.0002849123
-0.0014504823 -0.0033493964 -0.0038266948 -0.0042691934 -0.006263694 -0.0042205686 -0.00080062955 0.0012197287
-0.005943813 0.00153074 -0.0020659151 -0.0013490634 0.0019828652 -0.0014673404 -0.014703155 -0.0011904057

action_model._continuous_distribution.log_sigma f4 [1, 3]
00000000: 5d7e 0abc 1c74 bcbc 6a8d f73b
-0.008452979 -0.023004584 0.0075546997

action_model._continuous_distribution.mu.weight f4 [3, 128]
00000000: fc27 51bb 7026 6f3c c57c 1b3c 5a69 e13b
00000010: 7828 293a 5250 babb ae96 cc3b 7a4d 84bc
00000020: 5a00 b43c 997b 563c a2d7 083c 347e a8bb
00000030: 2ab6 f1bb 1472 8b3c 8e70 e0bb 4b6b adbc
00000040: a001 3a3b 79c2 df3a 2a0e c0bc 56b8 543c
00000050: fbe4 3a3c 8d72 ba3c b9af dbba a4bf 20bc
00000060: 5ab3 f3bb 982f 183b 7955 4a3b 35a9 083c
00000070: d1f6 ec3c ecc2 193d 2472 f3bc 2563 873c
00000080: 7083 983c 7057 05bb 2696 fabc 9661 b539
00000090: 170c 593c 70e3 143d 404c b53c 9e36 923b
000000a0: 2a58 a6bb 56bb 2639 8c85 683c 39df 873a
000000b0: 9329 2abc 11c5 c43c d7ad 16bc 8d0b e13c
000000c0: 4f7e f9bc 8ada ba3b 03d1 7bbb 9d87 823c
000000d0: 2431 023b 36de 25bc 040c af3c 4325 ffbc
000000e0: af14 5a3c 88f5 ff3c 24fe bbbc ce4c e03c
000000f0: 3069 dd3c 3acc fabb c009 2d3a 2696 13bb
00000100: f490 063c 988f 4a3c f932 a0bc 8927 d8bc
00000110: b23b e4bb 34ba 68bb 565b a5bb 8ca0 01bd
00000120: 7525 09bd 23ee 563c e1b7 74bb 56ea 813c
00000130: 5e14 bfbb e076 c43b 9b19 62bc f564 4eba
00000140: d804 493b 7e3c 52ba 690c dabc 5f61 333b
00000150: 5bf6 e2bb c65a 113d 434f 91bc 33ff 53bc
00000160: 0fb5 83bb f70d 7c3a 2771 2d3c 3398 82b9
00000170: 024c e1bc b04c ef3c 9c45 f33c 6717 02bd
00000180: 1198 0e3c 1739 66bc f005 e63b f511 bfbc
00000190: a91a 82bb 7cad 52bd abca b2b8 f4aa be38
000001a0: 4cb5 a53c 397f 90bc 8839 243b 920d ccbb
000001b0: 7b97 8c3b 3c1c 94bc a21f 453c ea40 dd3c
000001c0: 715f 88bc e444 29bc 0f23 4a3d b994 9a3c
000001d0: 38d5 923b db34 a23b 619b 863c 8c2b 903c
000001e0: 3a86 9e3c 8fd5 2cbc 3453 9d3b 4d9d 23bd
000001f0: b8b5 363b 7cd6 8e3c 7c2c 003b 5245 c43c
00000200: 9b1b 52bb dee5 92bc e54a 19bd cabf 0a3c
00000210: d496 1ebc bd39 0b3c b0db 00ba 44dc 163d
00000220: c3ba 413c eee3 16bc 4b23 933a 6cd9 bf3c
00000230: 1ad8 0a3c 1fcd c1bc 9937 b03b 8fc8 fb3c
00000240: 0e4f 70bc b568 d7bc f026 05bc 7791 8d3b
00000250: 5fee 983c d410 453c bde6 ba3b 855d 36bc
00000260: 8173 6a3c 16d1 09ba eb46 fdbc 24fa 09bc
00000270: c885 513c 6775 0eba 0b98 bb3c 1507 4cbc
00000280: 9c5f cdba b0dd 0c3d ca7c 823c 5011 e83c
00000290: 359e 933c 0ef8 d7bc 0640 4d38 d528 c13b
000002a0: dc5e d3bb e790 303c f614 363c 5b3d 9cbc
000002b0: 9d87 893c ee0c aa3c 4ecd 93bb 6c48 233c
000002c0: 2a63 e6bb 9fd6 103c 6020 0c3d 7628 533c
000002d0: bb61 44bc a7ee b1bc 7b8b 213c 51f3 fb3c
000002e0: 41f8 10bc 41a9 dcbb 421c 97bb 8806 fcbb
000002f0: 3961 793c fcc1 9bbc 93f6 a43b b581 943b
00000300: 7d0a d13c df35 88bc e32e d838 4d89 eabc
00000310: 8dd6 73bc 1c21 dfbb 3b5a a9bb e501 1bba
00000320: fe5d 9f3a 169d 00ba d0d7 d93b b95b 7c3c
00000330: ec41 b93b 577a 01bc 742b 8bbb 53fa 963a
00000340: 3879 05bb c682 dabb 6835 71bb dc67 64ba
00000350: 45be a9bc 6b01 013d d828 98bc efa8 15bc
00000360: 59d4 2bbc 9337 493b ca4c 043b 1508 ebbb
00000370: a4da 83bc 1a0e 9cbc 14d8 9c3a c843 633c
00000380: 3e64 12bd 0e70 6f3b cc65 2fbc 337d 89bb
00000390: a9a9 51bb 167d 0ebc 126c d0bb 9506 a73b
000003a0: 4c0d 753c 07c7 17bc 5d7d b8bc b2b1 bb3c
000003b0: a1a2 8cbc 7a6e 23bc 819c f4bb ce13 a2bc
000003c0: ba05 a2bb 0593 20bc a45c 393c 5894 4dbb
000003d0: ab06 c1bb 3f02 56bb 65cb 96ba c31e c0bc
000003e0: 92d4 b6bc 9a98 86bc 5cc6 9b3b 91d6 adbc
000003f0: a456 5fbc d326 a53c 0229 553a 08f7 623c
-0.0031914702 0.014596567 0.009490197 0.006879014 0.00064528687 -0.0056858445 0.0062435484 -0.016150225
0.021972824 0.013090991 0.008352192 -0.0051419977 -0.007376452 0.01702217 -0.006849355 -0.021169325
0.0028382316 0.0017071507 -0.023444254 0.012983402 0.011407132 0.0227597 -0.0016760743 -0.009811316
-0.007437152 0.0023221727 0.00308737 0.008341123 0.028926285 0.037539408 -0.029717512 0.016526768
0.018617362 -0.0020346306 -0.030589174 0.00034595717 0.013247511 0.036349714 0.022131085 0.0044620773
-0.005076428 0.00015900782 0.014191996 0.0010366208 -0.010385889 0.02401975 -0.00919672 0.027471328
-0.030455736 0.0057023214 -0.0038424141 0.015933806 0.0019865716 -0.01012378 0.021368034 -0.031145697
0.013310595 0.031245008 -0.022948332 0.027380373 0.027027696 -0.0076537402 0.0006600879 -0.0022519915
0.00821327 0.012363337 -0.019555556 -0.02638604 -0.006965124 -0.0035511376 -0.0050462885 -0.03164725
-0.033482987 0.0131183 -0.0037341046 0.01585881 -0.0058312854 0.0059956163 -0.01380005 -0.000787332
0.0030673053 -0.00080198783 -0.026617246 0.002737127 -0.0069263405 0.03548696 -0.01773799 -0.012939262
-0.0040193866 0.0009615118 0.01058606 -0.0002490893 -0.027502064 0.029211372 0.029696278 -0.0317606
0.008703248 -0.014051697 0.007019751 -0.023323992 -0.0039704633 -0.05143498 -8.525451e-05 9.0917485e-05
0.02022805 -0.01763879 0.0025058705 -0.0062272036 0.004290519 -0.01807987 0.012031468 0.027008492
-0.016647073 -0.010331366 0.04934984 0.018869745 0.004480984 0.0049501485 0.016431512 0.01759889
0.019351114 -0.010548963 0.0048011784 -0.039944936 0.002787931 0.017436258 0.0019557765 0.023958836
-0.0032059911 -0.017931875 -0.03742494 0.008468578 -0.009679515 0.008497653 -0.00049155485 0.036831155
0.011824313 -0.009209616 0.0011225728 0.023419105 0.008474374 -0.02365738 0.0053777215 0.030735282
-0.014667286 -0.026295045 -0.008126959 0.0043203193 0.018668352 0.012027938 0.0057037757 -0.011130695
0.014309765 -0.00052572915 -0.030917605 -0.008421455 0.012788244 -0.00054343644 0.022899648 -0.01245286
-0.0015668753 0.034391105 0.015928645 0.028328568 0.018019775 -0.026363399 4.8935435e-05 0.00589476
-0.006450517 0.010776735 0.011113396 -0.019072225 0.016788298 0.020758118 -0.004510558 0.009965997
-0.0070308642 0.008840232 0.034210563 0.012888065 -0.011986191 -0.021720244 0.009859915 0.03075567
-0.008848251 -0.006734044 -0.004611523 -0.0076912083 0.015220934 -0.019013397 0.0050342767 0.004532064
0.025517697 -0.01662725 0.00010308416 -0.028629923 -0.014882696 -0.006809367 -0.005168227 -0.0005913063
0.0012158749 -0.000490622 0.0066480413 0.015402728 0.0056536105 -0.007902703 -0.0042471234 0.0011518694
-0.0020366441 -0.0066684214 -0.0036805514 -0.0008712986 -0.02072061 0.031495493 -0.018574163 -0.009134515
-0.010487639 0.003070329 0.0020187371 -0.0071725943 -0.016095467 -0.019049693 0.0011966252 0.013871141
-0.03574013 0.0036535296 -0.010705423 -0.004195833 -0.0031991994 -0.008696815 -0.0063605392 0.00509722
0.0149567835 -0.00926376 -0.022520715 0.02291188 -0.017167391 -0.00997507 -0.007464946 -0.019784834
-0.0049445303 -0.009800677 0.011313591 -0.0031368937 -0.0058906875 -0.0032655147 -0.0011504708 -0.023452168
-0.022318158 -0.016430188 0.004753871 -0.021220477 -0.013631497 0.020160114 0.0008131416 0.013852842

action_model._continuous_distribution.mu.bias f4 [3]
00000000: b655 37bb 3c95 79bb 6cb1 093a
-0.0027974672 -0.0038083335 0.0005252573

exp_avg f4 [128, 6]
00000000: 5795 8037 6027 9b35 3ae6 3837 32ee b136
00000010: 1dbb e835 b998 15b7 5e7b 353a 649d 73b8
00000020: e031 ad39 f412 cb37 08b6 b6b8 3028 17ba
00000030: 65ae 9ebb 5bb9 093a 0346 c9bb 54fb 29b8
00000040: 0796 4e3a a737 923b a8f1 57bb 2043 b139
00000050: 9564 62bb b427 7eb8 57f2 043a 7efe 363b
00000060: 110f e237 a784 c235 9fd8 9437 1bba 9536
00000070: 7be3 1136 d053 36b7 fe7a 4a38 94ed 3136
00000080: 0e66 2838 4d66 7fb6 2f72 8536 a7eb e3b7
00000090: 848e 8c3a ca9d 06b9 7a27 1c3b 833d 8738
000000a0: adec 49b9 c956 99ba daa8 2cb8 6d3e a335
000000b0: fd16 97b7 a41c 3137 9fdd f435 b852 6237
000000c0: a876 2037 294d ebb5 e99f 2e38 64f1 28b8
000000d0: e879 30b6 9918 de37 feb9 2638 d755 3936
000000e0: 5675 0f38 ed62 85b7 6500 8b36 c4f8 a9b7
000000f0: 3f98 a539 210f 40b8 04c5 543a 549a 07b8
00000100: 650b 90b8 888d afb9 4600 38ba 49e9 ac38
00000110: b46a a3ba 48d2 36b7 f6ae 0139 58bb 323a
00000120: f569 f2b8 4489 6c37 1f82 16b9 b44e 6c37
00000130: f466 b137 77bf d738 cf9f e037 71be f5b5
00000140: ed68 fc38 9ec0 97b8 d94e 38b6 7d41 9937
00000150: 8c38 f6ba c6a9 5239 4e63 caba 9f05 02b8
00000160: 55ff 9d39 039d d33a 9436 13b7 a09f 83b5
00000170: e1f1 1937 e5e3 b7b7 686f c5b5 0d45 ea36
00000180: 9d54 f1b7 c4a4 30b6 4bf7 0eb7 0b2b 3d37
00000190: 937b 84b6 e650 9537 f6ca f639 14a0 41b8
000001a0: 6a53 9739 9f15 b936 1238 91b8 bcbe cbb9
000001b0: 952c 55b7 d905 f1b5 fa07 ae37 1323 1837
000001c0: 62c4 34b6 228d b237 6807 f13a 2e75 57b9
000001d0: b87b 223b 07a9 a736 e397 a1b9 4892 daba
000001e0: c457 82b7 711a 3db5 c8b7 10b7 76a5 3db7
000001f0: ccd3 8db5 eb00 1237 f5b4 90b9 ddff fb37
00000200: 5726 b7b9 7555 af37 e5ff 3c38 aa61 5039
00000210: 369d 9f37 6005 5036 9d10 0eb7 7ffd 2738
00000220: 0a04 9c36 e7b7 f7b7 8c15 e937 8431 2636
00000230: 34e6 99b8 ee98 7cb8 444a 7936 3cbc cdb8
00000240: 1001 e8b7 6c5c fc34 e69d 03b9 acd9 0d37
00000250: 3845 3d35 4801 c337 e64d 533b fee2 b7b9
00000260: b9af 613b 8adc 8038 3cea 09ba 134b 3bbb
00000270: 8bc5 d8b8 a361 8536 6143 3ab7 83ac 1638
00000280: 7712 c836 a164 3738 8c29 813b 6284 d5b9
00000290: 571c 6b3b fe5b 7938 4323 20ba bc97 59bb
000002a0: cc87 ad39 9c7e bbb7 78bb 9cb8 6859 3ab8
000002b0: fe9e 0cb8 1448 10b9 5785 90bb 0698 fc39
000002c0: c2c4 bdbb 2638 b9b8 0472 3d3a a27c 863b
000002d0: 4ac5 f6ba 45ff 4d39 02b6 93ba bfbd 89b8
000002e0: 767f 9a39 813b cd3a 27a5 3eb8 fbe9 14b6
000002f0: f152 cab7 4910 2737 005f 5fb6 02df 0e38
00000300: df11 6f3b 0a43 cab9 4d7e 623b a0c5 a438
00000310: 45b2 17ba 24f5 48bb 7d35 073b cbc5 64b9
00000320: cf59 f43a 3bce 8937 5294 abb9 80c7 e9ba
00000330: 9a05 353b a4d1 a1b9 ef76 383b 22a1 6838
00000340: 77ba f2b9 af34 26bb 9951 05ba 841c 4d38
00000350: b06b e9b8 1f94 8737 58d5 9938 5c36 c739
00000360: ec9e 9a3a 7855 dfb8 adae 1239 57b8 b337
00000370: 1d80 27b9 0a90 66ba 0bba 18bb 14be 7a39
00000380: 0d49 ccba 45b8 a9b8 8b0e bc39 25fc fa3a
00000390: 7aa3 a43a f72d 05b9 9ecd 1139 898b 83b6
000003a0: e5c4 47b9 bed3 63ba 50cb 5abb b45a ba39
000003b0: a61c 47bb 5da3 c6b8 06c4 0b3a d277 3d3b
000003c0: 076e 0e3b c819 76b9 2504 303b 6b2e c637
000003d0: 5393 b8b9 c564 02bb ccdf 273a 7ac1 8bb8
000003e0: 34f1 4539 8e97 c437 34a2 d1b8 b26b 0fba
000003f0: 0817 8939 96b4 2cb7 b488 dbb9 f8e9 0a38
1.532833e-05 1.155986e-06 1.1020858e-05 5.3027406e-06 1.7339804e-06 -8.916651e-06 0.0006922985 -5.8082296e-05
0.0003303429 2.4208312e-05 -8.712342e-05 -0.0005766181 -0.004842567 0.00052537554 -0.0061423793 -4.0526807e-05
0.0007880632 0.0044622007 -0.0032950435 0.00033810083 -0.0034544815 -6.0595296e-05 0.0005071512 0.0027922685
2.6948315e-05 1.4492733e-06 1.7743847e-05 4.4622116e-06 2.1739095e-06 -1.08675595e-05 4.82751e-05 2.6513344e-06
4.0149367e-05 -3.8057508e-06 3.9770016e-06 -2.7170243e-05 0.0010723625 -0.00012838017 0.002382724 6.448759e-05
-0.00019257022 -0.0011698838 -4.116525e-05 1.2162615e-06 -1.8011307e-05 1.05566905e-05 1.8243917e-06 1.3489909e-05
9.56437e-06 -1.7531321e-06 4.163376e-05 -4.0279134e-05 -2.6297002e-06 2.6475916e-05 3.9750703e-05 2.7617114e-06
3.4203134e-05 -1.5900901e-05 4.1425687e-06 -2.026221e-05 0.00031584685 -4.5790457e-05 0.0008116516 -3.2330237e-05
-6.8685775e-05 -0.0003348405 -0.0007019084 8.245052e-05 -0.0012467713 -1.0897005e-05 0.00012367577 0.00068180775
-0.00011559195 1.4098656e-05 -0.00014353589 1.4085021e-05 2.1147986e-05 0.00010287662 2.6777298e-05 -1.8309348e-06
0.0001203584 -7.236119e-05 -2.7464032e-06 1.8269517e-05 -0.0018785163 0.00020090406 -0.0015440972 -3.099965e-05
0.0003013561 0.0016144816 -8.77459e-06 -9.806718e-07 9.1758275e-06 -2.1921422e-05 -1.4710067e-06 6.981782e-06
-2.876884e-05 -2.632195e-06 -8.521437e-06 1.12753e-05 -3.9482925e-06 1.7799855e-05 0.00047071994 -4.616387e-05
0.00028863113 5.5159467e-06 -6.924583e-05 -0.00038861285 -1.2706169e-05 -1.7957601e-06 2.074613e-05 9.068072e-06
-2.69364e-06 2.1284974e-05 0.0018389048 -0.0002054765 0.002479298 4.996665e-06 -0.00030821477 -0.0016675675
-1.5538077e-05 -7.0446464e-07 -8.625859e-06 -1.1303802e-05 -1.056696e-06 8.702492e-06 -0.00027600644 3.0040677e-05
-0.00034933045 2.090142e-05 4.5061013e-05 0.00019872808 1.9027484e-05 3.0997544e-06 -8.467728e-06 4.005199e-05
4.6496325e-06 -2.953033e-05 2.7785798e-05 2.476475e-06 -7.338487e-05 -6.022391e-05 3.714712e-06 -9.810223e-05
-2.765705e-05 4.7005904e-07 -0.00012551955 8.454936e-06 7.0508713e-07 2.3246408e-05 0.0032242476 -0.00035073602
0.0034437014 6.144594e-05 -0.0005261039 -0.0028578683 -0.00010336478 3.9750753e-06 -1.1102152e-05 3.592345e-05
5.962614e-06 4.3724318e-05 0.0039417204 -0.0004072516 0.0035875046 5.94519e-05 -0.000610877 -0.0033202013
0.00033098308 -2.2351094e-05 -7.4735784e-05 -4.442912e-05 -3.3526674e-05 -0.00013759761 -0.0044104266 0.00048178452
-0.0057912776 -8.831946e-05 0.00072267675 0.004104213 -0.0018827107 0.00019645419 -0.0011269453 -6.568012e-05
0.00029468135 0.0015657992 -4.545334e-05 -2.2189913e-06 -2.41189e-05 9.957767e-06 -3.3284887e-06 3.406313e-05
0.0036479158 -0.0003857839 0.0034560144 7.85694e-05 -0.0005786757 -0.0030663693 0.0020631247 -0.00021817458
0.0018642488 1.6427706e-05 -0.0003272617 -0.0017835945 0.0027621747 -0.00030864507 0.0028147062 5.5463177e-05
-0.00046296764 -0.0025360992 -0.00050857064 4.8902366e-05 -0.00011130364 1.6162228e-05 7.335347e-05 0.0003799674
0.001179663 -0.000106493884 0.00013988717 2.1424303e-05 -0.00015974087 -0.0008795267 -0.002330425 0.00023912668
-0.0015585736 -8.092871e-05 0.0003586899 0.0019148631 0.0012560927 -0.00012700992 0.00013904876 -3.9203483e-06
-0.00019051468 -0.0008690915 -0.0033385344 0.00035544264 -0.0030382066 -9.4718045e-05 0.0005331639 0.002891053
0.0021733062 -0.00023469992 0.002685794 2.3625054e-05 -0.0003520498 -0.001989649 0.0006403893 -6.664074e-05
0.00018877239 2.3435594e-05 -9.996109e-05 -0.0005471065 0.00026147836 -1.0294045e-05 -0.00041872787 3.3119664e-05

exp_avg_sq f4 [128, 6]
00000000: 8986 3138 c4b8 3035 5270 c538 6195 4e39
00000010: c5cf c635 9481 8d37 15bf 5137 9813 3734
00000020: 5a16 0238 bd50 7038 07f6 cd34 55fb 8a36
00000030: 1a6c a337 9778 de33 191c 9637 a5b9 3437
00000040: a847 7a34 73ee 5237 cdb0 df36 d4cf 9b33
00000050: cdcb 3e37 aff8 3537 d449 2f34 2f0e 9736
00000060: bfa8 0f38 d23b ba34 cb4b 9b38 1b05 0139
00000070: 3383 5135 a4ca 6137 2914 3a37 245c 7233
00000080: c7ce 2e37 10de f736 d553 0834 f429 0737
00000090: a18a a336 21f5 9933 b9c3 5d37 dbc5 c236
000000a0: d133 2d34 dfb4 0a37 8b68 2f37 21bc 1034
000000b0: 6e32 c037 ce94 2938 b5d3 a234 7e76 d736
000000c0: 7e49 a636 e551 bf33 e817 8937 25d9 9337
000000d0: 273c 5734 1780 1837 eb8b eb36 8566 0733
000000e0: 3554 7b36 cf33 9736 4a53 9833 f23c 9036
000000f0: af26 0c37 7147 dc33 b059 b137 f23a 0438
00000100: 60d0 7734 9160 8b36 857c 8836 d6c8 1733
00000110: a27f b736 261f 4d36 f7c1 aa33 bd88 8436
00000120: 2300 4437 a0d9 0534 f38e ce37 55cd 3738
00000130: db94 9634 11b3 a136 940e 7f37 f4cd 3b34
00000140: 0bd2 cf37 fa42 6138 ae47 d334 211e 0a37
00000150: ecc2 1136 763f da32 9442 bc36 3461 1d36
00000160: 6887 7533 fc2d 4336 3aec a237 e90d 9034
00000170: d489 2138 835c b038 8e0f 2235 00f6 e836
00000180: 5b39 d837 c484 bb34 419a 9338 2fb7 f938
00000190: 57f5 5235 6e89 2c37 aa10 5137 d2eb 0534
000001a0: 8cfb d237 d471 4738 3ea9 9634 b6ac 8036
000001b0: e54e 0e36 619f 8f32 8ce1 5836 21eb 0a36
000001c0: 4b93 2133 6f98 7636 9b4d 3a37 9963 3e34
000001d0: 781f 0e38 bce8 2038 f92f d634 0995 2d37
000001e0: 3c70 0038 c90e d634 df4f 9338 6759 0e39
000001f0: aed0 7035 6cc9 1c37 741b 7d37 cdb0 4634
00000200: 1652 d937 c022 d137 c486 df34 e43e 9c37
00000210: 3d87 7a37 1e80 3b34 f364 0b38 fc93 7138
00000220: 12f0 d234 8b42 e236 f4e2 0638 94d6 cb34
00000230: 12cd 6338 34b0 b538 6351 6535 7c89 9f37
00000240: 56b0 4338 60a5 2535 bdb4 d138 3ab2 4f39
00000250: 075a ba35 82f7 a837 1bf5 a636 8cc9 9a33
00000260: 3247 8137 64f3 8d36 c422 2e34 a2f2 0937
00000270: 6e54 d736 74ec f332 e249 9236 5746 8a36
00000280: 0535 8933 336b 9b36 2c11 9638 e010 b435
00000290: d36c 2839 9ddb c139 0893 4a36 19d1 f237
000002a0: 74bb 1636 0de4 1133 804e f036 0a10 5536
000002b0: 9720 a433 a6a9 a136 cfe5 3138 4a2f 0835
000002c0: 273a a138 3f1d e338 3f35 9935 e023 f137
000002d0: 526c cb36 ffca 9633 442d 8037 3187 0637
000002e0: 51a4 2934 40a0 2737 fd56 4d38 1e58 6835
000002f0: 30b9 f438 4296 8739 74b1 0236 58db 9037
00000300: 1026 2e37 2097 6c34 9f80 ed37 af73 0138
00000310: fc14 0535 ab1a 9837 6322 1d37 4da2 0234
00000320: e916 d837 3169 1e38 93f6 9234 86f2 a236
00000330: 6867 0d38 afc5 fc34 4608 8a38 0f4d 1239
00000340: 2b2f 8e35 16e9 6f37 9f3d 7f37 abf2 2834
00000350: e40e 1238 2346 6b38 0f11 be34 945b f036
00000360: 5874 0438 8096 2535 030a 7f38 10d5 3939
00000370: 3249 ba35 5aa2 0b37 e713 0b37 e989 9e33
00000380: e134 5d37 6bb5 e236 255b 3234 1c87 1137
00000390: c8cc c436 155a a933 914b ac37 edd8 fe36
000003a0: 4e85 3e34 591f 3337 c712 6b38 213f 8735
000003b0: bace bf38 fb47 8539 0627 1836 b757 b237
000003c0: 5b99 2437 2efe c033 d6e9 5537 f501 1537
000003d0: eb1d 5934 caf6 4e37 86f5 8536 0210 1b33
000003e0: 87a5 ea36 c73f 3736 0772 ae33 9d49 a836
000003f0: 4a18 2437 ee00 3334 78fc a537 7fe0 2538
4.2325384e-05 6.583398e-07 9.414613e-05 0.00019701339 1.4812618e-06 1.686885e-05 1.25018605e-05 1.7050331e-07
3.101523e-05 5.7295652e-05 3.8363234e-07 4.1419794e-06 1.9481453e-05 1.0359616e-07 1.7894477e-05 1.077206e-05
2.3309133e-07 1.2572494e-05 6.6665e-06 7.255554e-08 1.1372334e-05 1.0846342e-05 1.6325004e-07 4.501802e-06
3.4251014e-05 3.4688725e-07 7.4050935e-05 0.000123043 7.804949e-07 1.3458226e-05 1.1091158e-05 5.6428817e-08
1.0419352e-05 7.387025e-06 1.2696485e-07 8.056395e-06 4.873917e-06 7.1692064e-08 1.3218197e-05 5.804684e-06
1.6130731e-07 8.267553e-06 1.0455154e-05 1.3479486e-07 2.2911667e-05 4.0431325e-05 3.0328889e-07 6.4212936e-06
4.955741e-06 8.909027e-08 1.6342805e-05 1.7624881e-05 2.0045319e-07 9.089729e-06 7.0198344e-06 3.1525378e-08
3.745093e-06 4.506182e-06 7.093202e-08 4.2986294e-06 8.353657e-06 1.02575434e-07 2.1141808e-05 3.152615e-05
2.3079474e-07 4.1537646e-06 4.067612e-06 3.5340086e-08 5.4686834e-06 3.0565511e-06 7.951524e-08 3.949825e-06
1.1682542e-05 1.2465762e-07 2.462368e-05 4.382183e-05 2.8047984e-07 4.81902e-06 1.5202579e-05 1.7490657e-07
2.4774132e-05 5.3706557e-05 3.9353966e-07 8.232456e-06 2.1720143e-06 2.5407399e-08 5.6105873e-06 2.3451403e-06
5.716666e-08 2.908403e-06 1.9421906e-05 2.683221e-07 3.8513754e-05 8.4095656e-05 6.037234e-07 6.942777e-06
2.5775915e-05 3.4928064e-07 7.038238e-05 0.00011907366 7.858811e-07 1.0283997e-05 1.2461251e-05 1.2472381e-07
2.5151086e-05 4.7551308e-05 2.8062817e-07 3.8348035e-06 2.1205572e-06 1.6719868e-08 3.2317794e-06 2.0700465e-06
3.7619696e-08 3.6745585e-06 1.1104533e-05 1.7731362e-07 3.3884746e-05 3.8363723e-05 3.989551e-07 1.03463035e-05
3.0622105e-05 3.9871364e-07 7.0243834e-05 0.0001357548 8.9710636e-07 9.345222e-06 1.5086367e-05 1.8504507e-07
2.590664e-05 2.4930923e-05 4.1635042e-07 1.8625935e-05 1.4932649e-05 1.7462341e-07 3.32342e-05 5.75967e-05
3.9290222e-07 6.7430715e-06 3.2159456e-05 3.7967823e-07 5.4312004e-05 8.663573e-05 8.542758e-07 1.9018298e-05
4.665585e-05 6.170794e-07 9.999562e-05 0.00019807453 1.3884281e-06 2.0142415e-05 4.9757195e-06 7.207845e-08
1.5411151e-05 4.230462e-06 1.621766e-07 8.222329e-06 6.417328e-06 2.839645e-08 4.35974e-06 4.120909e-06
6.389204e-08 4.6318396e-06 7.155756e-05 1.3415956e-06 0.00016062269 0.00036975453 3.018593e-06 2.8946017e-05
2.2460854e-06 3.3967854e-08 7.161696e-06 3.174881e-06 7.642773e-08 4.8179236e-06 4.2414114e-05 5.073276e-07
7.68791e-05 0.00010829651 1.1414885e-06 2.8746144e-05 6.0624816e-06 7.021844e-08 1.5279868e-05 8.018499e-06
1.579913e-07 9.991287e-06 4.8956823e-05 8.655496e-07 0.000116693205 0.00025861157 1.94748e-06 1.7268278e-05
1.038007e-05 2.2034192e-07 2.8312495e-05 3.0863735e-05 4.95769e-07 1.813223e-05 9.3659355e-06 1.2166238e-07
2.5759875e-05 3.7768103e-05 2.7374026e-07 4.8562097e-06 3.3713324e-05 4.7082492e-07 6.581894e-05 0.00013952352
1.0593552e-06 1.429978e-05 1.5213532e-05 1.5734501e-07 3.482298e-05 5.6093686e-05 3.540267e-07 7.1632185e-06
3.1579606e-05 6.1686296e-07 6.080606e-05 0.00017722347 1.3879383e-06 8.322846e-06 8.2896795e-06 7.382534e-08
1.3184938e-05 6.7564447e-06 1.66107e-07 8.674131e-06 5.865095e-06 7.8860616e-08 2.0539186e-05 7.5950434e-06
1.7743625e-07 1.067653e-05 5.6045854e-05 1.0076657e-06 9.1460955e-05 0.00025421366 2.267248e-06 2.1260099e-05
9.810868e-06 8.986932e-08 1.27502335e-05 8.881548e-06 2.0220584e-07 1.2336017e-05 3.9922916e-06 3.610331e-08
6.9930134e-06 2.7306248e-06 8.123248e-08 5.01536e-06 9.780817e-06 1.6671012e-07 1.9787098e-05 3.9548144e-05

exp_avg f4 [128]
00000000: 6527 1b35 629d f3b7 5bb9 8939 2143 3139
00000010: a784 4235 92ed b135 c79d 86b8 703e 2335
00000020: 2d4d 6bb5 d855 b935 2d0f c0b7 47e9 2c38
00000030: 4089 ec36 66be 75b5 c5a9 d238 9d9f 03b5
00000040: c4a4 b0b5 1ba0 c1b7 d905 71b5 3075 d7b8
00000050: 5e1a bdb4 e0ff 7b37 6205 d035 8631 a635
00000060: 365c 7c34 fde2 37b9 a461 0536 5a84 55b9
00000070: a87e 3bb7 0598 7c39 4bff cd38 07ea 94b5
00000080: 0543 4ab9 c9c5 e4b8 a5d1 21b9 7e1c cd37
00000090: 7a55 5fb8 12be fa38 f02d 85b8 b45a 3a39
000000a0: c219 f6b8 7ec1 0bb8 a8b4 acb6 b97f 2e35
000000b0: d0b9 ed38 886e 4938 a7e7 a0b4 24b4 9639
000000c0: f0f2 99b5 0084 7834 eaf5 a1b8 d670 2ab6
000000d0: d24f 1eb9 e807 1739 5ab1 d238 ac1e 5db4
000000e0: b6f9 9638 e2c5 4335 0337 0839 9995 e7b6
000000f0: 319c 53b5 e97f 2cb5 060c 9e38 27c6 87b8
00000100: 62b7 82b9 2356 7d35 b846 3a38 c62b 29b9
00000110: c65e c938 f487 08b8 30c6 bdb8 5614 1db9
00000120: 2437 08b9 8ada 69b9 cc68 22b7 a864 0f38
00000130: 43ee 74b9 c151 2c35 d893 beb7 ceac 1ab5
00000140: 4b06 9eb4 867d b934 0e56 e438 f6e1 6c34
00000150: b094 ceb2 461c 9a35 03b4 6b39 736e b5b7
00000160: b8b6 4436 7dfa 1438 b11e a235 4ac8 cf35
00000170: 4d59 68b9 86b8 f7b8 9e42 5634 3285 d838
00000180: 1e08 b938 8741 45b6 e739 7435 03e5 3539
00000190: 63a7 72b6 ec5b 88b8 65c7 9fb9 9c17 b036
000001a0: 72b5 4b39 2daa 3537 1ccc 9c39 7362 60b9
000001b0: 817b e6b9 790c 13b6 a6b2 f3b5 4ae4 d4b3
000001c0: bf4a bab4 cf01 04b6 c51b 58b9 04d5 18b7
000001d0: 8c76 a5b8 6675 2037 523b a9b7 36a6 d3b4
000001e0: 76f7 2db6 727b d4b6 d18c 7eb4 2e02 87b8
000001f0: ed65 8739 f4e0 42b9 cf84 2239 0c0d 06b9
5.7799326e-07 -2.9041144e-05 0.00026268777 0.00016905043 7.2463666e-07 1.325667e-06 -6.419006e-05 6.081309e-07
-8.765663e-07 1.3808558e-06 -2.289525e-05 4.1225252e-05 7.049326e-06 -9.154668e-07 0.00010045202 -4.903357e-07
-1.3160975e-06 -2.3081948e-05 -8.9788006e-07 -0.00010273827 -3.5223178e-07 1.5020341e-05 1.5498774e-06 1.2382377e-06
2.3502875e-07 -0.000175368 1.9875379e-06 -0.00020362568 -1.1175558e-05 0.00024089224 9.822714e-05 -1.109497e-06
-0.00019289188 -0.000109087276 -0.00015432255 2.4451172e-05 -5.324695e-05 0.00011956332 -6.350491e-05 0.00017772132
-0.00011734992 -3.3320386e-05 -5.1470306e-06 6.500591e-07 0.00011335651 4.8025075e-05 -2.9970872e-07 0.00028744445
-1.1470092e-06 2.3144821e-07 -7.722883e-05 -2.5397653e-06 -0.0001509779 0.00014403427 0.000100466146 -2.0593387e-07
7.19907e-05 7.293112e-07 0.00012990464 -6.901752e-06 -7.8830914e-07 -6.4261127e-07 7.536267e-05 -6.4742104e-05
-0.00024932163 9.437519e-07 4.4411718e-05 -0.00016133403 9.60208e-05 -3.2551543e-05 -9.0491376e-05 -0.00014980262
-0.00012990512 -0.00022302024 -9.680352e-06 3.41876e-05 -0.00023358413 6.419396e-07 -2.271861e-05 -5.7620935e-07
-2.9434372e-07 3.4550266e-07 0.00010887916 2.2061417e-07 -2.4049172e-08 1.1482123e-06 0.00022478406 -2.1628313e-05
2.9312632e-06 3.5519235e-05 1.2078873e-06 1.5480994e-06 -0.00022158511 -0.00011812248 1.9954538e-07 0.00010324492
8.8229994e-05 -2.939343e-06 9.098134e-07 0.00017346819 -3.6158242e-06 -6.502107e-05 -0.00030475404 5.2479572e-06
0.00019427182 1.0828063e-05 0.00029906712 -0.0002139898 -0.00043961036 -2.1911967e-06 -1.8156904e-06 -9.913545e-08
-3.4699585e-07 -1.9670586e-06 -0.0002060971 -9.109503e-06 -7.889894e-05 9.564077e-06 -2.0173993e-05 -3.9422747e-07
-2.592305e-06 -6.3324633e-06 -2.3706822e-07 -6.4377076e-05 0.00025825147 -0.00018585083 0.00015498999 -0.00012784096

exp_avg_sq f4 [128]
00000000: c1b8 3034 9713 3733 9478 de32 d7cf 9b32
00000010: d43b ba33 215c 7232 1ef5 9932 23bc 1033
00000020: e351 bf32 8566 0732 7347 dc32 d6c8 1732
00000030: a0d9 0533 f6cd 3b33 7a3f da31 e80d 9033
00000040: c484 bb33 d3eb 0533 609f 8f31 9763 3e33
00000050: c90e d633 cab0 4633 1d80 3b33 97d6 cb33
00000060: 66a5 2534 8dc9 9a32 75ec f331 e110 b434
00000070: 0fe4 1132 472f 0834 01cb 9632 2158 6834
00000080: 1b97 6c33 4fa2 0233 a7c5 fc33 acf2 2833
00000090: 7c96 2534 ea89 9e32 125a a932 1f3f 8734
000000a0: 2dfe c032 0110 1b32 f000 3333 42b3 0c32
000000b0: 0ccd 8632 ffa3 5032 0f0d 8a33 c9ad 5633
000000c0: 0faf f232 fe5d c331 6636 3034 b18a 1433
000000d0: 00a7 0a32 fa1e 5a33 8252 dd32 eef3 9334
000000e0: 944c 8333 b144 ae33 d467 9d33 69c3 2d32
000000f0: 07d2 9d33 0086 1f33 6fe4 0932 1a7c 6b33
00000100: 8f21 c233 b54c 0432 1f24 cb32 a6d9 3832
00000110: 54ce 3933 86d9 e932 157e 8633 1ba9 8b32
00000120: 1ea5 7f33 e6a9 de32 5dd2 1e33 5477 3c32
00000130: db8d a533 723e 5832 1212 7532 e1ff 1032
00000140: 1b5f 2332 09ad 8d32 3d3c 7733 5edf d332
00000150: cb33 c433 7bcd 8332 3a55 f132 639f ee32
00000160: 3bd3 0e32 cc80 bf32 e623 f932 a3fc e632
00000170: 2e6a 7b33 4373 5632 1286 9a32 b1b2 0d33
00000180: 7d1b 8a32 d8c9 5d32 395e 3433 019d 9333
00000190: fa66 6032 43a4 fc32 7fad 9633 9ed3 5b33
000001a0: 9573 2c34 652c 7831 12fe e032 bc46 fe32
000001b0: 0d11 b733 4f9c a031 182d 0b33 730b 3933
000001c0: 486d 4033 bd07 f032 16ca 1633 f635 b532
000001d0: 4827 9133 f1fc f434 84ee 5b33 0ea6 6a33
000001e0: 6066 b234 5454 0c32 7ed7 f832 2b10 8233
000001f0: fc53 8e33 2aea d132 337f 3c32 0f4e cd33
1.645849e-07 4.2625825e-08 2.5899034e-08 1.813889e-08 8.6721826e-08 1.4107202e-08 1.792301e-08 3.3698722e-08
2.2272564e-08 7.8813445e-09 2.5643862e-08 8.835022e-09 3.1164404e-08 4.372665e-08 6.3518515e-09 6.708052e-08
8.732016e-08 3.1180956e-08 4.1799666e-09 4.43284e-08 9.967841e-08 4.6261256e-08 4.365585e-08 9.491958e-08
1.5426994e-07 1.8019614e-08 7.099113e-09 3.3539894e-07 8.491965e-09 1.2683186e-07 1.7554614e-08 2.1638745e-07
5.508546e-08 3.0415602e-08 1.1770617e-07 3.9336257e-08 1.5421568e-07 1.8456337e-08 1.9715149e-08 2.5191636e-07
2.2467328e-08 9.025826e-09 4.1677538e-08 8.189831e-09 1.5692898e-08 1.2144482e-08 6.428501e-08 4.9983814e-08
2.8252115e-08 5.6859326e-09 1.6411067e-07 3.4585074e-08 8.070629e-09 5.0785253e-08 2.5765306e-08 2.7558366e-07
6.114092e-08 8.115001e-08 7.3297684e-08 1.01143565e-08 7.349086e-08 3.7141945e-08 8.026389e-09 5.482807e-08
9.039933e-08 7.700852e-09 2.3648736e-08 1.0759697e-08 4.3261323e-08 2.7223688e-08 6.2627954e-08 1.625863e-08
5.9521987e-08 2.5921462e-08 3.6978566e-08 1.0970172e-08 7.7092146e-08 1.2587053e-08 1.4264986e-08 8.440083e-09
9.509473e-09 1.6493248e-08 5.7563955e-08 2.4665209e-08 9.136382e-08 1.5343849e-08 2.809485e-08 2.7779327e-08
8.313516e-09 2.2293897e-08 2.900374e-08 2.689041e-08 5.853706e-08 1.2482647e-08 1.7988928e-08 3.299164e-08
1.6077815e-08 1.2909787e-08 4.199521e-08 6.87378e-08 1.306193e-08 2.9411359e-08 7.016478e-08 5.1182376e-08
1.6060797e-07 3.6113985e-09 2.619257e-08 2.9601658e-08 8.524703e-08 4.674383e-09 3.2404472e-08 4.3084082e-08
4.4802874e-08 2.7943196e-08 3.5108393e-08 2.1095712e-08 6.759234e-08 4.563258e-07 5.120684e-08 5.4633396e-08
3.322957e-07 8.1682465e-09 2.8968994e-08 6.056538e-08 6.627667e-08 2.4437288e-08 1.0971962e-08 9.560255e-08
