results/Test30/Move To Target.onnx (onnx, 75612 bytes, 7 tensors)

network_body._body_endoder.seq_layers.0.weight f4 [128, 6]
0.71630746 -0.5635368 -0.27260906 -0.18863115 0.7332462 -0.18854241 0.07415025 -0.06996231
0.058301356 -0.94782495 -0.30058932 -0.08599189 0.036904413 -0.060820144 -0.57989174 -0.14515905
-0.13837239 -0.08683859 0.12764013 0.15520564 0.358861 0.12712796 0.53853077 -0.00037473376
-0.2768513 0.10506667 0.41554335 0.059245247 -0.13259414 0.2656636 0.013165318 -0.009254164
-0.054485172 0.20607688 -0.23832265 0.009734827 0.05744406 0.10394389 0.62927604 0.33136678
-0.10931223 0.40558445 0.21438965 0.25782698 -0.7600402 -0.20965423 -0.2890819 -0.11023261
0.26002732 0.6369138 0.03479632 -0.12495958 -0.34990144 0.5086721 1.2853923 0.47946036
0.18154131 -0.5013331 0.34182486 0.11378331 -0.11169207 -0.42331088 -0.4733055 -0.20568636
0.003148055 0.33138308 -0.7269191 -0.015816187 0.22952932 0.49610165 -0.016735679 0.3307688
-0.41890416 -0.038715526 0.39375693 0.47176772 0.019913638 -0.81168324 -1.0950398 -0.18437317
0.1827705 0.55176455 -0.03433591 -0.044621907 0.25164452 -0.3149888 -0.014851735 0.08711052
-0.50825393 0.057787366 0.19561361 -0.066500425 -0.008832441 0.06999049 -0.3600552 -0.68979704
-0.33763072 0.1327971 -0.3901001 -0.32040718 -0.070041835 0.15378591 0.32177442 0.63832253
-0.65965086 -0.26283318 0.4448609 -0.13580585 0.28489304 0.7489854 0.8860623 -0.14098246
0.24514002 0.93119764 -0.12778935 0.4998377 0.4197221 -0.057711978 -0.22897074 -0.08530523
-0.17129567 -0.28659278 0.15746862 -0.3211963 0.30959716 -0.077904664 -0.26496848 -0.06993542
0.2413017 0.2849611 -0.65662634 0.20903437 0.1999325 0.21465555 0.06816213 -0.108602434
-0.110784814 -0.26183861 0.16736278 -0.4769077 0.51351565 -0.9231266 0.39459497 0.4426452
0.69717735 -0.761663 -0.15292937 -0.60524035 0.18110792 -0.034321383 -0.07943246 -0.36340046
-0.15517826 -0.31412774 -0.14725314 0.24953552 -0.25319487 0.27859002 -0.0491046 0.13109443
-0.07294667 0.034321506 -0.31994647 -0.096083686 0.16931 0.025568381 0.03204953 -0.18478936
0.1092628 0.19413148 0.9121355 0.37147072 0.6323145 0.017918674 0.97774607 0.7951705
-0.060649537 0.2605599 0.9332616 0.35182136 -0.98867035 -0.037776005 0.684771 0.46875423
0.27538502 0.54718184 -0.2677437 -0.028698988 -0.5541298 0.4274287 0.24083957 0.37630203
-0.593506 -0.037590705 0.1254585 0.81168675 -0.050618496 -0.38815075 -0.20952547 0.7535381
0.30351058 -0.3979172 -0.008288095 0.27624363 0.09141237 -0.603463 0.40368927 -0.003933929
-0.4883723 -0.42222273 -0.3656725 0.31800923 0.121044174 0.22072175 0.06428317 0.057242066
0.15939096 -0.7769544 -0.05067911 -0.53070056 0.8597769 0.5274448 -0.019051787 0.36511362
-0.7154865 0.174074 -0.8164093 0.98050255 -0.3413433 -0.52144045 0.07203829 -0.25928798
-0.5273063 -0.046490777 -0.104466535 0.16981873 -0.3261407 0.5328823 0.35208333 -0.016607529
0.16156466 0.42969447 -0.2677136 0.29657593 0.30598533 0.09932426 0.30006158 0.6064571
0.36033633 -0.32808727 0.6313451 -0.24651203 -0.45269877 0.04033353 -0.23292573 -0.4129922
00000000: ed5f 373f f343 10bf 6a93 8bbe 8628 41be
00000010: 06b6 3b3f 4311 41be 16dc 973d 6648 8fbd
00000020: 67cd 6e3d a8a4 72bf d8e6 99be 841c b0bd
00000030: 1529 173d 8b1e 79bd c973 14bf 93a4 14be
00000040: 7eb1 0dbe 6ed8 b1bd 18b4 023e 3aee 1e3e
00000050: a1bc b73e d52d 023e 27dd 093f ea77 c4b9
00000060: 74bf 8dbe 322d d73d 19c2 d43e 25ab 723d
00000070: c2c6 07be 0f05 883e 59b3 573c c79e 17bc
00000080: d82b 5fbd d105 533e da0a 74be d37e 1f3c
00000090: 764a 6b3d 89e0 d43d 3c18 213f e8a8 a93e
000000a0: 17df dfbd c4a8 cf3e f688 5b3e e601 843e
000000b0: ff91 42bf 99af 56be 8b02 94be a2c1 e1bd
000000c0: 4d22 853e c80c 233f 9686 0e3d cfea ffbd
000000d0: 4826 b3be 5638 023f bc87 a43f d47b f53e
000000e0: f7e5 393e 5e57 00bf ab03 af3e 3907 e93d
000000f0: d0be e4bd 34bc d8be 1955 f2be 729f 52be
00000100: 994f 4e3b 0bab a93e 5f17 3abf f390 81bc
00000110: bc09 6b3e 0901 fe3e 4319 89bc 875a a93e
00000120: 9b7a d6be 2c94 1ebd 829a c93e 8a8b f13e
00000130: ed21 a33c 79ca 4fbf 442a 8cbf 52cc 3cbe
00000140: 3128 3b3e 7140 0d3f d0a3 0cbd 76c5 36bd
00000150: 8dd7 803e 3646 a1be b154 73bc 0067 b23d
00000160: ee1c 02bf 72b2 6c3d ef4e 483e 6031 88bd
00000170: f1b5 10bc 2d57 8f3d 2859 b8be 8a96 30bf
00000180: efdd acbe f7fb 073e 33bb c7be 690c a4be
00000190: 1872 8fbd 0e7a 1d3e 9ebf a43e 1b69 233f
000001a0: e1de 28bf 1292 86be cfc4 e33e b010 0bbe
000001b0: 80dd 913e 82bd 3f3f fbd4 623f b55d 10be
000001c0: fc05 7b3e f862 6e3f 36db 02be baea ff3e
000001d0: d1e5 d63e 6563 6cbd 4e77 6abe 82b4 aebd
000001e0: 2268 2fbe 4abc 92be 743f 213e d773 a4be
000001f0: 8583 9e3e 7b8c 9fbd f3a9 87be 4d3a 8fbd
00000200: cb17 773e 6ce6 913e aa18 28bf 1b0d 563e
00000210: 1bbb 4c3e aace 5b3e 9698 8b3d f46a debd
00000220: 26e3 e2bd b60f 86be 2661 2b3e 3f2d f4be
00000230: c375 033f 0652 6cbf 5a08 ca3e 64a2 e23e
00000240: 377a 323f 59fc 42bf 8499 1cbe 08f1 1abf
00000250: 5b74 393e 9494 0cbd 7cad a2bd a00f babe
00000260: 0de7 1ebe 5ad5 a0be 87c9 16be 3d86 7f3e
00000270: c2a2 81be 5aa3 8e3e e821 49bd 9e3d 063e
00000280: 1065 95bd b594 0c3d 06d0 a3be 86c7 c4bd
00000290: 9a5f 2d3e c874 d13c 5e46 033d 6c39 3dbe
000002a0: 2dc5 df3d 67ca 463e b681 693f 6931 be3e
000002b0: 5ddf 213f 2fca 923c 914d 7a3f 4b90 4b3f
000002c0: a66b 78bd 1b68 853e 3bea 6e3f ee21 b43e
000002d0: 8019 7dbf 03bb 1abd 274d 2f3f 8e00 f03e
000002e0: 44ff 8c3e 1c14 0c3f b415 89be 241a ebbc
000002f0: 73db 0dbf efd7 da3e a69e 763e a9aa c03e
00000300: 02f0 17bf b6f8 19bd 3178 003e b4ca 4f3f
00000310: 5755 4fbd b2bb c6be d88d 56be dfe7 403f
00000320: bd65 9b3e cebb cbbe caca 07bc ce6f 8d3e
00000330: 6936 bb3d 8d7c 1abf 5cb0 ce3e 30e8 80bb
00000340: ef0b fabe 942d d8be 6d39 bbbe 1bd2 a23e
00000350: 02e6 f73d e204 623e e5a6 833d a876 6a3d
00000360: 6237 233e 7ce6 46bf e694 4fbd fedb 07bf
00000370: 571a 5c3f 9f06 073f 7e12 9cbc 2cf0 ba3e
00000380: 202a 37bf 7440 323e 3300 51bf 3702 7b3f
00000390: 8dc4 aebe 1f7d 05bf d088 933d 65c1 84be
000003a0: 8cfd 06bf 1d6d 3ebd 8df2 d5bd f6e4 2d3e
000003b0: eafb a6be f96a 083f 4444 b43e 830c 88bc
000003c0: 3571 253e ea00 dc3e c211 89be cdd8 973e
000003d0: 1caa 9c3e 856a cb3d aca1 993e c640 1b3f
000003e0: 017e b83e 0efb a7be d59f 213f a66d 7cbe
000003f0: 22c8 e7be c634 253d 1584 6ebe b773 d3be

network_body._body_endoder.seq_layers.0.bias f4 [128]
0.009422031 -0.008134542 -0.008736703 0.004137162 -0.0042407573 -0.0045653526 0.0008793398 0.0076973443
0.005883608 -0.0062031806 -0.018135441 -0.008679321 -0.0060136695 -0.0035746326 0.005375492 -0.0027357822
-0.004141533 0.00773825 -0.009007109 -0.001147426 0.00524835 -0.0006213989 2.5319929e-05 0.017053772
0.010304431 0.004722401 0.00050994504 0.0011330277 8.676931e-05 0.0049028117 0.0022734904 -0.006707851
-0.0033564642 0.008097501 -0.001490716 0.0026902829 -0.0057261265 -0.009286427 0.0015683614 0.025337566
-0.0093461955 -0.017868798 -0.00016589348 0.005744472 7.0036476e-05 0.0042785457 -0.002941382 -0.00042196707
0.0028172913 -0.00880941 -0.0011537222 0.0008267666 -0.00615377 0.0033601944 -0.0002128458 -0.0035269524
0.0064150365 0.011244954 -0.0117203845 -0.0030497084 -0.007018842 -0.016927104 0.028788999 -0.0003158434
0.0053677005 -0.011399692 -0.0002568027 -0.0028358265 -0.0018655466 -0.008247881 0.0040565 -0.0027854687
-0.016242638 0.0006465358 0.007679082 -0.0074559557 -0.0101170065 0.0017699086 0.00068607123 -0.012610672
0.01991428 0.007656619 0.0036443542 0.012293561 -0.00317924 0.0017044609 -0.0011634361 -0.0038465685
-0.001402411 0.006880958 0.0014691013 -0.0004439209 -0.0064796107 -0.003905024 0.006983963 -0.008188167
-0.0041413605 -0.0014767785 0.005971402 0.00796261 0.0017629629 0.0019095658 0.011900707 -0.0062011364
-3.5970916e-05 0.0019786176 0.0009909063 5.4106007e-05 0.0020959275 0.0031308834 0.00036028883 -0.008986942
0.0066749407 -0.009274979 -0.0031453676 -0.015235702 -0.015759954 -0.0018808485 0.0016623522 -0.0053543276
0.000464939 0.0074237813 -0.008275545 0.009618162 -0.0034779098 0.009976939 -0.020049632 0.0044789235
00000000: dd5e 1a3c be46 05bc 6324 0fbc 0891 873b
00000010: 0df6 8abb f498 95bb 7f83 663a 013a fc3b
00000020: 48cb c03b 0d44 cbbb c790 94bc b633 0ebc
00000030: 510e c5bb 6244 6abb e524 b03b cf4a 33bb
00000040: b2b5 87bb 2591 fd3b 8e92 13bc 3a65 96ba
00000050: 5afa ab3b 60e5 22ba 2266 d437 5ab4 8b3c
00000060: ebd3 283c 5fbe 9a3b d5ad 053a 1a82 943a
00000070: ebf7 b538 c4a7 a03b d7fe 143b 88cd dbbb
00000080: 20f8 5bbb 61ab 043c 2164 c3ba 754f 303b
00000090: 3ba2 bbbb 1926 18bc 7a91 cd3a ba90 cf3c
000000a0: c920 19bc 9661 92bc b1f3 2db9 203c bc3b
000000b0: 8ce0 9238 0b33 8c3b 33c4 40bb 763b ddb9
000000c0: 4ea2 383b 5855 10bc 7e38 97ba 5ebb 583a
000000d0: 90a5 c9bb b536 5c3b 5c2f 5fb9 7124 67bb
000000e0: 3a35 d23b c13c 383c db06 40bc 9edd 47bb
000000f0: 50fe e5bb b6aa 8abc e8d6 eb3c c997 a5b9
00000100: 89e3 af3b c6c5 3abc 7aa3 86b9 46d9 39bb
00000110: 5b85 f4ba 1f22 07bc 63ec 843b 698c 36bb
00000120: 480f 85bc 487c 293a cfa0 fb3b 1751 f4bb
00000130: cdc1 25bc 47fc e73a 76d9 333a fe9c 4ebc
00000140: 4623 a33c 60e4 fa3b 1ed6 6e3b ef6a 493c
00000150: cc5a 50bb 3868 df3a 707e 98ba b616 7cbb
00000160: 1bd1 b7ba a979 e13b dc8e c03a 0ebe e8b9
00000170: ea52 d4bb 6eeb 7fbb bad9 e43b a927 06bc
00000180: 40b4 87bb 7790 c1ba c0ab c33b 9b75 023c
00000190: 3813 e73a 654a fa3a 2ffb 423c e732 cbbb
000001a0: 7adf 16b8 b2ab 013b 4ce1 813a e2ef 6238
000001b0: d45b 093b 822f 4d3b 26e5 bc39 f73d 13bc
000001c0: 76b9 da3b 15f6 17bc 8322 4ebb 2a9f 79bc
000001d0: 051b 81bc ce86 f6ba 49e3 d93a 5b73 afbb
000001e0: 0ec3 f339 3143 f33b 2796 07bc 7f95 1d3c
000001f0: a5ed 63bb 5176 233c 203f a4bc efc3 923b

network_body._body_endoder.seq_layers.2.weight f4 [128, 128]
-0.029711356 0.044683907 0.09428804 0.024778659 -0.1122663 -0.0073924507 -0.030140562 -0.117302954
-0.076707944 0.023438068 0.06262217 -0.059910677 -0.097883 -0.055687375 0.11862066 -0.11425721
-0.061421808 -0.008658679 0.0228998 -0.04205501 0.05744361 0.14358364 -0.04341009 0.049868573
0.08568784 0.009370806 0.088722974 -0.11176356 -0.0031255723 -0.10149396 -0.09551851 0.12319137
0.05171726 -0.002631706 -0.13441648 0.04415234 0.06028012 0.02040068 -0.012647626 0.0865222
-0.0041198265 -0.06259646 -0.0357662 -0.10707952 0.07775464 -0.058091562 -0.028115848 0.037366927
0.078976385 0.053647775 -0.12997164 -0.073188804 0.08255882 -0.26599875 -0.06437014 -0.028815998
0.020292694 0.05126131 0.21437845 -0.023749948 0.05755501 0.1597122 -0.09491285 -0.011774558
-0.11416478 -0.022074854 -0.065388195 0.078113995 -0.061745867 -0.08860973 -0.0026700739 0.037759632
-0.022301784 0.044957276 0.04237213 0.0022100261 0.15499307 0.012780397 -0.06644053 -0.07539192
-0.01919049 0.016232695 0.008119564 -0.028451603 0.035642527 0.07246496 -0.049376506 0.104754336
0.047970682 0.05732573 0.00041684255 0.007929829 0.035671066 0.008417603 -0.049843207 0.046346847
-0.20364355 0.19785443 0.079368226 0.25553903 0.14635424 0.07998393 -0.20338114 0.15938646
-0.10417764 0.13860628 -0.039215073 0.023487166 -0.044278104 -0.008361293 0.08344581 -0.05660608
0.08072696 -0.029220596 0.09195285 -0.03134482 0.10070586 -0.100428306 -0.03429306 0.012065654
-0.02672085 -0.055725496 -0.012319239 0.23960397 0.035573408 -0.15865631 -0.16143632 0.0885869
0.08715808 -0.072413035 -0.007730763 0.03870711 0.0664332 0.039176516 0.11920595 -0.05532711
0.035924416 0.0014287998 0.0002995476 0.12554207 -0.08499783 0.009938047 -0.05832068 0.11497427
-0.069937386 0.007247884 0.23318894 -0.020126889 0.1486964 0.11947041 0.062688224 0.045287073
0.15834622 -0.05659365 -0.07156411 0.059914462 -0.023794463 0.029928504 0.10515406 0.10185056
0.046516605 0.09491352 0.003501929 0.033780456 0.003928739 0.03841769 0.06405405 -0.010965754
0.12612462 -0.015210468 0.1257042 0.1618272 0.20199439 0.10414997 0.069417976 -0.044983238
0.0021597007 0.00492445 -0.033223055 -0.019992974 0.035774235 0.21467876 0.19774333 0.09122384
-0.03654683 0.07635072 -0.09015377 0.0891637 -0.23853543 0.1200169 -0.20978443 -0.036410898
0.026945677 -0.07272368 -0.061992887 -0.16074708 -0.022781644 -0.0029794923 -0.01129406 -0.024229428
-0.018079666 0.07900231 -0.08311829 -0.07741045 -0.02999847 0.06489782 -0.009304308 -0.120006435
0.08980807 -0.13963719 0.14219074 0.013054393 -0.01041237 0.17654502 -0.054267004 0.0026151452
-0.0875691 -0.028156267 -0.08289939 -0.054456893 0.10155068 0.097230926 -0.020436233 0.09053244
0.18319336 0.04030434 0.104911365 -0.068249226 0.07617641 0.0070166197 -0.046830956 -0.053420518
-0.08467305 0.11515898 0.08344227 -0.0733341 -0.1333083 0.014897234 -0.07800554 -0.11925595
0.0077177533 0.12558185 0.0023913982 0.08304306 0.057805616 -0.030473199 0.121423535 -0.021866918
-0.22725591 -0.06067038 0.027965134 -0.15261672 0.0012539317 -0.05620345 0.044684347 -0.0050238455
00000000: 3b65 f3bc 7906 373d 171a c13d 9dfc ca3c
00000010: e0eb e5bd 5f3c f2bb 57e9 f6bc 883c f0bd
00000020: 0e19 9dbd 3101 c03c 0d40 803d e664 75bd
00000030: e276 c8bd 7218 64bd 63ef f23d afff e9bd
00000040: 6f95 7bbd 22dd 0dbc 5d98 bb3c e041 2cbd
00000050: fe49 6b3d 9707 133e c7ce 31bd fd42 4c3d
00000060: 1b7d af3d 0288 193c 64b4 b53d 4be4 e4bd
00000070: 67d6 4cbb 11dc cfbd 359f c3bd c24b fc3d
00000080: 7ad5 533d b378 2cbb 79a4 09be 16d9 343d
00000090: 49e8 763d 541f a73c fd37 4fbc 8d32 b13d
000000a0: 9cff 86bb 9332 80bd 947f 12bd 824c dbbd
000000b0: d33d 9f3d 6bf1 6dbd 3553 e6bc 100e 193d
000000c0: 5fbe a13d c5bd 5b3d 4917 05be 03e4 95bd
000000d0: 9914 a93d fd30 88be 7ed4 83bd 870f ecbc
000000e0: dd3c a63c 61f7 513d 0686 5b3e 408f c2bc
000000f0: cdbe 6b3d 988b 233e ab61 c2bd 13ea 40bc
00000100: 39cf e9bd 53d6 b4bc 3fea 85bd 3bfa 9f3d
00000110: 3ce9 7cbd 0579 b5bd 68fc 2ebb d8a9 1a3d
00000120: 3bb2 b6bc 1f25 383d 668e 2d3d 16d6 103b
00000130: 81b6 1e3e df64 513c f911 88bd 1467 9abd
00000140: 6035 9dbc 6efa 843c eb07 053c 5613 e9bc
00000150: e6fd 113d 8268 943d 053f 4abd 7189 d63d
00000160: e87c 443d 62ce 6a3d a98b da39 1dec 013c
00000170: d31b 123d fce9 093c 6428 4cbd 31d6 3d3d
00000180: ef87 50be 5a9a 4a3e cf8b a23d 03d6 823e
00000190: e3dd 153e 9dce a33d 2543 50be 3436 233e
000001a0: 165b d5bd ceee 0d3e fc9f 20bd 2868 c03c
000001b0: f55c 35bd cefd 08bc a3e5 aa3d c7db 67bd
000001c0: 2d54 a53d 0860 efbc c751 bc3d 6d63 00bd
000001d0: e03e ce3d 5bad cdbd e176 0cbd 05af 453c
000001e0: afe5 dabc 6b40 64bd a2d6 49bc be5a 753e
000001f0: 6cb5 113d cd76 22be 904f 25be 0c6d b53d
00000200: ef7f b23d 494d 94bd 5752 fdbb 598b 1e3d
00000210: 210e 883d 8e77 203d 4022 f43d ae9e 62bd
00000220: 7b25 133d 9146 bb3a 990c 9d39 1a8e 003e
00000230: 5813 aebd 31d3 223c aae1 6ebd a177 eb3d
00000240: 553b 8fbd a87f ed3b 15c9 6e3e 25e1 a4bc
00000250: de43 183e e7ac f43d af62 803d f07e 393d
00000260: 8325 223e bece 67bd 3490 92bd de68 753d
00000270: 9bec c2bc 9f2c f53c 035b d73d 0797 d03d
00000280: 3288 3e3d 0562 c23d 9f80 653b 605d 0a3d
00000290: a7bc 803b de5b 1d3d c52e 833d b5a9 33bc
000002a0: d026 013e 5435 79bc 9ab8 003e 08b6 253e
000002b0: 9ed7 4e3e 944c d53d 032b 8e3d 5840 38bd
000002c0: c489 0d3b 485d a13b e614 08bd 4ec8 a3bc
000002d0: 0188 123d c0d4 5b3e 3a7d 4a3e 91d3 ba3d
000002e0: 21b2 15bd c45d 9c3d 8aa2 b8bd 759b b63d
000002f0: a242 74be 6ccb f53d bbd1 56be 9823 15bd
00000300: 2ebd dc3c 27f0 94bd 41ec 7dbd e29a 24be
00000310: 92a0 babc 9643 43bb b90a 39bc cb7c c6bc
00000320: cf1b 94bc f7cb a13d ec39 aabd 5f89 9ebd
00000330: 5abf f5bc 26e9 843d 1971 18bc efc5 f5bd
00000340: 4bed b73d 0dfd 0ebe 739a 113e 18e2 553c
00000350: a598 2abc 38c8 343e 1447 5ebd db62 2b3b
00000360: 6e57 b3bd f9a7 e6bc 28c7 a9bd 310e 5fbd
00000370: cef9 cf3d 0221 c73d e369 a7bc 1269 b93d
00000380: 0a97 3b3e 2a16 253d c5db d63d 40c6 8bbd
00000390: 6102 9c3d aceb e53b d1d1 3fbd 79cf 5abd
000003a0: 1069 adbd 79d8 eb3d c8e3 aa3d 3030 96bd
000003b0: f981 08be 8713 743c 5ec1 9fbd 773c f4bd
000003c0: 35e5 fc3b 8798 003e 01b9 1c3b 7b12 aa3d
000003d0: 95c5 6c3d eea2 f9bc e7ac f83d 4022 b3bc
000003e0: c6b5 68be 8181 78bd 2317 e53c 8f47 1cbe
000003f0: f75a a43a 9735 66bd ef06 373d 129f a4bb

network_body._body_endoder.seq_layers.2.bias f4 [128]
6.300985e-06 0.0033122739 0.007914374 0.0027962977 -0.0010277447 7.666045e-06 0.009008151 -0.007360402
-0.001724367 0.006076011 -0.00047664373 -0.0007926064 -0.0029197931 0.006833594 -0.006053327 -0.005506032
0.00031578765 -0.0031132333 -0.0017094157 0.003785814 -0.005214631 0.0019397247 -0.0017414852 -0.006929644
-0.0031972784 -0.00062409404 -0.0073717027 -0.0065360083 -0.0054133525 -0.013039667 -0.0016965182 0.0028182957
0.00053249 -0.0013426883 -0.0022797699 -0.00013694573 -0.0013344317 0.0063549676 -0.0054776366 -0.0035423485
0.005289483 -0.0010375446 -0.0041478234 -0.009345479 0.007129182 0.00379269 0.0065897387 -0.003979181
0.0025133383 -0.0023064697 0.011104069 -0.007959066 0.009714429 -0.002353516 0.0017425779 0.00047299985
0.0002589573 0.0063549983 0.001606416 0.0012307847 0.009727049 -0.007466437 0.0034442672 -0.014363457
0.00015684734 -0.0025715176 0.0014657244 0.027623309 -0.0023172607 0.00936976 0.0017108687 0.00021471997
-0.01022941 0.008583449 -0.0037583944 0.0072775716 -0.005600074 0.004723511 0.009525833 -0.0017633806
0.0057155653 -0.0016684402 -0.0017965811 0.008622448 0.005977643 0.0016787528 -0.015952364 0.0018017705
0.0015191463 1.4167583e-05 0.007076096 0.0068555367 -0.012258918 0.0025062351 0.0027076083 0.02068944
0.0038099259 -0.0012007826 0.004945918 -0.006131432 -0.0052930037 -0.012666332 -0.0024826059 -0.007494648
0.0075934683 0.0009648524 0.005226099 0.0003356865 -0.00283029 0.018074242 0.00938249 -0.009158749
-0.0051264777 -0.008198029 0.00018207336 0.017870566 0.0044444217 -0.010151691 -0.011261957 0.00619295
-0.0013275881 0.0024137788 -0.010286404 0.0037336599 0.008849683 0.0021945979 -0.009943691 0.0052296463
00000000: 0d6d d336 bc12 593b 4aab 013c 1742 373b
00000010: 64b5 86ba 6a9d 0037 ec96 133c 872f f1bb
00000020: 2804 e2ba 4619 c73b 0ae6 f9b9 eac6 4fba
00000030: 005a 3fbb 57ec df3b fd5a c6bb f26b b4bb
00000040: 4d90 a539 6307 4cbb 790e e0ba 6b1b 783b
00000050: 7fdf aabb 5c3e fe3a 8c42 e4ba 1112 e3bb
00000060: 6e89 51bb 3e9a 23ba 538e f1bb 032c d6bb
00000070: 7e62 b1bb 54a4 55bc b45d deba 28b3 383b
00000080: cd96 0b3a 25fd afba 3168 15bb 1799 0fb9
00000090: 19e8 aeba 553d d03b bf7d b3bb bf26 68bb
000000a0: 6653 ad3b 38fe 87ba 77ea 87bb c81d 19bc
000000b0: ea9b e93b c88e 783b bcee d73b ca63 82bb
000000c0: d2b6 243b 2428 17bb d7ed 353c be66 02bc
000000d0: 4529 1f3c 723d 1abb 3667 e43a f7fc f739
000000e0: a9c4 8739 973d d03b 608e d23a 4852 a13a
000000f0: 335e 1f3c 03a9 f4bb 37b9 613b b554 6bbc
00000100: 6377 2439 e886 28bb 8d1d c03a 474a e23c
00000110: 2fdd 17bb 9f83 193c 3a3f e03a 7426 6139
00000120: 4199 27bc 98a1 0c3c 654f 76bb b278 ee3b
00000130: d380 b7bb afc7 9a3b 3d12 1c3c 3c21 e7ba
00000140: a349 bb3b 90af daba 427b ebba 2b45 0d3c
00000150: 1be0 c33b 9909 dc3a 88ae 82bc 6329 ec3a
00000160: 171e c73a 4eb1 6d37 98de e73b 69a4 e03b
00000170: a1d9 48bc a63f 243b 2172 313b e77c a93c
00000180: f3af 793b 9463 9dba 5e11 a23b 2eea c8bb
00000190: ef70 adbb 7286 4fbc 37b3 22bb aa95 f5bb
000001a0: a1d2 f83b 26ee 7c3a b23f ab3b 14ff af39
000001b0: 637c 39bb 6f10 943c 04b9 193c 940e 16bc
000001c0: 03fc a7bb 0751 06bc f2ea 3e39 4b65 923c
000001d0: 83a2 913b 4753 26bc 1284 38bc 3bee ca3b
000001e0: 7702 aeba 7d30 1e3b 4e88 28bc 6bb0 743b
000001f0: 43fe 103c 3ed3 0f3b ddea 22bc 745d ab3b

action_model._continuous_distribution.log_sigma f4 [1, 3]
0.040729288 0.025921587 0.01628776
00000000: c1d3 263d 8259 d43c e96d 853c

action_model._continuous_distribution.mu.weight f4 [3, 128]
-0.020514203 0.0066004945 0.0046369736 0.01402912 -0.0035421427 0.0046826093 -0.015399521 0.0089463275
-0.012451167 0.023914445 -0.01171366 -0.0022680294 0.01519972 -0.03866164 -0.019342298 0.023011101
0.009805046 0.0013253505 -0.009742033 0.0428283 0.005840664 -0.017900841 0.012586695 0.0071060383
-0.005254918 0.003924409 -0.015387695 -0.020153597 -0.011031781 -0.007414811 -0.010069442 0.01709463
0.0092542255 0.007266343 0.015874587 -0.014412165 0.022487842 -0.008095781 -0.018004928 0.027954299
-0.015362059 0.0021437544 0.032121394 0.008250055 0.0030541923 -0.018094087 -0.021324897 0.03231086
0.016337676 -0.009973058 0.003965098 0.013456131 -0.0016724386 0.0047936765 -0.012800817 0.01570229
-0.014358938 0.016751742 0.03357571 0.010621071 -0.027039133 0.0050456235 -0.035410203 0.0027372523
0.0012731495 0.00062294636 -0.012781181 -0.0600487 0.008734748 0.008970444 -0.00064289174 -0.019498838
0.0052502067 -0.015762381 -0.008129836 0.002615246 0.005377338 -0.03151936 -0.05006497 0.0047926195
-0.0019986045 -0.008438296 0.0011122493 -0.001210082 -0.007245591 0.039770506 -0.0014020214 -0.006630621
-0.017129112 0.008103874 0.0075980127 0.0600998 0.012555867 -0.0144879185 0.008015247 -0.009879851
-0.016301991 -0.038451068 -0.011331238 -0.004583203 -0.016265457 -0.00080133235 0.011525765 -0.015821083
0.061652746 0.0063515184 0.019145181 -0.008596913 -0.010921093 0.0010902466 0.006636113 -0.008893791
0.033659928 0.012390742 -0.01607038 -0.011474007 -0.016542125 -0.03110465 -0.005515282 0.01426855
-0.027246213 -0.015206504 0.0093736835 -0.01251038 -0.0050906357 0.034737363 0.0250826 0.020207705
0.006537463 -0.013412119 -0.01243436 -0.00086726615 0.010497713 0.028410796 -0.01798275 0.0073215696
0.01781254 0.018692072 0.020677034 -0.024111517 -0.0033413514 -0.030502241 0.012599061 -0.0019234136
0.011605775 0.010822126 -0.007497867 -0.0035046462 0.013485208 0.0018990132 -0.003791339 0.017260905
-0.006063779 -0.003735497 0.023792075 0.03023408 0.0047246227 0.02713217 0.02211841 -0.007111509
0.017599568 -0.01202675 -0.03146314 -0.0017353102 0.0060276496 -0.0144985 -0.001986775 0.023445552
-0.0015231476 -0.015191955 -0.012765469 0.0126879895 -0.009433335 0.0017696661 -0.0074017793 -0.01534656
-0.0108594 0.0015621608 -0.017064126 -0.0061132438 -0.025337234 0.014548366 -0.017598191 0.028539473
0.02386081 -0.019516744 -0.015884917 0.008728041 0.012009994 -0.0011428886 0.011667198 0.009252873
0.016568894 0.005830027 -0.00054555916 -0.029334094 -0.024671678 -0.02787441 -0.013573868 0.03675335
0.027648797 -0.02525301 0.014471622 -0.016165616 -0.014560507 -0.02980623 0.044073585 0.03554484
-0.009557395 -0.016307257 0.0307427 -0.014353367 0.055684175 -0.0052609066 0.0057608113 0.033920385
0.0032450259 -0.0073304363 -0.010562147 0.018000422 0.0038468016 0.012048639 0.0017016935 -0.041120492
-0.0022151512 0.013091244 -0.00623694 0.020776317 0.017668717 0.027723031 0.0009266868 0.0187453
0.045612846 0.00022692267 -0.011438379 -0.003244514 -0.00932452 -0.02224191 -0.0358674 0.0064629912
0.014063282 -0.030966932 0.00191533 -0.006906746 -0.008156815 0.048590723 0.022137774 -0.016763033
0.013216642 0.021908421 0.019923827 -0.024016023 -0.010146925 0.024300203 0.012092854 0.01572212
00000000: 670d a8bc f648 d83b c1f1 973b 65da 653c
00000010: 4b23 68bb 9370 993b 464e 7cbc 9e93 123c
00000020: fbff 4bbc 3ae8 c33c a7ea 3fbc 38a3 14bb
00000030: 3f08 793c ab5b 1ebd bd73 9ebc c781 bc3c
00000040: 58a5 203c 62b7 ad3a 0c9d 1fbc ba6c 2f3d
00000050: 0a63 bf3b c9a4 92bc 6d38 4e3c c5d9 e83b
00000060: 7231 acbb 5498 803b ac1c 7cbc 2819 a5bc
00000070: a5be 34bc f1f7 f2bb 4dfa 24bc 0a0a 8c3c
00000080: 099f 173c 811a ee3b 6c0b 823c 0021 6cbc
00000090: 6c38 b83c 2ba4 04bc 127f 93bc 6a00 e53c
000000a0: 25b1 7bbc 3b7e 0c3b b991 033d 3d2b 073c
000000b0: d828 483b 0d3a 94bc 8db1 aebc 6458 043d
000000c0: 97d6 853c 0966 23bc a7ed 813b 1b77 5c3c
000000d0: ba35 dbba 4614 9d3b 85ba 51bc 17a2 803c
000000e0: c041 6bbc f33a 893c af86 093d 0004 2e3c
000000f0: 2c81 ddbc c255 a53b 4a0a 11bd 7963 333b
00000100: cfdf a63a 394d 233a 2968 51bc a0f5 75bd
00000110: 301c 0f3c c5f8 123c bc87 28ba 07bc 9fbc
00000120: ed09 ac3b 1c20 81bc 0133 05bc 8c64 2b3b
00000130: 6134 b03b 721a 01bd ed10 4dbd 680b 9d3b
00000140: 05fb 02bb c740 0abc e5c8 913a 9d9b 9eba
00000150: 6c6c edbb 66e6 223d 08c4 b7ba ae45 d9bb
00000160: 5a52 8cbc 1cc6 043c c0f8 f83b 352b 763d
00000170: 20b7 4d3c bc5e 6dbc 6252 033c 19df 21bc
00000180: c18b 85bc de7e 1dbd a8a6 39bc b12e 96bb
00000190: 233f 85bc 8110 52ba 90d6 3c3c 379b 81bc
000001a0: 9787 7c3d 6620 d03b 5bd6 9c3c 11da 0cbc
000001b0: 62ee 32bc 9be6 8e3a c073 d93b 43b7 11bc
000001c0: fede 093d 8a02 4b3c 08a6 83bc 79fd 3bbc
000001d0: 5a83 87bc 2ecf febc 8ab9 b4bb a3c6 693c
000001e0: 7333 dfbc b324 79bc 1494 193c 56f8 4cbc
000001f0: 59cf a6bb c448 0e3d 067a cd3c a18a a53c
00000200: 3738 d63b 81be 5bbc 7cb9 4bbc 3f59 63ba
00000210: 9afe 2b3c c2bd e83c 8f50 93bc c7e9 ef3b
00000220: 9beb 913c 1e20 993c e262 a93c 8485 c5bc
00000230: 93fa 5abb d6df f9bc 4b6c 4e3c 0d1b fcba
00000240: 2626 3e3c 494f 313c abb0 f5bb 35ae 65bb
00000250: 10f1 5c3c 4fe8 f83a 1d78 78bb be66 8d3c
00000260: aab2 c6bb 3dcf 74bb 99e7 c23c 76ad f73c
00000270: 02d1 9a3b 4944 de3c ab31 b53c a907 e9bb
00000280: f82c 903c d80b 45bc 7edf 00bd 5973 e3ba
00000290: 9783 c53b 1e8b 6dbc 8e34 02bb e310 c03c
000002a0: 5aa4 c7ba ade7 78bc 4226 51bc 49e1 4f3c
000002b0: 468e 1abc 24f4 e73a a08a f2bb 2370 7bbc
000002c0: a0eb 31bc 6bc1 cc3a 11ca 8bbc 9b51 c8bb
000002d0: 0890 cfbc 455c 6e3c 152a 90bc 9dcb e93c
000002e0: bf77 c33c 94e1 9fbc 1621 82bc 0f00 0f3c
000002f0: 91c5 443c facc 95ba c627 3f3c 5d99 173c
00000300: 7dbb 873c d009 bf3b db03 0fba 0e4e f0bc
00000310: 421c cabc e058 e4bc ee64 5ebc ae8a 163d
00000320: bb7f e23c 67df cebc 621a 6d3c c16d 84bc
00000330: 318f 6ebc 322c f4bc 8186 343d 7797 113d
00000340: 9f96 1cbc cc96 85bc 1dd8 fb3c 622a 6bbc
00000350: 1715 643d af63 acbb 30c5 bc3b 1af0 0a3d
00000360: 80aa 543b 2834 f0bb db0c 2dbc 9f75 933c
00000370: 9f1a 7c3b a867 453c 5c0b df3a f66d 28bd
00000380: 122c 11bb a87c 563c 3f5f ccbb 1833 aa3c
00000390: fcbd 903c 691b e33c e6ec 723a be8f 993c
000003a0: 89d4 3a3d 17f2 6d39 0a68 3bbc eaa1 54bb
000003b0: dfc5 18bc ab34 b6bc b2e9 12bd 80c7 d33b
000003c0: ae69 663c 5dae fdbc cf0b fb3a fc51 e2bb
000003d0: 29a4 05bc 1107 473d 475a b53c a152 89bc
000003e0: 9d8a 583c 4a79 b33c 4b37 a33c 40bd c4bc
000003f0: 4a3f 26bc 3811 c73c 1b21 463c adcb 803c

action_model._continuous_distribution.mu.bias f4 [3]
-0.0041539767 -0.010805683 -0.0037028443
00000000: 151e 88bb 520a 31bc 6bab 72bb
