results/Test4/MoveToTarget/checkpoint.pt (torch, 149922 bytes, 12 tensors)

network_body._body_endoder.seq_layers.0.weight f4 [128, 6]
-0.946735 -0.3150685 -0.22977886 0.845536 0.7678922 0.44193769 -0.21554661 -0.040697027
0.27804 -0.13397522 0.48505592 -0.0043506385 -0.44011247 0.0064276555 0.022165487 -0.90674907
0.2643375 -0.49261254 0.78279984 -0.12230138 -0.34596214 -0.46929428 -0.6707017 -0.67448777
-0.21478806 -0.02604004 -0.3243845 -0.47156927 -0.49174505 0.15003754 0.6131121 0.09552134
-0.13556223 -0.2199165 0.101540074 0.602235 1.0109625 0.14151111 0.11700439 0.33110723
-0.5646429 -0.5943433 0.41004825 -0.5672189 -0.70744425 -0.75745505 -0.31880707 -0.34408608
0.1442536 -0.34676555 0.0077217063 -0.20428288 -0.35835877 0.3679608 -0.90011847 -0.021827396
0.0146453455 -0.012833543 -0.28071198 0.30528817 0.13949424 0.09229389 0.20441166 -0.9643196
0.19304729 -0.54183966 0.18511485 0.09941894 0.32940772 0.006480266 -0.18352507 -0.2551243
0.6338586 0.27712598 0.27758017 -0.14452288 0.42137748 0.30284852 -0.14820433 -0.48963636
-0.69289285 -0.5058765 -0.6331373 0.016301347 0.18119109 0.10563622 0.45789456 -0.16091311
0.684357 0.18095483 0.052866932 -0.2664198 -0.19764318 -0.30363834 -0.0020508121 -0.09296615
-0.21873099 -0.11107162 0.40048462 -0.29345128 -0.36539745 -0.44618905 -0.2687243 -0.25621483
0.38597453 -0.83537143 0.37550703 0.07483976 0.4349273 0.05323089 0.1873084 0.6901368
-0.122620985 0.17407948 -0.28482914 0.5042895 0.10744045 -0.28903335 -0.37354118 -0.48107636
-0.6273802 -0.3221727 -0.25379533 0.17194004 -0.2628512 -0.10541944 0.59022075 -0.0745909
-0.48344654 0.1395778 -0.4666998 -0.91532165 -0.35604545 -0.00025785726 0.16965117 0.5833045
-0.17214677 0.16579665 0.29915345 -0.06276918 0.6400665 0.4005401 0.39994872 -0.5875462
-0.2642724 -0.524272 -0.11837384 0.0784465 -0.01892543 0.5802839 -0.2506713 0.3475904
-0.3164411 0.017140035 -0.12934595 0.24239434 -0.17895217 0.47421923 -0.09845796 0.2198678
-0.23538272 -0.13153923 -0.6523076 0.09403231 -0.572366 -0.07553547 -0.40121862 -0.049403157
0.37285608 0.14150298 -0.63079053 -0.22034793 -0.7415457 0.083140455 -0.11909984 0.13714983
0.15109318 0.31216022 -0.06396185 0.046864983 -0.45029587 -0.30507174 -1.3027505 0.10270396
-0.32304627 -0.122099325 -1.0041662 -0.1419121 -0.3010126 0.11107512 0.32819116 -0.3095567
-0.102167085 -0.6651195 -0.599507 -0.107254855 0.25913554 -0.21878779 0.1913187 0.29812232
-0.10751011 0.25389495 0.4351728 0.049779385 0.047925606 0.71667206 -0.13714522 -0.39110053
0.24434073 0.2380684 0.07738203 0.5782 0.13224602 0.40818498 -0.22789505 -0.5387641
-0.61538434 0.40130404 0.5033017 -0.28744048 -0.09877965 -0.15258269 0.67000014 0.35342503
0.8231555 -0.04290223 -0.043883044 -0.56968397 0.35412458 -0.10856236 0.17953861 -0.6953972
0.3121915 0.5507543 1.1418219 0.6005606 0.24320358 -0.10477115 -0.26560754 0.32046375
-0.19586323 -0.0679771 0.17974143 0.58556503 0.17458397 0.18556252 -0.91948557 0.30485487
-0.071699575 0.16976225 0.03486435 0.22349386 0.18586965 0.069015235 0.55879015 -0.4440382
00000000: 3a5d 72bf a950 a1be 264b 6bbe 0c75 583f
00000010: 9594 443f a845 e23e 40b8 5cbe edb1 26bd
00000020: 425b 8e3e cd30 09be 4059 f83e cd8f 8ebb
00000030: 6c56 e1be 159f d23b 6594 b53c b520 68bf
00000040: 3f57 873e b637 fcbe 9265 483f 2579 fabd
00000050: f321 b1be 5747 f0be 1bb3 2bbf 3bab 2cbf
00000060: 67f1 5bbe ec51 d5bc ba15 a6be 8771 f1be
00000070: 02c6 fbbe 71a3 193e eaf4 1c3f b1a0 c33d
00000080: d3d0 0abe ca31 61be 3ef4 cf3d 132c 1a3f
00000090: 3867 813f 4ae8 103e ff9f ef3d e386 a93e
000000a0: 708c 10bf e226 18bf d8f1 d13e 4235 11bf
000000b0: 111b 35bf 93e8 41bf ae3a a3be 0d2c b0be
000000c0: 37b7 133e 418b b1be 5e06 fd3b 882f 51be
000000d0: cd7a b7be 5c65 bc3e 2a6e 66bf 5ecf b2bc
000000e0: 08f3 6f3c c843 52bc 7bb9 8fbe bb4e 9c3e
000000f0: 94d7 0e3e 9404 bd3d 4a51 513e a6dd 76bf
00000100: 30ae 453e 01b6 0abf bf8e 3d3e 289c cb3d
00000110: 21a8 a83e 6958 d43b ffed 3bbe a79f 82be
00000120: 8f44 223f 75e3 8d3e fd1e 8e3e cefd 13be
00000130: cabe d73e f60e 9b3e e0c2 17be 9eb1 fabe
00000140: 6d61 31bf 1f81 01bf 4915 22bf 678a 853c
00000150: 288a 393e cd57 d83d 2871 ea3e 68c6 24be
00000160: 0532 2f3f 394c 393e ff8a 583d 2d68 88be
00000170: f962 4abe 7c76 9bbe eb66 06bb 0965 bebd
00000180: 04fb 5fbe 8479 e3bd 520c cd3e 3f3f 96be
00000190: 6015 bbbe e472 e4be 3b96 89be 972e 83be
000001a0: 749e c53e e7da 55bf 7542 c03e 9745 993d
000001b0: cbae de3e a208 5a3d c6cd 3f3e ceac 303f
000001c0: b620 fbbd e441 323e 20d5 91be 1e19 013f
000001d0: bd09 dc3d 2efc 93be ca40 bfbe a44f f6be
000001e0: fd9b 20bf d2f3 a4be 76f1 81be 0d11 303e
000001f0: 6f94 86be 26e6 d7bd b518 173f 1dc3 98bd
00000200: 4e86 f7be 7ced 0e3e 47f3 eebe 8552 6abf
00000210: 974b b6be 0431 87b9 09b9 2d3e 7253 153f
00000220: 3e47 30be 99c6 293e a42a 993e 218d 80bd
00000230: 66db 233f 9813 cd3e 14c6 cc3e 6e69 16bf
00000240: b64e 87be b136 06bf fc6d f2bd 8fa8 a03d
00000250: 8109 9bbc 7c8d 143f fd57 80be 5ef7 b13e
00000260: 9104 a2be 4269 8c3c 4473 04be 3936 783e
00000270: 3d3f 37be ddcc f23e 54a4 c9bd 0625 613e
00000280: 2b08 71be 38b2 06be a2fd 26bf 0394 c03d
00000290: 9486 12bf 57b2 9abd 876c cdbe f75a 4abd
000002a0: fee6 be3e 28e6 103e 7d7b 21bf e3a2 61be
000002b0: f0d5 3dbf 8b45 aa3d 9eea f3bd 0171 0c3e
000002c0: 2cb8 1a3e 77d3 9f3e 6efe 82bd 7ff5 3f3d
000002d0: 2e8d e6be 5d32 9cbe 87c0 a6bf 7456 d23d
000002e0: 5266 a5be 360f fabd 8588 80bf 6851 11be
000002f0: 531e 9abe 5a7b e33d ac08 a83e 377e 9ebe
00000300: fa3c d1bd 4645 2abf 4a79 19bf 6fa8 dbbd
00000310: 6aad 843e e809 60be 0de9 433e 7da3 983e
00000320: 432e dcbd 85fe 813e f8ce de3e 78e5 4b3d
00000330: a44d 443d d277 373f cc6f 0cbe 543e c8be
00000340: 7534 7a3e 34c8 733e 787a 9e3d ea04 143f
00000350: 806b 073e 9ffd d03e 525d 69be 72ec 09bf
00000360: d489 1dbf b977 cd3e 61d8 003f 662b 93be
00000370: fc4c cabd a33e 1cbe 2185 2b3f 20f4 b43e
00000380: 52ba 523f 40ba 2fbd b5be 33bd cfd6 11bf
00000390: d14f b53e f155 debd f8d8 373e 8d05 32bf
000003a0: 90d7 9f3e 3cfe 0c3f 3827 923f 57be 193f
000003b0: 5c0a 793e 4292 d6bd b6fd 87be d313 a43e
000003c0: 5f90 48be 9437 8bbd 230e 383e 97e7 153f
000003d0: 24c6 323e 1a04 3e3e 6863 6bbf f015 9c3e
000003e0: 3ad7 92bd 28d6 2d3e eccd 0e3d 93db 643e
000003f0: 9d54 3e3e dc57 8d3d df0c 0f3f fa58 e3be

network_body._body_endoder.seq_layers.0.bias f4 [128]
0.0 0.0 0.0 0.0 0.0 0.0 0.0 0.0
0.0 0.0 0.0 0.0 0.0 0.0 0.0 0.0
0.0 0.0 0.0 0.0 0.0 0.0 0.0 0.0
0.0 0.0 0.0 0.0 0.0 0.0 0.0 0.0
0.0 0.0 0.0 0.0 0.0 0.0 0.0 0.0
0.0 0.0 0.0 0.0 0.0 0.0 0.0 0.0
0.0 0.0 0.0 0.0 0.0 0.0 0.0 0.0
0.0 0.0 0.0 0.0 0.0 0.0 0.0 0.0
0.0 0.0 0.0 0.0 0.0 0.0 0.0 0.0
0.0 0.0 0.0 0.0 0.0 0.0 0.0 0.0
0.0 0.0 0.0 0.0 0.0 0.0 0.0 0.0
0.0 0.0 0.0 0.0 0.0 0.0 0.0 0.0
0.0 0.0 0.0 0.0 0.0 0.0 0.0 0.0
0.0 0.0 0.0 0.0 0.0 0.0 0.0 0.0
0.0 0.0 0.0 0.0 0.0 0.0 0.0 0.0
0.0 0.0 0.0 0.0 0.0 0.0 0.0 0.0
00000000: 0000 0000 0000 0000 0000 0000 0000 0000
00000010: 0000 0000 0000 0000 0000 0000 0000 0000
00000020: 0000 0000 0000 0000 0000 0000 0000 0000
00000030: 0000 0000 0000 0000 0000 0000 0000 0000
00000040: 0000 0000 0000 0000 0000 0000 0000 0000
00000050: 0000 0000 0000 0000 0000 0000 0000 0000
00000060: 0000 0000 0000 0000 0000 0000 0000 0000
00000070: 0000 0000 0000 0000 0000 0000 0000 0000
00000080: 0000 0000 0000 0000 0000 0000 0000 0000
00000090: 0000 0000 0000 0000 0000 0000 0000 0000
000000a0: 0000 0000 0000 0000 0000 0000 0000 0000
000000b0: 0000 0000 0000 0000 0000 0000 0000 0000
000000c0: 0000 0000 0000 0000 0000 0000 0000 0000
000000d0: 0000 0000 0000 0000 0000 0000 0000 0000
000000e0: 0000 0000 0000 0000 0000 0000 0000 0000
000000f0: 0000 0000 0000 0000 0000 0000 0000 0000
00000100: 0000 0000 0000 0000 0000 0000 0000 0000
00000110: 0000 0000 0000 0000 0000 0000 0000 0000
00000120: 0000 0000 0000 0000 0000 0000 0000 0000
00000130: 0000 0000 0000 0000 0000 0000 0000 0000
00000140: 0000 0000 0000 0000 0000 0000 0000 0000
00000150: 0000 0000 0000 0000 0000 0000 0000 0000
00000160: 0000 0000 0000 0000 0000 0000 0000 0000
00000170: 0000 0000 0000 0000 0000 0000 0000 0000
00000180: 0000 0000 0000 0000 0000 0000 0000 0000
00000190: 0000 0000 0000 0000 0000 0000 0000 0000
000001a0: 0000 0000 0000 0000 0000 0000 0000 0000
000001b0: 0000 0000 0000 0000 0000 0000 0000 0000
000001c0: 0000 0000 0000 0000 0000 0000 0000 0000
000001d0: 0000 0000 0000 0000 0000 0000 0000 0000
000001e0: 0000 0000 0000 0000 0000 0000 0000 0000
000001f0: 0000 0000 0000 0000 0000 0000 0000 0000

network_body._body_endoder.seq_layers.2.weight f4 [128, 128]
0.036440555 -0.21397851 -0.0126052415 0.07761269 -0.048310064 -0.046586182 0.08937787 -0.003153516
0.011622677 0.07401057 0.011351827 -0.09330009 0.073768996 -0.10721215 -0.03475979 0.14131095
-0.009845197 0.056601573 -0.12681946 -0.027669143 -0.060062736 -0.060459528 -0.19728145 -0.14669956
0.13079378 0.06760884 -0.0056047756 -0.020103991 -0.0052041826 -0.13520257 0.0017600063 0.1414158
0.035981927 0.1806453 0.09378819 0.052528717 0.06284777 -0.0262534 -0.043430455 0.17839532
-0.0014374943 0.041854862 0.026150823 0.085895054 0.0062683993 0.007744144 0.078328334 0.026134104
-0.063779205 -0.15182717 0.11663707 0.10245753 0.0336419 -0.1010283 -0.03777597 0.003480707
-0.14146812 0.017647142 -0.0039196084 -0.0346398 0.16232164 -0.3267574 -0.024921337 0.0057798717
-0.12208246 0.116843484 0.07536058 0.048477024 0.15288022 -0.018044066 0.020984173 -0.110999
0.08975202 0.10641191 -0.04267314 0.121590324 -0.10946836 -0.052639138 -0.0067237434 0.07305831
-0.08073773 0.034240507 0.04658028 -0.10819316 0.076560296 -0.106690645 -0.24614969 -0.016903771
-0.023020709 0.027913526 0.0036232413 0.07493487 0.0784128 0.019364385 -0.14243627 0.097348474
-0.09480556 0.11603267 -0.03289078 0.18828999 -0.08519523 0.06028551 -0.026541248 0.01851216
-0.029862588 0.0071598124 -0.078505434 -0.104969844 0.02872699 0.020276908 -0.03587919 -0.00995945
0.051668037 -0.078582495 0.025337478 -0.04149559 0.07700254 0.12954615 -0.021973582 -0.10459349
-0.12808233 0.029794013 0.06247611 -0.046872072 0.09186815 -0.11948781 0.012887003 -0.2067615
-0.018183695 0.09607492 0.049288213 -0.068518475 -0.05130087 -0.009943453 0.09664334 -0.10481544
0.027473904 0.028082829 0.026045756 0.035502836 -0.07805297 0.0057892757 0.06772483 0.035427667
0.03247316 0.12603876 0.051911175 0.027568704 0.033293873 0.024157843 0.08066624 -0.008897144
0.047239102 0.09174561 0.043551885 0.11669744 -0.04446404 -0.15049666 -0.07972698 0.030286275
0.04878656 -0.047712192 -0.065645464 0.1701045 0.026012689 0.004318245 0.019768476 0.007787856
0.11826568 0.09438963 -0.0040536784 -0.01892338 -0.034818765 0.07016919 -0.09788728 0.1711284
-0.11934672 0.05438751 0.0013396923 0.12118799 -0.052879818 -0.1085837 -0.050214592 -0.04729242
0.15234952 -0.009251957 0.0892079 0.06752014 0.17605935 -0.14629692 0.08950983 0.07787052
-0.022463342 0.031396348 0.06910612 0.14203002 -0.02919728 -0.04210574 0.15022784 0.11561087
0.081040174 -0.006781936 -0.024102483 0.12364183 -0.16151965 -0.057389803 -0.08092394 0.049657453
-0.04780451 0.06997577 0.05643624 0.011646482 0.17558609 -0.12436554 -0.11908576 0.18754125
0.10818352 -0.15131176 0.03992707 -0.035387665 -0.069626875 -0.038059857 0.04293517 -0.10869573
0.007954396 -0.019863607 -0.017927248 -0.13717598 0.0031183749 -0.12039135 0.03631163 -0.16991293
-0.033170056 0.008215712 -0.043694302 -0.14825189 -0.06669741 0.081509985 0.17228939 0.0511241
0.05178466 -0.056988385 0.057485644 -0.14881049 0.117081195 -0.004024423 0.04152134 0.032249585
-0.034927674 -0.17458844 0.078739 0.18914093 -0.010987491 -0.03794384 0.056951843 -0.035035674
00000000: b142 153d 2f1d 5bbe 3786 4ebc 67f3 9e3d
00000010: c6e0 45bd 27d1 3ebd bf0b b73d 38ab 4ebb
00000020: 0a6d 3e3c db92 973d 03fd 393c 1e14 bfbd
00000030: 3314 973d 0b92 dbbd 4860 0ebd d1b3 103e
00000040: c04d 21bc 0dd7 673d f6dc 01be 66aa e2bc
00000050: 5804 76bd 69a4 77bd 2604 4abe 6938 16be
00000060: ceee 053e 8176 8a3d 44a8 b7bb 20b1 a4bc
00000070: d987 aabb 8b72 0abe 03b0 e63a 4ecf 103e
00000080: c961 133d 15fb 383e 0614 c03d 5a28 573d
00000090: 55b6 803d 5f11 d7bc 22e4 31bd 43ad 363e
000000a0: 4e6a bcba 0170 2b3d 403a d63c bfe9 af3d
000000b0: 2567 cd3b 97c2 fd3b 9b6a a03d 3017 d63c
000000c0: ac9e 82bd 9578 1bbe 6bdf ee3d 41d5 d13d
000000d0: 17cc 093d ede7 cebd faba 1abd 931c 643b
000000e0: 05dd 10be bd90 903c 0f70 80bb 77e2 0dbd
000000f0: a537 263e bf4c a7be d527 ccbc 1465 bd3b
00000100: 5e06 fabd a34b ef3d a656 9a3d d88f 463d
00000110: a28c 1c3e 26d1 93bc 00e7 ab3c 7253 e3bd
00000120: e8cf b73d 7dee d93d 08ca 2ebd 5904 f93d
00000130: f330 e0bd 239c 57bd d952 dcbb 989f 953d
00000140: d359 a5bd c63f 0c3d f7ca 3e3d 6094 ddbd
00000150: a5cb 9c3d a080 dabd aa0e 7cbe c779 8abc
00000160: ed95 bcbc e8aa e43c e773 6d3b 7477 993d
00000170: e496 a03d 0fa2 9e3c d0da 11be a35e c73d
00000180: 6b29 c2bd 89a2 ed3d 7cb8 06bd 17cf 403e
00000190: d67a aebd f0ed 763d 086d d9bc d0a6 973c
000001a0: 63a2 f4bc dc9c ea3b 75c7 a0bd 6efa d6bd
000001b0: dd54 eb3c c21b a63c 0ff6 12bd f62c 23bc
000001c0: dda1 533d dcef a0bd 8b90 cf3c 48f7 29bd
000001d0: 82b3 9d3d bfa7 043e f101 b4bc 1d35 d6bd
000001e0: 0428 03be 9312 f43c f3e6 7f3d eefc 3fbd
000001f0: 5e25 bc3d 06b6 f4bd 0224 533c 49b9 53be
00000200: f9f5 94bc edc2 c43d 70e2 493d 6a53 8cbd
00000210: dc20 52bd dde9 22bc f2ec c53d 7aa9 d6bd
00000220: f410 e13c f60d e63c e95d d53c 6c6b 113d
00000230: 3cda 9fbd f7b3 bd3b 51b3 8a3d 9a1c 113d
00000240: 9402 053d 4e10 013e d0a0 543d c3d7 e13c
00000250: 285f 083d abe6 c53c 5734 a53d 54c5 11bc
00000260: ca7d 413d 1fe5 bb3d 7663 323d 11ff ee3d
00000270: ed1f 36bd cc1b 1abe e647 a3bd ec1a f83c
00000280: 6ad4 473d dc6d 43bd 2171 86bd e02f 2e3e
00000290: 9018 d53c 1180 8d3b 80f1 a13c 4531 ff3b
000002a0: 4735 f23d 5a4f c13d b8d4 84bb 3405 9bbc
000002b0: 1f9e 0ebd ddb4 8f3d 2079 c8bd 493c 2f3e
000002c0: 0e6c f4bd 70c5 5e3d 9d98 af3a 6931 f83d
000002d0: 8298 58bd 2261 debd d1ad 4dbd b2b5 41bd
000002e0: 8301 1c3e 8595 17bc a2b2 b63d 0048 8a3d
000002f0: e748 343e dcce 15be ee50 b73d 947a 9f3d
00000300: 0b05 b8bc 7599 003d 8287 8d3d 5170 113e
00000310: 222f efbc 1277 2cbd 54d5 193e 64c5 ec3d
00000320: 64f8 a53d 013b debb 9272 c5bc ee37 fd3d
00000330: 6865 25be 9211 6bbd 73bb a5bd 9d65 4b3d
00000340: a9ce 43bd 754f 8f3d b029 673d e3d0 3e3c
00000350: d7cc 333e 5cb3 febd 3ce3 f3bd d00a 403e
00000360: 528f dd3d 78f1 1abe 918a 233d a8f2 10bd
00000370: 8998 8ebd a7e4 1bbd cadc 2f3d de9b debd
00000380: 2853 023c 01b9 a2bc 2adc 92bc dc77 0cbe
00000390: a65d 4c3b bd8f f6bd 81bb 143d a8fd 2dbe
000003a0: 53dd 07bd 329b 063c ccf8 32bd 58cf 17be
000003b0: a798 88bd b5ee a63d a16c 303e 8167 513d
000003c0: 271c 543d a76c 69bd 1176 6b3d c761 18be
000003d0: 44c8 ef3d 4fdf 83bb 4812 2a3d 2418 043d
000003e0: 5210 0fbd 50c7 32be ea41 a13d 29ae 413e
000003f0: e104 34bc 006b 1bbd 5646 693d 9181 0fbd

network_body._body_endoder.seq_layers.2.bias f4 [128]
0.0 0.0 0.0 0.0 0.0 0.0 0.0 0.0
0.0 0.0 0.0 0.0 0.0 0.0 0.0 0.0
0.0 0.0 0.0 0.0 0.0 0.0 0.0 0.0
0.0 0.0 0.0 0.0 0.0 0.0 0.0 0.0
0.0 0.0 0.0 0.0 0.0 0.0 0.0 0.0
0.0 0.0 0.0 0.0 0.0 0.0 0.0 0.0
0.0 0.0 0.0 0.0 0.0 0.0 0.0 0.0
0.0 0.0 0.0 0.0 0.0 0.0 0.0 0.0
0.0 0.0 0.0 0.0 0.0 0.0 0.0 0.0
0.0 0.0 0.0 0.0 0.0 0.0 0.0 0.0
0.0 0.0 0.0 0.0 0.0 0.0 0.0 0.0
0.0 0.0 0.0 0.0 0.0 0.0 0.0 0.0
0.0 0.0 0.0 0.0 0.0 0.0 0.0 0.0
0.0 0.0 0.0 0.0 0.0 0.0 0.0 0.0
0.0 0.0 0.0 0.0 0.0 0.0 0.0 0.0
0.0 0.0 0.0 0.0 0.0 0.0 0.0 0.0
00000000: 0000 0000 0000 0000 0000 0000 0000 0000
00000010: 0000 0000 0000 0000 0000 0000 0000 0000
00000020: 0000 0000 0000 0000 0000 0000 0000 0000
00000030: 0000 0000 0000 0000 0000 0000 0000 0000
00000040: 0000 0000 0000 0000 0000 0000 0000 0000
00000050: 0000 0000 0000 0000 0000 0000 0000 0000
00000060: 0000 0000 0000 0000 0000 0000 0000 0000
00000070: 0000 0000 0000 0000 0000 0000 0000 0000
00000080: 0000 0000 0000 0000 0000 0000 0000 0000
00000090: 0000 0000 0000 0000 0000 0000 0000 0000
000000a0: 0000 0000 0000 0000 0000 0000 0000 0000
000000b0: 0000 0000 0000 0000 0000 0000 0000 0000
000000c0: 0000 0000 0000 0000 0000 0000 0000 0000
000000d0: 0000 0000 0000 0000 0000 0000 0000 0000
000000e0: 0000 0000 0000 0000 0000 0000 0000 0000
000000f0: 0000 0000 0000 0000 0000 0000 0000 0000
00000100: 0000 0000 0000 0000 0000 0000 0000 0000
00000110: 0000 0000 0000 0000 0000 0000 0000 0000
00000120: 0000 0000 0000 0000 0000 0000 0000 0000
00000130: 0000 0000 0000 0000 0000 0000 0000 0000
00000140: 0000 0000 0000 0000 0000 0000 0000 0000
00000150: 0000 0000 0000 0000 0000 0000 0000 0000
00000160: 0000 0000 0000 0000 0000 0000 0000 0000
00000170: 0000 0000 0000 0000 0000 0000 0000 0000
00000180: 0000 0000 0000 0000 0000 0000 0000 0000
00000190: 0000 0000 0000 0000 0000 0000 0000 0000
000001a0: 0000 0000 0000 0000 0000 0000 0000 0000
000001b0: 0000 0000 0000 0000 0000 0000 0000 0000
000001c0: 0000 0000 0000 0000 0000 0000 0000 0000
000001d0: 0000 0000 0000 0000 0000 0000 0000 0000
000001e0: 0000 0000 0000 0000 0000 0000 0000 0000
000001f0: 0000 0000 0000 0000 0000 0000 0000 0000

action_model._continuous_distribution.log_sigma f4 [1, 3]
0.0 0.0 0.0
00000000: 0000 0000 0000 0000 0000 0000

action_model._continuous_distribution.mu.weight f4 [3, 128]
0.010476515 -0.01081702 -0.0017856716 0.0041403533 0.013667873 0.004147287 0.0101555465 0.018088883
0.01782343 0.019786319 -0.025759548 -0.0019906894 -0.017099919 -0.0037278105 0.0068525495 -0.030099152
0.026162816 -0.011683804 -0.0031072178 -0.0036362433 -0.02212585 -0.020047244 -0.013159598 0.03225178
-0.009906153 0.0027438365 0.0015384447 0.0055023576 0.0054714754 0.011357809 0.026781527 -0.019968975
-0.011593859 -0.011366403 -0.009120693 0.012614896 0.010057302 0.0038218156 0.02114298 -0.036895588
-0.021044718 0.008221294 -0.01713176 0.030710338 0.014835097 0.036092002 0.024931349 -0.00727749
0.0012333499 0.013847637 -0.016636616 -0.0051084748 0.01698352 0.020562163 0.011765568 0.035757393
0.0027059119 -0.034533717 -0.015631992 -0.00047457698 0.020222327 -0.0041675265 0.017153373 0.011663607
-0.018270804 -0.0029715756 -0.02286779 0.001975217 0.028837968 0.008353705 0.0044334303 0.009593219
-0.005609147 -0.0047256663 -0.0086264275 0.016008673 -0.01067033 0.0047295145 -0.0038438756 0.010787608
0.0038841236 -0.017975336 -0.02385709 -0.015606592 0.01623863 0.0065514096 0.029421372 -0.030587388
-0.0072662355 0.0029913345 -0.014130482 -0.0073312386 0.020806532 0.018729096 -0.0009129856 0.005226468
0.00095631945 0.010782296 0.0042015463 0.002027771 -0.017927105 -0.03303294 0.015198633 -0.015206574
-0.016999008 0.007945648 -0.027456542 0.004930901 -0.004713549 -0.0048935036 -0.01253208 -0.006530235
-0.00975053 -0.05804457 -0.008500637 -0.018504743 -0.025578862 -0.005967467 -0.0281658 0.016572967
0.015102637 -0.0039039075 -0.024189873 -0.010875666 0.00989895 0.0074782106 0.011879823 0.011573019
0.021152787 0.028555764 -0.017622987 -0.009880456 -0.028688787 0.0124409385 0.017679399 0.020004308
-0.006820138 -0.026063565 -0.008904347 -0.024671443 -0.015085936 0.017640335 -0.022978012 -0.005377057
0.0139764985 0.008385219 0.010496452 0.00170083 -0.027457014 -0.017695105 0.007607942 -0.03490081
-0.005310239 -0.010374957 -0.011924884 0.029636472 0.0029281222 -0.0019587104 0.013101195 0.001111859
-0.016804378 0.024349293 -0.0017117964 0.0048662825 -0.004962732 -0.0024145055 0.008356318 0.013661548
-0.03330833 0.011125404 0.002489018 0.02083571 -0.012360106 0.0010619453 0.051573314 -0.033019546
0.02928689 0.0035294183 0.0057458016 -0.010902199 0.033121508 -0.0044435808 0.015113075 0.012610055
-0.01542633 0.020840524 -0.052941006 0.0060631107 -0.011425795 -0.0015279972 -0.014154148 0.00264688
0.00934679 0.03992731 0.008855899 -0.027846528 0.017799862 0.011905207 -0.002586741 0.0030561122
0.010637506 -0.011936731 0.020165931 -0.012165488 -0.018561607 0.014214586 0.027501194 0.00469522
0.0021991353 0.0014423421 -0.03181757 0.0042925524 0.00019078152 -0.025048459 0.0059823585 -0.015726324
0.026296197 -0.014039156 0.0016952418 0.022950592 0.015404086 0.011520176 -0.013789614 0.016295506
0.013465603 -0.009264555 0.00513537 -0.0012129487 0.01959215 0.01842825 0.021412345 -0.0028863468
0.003444553 0.0076468433 -0.016645683 0.016244428 0.014016047 0.007538373 -0.0024494163 -0.021314738
0.027697122 -0.009568918 -0.039766055 -0.00031907132 0.026224403 -0.018855361 -0.015224174 -0.0061151115
0.0011577661 -0.003491578 -0.0017551394 0.017121082 -0.006280012 -0.008934859 -0.01165726 0.0072564217
00000000: b0a5 2b3c df39 31bc 320d eaba cdab 873b
00000010: 37ef 5f3c f7e5 873b 7363 263c 232f 943c
00000020: 7102 923c eb16 a23c b005 d3bc 3a76 02bb
00000030: 2115 8cbc 484e 74bb 5a8b e03b 7f92 f6bc
00000040: 6753 d63c 6d6d 3fbc 77a2 4bbb 0a4e 6ebb
00000050: 4541 b5bc 1e3a a4bc 5b9b 57bc 711a 043d
00000060: 6b4d 22bc f0d1 333b a3a5 c93a 1f4d b43b
00000070: 104a b33b 1b16 3a3c ef64 db3c fa95 a3bc
00000080: 2bf4 3dbc 263a 3abc f66e 15bc b5ae 4e3c
00000090: 62c7 243c 6d77 7a3b 0b34 ad3c d41f 17bd
000000a0: f965 acbc 9bb2 063c e857 8cbc 3f94 fb3c
000000b0: e80e 733c 35d5 133d d43c cc3c 0378 eebb
000000c0: 5ba8 a13a 33e1 623c 8349 88bc fe64 a7bb
000000d0: 0621 8b3c fb71 a83c 5ec4 403c 5876 123d
000000e0: ab55 313b 3a73 0dbd aa0e 80bc a5d0 f8b9
000000f0: 4ba9 a53c bf8f 88bb 3b85 8c3c b718 3f3c
00000100: a7ac 95bc c4be 42bb 3b55 bbbc a472 013b
00000110: 9a3d ec3c fadd 083c 4f46 913b e02c 1d3c
00000120: efcc b7bb c3d9 9abb dc55 0dbc 9f24 833c
00000130: 9cd2 2ebc 0bfa 9a3b 88e9 7bbb 82be 303c
00000140: c88c 7e3b 0341 93bc f26f c3bc cbb2 7fbc
00000150: e006 853c 35ad d63b 1705 f13c 6792 fabc
00000160: 9a19 eebb 440a 443b 8a83 67bc e33a f0bb
00000170: 7672 aa3c c36d 993c 6d55 6fba cb42 ab3b
00000180: 83b1 7a3a 3aa8 303c 20ad 893b 5ae4 043b
00000190: dddb 92bc 8c4d 07bd b003 793c ff24 79bc
000001a0: 8141 8bbc 772e 023c 8bec e0bc 6593 a13b
000001b0: 1d74 9abb af59 a0bb 5a53 4dbc 95fb d5bb
000001c0: b0c0 1fbc 25c0 6dbd 4146 0bbc 4297 97bc
000001d0: c38a d1bc be8a c3bb f7bb e6bc 08c4 873c
000001e0: 0d71 773c b3d8 7fbb d729 c6bc d92f 32bc
000001f0: 352f 223c c70b f53b 97a3 423c c39c 3d3c
00000200: 9c48 ad3c c7ed e93c 155e 90bc a3e1 21bc
00000210: bf04 ebbc 14d5 4b3c 63d4 903c 13e0 a33c
00000220: 777b dfbb 4283 d5bc 8ae3 11bc c41b cabc
00000230: 002b 77bc 7782 903c 623c bcbc 0632 b0bb
00000240: affd 643c 2862 093c 50f9 2b3c 62ee de3a
00000250: 88ed e0bc 53f5 90bc 0b4c f93b 27f4 0ebd
00000260: 8301 aebb b9fb 29bc 9760 43bc 30c8 f23c
00000270: bde5 3f3b b55d 00bb 65a6 563c ccbb 913a
00000280: 56a9 89bc 2b78 c73c 5b5e e0ba 5675 9f3b
00000290: 6a9e a2bb ae3c 1ebb f0e8 083c afd4 5f3c
000002a0: 516e 08bd 5447 363c cb1e 233b a7af aa3c
000002b0: 0b82 4abc f930 8b3a 8a3e 533d 813f 07bd
000002c0: 0feb ef3c d04d 673b 4747 bc3b 239f 32bc
000002d0: 6baa 073d 759b 91bb d59c 773c 679a 4e3c
000002e0: b8be 7cbc bfb9 aa3c abd8 58bd 0fad c63b
000002f0: 4233 3bbc 1447 c8ba cde6 67bc 4777 2d3b
00000300: 4723 193c d28a 233d 5518 113c 671e e4bc
00000310: 04d1 913c 0f0e 433c 5086 29bb 0e49 483b
00000320: ef48 2e3c 4792 43bc 0633 a53c c151 47bc
00000330: 830e 98bc 4be4 683c 2f4a e13c 5cda 993b
00000340: 5e1f 103b f80c bd3a 2453 02bd 8aa8 8c3b
00000350: 860c 4839 6d32 cdbc a907 c43b 7ed4 80bc
00000360: 1f6b d73c 7d04 66bc e032 de3a e102 bc3c
00000370: 6b61 7c3c 1fbf 3c3c d5ed 61bc 277e 853c
00000380: d59e 5c3c 5cca 17bc 9b46 a83b cefb 9eba
00000390: b77f a03c d7f6 963c f168 af3c dd28 3dbb
000003a0: 02be 613b 5f92 fa3b 875c 88bc 0913 853c
000003b0: 90a3 653c 7504 f73b 6386 20bb 3f9c aebc
000003c0: 13e5 e23c f3c6 1cbc bbe1 22bd 0749 a7b9
000003d0: 8fd4 d63c 8f76 9abc d06e 79bc 4661 c8bb
000003e0: 2fc0 973a f5d2 64bb b50c e6ba 8341 8c3c
000003f0: 8fc8 cdbb 8463 12bc 18fe 3ebc 47c7 ed3b

action_model._continuous_distribution.mu.bias f4 [3]
0.0 0.0 0.0
00000000: 0000 0000 0000 0000 0000 0000

network_body._body_endoder.seq_layers.0.weight f4 [128, 6]
0.5722361 0.42132542 -0.14279066 -0.4111222 -0.11378493 -0.023780327 0.17746776 0.10941045
0.17285205 0.6804528 0.3467629 0.63047564 0.61014193 -0.3481463 -0.008193927 -0.48417252
-0.4441007 0.27677056 -0.15019974 -0.358093 0.080506966 0.112192355 0.4633065 -0.35217893
0.24376553 0.26474333 -0.43650782 -0.22244747 -0.28430322 0.243079 -0.12086902 -0.07455149
-0.15891808 -0.10112107 -0.040098015 -0.6526681 0.050692007 -0.2947897 0.58477527 -0.71940625
0.13202542 -0.45497826 -1.0020006 -0.51138145 0.47865745 -0.28676006 0.19836248 0.045892477
0.16484945 0.2567955 0.34565827 0.120314986 0.86478615 -0.32703814 -0.09993998 -0.4415708
-0.23406382 0.07119567 -0.22371481 0.2669377 0.23148352 0.29723835 -0.44742528 -0.29661182
0.11784084 -0.5426154 0.279942 -0.28568208 0.2831796 0.3833813 0.4825396 0.17669114
-0.541432 0.23688719 -0.11178468 0.0037068336 0.5770819 0.06189104 0.32088995 0.36475694
0.16183683 0.24533953 -0.40754008 0.23749189 -0.21123898 -0.20532781 -0.20193861 0.10299131
-0.0813203 0.22739904 -0.5170815 -0.01120865 -0.02692127 0.21079595 -0.28706953 -0.15871328
0.1078452 -0.03571341 0.016917618 -0.57223624 0.17512621 -0.7414974 0.053738296 0.0827072
-0.074136876 0.009203289 -0.493061 0.15724804 -0.3516794 0.14503756 -0.02955553 0.17052218
-0.32441005 -0.08147805 0.30575317 -0.30914828 0.16466865 0.33629334 -0.17272724 0.059288707
0.52636355 -0.21932665 -0.4064976 0.23518202 -0.19503416 -0.23017034 0.5421096 -0.29030448
0.04647009 0.037550975 0.23869884 -0.13436306 -0.18689826 -0.1332538 0.7658977 0.22093305
-0.2776276 0.32719347 0.32454556 0.04627311 0.5138972 -0.6191283 0.54309523 1.017399
0.054806825 0.30646583 -0.4358787 -0.2572815 -0.014928868 0.113231495 0.20176613 0.18444079
0.29280055 0.09123846 0.004415741 0.050138813 -0.38927662 -0.6795125 -0.66327095 -0.64669794
0.08195638 0.5224234 0.22125046 0.0954994 -0.1859375 -0.2441264 -0.75371146 -0.4806638
0.42690465 0.8960858 0.18580584 0.80567306 0.59956664 -0.054258212 0.586855 -0.080867894
-0.623841 0.28296092 0.65993553 -0.036710784 0.08026662 0.0038454933 0.18290436 0.21190165
0.25617215 -0.2517306 -0.012478503 0.104887746 0.14019758 -0.29962596 -0.21088247 -0.084529944
-0.06735396 -0.63667226 -0.11305556 -0.40199086 -0.08544494 0.45313412 0.54123044 -1.0479745
-0.49620217 0.09040745 0.34188992 -0.5675334 -0.5449492 0.7292998 -0.023639193 0.10060545
0.0076903296 0.26616013 -0.39803636 -0.32128182 0.1154186 -0.056070887 -0.44854203 -0.45612597
-0.23647074 -0.009942911 -0.06370976 -0.33581072 0.022104891 -0.24035004 0.05797175 0.10703275
-0.26770362 -0.63786805 -1.0002882 0.15146972 -0.5775297 -0.0039275396 0.09687882 0.24965641
-0.21475258 0.28832167 0.12692137 -0.16468412 0.608949 1.157382 -0.22428077 -0.22814475
0.20834762 -0.30499113 -0.25509363 -0.33985567 -0.3354916 0.18274029 0.34694585 -0.694672
0.15981442 -0.22490367 0.33515918 -0.5544258 -0.3198231 -0.0661669 0.4677709 -0.24544325
00000000: 117e 123f f7b7 d73e b737 12be 9c7e d2be
00000010: 1308 e9bd f6ce c2bc 1cba 353e 9612 e03d
00000020: 2100 313e 2832 2e3f e88a b13e da66 213f
00000030: 4332 1c3f 3b40 b2be d23f 06bc 76e5 f7be
00000040: 2b61 e3be dfb4 8d3e f6cd 19be f757 b7be
00000050: d6e0 a43d 1bc5 e53d 8236 ed3e cc50 b4be
00000060: ac9d 793e 708c 873e f47d dfbe 45c9 63be
00000070: 3190 91be b4e9 783e 2d8a f7bd 74ae 98bd
00000080: 6cbb 22be 9018 cfbd d13d 24bd 4215 27bf
00000090: 6ca2 4f3d adee 96be d5b3 153f 022b 38bf
000000a0: ac31 073e e9f2 e8be 8e41 80bf e5e9 02bf
000000b0: 9712 f53e 37d2 92be 891f 4b3e c0f9 3b3d
000000c0: 4bce 283e b37a 833e 1ffa b03e b467 f63d
000000d0: a062 5d3f 8b71 a7be 55ad ccbd 9115 e2be
000000e0: 6dae 6fbe 09cf 913d 7f15 65be 0fac 883e
000000f0: 040a 6d3e a02f 983e ed14 e5be 81dd 97be
00000100: 8a56 f13d d8e8 0abf 8f54 8f3e ec44 92be
00000110: ebfc 903e 8e4a c43e 6e0f f73e 86ee 343e
00000120: 4a9b 0abf 8e92 723e 5eef e4bd 59ee 723b
00000130: a4bb 133f 7681 7d3d b04b a43e 6cc1 ba3e
00000140: 8eb8 253e 493a 7b3e 18a9 d0be 1331 733e
00000150: 084f 58be 7441 52be ffc8 4ebe 1ced d23d
00000160: 428b a6bd 4bdb 683e 745f 04bf 7ca4 37bc
00000170: ff89 dcbc e5da 573e c7fa 92be bc85 22be
00000180: f2dd dc3d 3948 12bd d196 8a3c 137e 12bf
00000190: 4954 333e c6d2 3dbf b01c 5c3d 6462 a93d
000001a0: 13d5 97bd 64c9 163c 7e72 fcbe a105 213e
000001b0: 530f b4be ba84 143e 701e f2bc 5e9d 2e3e
000001c0: 1319 a6be f7dd a6bd ae8b 9c3e af48 9ebe
000001d0: e69e 283e a42e ac3e 69df 30be b7d8 723d
000001e0: c3bf 063f 2a97 60be 7420 d0be 8ed3 703e
000001f0: 09b7 47be c6b1 6bbe b2c7 0a3f caa2 94be
00000200: 6c57 3e3d 0dcf 193d 786d 743e 7896 09be
00000210: 4262 3fbe af73 08be df11 443f 463c 623e
00000220: 3425 8ebe e785 a73e d62a a63e df88 3d3d
00000230: c48e 033f 317f 1ebf 4a08 0b3f 213a 823f
00000240: 1f7d 603d 17e9 9c3e 7e2b dfbe 67ba 83be
00000250: 3698 74bc eae5 e73d c89b 4e3e 0cde 3c3e
00000260: f4e9 953e 3bdb ba3d ecb1 903b 5b5e 4d3d
00000270: 444f c7be 88f4 2dbf 20cc 29bf ff8d 25bf
00000280: bfd8 a73d 8abd 053f 7b8f 623e 3095 c33d
00000290: 6666 3ebe 45fc 79be 3cf3 40bf 9119 f6be
000002a0: 3f93 da3e e165 653f e343 3e3e 9740 4e3f
000002b0: 337d 193f dc3d 5ebd 213c 163f 119e a5bd
000002c0: 0bb4 1fbf 41e0 903e 89f1 283f 0c5e 16bd
000002d0: d362 a43d ac04 7c3b 484b 3b3e bffc 583e
000002e0: ff28 833e d5e2 80be a372 4cbc 63cf d63d
000002f0: f48f 0f3e 9368 99be 93f1 57be 091e adbd
00000300: dff0 89bd f4fc 22bf ac89 e7bd bfd1 cdbe
00000310: c2fd aebd 3201 e83e 148e 0a3f 0724 86bf
00000320: 360e febe 8b27 b93d 320c af3e de49 11bf
00000330: ca81 0bbf 64b3 3a3f fba6 c1bc 3b0a ce3d
00000340: 29ff fb3b 2446 883e 6ccb cbbe 0d7f a4be
00000350: 9660 ec3d 96aa 65bd 4da7 e5be 5889 e9be
00000360: 6325 72be 97e7 22bc 437a 82bd 62ef abbe
00000370: 5115 b53c 521e 76be c973 6d3d fd33 db3d
00000380: 7310 89be 524b 23bf 7209 80bf e11a 1b3e
00000390: fdd8 13bf 97b2 80bb 6768 c63d eea5 7f3e
000003a0: 1ae8 5bbe e69e 933e adf7 013e f4a2 28be
000003b0: 15e4 1b3f 1825 943f dca9 65be c79e 69be
000003c0: 1459 553e cc27 9cbe a29b 82be 9001 aebe
000003d0: 8ec5 abbe 4520 3b3e e3a2 b13e 06d6 31bf
000003e0: 64a6 233e 264d 66be fc99 ab3e d9ee 0dbf
000003f0: dabf a3be 8382 87bd ab7f ef3e 7a55 7bbe

network_body._body_endoder.seq_layers.0.bias f4 [128]
0.0 0.0 0.0 0.0 0.0 0.0 0.0 0.0
0.0 0.0 0.0 0.0 0.0 0.0 0.0 0.0
0.0 0.0 0.0 0.0 0.0 0.0 0.0 0.0
0.0 0.0 0.0 0.0 0.0 0.0 0.0 0.0
0.0 0.0 0.0 0.0 0.0 0.0 0.0 0.0
0.0 0.0 0.0 0.0 0.0 0.0 0.0 0.0
0.0 0.0 0.0 0.0 0.0 0.0 0.0 0.0
0.0 0.0 0.0 0.0 0.0 0.0 0.0 0.0
0.0 0.0 0.0 0.0 0.0 0.0 0.0 0.0
0.0 0.0 0.0 0.0 0.0 0.0 0.0 0.0
0.0 0.0 0.0 0.0 0.0 0.0 0.0 0.0
0.0 0.0 0.0 0.0 0.0 0.0 0.0 0.0
0.0 0.0 0.0 0.0 0.0 0.0 0.0 0.0
0.0 0.0 0.0 0.0 0.0 0.0 0.0 0.0
0.0 0.0 0.0 0.0 0.0 0.0 0.0 0.0
0.0 0.0 0.0 0.0 0.0 0.0 0.0 0.0
00000000: 0000 0000 0000 0000 0000 0000 0000 0000
00000010: 0000 0000 0000 0000 0000 0000 0000 0000
00000020: 0000 0000 0000 0000 0000 0000 0000 0000
00000030: 0000 0000 0000 0000 0000 0000 0000 0000
00000040: 0000 0000 0000 0000 0000 0000 0000 0000
00000050: 0000 0000 0000 0000 0000 0000 0000 0000
00000060: 0000 0000 0000 0000 0000 0000 0000 0000
00000070: 0000 0000 0000 0000 0000 0000 0000 0000
00000080: 0000 0000 0000 0000 0000 0000 0000 0000
00000090: 0000 0000 0000 0000 0000 0000 0000 0000
000000a0: 0000 0000 0000 0000 0000 0000 0000 0000
000000b0: 0000 0000 0000 0000 0000 0000 0000 0000
000000c0: 0000 0000 0000 0000 0000 0000 0000 0000
000000d0: 0000 0000 0000 0000 0000 0000 0000 0000
000000e0: 0000 0000 0000 0000 0000 0000 0000 0000
000000f0: 0000 0000 0000 0000 0000 0000 0000 0000
00000100: 0000 0000 0000 0000 0000 0000 0000 0000
00000110: 0000 0000 0000 0000 0000 0000 0000 0000
00000120: 0000 0000 0000 0000 0000 0000 0000 0000
00000130: 0000 0000 0000 0000 0000 0000 0000 0000
00000140: 0000 0000 0000 0000 0000 0000 0000 0000
00000150: 0000 0000 0000 0000 0000 0000 0000 0000
00000160: 0000 0000 0000 0000 0000 0000 0000 0000
00000170: 0000 0000 0000 0000 0000 0000 0000 0000
00000180: 0000 0000 0000 0000 0000 0000 0000 0000
00000190: 0000 0000 0000 0000 0000 0000 0000 0000
000001a0: 0000 0000 0000 0000 0000 0000 0000 0000
000001b0: 0000 0000 0000 0000 0000 0000 0000 0000
000001c0: 0000 0000 0000 0000 0000 0000 0000 0000
000001d0: 0000 0000 0000 0000 0000 0000 0000 0000
000001e0: 0000 0000 0000 0000 0000 0000 0000 0000
000001f0: 0000 0000 0000 0000 0000 0000 0000 0000

network_body._body_endoder.seq_layers.2.weight f4 [128, 128]
-0.06563282 -0.00782524 -0.043018106 -0.12605698 -0.03185931 -0.073247455 0.033730246 -0.121907026
-0.051799793 -0.013057752 0.035996236 -0.23933655 -0.08409687 0.052503783 -0.00059742626 -0.08108837
-0.016487284 0.119792186 -0.077415735 -0.06917645 0.13716905 -0.18695092 0.050398 -0.0021246874
0.070745595 0.08775331 -0.02166267 0.077033736 -0.062098764 -0.10270327 0.01607574 0.0328194
0.08950042 -0.009180092 0.0057087247 0.025524674 0.044936653 -0.0863084 0.116971664 0.088930555
0.005891124 0.0053059035 0.004257451 -0.10045213 -0.07521866 0.076183915 0.012365208 0.042075977
-0.09750319 -0.02457569 -0.044664454 -0.012144832 0.10570042 0.008822549 -0.031313542 0.015293777
0.058598354 -0.04529935 0.14507845 0.069896 0.02177218 0.038951036 0.0064427517 0.123627506
-0.021389196 0.070556186 -0.13087013 -0.13988942 -0.013332139 0.061011028 -0.06926558 -0.041737784
0.030445121 0.08788098 -0.055221833 -0.01928405 0.042672962 0.03740278 0.09475314 0.079158865
0.0085461475 -2.8326724e-05 0.11161779 0.032702133 -0.05704296 -0.027109837 0.028020613 0.0015530713
-0.07626221 0.026363255 -0.14249037 -0.07796064 -0.15542017 0.057795167 -0.063388124 -0.053097483
-0.17095634 0.035819016 0.11528177 0.1447166 0.02191669 -0.0069315047 0.22371943 -0.023199875
-0.021949198 0.083374344 -0.012327304 0.16605087 -0.17639838 0.09213181 0.011446052 0.008989509
-0.06247948 0.06254756 -0.009013238 0.18694147 -0.16533242 0.024490388 0.0003038836 0.12267309
0.18624212 0.11727547 0.12303165 0.14016129 0.2182646 0.03711403 -0.04711171 -0.041406948
-0.0006728259 -0.100109406 0.0038227823 -0.05531168 -0.09392702 -0.12762855 0.1100654 0.046655513
-0.052237745 0.016195718 -0.0701476 -0.15662152 0.07113827 -0.029089335 0.09547598 -0.03148073
-0.04134228 0.06433469 0.018400125 0.006031911 -0.046631385 -0.068403356 0.054753065 -0.042238493
-0.09892466 0.08961457 0.050847944 -0.06375121 0.07379012 -0.06964702 0.087829426 0.0044130054
0.003142922 -0.09940246 0.053432424 0.0064527392 -0.033937234 -0.040417433 0.039847154 -0.016609332
0.10104618 0.0135033745 -0.066457346 -0.020711001 0.0012038754 0.06295522 0.017318506 0.04687166
0.15680222 -0.013281508 0.11335959 0.048214287 0.2203453 -0.032235112 -0.068920776 0.07734477
0.03741618 -0.0077878195 0.11399634 -0.013021183 0.006101171 -0.004385434 -0.10220038 -0.04555559
-0.010762946 -0.017588511 0.0850854 -0.0580604 0.0857433 -0.057666253 0.084389694 0.16432522
0.04477405 -0.0037340717 0.05367304 0.044566568 -0.057688456 -0.06226055 0.17657104 -0.08271205
-0.104495324 -0.032075077 -0.07349642 -0.08769093 0.019832287 -0.22548035 -0.105710804 -0.07257065
-0.02059035 -0.018895432 0.06051266 0.007180815 0.0028536788 0.12792242 -0.004478738 0.12824625
-0.01564343 0.08579191 0.19191624 0.1721945 0.030332299 0.015490003 0.103612 0.07375452
-0.044760827 0.029663736 0.1860612 -0.022505306 0.09905676 -0.0038665147 0.029405458 -0.16198975
0.050034825 -0.07617914 0.03712679 -0.017275741 -0.13932098 0.12397815 0.10407087 0.006405559
0.16774972 -0.01217201 0.087102935 0.09655604 -0.11145421 -0.05152639 -0.12330522 0.09247001
00000000: 806a 86bd 6f35 00bc c133 30bd 1515 01be
00000010: e87e 02bd c302 96bd ba28 0a3d 64aa f9bd
00000020: 052c 54bd 2ef0 55bc ca70 133d a414 75be
00000030: fb3a acbd 350e 573d 999c 1cba a911 a6bd
00000040: 5710 87bc 9b55 f53d 248c 9ebd 62ac 8dbd
00000050: 0b76 0c3e 1070 3fbe 226e 4e3d 573e 0bbb
00000060: 11e3 903d 02b8 b33d e975 b1bc ddc3 9d3d
00000070: 465b 7ebd 1856 d2bd 45b1 833c a36d 063d
00000080: ff4b b73d 1968 16bc 4110 bb3b 1f19 d13c
00000090: 7f0f 383d 75c2 b0bd d78e ef3d 3921 b63d
000000a0: 540a c13b 25dd ad3b 1682 8b3b d9b9 cdbd
000000b0: 3e0c 9abd 5006 9c3d 7197 4a3c dc57 2c3d
000000c0: c1af c7bd f552 c9bc 13f2 36bd 1efb 46bc
000000d0: 7679 d83d 748c 103c a142 00bd c092 7a3c
000000e0: d404 703d d08b 39bd 728f 143e a225 8f3d
000000f0: 925b b23c 1f8b 1f3d b81d d33b 6b30 fd3d
00000100: 6538 afbc c37f 903d d202 06be 2c3f 0fbe
00000110: 0b6f 5abc b3e6 793d 1ddb 8dbd 3df5 2abd
00000120: 0c68 f93c f1fa b33d 4a30 62bd 96f9 9dbc
00000130: d8c9 2e3d a833 193d ef0d c23d 0b1e a23d
00000140: 2405 0c3c 2d9f edb7 de97 e43d acf2 053d
00000150: e1a5 69bd 7315 debc 7c8b e53c 6d90 cb3a
00000160: 5d2f 9cbd c1f7 d73c ffe8 11be d4a9 9fbd
00000170: 7726 1fbe a0ba 6c3d a2d1 81bd bf7c 59bd
00000180: 2e0f 2fbe f6b6 123d d918 ec3d 9730 143e
00000190: a18a b33c ad21 e3bb b516 653e aa0d bebc
000001a0: cece b3bc 2bc0 aa3d 76f8 49bc 3d09 2a3e
000001b0: c7a1 34be 9aaf bc3d 3988 3b3c bc48 133c
000001c0: 7cea 7fbd ef18 803d 43ac 13bc 966d 3f3e
000001d0: e74c 29be 11a0 c83c 9152 9f39 073c fb3d
000001e0: 41b6 3e3e 1f2e f03d 05f8 fb3d 7186 0f3e
000001f0: c180 5f3e e204 183d 35f8 40bd 559a 29bd
00000200: 9560 30ba 2906 cdbd a587 7a3b 808e 62bd
00000210: cf5c c0bd 0fb1 02be f869 e13d da19 3f3d
00000220: 3ff7 55bd e2ac 843c 8ba9 8fbd 6461 20be
00000230: f1b0 913d c24c eebc e988 c33d f0f1 00bd
00000240: 8656 29bd e8c1 833d dcbb 963c 56a7 c53b
00000250: 8d00 3fbd 0f17 8cbd c044 603d 4502 2dbd
00000260: 0399 cabd d887 b73d ef45 503d ff8f 82bd
00000270: 461f 973d 19a3 8ebd eadf b33d f99a 903b
00000280: 7bf9 4d3b 8493 cbbd f5db 5a3d 8071 d33b
00000290: c501 0bbd c08c 25bd c536 233d 4b10 88bc
000002a0: 4df1 ce3d 423d 5d3c ca1a 88bd 1eaa a9bc
000002b0: 5bcb 9d3a abee 803d 8adf 8d3c 7ffc 3f3d
000002c0: c390 203e af9a 59bc 1329 e83d 587c 453d
000002d0: 33a2 613e f708 04bd 5626 8dbd ef66 9e3d
000002e0: b541 193d f730 ffbb ea76 e93d cd56 55bc
000002f0: 55ec c73b b0b3 8fbb 6f4e d1bd 8098 3abd
00000300: 1157 30bc c815 90bc 4141 ae3d bed0 6dbd
00000310: 2f9a af3d 7333 6cbd 81d4 ac3d df44 283e
00000320: ff64 373d 54b7 74bb 43d8 5b3d 6f8b 363d
00000330: bb4a 6cbd eb04 7fbd 0acf 343e ef64 a9bd
00000340: a501 d6bd 2861 03bd 4b85 96bd 4d97 b3bd
00000350: 5277 a23c 52e4 66be e87e d8bd ec9f 94bd
00000360: 18ad a8bc 98ca 9abc 1fdc 773d 0b4d eb3b
00000370: c904 3b3b 18fe 023e 61c2 92bb fc52 033e
00000380: a726 80bc abb3 af3d b185 443e c153 303e
00000390: 717b f83c c8c9 7d3c 8732 d43d 9c0c 973d
000003a0: 2157 37bd 5d01 f33c d486 3e3e 0c5d b8bc
000003b0: 45de ca3d 5a65 7dbb b7e3 f03c a4e0 25be
000003c0: 51f1 4c3d cf03 9cbd 4312 183d db85 8dbc
000003d0: 29aa 0ebe 42e8 fd3d 1c23 d53d b9e5 d13b
000003e0: 95c6 2b3e 1c6d 47bc 0663 b23d 2cbf c53d
000003f0: 1b42 e4bd 560d 53bd 7287 fcbd eb60 bd3d

network_body._body_endoder.seq_layers.2.bias f4 [128]
0.0 0.0 0.0 0.0 0.0 0.0 0.0 0.0
0.0 0.0 0.0 0.0 0.0 0.0 0.0 0.0
0.0 0.0 0.0 0.0 0.0 0.0 0.0 0.0
0.0 0.0 0.0 0.0 0.0 0.0 0.0 0.0
0.0 0.0 0.0 0.0 0.0 0.0 0.0 0.0
0.0 0.0 0.0 0.0 0.0 0.0 0.0 0.0
0.0 0.0 0.0 0.0 0.0 0.0 0.0 0.0
0.0 0.0 0.0 0.0 0.0 0.0 0.0 0.0
0.0 0.0 0.0 0.0 0.0 0.0 0.0 0.0
0.0 0.0 0.0 0.0 0.0 0.0 0.0 0.0
0.0 0.0 0.0 0.0 0.0 0.0 0.0 0.0
0.0 0.0 0.0 0.0 0.0 0.0 0.0 0.0
0.0 0.0 0.0 0.0 0.0 0.0 0.0 0.0
0.0 0.0 0.0 0.0 0.0 0.0 0.0 0.0
0.0 0.0 0.0 0.0 0.0 0.0 0.0 0.0
0.0 0.0 0.0 0.0 0.0 0.0 0.0 0.0
00000000: 0000 0000 0000 0000 0000 0000 0000 0000
00000010: 0000 0000 0000 0000 0000 0000 0000 0000
00000020: 0000 0000 0000 0000 0000 0000 0000 0000
00000030: 0000 0000 0000 0000 0000 0000 0000 0000
00000040: 0000 0000 0000 0000 0000 0000 0000 0000
00000050: 0000 0000 0000 0000 0000 0000 0000 0000
00000060: 0000 0000 0000 0000 0000 0000 0000 0000
00000070: 0000 0000 0000 0000 0000 0000 0000 0000
00000080: 0000 0000 0000 0000 0000 0000 0000 0000
00000090: 0000 0000 0000 0000 0000 0000 0000 0000
000000a0: 0000 0000 0000 0000 0000 0000 0000 0000
000000b0: 0000 0000 0000 0000 0000 0000 0000 0000
000000c0: 0000 0000 0000 0000 0000 0000 0000 0000
000000d0: 0000 0000 0000 0000 0000 0000 0000 0000
000000e0: 0000 0000 0000 0000 0000 0000 0000 0000
000000f0: 0000 0000 0000 0000 0000 0000 0000 0000
00000100: 0000 0000 0000 0000 0000 0000 0000 0000
00000110: 0000 0000 0000 0000 0000 0000 0000 0000
00000120: 0000 0000 0000 0000 0000 0000 0000 0000
00000130: 0000 0000 0000 0000 0000 0000 0000 0000
00000140: 0000 0000 0000 0000 0000 0000 0000 0000
00000150: 0000 0000 0000 0000 0000 0000 0000 0000
00000160: 0000 0000 0000 0000 0000 0000 0000 0000
00000170: 0000 0000 0000 0000 0000 0000 0000 0000
00000180: 0000 0000 0000 0000 0000 0000 0000 0000
00000190: 0000 0000 0000 0000 0000 0000 0000 0000
000001a0: 0000 0000 0000 0000 0000 0000 0000 0000
000001b0: 0000 0000 0000 0000 0000 0000 0000 0000
000001c0: 0000 0000 0000 0000 0000 0000 0000 0000
000001d0: 0000 0000 0000 0000 0000 0000 0000 0000
000001e0: 0000 0000 0000 0000 0000 0000 0000 0000
000001f0: 0000 0000 0000 0000 0000 0000 0000 0000

value_heads.value_heads.extrinsic.weight f4 [1, 128]
-0.14876157 -0.07600424 0.086080045 0.03186649 -0.08527379 0.033051997 -0.16394289 0.18063617
0.081911296 0.16581294 -0.10881549 0.17916372 0.03358814 -0.091547504 -0.109413125 -0.10151015
-0.002122894 -0.17213705 -0.097198494 0.14588699 0.12268677 -0.16518308 -0.13100654 -0.08505374
0.13551575 0.024041682 0.06559688 0.15751627 0.14527488 0.09076145 0.10823992 0.10999426
0.19510981 0.17558113 -0.040365815 -0.1880132 -0.104615815 0.15749756 0.19699505 0.084910214
0.086084485 -0.060870036 -0.15563671 -0.08380701 -0.13776138 0.07648128 0.055765897 -0.08017187
-0.19551395 0.15499651 -0.10271029 -0.11297243 -0.042821214 -0.17809804 0.19254258 0.025749058
-0.21302523 -0.15426114 -0.14118153 0.18726125 0.21188405 -0.07240546 -0.10010046 -0.15792891
-0.06644745 0.19280824 0.12779176 0.08379507 0.045616955 0.15041953 0.008892417 0.10271937
-0.029049784 0.19431925 0.18771061 -0.14834891 0.06038937 -0.05090256 0.11270401 0.074254066
0.17777789 0.019749597 0.05950597 0.1090225 -0.20347396 -0.08878915 0.1118494 0.0660035
0.028989121 -0.005340427 -0.08922762 0.10942021 -0.17539889 -0.11144807 -0.006838754 0.15818065
0.15053552 -0.13084698 0.102104545 -0.20077822 0.06553492 0.14008221 -0.18394668 -0.026678368
-0.1626727 0.14097124 -0.06096457 0.020225197 -0.1806021 0.051046073 -0.042764083 -0.04604134
0.10321766 -0.03639853 0.09238672 0.10451096 0.009455666 -0.12239218 0.036648512 -0.21061556
-0.10197932 -0.066707805 -0.15146281 -0.09101226 -0.14050724 0.18882257 0.13413805 0.0048399866
00000000: f454 18be 1ca8 9bbd bc4a b03d 7086 023d
00000010: 06a4 aebd 8861 073d a5e0 27be b0f8 383e
00000020: 1cc1 a73d deca 293e a8da debd b276 373e
00000030: b893 093d 427d bbbd fd13 e0bd 8ee4 cfbd
00000040: 4020 0bbb b244 30be 0110 c7bd 6663 153e
00000050: 3443 fb3d c125 29be 9426 06be a830 aebd
00000060: a4c4 0a3e 10f3 c43c a857 863d f24b 213e
00000070: f0c2 143e 24e1 b93d e4ac dd3d ac44 e13d
00000080: deca 473e 8acb 333e a056 25bd 8886 40be
00000090: d140 d6bd 0a47 213e 12b9 493e 68e5 ad3d
000000a0: 104d b03d dc52 79bd 3b5f 1fbe 02a3 abbd
000000b0: 5211 0dbe 38a2 9c3d c86a 643d 2631 a4bd
000000c0: cf34 48be 68b7 1e3e c659 d2bd 175e e7bd
000000d0: 4c65 2fbd 555f 36be e229 453e b0ef d23c
000000e0: 4923 5abe a2f6 1dbe e491 10be 6ac1 3f3e
000000f0: 22f8 583e 5049 94bd 7801 cdbd 1eb8 21be
00000100: 9a15 88bd 866f 453e d8db 023e c09c ab3d
00000110: d8d8 3a3d 9407 1a3e 80b1 113c 885e d23d
00000120: d0f9 edbc a0fb 463e 3637 403e c7e8 17be
00000130: d85a 773d 347f 50bd 5cd1 e63d 8412 983d
00000140: 680b 363e e8c9 a13c 88bc 733d 3047 df3d
00000150: 7a5b 50be 16d7 b5bd 4c11 e53d d82c 873d
00000160: 987a ed3c c0fe aebb f8bc b6bd b417 e03d
00000170: c49b 33be e33e e4bd a017 e0bb 1cfa 213e
00000180: fc25 1a3e c0fc 05be 301c d13d ce98 4dbe
00000190: 2c37 863d b671 0f3e 855c 3cbe 988c dabc
000001a0: ac93 26be c45a 103e fcb5 79bd 50af a53c
000001b0: c2ef 38be b015 513d 6429 2fbd d895 3cbd
000001c0: c863 d33d a016 15bd 4035 bd3d d809 d63d
000001d0: f0eb 1a3c c0a8 fabd c01c 163d 9bab 57be
000001e0: 89da d0bd 1a9e 88bd 1119 1bbe a364 babd
000001f0: 21e1 0fbe b45a 413e 7c5b 093e c098 9e3b
