results/Test31/Move To Target.onnx (onnx, 75159 bytes, 6 tensors)

network_body._body_endoder.seq_layers.0.weight f4 [128, 6]
0.585407 0.5791781 -0.2947609 0.35127294 0.0092928875 0.2349814 0.01697047 0.15038954
-0.2867211 0.54013395 -0.45163867 -0.24543422 0.28683573 -0.23797694 0.8849881 0.23250791
0.48197213 0.029246427 0.5506645 -0.36197567 -0.12186223 0.18891217 0.55494696 -0.0014270524
-0.10233589 0.24506722 -0.6776495 -0.23027295 -0.3514754 -0.20759374 -0.32864317 0.40403625
-0.17039827 0.20054792 -0.19134067 -0.0279885 0.4715595 -0.33345404 -0.1857337 -0.88168997
-0.08728907 -0.55404127 0.2916346 0.057371117 0.070159346 -0.30075452 -0.52350724 -0.5219698
-0.1348053 -0.18234724 0.14500254 0.11901011 0.31325164 -0.57242376 0.04693746 0.36219767
-0.49604398 0.27544954 -0.34205922 -0.5638376 0.30435374 -0.20869939 -0.19065289 0.0606097
-0.6710282 0.7179742 -0.11091359 0.11452284 -1.1101041 -0.18391946 -0.9929133 0.30022356
0.73815787 0.42305022 0.25130153 -0.05311073 0.25441816 0.73094237 -0.42243814 0.32977736
-0.09888203 0.50123596 0.89793295 0.39183322 -0.3182796 0.4282977 -0.12606874 0.28478083
-0.6264913 -0.10150211 -0.105759755 -0.55884194 0.17667888 0.54350287 0.27906948 -0.4793807
-0.26107654 0.1512486 0.15165278 0.4417676 0.02132784 -0.82856506 0.5557654 -0.3641495
0.32854816 -0.28698838 -0.49689266 -0.27690217 -0.25631475 -0.6513876 -0.37644586 0.34901896
-0.25286612 -0.020863801 -0.14431158 -0.16956721 -0.41754463 0.44643655 0.24376865 -0.46747875
-0.3375348 -0.28376132 0.35486138 0.4984371 0.48026732 -0.07535964 -0.66157466 -0.4549608
-0.24148269 1.0299467 0.08455506 0.24977663 -0.022698998 -0.2596911 0.26338288 0.16577636
-0.18907025 0.29979247 0.31400618 0.4844956 -0.3089025 -0.033849232 0.07692229 -0.22879788
-0.0227181 0.051169552 0.2549706 -0.037613858 0.18141367 0.5811805 -0.19596626 0.23347694
-0.2184479 -1.0819004 0.48704594 0.22797704 0.12412691 0.11945549 0.08703624 -0.2125605
0.27377275 0.0264642 0.32434884 0.4699963 -0.9747448 -0.28398496 -0.052185576 0.052230034
-0.041414604 0.43857253 -0.5305841 0.10636058 0.15920126 -0.19577566 0.4803611 0.4089534
-0.31823295 0.44726288 0.62921077 -0.29488143 0.114698716 -0.061145056 0.13196492 0.11484308
-0.00436442 0.37189957 0.26641703 0.35561424 -0.2557184 0.065147944 0.3427836 0.06417575
0.16666393 0.23062243 -0.6480809 -0.2598776 -0.48847836 0.09412744 -0.018740565 0.33416897
-0.20850661 -0.4109091 -0.21087782 0.22841889 0.30248263 0.58790797 1.1358912 -0.11448423
-0.2905682 0.15036684 0.101801604 0.10871443 0.35934013 -0.20193587 0.056256857 0.16238625
-0.5780498 -0.014373143 -0.17331305 -0.04001272 0.49613598 -0.10179077 0.12348313 -0.007241154
0.12776664 -0.4729728 -0.03692607 0.3618301 -0.076615065 -0.5168258 0.23202159 -0.39893597
0.3191034 0.053749315 0.53670466 -0.06584763 -0.59591234 -4.7485213e-05 -0.05620274 -0.49969023
0.005127146 0.028508402 -0.25978073 -0.043302275 0.41060105 -0.37131798 0.30072388 0.05120703
0.13322233 0.004106917 0.21351402 -0.20593089 0.635447 0.29041418 -0.30638692 -0.27966222
00000000: 3cdd 153f 0445 143f e7ea 96be 0cda b33e
00000010: 3241 183c f79e 703e a805 8b3c b7ff 193e
00000020: 1ccd 92be 3846 0a3f 2f3d e7be 1c53 7bbe
00000030: 22dc 923e 3ab0 73be 958e 623f 8e16 6e3e
00000040: 0dc5 f63e 3496 ef3c 59f8 0c3f e054 b9be
00000050: e892 f9bd 3172 413e 0111 0e3f ef0b bbba
00000060: 7b95 d1bd e7f2 7a3e 707a 2dbf accc 6bbe
00000070: 95f4 b3be 7493 54be eb43 a8be d7dd ce3e
00000080: e27c 2ebe 6f5c 4d3e cfee 43be 2448 e5bc
00000090: 3f70 f13e 7dba aabe fa30 3ebe 6fb6 61bf
000000a0: 9dc4 b2bd a6d5 0dbf 2151 953e fafd 6a3d
000000b0: b4af 8f3d 7ffc 99be 9204 06bf d09f 05bf
000000c0: 670a 0abe 3cb9 3abe 8c7b 143e 93bb f33d
000000d0: 8562 a03e 5d8a 12bf 7e41 403d f971 b93e
000000e0: 7af9 fdbe b907 8d3e 6322 afbe a957 10bf
000000f0: 41d4 9b3e 4bb5 55be 833a 43be e041 783d
00000100: 81c8 2bbf 28cd 373f aa26 e3bd f38a ea3d
00000110: e417 8ebf 6255 3cbe 912f 7ebf e7b6 993e
00000120: eaf7 3c3f 0a9a d83e 98aa 803e a38a 59bd
00000130: 1943 823e 0a1f 3b3f d049 d8be 94d8 a83e
00000140: a982 cabd 0051 003f efde 653f 5d9e c83e
00000150: 8bf5 a2be d649 db3e 2a18 01be cbce 913e
00000160: bc61 20bf 57e0 cfbd 9298 d8bd 4410 0fbf
00000170: 4feb 343e 0123 0b3f 32e2 8e3e 6371 f5be
00000180: d3ab 85be eae0 1a3e de4a 1b3e 5d2f e23e
00000190: b9b7 ae3c d71c 54bf a446 0e3f ce71 babe
000001a0: 7737 a83e 24f0 92be b768 febe 1fc6 8dbe
000001b0: b03b 83be 56c1 26bf 83bd c0be 9db2 b23e
000001c0: ab77 81be 90ea aabc 6ac6 13be 07a3 2dbe
000001d0: 69c8 d5be 5593 e43e 7d9e 793e 6059 efbe
000001e0: 5cd1 acbe 2a49 91be 64b0 b53e 2633 ff3e
000001f0: 99e5 f53e 2856 9abd f55c 29bf 9ff0 e8be
00000200: 3d47 77be 4bd5 833f 342b ad3d 72c5 7f3e
00000210: 40f3 b9bc 3bf6 84be 1fda 863e 47c1 293e
00000220: a29b 41be 667e 993e 6bc5 a03e cf0f f83e
00000230: 7828 9ebe 7ea5 0abd 6f89 9d3d fe49 6abe
00000240: 4f1b babc 2a97 513d 828b 823e fd10 1abd
00000250: 81c4 393e 3fc8 143f 61ab 48be 9414 6f3e
00000260: ceb0 5fbe b67b 8abf 165e f93e d072 693e
00000270: 4036 fe3d 14a5 f43d 0e40 b23d 76a9 59be
00000280: f12b 8c3e 73cb d83c 0d11 a63e 5ba3 f03e
00000290: e088 79bf 7a66 91be 8bc0 55bd 29ef 553d
000002a0: 5ca2 29bd 948c e03e 5cd4 07bf 93d3 d93d
000002b0: a805 233e 6a79 48be e4f1 f53e 5762 d13e
000002c0: 6eef a2be a4ff e43e f513 213f b3fa 96be
000002d0: 29e7 ea3d 3d73 7abd d021 073e d932 eb3d
000002e0: 6903 8fbb 9f69 be3e d067 883e 1213 b63e
000002f0: 86ed 82be 496c 853d 5581 af3e 936e 833d
00000300: f3a9 2a3e 4928 6c3e a1e8 25bf ad0e 85be
00000310: d619 fabe e3c5 c03d d085 99bc 3218 ab3e
00000320: c282 55be ad62 d2be 5bf0 57be a4e6 693e
00000330: 01df 9a3e 2381 163f e264 913f b576 eabd
00000340: 5bc5 94be c4f9 193e 5c7d d03d aca5 de3d
00000350: 6efb b73e 47c8 4ebe 976d 663d 9548 263e
00000360: 12fb 13bf 557d 6bbc fa78 31be 61e4 23bd
00000370: 8905 fe3e ae77 d0bd b9e4 fc3d 3447 edbb
00000380: 42d5 023e 7e29 f2be ca3f 17bd cb41 b93e
00000390: 5ce8 9cbd b24e 04bf 1197 6d3e 5641 ccbe
000003a0: 8561 a33e 3e28 5c3d 7a65 093f 1fdb 86bd
000003b0: b68d 18bf dc2a 47b8 d834 66bd 66d7 ffbe
000003c0: 9e01 a83b 748a e93c fb01 85be ba5d 31bd
000003d0: 4d3a d23e 641d bebe 7bf8 993e 76be 513d
000003e0: 6f6b 083e 5193 863b 6ba3 5a3e 8cdf 52be
000003f0: a8ac 223f 2bb1 943e bfde 9cbe e32f 8fbe

network_body._body_endoder.seq_layers.0.bias f4 [128]
0.0 0.0 0.0 0.0 0.0 0.0 0.0 0.0
0.0 0.0 0.0 0.0 0.0 0.0 0.0 0.0
0.0 0.0 0.0 0.0 0.0 0.0 0.0 0.0
0.0 0.0 0.0 0.0 0.0 0.0 0.0 0.0
0.0 0.0 0.0 0.0 0.0 0.0 0.0 0.0
0.0 0.0 0.0 0.0 0.0 0.0 0.0 0.0
0.0 0.0 0.0 0.0 0.0 0.0 0.0 0.0
0.0 0.0 0.0 0.0 0.0 0.0 0.0 0.0
0.0 0.0 0.0 0.0 0.0 0.0 0.0 0.0
0.0 0.0 0.0 0.0 0.0 0.0 0.0 0.0
0.0 0.0 0.0 0.0 0.0 0.0 0.0 0.0
0.0 0.0 0.0 0.0 0.0 0.0 0.0 0.0
0.0 0.0 0.0 0.0 0.0 0.0 0.0 0.0
0.0 0.0 0.0 0.0 0.0 0.0 0.0 0.0
0.0 0.0 0.0 0.0 0.0 0.0 0.0 0.0
0.0 0.0 0.0 0.0 0.0 0.0 0.0 0.0
00000000: 0000 0000 0000 0000 0000 0000 0000 0000
00000010: 0000 0000 0000 0000 0000 0000 0000 0000
00000020: 0000 0000 0000 0000 0000 0000 0000 0000
00000030: 0000 0000 0000 0000 0000 0000 0000 0000
00000040: 0000 0000 0000 0000 0000 0000 0000 0000
00000050: 0000 0000 0000 0000 0000 0000 0000 0000
00000060: 0000 0000 0000 0000 0000 0000 0000 0000
00000070: 0000 0000 0000 0000 0000 0000 0000 0000
00000080: 0000 0000 0000 0000 0000 0000 0000 0000
00000090: 0000 0000 0000 0000 0000 0000 0000 0000
000000a0: 0000 0000 0000 0000 0000 0000 0000 0000
000000b0: 0000 0000 0000 0000 0000 0000 0000 0000
000000c0: 0000 0000 0000 0000 0000 0000 0000 0000
000000d0: 0000 0000 0000 0000 0000 0000 0000 0000
000000e0: 0000 0000 0000 0000 0000 0000 0000 0000
000000f0: 0000 0000 0000 0000 0000 0000 0000 0000
00000100: 0000 0000 0000 0000 0000 0000 0000 0000
00000110: 0000 0000 0000 0000 0000 0000 0000 0000
00000120: 0000 0000 0000 0000 0000 0000 0000 0000
00000130: 0000 0000 0000 0000 0000 0000 0000 0000
00000140: 0000 0000 0000 0000 0000 0000 0000 0000
00000150: 0000 0000 0000 0000 0000 0000 0000 0000
00000160: 0000 0000 0000 0000 0000 0000 0000 0000
00000170: 0000 0000 0000 0000 0000 0000 0000 0000
00000180: 0000 0000 0000 0000 0000 0000 0000 0000
00000190: 0000 0000 0000 0000 0000 0000 0000 0000
000001a0: 0000 0000 0000 0000 0000 0000 0000 0000
000001b0: 0000 0000 0000 0000 0000 0000 0000 0000
000001c0: 0000 0000 0000 0000 0000 0000 0000 0000
000001d0: 0000 0000 0000 0000 0000 0000 0000 0000
000001e0: 0000 0000 0000 0000 0000 0000 0000 0000
000001f0: 0000 0000 0000 0000 0000 0000 0000 0000

network_body._body_endoder.seq_layers.2.weight f4 [128, 128]
0.099414855 0.111205 -0.017173953 0.006248647 -0.013826117 0.09455217 0.027132245 0.10844329
0.11261268 -0.08934469 0.0062682037 -0.009364549 0.18448815 -0.07619806 0.13407977 0.08270778
-0.070257075 0.1675748 -0.12738173 -0.020089822 -0.06925567 0.025818093 0.09081057 0.056248978
-0.10688679 0.13753569 -0.014337852 -0.007294035 0.07307378 0.017055241 0.036205284 0.11441158
0.06662906 -0.031621188 0.048359636 -0.052737154 -0.20584048 0.08181035 0.043225057 -0.092039056
-0.089537576 -0.054467276 0.043657444 -0.13692723 -0.023508176 -0.022555253 -0.031036196 -0.19336127
0.06795888 -0.0048687425 -0.024019377 -0.15448423 0.069592424 -0.026873162 0.054521877 0.039958403
0.01804659 -0.06949476 0.035118792 0.02604951 -0.110175885 0.056243166 0.08179225 -0.053847626
0.060406175 -0.0054106284 0.065903 0.0555837 0.06804035 0.011184604 0.1524452 0.08412098
-0.040737882 -0.020524472 0.02273477 0.060889237 0.1309951 0.16197011 -0.0753267 -0.0022630887
0.055640087 -0.19858472 0.10055337 -0.022408808 0.15060699 -0.009076402 -0.061414912 0.09836019
-0.115502834 0.09695559 -0.15274458 -0.011561479 -0.09143191 -0.00968244 0.029492434 -0.015457481
0.07139856 -0.05222047 -0.0009260312 0.089439206 -0.07952769 -0.12709872 -0.13263406 -0.08967542
0.13038108 0.051010072 -0.21556461 0.026283959 -0.040039834 -0.10437411 -0.08102932 0.1310781
-0.16737019 0.017866328 -0.03260982 0.037680045 0.019647157 0.026364839 -0.0759032 0.05047202
0.1724749 -0.038798295 -0.11275526 -0.090806544 0.16099358 -0.04280172 -0.06425287 -0.033369843
0.07078619 0.072020404 0.057287857 0.1606355 -0.067724615 -0.0095669115 -0.031359293 0.23332727
-0.09128706 -0.0029943075 0.00022611233 -0.03622811 -0.00014858907 0.016057637 -0.059687153 -0.019967766
-0.15961939 -0.066277966 -0.05513162 0.019832235 0.016698724 0.099470355 -0.07859338 0.049589954
-0.030192291 -0.030961923 0.030744813 -0.09654232 0.13018668 -0.007329271 -0.032232575 0.09205737
-0.05822937 -0.057511512 0.0811068 -0.13793617 -0.17413937 -0.098986275 -0.043519866 -0.088664755
-0.15450867 0.002538313 0.01575358 -0.011718761 -0.12540838 -0.025640216 -0.15156865 -0.073389485
-0.023469143 0.17860135 -0.08285167 0.0752697 -0.04694158 0.2140768 -0.097438015 -0.19031875
-0.1630894 -0.16794609 -0.016790476 0.013249184 0.112488195 0.088481024 -0.11243727 -0.16267414
-0.023903454 -0.080595 0.0035426507 -0.06184955 -0.08851031 -0.0015478407 0.12905978 0.04239561
-0.034624785 -0.04413613 -0.13644522 0.0798525 0.07333346 0.01189041 0.012769845 -0.05413093
0.09913495 -0.06307743 0.008223955 0.08104593 -0.13824365 -0.23479255 0.0046400097 0.087871656
0.110512406 0.08038926 0.14182834 0.09294263 0.05310163 0.029206261 -0.015661158 0.0020445825
-0.1789286 0.0072028087 0.24397495 0.016898684 0.120404586 -0.10999497 -0.044070516 0.021252176
-0.082163274 0.02423362 0.026552148 -0.0067607635 -0.10250446 -0.0925599 0.071232885 -0.17987533
0.056104273 -0.046592943 0.09594818 0.042545076 -0.06158715 0.00019599093 -0.05314796 -0.00989399
0.07703605 -0.01002428 0.004635796 -0.02431347 -0.031057399 0.06113062 0.10911317 -0.018540202
00000000: 049a cb3d 72bf e33d 64b0 8cbc 73c1 cc3b
00000010: f086 62bc 91a4 c13d 7144 de3c 8417 de3d
00000020: 7aa1 e63d 59fa b6bd 8165 cd3b c46d 19bc
00000030: 76ea 3c3e ba0d 9cbd 354c 093e b262 a93d
00000040: f1e2 8fbd ba98 2b3e 5b70 02be 6993 a4bc
00000050: ebd5 8dbd 7780 d33c e4fa b93d 5465 663d
00000060: 76e7 dabd 28d6 0c3e 4fe9 6abc cd02 efbb
00000070: b5a7 953d 6fb7 8b3c fe4b 143d 9e50 ea3d
00000080: d174 883d 3885 01bd c114 463d ea02 58bd
00000090: d9c7 52be 2f8c a73d c20c 313d f97e bcbd
000000a0: 7a5f b7bd 1419 5fbd 26d2 323d a736 0cbe
000000b0: 3894 c0bc cbc5 b8bc 9f3f febc 7f00 46be
000000c0: 062e 8b3d f989 9fbb 49c4 c4bc 1d31 1ebe
000000d0: 7986 8e3d 1b25 dcbc 5552 5f3d 6cab 233d
000000e0: 71d6 933c 4553 8ebd b9d8 0f3d c865 d53c
000000f0: e5a3 e1bd 3c5f 663d b282 a73d 548f 5cbd
00000100: 776c 773d a44b b1bb 27f8 863d bcab 633d
00000110: bd58 8b3d a13f 373c 981a 1c3e 9f47 ac3d
00000120: c4dc 26bd f022 a8bc 453e ba3c fe66 793d
00000130: 9423 063e 7edb 253e e344 9abd 5450 14bb
00000140: dce6 633d cb59 4bbe edee cd3d ad92 b7bc
00000150: b838 1a3e 30b5 14bc 348e 7bbd 1171 c93d
00000160: c08c ecbd a790 c63d 1369 1cbe 5c6c 3dbc
00000170: a740 bbbd 19a3 1ebc 1e9a f13c 6041 7dbc
00000180: 6939 923d 22e5 55bd e7c0 72ba e72b b73d
00000190: 6adf a2bd 2b26 02be 39d1 07be bfa7 b7bd
000001a0: 9e82 053e f0ef 503d f8bc 5cbe 7551 d73c
000001b0: cf00 24bd 18c2 d5bd b3f2 a5bd 5639 063e
000001c0: 1763 2bbe 685c 923c e091 05bd 6456 1a3d
000001d0: 13f3 a03c 13fb d73c 2373 9bbd c0bb 4e3d
000001e0: 439d 303e f6ea 1ebd 3bec e6bd c8f8 b9bd
000001f0: 80db 243e db50 2fbd 0297 83bd d1ae 08bd
00000200: 5af8 903d 6f7f 933d aca6 6a3d a27d 243e
00000210: 34b3 8abd 89be 1cbc 9a72 00bd 58ed 6e3e
00000220: b6f4 babd 253c 44bb 9118 6d39 ed63 14bd
00000230: 93ce 1bb9 4e8b 833c 847a 74bd 7193 a3bc
00000240: 4473 23be bebc 87bd b2d1 61bd 3677 a23c
00000250: c3cb 883c 1db7 cb3d 91f5 a0bd d61e 4b3d
00000260: d355 f7bc dca3 fdbc 8cdc fb3c fbb7 c5bd
00000270: a84f 053e 622a f0bb 4e06 04bd 9388 bc3d
00000280: eb81 6ebd 3191 6bbd 521b a63d 243f 0dbe
00000290: 9751 32be 51b9 cabd e341 32bd de95 b5bd
000002a0: 8537 1ebe d359 263b a70d 813c 0c00 40bc
000002b0: 0e6b 00be 6e0b d2bc d034 1bbe 3a4d 96bd
000002c0: 5c42 c0bc 46e3 363e 23ae a9bd 0027 9a3d
000002d0: d045 40bd f336 5b3e 958d c7bd ebe2 42be
000002e0: e800 27be 0ffa 2bbe 2e8c 89bc 1b13 593c
000002f0: 3660 e63d 8a35 b53d 8345 e6bd 0d94 26be
00000300: 2dd1 c3bc fe0e a5bd d12b 683b f455 7dbd
00000310: e544 b5bd eae0 caba 3f28 043e 05a7 2d3d
00000320: b8d2 0dbd 16c8 34bd 4cb8 0bbe b589 a33d
00000330: da2f 963d ffcf 423c 9d38 513c 65b8 5dbd
00000340: 4407 cb3d bd2e 81bd c4bd 063c 69fb a53d
00000350: be8f 0dbe 756d 70be 390b 983b 0ef6 b33d
00000360: 5454 e23d 20a3 a43d 733b 113e b558 be3d
00000370: 1881 593d f841 ef3c d44b 80bc 67fe 053b
00000380: 0f39 37be 8a05 ec3b 92d4 793e 1c6f 8a3c
00000390: ae96 f63d 0b45 e1bd 4983 34bd 0b19 ae3c
000003a0: 3845 a8bd 9685 c63c e483 d93c 6589 ddbb
000003b0: dced d1bd 0b90 bdbd 8ce2 913d 3d31 38be
000003c0: 98cd 653d 3ed8 3ebd 7b80 c43d bf43 2e3d
000003d0: cf42 7cbd ea82 4d39 adb1 59bd 671a 22bc
000003e0: 14c5 9d3d e13c 24bc e0e7 973b 0b2d c7bc
000003f0: 166c febc 1a64 7a3d ba76 df3d 9fe1 97bc

action_model._continuous_distribution.log_sigma f4 [1, 3]
0.0 0.0 0.0
00000000: 0000 0000 0000 0000 0000 0000

action_model._continuous_distribution.mu.weight f4 [3, 128]
0.0072153085 -0.008239529 0.024068959 -0.04303126 7.4289055e-05 0.011394549 -0.0033631015 -0.005324906
-0.021566775 0.04702105 0.019491142 0.0044902223 0.020927057 -0.020429058 -0.009460247 -0.0019981319
0.0040655523 0.011553339 0.008828129 0.0028222443 -0.0006148384 -0.023826336 0.03402709 -0.014198417
-0.024579884 -0.0019837923 0.004604318 -0.024439974 0.042301748 -0.037362244 0.019784693 0.002853489
-0.0031977673 -0.0041924017 0.011864637 -0.03504452 -0.0060536982 0.013107898 -0.030982418 -0.019501543
0.009365623 0.02280095 -0.022467008 0.0045799958 0.0040309536 0.027908428 0.00074103294 -0.029718965
-0.0058409497 -0.013655572 0.032462973 -0.017551417 0.008988479 -0.031513553 0.024521085 0.0010277223
-0.012696895 0.013003674 -0.0018813914 0.026051546 0.0055830083 0.011999986 -0.027480995 -0.0075798007
-0.020747807 -0.006692245 0.0007463636 -0.011522696 0.0543136 -0.037426125 0.014719598 -0.019298973
-0.00026583517 0.0031071848 -0.019062707 -0.0072868103 0.02846925 0.0018293274 -0.027179966 -0.018250933
0.004286059 0.025990387 -0.006492632 -0.020045914 0.011325265 0.000678783 0.010420418 0.010627949
0.013784758 -0.0041734925 -0.0010064243 -0.022313371 -0.008309807 0.0041912138 -0.030721402 -0.005444173
0.012143211 -0.013378972 -0.004802139 0.0030789373 0.007671721 0.008855796 -0.0020618297 0.008945178
0.00056693883 -0.008933553 0.004202343 0.0035274543 -0.026446654 -0.013001757 0.020975975 -0.01545264
-0.011753792 -0.0068215616 0.01565277 0.021856416 -0.016021058 0.0010580687 0.0007074155 0.01385961
0.019250825 -0.010201495 -0.0011138918 -0.013781868 0.0065674456 -0.030493978 -0.0044362224 0.027326977
-0.01737067 0.019929878 -0.042607177 0.006023362 0.018873239 0.0008296333 -0.00090338086 0.0014361445
0.00065828423 -0.03293546 -0.043466352 0.009346521 0.0060253623 0.0041224486 -0.0032916125 0.009402165
0.0058654896 -0.009648009 0.018451367 -0.008623958 0.015985476 -0.0014950993 -0.031419616 -0.015757566
-0.01562772 0.0020646206 -0.036655102 0.003526751 0.010681353 0.020019887 -0.009871307 -0.013239332
0.0070266663 0.017599013 0.00987552 0.059197735 0.0175735 -0.01209152 -0.019362604 -0.012547699
0.005019469 -0.002407981 0.013340487 0.0049370117 0.014135579 -0.00044780737 0.017109482 0.009587339
-0.0300213 -0.002612489 -0.017692795 -0.006254427 -0.00818483 0.0065339166 -0.014460613 0.00532947
-0.02305904 -0.018942455 0.023861555 -0.0017631821 0.009881123 0.0032646947 0.027976045 0.008461466
-0.000907425 0.00050093455 -0.008270437 -0.011178858 0.014358378 0.01855368 -0.024753554 -0.008164645
0.020590957 -0.015295747 0.019547822 0.0030582468 -0.018106181 -0.0029370524 -0.009594115 -0.0031387259
0.0056556477 0.018334277 0.021254564 -0.015530777 -0.025948336 0.02263138 -0.01178025 0.0136066675
-0.010597243 -0.024138145 0.02831672 -0.002583267 0.027751876 -0.0026047514 0.012451674 -0.026246658
0.02505376 -0.018170677 -0.023859266 -0.018182332 -0.0028193966 -0.002581692 0.02059259 0.030109828
-0.0098947715 -0.0025947148 -0.022164231 0.0013183354 0.031100651 0.025079578 0.007257219 0.014984712
-0.005914188 -0.022123575 -0.0051757935 0.028790517 0.019097125 0.010847527 0.038139563 0.0030649332
0.0027237164 0.025102412 -0.006781347 0.016406186 0.0012309159 0.024576219 0.042382024 0.0056785354
00000000: 656e ec3b 17ff 06bc 442c c53c 8c41 30bd
00000010: a2cb 9b38 34b0 3a3c 7b67 5cbb 8d7c aebb
00000020: ceac b0bc 2599 403d e3ab 9f3c b722 933b
00000030: 386f ab3c d75a a7bc 27ff 1abc 17f3 02bb
00000040: 5338 853b 374a 3d3c dba3 103c 67f5 383b
00000050: 1b2d 21ba 732f c3bc fd5f 0b3d 7aa0 68bc
00000060: c15b c9bc 8302 02bb d2df 963b 5736 c8bc
00000070: 9944 2d3d 2709 19bd 8213 a23c 9a01 3b3b
00000080: a291 51bb 6a60 89bb e563 423c d88a 0fbd
00000090: 1a5e c6bb 82c2 563c d7ce fdbc b3c1 9fbc
000000a0: 4572 193c 0fc9 ba3c bb0c b8bc ca13 963b
000000b0: 1716 843b 37a0 e43c e141 423a 3075 f3bc
000000c0: 7065 bfbb 9fbb 5fbc e5f7 043d fdc7 8fbc
000000d0: 6a44 133c 5b14 01bd 71e0 c83c a3b4 863a
000000e0: a306 50bc 5d0d 553c 0599 f6ba 0d6a d53c
000000f0: abf1 b63b 979b 443c d31f e1bc fa5f f8bb
00000100: 4ef7 a9bc 9f4a dbbb 9da7 433a b1c9 3cbc
00000110: f077 5e3d 234c 19bd 782a 713c e118 9ebc
00000120: cb5f 8bb9 e9a1 4b3b 6529 9cbc 32c6 eebb
00000130: 5838 e93c 0bc6 ef3a 85a8 debc fb82 95bc
00000140: 1272 8c3b cbe9 d43c 25c0 d4bb 5437 a4bc
00000150: 9b8d 393c 5bf0 313a 67ba 2a3c d920 2e3c
00000160: 77d9 613c cbc1 88bb ffe9 83ba 88ca b6bc
00000170: db25 08bc 7356 893b 73ab fbbc 0865 b2bb
00000180: 52f4 463c 7a33 5bbc 435b 9dbb ffc7 493b
00000190: 0f63 fb3b e717 113c c31f 07bb cc8e 123c
000001a0: 9f9e 143a 095e 12bc cfb3 893b dd2c 673b
000001b0: a7a6 d8bc 5205 55bc cfd5 ab3c 122d 7dbc
000001c0: fa92 40bc 6887 dfbb 3d3a 803c 3a0c b33c
000001d0: 983e 83bc e5ae 8a3a da71 393a 6b13 633c
000001e0: e8b3 9d3c 2c24 27bc 0200 92ba 58cd 61bc
000001f0: ba33 d73b 82ce f9bc bb5d 91bb d3dc df3c
00000200: ef4c 8ebc fc43 a33c dd84 2ebd 9f5f c53b
00000210: 0d9c 9a3c c07b 593a ddd0 6cba 033d bc3a
00000220: b590 2c3a 55e7 06bd c609 32bd 2722 193c
00000230: 6770 c53b 9b15 873b 18b8 57bb 8a0b 1a3c
00000240: 4b33 c03b af12 1ebc 5227 973c 804b 0dbc
00000250: f9f3 823c 35f7 c3ba dbb1 00bd 0316 81bc
00000260: b405 80bc 964e 073b a923 16bd 1021 673b
00000270: d700 2f3c bf00 a43c 43bb 21bc c8e9 58bc
00000280: f33f e63b ce2b 903c efcc 213c 5379 723d
00000290: 4df6 8f3c 831b 46bc 539e 9ebc dd94 4dbc
000002a0: 5c7a a43b 38cf 1dbb 0f92 5a3c a8c6 a13b
000002b0: ea98 673c b0c7 eab9 2f29 8c3c 3714 1d3c
000002c0: 3bef f5bc 4b36 2bbb 7bf0 90bc f0f1 ccbb
000002d0: aa19 06bc 771a d63b 35ec 6cbc d6a2 ae3b
000002e0: 50e6 bcbc 352d 9bbc 4f79 c33c 931a e7ba
000002f0: 6fe4 213c 7df4 553b 052e e53c f6a1 0a3c
00000300: 43e0 6dba 2651 033a ba80 07bc 8727 37bc
00000310: 673f 6b3c e3fd 973c f7c7 cabc 01c5 05bc
00000320: 5eae a83c 039b 7abc c122 a03c de6c 483b
00000330: 6a53 94bc 907b 40bb a330 1dbc 15b3 4dbb
00000340: 0353 b93b c431 963c 0d1e ae3c cd74 7ebc
00000350: 9b91 d4bc 7265 b93c f301 41bc 80ee 5e3c
00000360: 0fa0 2dbc 5cbd c5bc 77f8 e73c 074c 29bb
00000370: e757 e33c 7ab4 2abb 1b02 4c3c 3b03 d7bc
00000380: 8b3d cd3c acda 94bc 8274 c3bc 1df3 94bc
00000390: a0c5 38bb 9b31 29bb cbb1 a83c e3a8 f63c
000003a0: ae1d 22bc 170c 2abb c391 b5bc ffcb ac3a
000003b0: cbc6 fe3c b073 cd3c f7cd ed3b 7082 753c
000003c0: cecb c1bb 803c b5bc b499 a9bb 17da eb3c
000003d0: 9371 9c3c d3b9 313c 3b38 1c3d 0cdd 483b
000003e0: 6180 323b 93a3 cd3c 1036 debb 4466 863c
000003f0: af56 a13a 1154 c93c c698 2d3d 0213 ba3b

action_model._continuous_distribution.mu.bias f4 [3]
0.0 0.0 0.0
00000000: 0000 0000 0000 0000 0000 0000
