results/Test28/Move To Target/Move To Target-499948.pt (torch, 443607 bytes, 36 tensors)

network_body._body_endoder.seq_layers.0.weight f4 [128, 6]
00000000: 227c dfbd c124 b63e ba86 853e f58b fe3d
00000010: 1795 9dbd 116d 80bf b866 0ebe c026 96be
00000020: 9945 e33e 269e 8b3c dc56 cabd 1d2b 463b
00000030: d804 963e 531f 1f3e ff1b 55be db7f fd3d
00000040: 7341 913e 5f78 383f 1743 1fbe 89aa bb3e
00000050: 373a 38be b18c 45bf 055c e2be 888e adbe
00000060: 79c0 1c3f 92d8 c23d 451e d8be af76 c33e
00000070: 0aa0 f9be 919e d33e 662d 4cbd 57a7 adbe
00000080: 976f a3be c5f0 bdbe 0ea9 b2be c741 043f
00000090: b499 06be 0d62 a3be a9bc 83bc 26f7 013f
000000a0: 50bc 0abe 5ab7 053f fee0 653e a1ce 8b3e
000000b0: 201f e3be c32e c83d 8c66 153b b0cc 873e
000000c0: faf2 173c ef3b 0c3f 8744 933e 9b73 9fbe
000000d0: 7479 413e 25c6 28bd 81a9 e0bd 2b19 e93e
000000e0: 87ec f73d 5302 dd3d 38a1 84bb 6c4d b7be
000000f0: 0c2e 8dbe a979 33bf 8988 593d ce0c 46be
00000100: aab4 ec3e 03e4 12be 3197 30be c71a 4fbd
00000110: f9d2 97be 9d18 9dbc 5ccd 58be 709f 153f
00000120: b43c 793e 4ce6 ab3e e72a c73d 6951 3b3f
00000130: 44d6 35be 489b 443f 35e4 8d3c 1353 e33e
00000140: d5e6 7bbe 0845 093f a358 013f f568 1c3f
00000150: 9e81 87be 6057 bbbd f916 933d 333e e7be
00000160: 24f0 1bbe b251 333f 201f 0fbf 4e9d 6d3e
00000170: fff8 1bbe 32e3 8abe 4823 613d 9e37 e6be
00000180: 51fa 23bf e8a5 a7be 5319 a63d f9d6 30be
00000190: cb00 cdbd 5c20 243d 5c60 4a3e ca89 023f
000001a0: bb38 eabd 3c84 93bd c964 61bf fca9 61bf
000001b0: 3877 c83e 1a99 b93b 015f 4abf 3282 64be
000001c0: 669b 9dbe c74f 8d3e 9f6b 0abf 9cc3 0a3f
000001d0: 9eda 773d a72c 3c3f a529 133f 63f1 233f
000001e0: 8b04 e3be 4691 243f d417 123f d1b2 bc3d
000001f0: 1c05 9a3e 6f58 dc3e c78f 2d3f 5440 993e
00000200: c2e8 a1bd 712c f8be 1fb8 2c3e 5d71 e43e
00000210: 86f4 6fbc fbdf a63e d086 3ebd 1ce0 943d
00000220: 50b7 d6bd a405 eb3e e385 a2be 29b5 a93e
00000230: 65d3 a33e 8cf6 cabd b982 f3be 3e17 913e
00000240: 4e25 653e e16b 9bbd 32df 87bd 2df8 353e
00000250: 7ecf 32be 1d8b 22bf 3d4d 4e3e 6b29 2a3e
00000260: 494d 05bd 4636 05be 98bd b3bb 0ff3 273f
00000270: 265b 1d3e 6006 163f a217 02bf 63d8 fcbe
00000280: 0042 213e 52e6 313f ac60 443d a27c 82be
00000290: 2b63 1dbe b5ed b6be e0a9 623c 935c 32be
000002a0: de23 7d3e ae05 49be 68c5 d03e eac3 debe
000002b0: 6a72 27bf db6f 38bd 45d6 063f c605 933d
000002c0: 1735 1fbe 1186 1c3f ddaf febe 08b2 35bf
000002d0: ff43 3dbd 15de c63e 5abf 0dbe 0a3d bd3e
000002e0: 6e9d c43e 1ed1 ee3e 72a9 25bf b20c 453f
000002f0: 4cba aa3e 0b22 d13c 0d1c 74bc 8f36 7f3e
00000300: 8a30 9abe c2ab 803e 3edc 393f d323 08be
00000310: 3d30 bd3d ff09 4bbe bbbe 65be 1e59 843e
00000320: 765a 30be 8877 36bf 8704 89bd 389d babd
00000330: aff8 953e 8693 aa3e c2b3 f9be 8fde ddbe
00000340: f25f 163d 68ca 373f dc69 19be c168 06bf
00000350: ad4c a53e a602 603f 32dc 943e 6e8a de3d
00000360: c486 743d 948f 3bbe b9fe 17bd 20aa d73d
00000370: ada3 fcbe 66ed 75bf b4b0 b13e 1613 19bd
00000380: d5f8 853e 102c 38be d745 53be 23de fe3e
00000390: 7c62 9c3e bf67 423f 56ee 47bf a815 173e
000003a0: 31e6 bdbe 6684 d13e efb7 11bf a03d 2ebe
000003b0: 8b52 aa3d ddcd 5abe fc3a 073e 3efa 04be
000003c0: 9c5a aa3e 753c 8b3d 47f7 8abe f71c e3ba
000003d0: 674e 403f 931f cc3d a16f 56be c5d5 783d
000003e0: ef96 05be 6f7c 57be a202 61be 7f22 023f
000003f0: 1d63 d4be ba05 193f 1e02 673e ffaa c73d
-0.10912348 0.35574916 0.2607935 0.124290384 -0.07694452 -1.0033284 -0.13906372 -0.2932644
0.44389036 0.017043184 -0.09879848 0.00302381 0.2930057 0.15539293 -0.20811461 0.12377902
0.28370246 0.7205867 -0.15552936 0.36653545 -0.17990957 -0.77167803 -0.4421083 -0.33897805
0.6123119 0.09513964 -0.42210594 0.38176486 -0.48754913 0.41331914 -0.049847983 -0.33916733
-0.31921074 -0.37097755 -0.34894603 0.5166287 -0.1314457 -0.31910744 -0.016081171 0.50767744
-0.13548398 0.522329 0.22449109 0.27306083 -0.44359684 0.09774544 0.0022796718 0.26523352
0.009274239 0.5477895 0.2876322 -0.31142887 0.18893987 -0.04120459 -0.1096983 0.45527014
0.12105661 0.10791459 -0.004047539 -0.35801256 -0.27574193 -0.70107514 0.053108726 -0.19340822
0.46231586 -0.14344792 -0.17245175 -0.050562646 -0.29653147 -0.019176776 -0.21172088 0.5844641
0.24339563 0.3357414 0.0972498 0.731711 -0.17757517 0.7679944 0.017320732 0.44399318
-0.24599774 0.5362096 0.50525874 0.6109765 -0.26466078 -0.09147525 0.07182116 -0.45164642
-0.15228325 0.7004653 -0.5590687 0.23204538 -0.15231703 -0.2712646 0.054965287 -0.44964308
-0.6405383 -0.32743764 0.08110299 -0.17269506 -0.10009917 0.040069923 0.1976332 0.509915
-0.11436602 -0.07202956 -0.8804441 -0.8815 0.39153457 0.005664003 -0.79051214 -0.2231529
-0.30782622 0.27599928 -0.54070467 0.54204726 0.060511224 0.73505634 0.5748542 0.640402
-0.44339404 0.6428417 0.5706761 0.09213794 0.30082023 0.4303622 0.6779751 0.2993189
-0.07905723 -0.48471406 0.16867112 0.4461774 -0.014645701 0.3259276 -0.046515286 0.07269308
-0.10484183 0.4590274 -0.31742772 0.33146027 0.3199722 -0.09910306 -0.4756067 0.28338045
0.22377512 -0.07588936 -0.06634368 0.17770453 -0.17461964 -0.6349352 0.20146652 0.16617362
-0.032544408 -0.13008985 -0.005485248 0.65605253 0.15366802 0.5860348 -0.5081731 -0.4938384
0.15747833 0.69492066 0.047943756 -0.25485712 -0.15369861 -0.3572823 0.013834447 -0.17418127
0.24720713 -0.19631073 0.4077561 -0.43508846 -0.65408957 -0.04502855 0.526707 0.071788356
-0.15547596 0.6114207 -0.49743548 -0.7097478 -0.046207424 0.3884131 -0.13842526 0.36960632
0.3840136 0.4664392 -0.6471168 0.76972497 0.33345258 0.025528928 -0.014899266 0.24923156
-0.30115157 0.2513104 0.7260169 -0.13294916 0.09237716 -0.19828032 -0.22436039 0.2584924
-0.17222008 -0.7127614 -0.06690317 -0.09112018 0.29291293 0.33315676 -0.48769957 -0.4333386
0.036712594 0.7179322 -0.14981788 -0.5250359 0.3228506 0.8750404 0.29074246 0.10866247
0.059698835 -0.1831649 -0.037108157 0.10530496 -0.49343625 -0.96065366 0.34705126 -0.037371717
0.26166406 -0.17985559 -0.2063211 0.49778852 0.30543888 0.75939554 -0.78098047 0.14754355
-0.37089685 0.40921324 -0.56921285 -0.17015696 0.08316525 -0.21367593 0.13206095 -0.12986085
0.33272254 0.06798641 -0.27141783 -0.0017327358 0.7511963 0.0996696 -0.2094102 0.06075074
-0.13045858 -0.21043561 -0.2197366 0.50833887 -0.41481867 0.59774363 0.22559401 0.09749412

network_body._body_endoder.seq_layers.0.bias f4 [128]
00000000: 84e5 0dbb 8497 b9ba fe5b d33a 49b8 cebc
00000010: 011e 94ba 49a2 0bbb 4f42 c13a e2a5 bcba
00000020: acdf 2c3c 0566 cabb f319 9e3c c054 afbb
00000030: f5d4 d1bb 15a7 f3bb a235 03ba f536 803b
00000040: 9cf8 72bb d63b 69ba 9810 23ba 15bd 353c
00000050: e1e8 863b 796d feb8 35ec 8cb9 4837 deba
00000060: a455 823b e31c 9c3a ec96 f73b 1dcd 2fbb
00000070: 603d d3bb a389 04bc cb33 21bb 0ae3 90bc
00000080: 20df 5f3b 0ad9 c1bb 3c1c c43a 6b1f 48bc
00000090: d7ac 1dbc 049b 333a 4e2e ef3b a229 84bc
000000a0: a466 88bb 575a 42bb e39c c93b 6a12 cc3b
000000b0: 3791 3c3b bd92 073b 9c2e 333b b2cf 54bb
000000c0: f963 96bb 375e 0dbb 20a6 68bb c93c d5bb
000000d0: 9d23 b33b 48e1 6bba d948 5c3b 813d afbb
000000e0: 474a 8b3a ba15 183b 7d68 bbba da27 c93b
000000f0: f4f7 b5bb 2a08 963b a1c8 f93b 1b93 56b9
00000100: 5196 023a d9bf 1dbb 3491 9dba f084 2f3c
00000110: 67bf cc38 8d58 0ebb a754 f1bb fef6 953b
00000120: 664f 923b 3d7e a1ba 604f 57bb 88d6 173b
00000130: 9a96 5b3c f95c ddbb 5c0b a83d b47a 223c
00000140: 0296 353c 09ba efbb e569 823b 790b 173c
00000150: 9105 513c 086f 323c 91eb 9ebc 7a16 cfba
00000160: 2085 99bb bc38 c5bb e2f8 a7ba 4924 113a
00000170: 95f7 03ba 6e0d cabc a5bc fa3b 4ac6 b93b
00000180: 4393 973c 14f1 b6bb fa9d 993b 9b1c 40bb
00000190: 37e0 073d c1b4 083c f298 fe3b 6d88 cbbb
000001a0: 90fd 0d3c 480a 033c 2a9d 1237 04f2 47bc
000001b0: 5178 92bb 0d2a 1e3c ed49 40bb bbb6 47bc
000001c0: a3d1 2bbc ac92 9cbc ed39 833a fda2 bcbb
000001d0: 7b45 61ba 7bc0 063b 123c 28bb 58bc aabb
000001e0: efbf fb3c f5a4 043b c5d7 1dbc 47a9 14bb
000001f0: 5ddd 8cba b22b 84bc e871 803c cc5e c63b
-0.0021651695 -0.0014159535 0.0016125438 -0.025234358 -0.0011300446 -0.0021306446 0.0014744493 -0.0014392699
0.010551374 -0.0061767125 0.019299483 -0.005350679 -0.0064035603 -0.007435689 -0.00050052453 0.0039128014
-0.0037074452 -0.0008897161 -0.0006220429 0.011092444 0.004117117 -0.00012132055 -0.0002687887 -0.0016953731
0.0039774943 0.0011910464 0.007555833 -0.0026825138 -0.0064465255 -0.008089456 -0.0024597521 -0.017686386
0.0034160092 -0.0059157657 0.0014962028 -0.012214522 -0.009623728 0.0006851407 0.007299221 -0.016133133
-0.0041626263 -0.0029655898 0.0061527356 0.006227781 0.0028773078 0.0020686828 0.0027341014 -0.003247243
-0.0045895544 -0.002157105 -0.003549941 -0.0065074903 0.005466892 -0.0008998108 0.0033612757 -0.005347908
0.0010626995 0.002320631 -0.0014298108 0.006138784 -0.00555324 0.00457861 0.007622794 -0.00020463431
0.00049815053 -0.002407065 -0.0012021423 0.010712847 9.7631295e-05 -0.002172026 -0.0073648277 0.004576563
0.0044650314 -0.0012320947 -0.0032853708 0.0023168642 0.013402605 -0.006755468 0.08205292 0.00991695
0.011083128 -0.0073158783 0.003979909 0.009219044 0.012757675 0.01089073 -0.019399436 -0.0015799545
-0.004685059 -0.006018726 -0.0012815262 0.0005536718 -0.0005034146 -0.024664607 0.0076518827 0.00566939
0.018502837 -0.005582938 0.0046880217 -0.0029313925 0.033172812 0.008343876 0.0077696973 -0.0062113316
0.008666411 0.007998057 8.738871e-06 -0.012203697 -0.0044699092 0.00965358 -0.0029340938 -0.012189562
-0.010486993 -0.019112907 0.001001177 -0.0057567344 -0.0008593422 0.0020561505 -0.002567057 -0.0052104406
0.03073117 0.0020239924 -0.009633963 -0.0022683905 -0.0010747124 -0.016134117 0.015679315 0.006053781

network_body._body_endoder.seq_layers.2.weight f4 [128, 128]
00000000: 9e72 ad3d 6983 813d 1756 0a3d 2a54 783d
00000010: 5104 9ebd 75e0 42bd c6ba d43d d3d9 1cbc
00000020: cd1e 1bbd 76b9 05be 4f62 cf3c a1d8 9c3c
00000030: 1317 953c f892 6e3e 903e 81bd b0f4 923d
00000040: 71b6 6dbd e112 17bd ca39 153c e3a6 00be
00000050: bc9e 3a3e 8523 88bd 5793 3fbc 2630 90bd
00000060: e0fb e63c ef22 44bd 0899 023c 21ae dbbd
00000070: 399d 01be fbe0 3bbd 0af1 3a3e 7671 5dbb
00000080: f2b2 16bd 9c8e 20bd ed4e ec3d 05cd 45be
00000090: ce1b 9f3d 6398 273c dfdc 55bd 5bdd 65bd
000000a0: 09da e3bb 035f 173e 6bbc 78bd 0cca 27be
000000b0: e86d d3bc da3b 14bd 7d09 27be ff68 31bc
000000c0: 132a bd3d 6d9f 69bd 2cc8 90bd fc53 6ebd
000000d0: 27d0 9fbc a8a4 df3b 66d7 793d 1edb 253d
000000e0: 9692 243d a354 dbbd 903c 1dbe c005 dc3c
000000f0: 1193 123d 773d d0bd 77f6 20be 0bc5 afbd
00000100: f06f 723d ef94 f8bc cfef 123e 20d2 64bd
00000110: b6d1 d5bb 704d b6bc bac5 053e 2be1 f3bc
00000120: aaab 83bd 117f 6abd 6f73 c73d c2b3 fcba
00000130: 2481 b2bd 3265 07be 5e8e 9d3c d6a8 ad3d
00000140: af83 13be 0726 73bc 39d9 f6bc 38e1 aa3c
00000150: 5f0c 46bd 0444 a4bd cd7f 08bd 24dc e4bc
00000160: a7f3 85bc f365 dcbd 7433 c0bd a2c9 babb
00000170: e549 263d 845b 133c d1a9 113d fc5f 153e
00000180: 8d22 e1bd 8d1c a4bc fe42 213e 9131 97bd
00000190: 133f 363e 886b efbc 9570 4bbd 49ae aebc
000001a0: 35cb 0b3e 54d2 01bd af30 4bbe 9347 3abd
000001b0: 00b6 0d3d 3a28 d93d e3e8 5d3d c3ee 143d
000001c0: 48e7 4e3c 36f3 463d 4226 fe3c 54d2 efbc
000001d0: 0d0e 5dbc 5501 9abd e4b7 de3d 72fe f9bc
000001e0: db4c 673b f5ba 8b3c 821a 333e 772b 963b
000001f0: 8cb2 bd3c 363d ccbd 7822 cb3c e518 073d
00000200: ff16 d3bd 74b3 83bc 91ff 573d 8606 96bc
00000210: 15d4 a5bd 1b2e ccbd 8758 c9bd 5246 dc3d
00000220: 1bc1 663d 0c85 d13d 0db0 9cbc 9599 be3b
00000230: 0c0c a6bd a6ce 90be 2fba aabd 3785 ba3c
00000240: 810c 843c f209 18bd 92a9 b93d c4e2 ab3d
00000250: 0486 e43d 15ac e7bd ac29 f33c e8b6 d6bb
00000260: 9f82 99bd 2079 a4bd 59bb 293c ddce e63d
00000270: 9f09 58be e4f3 c1bd da2a 3a3e ad18 cc3d
00000280: 90df abbc 8ec4 3e3c b8f1 f2bc f41c 7b3c
00000290: ee2f e6bc a892 c3bd 98ec e6bc 5c09 bfbd
000002a0: 3e35 4ebd c190 e33d e515 6c3d 870c b2bd
000002b0: b5c9 57bc daaa 6c3d 39d1 40be 3b6c a2bd
000002c0: d5a8 e1bd 2448 c7bd 372e 1c3d 0beb 8d3d
000002d0: fd9c afbc a105 373c 7c68 6abd de4d c13d
000002e0: e0f3 413e 0baf 8e3d 5812 a4b9 976e 6fbc
000002f0: 0dd4 483d 4f75 213d 34b2 263e 48b8 c43c
00000300: 5296 cf3c cb88 a33c c3e0 a03d b0d5 813d
00000310: ec4a 743e 32e9 f43d d3dc 0dbd e548 34bb
00000320: a84d 1a3e 6e51 80be 2cb5 c83d 2a63 21be
00000330: b092 fc3c 4d38 e83d bd9d 47bd 2a53 a1bd
00000340: cf32 8dbd 6b7e 22bd e919 d7bd 7123 15be
00000350: 4e91 a43d c0ac 333d 47b0 86bd 2738 0a3d
00000360: 9fac dcbd fca9 39bd d6c4 203e 15c3 ca3c
00000370: 94a4 e7bd 6d6a 3fbe 4012 903d 4abe 5bbd
00000380: 413d 51bd 6816 af3c 892e 65bc c3ee 76bc
00000390: a840 d6bd 5102 08be e1e0 9abd d149 ac3d
000003a0: 0417 5bbe 4728 8bbc 7284 343d 9600 6f3d
000003b0: 530d b8bc 6bdd fc3c fbbb f63d 3f04 a73d
000003c0: 6b42 d13d fa3c 103e a7fe c7bb 3fee 86bc
000003d0: c48c 593d 8626 173d 9e7d d8bd 2add 80ba
000003e0: 4cff 483d ab1f cebd 60a3 ef3d 7e5b 0fbe
000003f0: ac2c d43d e56d 7cbc 6c77 cc3d 5b71 e0bc
0.08469127 0.063238926 0.033773508 0.06062714 -0.07715667 -0.04757734 0.10387187 -0.009573418
-0.03787117 -0.13059029 0.025315432 0.019146265 0.01819948 0.23298252 -0.06310761 0.07175577
-0.058035318 -0.03688324 0.009108016 -0.12563662 0.18224615 -0.066474 -0.011692843 -0.070404336
0.028196275 -0.047884878 0.007971056 -0.10726572 -0.12657632 -0.045868855 0.18256012 -0.0033789552
-0.03679175 -0.039198503 0.115384914 -0.1931649 0.07768975 0.010229203 -0.052212592 -0.056119304
-0.006953482 0.14782338 -0.060726564 -0.16385669 -0.025809243 -0.03618989 -0.16312213 -0.010828256
0.09236541 -0.057036806 -0.0706943 -0.058185562 -0.019508434 0.0068250485 0.060996436 0.04049217
0.040178858 -0.107095025 -0.15355134 0.02685821 0.035784785 -0.101679735 -0.15719019 -0.08582505
0.059188783 -0.030344455 0.14349292 -0.055864453 -0.0065252436 -0.022253722 0.13063708 -0.029770454
-0.06429227 -0.057250086 0.09738814 -0.0019279646 -0.08716038 -0.13222197 0.019232925 0.084794685
-0.14405702 -0.014840609 -0.030132877 0.020859346 -0.04835164 -0.080207855 -0.033325005 -0.027937002
-0.016351534 -0.10761633 -0.09384814 -0.005700306 0.040597815 0.008993987 0.03556234 0.14587396
-0.10992918 -0.020033145 0.15748212 -0.07382501 0.17797498 -0.02922608 -0.049667913 -0.02132334
0.13651736 -0.031694725 -0.1984279 -0.045478415 0.034597397 0.10603376 0.054177176 0.036360513
0.012628384 0.048571788 0.031024102 -0.029275097 -0.0134921195 -0.07519785 0.10874918 -0.030516837
0.0035293612 0.017056921 0.1749058 0.004582818 0.023156427 -0.099726126 0.02479671 0.032982726
-0.103071205 -0.01607678 0.05273396 -0.018313657 -0.08097092 -0.099697314 -0.098313384 0.107556
0.056336503 0.10230455 -0.019126916 0.0058166482 -0.081077665 -0.2828266 -0.08336293 0.0227686
0.016119244 -0.03711886 0.09065546 0.083928615 0.11158374 -0.11312119 0.029682957 -0.006552566
-0.07495617 -0.08030915 0.010359609 0.11269925 -0.2109742 -0.094703466 0.18180409 0.09965644
-0.020980626 0.011643542 -0.029656276 0.015326727 -0.028099027 -0.09549457 -0.028188989 -0.09327957
-0.050343744 0.11111594 0.057638068 -0.08693796 -0.013170649 0.057780124 -0.18829812 -0.079307996
-0.1101853 -0.097305566 0.03813001 0.069295965 -0.021437163 0.011170776 -0.05722855 0.0943868
0.18940687 0.069669805 -0.00031294185 -0.014613769 0.049030352 0.039418515 0.16278917 0.024013653
0.025340233 0.019962689 0.0785537 0.06339586 0.23856705 0.11958541 -0.034634423 -0.002750927
0.15068686 -0.25062126 0.09800181 -0.15760484 0.030831665 0.113388635 -0.048734415 -0.078771904
-0.068944566 -0.039671343 -0.10502989 -0.14564301 0.08035527 0.04386592 -0.06576591 0.033744957
-0.10775112 -0.045328125 0.15700087 0.024751225 -0.11310688 -0.18692942 0.07034731 -0.05364827
-0.051083807 0.021372989 -0.013988146 -0.015071574 -0.10461551 -0.13282134 -0.075624235 0.08412517
-0.21395499 -0.01698698 0.044071622 0.05835017 -0.022467291 0.030867299 0.12047573 0.08155107
0.10217746 0.1408576 -0.006103355 -0.016471026 0.05311276 0.036901973 -0.105708346 -0.0009831537
0.049071595 -0.10064634 0.11701083 -0.13999745 0.10360083 -0.01540706 0.099837154 -0.027397802

network_body._body_endoder.seq_layers.2.bias f4 [128]
00000000: 13ba 56bc 2186 89bb 3767 983a 5b1b fc3c
00000010: 1c13 c0b9 5759 17bc 053f 0abc 7eca 743c
00000020: 228f 3abc 07d9 35bb 3635 06bd 6338 bf3b
00000030: c871 04bc 68d8 0bbb 52ae f8bb e032 a9ba
00000040: 30c3 f3ba 740f 2ebb d8d8 62bc 068d 81bb
00000050: c31b 36bc 0335 513b 4d7d 29bc b778 fc3b
00000060: fe3d 823a 021e 30ba 9346 58bb c08a a8bb
00000070: 665c fb3a 0b6c 3f39 4530 a0bb 5024 003a
00000080: 598e 0a3c 928e 9b3b 82a5 903b afa2 af3b
00000090: c6cf 31bb 816e ad3a 1712 21ba f966 b6ba
000000a0: 0a8e 143a 4f00 353b a520 473b 6fe1 f23b
000000b0: 1b4c 093a 1ad1 bb3b 2645 063c a282 15bc
000000c0: 2b4c b1bb 1446 02bc 2846 15bb af13 8d3a
000000d0: b4f1 3ebc 06ed ce3b e588 8b3c e355 dd3a
000000e0: 0786 1237 1005 ebbb 4f51 9aba 0fa1 66bc
000000f0: b56e a63c eed3 1bbb 2e95 3f3b f664 9c3b
00000100: b8fb 01bc 84f1 363a fa6f a6bb 77b5 a8bb
00000110: b158 e83b 0f98 2b3c ecbf 5e3b de22 61bb
00000120: 7645 de39 821e f1ba 1969 09bc ae40 0cbb
00000130: 5fdc 3e3b de49 80bb 3daa 1abc dd50 42bb
00000140: f28d adbb 4ae6 2e3a abc7 f2bb b3fa b1ba
00000150: 68e4 fbbb 82d8 3bbc 9329 763c 7656 1cba
00000160: 4fc3 02bc 5aad 94bb db34 da38 ae8f 19bb
00000170: 6007 a0bb f445 ba3b 3127 273c 7e57 adbb
00000180: c123 2fb8 c4db d73b 0d96 a8bb c304 233c
00000190: 1001 f83b 7fe0 5c3c 29f0 49b8 3a0a 013a
000001a0: b0a5 c6bb ae8d 6f3a 06d4 e83b c71d 89bb
000001b0: 30e6 afbb 3cdc 1839 36c0 ac3c 0fda acba
000001c0: 4023 d0bb e759 e4bb 7d7d 243c c4a4 1ebb
000001d0: 0616 473b a8a5 0f3c f123 9e3b 5657 49bc
000001e0: b4b9 f3b9 10d1 9fb9 fc27 ff3b ad3d 03bc
000001f0: c85f 39bb 9a7d 133b f06e 043c 67fb da3a
-0.013105887 -0.0041968976 0.001162744 0.030774763 -0.0003663533 -0.009237609 -0.008437877 0.014940856
-0.011386665 -0.0027747767 -0.03276559 0.0058355792 -0.008083768 -0.0021338705 -0.00758914 -0.0012908839
-0.0018597599 -0.0026559504 -0.013845645 -0.003953579 -0.011115017 0.0031922467 -0.010344815 0.00770482
0.0009936688 -0.00067183387 -0.003300105 -0.0051434934 0.0019177317 0.00018255429 -0.0048885667 0.00048882235
0.00845679 0.0047472203 0.0044142613 0.0053599696 -0.00271319 0.0013231785 -0.0006144358 -0.0013916186
0.00056669174 0.0027618592 0.0030384448 0.0074121277 0.0005237476 0.005731714 0.008195197 -0.009125384
-0.0054106913 -0.007951278 -0.0022777412 0.0010763312 -0.011654306 0.0063148765 0.01703305 0.0016886558
8.733484e-06 -0.0071722344 -0.00117735 -0.014076485 0.020316461 -0.0023777443 0.0029233205 0.0047727777
-0.00793355 0.00069787377 -0.0050792666 -0.0051485854 0.007090651 0.010473265 0.0033988906 -0.0034353058
0.00042394892 -0.0018395933 -0.008386874 -0.0021400857 0.002912305 -0.0039150557 -0.009440002 -0.002965025
-0.005296462 0.0006671889 -0.007409056 -0.0013578743 -0.0076871403 -0.011465194 0.0150245605 -0.00059638114
-0.0079811355 -0.0045372667 0.00010404895 -0.0023431587 -0.0048836917 0.0056846086 0.010202215 -0.005289971
-4.175655e-05 0.0065874774 -0.0051448406 0.009949866 0.007568486 0.013481258 -4.81458e-05 0.00049224833
-0.006062232 0.00091382384 0.0071053533 -0.004184458 -0.0053680167 0.00014577893 0.021087747 -0.0013187545
-0.0063518584 -0.006968725 0.010039684 -0.0024207095 0.0030378117 0.008767523 0.004826062 -0.012288889
-0.0004648693 -0.00030482607 0.007786749 -0.00801031 -0.002828585 0.0022505284 0.00808309 0.0016707004

action_model._continuous_distribution.log_sigma f4 [1, 3]
00000000: f1e4 27bc 0444 3dbc 8288 08bc
-0.010247455 -0.011551861 -0.008333327

action_model._continuous_distribution.mu.weight f4 [3, 128]
00000000: e97b 27b8 465b 603c 6f82 d13c 863b 293d
00000010: ab46 313c cb26 19bd 3a11 953c b7dd d6bc
00000020: 386b 7bbc e4e0 92bc 82ec a03a 4cc5 173a
00000030: 00b5 433b bf92 7cbc 4625 e8bc 3b8f 00bc
00000040: 05c3 11bd b1c3 743c db01 cb3c f3d9 263c
00000050: 7559 32bc 1cf0 74bb 13c1 1cbc 5a6e 903c
00000060: be85 933c 1454 9ebc 88fb 95bc ce38 81bb
00000070: 0898 073c 54db 13bd f51e 96bc c224 773b
00000080: 7144 efbb cb85 87bb fc05 373c bb77 a6bc
00000090: 1eb6 02bd 855f 8e3c 59d1 2f3c f48d 98bc
000000a0: 4027 ea3c 5a16 2c3c a713 e13a 7a5c 033c
000000b0: c061 bd3c f8dd f93c 3a68 ecbc f2a1 fb38
000000c0: bee9 8dbb 7a29 253d 800d d1bb 977a 123c
000000d0: b1ec 133c 31b4 173d 7e0e 9d3c afe9 abba
000000e0: bf41 103d 3f53 28bb 41a7 d93c d89d 773c
000000f0: 420e fe3a bfb2 b1bc cc31 07bd be2c 793a
00000100: 18d6 f33c c50c ef3b e4ac 133c 530f 513c
00000110: dade 37bc 404d aabc cb4c e43c f628 b6bb
00000120: c0b9 293d 389d 16bd 06fc 6abc ec02 a3bb
00000130: c944 d33c 7c7e 50bc d4bd 583c 0fcf 34bd
00000140: ad4e 32bc 971e 3bbc 814a 56bb 3353 d5bc
00000150: cacc 22bc 9098 7d3b a16b 5f3c 7319 7d3c
00000160: 9ddb 813c ba85 80bc caad 723c 701e b8bc
00000170: 05c4 cf3c 0152 11bc ebe9 f33c b9b6 da3a
00000180: 5ee9 9fbc c7b9 07bd 9f24 cabc f68c 133c
00000190: daa9 0b3c d052 113c 4db8 b73b 8ccd ebbb
000001a0: 00e6 823c b4ec 8abc 4956 42bb 8153 e7ba
000001b0: 0f19 adbb 38f9 0abc b277 2e3c 616e 46bc
000001c0: 9278 f7bb 6f4f 4ebc 291c 873c 938b 5d3c
000001d0: deec a73c 224b 05bc 6e21 f23b 1453 4d3d
000001e0: a733 b53b f619 953b ce1b 22bc e47d b0bb
000001f0: c9ec 12bb f382 e1bb f7cc 3fbc 8ff3 74bc
00000200: b900 193c 6d90 f6ba 9c28 6a3c 3321 333d
00000210: 31ae 563b 685f 0c3b 84c7 3ebc 6dd5 223c
00000220: d5bd d23c 00d3 51bc e9bb 6ebc 3427 90bc
00000230: 9dd4 6bb8 81ab 09bc edfc d5bc c27f 3c3c
00000240: c6d0 eebb 22b8 873c c97d 7bbd 5a3b ae3b
00000250: a777 b5bc f25b ac3c 06cd 933c 7d92 393c
00000260: f9e6 9d3b 4504 82bb b74b f8bb f4f8 12bc
00000270: 81fa 4f3c 3ccb bebb c304 19bd 4a20 71bc
00000280: c536 3b3d 7011 06bd cf0d 98bc a3a4 f93b
00000290: cc23 04bc 80c8 babc 43f4 00bc 0367 db3c
000002a0: 7a61 9e3c dd38 89bc 95cd 973b 3081 8f3c
000002b0: eafe 9abc 9a01 1d3d 24a6 a1bc e1a6 103c
000002c0: 6a6c 2bbc f1d0 84bb 2744 b3bc 5e0c 4b3b
000002d0: b2c6 c8bc 8274 dd3c 62b2 b03c 34c8 98bc
000002e0: 45ce fd3b 5cd5 8cbc fdfe ccbc 98e2 f3bc
000002f0: b58a a13c fb43 653c c237 a4bb e7e5 da3c
00000300: 0c01 abbc 9642 363b f56b afbc 21cd e43b
00000310: 3cd6 103c 03ae b63c b065 1a3c 387b 29bc
00000320: 14df 303c b1fa 853a 8ede 1dbc 5302 a83c
00000330: 5b92 ec3b 9a38 48bc 6a16 6bbc f878 a13a
00000340: 6af4 2d3b 64ba 10bc 5b58 113b 2c76 07bd
00000350: afad 243c f0d8 47bc 2017 b83c d5ee d63b
00000360: 91a7 84bc 245e cfbb faff babb 9fa6 503d
00000370: ab5f 3cbd c7a7 8439 1135 063d 42b6 2abc
00000380: 3842 413c 6fd4 25bb 5447 523c 78e5 113d
00000390: eda3 803c e0dc 0c3d 2e14 05bd 51da b53b
000003a0: 5247 e2bc 76fe 54bb 591a 9fbc b7c7 0b3c
000003b0: 22b9 a63c bd68 b8bc f9f8 2f3d e48d b6bc
000003c0: 6d42 44bc c759 2dbc 2a5b da3c dbba 01bc
000003d0: 3a9b d83b 0670 903c c71c 7fbc 7efd 903d
000003e0: af28 543c f8c0 38bc 456d 4c3c 7b4b f7bc
000003f0: d45e dfbc 8300 3cbc dc45 653c efd0 423a
-3.9931303e-05 0.013693636 0.02557489 0.04131653 0.010820071 -0.03739051 0.01819669 -0.026228769
-0.015345387 -0.017929502 0.0012277516 0.00057895924 0.0029862523 -0.015415846 -0.028338086 -0.007846649
-0.035586376 0.014939235 0.024781158 0.010183799 -0.010885586 -0.0037374562 -0.009567517 0.017630745
0.01800811 -0.019327201 -0.018308416 -0.003943539 0.008275993 -0.03609784 -0.018325308 0.0037711118
-0.00730186 -0.0041358224 0.01117086 -0.020320764 -0.03191196 0.017379532 0.010731065 -0.018622376
0.028583169 0.010503376 0.0017171995 0.008017654 0.0231179 0.03050135 -0.028858293 0.00011998777
-0.0043308428 0.04032276 -0.006379783 0.0089403605 0.0090286 0.03703708 0.01917195 -0.0013115908
0.03521895 -0.0025684384 0.02656901 0.0151133165 0.0019382911 -0.021691678 -0.033006474 0.00095052633
0.029765174 0.0072952234 0.009013388 0.012760001 -0.011222566 -0.020788789 0.027868649 -0.005559082
0.04143691 -0.03677103 -0.014342314 -0.0049747135 0.025789635 -0.012725469 0.013228852 -0.04414278
-0.010883016 -0.011420867 -0.0032698216 -0.026040649 -0.009936521 0.003869567 0.013636501 0.015447962
0.01585179 -0.015688766 0.014811942 -0.022475451 0.025362024 -0.008869649 0.029774627 0.0016686536
-0.019520458 -0.033136155 -0.024675665 0.009005776 0.0085243825 0.008869842 0.005606687 -0.007196134
0.015978813 -0.016958572 -0.002965348 -0.0017648787 -0.005282528 -0.00848227 0.010648655 -0.012111277
-0.007552215 -0.012592181 0.01649292 0.013522047 0.02049869 -0.008135589 0.007389239 0.050128058
0.005529839 0.004550214 -0.0098943245 -0.005386101 -0.0022418967 -0.0068820654 -0.011706582 -0.014950647
0.009338551 -0.0018811353 0.014291909 0.043732833 0.0032757635 0.0021419171 -0.011644248 0.00993858
0.025725285 -0.012806654 -0.014571168 -0.017596819 -5.6226378e-05 -0.008402706 -0.026121581 0.011505069
-0.0072880713 0.016567294 -0.061399255 0.005317134 -0.022151781 0.021039937 0.018042099 0.011326429
0.004818794 -0.003967794 -0.0075773853 -0.008970488 0.012694002 -0.0058225673 -0.037358057 -0.014717171
0.04570653 -0.032731473 -0.018561272 0.007618503 -0.008065175 -0.022800684 -0.0078707365 0.026782518
0.01933359 -0.016750747 0.0046326616 0.017517656 -0.01892038 0.038331605 -0.019732542 0.0088288495
-0.01046286 -0.004053228 -0.021883084 0.0030982713 -0.024508808 0.027033094 0.021569435 -0.018650152
0.0077455365 -0.017191581 -0.025023932 -0.029771134 0.019719461 0.013993259 -0.0050115297 0.026720954
-0.020874523 0.0027810684 -0.021413783 0.006982461 0.00884014 0.022299772 0.009423658 -0.010344319
0.0107953735 0.0010221807 -0.009635581 0.02050892 0.0072195954 -0.012220526 -0.014348606 0.0012319377
0.0026543387 -0.0088335015 0.0022177908 -0.03307168 0.010051175 -0.012197718 0.022471964 0.0065592327
-0.016193183 -0.006328361 -0.0057067843 0.050940152 -0.045989674 0.00025302006 0.03276545 -0.01041943
0.011795573 -0.0025303622 0.012834389 0.03561923 0.015703166 0.03439033 -0.032489948 0.005549707
-0.027621899 -0.0032500303 -0.019421743 0.008531502 0.02035195 -0.02251088 0.04296205 -0.022284456
-0.011978728 -0.010580487 0.026654799 -0.007918085 0.0066103013 0.017631542 -0.015570826 0.070796
0.012949153 -0.011276476 0.012477224 -0.03018736 -0.027266897 -0.011474731 0.013993707 0.0007431646

action_model._continuous_distribution.mu.bias f4 [3]
00000000: 8211 11bb 7d4b 183c 001f f4b9
-0.002213568 0.009295342 -0.00046562403

exp_avg f4 [128, 6]
00000000: 8d42 2b3a c446 94b8 0b5b be38 22ef 46ba
00000010: 226a deb8 427b 193a b013 6939 56f6 68b9
00000020: 8e50 26bb b249 8739 c3b8 aeb9 b1bb 6ab9
00000030: 9e22 2e39 a1f9 3338 cdd9 183a 4e25 c5b8
00000040: 3afb 8638 31d4 7439 00c0 b636 dd95 9eb7
00000050: 3cde 5bb9 1507 7438 dee0 edb7 f4b8 24b8
00000060: 7ff1 02ba 2213 1739 2a88 9db9 61f2 f73a
00000070: b29c 6239 cfe1 3aba 68d5 be37 9e28 8136
00000080: ba48 9838 643f beb7 e7bc c136 4961 0238
00000090: 60e2 563a 0cef dab8 d0f5 8539 97b0 caba
000000a0: 3933 24b9 0cf5 673a 0147 3dba e226 e938
000000b0: e651 c4b9 f8ee c33a 2edd 2e39 3e5e 11ba
000000c0: 149d fbb9 529f d738 672a 033a 9e6a ef38
000000d0: 74b7 2139 5496 b9b9 a476 013b 74c9 84b9
000000e0: e8b7 b9b9 10f1 03bb 342e c7b9 b448 b13a
000000f0: 06f9 02bb 1f50 f838 90aa a739 96e2 6a3a
00000100: 133c 3a39 a2a2 a0ba 0cb2 7cb8 d258 0837
00000110: eb49 5bb8 1acf f138 4885 4c37 ea8d 36b8
00000120: 824f 173a a359 01b9 f307 ff39 7ee8 f7ba
00000130: 7206 42b9 7c6e 513a 187e 42b7 238b 89b8
00000140: 5d77 a138 8aea 54ba ae50 ceb8 827d 1838
00000150: af98 d1b9 829d b5b8 7422 b0ba b03b f939
00000160: 2636 08b9 f6bb 28ba 563e b5ba a3ca 3139
00000170: 349a ecb9 c52c 223b fd57 8539 feaa 88ba
00000180: cd37 7ab9 8a36 1539 a193 e339 4e08 8d3a
00000190: d4d1 5f39 3e43 c0b9 5668 75bb e216 d039
000001a0: 23e0 2dba 1562 9d3b 2511 1c3a 7f58 30bb
000001b0: ab85 1bb5 0ebb 4034 c4a6 16b5 a344 d235
000001c0: 4a8c 9034 126c 62b5 085e 05ba 8262 c939
000001d0: c534 133b c300 093b e209 173a b17e cdb9
000001e0: 88a6 9c3b f143 86b9 bafd 653b 8eb6 b5bb
000001f0: ef65 c9b9 ee5e 8e3b 9b8a 43ba a63d 06b9
00000200: b166 12bb 9a6a 413a 775c 49b9 2707 84ba
00000210: c77c 3e3a 4c63 c438 9e19 003b 0e7c 33ba
00000220: 784a 1339 3707 623a 08aa e23a 5835 5737
00000230: 93ad b43a 20f9 85ba 3a68 a137 307c b63a
00000240: 9e67 543a 72d4 acb7 76e1 4739 cf75 ffb9
00000250: 419f 01b8 a5a9 ff39 7238 ceba 2f26 88b9
00000260: b3ae 98bb b84b c43a 4839 ccb9 0603 06bb
00000270: 5414 44ba 73e1 0fb9 9954 1abb e86a 4f3a
00000280: 2dd2 57b9 2599 8dba 2ecc d038 1bbc 4836
00000290: 75c4 0339 b753 9eb8 158d 9636 7686 cb38
000002a0: dd3f fb39 1356 9138 3cf9 b13a 5b1b d5b9
000002b0: 1d01 da38 3fe2 113a d078 00ba b5db a4b8
000002c0: 460d dab9 d6d1 e1b9 8b49 f7b8 bc9d 4d39
000002d0: 486e 08ba 7537 0339 2328 52ba 1b75 153b
000002e0: 26d3 4439 119e 6cba 8c1b 8b3b d20c 97b9
000002f0: 97d5 303b fb82 b9bb 3b93 e2b9 8375 7a3b
00000300: 3c7d 8aba a906 5b39 ea3e 1e3b ae9d 1738
00000310: fa44 a439 77b1 f0b9 ab64 cdb8 7cf0 b337
00000320: 05c8 6038 66b0 b137 61f4 0638 8b4b 97b8
00000330: 9d51 a0ba 9196 68b9 0381 76bb 1090 a73a
00000340: f470 aeb9 c2c2 e4ba b0d1 e73a 26e6 45b9
00000350: a48e 833a e999 3ebb 9a6c 94b9 3a6a 073b
00000360: bbee 313b 19d3 99b9 7485 cf39 3a59 62bb
00000370: a4bc e6b9 1dd3 0f3b a0f8 15b9 cd58 1cb8
00000380: eab9 06ba 295f 6039 3185 6ab8 570f 99b9
00000390: e284 eab9 242f c538 7840 55b9 f618 a23a
000003a0: 5ce3 1339 aae7 f4b9 00d2 ca34 3d99 c538
000003b0: cc24 7ab9 8d95 8d3a f532 1439 7769 60b9
000003c0: ee56 a539 5354 b7b8 5664 8239 8ae1 90ba
000003d0: 457f 09b9 d27c e439 b66f a239 6650 7838
000003e0: c0fd 753a 8d93 c0b9 4c3c ba38 d009 043a
000003f0: 9fda 243a 22e9 89b8 5e83 fb39 060a 9eba
0.0006533049 -7.070371e-05 9.076864e-05 -0.0007588734 -0.00010605554 0.00058548537 0.00022227946 -0.00022217011
-0.0025377604 0.00025804114 -0.00033325524 -0.000223859 0.00016606829 4.290941e-05 0.00058307947 -9.4006406e-05
6.4364125e-05 0.00023348701 5.4463744e-06 -1.8904853e-05 -0.00020968256 5.818073e-05 -2.8357314e-05 -3.9272898e-05
-0.0004995092 0.0001440761 -0.00030046824 0.0018916839 0.00021611413 -0.0007128985 2.274914e-05 3.849228e-06
7.261471e-05 -2.2679284e-05 5.7738393e-06 3.108502e-05 0.00081971847 -0.00010439576 0.0002555088 -0.0015464005
-0.0001565934 0.00088484655 -0.0007220358 0.00011117548 -0.00037445052 0.0014948538 0.00016676329 -0.0005545354
-0.00047991483 0.000102816746 0.0005003572 0.00011416267 0.00015422498 -0.00035397953 0.0019754553 -0.00025327096
-0.0003542297 -0.0020132698 -0.00037990662 0.0013525696 -0.0019984855 0.00011840485 0.000319798 0.00089601555
0.00017760722 -0.00122555 -6.02473e-05 8.126912e-06 -5.228251e-05 0.00011530351 1.21903795e-05 -4.352435e-05
0.00057720405 -0.00012335791 0.00048643313 -0.0018913893 -0.00018503683 0.0007989181 -1.159266e-05 -6.558585e-05
7.6993114e-05 -0.0008122107 -9.837873e-05 3.6356512e-05 -0.00039977345 -8.660091e-05 -0.0013438002 0.00047537452
-0.00012990143 -0.00064367 -0.0013827782 0.00016955523 -0.00045128318 0.0024745923 0.00025433293 -0.0010426936
-0.00023862645 0.00014230065 0.00043406806 0.0010759921 0.00021345104 -0.00036671193 -0.0037446222 0.000396899
-0.0006632825 0.004802952 0.00059534825 -0.0026908217 -5.793651e-07 1.7949444e-07 -5.612203e-07 1.5666195e-06
2.6924164e-07 -8.4348824e-07 -0.0005087559 0.00038411102 0.0022461873 0.0020904995 0.00057616655 -0.0003919504
0.0047805943 -0.00025609092 0.003509386 -0.005545444 -0.00038413654 0.0043448126 -0.00074593135 -0.00012802202
-0.002233904 0.00073782506 -0.000192033 -0.0010072932 0.0007266518 9.364504e-05 0.001954652 -0.00068467937
0.00014046754 0.0008622291 0.0017293105 1.2827419e-05 0.0013784639 -0.001022134 1.924123e-05 0.0013922509
0.00081025984 -2.0602925e-05 0.0001906211 -0.00048725164 -3.0904313e-05 0.00048763785 -0.0015733375 -0.0002596839
-0.0046594976 0.0014976179 -0.0003895259 -0.002044858 -0.0007479836 -0.00013721529 -0.002354896 0.00079123536
-0.00020582294 -0.0010803087 9.956244e-05 2.9911814e-06 0.0001256632 -7.54962e-05 4.4867725e-06 9.7048396e-05
0.00047922033 6.9301714e-05 0.0013578306 -0.00040646907 0.000103952574 0.00055650243 -0.0004900815 -7.861053e-05
-0.0004159009 -0.00043071684 -0.00011791576 0.00019609084 -0.00052044215 0.00012513793 -0.0008016845 0.0022805396
0.00018770676 -0.0009026239 0.004245227 -0.00028810516 0.0026982778 -0.005661366 -0.00043215774 0.0038217015
-0.0010565887 0.00020887949 0.0024146386 3.6148056e-05 0.0003133191 -0.0004590859 -9.7939126e-05 2.1450447e-05
5.3592044e-05 2.1182186e-05 3.2175685e-05 -7.214312e-05 -0.0012231354 -0.00022181334 -0.0037613518 0.0012784023
-0.00033272023 -0.0017453062 0.0017686393 -0.00018873121 0.0010037017 -0.0029083437 -0.00028309674 0.0020662681
0.002715035 -0.00029339714 0.00039581547 -0.0034538046 -0.00044009567 0.0021945902 -0.00014302367 -3.7276e-05
-0.00051393977 0.00021397755 -5.591399e-05 -0.00029193863 -0.00044730963 9.402473e-05 -0.0002033728 0.0012367058
0.0001410371 -0.0004671191 3.7778227e-07 9.422235e-05 -0.00023855566 0.0010802016 0.00014133363 -0.00021401593
0.0003153602 -8.7418266e-05 0.00024870288 -0.0011053544 -0.0001311275 0.00043580547 0.0003098228 5.9202684e-05
0.000938382 -0.00036731028 8.880402e-05 0.00050368626 0.00062886806 -6.5760934e-05 0.00047972327 -0.001205743

exp_avg_sq f4 [128, 6]
00000000: 9bc9 e436 d84d 8333 524c 4935 bbfb d536
00000010: bdc3 1334 c343 8336 3a8e 1937 0c7c a733
00000020: cd5e f036 9269 b336 5cda 3c34 1edc df36
00000030: 3f34 1c35 824e 8d32 36ce a536 42db 9a35
00000040: a869 2033 84d7 5a36 46ae 6436 47dc 3733
00000050: 4154 bd36 136e 9536 4620 cf33 515d 7136
00000060: 4cc0 1736 33a3 f633 22b8 1b36 45e5 a737
00000070: 3be3 8a34 ecfe 6436 fdb1 b834 52a7 bb31
00000080: db0a df35 1190 5235 4704 5732 3969 a735
00000090: 81ce 3237 9886 0234 6d93 9636 615e 9537
000000a0: 4325 9334 df26 f436 e31c ba36 2dfd 3b34
000000b0: 2de8 e936 f472 fb37 c3e4 d334 2aa5 cf36
000000c0: 8498 a836 7050 0834 a770 ca37 9aba 8036
000000d0: 2581 9934 4bb6 2637 e554 6837 078b 3134
000000e0: 0a64 7e36 3582 b837 dfec c734 c3d7 1a37
000000f0: ca9d 8737 03fa fb33 9eca 9636 e8af 1137
00000100: d7c9 8d34 0e13 3237 7952 f135 3397 e832
00000110: c8ab 0c37 5294 8636 ac1b 8533 c31b b036
00000120: 75ba cd36 fc98 1834 b88f 9337 0979 9837
00000130: 5a16 ac34 1d9b f736 0dbc ad35 b0b1 0333
00000140: 29ae 3c36 612a 9b36 2e36 9533 945f 3a36
00000150: 1e40 2836 bfa0 8733 3ea8 a737 a96d 6936
00000160: f128 1934 0058 1237 84a1 9b37 6e9e 2534
00000170: b492 2036 52d5 9137 e95a ba34 e2c2 4337
00000180: acbb 3c37 e090 d033 3282 9c36 7398 dc36
00000190: 87aa 6a34 482e 1037 6749 3138 6230 da34
000001a0: 9fd2 4c36 8149 4138 3f7d 7535 755e df37
000001b0: 0cb4 9d35 531c 2632 1b67 3836 a918 e435
000001c0: 87f5 bd32 2223 d035 3e1f 7037 e7c7 5534
000001d0: 20cb 7b37 1d45 b537 decc f034 ddbd 4737
000001e0: 6dd2 8137 fb07 3a34 7e85 c837 69e3 6437
000001f0: 6c85 d134 8063 8937 697e 6e35 92fd 0833
00000200: 514b 1b37 0ee8 dc35 eafa 9a33 d004 bc36
00000210: 0e79 0536 4f8e 8333 feae b037 7c2e bd36
00000220: 5aa8 1434 9c6a 1637 94b5 7136 8fe5 0c33
00000230: bb14 a736 0b5b 0e36 0fca 9e33 04af 9736
00000240: f53e 2037 fd92 dc33 25ab 0336 1ab4 3637
00000250: 9dc6 7834 fec5 c536 29b5 2936 7844 b533
00000260: d158 f437 0aac a736 e018 4d34 7df4 2237
00000270: 95da 5736 136c 6d33 ffc5 9737 87e1 9136
00000280: 9724 0634 5566 ee36 6c25 6b35 db11 b831
00000290: a3f0 a635 6d14 8935 8532 4f32 90e2 9035
000002a0: a4a8 2535 f09e 8d32 b0ac c036 0417 6a35
000002b0: 0c8b 1f33 1fe2 bf35 7337 9538 b4ae 2a35
000002c0: 8664 c736 5532 8e38 bb21 c035 699c 2f38
000002d0: 73b1 5736 fd97 8633 1ad7 8336 cd60 1737
000002e0: 95c0 1734 6475 8d36 a246 9e37 059e 7834
000002f0: c37f 4037 3c8d ed37 2dea 0b35 613f 8037
00000300: 1fde 8b37 07a3 8d34 aff4 8238 5dbd 6537
00000310: 80b0 1f35 8bcd c837 8cd5 9835 e85d 2b32
00000320: 17f7 3836 6c26 fd35 dfd3 c032 107b b435
00000330: c86f 1f36 ec29 a433 5d58 e537 1ee0 6636
00000340: 3cc4 3834 0e70 d636 402c bd37 2cdb 8d34
00000350: f9f5 0637 1a8d d237 00a6 1f35 b90b 8237
00000360: 9b5c 9037 0cd3 2f34 65fd 0b36 1f2d 9237
00000370: 37eb c534 105e 3a37 e13a 6335 d2f5 0b33
00000380: 68e9 3437 0596 e835 e0c7 9e33 dc32 9136
00000390: 775c e535 402c 0833 3972 6936 a008 a536
000003a0: 8fdc 9933 380b 3236 7018 cd36 31f0 8d33
000003b0: e277 9736 65a2 1537 39b3 1f34 78fa b536
000003c0: f815 8536 890c fc33 1c91 1e37 f3aa a037
000003d0: 9773 8e34 36e2 f736 2807 0f36 c0f3 4533
000003e0: 7983 7c37 e6bf 3236 f9a8 df33 c3ec 9a36
000003f0: 38a9 1838 3e1a bd34 1918 3b37 c4f3 1038
6.8183995e-06 6.1143226e-08 7.4989396e-07 6.3772e-06 1.3761651e-07 3.9119927e-06 9.152625e-06 7.7991075e-08
7.1635936e-06 5.3469057e-06 1.7588303e-07 6.671543e-06 5.8190557e-07 1.6450262e-08 4.9413893e-06 1.1537707e-06
3.7348997e-08 3.2609978e-06 3.4076088e-06 4.280835e-08 5.6424474e-06 4.4533604e-06 9.645059e-08 3.5966116e-06
2.2612685e-06 1.14849534e-07 2.320398e-06 2.0014713e-05 2.5869835e-07 3.4123032e-06 3.4402174e-07 5.4614384e-09
1.6617954e-06 7.844074e-07 1.251562e-08 1.2473093e-06 1.0657707e-05 1.2156158e-07 4.487511e-06 1.7806133e-05
2.7407995e-07 7.276292e-06 5.546595e-06 1.7507837e-07 6.97097e-06 2.997506e-05 3.946826e-07 6.1883084e-06
5.0245453e-06 1.269525e-07 2.4132734e-05 3.8364205e-06 2.8592436e-07 9.936814e-06 1.3848044e-05 1.6534987e-07
3.790718e-06 2.1995142e-05 3.7238985e-07 9.229351e-06 1.616673e-05 1.1733575e-07 4.493936e-06 8.68363e-06
2.6410154e-07 1.0614063e-05 1.7979902e-06 2.7077112e-08 8.384646e-06 4.010778e-06 6.1983286e-08 5.2484406e-06
6.1311825e-06 1.4211759e-07 1.759069e-05 1.8176173e-05 3.205376e-07 7.379231e-06 1.2944234e-06 3.066242e-08
2.8115558e-06 4.6242935e-06 6.9482084e-08 2.7771794e-06 2.5071272e-06 6.315667e-08 1.9986295e-05 3.4783536e-06
1.426413e-07 8.722767e-06 1.8552651e-05 1.5424459e-07 2.392725e-06 1.7384682e-05 3.4711346e-07 1.166828e-05
1.1249369e-05 9.7121074e-08 4.664319e-06 6.5742584e-06 2.1854986e-07 8.5938445e-06 4.226845e-05 4.0640867e-07
3.0520966e-06 4.608324e-05 9.145187e-07 2.6627657e-05 1.1749812e-06 9.668912e-09 2.7478152e-06 1.6994501e-06
2.2114149e-08 1.5507433e-06 1.4312389e-05 1.9909895e-07 1.500806e-05 2.1609065e-05 4.4852544e-07 1.190553e-05
1.5475985e-05 1.7325503e-07 2.390402e-05 1.3642807e-05 3.902636e-07 1.6378006e-05 8.884586e-07 3.189559e-08
9.256256e-06 1.6458814e-06 7.216825e-08 5.603397e-06 1.9889007e-06 6.126049e-08 2.1062322e-05 5.6380504e-06
1.384482e-07 8.965519e-06 3.601749e-06 3.2805072e-08 4.979401e-06 2.1212643e-06 7.3942026e-08 4.520525e-06
9.5514015e-06 1.0271285e-07 1.962014e-06 1.08899785e-05 2.3169055e-07 5.894107e-06 2.5288412e-06 8.440924e-08
2.9128425e-05 4.997016e-06 1.9101162e-07 9.712877e-06 3.2164728e-06 5.5279155e-08 1.8092802e-05 4.3475916e-06
1.2493034e-07 7.1048657e-06 8.759878e-07 5.3571347e-09 1.2437998e-06 1.021324e-06 1.2060473e-08 1.0794774e-06
6.1712694e-07 1.6486837e-08 5.7421494e-06 8.7205285e-07 3.7146535e-08 1.4296419e-06 7.115202e-05 6.358416e-07
5.9423646e-06 6.780463e-05 1.4314932e-06 4.186892e-05 3.2140786e-06 6.267508e-08 3.9291454e-06 9.02284e-06
1.4133032e-07 4.2157935e-06 1.8867959e-05 2.3154287e-07 1.1473839e-05 2.8318369e-05 5.2122306e-07 1.5288302e-05
1.6673524e-05 2.6381915e-07 6.244459e-05 1.3693553e-05 5.9488957e-07 2.3937571e-05 1.1387033e-06 9.974862e-09
2.7561962e-06 1.8861151e-06 2.244809e-08 1.3446861e-06 2.3757912e-06 7.644471e-08 2.7340075e-05 3.4403124e-06
1.7207725e-07 6.390742e-06 2.2551161e-05 2.6422765e-07 8.044292e-06 2.5099656e-05 5.947368e-07 1.5502666e-05
1.720926e-05 1.6374923e-07 2.086011e-06 1.7425567e-05 3.686525e-07 1.1108365e-05 8.464977e-07 3.258703e-08
1.078318e-05 1.7329008e-06 7.3938054e-08 4.3272576e-06 1.708874e-06 3.1705213e-08 3.4786192e-06 4.9183873e-06
7.164737e-08 2.6530597e-06 6.112321e-06 6.609515e-08 4.514107e-06 8.9189025e-06 1.487323e-07 5.4233788e-06
3.9662664e-06 1.17369446e-07 9.45132e-06 1.915309e-05 2.6533664e-07 7.387508e-06 2.1312826e-06 4.6089326e-08
1.5050981e-05 2.6635767e-06 1.0414983e-07 4.6171203e-06 3.639722e-05 3.5223087e-07 1.1151679e-05 3.45593e-05

exp_avg f4 [128]
00000000: c646 14b8 56f6 e8b8 a2f9 b337 e295 1eb7
00000010: 2313 9738 9b28 0136 feee 5ab8 e826 6938
00000020: 539f 5738 76c9 04b9 1950 7838 d258 8836
00000030: a359 81b8 228b 09b8 829d 35b8 a6ca b138
00000040: 8936 9538 de16 5039 0abb c033 8262 4939
00000050: f243 06b9 a63d 86b8 4e63 4438 7f35 d736
00000060: 56d4 2cb7 2e26 08b9 73e1 8fb8 1cbc c835
00000070: 1256 1138 b7db 24b8 7037 8338 d30c 17b9
00000080: aa06 db38 7ef0 3337 9696 e8b8 26e6 c5b8
00000090: 18d3 19b9 d058 9cb7 242f 4538 4799 4538
000000a0: 5354 37b8 6250 f837 1ee9 09b8 78c8 1038
000000b0: 600f bab9 7462 7cb6 3a01 30b7 72b8 aab8
000000c0: f423 7db7 a894 e4b7 eec4 3739 d27a 06b7
000000d0: 9516 ad37 bc3e b3b8 5e69 9637 3c77 b736
000000e0: 424a e737 ca19 2b38 fceb 95b7 a489 ddb7
000000f0: 3bfb 8237 70ca d336 b7a2 3c38 a576 38b8
00000100: ce69 3d38 2c95 0139 9080 43b9 0c4e a9b7
00000110: 97e4 f1b7 a87b 2938 e341 c6b9 1188 4638
00000120: d7e7 81b7 4104 a9b8 53e4 cdb8 4de8 89b7
00000130: 2b76 3839 0fa2 acb7 3ab5 fcb7 12f9 2737
00000140: 7c15 50b5 e04b bcb8 61dc 6038 7a0e 9db8
00000150: d99c a1b8 3935 1bb9 2d69 e6b8 c759 cbb8
00000160: 38c5 1b38 86cc 11b8 96b9 a4b9 8eaf 9e38
00000170: 8d50 1637 a67a 6bb9 5380 f738 0377 8db8
00000180: 71dd f339 bdfe 0439 25ed d1b8 ecc8 01b8
00000190: 2e6e 3537 e8d2 82b9 8180 9a38 2682 6fb7
000001a0: a39a 47b7 0ba5 b236 bdb9 1cb8 20c8 52b9
000001b0: 040c cdb9 e863 5d39 4024 d8b8 6d27 97b8
000001c0: cad1 03ba a013 8ab8 6438 fc38 dfad 2938
000001d0: 46f4 b1b8 bb46 6239 2842 19b9 1925 bf38
000001e0: cc83 90b9 8095 83b2 10ee 51b9 8d9b 6e35
000001f0: a22b 4b38 db73 eab8 ee6a 85b8 f082 1533
-3.5351863e-05 -0.00011108506 2.1454707e-05 -9.452431e-06 7.2038056e-05 1.9246133e-06 -5.219783e-05 5.5587763e-05
5.1408377e-05 -0.00012663551 5.9202404e-05 4.063456e-06 -6.1678955e-05 -3.2792923e-05 -4.3300453e-05 8.477764e-05
7.1150316e-05 0.00019844944 8.974719e-08 0.00019205551 -0.00012804547 -6.401101e-05 4.6822526e-05 6.413727e-06
-1.0301437e-05 -0.00012984194 -6.8607646e-05 1.4955908e-06 3.4650853e-05 -3.9305272e-05 6.256893e-05 -0.0001440526
0.00010443975 1.0725225e-05 -0.00011090671 -9.4365605e-05 -0.00014669856 -1.8638006e-05 4.7012363e-05 4.711121e-05
-4.3709133e-05 2.9601335e-05 -3.2880453e-05 3.4518976e-05 -0.0003548814 -3.7608233e-06 -1.0490703e-05 -8.140587e-05
-1.5088346e-05 -2.7248941e-05 0.00017525602 -8.015619e-06 2.0633723e-05 -8.54707e-05 1.7930459e-05 5.4677057e-06
2.7571925e-05 4.0793595e-05 -1.7872073e-05 -2.6409347e-05 1.5614196e-05 6.311857e-06 4.4974233e-05 -4.3979515e-05
4.515965e-05 0.0001235797 -0.00018644542 -2.0182713e-05 -2.8835884e-05 4.0407904e-05 -0.00037814592 4.73336e-05
-1.5485957e-05 -8.05934e-05 -9.8176904e-05 -1.6439846e-05 0.00017591628 -2.0579462e-05 -3.0125131e-05 1.0011967e-05
-7.75173e-07 -8.9786714e-05 5.3611006e-05 -7.48904e-05 -7.7062934e-05 -0.00014801779 -0.00010986845 -9.696517e-05
3.7138554e-05 -3.476117e-05 -0.0003141879 7.566727e-05 8.959451e-06 -0.00022457037 0.0001180178 -6.7455716e-05
0.00046513558 0.00012683398 -0.00010010068 -3.094312e-05 1.0814094e-05 -0.0002495267 7.367228e-05 -1.4275813e-05
-1.18973285e-05 5.324027e-06 -3.736628e-05 -0.00020101713 -0.000391096 0.0002111342 -0.00010306435 -7.207585e-05
-0.00050285144 -6.584008e-05 0.000120268 4.045467e-05 -8.485517e-05 0.00021579389 -0.00014615862 9.1145e-05
-0.00027564017 -1.5318392e-08 -0.00020020478 8.8888265e-07 4.8439608e-05 -0.00011179569 -6.3618514e-05 3.4810853e-08

exp_avg_sq f4 [128]
00000000: d94d 8332 0d7c a732 834e 8d31 42dc 3732
00000010: 33a3 f632 50a7 bb30 9786 0233 2afd 3b33
00000020: 6d50 0833 088b 3133 04fa fb32 3997 e831
00000030: fb98 1833 b2b1 0332 c2a0 8732 6e9e 2533
00000040: e290 d032 6230 da33 541c 2631 eac7 5533
00000050: fb07 3a33 92fd 0832 4e8e 8332 8fe5 0c32
00000060: fb92 dc32 7744 b532 146c 6d32 db11 b830
00000070: f19e 8d31 b2ae 2a34 ff97 8632 059e 7833
00000080: 08a3 8d33 e85d 2b31 f029 a432 2bdb 8d33
00000090: 08d3 2f33 d2f5 0b32 3e2c 0832 30f0 8d32
000000a0: 8e0c fc32 c0f3 4532 3f1a bd33 35e6 c632
000000b0: 757a 2834 5e63 4531 365e 0833 9f05 0533
000000c0: 97c3 9331 4961 f532 b3be 1933 8e67 9232
000000d0: ef7d a733 9d19 8b32 640c f631 14a8 cf31
000000e0: 836a 3b31 ba85 a233 df53 a731 66f4 1c33
000000f0: a236 8232 1b30 c132 08ce ca31 ec6f d931
00000100: ad9d 3432 02a3 dd32 9506 0934 b766 ae32
00000110: 4b44 5b32 4db6 d933 cd7c 8334 1225 5e32
00000120: 5b4f f532 9b42 2b32 4287 bc32 43cc 7932
00000130: 6377 e932 7744 5c33 2a41 2e33 1a0c b331
00000140: 9f5f 9d31 e015 6a33 8208 4833 5cc0 b232
00000150: 2f83 a132 679c 2533 1d86 7b33 1181 9432
00000160: eafd cc31 4456 1332 ed4f 4b34 ca16 ea32
00000170: 7f1b 1532 578c 3c34 99b1 cd33 4ea6 e231
00000180: 9bf5 3a34 55f3 1833 265f 0633 361d ee32
00000190: 5fd3 3031 a5b9 cb33 0dac 8e32 2a82 6332
000001a0: 5e1e 0c31 2643 0431 2444 4832 dbaa 8d33
000001b0: 7af9 2934 af10 8e33 7073 8a32 2c57 2733
000001c0: 6a0e bd34 e909 4532 2935 9232 0d39 ef31
000001d0: f458 b732 cfa7 2d33 5f77 d732 59e6 4133
000001e0: b77d e033 7661 8931 cd7a 8933 cc5a d930
000001f0: b358 db31 aaed 6d33 286a 9431 7f0e b630
1.5285808e-08 1.949777e-08 4.112566e-09 1.0702083e-08 2.8712384e-08 1.3653594e-09 3.0390392e-08 4.376958e-08
3.1738114e-08 4.1337472e-08 2.933394e-08 6.7692807e-09 3.5529393e-08 7.665607e-09 1.5789173e-08 3.8561147e-08
2.4280272e-08 1.0160217e-07 2.4172282e-09 4.9774748e-08 4.3313758e-08 7.973897e-09 1.531512e-08 8.201268e-09
2.567821e-08 2.1102307e-08 1.381979e-08 1.3392837e-09 4.1217096e-09 1.5896038e-07 1.5668773e-08 5.7885718e-08
6.5954794e-08 2.4937155e-09 1.9111184e-08 6.6056906e-08 4.0937294e-08 8.146758e-09 7.926301e-09 1.6523785e-08
2.934237e-08 1.15223315e-08 8.8057725e-08 2.315492e-08 1.5690769e-07 2.8723757e-09 3.1750652e-08 3.0971588e-08
4.300499e-09 2.8565994e-08 3.579653e-08 1.7043728e-08 7.799451e-08 1.6193377e-08 7.160951e-09 6.043601e-09
2.7272626e-09 7.5680376e-08 4.8698747e-09 3.654386e-08 1.5158836e-08 2.2490033e-08 5.902397e-09 6.3282553e-09
1.051323e-08 2.5801913e-08 1.2761514e-07 2.0302975e-08 1.2763006e-08 1.013801e-07 2.4491456e-07 1.29305295e-08
2.855784e-08 9.968654e-09 2.1947589e-08 1.4540151e-08 2.717906e-08 5.128501e-08 4.05718e-08 5.2109614e-09
4.5801722e-09 5.4502266e-08 4.6573867e-08 2.0809402e-08 1.8802522e-08 3.8559303e-08 5.8562467e-08 1.728816e-08
5.966048e-09 8.576141e-09 1.8934925e-07 2.7251549e-08 8.679193e-09 1.755992e-07 9.578361e-08 6.5963723e-09
1.741195e-07 3.5611567e-08 3.1285843e-08 2.772013e-08 2.5731521e-09 9.486693e-08 1.6609215e-08 1.3242735e-08
2.0389943e-09 1.9246698e-09 1.1657026e-08 6.5969026e-08 1.583011e-07 6.615425e-08 1.611781e-08 3.8962e-08
3.521448e-07 1.14691625e-08 1.7020811e-08 6.9623014e-09 2.1344455e-08 4.0432322e-08 2.5083578e-08 4.5145814e-08
1.045368e-07 3.998305e-09 6.401897e-08 1.5814634e-09 6.383823e-09 5.5397017e-08 4.3194355e-09 1.3246363e-09
