results/Test10/MoveToTarget/MoveToTarget-2048.pt (torch, 150090 bytes, 12 tensors)

network_body._body_endoder.seq_layers.0.weight f4 [128, 6]
00000000: 57a4 85bf 5d32 54bf 29e5 3dbe 9bf0 413d
00000010: 4d36 2f3e c280 213f 622d 423b 648b 293e
00000020: 52e0 c33e 9d28 183e b09a 95bd 913e b3bd
00000030: 2adb 163e ec66 fcbd 2bff afbe def7 323f
00000040: a94a 82bd 5578 18bf 72e8 8c3e 30ce 533f
00000050: f70e 47be 263b 28bd 7c9b fe3e 22ea c53d
00000060: 51d6 e43d f43d 183f 5afb d0be 2a97 b8be
00000070: ccdd bb3e 6fcf 74bf 5852 1c3f 6658 b03e
00000080: 96f9 cb3e 31a3 4e3d 3d09 c8bd 7951 a3bd
00000090: e626 d7be 90df 0dbe a743 873e 26cf a4be
000000a0: 5259 0ebd 018f afbe 3d6e 473e 7944 19bf
000000b0: 85f6 733e 73f4 f73e f707 723f c674 0abf
000000c0: b71b 0f3e ab9f 53be d430 14bf 0255 7fbd
000000d0: 24b5 183e 8b83 eebe 63f1 c1be 32be 1e3f
000000e0: b45e 7cbe 4905 8ebe 27ed 023f 69bb 7e3e
000000f0: 6923 013f 9905 1dbe a2bb e03e 2de9 63be
00000100: aeb1 51bf f2a4 a13e f1d4 54bf f29f dfbe
00000110: ff82 90be 3198 f73e 9d95 fc3d 20ae 983e
00000120: e35d 5dbe d0dd b83e 9f10 88bd 31f5 95bb
00000130: 1fac ebbd 3f73 bd3e 7955 f53e 356c 1f3f
00000140: a2d3 313e 16a8 efbe b72c 023f 7d3f 4dbe
00000150: 78b3 11bf ec27 f7be e033 553e d3f6 c7be
00000160: a9bc e9bd e459 8abe bf97 05bd 6301 6abd
00000170: 139c 3ebe 771b c3be e41c 4d3e a7f4 22be
00000180: d64a 5d3a 786d 98bd c545 973d 3f30 853d
00000190: 840c a6bd e3e0 c03e 8257 ca3e de96 263e
000001a0: c95d 6f3e 3f22 cdbe 4a43 013f 5a10 e3bd
000001b0: 0f52 513e 5403 673f f0c7 223f fda9 7cbd
000001c0: 6401 e0bc 7102 1dbf d85b 273e 57b6 6dbe
000001d0: 877f 8cbd 27d2 bdbe b04e 89bc 777e 4cbe
000001e0: 92a4 263f 4185 7d3e 4954 a13e 25e2 90be
000001f0: 75ed 0fbf 62ca 8e3d 3f98 5f3f dd25 99be
00000200: 8532 f73e a057 21bf 7b3a a43d 86be 67be
00000210: 0af2 d7bd 5b6b 623e f2cd 3d3e 6428 5d3d
00000220: 9ee3 f7be 233d 53bd bf3e 4ebd df06 423d
00000230: 1bca 2dbf 12c3 fcbe c25b 613f 5822 45be
00000240: 2141 f8bd 15a5 77be a82b c6be 16d7 05be
00000250: 00c4 8dbe 068c 103f a4dc e8be 1f66 183f
00000260: 70d3 08bf c398 9fbe 6363 493e 4013 3fbe
00000270: dbb6 42bf 1491 2fbe ce47 62bd 94ed 7fbe
00000280: 440b b03e dbe8 02bf b3c5 a93e 2d07 163f
00000290: 393d 123f 0af1 d8bc 1691 cabe 6770 68bc
000002a0: cda6 19bf 290d 1dbf 5d6e 9e3d f5ad 3bbe
000002b0: 757f b43e 08d2 03bf 58bd 94be 18ad 05be
000002c0: 7a0e a53e df78 313f 6597 9abd edeb d5be
000002d0: a795 59be 9610 133d 14cf c6bd 09a6 ba3e
000002e0: 57a0 df3d 93fb 393e 1da6 1dbf 1c6f 02bf
000002f0: 05af 663d 5186 0d3f 5bd3 f7be 96bf d5bb
00000300: aaca c83d 1548 04bf ecb4 ae3e 58ff 17bf
00000310: 94ca 113e 1c62 583f 36db 103f 3f53 12bf
00000320: de5e 8ebd 71a6 9bbe 1d49 cabe 9a06 383f
00000330: c44f 253f 9a67 fabe c152 94bc d462 cf3e
00000340: b1cb 763f 41b1 19bf 0635 fdbe 2417 c73b
00000350: d99e 66be c21f b93c a89b 183d 5ad1 c7bb
00000360: d72b fabe c0ce 96be c7ce 70bf a8da 9cbe
00000370: 741f 84bf 7ad3 19bf d460 7f3f c6f3 ad3e
00000380: 99ea f6bd 5811 31bf 5958 c93d 4881 5bbe
00000390: f33d 733e ffac af3e aabb 18be d5f7 883e
000003a0: c8da 81be 41df 84be 5162 a3bd f340 153e
000003b0: 56fe 41bf fa4b ecbe 4928 04be fa0d 54be
000003c0: d788 e0bd a18b 03bf 92d3 e33e 2821 72be
000003d0: 8020 79be 6829 bb3e 14b9 d6be d6b3 893d
000003e0: 6566 cb3c a34b 49be 6580 903c d18f 4abe
000003f0: 7144 ce3d 0b25 583e 9dac 153f 1af6 10bd
-1.0440778 -0.8288935 -0.18544449 0.0473486 0.17110558 0.63087094 0.00296291 0.1655708
0.3825708 0.14859243 -0.07304895 -0.08752168 0.14732042 -0.12324318 -0.34374365 0.69909465
-0.063618965 -0.5955861 0.27521092 0.8273649 -0.19439302 -0.041072033 0.49728 0.09663798
0.1117369 0.5946953 -0.40816766 -0.3605283 0.36692655 -0.9562902 0.61063147 0.34442443
0.39838856 0.0504486 -0.09767387 -0.07974524 -0.42021865 -0.13854814 0.26418802 -0.32189292
-0.03475315 -0.3428879 0.19475646 -0.59870106 0.23824508 0.48428687 0.94543403 -0.5408443
0.13975416 -0.20666377 -0.57887006 -0.06233693 0.1491285 -0.46584734 -0.37879476 0.62008965
-0.24645501 -0.27738407 0.51143116 0.24876179 0.50444657 -0.15334167 0.43893152 -0.22256918
-0.8191174 0.31571156 -0.8313742 -0.43676716 -0.28224942 0.483583 0.12333224 0.29820347
-0.21617846 0.3610673 -0.06643795 -0.0045763482 -0.11507439 0.37001988 0.47916773 0.62274486
0.17365888 -0.46807927 0.5084948 -0.2004375 -0.5691447 -0.48272645 0.2082057 -0.390555
-0.11412937 -0.27021706 -0.03261542 -0.05713023 -0.18614225 -0.38106892 0.20030552 -0.1591364
0.00084416324 -0.074427545 0.07386354 0.06503343 -0.08107856 0.37671575 0.39519888 0.16268489
0.2337562 -0.4006519 0.504933 -0.11087103 0.20441459 0.90239453 0.6358633 -0.06168555
-0.027344413 -0.6133185 0.1634363 -0.23214088 -0.068602614 -0.37074396 -0.016761154 -0.19970118
0.65094864 0.24757864 0.31509617 -0.28297535 -0.56221706 0.06972195 0.87341684 -0.299117
0.4828073 -0.6302433 0.08018967 -0.22631273 -0.10544212 0.22111265 0.18535593 0.053993598
-0.48415846 -0.051571976 -0.050352808 0.047369834 -0.67886513 -0.49367577 0.88030636 -0.19251382
-0.12121797 -0.24184068 -0.38705182 -0.1307033 -0.276886 0.5646366 -0.45480835 0.59530824
-0.5344763 -0.31171235 0.1966682 -0.18659687 -0.76060265 -0.17145187 -0.05524426 -0.24992973
0.34383595 -0.5113656 0.33158645 0.586047 0.5712467 -0.026482124 -0.39563817 -0.014186955
-0.6002014 -0.61348206 0.07735894 -0.18328078 0.35253492 -0.5149236 -0.29050708 -0.13054311
0.32237607 0.6932506 -0.075484075 -0.4178156 -0.21248494 0.03590449 -0.09707466 0.364548
0.10919254 0.18162374 -0.61581594 -0.5095079 0.056319255 0.55283076 -0.4840344 -0.006523083
0.0980428 -0.5167249 0.34122407 -0.59374 0.14237434 0.84524703 0.5658449 -0.57158273
-0.06951688 -0.30400422 -0.39508906 0.71885073 0.6457484 -0.48907167 -0.018105866 0.40505087
0.9640456 -0.60036093 -0.49454516 0.0060757566 -0.22521533 0.022598151 0.03725782 -0.0060979547
-0.48861572 -0.29454613 -0.9406552 -0.3063557 -1.0322099 -0.6008831 0.99757123 0.33975047
-0.12056465 -0.6916709 0.09831304 -0.21436036 0.237541 0.34311673 -0.14915338 0.2675158
-0.2536223 -0.2595158 -0.07977737 0.14575557 -0.7577871 -0.46151716 -0.12905993 -0.20708457
-0.109636 -0.5138493 0.44497353 -0.2364546 -0.24328804 0.36555028 -0.41938078 0.06723754
0.024829099 -0.1965776 0.017639348 -0.19781424 0.10071648 0.21107881 0.5846651 -0.03539095

network_body._body_endoder.seq_layers.0.bias f4 [128]
00000000: 0000 0000 0000 0000 0000 0000 0000 0000
00000010: 0000 0000 0000 0000 0000 0000 0000 0000
00000020: 0000 0000 0000 0000 0000 0000 0000 0000
00000030: 0000 0000 0000 0000 0000 0000 0000 0000
00000040: 0000 0000 0000 0000 0000 0000 0000 0000
00000050: 0000 0000 0000 0000 0000 0000 0000 0000
00000060: 0000 0000 0000 0000 0000 0000 0000 0000
00000070: 0000 0000 0000 0000 0000 0000 0000 0000
00000080: 0000 0000 0000 0000 0000 0000 0000 0000
00000090: 0000 0000 0000 0000 0000 0000 0000 0000
000000a0: 0000 0000 0000 0000 0000 0000 0000 0000
000000b0: 0000 0000 0000 0000 0000 0000 0000 0000
000000c0: 0000 0000 0000 0000 0000 0000 0000 0000
000000d0: 0000 0000 0000 0000 0000 0000 0000 0000
000000e0: 0000 0000 0000 0000 0000 0000 0000 0000
000000f0: 0000 0000 0000 0000 0000 0000 0000 0000
00000100: 0000 0000 0000 0000 0000 0000 0000 0000
00000110: 0000 0000 0000 0000 0000 0000 0000 0000
00000120: 0000 0000 0000 0000 0000 0000 0000 0000
00000130: 0000 0000 0000 0000 0000 0000 0000 0000
00000140: 0000 0000 0000 0000 0000 0000 0000 0000
00000150: 0000 0000 0000 0000 0000 0000 0000 0000
00000160: 0000 0000 0000 0000 0000 0000 0000 0000
00000170: 0000 0000 0000 0000 0000 0000 0000 0000
00000180: 0000 0000 0000 0000 0000 0000 0000 0000
00000190: 0000 0000 0000 0000 0000 0000 0000 0000
000001a0: 0000 0000 0000 0000 0000 0000 0000 0000
000001b0: 0000 0000 0000 0000 0000 0000 0000 0000
000001c0: 0000 0000 0000 0000 0000 0000 0000 0000
000001d0: 0000 0000 0000 0000 0000 0000 0000 0000
000001e0: 0000 0000 0000 0000 0000 0000 0000 0000
000001f0: 0000 0000 0000 0000 0000 0000 0000 0000
0.0 0.0 0.0 0.0 0.0 0.0 0.0 0.0
0.0 0.0 0.0 0.0 0.0 0.0 0.0 0.0
0.0 0.0 0.0 0.0 0.0 0.0 0.0 0.0
0.0 0.0 0.0 0.0 0.0 0.0 0.0 0.0
0.0 0.0 0.0 0.0 0.0 0.0 0.0 0.0
0.0 0.0 0.0 0.0 0.0 0.0 0.0 0.0
0.0 0.0 0.0 0.0 0.0 0.0 0.0 0.0
0.0 0.0 0.0 0.0 0.0 0.0 0.0 0.0
0.0 0.0 0.0 0.0 0.0 0.0 0.0 0.0
0.0 0.0 0.0 0.0 0.0 0.0 0.0 0.0
0.0 0.0 0.0 0.0 0.0 0.0 0.0 0.0
0.0 0.0 0.0 0.0 0.0 0.0 0.0 0.0
0.0 0.0 0.0 0.0 0.0 0.0 0.0 0.0
0.0 0.0 0.0 0.0 0.0 0.0 0.0 0.0
0.0 0.0 0.0 0.0 0.0 0.0 0.0 0.0
0.0 0.0 0.0 0.0 0.0 0.0 0.0 0.0

network_body._body_endoder.seq_layers.2.weight f4 [128, 128]
00000000: 1ad3 83bc 85a5 e7bc 46d1 c4bd 143d 6c3e
00000010: aadf a33d 033f f7bd cdea 2c3c 0244 043d
00000020: 860e 91bc 4cd7 a53d 5d23 9b3d fadd 333d
00000030: 3324 cc3c f0fe 88bd 3cb7 abbd b932 d83c
00000040: 368f f33c 927c ec3d 3392 4b3d 7e78 0d3e
00000050: b508 663c 6c03 9a3d 6c70 803d 547c 253c
00000060: e48b 123d 4704 a8bb 519f a0bc 11e1 44bd
00000070: 3d34 a9bd 012e b3bd 6db5 c6bc 0573 60bd
00000080: 8aa7 a43c 9971 823d 36f5 353b 54ec a03d
00000090: 7b29 483d ea0b 743d b233 203d 5139 27bd
000000a0: f66b 273d 8f56 dfbc 8e61 053d de8c 1d3d
000000b0: 2942 e23d 261d 2e3e e0ca cc3d 7eac b23d
000000c0: 7a13 213e bf88 69bc e887 bebd 1942 883d
000000d0: afc9 42bc 2b11 9dbd aa57 f73b dcbb f93d
000000e0: 1130 12bc 59a6 8b3c 4d39 82bc 6b90 cf3a
000000f0: af1e abbd 099d 453d a630 3d3d 73f3 99bd
00000100: f796 05bd 49ca c1bd e90a 75bd c5f2 b13d
00000110: b99f 9a3c 4dc9 223d 7337 54bd 72ba 5f3d
00000120: 6c98 eb3c 46b2 88bd e8ff 4b3d 1722 c63d
00000130: 0ff5 bdbd e2fa 523d 3dfd b13d 5991 8ebd
00000140: f82c ac3b c46e 8bbd 1bff 8ebd 03c4 b83b
00000150: f7cd 493c ce59 87bc 3688 9abd f56c a43c
00000160: 7cbe f9bc 5e0c f23d 782f f23d 7c08 f4bd
00000170: d78b f53d 483d fc3c 79ab 2fbc 9e8e 46bd
00000180: eb2a bbbd fcdd a73d b55a 683e ec78 b83d
00000190: 3275 43bd e6c2 b23d 6b70 5c3d b7ce 1a3b
000001a0: d359 09be 01b8 3bbd 68fa c0bd d846 81ba
000001b0: bcf2 653d d7e0 633c 9938 2ebc 5d6e 593d
000001c0: 6a3f 61bd 9c6c 65bd ec70 633d e897 163e
000001d0: 3c13 84bd 82be 143d aa9e 4ebc 1eed 9d3d
000001e0: b00d a33d 56c9 1f3e b76d 973d 2a93 9dbc
000001f0: 5d49 813d d6cc a2bd 4f87 aa3c 8e54 963c
00000200: 6d01 dc3d bd81 81bd e3e1 1d3d abe4 253d
00000210: 5f79 553d bda7 f03c 8dc9 193d ebee 9a3d
00000220: b279 a03d 4f64 b43c 3886 90bd 8081 4ebd
00000230: e7b8 5f3e 4ede 933d 2523 10bd a461 1e3e
00000240: ae19 fcbc 7127 82bd 35bf e2bd 2e6b 2ebb
00000250: e264 1abc 0c63 12bd e814 76bd 985f 153e
00000260: 4da9 183c d44d 3fbd c81a f33d a628 8a3d
00000270: 731a 113d d6bf f4bd e310 48bd dbfd 4dbd
00000280: c37d 2bbe 6bf3 933d a7b5 edbd 1556 183d
00000290: e94a 083c 2c5d a5bd bf8d 8f3d 8bd7 fcba
000002a0: c3e3 cdbd 7049 883d 0c35 57bc 7d86 5e3d
000002b0: a49f aebc c44f 9c3d ccbc b6bd 1b60 09be
000002c0: e025 12be 34d3 abbd a887 303e 999c 7bbc
000002d0: ac23 663d 3d19 3dbd 4cd0 d4bd aa18 07be
000002e0: ab9f 13be ef96 9b3c 267f 06be 63d6 22bd
000002f0: 25e5 ca3d 66fe 2c3e c4c0 423d 9765 6bbc
00000300: b3f4 d7bb 308f 203e 881a a43d cbc8 ac39
00000310: 7660 b7bc 1dbf e4bd 2e2c 063d 15bf 8abc
00000320: fcfd 3e3e 9bcf 2a3e 1b2b c8bc bc13 babc
00000330: c73f 91bc fc61 e03b 3bbf 62bd a0ec 583b
00000340: f03d 0a3e 27bd 3cbd d4ce 053c c31c 553d
00000350: b93b 05be 2e86 9abd b223 9cbd 4732 773d
00000360: e7aa 0ebd 623f 813c 9ef3 cfbd 3e78 113e
00000370: 0c13 193d 2f95 20be fb73 ed3d d149 d2bd
00000380: 948a ad3d 8223 dc3c 875b 993d 92b1 fcbb
00000390: 0532 aebd 97d9 373c 229a cabd 6e7c 493d
000003a0: 9e95 f1bc 12f4 a7bb dd21 2ebd c2eb 10be
000003b0: f3b6 82ba 0b8d a3bd 5374 1d3d fd55 583e
000003c0: e409 5abd 6a25 a53d 529e 9a3d 3176 793d
000003d0: 2bd1 083e 6ea5 743d 3bc1 65bd c4e4 d13c
000003e0: a268 723d 5703 e93c 250a 83bd fdec 00bd
000003f0: 7045 0b3e 1fd9 193d 21e8 7e3c 7312 c03d
-0.016091872 -0.028277168 -0.09610228 0.23070174 0.08001645 -0.120725654 0.010554028 0.03229142
-0.01770712 0.08097705 0.075751044 0.043912865 0.024919605 -0.066892505 -0.083845586 0.026391374
0.029731374 0.115471974 0.049699973 0.13815495 0.014040162 0.07520184 0.06271443 0.010100443
0.03577794 -0.005127463 -0.019607218 -0.048066203 -0.08261917 -0.08749009 -0.024256432 -0.05479719
0.02009942 0.06369323 0.0027764565 0.07857576 0.048867684 0.059581675 0.0391118 -0.040826146
0.040874444 -0.027262954 0.03256374 0.03846442 0.11047775 0.17003307 0.09999633 0.087243065
0.15730086 -0.014253794 -0.09303266 0.06653232 -0.011888905 -0.0766929 0.007548292 0.121940345
-0.008922593 0.017047094 -0.015896464 0.0015835887 -0.08355462 0.048245464 0.046188973 -0.075171374
-0.032614674 -0.09462411 -0.059824858 0.08688883 0.01887499 0.039742757 -0.051810693 0.054621167
0.028759204 -0.06674628 0.049804598 0.09674471 -0.09275257 0.05150879 0.086908795 -0.069613166
0.005254384 -0.06808236 -0.06982251 0.005638601 0.012317172 -0.016522314 -0.075455114 0.020071486
-0.030486338 0.11818765 0.1182546 -0.11915681 0.11989563 0.03079094 -0.010722035 -0.048475854
-0.09139045 0.08196637 0.22690852 0.09007439 -0.047719188 0.0872858 0.053818148 0.0023621747
-0.13413171 -0.045829777 -0.09422761 -0.0009863032 0.056139693 0.013908586 -0.010633611 0.053083766
-0.054992117 -0.05601178 0.055527613 0.14706385 -0.06448981 0.036314495 -0.012611071 0.07711242
0.07961595 0.15604147 0.07393973 -0.019235212 0.06312821 -0.079492256 0.020816473 0.018350866
0.107424594 -0.06323574 0.0385455 0.040501278 0.0521177 0.029376859 0.03754573 0.07565101
0.078357115 0.022020487 -0.0705685 -0.05041647 0.21847878 0.07220136 -0.035189766 0.15466934
-0.030773964 -0.06355179 -0.11071626 -0.0026614177 -0.009423466 -0.03573899 -0.06007853 0.14587247
0.009317708 -0.046705082 0.118703425 0.06746034 0.035425615 -0.11950652 -0.04884423 -0.050290924
-0.16747193 0.07224163 -0.11606913 0.03719147 0.008318641 -0.08074412 0.07009458 -0.0019290311
-0.10053208 0.06654632 -0.013135206 0.054327477 -0.021316357 0.076324016 -0.08922729 -0.13415568
-0.1427226 -0.08389893 0.17239249 -0.01535716 0.056186363 -0.046166647 -0.10391292 -0.13193002
-0.14416377 0.01899287 -0.13134441 -0.039755236 0.09906987 0.1689392 0.047547117 -0.014367483
-0.0065904497 0.15679622 0.08012873 0.00032956 -0.022384863 -0.111692645 0.032756977 -0.016936818
0.18651575 0.16680758 -0.024434617 -0.022714488 -0.017730607 0.006847618 -0.055358153 0.0033100024
0.1350019 -0.046078827 0.008166987 0.052029382 -0.13011064 -0.07545124 -0.07623996 0.060350683
-0.034830954 0.015777294 -0.10153888 0.14206025 0.03737168 -0.15681909 0.11594387 -0.102679856
0.08473697 0.0268724 0.074881606 -0.0077115977 -0.08505634 0.011221311 -0.0989268 0.04919093
-0.029490288 -0.005125531 -0.042512763 -0.14152434 -0.0009972736 -0.07985886 0.038441014 0.21126552
-0.05323209 0.08063777 0.075497285 0.06090373 0.13361041 0.05972808 -0.056092482 0.02562178
0.059181817 0.028443975 -0.06398419 -0.03147601 0.13600707 0.03756058 0.0155582735 0.09378519

network_body._body_endoder.seq_layers.2.bias f4 [128]
00000000: 0000 0000 0000 0000 0000 0000 0000 0000
00000010: 0000 0000 0000 0000 0000 0000 0000 0000
00000020: 0000 0000 0000 0000 0000 0000 0000 0000
00000030: 0000 0000 0000 0000 0000 0000 0000 0000
00000040: 0000 0000 0000 0000 0000 0000 0000 0000
00000050: 0000 0000 0000 0000 0000 0000 0000 0000
00000060: 0000 0000 0000 0000 0000 0000 0000 0000
00000070: 0000 0000 0000 0000 0000 0000 0000 0000
00000080: 0000 0000 0000 0000 0000 0000 0000 0000
00000090: 0000 0000 0000 0000 0000 0000 0000 0000
000000a0: 0000 0000 0000 0000 0000 0000 0000 0000
000000b0: 0000 0000 0000 0000 0000 0000 0000 0000
000000c0: 0000 0000 0000 0000 0000 0000 0000 0000
000000d0: 0000 0000 0000 0000 0000 0000 0000 0000
000000e0: 0000 0000 0000 0000 0000 0000 0000 0000
000000f0: 0000 0000 0000 0000 0000 0000 0000 0000
00000100: 0000 0000 0000 0000 0000 0000 0000 0000
00000110: 0000 0000 0000 0000 0000 0000 0000 0000
00000120: 0000 0000 0000 0000 0000 0000 0000 0000
00000130: 0000 0000 0000 0000 0000 0000 0000 0000
00000140: 0000 0000 0000 0000 0000 0000 0000 0000
00000150: 0000 0000 0000 0000 0000 0000 0000 0000
00000160: 0000 0000 0000 0000 0000 0000 0000 0000
00000170: 0000 0000 0000 0000 0000 0000 0000 0000
00000180: 0000 0000 0000 0000 0000 0000 0000 0000
00000190: 0000 0000 0000 0000 0000 0000 0000 0000
000001a0: 0000 0000 0000 0000 0000 0000 0000 0000
000001b0: 0000 0000 0000 0000 0000 0000 0000 0000
000001c0: 0000 0000 0000 0000 0000 0000 0000 0000
000001d0: 0000 0000 0000 0000 0000 0000 0000 0000
000001e0: 0000 0000 0000 0000 0000 0000 0000 0000
000001f0: 0000 0000 0000 0000 0000 0000 0000 0000
0.0 0.0 0.0 0.0 0.0 0.0 0.0 0.0
0.0 0.0 0.0 0.0 0.0 0.0 0.0 0.0
0.0 0.0 0.0 0.0 0.0 0.0 0.0 0.0
0.0 0.0 0.0 0.0 0.0 0.0 0.0 0.0
0.0 0.0 0.0 0.0 0.0 0.0 0.0 0.0
0.0 0.0 0.0 0.0 0.0 0.0 0.0 0.0
0.0 0.0 0.0 0.0 0.0 0.0 0.0 0.0
0.0 0.0 0.0 0.0 0.0 0.0 0.0 0.0
0.0 0.0 0.0 0.0 0.0 0.0 0.0 0.0
0.0 0.0 0.0 0.0 0.0 0.0 0.0 0.0
0.0 0.0 0.0 0.0 0.0 0.0 0.0 0.0
0.0 0.0 0.0 0.0 0.0 0.0 0.0 0.0
0.0 0.0 0.0 0.0 0.0 0.0 0.0 0.0
0.0 0.0 0.0 0.0 0.0 0.0 0.0 0.0
0.0 0.0 0.0 0.0 0.0 0.0 0.0 0.0
0.0 0.0 0.0 0.0 0.0 0.0 0.0 0.0

action_model._continuous_distribution.log_sigma f4 [1, 3]
00000000: 0000 0000 0000 0000 0000 0000
0.0 0.0 0.0

action_model._continuous_distribution.mu.weight f4 [3, 128]
00000000: 3b9b 90bc 52af 103d 5b39 0c3d 020c 8d3c
00000010: f057 3f3c 464e c13b e826 b23c c9d8 1a3c
00000020: f0f7 87bc 0a47 a5bc 8dab 8ebb 2b7d 69ba
00000030: 0707 d8bb ca30 6bbc d3ba 573b 9907 14bc
00000040: d773 b53c f3ee e6bb fde9 333c bd18 01bd
00000050: 5de3 1e3b 8443 803c accb 4b3c b82c adbc
00000060: e55a fb3a 8b9c ae3b 02ed 883b b709 24bc
00000070: 55b1 a1bb 7e01 2ebc 8716 fe3b effb 283c
00000080: 5489 1a3d e0c5 483d e4ae 35bd da0e 233c
00000090: d772 2bbd db7d 803c 87ed 4e3c ba8c fabc
000000a0: 2f6a dfbc 43f0 d03c 51ea a539 ebfc 3b3c
000000b0: a3f1 34bc 2038 f9ba 7a20 fabb 8284 debb
000000c0: 9184 a03c 0d51 e4bc 2715 feba 2725 03bd
000000d0: 5d66 dcbc 1fdb 623c 8d8d 33bd 5f93 0bbc
000000e0: ed07 e33a bb10 6cb9 df2d d43b acfc b0bc
000000f0: dc52 1a3b d70d 4abc 5f30 38bc dae6 6f3c
00000100: 35b5 ecbb 1abe d83c 8be2 253a 652d dabb
00000110: 3dd3 7abc 7a76 96bc 6743 3ebb eccf 1ebb
00000120: f7cc f83c e7d7 543b 8fdc ebbc d561 9dbc
00000130: a07f 92bb 80ee 54bc 999e c2bc 1d99 6a3c
00000140: 0abd 89bc cb81 05bb 1b11 eb3c c909 bebc
00000150: c72e 95bb cd86 b43c 4393 fe3b d756 823c
00000160: cb6d fabc 4c01 32bc 95ef 573c c8a0 5bbc
00000170: defc 84bc 79f5 ab3c 47d2 973b 7dea cb3c
00000180: ed9a 56bc d3dd b7ba b2b7 983c b3c8 4fbc
00000190: 48c9 9dbc bb8e 073c 9956 213c 03dc 813c
000001a0: b51a fa3c 90fd 4ebb ddef 533c 73bd 8c3c
000001b0: fa73 c73b 235e bfbc acf3 32bb 5d1f 123d
000001c0: 13fd ea3c dc47 cabc b2bb 2c3b 9824 133c
000001d0: c310 cfbb 827a 773c 87cf 18bc 10e2 07bc
000001e0: 26c8 40bb 780d 57bb 4f46 1a3c 5a3e eb3b
000001f0: 02a4 e937 a37b d7bc 0076 b33b 28e1 77bc
00000200: 3bae a3bc 6f38 4b3a 5239 cbba 538d b2bc
00000210: 139d 3fbb 5571 c1bb f701 083d 1f4f 07bd
00000220: fba5 433c 48cd 723a 21e4 98bb 9404 c13c
00000230: 5b87 ac3c ff43 8c3c 2035 2abc 934a b4bb
00000240: 8b7c 243c b687 a03b 7d2d df3b aa60 f03c
00000250: 17fa 20bc d710 323c 9438 23ba dd74 8bbc
00000260: e10d b43c 8bc3 a6bc 0de1 1f3c 465a 153c
00000270: dddb d1bc b910 453c cb41 403c 1b0b 16bc
00000280: f7e2 e3bb 6fe5 4d3c 3349 19bc 0ff4 c8ba
00000290: 2026 1b3c d7a0 213d 5f14 95ba a5f2 933b
000002a0: 3a4e d23c b237 dbb8 26e8 073c bcfe 083c
000002b0: 9f60 80bc 7272 8cbc d750 eebc 2965 c0bc
000002c0: 832a 973c 9a0d f43c 33e4 f73c 0aa8 d93b
000002d0: d856 543b f117 133b 9a28 aa3c 160d 31bc
000002e0: 074d 6d3c 0062 b43a 9ac5 d53b 00f2 533c
000002f0: 4ce7 c73c 8522 e83c 037d a53c 8d72 66bb
00000300: 93f9 a93c 3b00 cb3c 232c ec3c f96e 19bd
00000310: 2081 cd3b 58d8 a9bb 8673 13bd 570d 823b
00000320: f5ca 55bc 1b5b 8dbc d99a 8d3b eb14 263c
00000330: 4e40 953c 1f73 b3bc 1793 f63c 3939 a9bb
00000340: 19cd 38bc c002 9fbb 5202 2dbc a744 cbbc
00000350: 2a71 943b ff64 40bc e08d 32bc 4c71 43ba
00000360: 0dbd 663b 5584 ad3c 0f78 9939 2ec7 1cbc
00000370: c711 f0bc b34a 083c 50c3 bfb9 f65d c2bc
00000380: ab0b a93b b25f f53c b88f f03a 488d ecbb
00000390: 2cea a9bc 1594 2a3d 4b9e c1bc 4b23 f03b
000003a0: 4b1e fdba e007 503c 4f6f 4e3c 4833 a7bb
000003b0: 6c77 45bc 2169 31bc 1859 37bc da87 943b
000003c0: cf3f 3fbd 45a3 c73c 1d52 fd39 2298 aebb
000003d0: 332f b7bc 93bb 89bc a730 a03c ab68 85bb
000003e0: e700 e1bc d2d5 3d3d 93b6 7d3c 1748 8e3c
000003f0: 6633 8ebc 40d1 b03c 0aac e8bc 5472 3cbc
-0.017652145 0.03532345 0.034234386 0.01721764 0.011678681 0.0058992235 0.021747068 0.0094511
-0.016597718 -0.020175476 -0.0043539465 -0.0008906896 -0.0065926346 -0.014354894 0.0032917752 -0.009035015
0.022149963 -0.007047528 0.01098108 -0.031517733 0.0024244406 0.015657194 0.012438696 -0.021139488
0.0019176869 0.00532872 0.004178644 -0.010012082 -0.0049344697 -0.010620473 0.0077541503 0.010313972
0.037728623 0.049016833 -0.04435624 0.009952271 -0.041857567 0.015685013 0.012629873 -0.030584682
-0.027272312 0.02550519 0.00031645832 0.011473875 -0.011043939 -0.0019013919 -0.007633266 -0.0067906985
0.019594463 -0.02787068 -0.0019384966 -0.032017853 -0.02690428 0.013846188 -0.043836165 -0.008519023
0.0017321088 -0.00022512946 0.006475195 -0.021604858 0.0023547923 -0.012332401 -0.011242001 0.014642442
-0.00722375 0.026457835 0.0006328008 -0.0066582435 -0.015309152 -0.01836704 -0.0029031874 -0.0024232818
0.030371172 0.003247732 -0.028791694 -0.019211689 -0.0044707805 -0.012996316 -0.023757266 0.014318732
-0.016813774 -0.0020371552 0.02869468 -0.023198025 -0.0045526954 0.022036934 0.00776902 0.01591055
-0.030569931 -0.010864567 0.013179679 -0.013405032 -0.016233858 0.020991074 0.0046332213 0.024892086
-0.013098461 -0.0014027901 0.01864228 -0.012682128 -0.019261017 0.008273776 0.009847307 0.01585198
0.030530313 -0.003158424 0.012935606 0.01718018 0.0060868235 -0.023360318 -0.0027305884 0.03567444
0.028685128 -0.024692468 0.0026356992 0.008980893 -0.006319137 0.015104892 -0.009326822 -0.008293644
-0.0029416173 -0.0032814424 0.009416177 0.0071790637 2.7852137e-05 -0.026304072 0.005476713 -0.015129365
-0.01998054 0.0007752245 -0.0015504754 -0.021795904 -0.002923791 -0.005903403 0.033205 -0.03303444
0.011941428 0.00092621567 -0.004665867 0.023561753 0.021060636 0.017122267 -0.010388643 -0.005502054
0.010039459 0.0048989905 0.0068108425 0.029342968 -0.009825251 0.010868273 -0.00062263873 -0.017023498
0.021979274 -0.020356914 0.009758246 0.009115761 -0.025617534 0.012027913 0.011734436 -0.009157921
-0.0069545466 0.012566908 -0.009355831 -0.0015331524 0.009469539 0.03946003 -0.0011373869 0.0045150095
0.025672067 -0.00010453108 0.008295095 0.008361515 -0.015671073 -0.017144416 -0.029091282 -0.023485737
0.018452888 0.029791642 0.030260181 0.0066423463 0.0032400396 0.002244469 0.020771313 -0.010806343
0.014483697 0.0013762116 0.0065238 0.012936115 0.024402283 0.028336773 0.020201212 -0.0035163492
0.02074889 0.024780383 0.02882964 -0.037459347 0.0062714964 -0.005183261 -0.035998844 0.0039688754
-0.013048877 -0.017255357 0.004321438 0.010136823 0.01821914 -0.02190548 0.030099435 -0.005164292
-0.011279368 -0.0048526227 -0.010559635 -0.02481301 0.004530092 -0.011742829 -0.010898083 -0.0007455542
0.0035207898 0.021181265 0.00029271885 -0.0095689725 -0.029305352 0.008318591 -0.00036575878 -0.023726445
0.0051588616 0.029952858 0.0018353378 -0.0072189905 -0.020741545 0.04164513 -0.02363505 0.007328426
-0.0019311396 0.01269719 0.01259978 -0.0051025487 -0.012052398 -0.010828287 -0.011190675 0.0045327963
-0.046691712 0.024369845 0.000483171 -0.0053281942 -0.022361374 -0.016813075 0.01955445 -0.0040713153
-0.02746625 0.046346493 0.015485424 0.01736836 -0.017358493 0.021584153 -0.028402347 -0.011501867

action_model._continuous_distribution.mu.bias f4 [3]
00000000: 0000 0000 0000 0000 0000 0000
0.0 0.0 0.0

network_body._body_endoder.seq_layers.0.weight f4 [128, 6]
00000000: a0bb df3e 0815 4fbe 520d d13d 01b8 0b3d
00000010: 1f02 88bf f649 73be 1837 e73d 4150 1ebf
00000020: 852b 34bf a9d4 6b3e 9695 81be 7aca 96be
00000030: 2ee4 f8bc 0546 b53e cee8 22be 74a2 f63d
00000040: 7c76 11bf 7f24 de3d d623 063f d40e 39bf
00000050: 4c96 003f 3fd2 8abf d278 733e e702 153f
00000060: 4bb8 ffbe a29c aebd 2dc5 ec3e d5a7 f73d
00000070: 349e 27bf f2ab f1be 5d55 3bbd 672e 43be
00000080: 0cb2 1b3f cc46 d53e eb17 de3d 3201 84be
00000090: d2c2 30bf 5d9c d2be 1962 c03e d715 90be
000000a0: 978a 443e 92c5 e5be 277e 9ebe 6efd 1dbf
000000b0: 4ba2 02bf 407a b6bc 6600 fa3e 7d52 653e
000000c0: f9fd 8e3e 135d ff3d df59 e2bd 1dae 1abf
000000d0: f94d 683d 2075 0f3f d88d 033f 5800 b13d
000000e0: 8a5b 0bbe ecd2 9abe dc42 ea3e 24f8 e83e
000000f0: 9dee 833e 8ea6 6abd ebf5 f03d 9fb5 003f
00000100: bc00 953e 06ef 043e e402 1dbe 6cb5 f13c
00000110: cfa1 34bf d282 a8be 8496 8b3f d4d3 3b3e
00000120: 6fa9 d5bd 1de6 02bf 2e7a c03e ac60 2e3f
00000130: 2618 13be 5843 8f3e 75de 77be 685d 713e
00000140: 4b90 a2be e987 0ebd 9d87 1fbd c173 b1bc
00000150: 6c9d 7abf 0f42 c23e f881 863d fc95 3fbe
00000160: 3241 003f 0006 91be c6ac 6abe bbc1 62bc
00000170: 704b 5dbd 9f27 fcbd dbac 8d3d 57cb 293f
00000180: aa8d 02bf 2a9f 4abd af3e 1d3f e0c0 f73d
00000190: 6db6 783f 7e94 91bf 00a3 f83e 8b1c 2abf
000001a0: 75ca 103f 5421 c3be ee04 dcbd 8dc0 fa3d
000001b0: fe34 a3be 62f3 d03e e0c4 943d 5503 7ebe
000001c0: 1d65 17be 487e 2cbc 0d8f 2abe cd23 7cbe
000001d0: 87f3 a73e 4eaa 973e 45c7 05bd 1402 c53d
000001e0: 8d8a 403d 47ba 63be 355e 1dbe aaf4 343e
000001f0: afa8 823f 87cd ef3c 1c48 15bd 0b56 f43d
00000200: 998f 9c3d 2b58 023e 890f 8fbd b1ad 30bf
00000210: 0f4b f2bd f1ae 80be 66d0 64bf a7aa e53d
00000220: 1121 9e3e 6229 e5be e448 abbe 708f 583d
00000230: 7256 babe b8ab 053e b932 c2bd cc4f 033e
00000240: e7fe 19be b359 2c3f bc36 a3be e8f6 9d3e
00000250: 5ddd 45bd e040 05be 526e 30bf 539d f53e
00000260: 7440 e1be 1198 4f3e b933 dc3e 4875 013f
00000270: 01a7 b6bb ed33 c93e a3af b53d 08cb 433d
00000280: 9fa2 7abe 4e74 b23d 437e 31be 1d31 bdbb
00000290: 9a68 373c 93a9 2dbe 8f6f e93e b706 f53e
000002a0: 41ae dabd 1a5f 21bf 6f57 8ebf ef5f c8be
000002b0: 9671 8fbd b462 873e 262b 92be 538f e9be
000002c0: cc45 9d3e 090f 683e fe17 a3be 5448 34bf
000002d0: 1ceb be3c 671a 8b3e c040 febd c385 bebe
000002e0: d72c f33d 6a30 4dbe 0ea1 abbd 2a68 1b3f
000002f0: c8a0 bb3d 7ee6 99be 267b 883e 4f60 13bf
00000300: 2c13 2d3f d00e a1bc bf0e 5e3e 0f74 86be
00000310: ecce 083e f402 09be 3346 2dbf 5370 603e
00000320: dd33 f8bd 6850 59bf abd2 503e d9da eb3e
00000330: 16c9 e2be eaea 8bbc e645 34bf a263 423e
00000340: d325 b03e 918b 73bf abcd 16be dbf7 f93d
00000350: c1fe 05be 43c9 2bbe 5a97 1dbe faad 0cbe
00000360: 554f d33e c04a 1cbe 17f8 b7bd 5904 0ebe
00000370: ec2e 0d3e 6654 8d3d 328a 683c c143 92be
00000380: b6ec a53e 8cfe aabd 1ba3 613f e6a8 23bf
00000390: bcd8 013e 4b30 a43d 31fb 0e3e 89b8 143d
000003a0: 66a4 d13e a18a 30be f59a 9cbe 51f3 f0bd
000003b0: 4634 8d3d ee23 0cbe 97b6 86be 127b ec3e
000003c0: 96b7 8c3d 9ddd 4ebe e12b 82bd 33f1 c63e
000003d0: 835c e7bd 275a 8e3e 263f 8bbe 662d 4d3e
000003e0: 552e 253f 7e71 5bbf 929a 65be 06ec 413e
000003f0: a911 acbd 11c9 39bf 5a38 3c3f c0e5 b3be
0.43697834 -0.20222867 0.10207619 0.034111027 -1.0625647 -0.23758683 0.11289805 -0.6184121
-0.70378906 0.23030342 -0.25309438 -0.29451352 -0.030382242 0.35404983 -0.1590912 0.12042704
-0.5682142 0.10846805 0.5239843 -0.7228825 0.50229335 -1.0845412 0.23776558 0.58207554
-0.49945292 -0.08525969 0.46244183 0.12092558 -0.65475774 -0.47201496 -0.045735706 -0.1906067
0.6081855 0.41655576 0.10844406 -0.25782162 -0.6904727 -0.4113492 0.37574843 -0.28141662
0.19193493 -0.44877297 -0.30955622 -0.6171483 -0.5102889 -0.02227509 0.4882843 0.22394748
0.2792814 0.124689244 -0.11052298 -0.60421926 0.056714986 0.56038094 0.5138831 0.08642644
-0.13609138 -0.30239046 0.45754135 0.45501816 0.25767985 -0.057287745 0.11765655 0.5027713
0.29102123 0.12981805 -0.15333134 0.029505454 -0.705594 -0.32912308 1.0905309 0.18342525
-0.104327075 -0.51132375 0.37593216 0.6811626 -0.1436468 0.27981067 -0.24205954 0.23570788
-0.31750712 -0.034797583 -0.03894769 -0.021661641 -0.97896457 0.37941024 0.06567758 -0.18709558
0.5009948 -0.2832489 -0.2291747 -0.013840134 -0.05402702 -0.123122446 0.06917735 0.66325897
-0.5099741 -0.049468197 0.6142377 0.12097335 0.9715336 -1.1373441 0.4856186 -0.66449803
0.56558925 -0.38111365 -0.10743128 0.122437574 -0.31876367 0.40810686 0.072641134 -0.24805959
-0.14784665 -0.010528155 -0.16656132 -0.24623032 0.32802984 0.2962212 -0.03266074 0.09619537
0.047007132 -0.22239028 -0.15367968 0.17671457 1.0207728 0.029272808 -0.036445722 0.11930474
0.076445766 0.12728946 -0.06985385 -0.6901503 -0.118307225 -0.2513347 -0.8938049 0.1121419
0.30884603 -0.44758135 -0.3345405 0.052871168 -0.36394078 0.13053787 -0.09482331 0.12823409
-0.15038644 0.6732437 -0.31877697 0.30852437 -0.04830681 -0.13013029 -0.68918335 0.4797159
-0.43994486 0.20272852 0.4300821 0.5056958 -0.0055741076 0.3929743 0.08871391 0.047801048
-0.24476098 0.087135896 -0.17333321 -0.005773677 0.011194373 -0.16959219 0.45592925 0.47856686
-0.106777675 -0.6303574 -1.1120433 -0.39135692 -0.07004087 0.26442492 -0.28548545 -0.4561716
0.30717313 0.22661985 -0.31854242 -0.70422864 0.023305468 0.2716858 -0.12414694 -0.37211427
0.11873787 -0.20038 -0.08380328 0.60705817 0.09161526 -0.30058664 0.26656455 -0.5756883
0.6760738 -0.019660383 0.21685313 -0.2626042 0.13360184 -0.13380033 -0.6768524 0.21917848
-0.12119267 -0.84888315 0.20392863 0.46065405 -0.4429404 -0.01707979 -0.70419157 0.1898332
0.34403858 -0.95134836 -0.14726894 0.12205478 -0.13085462 -0.16775994 -0.15389767 -0.13738242
0.41271463 -0.1526289 -0.08982866 -0.13868846 0.1378743 0.06900863 0.014193105 -0.28567317
0.3240716 -0.08349332 0.88139504 -0.63929594 0.12680334 0.08017024 0.1396301 0.0363088
0.4094574 -0.17240383 -0.30586973 -0.11765159 0.06894736 -0.13685581 -0.2631118 0.46187645
0.06870954 -0.20201726 -0.063560255 0.38855895 -0.11296942 0.27803156 -0.27196616 0.2003685
0.6452382 -0.8572005 -0.22422245 0.18937692 -0.08401806 -0.7257243 0.73523486 -0.35136223

network_body._body_endoder.seq_layers.0.bias f4 [128]
00000000: 0000 0000 0000 0000 0000 0000 0000 0000
00000010: 0000 0000 0000 0000 0000 0000 0000 0000
00000020: 0000 0000 0000 0000 0000 0000 0000 0000
00000030: 0000 0000 0000 0000 0000 0000 0000 0000
00000040: 0000 0000 0000 0000 0000 0000 0000 0000
00000050: 0000 0000 0000 0000 0000 0000 0000 0000
00000060: 0000 0000 0000 0000 0000 0000 0000 0000
00000070: 0000 0000 0000 0000 0000 0000 0000 0000
00000080: 0000 0000 0000 0000 0000 0000 0000 0000
00000090: 0000 0000 0000 0000 0000 0000 0000 0000
000000a0: 0000 0000 0000 0000 0000 0000 0000 0000
000000b0: 0000 0000 0000 0000 0000 0000 0000 0000
000000c0: 0000 0000 0000 0000 0000 0000 0000 0000
000000d0: 0000 0000 0000 0000 0000 0000 0000 0000
000000e0: 0000 0000 0000 0000 0000 0000 0000 0000
000000f0: 0000 0000 0000 0000 0000 0000 0000 0000
00000100: 0000 0000 0000 0000 0000 0000 0000 0000
00000110: 0000 0000 0000 0000 0000 0000 0000 0000
00000120: 0000 0000 0000 0000 0000 0000 0000 0000
00000130: 0000 0000 0000 0000 0000 0000 0000 0000
00000140: 0000 0000 0000 0000 0000 0000 0000 0000
00000150: 0000 0000 0000 0000 0000 0000 0000 0000
00000160: 0000 0000 0000 0000 0000 0000 0000 0000
00000170: 0000 0000 0000 0000 0000 0000 0000 0000
00000180: 0000 0000 0000 0000 0000 0000 0000 0000
00000190: 0000 0000 0000 0000 0000 0000 0000 0000
000001a0: 0000 0000 0000 0000 0000 0000 0000 0000
000001b0: 0000 0000 0000 0000 0000 0000 0000 0000
000001c0: 0000 0000 0000 0000 0000 0000 0000 0000
000001d0: 0000 0000 0000 0000 0000 0000 0000 0000
000001e0: 0000 0000 0000 0000 0000 0000 0000 0000
000001f0: 0000 0000 0000 0000 0000 0000 0000 0000
0.0 0.0 0.0 0.0 0.0 0.0 0.0 0.0
0.0 0.0 0.0 0.0 0.0 0.0 0.0 0.0
0.0 0.0 0.0 0.0 0.0 0.0 0.0 0.0
0.0 0.0 0.0 0.0 0.0 0.0 0.0 0.0
0.0 0.0 0.0 0.0 0.0 0.0 0.0 0.0
0.0 0.0 0.0 0.0 0.0 0.0 0.0 0.0
0.0 0.0 0.0 0.0 0.0 0.0 0.0 0.0
0.0 0.0 0.0 0.0 0.0 0.0 0.0 0.0
0.0 0.0 0.0 0.0 0.0 0.0 0.0 0.0
0.0 0.0 0.0 0.0 0.0 0.0 0.0 0.0
0.0 0.0 0.0 0.0 0.0 0.0 0.0 0.0
0.0 0.0 0.0 0.0 0.0 0.0 0.0 0.0
0.0 0.0 0.0 0.0 0.0 0.0 0.0 0.0
0.0 0.0 0.0 0.0 0.0 0.0 0.0 0.0
0.0 0.0 0.0 0.0 0.0 0.0 0.0 0.0
0.0 0.0 0.0 0.0 0.0 0.0 0.0 0.0

network_body._body_endoder.seq_layers.2.weight f4 [128, 128]
00000000: 04a9 313e 4f68 87bd 03f8 033d ef0c 073e
00000010: b36d 163d af23 8b3d 836a 543d dbca ca3d
00000020: 8783 80bd 5f34 afbd 6e01 b6bc 8f32 483e
00000030: 6f29 cabd d202 13be e167 4fbd e301 333d
00000040: cb74 c53d adb3 943d 913e e93d f1d5 e43d
00000050: 77d6 a4bc 2b19 053d 95b1 47ba da5b d0bd
00000060: 82ad f9bd d5cf 7ebd c2a7 96bc adbf 0c3e
00000070: c6bf ddbd 42f0 963b 3663 87bd 7f54 0e3a
00000080: 02da 32be 03a0 0cbe ccd5 1c3e 86e5 913d
00000090: ab7c 2fbe eb8e 873d 1d0f dbbb 9eb2 21bd
000000a0: 9292 4dbe e4ca 5c3d 22fe 8abd 9b03 8c3c
000000b0: 0377 8bbd b139 103d cf8a 01be 4535 043e
000000c0: e17a 1fbe a71a d1bb 5f6d b73d b0b2 4c3d
000000d0: f886 00be d869 b73d 0c71 473e 350a 733c
000000e0: c36b 3c3d 407a e8bd 43f6 87bd 5b74 293e
000000f0: a3f9 133c 380a 22be 09e5 dc3d 661c 5abd
00000100: da1e 303e 215f f2bd a7ad 39bc affa bd3d
00000110: 692d 143d 5cee d73d ec3d b23c 8c73 e73c
00000120: 3821 633d a75b de3d 1fcf 59be 9fd1 63bd
00000130: 7ecd 4b3d 9b22 8d3d 3c73 a33d 4c93 9fbd
00000140: e556 583d b72b 2dbd 148a dc3d a5f4 cd3d
00000150: 9cd0 64bd c2e3 0bbd ef0b a83d c7bc 1a3e
00000160: 8235 d9bc 613c 393e b920 0c3d 2845 043d
00000170: 91ff 47bd 91bb 323d b11b aabc 0bc0 33bc
00000180: 06e5 5bbd 0428 a23d ffec dc3d 178d 17bd
00000190: 5cc6 b5bd f78e 763d 90d9 33be 5bd9 54bd
000001a0: dde3 ddbd 7e76 57bd e8fc 033e 1ec2 273e
000001b0: d68f 9e3c 1163 99bc 7c34 74bd 52ba 17be
000001c0: a235 263b 53d8 b9bd 5ad1 8f3d 4101 5cbd
000001d0: 3b8b b9bd 25c7 70bd 15bd bb3d 719e 3abd
000001e0: 7af3 ce3d 168d 04bc 1e53 833e d805 4dbd
000001f0: f75a 9f3d 38ea 7bbb 9313 563d 0058 8f3c
00000200: 5b94 08be 24fc babc f4c7 4e3d 0541 5b3d
00000210: 3a4d ed3d b8f8 18be 0fc1 d13d 1930 ca3d
00000220: d33a 40bd 4847 b93c 3572 20be c057 d13d
00000230: cd42 0dbd daac bd3c d985 05be 0c86 373e
00000240: b649 babd 5bae 173d a786 2d3d 4361 d53d
00000250: 77b5 99bd 4448 e33c b0d6 9bbd 6827 0ebe
00000260: a940 b2bc d1c9 483b 1f57 9d3d 744b bebd
00000270: 989c ba3d 3500 a6bd 45f0 7e3d 8000 143e
00000280: c311 2abd ce29 a8bc 028e 4ebd 901d abbd
00000290: c6e1 153e 7c2e aa3c 06ba aa3d dc59 53bc
000002a0: ea2e d0bd 211e 26bd ed8d fa3b 8f9a 803d
000002b0: 717d 053d 4e50 94b9 65f2 733d 6c6f 1cbd
000002c0: dc48 6f3c 90f4 a93d ae67 29bd 769b a6bb
000002d0: 43ef 87bd b7ec 60bd ecfd dabd 34e8 0a3d
000002e0: e0dd 92bb aea0 d2bc 03a6 23bd efbb d4bd
000002f0: 6139 2abe 7a23 003e 9e93 23bc 386f b5bd
00000300: 4705 c43d 0b66 36bd 489d 3abc 3fbe e7bd
00000310: abca 083d a799 13be 0bf4 cfbd f1f8 a9bd
00000320: d5f9 14be 21d8 1c3c 66a5 e33d d820 07bd
00000330: 0da6 0abd 550b 60b9 09fd 72bc d13e 21be
00000340: b192 e0bd 3eb1 4cbc e8c6 a53d 5a42 0d3d
00000350: 5248 c43d 4722 27be 6e25 433e c372 82bd
00000360: 35ba 463e e06f 7abd c2bf 843e 3164 7c3d
00000370: 8b08 6bbd 4d48 353d 2bff bb3c 161d 193e
00000380: 174c c23d 55cb 13bc 7501 10be 1094 86bd
00000390: 1ff5 a53d 268c 94bd bf78 453d 8c8c 233d
000003a0: 908b 8b3d 3cc6 4c3e e97d 0f3d 40ed 90bd
000003b0: 7379 833d a4e2 acbd 44d6 52bd 5b5e 283d
000003c0: 4128 8cbd 6432 233e 63a7 90bc 633d 56bd
000003d0: 70e4 19bd c4f0 1b3e 9e68 d4bc b7ef a83d
000003e0: 5b73 fd3d 519c 613d 6085 3abe 5b9a 34be
000003f0: 38ab f3bc 224d 2dbc 2878 eaba b80c f83c
0.1734963 -0.06611692 0.032218944 0.13188528 0.03672571 0.067939155 0.05185939 0.09901973
-0.06275087 -0.08554911 -0.022217479 0.19550537 -0.09871184 -0.14356545 -0.050636176 0.04370297
0.09641417 0.07260833 0.11388887 0.111736186 -0.020121796 0.032494705 -0.00076177093 -0.10173769
-0.12191297 -0.062209923 -0.01839054 0.13744994 -0.108275935 0.0046062777 -0.0661072 0.0005429461
-0.17465976 -0.13732915 0.15315932 0.07123856 -0.17137401 0.06619056 -0.0066851513 -0.039476983
-0.20075443 0.05390443 -0.06786753 0.017091563 -0.06809809 0.03521127 -0.12650608 0.12910946
-0.15574218 -0.006381351 0.08956408 0.049975097 -0.12551486 0.08955735 0.19476718 0.0148339765
0.046001207 -0.11351442 -0.066387676 0.16548292 0.009031686 -0.1582421 0.107858725 -0.05324974
0.17199269 -0.11834551 -0.011332906 0.0927633 0.03617612 0.1054351 0.021758042 0.02825334
0.0554516 0.10857325 -0.21270417 -0.055619832 0.04975652 0.06891366 0.079809636 -0.077917665
0.052817244 -0.042278018 0.10768524 0.10056428 -0.055863008 -0.034152754 0.08205401 0.15111075
-0.026514772 0.18089439 0.034210894 0.032292515 -0.04882771 0.04363591 -0.020765157 -0.01097108
-0.05368521 0.079177886 0.10787391 -0.036999788 -0.08875725 0.060194936 -0.17563462 -0.0519651
-0.10834477 -0.052603237 0.12889445 0.16382644 0.019355696 -0.018723996 -0.059620366 -0.1481717
0.0025361557 -0.09074464 0.070223525 -0.053712133 -0.09059759 -0.05878367 0.09166924 -0.045561258
0.10105033 -0.008090278 0.2564935 -0.0500544 0.07781022 -0.0038439166 0.05226476 0.017498016
-0.13337843 -0.022825308 0.05048366 0.053528804 0.115869954 -0.14938629 0.10241901 0.09872455
-0.0469311 0.022616997 -0.15668567 0.10221815 -0.034487534 0.023153711 -0.1303934 0.17922229
-0.090960905 0.037031513 0.042364743 0.10418942 -0.07505315 0.02774442 -0.07609308 -0.1388222
-0.021759348 0.003063787 0.07682633 -0.09291735 0.09111899 -0.08105508 0.062240858 0.14453316
-0.041520845 -0.020527747 -0.050428398 -0.08355248 0.14636907 0.020774119 0.083362624 -0.012899842
-0.10165198 -0.040556077 0.0076463134 0.0627948 0.032590333 -0.0002828859 0.059557337 -0.038192198
0.014604773 0.082986 -0.041358642 -0.0050844504 -0.066374324 -0.05491325 -0.10692963 0.033912852
-0.004482016 -0.025711384 -0.039953243 -0.10387408 -0.16623451 0.12513533 -0.009983925 -0.08859104
0.09571319 -0.04453091 -0.011390038 -0.113155834 0.033396404 -0.14414082 -0.101539694 -0.08299435
-0.14548428 0.0095730135 0.111155316 -0.032990307 -0.033849765 -0.00021366526 -0.014830836 -0.15746619
-0.10965479 -0.01249343 0.08094579 0.034487106 0.095841065 -0.1632167 0.19057247 -0.06369545
0.1940697 -0.06114185 0.2592755 0.061618987 -0.057381194 0.044258405 0.022948822 0.14952502
0.09487169 -0.009020646 -0.14063056 -0.065712094 0.08103394 -0.07253294 0.048210856 0.039928958
0.06813729 0.19997495 0.035032187 -0.07076502 0.06419649 -0.08441666 -0.05147387 0.04110561
-0.06843615 0.15937191 -0.017657941 -0.052304637 -0.03757137 0.15228564 -0.025928792 0.08248847
0.12375518 0.055080716 -0.18214941 -0.17637007 -0.02974473 -0.010577472 -0.0017888593 0.030279502

network_body._body_endoder.seq_layers.2.bias f4 [128]
00000000: 0000 0000 0000 0000 0000 0000 0000 0000
00000010: 0000 0000 0000 0000 0000 0000 0000 0000
00000020: 0000 0000 0000 0000 0000 0000 0000 0000
00000030: 0000 0000 0000 0000 0000 0000 0000 0000
00000040: 0000 0000 0000 0000 0000 0000 0000 0000
00000050: 0000 0000 0000 0000 0000 0000 0000 0000
00000060: 0000 0000 0000 0000 0000 0000 0000 0000
00000070: 0000 0000 0000 0000 0000 0000 0000 0000
00000080: 0000 0000 0000 0000 0000 0000 0000 0000
00000090: 0000 0000 0000 0000 0000 0000 0000 0000
000000a0: 0000 0000 0000 0000 0000 0000 0000 0000
000000b0: 0000 0000 0000 0000 0000 0000 0000 0000
000000c0: 0000 0000 0000 0000 0000 0000 0000 0000
000000d0: 0000 0000 0000 0000 0000 0000 0000 0000
000000e0: 0000 0000 0000 0000 0000 0000 0000 0000
000000f0: 0000 0000 0000 0000 0000 0000 0000 0000
00000100: 0000 0000 0000 0000 0000 0000 0000 0000
00000110: 0000 0000 0000 0000 0000 0000 0000 0000
00000120: 0000 0000 0000 0000 0000 0000 0000 0000
00000130: 0000 0000 0000 0000 0000 0000 0000 0000
00000140: 0000 0000 0000 0000 0000 0000 0000 0000
00000150: 0000 0000 0000 0000 0000 0000 0000 0000
00000160: 0000 0000 0000 0000 0000 0000 0000 0000
00000170: 0000 0000 0000 0000 0000 0000 0000 0000
00000180: 0000 0000 0000 0000 0000 0000 0000 0000
00000190: 0000 0000 0000 0000 0000 0000 0000 0000
000001a0: 0000 0000 0000 0000 0000 0000 0000 0000
000001b0: 0000 0000 0000 0000 0000 0000 0000 0000
000001c0: 0000 0000 0000 0000 0000 0000 0000 0000
000001d0: 0000 0000 0000 0000 0000 0000 0000 0000
000001e0: 0000 0000 0000 0000 0000 0000 0000 0000
000001f0: 0000 0000 0000 0000 0000 0000 0000 0000
0.0 0.0 0.0 0.0 0.0 0.0 0.0 0.0
0.0 0.0 0.0 0.0 0.0 0.0 0.0 0.0
0.0 0.0 0.0 0.0 0.0 0.0 0.0 0.0
0.0 0.0 0.0 0.0 0.0 0.0 0.0 0.0
0.0 0.0 0.0 0.0 0.0 0.0 0.0 0.0
0.0 0.0 0.0 0.0 0.0 0.0 0.0 0.0
0.0 0.0 0.0 0.0 0.0 0.0 0.0 0.0
0.0 0.0 0.0 0.0 0.0 0.0 0.0 0.0
0.0 0.0 0.0 0.0 0.0 0.0 0.0 0.0
0.0 0.0 0.0 0.0 0.0 0.0 0.0 0.0
0.0 0.0 0.0 0.0 0.0 0.0 0.0 0.0
0.0 0.0 0.0 0.0 0.0 0.0 0.0 0.0
0.0 0.0 0.0 0.0 0.0 0.0 0.0 0.0
0.0 0.0 0.0 0.0 0.0 0.0 0.0 0.0
0.0 0.0 0.0 0.0 0.0 0.0 0.0 0.0
0.0 0.0 0.0 0.0 0.0 0.0 0.0 0.0

value_heads.value_heads.extrinsic.weight f4 [1, 128]
00000000: 92c7 113e 5895 88bd 40cd b8bb 0858 82bd
00000010: bcd4 323e acd1 1dbd 3dc2 dfbd 2e2a 94bd
00000020: 956b 2dbe 8030 edbd 34a8 463e e2f7 2abe
00000030: 74c7 32be 00b9 d13d bc5e 66bd f021 e03d
00000040: def7 3c3e 92dc 283e 9082 d53d 8466 bb3d
00000050: 3c56 0f3e 8562 17be 8858 013d 0e96 36be
00000060: 1faa edbd 60fd 853c cab5 21be 409a bf3d
00000070: 8755 27be d61e b9bd bc6b 3bbe 50dc a8bc
00000080: e0ff 9bbb b444 1c3e 240d b43d 648e 113e
00000090: 7812 543d 9c9a 323e 9830 cf3d 127c 463e
000000a0: 2a09 3cbe 6210 503e 3735 41be 3a1f cebd
000000b0: 5899 d93c 4ca5 c2bd 0073 3bbb 3c1c 5abd
000000c0: 317c 0cbe c8a6 9fbc 6c2a 863d b031 a63d
000000d0: 80a3 24bc 78d9 43be 4a67 173e 4037 0cbe
000000e0: bf05 20be 1c35 3c3e 506e 183d 6448 ab3d
000000f0: 3ca3 5c3e 1cf3 eb3d 80ed 9a3d 9486 bc3d
00000100: a0c5 b03d 699f 31be 3e7c 19be 161b 86bd
00000110: 4c40 bf3d f87c cd3c e4b2 47bd 7b9a eebd
00000120: 16e9 dfbd c05a 4cbc 08c4 0c3e 904a 07bc
00000130: 5cea 29be 329f b6bd 342b 14be f078 99bc
00000140: 00f0 6b3a d08f 71bc a0af e33d 7e37 0dbe
00000150: 10fb f0bd 3435 253e 77fc 42be 02c2 333e
00000160: 94d5 893d 5480 ccbd 7884 b8bd fc4f 2c3e
00000170: 4b62 52be 1cc2 d23d 103f f23c 407f 273c
00000180: fa31 1a3e 581b 533e 24a3 f33d 1ce3 583e
00000190: 2039 323d ed9d 29be 2a0d b1bd 024d e5bd
000001a0: ba88 90bd 6fa1 d1bd 001b ae3d d406 0b3d
000001b0: 7877 f03c 9ce6 283e 3826 333e 088c 3bbe
000001c0: b066 4ebe f03b a53d 0cda 06bd ec0d c83d
000001d0: d74e 00be 1611 583e 8021 603b 3452 113e
000001e0: 4454 153e 42c4 bfbd 9805 903c b8d2 ddbc
000001f0: c0a9 303d f509 51be c633 3e3e ac56 0cbd
0.14236286 -0.0666911 -0.005639702 -0.06364447 0.17463964 -0.038530037 -0.1092572 -0.07234608
-0.1693557 -0.11581516 0.19400102 -0.16696122 -0.17458898 0.10240364 -0.05624269 0.10943973
0.18453929 0.16490391 0.104252934 0.09150413 0.1399774 -0.14783676 0.03157857 -0.17830679
-0.11604714 0.01635617 -0.15792003 0.09355593 -0.1634122 -0.090390846 -0.18302816 -0.020612866
-0.0047607273 0.15260583 0.08791569 0.14214474 0.051775426 0.17441791 0.101166904 0.19383267
-0.18362871 0.2031875 -0.18867956 -0.1006455 0.026562378 -0.09504184 -0.002860248 -0.053249583
-0.1371925 -0.019488707 0.0655106 0.08114946 -0.010048747 -0.19125926 0.14785495 -0.13692951
-0.15627192 0.18379635 0.037214577 0.08363417 0.21546644 0.11520979 0.07564831 0.09205356
0.08631444 -0.17345966 -0.14988801 -0.06548135 0.093384355 0.025084004 -0.048754588 -0.116505586
-0.109331295 -0.012472808 0.13746655 -0.008257523 -0.16593307 -0.08917083 -0.14469606 -0.018734425
0.00090003014 -0.01474376 0.11117482 -0.137907 -0.11766636 0.16133577 -0.1904162 0.17554477
0.0673019 -0.09985414 -0.090096414 0.16827387 -0.20545308 0.1029093 0.029571086 0.01022321
0.15058127 0.206159 0.11896351 0.21180385 0.04351151 -0.1656415 -0.08645089 -0.11196329
-0.070573285 -0.10235869 0.085012436 0.03394206 0.029353842 0.1649422 0.17495048 -0.18315136
-0.2015636 0.08068073 -0.03292279 0.097682804 -0.12530075 0.21100268 0.0034199655 0.14191514
0.14582926 -0.09363605 0.017580792 -0.027078018 0.043130636 -0.20413955 0.18574437 -0.034262344
