results/Test7/MoveToTarget/MoveToTarget-24217.pt (torch, 443418 bytes, 36 tensors)

network_body._body_endoder.seq_layers.0.weight f4 [128, 6]
00000000: c8b8 dd3e 0e95 d8bd 5b02 92be 9a7e a1be
00000010: 0034 41be 6656 00bd 1905 cbbe a65b 633d
00000020: a4e8 56bf 3c1e 62bf 457d 1ebf cc2d 22bf
00000030: 214e afbd 074b a63e 7d53 f03d 0a3b cbbe
00000040: 1e65 863d b290 2d3f 0dbf aebe 9157 8b3e
00000050: 38ef 833e 35e8 5fbe 6b61 863e 738c 613e
00000060: 3fff dabd c650 193e 996e cbbd 940a ac3e
00000070: 0a00 b9be e8ee a93e e87a 8dbc fc53 a7bd
00000080: 2e7e 3e3f 5209 0dbf 79be 9cbe 28d4 4f3e
00000090: 3f97 a33e 9455 933d 8d02 01bf cba7 5f3d
000000a0: 033e 22be 808f 613d ad97 68be 37a8 ee3e
000000b0: b4b2 b0be 2ee2 ed3d 6d8c 973c 07ae 033f
000000c0: 1947 673f 2b8c 223e 5ec3 9abe e7f6 9abe
000000d0: 745f eebd b51d 013f 82ea 6fbe 24c1 1fbe
000000e0: b9e7 aebc 70af fabd 1801 db3d 6a59 1a3f
000000f0: 568a 3cbf f248 8a3d 9331 8fbd d5bc f0be
00000100: 6c23 b9be 17a8 bc3e cd91 cdbe 431d 203f
00000110: 9b36 08be deb2 103f 4838 d9be 683d d93e
00000120: ee00 53bc 6362 c2be 3198 b1bf c164 d2be
00000130: 8fcb 24bf 5a2a 55be 83a2 833e 37dd 0dbf
00000140: 1276 133e 0708 e83d b5fa 2ebf 63a6 f7be
00000150: 205f 5cbf 976e 403e 981c aa3e bca5 b43d
00000160: 0625 32be 5d3b cd3d e8af 39bf c48e aa3e
00000170: e5a0 8e3d de82 fabe bf32 903e 95d3 043f
00000180: 1d87 4c3f 9fef b1be 7a4a fc3d 8b52 053e
00000190: a451 20be 99d9 2ebf bd71 e43e d565 833e
000001a0: 741f a83e 1fce 053f d83b 2cbe c57d a23d
000001b0: 730b dabe 9b29 5bbf 1ade 9b3d 6d61 1bbf
000001c0: c85a e53e 7792 6f3e d46e f33e 54ff 55be
000001d0: 256b f13e 4da5 35bf d75c 3a3f aa5c 333f
000001e0: ca61 d4be 014c 953c 67e4 c53e 9868 d1be
000001f0: c725 003f 3e99 9c3e c9cc 58bf 2fff 86bd
00000200: 3dd3 dabe c999 1a3f c6ad 233f 5ec0 133e
00000210: b484 68be 18e7 87be 2e21 1abe 9fb9 0c3f
00000220: b00a fe3d 8ade 0b3e 4b3c 70bd 516f f53e
00000230: 8ece 37bf 46bf 1fbf d406 963e 384c 46be
00000240: dba4 12bf 9e29 eabe 0e67 06be 7370 97be
00000250: 3da3 12bd ea94 053f 30d8 1abe ed70 d53e
00000260: e072 8d3e 58f0 afbc 267b 43bf a193 4a3e
00000270: 7456 6dbe 498d a9bd c573 933f 71e3 70be
00000280: effd 643f 1a45 0f3f f938 2abe ce3f 333d
00000290: 4bb5 cdbd 17e7 8e3f 2b95 c83e 768c 47bc
000002a0: 61a7 1e3e 8ad1 85be c1a7 a8be 0693 8ebe
000002b0: 3c3c 453e 5a3c bdbe 7f0a 3e3e 311d b9bd
000002c0: 050e 013f 9e69 753e 61ed 2cbe 2aeb 0dbf
000002d0: 22a9 293f 7656 b03e 36d6 973e 66f9 463e
000002e0: 73d5 c03e 2412 453e d0c7 3b3f 082c efbe
000002f0: 037e fe3e fb42 12be 039b b13d b50e 463e
00000300: 68a3 013f 41dc 1cbf a330 1b3d c103 e9be
00000310: bca3 c83e 73e8 3d3e 176a 59be 0f6a 593f
00000320: fa74 0e3e 6327 9dbd 88b6 a13e 4dd9 e9be
00000330: 742b 9bbe 09cd fbbe cb84 29bf 3c0f 63bf
00000340: 5d5b d33e ac52 1a3c aa7d 88be 47d1 2d3e
00000350: f8fe 56be 18bb 983e b764 32bf d11f ee3d
00000360: c49e 6bbe 5052 4dbd baa2 8bbf ef70 07bf
00000370: 8295 48bf 2993 92bd 220c 80be a644 5fbe
00000380: 879f b4be 9c6e 923e 264c 793e e946 b13e
00000390: 19a2 a53e 99eb 023f 8817 0e3f 8b94 df3d
000003a0: d6b0 633d 4c9d 093f 3f3c 473e 1f31 debd
000003b0: f9aa 113f 6a5b 19be 556d 273e fa7c 883e
000003c0: b99e 55be e7ff 24bf 6e80 133d 90bf afbd
000003d0: 188c 803e 6c2d 8abd 0026 34bc 1408 30bf
000003e0: 7d46 d63e 8182 a9be 871e 8c3e f8eb 6f3f
000003f0: ef00 52bf 2159 a3bc 7283 c5be 55d8 f3be
0.4330504 -0.10575305 -0.28517422 -0.31541902 -0.18867493 -0.031332396 -0.39652327 0.055507325
-0.8394873 -0.88327384 -0.61909896 -0.6335113 -0.08559824 0.32479116 0.11734674 -0.3969348
0.06562255 0.6779891 -0.34130135 0.27215245 0.25768447 -0.21865924 0.262462 0.22026233
-0.106932156 0.14972219 -0.09933204 0.3360182 -0.36132842 0.33190084 -0.01727052 -0.081703156
0.74411285 -0.55092347 -0.3061407 0.20295775 0.3195133 0.07194057 -0.5039452 0.05460338
-0.15843968 0.055068493 -0.2271411 0.46612713 -0.3451134 0.11615406 0.018499577 0.5143742
0.9034286 0.15873782 -0.30227178 -0.30266497 -0.116393 0.50435954 -0.23429301 -0.15601021
-0.021350728 -0.12240493 0.10693568 0.60292685 -0.73648584 0.067521945 -0.069918774 -0.47019067
-0.36159837 0.36846992 -0.401503 0.6254465 -0.1330208 0.5652293 -0.42425752 0.42429662
-0.01287864 -0.37965688 -1.387457 -0.41092494 -0.64373106 -0.20816937 0.25709924 -0.5541567
0.14400509 0.11329656 -0.683513 -0.4836913 -0.8608265 0.18792187 0.3322494 0.08820674
-0.17396936 0.10021088 -0.72534037 0.33312047 0.06964282 -0.4892797 0.28163716 0.5188535
0.79893667 -0.3475313 0.12318893 0.13019769 -0.15656143 -0.6830078 0.44618025 0.2566363
0.32836497 0.5226764 -0.16819704 0.07934145 -0.4258686 -0.8561036 0.07610722 -0.60695535
0.44795823 0.23395716 0.47545493 -0.20898181 0.47152057 -0.70955354 0.7279791 0.7006327
-0.41480857 0.018224718 0.3865082 -0.4090011 0.50057644 0.30585665 -0.8468748 -0.06591641
-0.42739287 0.6039091 0.6393703 0.14428851 -0.22706872 -0.26543498 -0.1505172 0.54970735
0.12404382 0.1365911 -0.05865125 0.4793649 -0.7179955 -0.62401235 0.29302084 -0.19365013
-0.572828 -0.45734876 -0.1312525 -0.2957798 -0.035800207 0.5218035 -0.15121531 0.41687718
0.27626705 -0.02147691 -0.76359785 0.19782878 -0.2317751 -0.08278901 1.1519705 -0.23524262
0.8944997 0.55964816 -0.16623296 0.04376202 -0.100443445 1.1164273 0.39176306 -0.012179485
0.15493537 -0.26136428 -0.32940486 -0.27846545 0.19261259 -0.36960107 0.18558691 -0.09038771
0.5041202 0.23966071 -0.16887428 -0.55436957 0.662737 0.34440964 0.29655617 0.19431075
0.3766285 0.19245201 0.73351765 -0.4671328 0.49705514 -0.14283364 0.08672144 0.19341548
0.50639963 -0.6127358 0.03788818 -0.45510677 0.3918742 0.18545704 -0.21231876 0.8492746
0.1391181 -0.07673528 0.31584573 -0.456736 -0.3030659 -0.49179867 -0.6621825 -0.8869512
0.41280642 0.009419125 -0.26658374 0.16974364 -0.209957 0.2983024 -0.6968493 0.11627162
-0.23009783 -0.050127327 -1.0909035 -0.529067 -0.7835313 -0.07156975 -0.25009257 -0.21803531
-0.3527796 0.28600013 0.24345455 0.34624413 0.32350233 0.51140743 0.55504656 0.10917004
0.055588566 0.5375564 0.19456576 -0.10849213 0.5690151 -0.14976278 0.163503 0.2665785
-0.20861329 -0.64452976 0.036011152 -0.085814595 0.25106883 -0.06746945 -0.010995388 -0.68762326
0.41850653 -0.3310738 0.2736704 0.93719435 -0.82032675 -0.01993996 -0.38576847 -0.47625986

network_body._body_endoder.seq_layers.0.bias f4 [128]
00000000: f2ea 623b b843 0c3b 57a6 f0bb 2689 39bc
00000010: 5ca7 7939 bbb1 cdbb 95db f0bb 83b2 84bb
00000020: 6ace 203c 387e 373c a319 06bc 90a8 08bc
00000030: 6a06 ed3a fc3c 20bc 502a 22bb 346d d939
00000040: 7a77 9d3b 1daf 523c c8b0 0836 0d1a e53b
00000050: 3f13 23bc ff2c 423c 9609 413c e042 30bb
00000060: 5102 3c3b 9eb8 293c 152c 2abb 08a3 f13b
00000070: a80b 05bc 50b6 a83b 8010 963b c65e b8ba
00000080: f35e d8bb f8a7 243a 09f0 9dbb a97d 473b
00000090: 3613 483b 18c4 8bba 1131 d93b 3ecb aa3a
000000a0: c3ee 2d3c 253a 9bbb 00d4 a43b 2008 513b
000000b0: 609b 5c3b 28c3 edbb 13e2 f73b 7c60 01bc
000000c0: a368 133c 0a87 cdb9 d1d7 073c 7137 9eba
000000d0: 4c96 42bc a0c6 053c 99ce 183c 5eef 383c
000000e0: 740c e3bb 876b 5dbb aa6a 003c 2cda 0dbb
000000f0: e424 c93b 1d6e 29bc 44c3 34bb 0406 55bc
00000100: 102a 8f3b c7d1 bf3b 1363 04bc be0d 403c
00000110: 7111 033c b856 4e3b 000f 65bb 9784 853a
00000120: 6d21 7fbb f6e7 3a3c 00dd ed3b 338c df3b
00000130: 43f4 49b9 cbd5 4d3c 4335 2bbc eca7 1fbb
00000140: d14c 0bbc d9e3 18bb 5723 16bc a6bb 5f3a
00000150: 5bc0 0e3b c487 33bb fc77 3f3c 930e 22bc
00000160: ff35 023c 623b d0bb 2290 ff3b ee98 963a
00000170: 93bd edbb 1908 003c 5d3c 14bc 6936 853b
00000180: 564c 46ba 47b7 ab3b 5c99 3c3c 1c8b 1e3c
00000190: 6ebd 26bc ee9b 03bc ec10 a8bb a47f e33b
000001a0: 0684 4b3c 4981 4fbb 98e6 0c3c 69c2 9bbb
000001b0: 0902 5ebc 1cd0 2abc 5e35 193c c922 313c
000001c0: 26d4 aebb 5be4 163c a4b1 943b 87ab ccbb
000001d0: 65d7 aa3b baea 09bc f536 713b 7cd4 2c3c
000001e0: ed71 a7bb 1903 053b 61c2 1bbc 6c36 853b
000001f0: 73c8 f1bb 58e2 273c fc4f 10bc 1501 f73b
0.0034624902 0.0021402668 -0.007344048 -0.011324203 0.00023808837 -0.0062772906 -0.007350395 -0.0040496006
0.009814838 0.0111995265 -0.008184823 -0.00834097 0.0018083577 -0.009780165 -0.0024744458 0.00041470828
0.0048055025 0.012859133 2.036848e-06 0.006991631 -0.009953319 0.011851548 0.011782071 -0.002689533
0.0028687904 0.010358958 -0.0025966216 0.007374171 -0.008120455 0.0051486865 0.0045796037 -0.0014066331
-0.0066031157 0.0006281133 -0.004819874 0.003043989 0.0030529029 -0.0010663299 0.0066281636 0.0013030542
0.010616007 -0.004737156 0.005030155 0.0031895712 0.0033661947 -0.0072559305 0.007564792 -0.007896539
0.008997115 -0.0003920126 0.008291201 -0.0012070966 -0.011876654 0.008165032 0.0093266005 0.011287538
-0.0069289748 -0.0033786015 0.007837931 -0.0021644933 0.006138431 -0.010341194 -0.0027582208 -0.0130019225
0.004369028 0.005853865 -0.008080262 0.011722026 0.007999764 0.0031484794 -0.0034951568 0.001018661
-0.0038929835 0.011407843 0.0072590113 0.006822133 -0.00019259848 0.012563179 -0.01044971 -0.0024361564
-0.008502201 -0.0023329167 -0.009163699 0.00085347367 0.0021782133 -0.0027394155 0.011686321 -0.00989117
0.007947444 -0.0063547352 0.0077991644 0.0011489668 -0.007255265 0.007814431 -0.009047595 0.004065324
-0.00075644755 0.005240354 0.011511173 0.009676721 -0.0101769995 -0.008032782 -0.0051289704 0.006942706
0.012421614 -0.0031662753 0.0085999 -0.0047534 -0.01355029 -0.010425594 0.009351103 0.010811516
-0.0053353487 0.009209718 0.004537778 -0.0062460336 0.0052136653 -0.00841778 0.0036806439 0.010548707
-0.0051100166 0.0020296036 -0.009506793 0.0040653255 -0.0073786317 0.010246836 -0.008808132 0.007537971

network_body._body_endoder.seq_layers.2.weight f4 [128, 128]
00000000: 8828 cd3c 28b3 2d3e 6c29 343d be91 fc3c
00000010: 3f2a 223d 2606 133e 736b 763d 92c5 e6bd
00000020: dcf6 f9bd 03e9 fcbc 1382 17bc 07ab 563c
00000030: 8fdc 77bd 3ff4 1fbd 6db6 b83d 0537 303d
00000040: 3e6e ddbd e392 773d a03e a8bd 9123 efbc
00000050: 340a e2bd 2041 ef3d 2136 8c3e cc0c 83bd
00000060: 69d0 ddbd 4408 ce3d e77b d3bd b550 c23c
00000070: 6c51 45bd 56e8 d23c 8c8d 053d f3ba 5abd
00000080: 018a 793d ecb0 1a3e a981 d83b e124 2c3d
00000090: e7c8 133b 9fd0 733c 4184 b8bc 7739 9abd
000000a0: d090 10be d959 1abe cc6d 9abd 2180 3ebe
000000b0: bb53 2bbd 4050 083e faa5 41bd f105 82bd
000000c0: f279 703d 5105 b7bd 66f7 f4bd b0af 303e
000000d0: ba34 07be ffc4 44be e3b5 ac3c 7692 6ebc
000000e0: 532c 553e 8351 20bd e498 693c e836 e53d
000000f0: 1beb abbd ddbd 063d b9f4 8ebc 00f5 12bd
00000100: 1d1c cbbb 6232 043e 7552 69bc 8e7a 89bd
00000110: 25e3 f4bc 607d 18be 2363 d83d 1979 bdbd
00000120: 4bc1 de3d 17c6 a53d a4e6 d3bd 128a 2c3e
00000130: 245a 88bd 256c c43d 6d64 3cbe 5011 e33d
00000140: 7ab7 903d e7c2 833b 5308 5d3d 5fad c33d
00000150: 12c6 933d 24e0 bfbd 700c 803c 762d 1bbe
00000160: 7c1d 49bd b6db b13c 477e fcbd bb27 90bc
00000170: dc8a 34be 0390 8b3d fd00 5abd 298a 853d
00000180: f6b3 473d b9fa 0dbd 70c5 cd3c cdf3 fe3d
00000190: 3050 20be ac60 6bbd ae41 61bc 882e b7bd
000001a0: eba6 bd3b 8e2c a93d e8a3 cebd 1d49 09be
000001b0: 34ed d4bd d422 c33d 00d7 15be 7a68 febd
000001c0: f902 a73d cc3c aabd a6b3 223c e377 8a3d
000001d0: 84cb 313d 6529 e1bc aa10 e7bd 8b63 973d
000001e0: 5d87 263d 25f4 953b addb 503d 5cc3 86bb
000001f0: aecb a73d 6335 193e a25f 53bd 3562 643d
00000200: 53a1 3a3e c088 f03c ff5f 7db9 5360 423d
00000210: 9ac5 debc 9d8e 1b3d 4bce 2f3c 3e1e b43d
00000220: 1e32 c63c 2859 b23d 1d9b 743d 611e 69be
00000230: fc96 05be 49fa 053e 3b54 403e 71ff 21bd
00000240: f4db 2abc 0b28 ccbd b004 b0bd acd7 cbbd
00000250: 9bb5 cc3d ff49 c3bd 57b7 563d d70c 8d3d
00000260: c733 703c 4cae a2bd de8f 663d dbaa 543a
00000270: b070 053e 6edd 72bd cb4c 0cbd 6065 863d
00000280: 7a42 383d 5eeb 383d 5b0e 913d 98b9 5a3d
00000290: 6a63 9e3d f92a 13bd ff27 983d 7405 973d
000002a0: fce7 78bd 6026 593e 58a8 fdbc 1355 9f3d
000002b0: 41a6 c83c 0573 ccbd b49a 373d cc8d 63bd
000002c0: 2039 d0bc 0e98 f7bc db83 423d 8bd2 503d
000002d0: 8634 5b3c 7dfd d8bb 84d2 25be 319d d8bc
000002e0: 10ea 8fbd c686 e13b 495d 8f3d 3d99 7d3d
000002f0: 930f 8f3c e2b9 f23d e8a6 883d 6558 0cbd
00000300: 196f 47bb 30d8 21be 3abe 963c 3881 c7bd
00000310: 514c a03c a89f 93bd 981d b13c e52b cf3d
00000320: 103a 5abd 240d 7f3d b313 98bc 6041 663d
00000330: 0bc6 42ba 62ac 653e 65ef c03d 19e1 96bd
00000340: bc22 833d 92ea 15be c054 b5bd b079 0d3d
00000350: e421 cb3c 3c1e aabd 5d4d 293d 3c8f 2cbc
00000360: e9d1 efbc fd5c a23d 4e1f e0bd c67e 56bb
00000370: 2373 90bd 4d91 8bbd e114 24bd 76f4 c9bd
00000380: a68c cb3d 3171 0c3d ed32 acbc f6ad 133e
00000390: 9bb9 a03d 67b6 d1bc 72b7 653b 0b9a 99bd
000003a0: 1f2e 323d 692c aabc b6f1 173d 77e9 aabd
000003b0: 9613 4b3e 4719 7ebd ea41 32bd 572e 5a3d
000003c0: efd8 96bd 7a9a 103e 83d7 883d 63e4 fc3d
000003d0: 6ec7 993c 554d 313d 546c c9bd 1a57 77be
000003e0: d38a 893d 3c3c 763d 2712 03bd 1a74 a5bd
000003f0: d7cd 313d c1f6 93bc 7384 243e 412f 8f3d
0.02504374 0.16962874 0.043984815 0.030831214 0.03959107 0.14357814 0.060161065 -0.11268152
-0.12205288 -0.030872827 -0.009247321 0.0131022995 -0.060513075 -0.03905129 0.0901917 0.04302122
-0.10812043 0.060442816 -0.0821507 -0.029191764 -0.11037102 0.116823435 0.27385047 -0.06398925
-0.10830767 0.1006017 -0.10326367 0.023720125 -0.048173353 0.025745552 0.032605693 -0.053400945
0.060922626 0.15106553 0.0066072536 0.042027358 0.0022550167 0.014881282 -0.022524001 -0.07530492
-0.14117742 -0.15073337 -0.07540473 -0.18603565 -0.0418279 0.13311863 -0.04727743 -0.063487895
0.058710046 -0.08936561 -0.1196125 0.1725452 -0.13203707 -0.19215773 0.021082824 -0.014561286
0.2081769 -0.039140236 0.014257643 0.11192113 -0.08394452 0.03289591 -0.017450677 -0.03587818
-0.0061984197 0.12909845 -0.014240851 -0.067128286 -0.029893467 -0.14891577 0.10565784 -0.09251613
0.108767115 0.08094423 -0.103467256 0.16849545 -0.06657818 0.095909394 -0.18397684 0.110872865
0.070662454 0.004021037 0.053963017 0.09554552 0.07215513 -0.09368923 0.01563093 -0.1515406
-0.049100384 0.021711212 -0.12328773 -0.01759707 -0.17631096 0.068145774 -0.0532236 0.065204926
0.04875561 -0.034662936 0.02511856 0.12448845 -0.15655589 -0.05746524 -0.013748569 -0.08944422
0.0057877204 0.08260451 -0.100898564 -0.13406797 -0.103968054 0.09528127 -0.14632797 -0.12422271
0.08154864 -0.08312377 0.009930527 0.06761148 0.04340698 -0.027485559 -0.11282475 0.07392033
0.040656436 0.0045762234 0.05099075 -0.004112644 0.08193146 0.14961772 -0.051604874 0.05575772
0.18225603 0.029362082 -0.00024163722 0.047455143 -0.027193833 0.037977803 0.010730336 0.08794831
0.02419382 0.087084115 0.05971824 -0.22765495 -0.13045877 0.13083757 0.18782131 -0.03955025
-0.0104284175 -0.09968575 -0.08594644 -0.099532455 0.09995576 -0.09535598 0.05242094 0.06887215
0.014660782 -0.07943401 0.056289546 0.00081126177 0.13031268 -0.059293203 -0.034252923 0.065623045
0.044985272 0.04514634 0.07082816 0.053399652 0.077338055 -0.035929654 0.07429504 0.07374087
-0.060768113 0.21206045 -0.030964062 0.077798985 0.024493339 -0.09982876 0.04482527 -0.05555515
-0.025417864 -0.030223873 0.04748903 0.05098204 0.013379222 -0.006622015 -0.16193587 -0.026442142
-0.07027066 0.0068825213 0.070002146 0.061913718 0.017463481 0.118518606 0.0667246 -0.034263987
-0.003043121 -0.15805125 0.018401254 -0.097414434 0.01956764 -0.072081864 0.021620557 0.10115794
-0.05327803 0.06226839 -0.01856408 0.05621469 -0.00074300234 0.2242904 0.09420661 -0.07367153
0.064031094 -0.14640263 -0.088540554 0.03453988 0.024796434 -0.08306548 0.041333545 -0.010532197
-0.029274898 0.07927892 -0.10943471 -0.0032729371 -0.070532106 -0.06814823 -0.040058974 -0.0986108
0.09938936 0.034287635 -0.021020377 0.1442183 0.078479014 -0.025599672 0.003505197 -0.075000845
0.043501016 -0.02077313 0.037095748 -0.08345311 0.1983169 -0.062035825 -0.04351989 0.05326685
-0.073655955 0.14121428 0.066817306 0.12348249 0.018771853 0.04328664 -0.09835115 -0.2415432
0.06715932 0.060116038 -0.031999733 -0.08078785 0.043409195 -0.018061997 0.1606615 0.06991435

network_body._body_endoder.seq_layers.2.bias f4 [128]
00000000: 608a 1ebc 06c0 d6bb 0e34 2bbc eba8 e93b
00000010: 7492 87bb b98e 343c 8b39 3b3c f971 d8bb
00000020: ecbe 12bc 9f89 15bc 06a6 353c f4f2 1c3c
00000030: c621 2c3c 4f59 1e3c 98ed b53b 495a c43b
00000040: 2841 51bc 262d f0bb b252 353c 02a2 d7bb
00000050: 56e8 493c 31fa 203c 6e03 983b fb2d ff3b
00000060: 1564 febb 0836 5fba 2c7b e4bb 80c2 97bb
00000070: 79e8 7c3c 6cfd 423c 9c6c 903b ab5b b4bb
00000080: 2190 be3a b5ca 18b8 aee1 2f3c 3b0b fabb
00000090: 4483 f93b d7e5 e4bb 3527 23bb 9c0a 173c
000000a0: 45c4 02bc 338b 47bb 8531 393c 7a06 b6bb
000000b0: 0433 0bbc cc42 39bc 78e5 193c 67b4 1dbc
000000c0: 2c56 173c 495e 23bc 7b70 babb 7252 103c
000000d0: a154 f3bb 5969 413c ff76 1f3b 4b21 25bc
000000e0: 27ee 15bc f225 103c 65a0 48bc f18a 1dbc
000000f0: 27d4 3c3c 8c1f 893b 1d2b 7d3b 67c3 223c
00000100: 0bbd dfbb 70c1 12bc a1ea 37bb 3554 d53b
00000110: c3ca 103c 76fa dcbb 1061 e5bb 3632 9ebb
00000120: de33 c13b b8b8 1abc 7d27 343c 6271 fbba
00000130: 8075 303c f95f aa3b 9afa 47bc 1d28 b63b
00000140: 143e 3abb 8581 64bb 8121 f3b9 3a5e afbb
00000150: 60cb 7839 a476 38bc 8ea4 183c f940 26bc
00000160: c6b3 1bbc a98c 083c be3c 12bc a539 27bc
00000170: f324 dbbb 3a6d 12bc b7e1 333c 07cb fc3b
00000180: 5322 d1b9 8ac6 a2bb f87f 093c 6bcd 0d3c
00000190: fee6 d23b 3e4a 863b cb91 edbb 470b 6dbb
000001a0: 9a4b 38bc a5e8 5e3c 4f35 073c 82e9 86bb
000001b0: 97e8 363c 1a0a c13b 6fa9 4fba 2204 543c
000001c0: 49ec 4e3c 0822 5cbb 6704 093c b105 773b
000001d0: a203 153c 54ff 08bc 4e0e bd39 b568 113c
000001e0: cbdd b13a 50d5 5a3c dc1d 4d3c 23ee 6eba
000001f0: 6483 37bc c091 2bbc 3b86 21bc 8827 9bbb
-0.009676546 -0.0065536527 -0.0104494225 0.0071307323 -0.0041373316 0.011020356 0.0114272935 -0.0066053835
-0.008956652 -0.00912705 0.011086946 0.009579409 0.010506099 0.0096648475 0.005552005 0.005992208
-0.012771882 -0.007329601 0.011067079 -0.006580592 0.01232346 0.009825275 0.0046390807 0.0077874637
-0.0077633956 -0.0008514826 -0.006972691 -0.0046313405 0.015436285 0.011901241 0.0044074785 -0.0055040917
0.0014538803 -3.642841e-05 0.010734959 -0.0076307333 0.007614525 -0.006985407 -0.0024895195 0.009218838
-0.007981365 -0.003044796 0.01130331 -0.0055549713 -0.00849605 -0.0113074295 0.0093930885 -0.009625531
0.009236854 -0.00997121 -0.0056896782 0.008808719 -0.00742586 0.011804902 0.0024332402 -0.010078738
-0.009151018 0.008798109 -0.012245272 -0.009615646 0.01152519 0.004184669 0.0038630434 0.009934283
-0.0068279556 -0.008957252 -0.0028063434 0.0065102824 0.008837405 -0.0067437245 -0.007000096 -0.004827763
0.0058960756 -0.009443454 0.010995743 -0.0019183571 0.010770202 0.005199429 -0.012205744 0.005558981
-0.002841835 -0.0034867239 -0.00046373534 -0.005351809 0.00023726886 -0.011258755 0.009316577 -0.010147327
-0.009503311 0.008334317 -0.008925615 -0.010206615 -0.0066877543 -0.008937174 0.010979108 0.0077146324
-0.0003988916 -0.0049675154 0.0083923265 0.0086549325 0.006436228 0.004098206 -0.007250046 -0.0036170052
-0.011248494 0.0136052715 0.008252456 -0.004117192 0.011163852 0.005891097 -0.0007921671 0.012940438
0.012629577 -0.003358962 0.008362866 0.0037692601 0.009095104 -0.008361656 0.00036059547 0.008875062
0.0013570128 0.013356522 0.012519326 -0.00091144646 -0.01120076 -0.010471761 -0.009858663 -0.004734937

action_model._continuous_distribution.log_sigma f4 [1, 3]
00000000: dfc1 963b 3c1e c4bb 7b4f f8ba
0.004600748 -0.0059850495 -0.0018944585

action_model._continuous_distribution.mu.weight f4 [3, 128]
00000000: 9afb 17bc 316d 91bc 6f71 893a 54a6 d33b
00000010: 0ee8 22bc f5c4 0b3b d2a0 50bc 2ad9 fdbc
00000020: 3aa7 603b 20a9 aebc ee10 143d 941a 1b3d
00000030: 35fc 4d3c 6379 863b 74cd bf3b 33c3 dbbc
00000040: 4bb5 9ebc 0e25 30bc d8fe 813c 57b3 123c
00000050: 2aa7 b33c 6bea fa38 e670 d13c c816 563c
00000060: 2eb2 02bd af52 2abc 6d2d d6bc f664 893c
00000070: ec30 2cbb 43ea 563d af78 673c b8f9 213c
00000080: 14f2 2d3c bb9d 0bbd 088a 183c c62d f9b9
00000090: 805f 16bb 6bc3 eabb 63b0 e9bb 61a4 883c
000000a0: 04db 67bc e77f d3bc 3888 d03b 48f1 313b
000000b0: 9ddb 50bc 3edd d9bc 6fa2 8f3b bb8a b2bc
000000c0: e994 c53c 8f4e 4dbd 0fb3 fcbc f3bf 4c3c
000000d0: 1864 9dbc eab9 603c 9666 6e3c 6aa4 1cbb
000000e0: 101a 2abd c52c a6bb 90a8 6dbc 17ec b5bc
000000f0: e63d 963b e91a c2bb bf93 d2bb bcad e23b
00000100: 9b57 87bc f2c9 52bc 0dc5 a7bb f676 093d
00000110: 4b18 46bc 28f6 81bc ecfd fbbb ec36 523b
00000120: 9615 0bba 2c92 78bc 38c8 6f3c 774a 843c
00000130: e887 423c 7baa fc3b 93de e9bc dbac a83b
00000140: 6df9 45bd e368 8e3c 84a7 04bd efec 89bc
00000150: b3b9 df3c 064c c2bc 5772 4b3c 43d6 1ebd
00000160: ed23 afbb 72c7 023d 558b b1bc c1ef debc
00000170: fb1f b238 8075 31bd 76fb 153c 9d4f 9e3c
00000180: fdfc 94bc 0bc8 f23b 3b05 0f3d 8e81 573c
00000190: 2ca0 9a3c bb44 293c 49d3 6a3c 4b5c b7bb
000001a0: f665 98bc 33b2 c83c 1e34 32bb 2dd6 093c
000001b0: b23e 6e3c 6da7 25bc f04e f03b f0b3 973c
000001c0: 12fb c43c a329 bfbc cd59 b43c a7df 25bb
000001d0: 2c30 8fbb dab6 a3bc 467a 423c 5225 8f3c
000001e0: 40b6 e1bc 8af7 2b3d e0c7 3e3d 9837 fabc
000001f0: 353c 8fbc 7ead cabb c5ab 1dbd f8b9 05bd
00000200: 12dc 5e3b 6550 3abc 9e37 a6bc 1fbb 693a
00000210: e981 10bd 2f79 783c 3532 0c3d f8b7 54bc
00000220: cddb abbc 1e79 cdbc 9f48 7b3c 9793 b6bb
00000230: a224 923c 3862 c738 870d a1bc 4181 0f3d
00000240: 8376 1fbc 39d6 23bb 4ec1 b53c 59f8 21bd
00000250: 908a 4d3c 394f 923c e0d4 12bc aed7 bbba
00000260: e866 bdb8 4c12 2b3c f4ae 01bc 3400 eabc
00000270: 21d0 db3c e666 2c3a 8440 83bb dc87 89bc
00000280: aca7 83bc 7ed9 993c 70f9 3cbb 1555 d3bc
00000290: 8029 d6b6 b78e bebc 5188 15bd 2c27 043d
000002a0: b82e de3a 925a 00bc edb4 633c 7b9e 56bd
000002b0: c031 bdbc e8bb 21bd 9b29 843c 27d4 f3bb
000002c0: 6429 81bb 9a7e 17bd 0f90 4f3c 6017 d739
000002d0: 7437 d6bb 287c 803c 79d2 e7bb a348 3bbc
000002e0: 39ce d13b 40a2 2e3c 54de 92bb 1833 3dbc
000002f0: 4280 923c ada2 103d f845 8c3b 9d87 553c
00000300: 85f0 dbbc df26 3bbd 84d3 f4bb 02b6 ca3a
00000310: c15b ac3c e814 b2bc 4249 b33c 903a d8bc
00000320: 3ab7 ed3b 8a31 3539 f82b f53c 5085 9abc
00000330: d52d 2f3c 9499 94bb 09bc 3fbc 6b42 143c
00000340: 82ad 793b d20b cbbc 031d 8a3c c5c0 923c
00000350: 3af0 07bc d7e9 4bbc 0219 6e3c 4e57 1cbc
00000360: 11af 82bc 9f89 c6bb 0211 f3bc 0f5c c8bb
00000370: 17f8 78bc 476f e7bc c34e f33c 04b0 95bb
00000380: 59ab 8c3c 302b b0bc 3cb6 12bc 44fe 23ba
00000390: d319 6cbc b8fb 64bb 444a d1bc ce87 49bc
000003a0: c176 d5bc bed5 c53b ba88 3e3d 0d84 d8bc
000003b0: 6a78 853c 50dd ce3c 0ae5 01bc e08c 673c
000003c0: a9de 1a3c a7c9 c43b e019 dc3b 1671 a73b
000003d0: eaac c93b b9e0 f2bc 887a 453c 0e27 813c
000003e0: 0154 99bc 7bc9 763c 601c 753b 1e89 213b
000003f0: 89f2 c0bb 539d 03bc e48d 23bc 8a24 dfbc
-0.009276295 -0.017752262 0.0010486076 0.006459037 -0.009943021 0.0021327112 -0.012733655 -0.030987341
0.0034279362 -0.02132088 0.036148958 0.037867144 0.012572338 0.004103826 0.0058533493 -0.026826477
-0.019373557 -0.010751022 0.01586859 0.008953891 0.021930296 0.00011964593 0.02556653 0.013066955
-0.031908207 -0.01039569 -0.026144708 0.016771775 -0.0026274277 0.052469503 0.014127894 0.009886198
0.010616798 -0.03408597 0.009310253 -0.00047527085 -0.0022945106 -0.007164409 -0.0071316226 0.016679944
-0.0141513385 -0.025817825 0.006363895 0.0027151871 -0.012747672 -0.026594754 0.0043833773 -0.021794667
0.024118857 -0.050123747 -0.0308471 0.012496936 -0.019212767 0.0137162 0.014550826 -0.002390171
-0.04152876 -0.005071255 -0.01450552 -0.022207303 0.0045850156 -0.005923618 -0.006426304 0.0069176834
-0.016521266 -0.01286553 -0.005119926 0.033560716 -0.012090753 -0.015864447 -0.007690182 0.0032076193
-0.0005305646 -0.015171569 0.014635138 0.016148789 0.011873223 0.0077107525 -0.028548514 0.005147559
-0.048333574 0.017383998 -0.032386318 -0.016836612 0.027310228 -0.023717891 0.012417397 -0.038778555
-0.005344859 0.031928487 -0.021672884 -0.027213933 8.493658e-05 -0.043324947 0.009154191 0.019325072
-0.01818704 0.007409101 0.034917098 0.013153447 0.018875204 0.010331328 0.014332601 -0.005595719
-0.018603306 0.024499035 -0.0027191709 0.00841288 0.014541315 -0.010110718 0.007333629 0.018518418
0.0240455 -0.023335284 0.022015477 -0.002531031 -0.004369756 -0.019984651 0.011869973 0.01747385
-0.027552724 0.04198412 0.046577334 -0.030544087 -0.017484764 -0.0061852327 -0.03849389 -0.032648057
0.0034005684 -0.011371707 -0.020290192 0.0008916128 -0.035280142 0.015165611 0.03422757 -0.012983315
-0.020978833 -0.025082167 0.015337138 -0.0055717933 0.017839734 9.507354e-05 -0.01965977 0.035035376
-0.009732845 -0.0024999513 0.022186901 -0.039543483 0.012545243 0.017860042 -0.008961886 -0.0014331245
-9.03139e-05 0.010441374 -0.007915247 -0.02856455 0.026832642 0.00065766124 -0.0040054936 -0.016788416
-0.016071163 0.018780466 -0.00288352 -0.025797406 -6.382528e-06 -0.023261411 -0.036506955 0.03226392
0.0016951179 -0.007834094 0.013898117 -0.052397233 -0.023095012 -0.039485842 0.01613312 -0.007441062
-0.0039417017 -0.03698597 0.012668624 0.0004102541 -0.0065373722 0.015684202 -0.007074651 -0.011430892
0.0064027575 0.010658801 -0.00448207 -0.011547826 0.017883424 0.03531139 0.004280802 0.013032821
-0.026848087 -0.045691367 -0.0074715037 0.001546562 0.021039845 -0.021738485 0.021885518 -0.026395112
0.0072545083 0.0001727996 0.029928192 -0.018862396 0.01069208 -0.0045349095 -0.011702546 0.009049038
0.0038097803 -0.02478591 0.016859537 0.017914185 -0.008297021 -0.0124458885 0.0145323295 -0.009542299
-0.015952619 -0.006058886 -0.029671196 -0.00611449 -0.015195868 -0.028251303 0.029700642 -0.004568102
0.017171549 -0.021504968 -0.008954581 -0.0006255845 -0.014410454 -0.0034940075 -0.025548108 -0.012300445
-0.026057603 0.006037443 0.04651711 -0.026430154 0.01629277 0.025252014 -0.007928142 0.014132708
0.0094525 0.006005484 0.0067169517 0.0051099164 0.006154646 -0.029648172 0.0120531395 0.015765693
-0.018716814 0.015062685 0.0037400946 0.0024648379 -0.0058882874 -0.0080331145 -0.00998256 -0.027239103

action_model._continuous_distribution.mu.bias f4 [3]
00000000: 6768 373c dbb5 1a3c 4c41 b4bb
0.011194325 0.009442772 -0.005500948

exp_avg f4 [128, 6]
00000000: 14d6 bbb8 44b8 4db7 3b3c 2eb7 7734 d9b7
00000010: f2fe 3eb7 60c5 d5b5 e832 3eb8 f0b6 b4b7
00000020: c181 77b8 3203 2d38 2365 9a37 b071 28b7
00000030: dc3b c137 2887 4b38 4abd b338 2746 7038
00000040: c923 c737 6082 ad38 c0f1 10b9 73a0 ae38
00000050: 36df bd38 05b6 5939 9f18 8938 eb9f 6838
00000060: 6306 b938 c95a b5b7 9d1b 2ab9 6466 24b7
00000070: fae6 2eb8 c4b7 b3b8 e221 9e37 0d5b 9138
00000080: 4f47 d538 20a9 f238 e630 1038 9fcf 5d38
00000090: 9e5d b0b8 ad76 ac38 0439 ccb8 0805 f238
000000a0: b86d 4637 ad19 d8b8 64f7 c7b8 2c30 0937
000000b0: 6ba7 b438 f45b d038 6f7b b438 3e0a 4e39
000000c0: 7e2c dd38 78eb e9b7 d8bb a4b4 ce69 2db8
000000d0: 44c3 7e37 4c3e bb38 57d4 9b38 e069 3cb6
000000e0: dc75 a5b6 c064 9ab8 7682 15b8 eb50 01b8
000000f0: 24ea 12b6 a8c4 8938 3198 9338 6027 fa38
00000100: e595 d537 9943 b138 af4f cbb8 4022 55b6
00000110: 8548 0839 12f2 1439 df69 a238 48f2 b138
00000120: d408 dc37 9707 7435 c7b3 b237 4ef6 31b7
00000130: b4c9 74b6 3718 0e37 ae60 c6b8 f071 18b7
00000140: 4abe 6f38 fefa 3f38 3d21 0237 7d04 68b8
00000150: e231 a5b7 789b 5cb6 899c cb38 3c69 b6b8
00000160: 86d7 09b8 8f9a 3938 bb32 ae37 aba8 db36
00000170: cea5 0e36 d261 4737 3e57 0837 2f32 ac37
00000180: 3e0a 32b9 6da4 7238 3c4b 3cb9 b063 3c38
00000190: 280a b2b8 0c9f 95b8 2238 cd38 31e2 2837
000001a0: 9bd8 2eb9 6281 d9b8 ae11 60b8 196c 98b8
000001b0: 6827 8438 88f7 e3b7 b1c5 49b8 c2b6 5037
000001c0: ad16 0e37 f465 de37 d54d 4939 9c8d 3638
000001d0: 71f4 e8b7 1382 23b8 3536 24b8 a9a2 45b8
000001e0: 3e05 5a37 d50d 0f38 c156 a637 8032 c838
000001f0: a19e 5838 7e8e 1639 c478 03b9 0db0 86b9
00000200: ea4c 2c39 71dd deb9 4014 ceb8 f1e4 58b8
00000210: bfa1 1b39 6aa6 02b7 faa5 ee38 a6dd a4b9
00000220: c4f2 fbb8 968e 1b38 2053 99b6 6e4a b6b8
00000230: a876 0738 492f 75b8 1c45 8437 ab45 2538
00000240: 64c8 dc37 1f46 91b7 65e0 8eb8 66f5 90b6
00000250: 7c69 39b6 77e9 acb7 675a 4239 cfbb 87b8
00000260: d8df b5b8 12b3 46b9 c9f8 2eb8 ef67 49b8
00000270: 16aa 50b8 6316 26b8 b2e0 eeb7 9d43 abb7
00000280: 122e b1b7 1061 d837 ced6 b938 14d3 cdb7
00000290: e862 1ab9 9c2f 50b9 fd79 0cb9 9e56 f4b8
000002a0: e957 98b8 c886 71b6 2e6a 85b6 040f 1238
000002b0: 3a6c f437 bf4d 29b8 6ce5 3bb8 c86f b136
000002c0: 4c91 4bb8 d03b e9b6 5841 d1b7 c34d 5737
000002d0: aef5 50b8 0f97 96b8 6e47 75b8 1af0 f8b8
000002e0: 3114 91b7 0ff5 92b8 f6e1 16b8 3a1a 9ab8
000002f0: cbbc 87b7 c813 32b8 1c20 9fb6 ec44 04b6
00000300: dfaa f0b7 6961 15b8 6512 3ab7 9d11 42b7
00000310: d03f adb4 a6e2 9f37 d93e 19b9 20e0 91b6
00000320: d821 3839 18b1 90b7 0097 3f38 cd89 c1b8
00000330: efdd 4f37 4a08 4337 a4a3 2eb7 ba83 6c37
00000340: 612f b436 e837 f236 66de 0039 7cbd 9038
00000350: 5db1 75b8 b271 06b8 5e8b 2bb8 f6f9 a5b8
00000360: 4776 5b37 df49 9f36 a686 7438 b884 13b8
00000370: 06b3 7db7 a369 61b7 bad0 aa37 6cf4 b8b8
00000380: 2da1 d7b8 76cd 39b8 541f 7036 9c6c fe36
00000390: b23c 8c38 a22f b1b7 184b 9db7 2ea5 d7b8
000003a0: 62e7 f1b7 7aa1 39b8 db05 b5b6 1433 48b7
000003b0: 741d 4b36 eb5d 3ab7 61c8 8f36 a2e3 feb7
000003c0: d905 d136 c84b 58b7 f33d 45b7 79cd 28b8
000003d0: a89a 90b7 a8c0 bfb6 49b3 8ab8 4461 fe36
000003e0: f37d 2d38 1207 2937 9026 fa36 22cb 5ab7
000003f0: 0ba0 21b9 b900 8536 bcc0 1c39 46fc 95b8
-8.95673e-05 -1.2261855e-05 -1.0385232e-05 -2.5892847e-05 -1.1384242e-05 -1.592718e-06 -4.534694e-05 -2.1542859e-05
-5.901023e-05 4.124939e-05 1.8405326e-05 -1.004005e-05 2.3035267e-05 4.8524846e-05 8.570643e-05 5.7285793e-05
2.3739312e-05 8.273567e-05 -0.00013822969 8.3268525e-05 9.0537986e-05 0.0002076254 6.537255e-05 5.5462046e-05
8.822677e-05 -2.1619157e-05 -0.0001622275 -9.799001e-06 -4.1699946e-05 -8.569614e-05 1.8850846e-05 6.931098e-05
0.00010169914 0.00011570961 3.4377816e-05 5.288387e-05 -8.4097715e-05 8.223704e-05 -9.738098e-05 0.000115403964
1.1827266e-05 -0.00010304465 -9.5351395e-05 8.177052e-06 8.614253e-05 9.9353405e-05 8.60606e-05 0.00019649506
0.000105463885 -2.7885413e-05 -3.0684055e-07 -4.1344952e-05 1.5185044e-05 8.9284586e-05 7.430527e-05 -2.807581e-06
-4.931104e-06 -7.3620584e-05 -3.564587e-05 -3.0831357e-05 -2.1891983e-06 6.569299e-05 7.037854e-05 0.00011928263
2.5461379e-05 8.452609e-05 -9.6946365e-05 -3.175941e-06 0.00012996986 0.00014204558 7.744482e-05 8.485146e-05
2.6230155e-05 9.090813e-07 2.1302969e-05 -1.0607369e-05 -3.647624e-06 8.4694975e-06 -9.459384e-05 -9.086434e-06
5.715926e-05 4.5771703e-05 7.756343e-06 -5.531729e-05 -1.9692761e-05 -3.287305e-06 9.708951e-05 -8.698038e-05
-3.2864067e-05 4.425138e-05 2.076604e-05 6.546344e-06 2.125616e-06 1.18841e-05 8.126544e-06 2.0527366e-05
-0.00016979218 5.785043e-05 -0.00017957104 4.4915534e-05 -8.489593e-05 -7.1344984e-05 9.785617e-05 1.0066245e-05
-0.00016674625 -0.00010371466 -5.3422227e-05 -7.2680596e-05 6.3015905e-05 -2.7175774e-05 -4.810625e-05 1.2440318e-05
8.469139e-06 2.6511938e-05 0.00019197848 4.3524065e-05 -2.7770382e-05 -3.898337e-05 -3.915113e-05 -4.711995e-05
1.2995033e-05 3.410674e-05 1.982914e-05 9.5461495e-05 5.1646148e-05 0.00014358197 -0.00012538122 -0.0002568964
0.00016431851 -0.00042508126 -9.826617e-05 -5.171163e-05 0.00014842207 -7.78735e-06 0.0001137964 -0.00031445659
-0.00012013831 3.7087673e-05 -4.5694323e-06 -8.6923e-05 3.2297015e-05 -5.845659e-05 1.5767808e-05 3.940395e-05
2.6319358e-05 -1.7318e-05 -6.8128844e-05 -4.3201026e-06 -2.7628548e-06 -2.0612713e-05 0.00018534959 -6.472284e-05
-8.672447e-05 -0.0001894946 -4.1716532e-05 -4.801893e-05 -4.974947e-05 -3.9598333e-05 -2.8476443e-05 -2.0416273e-05
-2.1121497e-05 2.5794405e-05 8.861498e-05 -2.4536195e-05 -0.0001472343 -0.00019854162 -0.00013396885 -0.000116509604
-7.264299e-05 -3.5990251e-06 -3.97607e-06 3.4823097e-05 2.9137464e-05 -4.0365147e-05 -4.479794e-05 5.288024e-06
-4.853429e-05 -6.950904e-06 -2.494517e-05 1.2833104e-05 -4.981987e-05 -7.180694e-05 -5.8479076e-05 -0.00011870284
-1.729475e-05 -7.007468e-05 -3.597323e-05 -7.348177e-05 -1.6181168e-05 -4.245693e-05 -4.7423073e-06 -1.970965e-06
-2.8689798e-05 -3.561509e-05 -1.1090747e-05 -1.1567402e-05 -3.227019e-07 1.9059818e-05 -0.0001461463 -4.3474283e-06
0.00017560215 -1.7248603e-05 4.567858e-05 -9.2286245e-05 1.2389834e-05 1.1624836e-05 -1.0409309e-05 1.4097366e-05
5.3699337e-06 7.2186704e-06 0.00012289881 6.901749e-05 -5.8577734e-05 -3.2053977e-05 -4.0899373e-05 -7.914372e-05
1.3080956e-05 4.747169e-06 5.8299534e-05 -3.5171135e-05 -1.5121657e-05 -1.34356405e-05 2.0362775e-05 -8.819331e-05
-0.0001028202 -4.4298788e-05 3.5781022e-06 7.5824337e-06 6.6870256e-05 -2.1122225e-05 -1.8750827e-05 -0.00010282766
-2.8837185e-05 -4.4257824e-05 -5.394902e-06 -1.19328215e-05 3.0266501e-06 -1.1108331e-05 4.2850593e-06 -3.038516e-05
6.229366e-06 -1.28922475e-05 -1.1756539e-05 -4.0245683e-05 -1.7238155e-05 -5.7146717e-06 -6.613747e-05 7.581113e-06
4.1363714e-05 1.0074831e-05 7.45507e-06 -1.3041108e-05 -0.00015413777 3.963793e-06 0.00014949118 -7.151863e-05

exp_avg_sq f4 [128, 6]
00000000: 30fe f130 54ab 9030 d59f 3630 608a 8430
00000010: e41b 232f bd62 a630 bcdc 0530 805b cf2f
00000020: 42b6 2730 3eee 0a30 957d 112f bf1b 2130
00000030: 4f7e 6237 389f 3936 f97e 5737 f6e0 2431
00000040: 736d a92f de60 3931 3711 9637 7d1e 7336
00000050: 135d 8e37 5a8b e031 926c 5330 31ec df30
00000060: e880 6238 f00a 3b37 6a52 5838 0adc b631
00000070: ea66 aa2f ecf1 d830 e39c 1438 68ee f336
00000080: a5a0 0d38 cc3f 7531 c447 6f2f 70a9 2530
00000090: 6964 1f31 0e8e 1b31 42eb 8c30 3546 8831
000000a0: 69fe a02f 221c fe30 af21 6738 ebe1 3b37
000000b0: 83ac 5b38 916e 1632 ed45 da30 7466 0132
000000c0: 168d 4c31 c329 2031 612d 0030 9a70 7031
000000d0: f967 672f eedd 1731 b723 c336 0dd4 9e35
000000e0: 073e b936 f669 5731 e0d3 f92f 0c73 2f31
000000f0: 184f dc37 7315 b336 208b d137 b534 8131
00000100: aa79 9f2f d384 e830 befe 4a38 4784 2537
00000110: daff 4038 29bf 4932 8a6b 6530 b0d3 4c31
00000120: 53a3 232f 4a3c c22e efda 2a2f bfdd 1c2f
00000130: f3e6 e52d defc f22e 74cf b430 6510 0130
00000140: 51c0 7430 300a ed30 fa4c 442e 730b aa30
00000150: f271 e736 663a bc35 073d dc36 3094 cd30
00000160: a60c 852f e707 bd30 3bfe 9f36 85c6 8135
00000170: 8c12 9836 13a6 da2f ecae 222e ac33 6a2f
00000180: 43da 2b32 73cd dd31 2271 6031 ab7d 2632
00000190: b582 8130 1ecd e631 16cb 3036 f39b 1e35
000001a0: 32f1 2936 9320 a131 1200 3630 dfd4 1431
000001b0: 008c b637 10d0 9636 ec54 ae37 da54 a230
000001c0: c34a 0a2e 75d2 232f 433d cf31 51ac dc30
000001d0: 132f 4231 21ed 5b31 32e8 1a30 70ce 8731
000001e0: 1776 0236 592e cf34 d85b f435 7981 c130
000001f0: 4a04 ad2f f7dc 0831 e3ee d737 180d b036
00000200: e2cf cd37 c2a1 8a32 6b73 2131 72ba 1332
00000210: 011f a033 b606 5232 d47b 8533 7847 3e32
00000220: b2a1 e130 6237 c931 253b ba30 920d 1b31
00000230: 03ef 7730 e7b7 8430 52fd c62f d3e6 b630
00000240: 2258 bd37 2899 9c36 0be8 b437 2a1a d030
00000250: f9ae 0a2e bb85 322f 61f3 e137 611a b736
00000260: 0675 d637 200b 1932 3903 1030 5785 3431
00000270: a82f 0838 c2c9 de36 c9bc 0138 9cd5 6131
00000280: 752f 942f 4883 5b31 3223 be36 30ab 9d35
00000290: af66 b536 0728 2a32 0a55 d130 5e9a 5431
000002a0: 824b 3531 10f3 1b31 c08c 9630 8228 2931
000002b0: 64df 1c30 c01c 2a31 5586 f137 78fe c436
000002c0: 6639 e537 add9 5431 aab0 992f fd24 fa30
000002d0: 6fc0 3d31 abef 4631 7547 7730 64ba 3d31
000002e0: 0436 2a30 898b a131 6f8c ab30 ffaf 8130
000002f0: dc4a 1730 f238 8830 e22e 0e2f ee8b c530
00000300: 1288 602f ee07 9b2e a227 c12e b7f5 032f
00000310: d84c 3c2e 94d5 852f 6fe6 9638 3d1b 7937
00000320: fc49 9038 e032 1132 46cb 6930 3ba2 4231
00000330: 095f 3f2f b3ad bd2e 7cda 812e 4a27 b22e
00000340: 7a4c ca2d 33fb 892e 5f9f 9737 1266 7936
00000350: cf17 9037 755d 9131 15d2 972f 48e9 0731
00000360: 9b5f 1c2f 287b 1d2f 8d80 f32f 4330 9b2f
00000370: b86a 462e 7e38 c42f 8217 8a30 b544 cd30
00000380: 99bc 0d31 afa1 ab30 8ab5 9f2f 6eec 7430
00000390: 1c70 f037 e867 c336 9708 e437 4b0b aa31
000003a0: e566 f52f 4385 8531 97cb 1c36 a7e9 0135
000003b0: ea68 1636 83cf 7c30 0494 da2e 41db a730
000003c0: 3dd3 1b34 cb03 8232 7283 f833 fd41 8630
000003d0: 8952 3c2f eea0 a52f b542 2637 3228 0836
000003e0: 1bf8 1d37 1b0e 1931 8ac3 582f fb58 1331
000003f0: e3b1 1839 fc7b f937 fc4d 1139 a767 2132
1.7607302e-09 1.0526073e-09 6.643835e-10 9.643593e-10 1.4834672e-10 1.2106153e-09 4.86988e-10 3.7718095e-10
6.101325e-10 5.054267e-10 1.3232289e-10 5.861089e-10 1.3500058e-05 2.7659826e-06 1.2844562e-05 2.3993016e-09
3.081869e-10 2.6976106e-09 1.788941e-05 3.6227568e-06 1.697106e-05 6.5351005e-09 7.691564e-10 1.6292515e-09
5.4002652e-05 1.1148615e-05 5.1575167e-05 5.3219127e-09 3.0995945e-10 1.5784827e-09 3.5432062e-05 7.2697185e-06
3.376663e-05 3.5688457e-09 2.176242e-10 6.0267435e-10 2.3194622e-09 2.2636217e-09 1.0253205e-09 3.9661026e-09
2.92846e-10 1.8488928e-09 5.5106062e-05 1.1198669e-05 5.2374333e-05 8.756289e-09 1.5881462e-09 7.532083e-09
2.9766105e-09 2.3306803e-09 4.6630616e-10 3.4988603e-09 2.1046266e-10 2.2099544e-09 5.8156106e-06 1.1833632e-06
5.5206506e-06 3.134685e-09 4.5443382e-10 2.5531248e-09 2.6262875e-05 5.3371127e-06 2.4979527e-05 3.7603862e-09
2.900838e-10 1.6917973e-09 4.83978e-05 9.865565e-06 4.6014648e-05 1.1743205e-08 8.3462537e-10 2.9806237e-09
1.4882788e-10 8.832808e-11 1.5539191e-10 1.4266897e-10 2.6136848e-11 1.1049804e-10 1.3155685e-09 4.6953225e-10
8.903998e-10 1.7246915e-09 4.463361e-11 1.2372382e-09 6.8976015e-06 1.4024088e-06 6.5636154e-06 1.495783e-09
2.4201546e-10 1.3753806e-09 4.7681656e-06 9.669026e-07 4.532112e-06 3.9771972e-10 3.6989897e-11 2.1300534e-10
1.0003137e-08 6.4553034e-09 3.2660599e-09 9.691045e-09 9.423134e-10 6.7172e-09 2.6344255e-06 5.908652e-07
2.5323357e-06 4.68942e-09 6.6211314e-10 2.1657838e-09 2.1761283e-05 4.49457e-06 2.0781961e-05 1.1811168e-09
3.144397e-11 1.4899533e-10 6.0314576e-09 1.6056082e-09 2.8257474e-09 3.2003487e-09 5.6354843e-10 3.9524863e-09
1.9440247e-06 3.8590477e-07 1.8206147e-06 1.4079397e-09 3.1471564e-10 1.9916209e-09 2.5741238e-05 5.246733e-06
2.4534707e-05 1.6138873e-08 2.349419e-09 8.598919e-09 7.45622e-08 1.2225135e-08 6.215819e-08 1.1075706e-08
1.6416861e-09 5.856166e-09 1.3550091e-09 2.2563182e-09 9.019773e-10 9.656532e-10 3.6195985e-10 1.3307847e-09
2.2571596e-05 4.666992e-06 2.1565726e-05 1.5141428e-09 3.1532974e-11 1.6236516e-10 2.6935422e-05 5.456896e-06
2.5565281e-05 8.908302e-09 5.2391474e-10 2.6269242e-09 3.246931e-05 6.6396033e-06 3.0931817e-05 3.2863232e-09
2.6954763e-10 3.194332e-09 5.6665385e-06 1.1747234e-06 5.4061743e-06 9.9044035e-09 1.5230921e-09 3.0937808e-09
2.6381888e-09 2.2693634e-09 1.095394e-09 2.4615763e-09 5.7069927e-10 2.4754598e-09 2.8791992e-05 5.8708792e-06
2.7325656e-05 3.0973795e-09 2.7956065e-10 1.8200407e-09 2.7612506e-09 2.8949028e-09 8.9959623e-10 2.760907e-09
6.19224e-10 4.70158e-09 1.2481801e-09 9.436006e-10 5.503986e-10 9.911487e-10 1.2931481e-10 1.4373407e-09
2.0421023e-10 7.0499925e-11 8.783664e-11 1.2001676e-10 4.2814502e-11 2.4344315e-10 7.195479e-05 1.48478985e-05
6.880236e-05 8.4516785e-09 8.5053775e-10 2.8322933e-09 1.7405112e-10 8.62558e-11 5.9050514e-11 8.101482e-11
2.2998704e-11 6.2746607e-11 1.8074816e-05 3.7163304e-06 1.7177224e-05 4.2306803e-09 2.7616012e-10 1.977769e-09
1.4222083e-10 1.4322821e-10 4.4292783e-10 2.8228628e-10 4.5114773e-11 3.5692332e-10 1.0047503e-09 1.4935241e-09
2.0625406e-09 1.2487841e-09 2.9050923e-10 8.910267e-10 2.8662434e-05 5.823549e-06 2.7183718e-05 4.948935e-09
4.463835e-10 3.8859596e-09 2.3364316e-06 4.8396254e-07 2.241281e-06 9.197196e-10 9.939785e-11 1.2213165e-09
1.4512348e-07 1.5135717e-08 1.157231e-07 9.768538e-10 1.7127823e-10 3.0127673e-10 9.9099025e-06 2.0288976e-06
9.415696e-06 2.2272448e-09 1.9714555e-10 2.1441895e-09 0.00014562118 2.9740848e-05 0.00013857329 9.395001e-09

exp_avg f4 [128]
00000000: 1ec2 93b7 60f5 9f37 0dba 2c38 4332 0639
00000010: 1640 a1b7 533a 9838 8c21 7e38 34b5 9738
00000020: de80 a5b7 c84e 6ab8 fcfc a038 8b84 b738
00000030: 3fa4 03b7 b290 ff37 fd7c 51b8 e63a db36
00000040: 3c62 58b7 99b0 89b8 d98c 4437 6522 94b7
00000050: 6c7f 7d38 ad70 8ab9 0465 54b9 ccc6 b0b7
00000060: f3bb 08b6 a3ba d7b8 1c98 26b7 3684 10b9
00000070: 98e8 1a38 7c3e 2ab7 20e8 81b8 9892 81b7
00000080: 3bf7 c0b6 7237 1db7 3c07 1937 b9c3 b5b7
00000090: 2fce 83b7 f0d1 cdb7 3e59 56b8 1c7d ffb5
000000a0: 38b2 e2b7 49c9 3737 53c6 54b8 dd54 5db8
000000b0: e11b 31b7 c5d3 4d37 9847 09b8 2fd0 4b38
000000c0: 6834 36b8 deac 73b7 425d 54b8 d148 9237
000000d0: 146a af38 bb79 d7b8 8c56 8fb8 0fe7 f2b8
000000e0: 7587 bf37 1254 9038 3311 23b8 2666 9e36
000000f0: 0edd 6ab8 d05a 5538 37e0 a0b7 7213 7438
00000100: a85f acb7 5811 03b9 4ff5 8737 82a0 a3b7
00000110: bc73 1cb8 eca0 8537 0421 3a38 0407 f1b6
00000120: 5090 e237 bae3 99b8 a04d 9c36 3f53 90b6
00000130: d409 07b7 b677 97b8 88ce 3938 73e0 6b38
00000140: 0718 c038 749a bab7 e549 0038 9edb feb7
00000150: aa51 3b38 2a63 0438 b807 99b8 0a0b 1c39
00000160: 2c56 82b7 07b0 4438 d56e 0eb9 fa71 deb7
00000170: a1fe 9c38 fd44 cdb8 8c9f a437 38f6 86b7
00000180: 5cd3 a0b5 7558 8fb8 1403 a6b8 3618 fcb8
00000190: 410e ba38 50e3 4338 187e 4e35 48f6 afb8
000001a0: 19be 5bb9 651a b3b8 2285 dab7 9155 0338
000001b0: 7f4c 3e38 7289 4e39 084c 77b8 679a 97b8
000001c0: 8f0d 0038 1f7a 94b6 e012 8fb5 8a14 1f38
000001d0: ce6a 9d37 9773 c638 542d 88b8 1f64 a5b8
000001e0: 7049 0f38 2d57 2bb8 5a48 8038 3a71 ecb7
000001f0: d2e7 2638 69a7 39b9 ae85 1e38 5793 f9b8
-1.7614158e-05 1.9068539e-05 4.118127e-05 0.0001279796 -1.9222538e-05 7.2587885e-05 6.0589562e-05 7.233993e-05
-1.9729541e-05 -5.586332e-05 7.6765165e-05 8.750808e-05 -7.84645e-06 3.0465748e-05 -4.9945887e-05 6.5335653e-06
-1.2897475e-05 -6.565563e-05 1.1715304e-05 -1.7658991e-05 6.043857e-05 -0.0002640536 -0.00020255527 -2.1073407e-05
-2.037498e-06 -0.00010286763 -9.929787e-06 -0.00013782163 3.693308e-05 -1.0147338e-05 -6.194436e-05 -1.5446261e-05
-5.7508273e-06 -9.370839e-06 9.121195e-06 -2.1668022e-05 -1.5712429e-05 -2.4535664e-05 -5.110469e-05 -1.9035392e-06
-2.7024289e-05 1.0954515e-05 -5.0729443e-05 -5.276954e-05 -1.0556513e-05 1.2268259e-05 -3.2730022e-05 4.8592858e-05
-4.344099e-05 -1.45241775e-05 -5.0631592e-05 1.7438464e-05 8.364409e-05 -0.00010274673 -6.834892e-05 -0.00011582497
2.2832051e-05 6.8821144e-05 -3.8878246e-05 4.7206586e-06 -5.599582e-05 5.0867733e-05 -1.9177895e-05 5.8192243e-05
-2.0548541e-05 -0.00012499595 1.6207485e-05 -1.9505856e-05 -3.7301084e-05 1.592977e-05 4.4376604e-05 -7.1831764e-06
2.70085e-05 -7.338026e-05 4.658199e-06 -4.3012255e-06 -8.048915e-06 -7.222539e-05 4.4299784e-05 5.62374e-05
9.159749e-05 -2.224485e-05 3.0586398e-05 -3.0381427e-05 4.466033e-05 3.1563606e-05 -7.297046e-05 0.00014881432
-1.5537335e-05 4.689398e-05 -0.00013583463 -2.6517537e-05 7.486088e-05 -9.788012e-05 1.9624618e-05 -1.60887e-05
-1.1982443e-06 -6.835248e-05 -7.91607e-05 -0.00012020806 8.871826e-05 4.6703324e-05 7.692447e-07 -8.390524e-05
-0.00020956284 -8.5403015e-05 -2.604962e-05 3.1312524e-05 4.5370773e-05 0.00019696893 -5.89602e-05 -7.229001e-05
3.0530206e-05 -4.4249605e-06 -1.0659824e-06 3.7927683e-05 1.8765593e-05 9.462906e-05 -6.4934284e-05 -7.886462e-05
3.416225e-05 -4.0850766e-05 6.116992e-05 -2.8186118e-05 3.9793384e-05 -0.0001770534 3.7794634e-05 -0.000119006894

exp_avg_sq f4 [128]
00000000: d3f9 d42f 3123 922f 7b7a aa30 cbc1 4831
00000010: 7be3 6331 092d 2831 b2a2 b930 249b 9e31
00000020: 6640 a030 265d ae30 afb3 1331 eb85 c031
00000030: b493 912e 8f42 1430 5e10 3b30 c567 932f
00000040: 9af8 4d31 24d7 d630 c5f6 8f30 4381 9b30
00000050: 71f8 1e30 1032 e031 5971 8731 1bb6 ff2f
00000060: 2ae5 a430 b516 8131 29e0 1031 286b 7531
00000070: 13ad 9430 3f5e fe30 0fd2 7830 bb6d a82f
00000080: e4d0 7b2e a8a4 ac31 5728 202e 55d5 0c31
00000090: 048f 1b2f 8e20 fe2f d190 2631 c725 c02f
000000a0: 1e8b d62f 38e1 8f30 a3fa ff31 740a 7c31
000000b0: f672 9d2f 8d43 0230 04b3 6b30 66bf 7330
000000c0: 9c15 9730 1560 0031 78f5 b430 d317 0e30
000000d0: d506 1431 d888 4031 30c1 5430 3abd 3931
000000e0: f75f 9f30 1875 9b30 a9a4 f82f 4d90 8730
000000f0: 750d 3331 12c1 8730 222a 9e30 949b 0230
00000100: 155f 0d31 9141 bd30 845f 732f 6939 8030
00000110: 6242 4e30 ba75 a12d 866f b52f 716b 8331
00000120: 4e00 922f 386d 7c30 1663 b630 f42c 802e
00000130: 6b55 2631 2dcc cd30 c037 af30 78e2 4532
00000140: 75ca 1631 daf6 f52f ac22 d131 9c5b 9930
00000150: 317e 9d31 f640 1930 55ab 6930 9b90 4831
00000160: a98d 612f 7568 ba30 10c6 f231 0efe 2230
00000170: 84b6 9931 8a5c 8b31 0fbb 042f ef7c 9730
00000180: 9f82 e82f c89c 7130 84c4 e42f eba8 9431
00000190: 68bd 6f31 04d9 9d30 6ba3 612f 3156 8a31
000001a0: d420 e831 f349 7130 212f dc30 fec2 5030
000001b0: b5e3 642f 4411 5532 f149 8c30 f7bc 3f31
000001c0: f748 5030 2979 b02f f5d3 4830 4bd8 6131
000001d0: 4572 3330 3b69 0931 c499 dc2f 2c0a 1131
000001e0: 3b53 8530 56a7 c630 c1ef 2230 e351 c230
000001f0: 0868 9230 69d3 1032 174c 5131 f428 2832
3.8740086e-10 2.658225e-10 1.2403939e-09 2.921399e-09 3.3162155e-09 2.4472817e-09 1.3506762e-09 4.6160427e-09
1.1659835e-09 1.2686641e-09 2.1493454e-09 5.60316e-09 6.620074e-11 5.393667e-10 6.8053463e-10 2.6812877e-10
2.997274e-09 1.5631696e-09 1.0474756e-09 1.1314473e-09 5.783312e-10 6.5249495e-09 3.9419032e-09 4.6513624e-10
1.1997703e-09 3.7569756e-09 2.1082178e-09 3.5713104e-09 1.0817608e-09 1.8507719e-09 9.0520386e-10 3.063699e-10
5.7256325e-11 5.024578e-09 3.6415617e-11 2.0493947e-09 1.4147977e-10 4.6225462e-10 2.4238498e-09 3.495144e-10
3.9025222e-10 1.046863e-09 7.449971e-09 3.6676768e-09 2.8639818e-10 4.738972e-10 8.57469e-10 8.867488e-10
1.0992838e-09 1.8681068e-09 1.316649e-09 5.1693155e-10 2.1540718e-09 2.8017464e-09 7.7399687e-10 2.7028606e-09
1.1596047e-09 1.1311014e-09 4.5227935e-10 9.863556e-10 2.6055578e-09 9.877417e-10 1.1507988e-09 4.7514814e-10
2.0572248e-09 1.3770195e-09 2.2134655e-10 9.329543e-10 7.50367e-10 1.8355862e-11 3.300295e-10 3.8248165e-09
2.6557462e-10 9.1832275e-10 1.3270405e-09 5.8287514e-11 2.4204734e-09 1.4973743e-09 1.2748771e-09 1.1518402e-08
2.1942956e-09 4.474064e-10 6.0866423e-09 1.1158252e-09 4.5836477e-09 5.575339e-10 8.5008384e-10 2.918603e-09
2.0513959e-10 1.356297e-09 7.065644e-09 5.929629e-10 4.4736357e-09 4.055953e-09 1.2071787e-10 1.1022204e-09
4.2293366e-10 8.789809e-10 4.161259e-10 4.3265707e-09 3.4886742e-09 1.1484933e-09 2.0521689e-10 4.0261274e-09
6.755821e-09 8.778038e-10 1.6020502e-09 7.594706e-10 2.0817377e-10 1.24021575e-08 1.0207356e-09 2.7901572e-09
7.577365e-10 3.2100303e-10 7.3060785e-10 3.2864758e-09 6.528221e-10 1.999594e-09 4.0127024e-10 2.110606e-09
9.700679e-10 1.4453956e-09 5.927597e-10 1.4138631e-09 1.0652466e-09 8.429972e-09 3.0456755e-09 9.788199e-09
