results/Test23/MoveToTarget/MoveToTarget-500030.pt (torch, 443481 bytes, 36 tensors)

network_body._body_endoder.seq_layers.0.weight f4 [128, 6]
00000000: dbce e2bc 3a52 183f 47b3 16be 98dc bbbe
00000010: e461 2cbd 7b95 b53e a0be 4abe f1f0 efbe
00000020: b8c2 513e 48e3 81be 006b 903d 3c6e fd3e
00000030: bb59 78be 872c 843e a50b f83d 3e0b 063f
00000040: b556 c63c 4cd6 6d3e cc3c 653f 624f e9bd
00000050: ce3e 343f 5762 b3be 8609 8fbe e364 36bf
00000060: 55c7 a43e 4531 9dbe e564 0b3f 0c45 7a3e
00000070: 644e 743e 7342 67be 2251 c13e 956d dcbe
00000080: b2d6 043f 7f28 a4be 3e98 583e 8b99 413d
00000090: 8594 0ebf a638 3abf 017c 2cbf a404 ca3e
000000a0: 40ee 1abf 39a9 03bf 595e 8f3e 4115 4a3f
000000b0: 7046 803e f3a0 8dbe 613b ba3d 4cf0 2f3e
000000c0: bec7 833e 2d72 d03e 47e5 633d c998 2ebf
000000d0: 8551 82be 10ef cd3e 5b2f 393f d86d 853e
000000e0: bd68 cbbe 8950 3b3e ca67 dbbe 753a 17be
000000f0: 6b54 063f dfef bcbd 5ea2 e7ba bb23 8b3e
00000100: 7225 2dbf cead 00bf 2ca6 8d3e 8c0c e43d
00000110: 784a 713e 096f b4be c86b a3be 8c0b 9dbe
00000120: 5ebf fb3d ccca d83e b30d b23d 6bd0 0fbf
00000130: e5d1 0e3e b00e f5be 7521 1abc cfc1 0b3f
00000140: 616d d9be 35fe 923d f73a 043f 6300 8b3f
00000150: 3550 f33e f6eb 3bbe 679a 853e 4c86 b23d
00000160: 0c34 c6be c8d9 07be fd16 923e fc6f f1be
00000170: 85ef ee3e 9e5a 70bf 09c3 243f caa4 75be
00000180: acb0 3a3e 5f44 78be 1260 5fbe 8334 9ebe
00000190: 2c7e 923e feb3 3ebd e550 a9be 1cd4 cfbe
000001a0: 153e 0bbf c577 263e a8a1 9a3e b9ce 0cbf
000001b0: b4af 94be e040 463e a226 66be 4946 47be
000001c0: 35e1 e6be 7edc 1b3e 96cb c9be d99c 0bbf
000001d0: a603 433e fc3d 4d3f 09ab d33e e071 48bf
000001e0: b9c4 b1be e569 003f 7b17 373f 9ed0 663c
000001f0: 521d a03e 1d0c 32bf e689 b1bc 3f3c 3a3f
00000200: 6765 2e3e ebc7 043f 88b3 c8bd d017 c3be
00000210: 8954 c9bd 44fc 84bf c7d7 fdbd a38f 003f
00000220: 2cfd f6be aec3 ec3d 8d5f a3be 85f0 4bbe
00000230: 2d45 813d f0e4 85be 8144 a9be eb2e 83be
00000240: dd2f c93e dc23 36bd 0c6d 18be bd7e 723c
00000250: 2de8 3d3d 30a2 6c3e 2486 e53d 8371 a2bd
00000260: 4d47 97bd 4a46 8f3e b093 a43d 9f30 49be
00000270: 3308 f5be 58ab 113e a550 70be 262d 99bf
00000280: 29ff d83e 3328 003e 9c8b 88bd 685e 0cbf
00000290: 7e06 a93e ca12 57bc 2080 c03e a83f efbe
000002a0: 2d6e 7ebe 4bbe 86be d344 6ebe edc4 97be
000002b0: 9678 ebbd 28fa f1bd 6514 993e 9b1c 33bd
000002c0: 26b1 3ebe 6c2a 2bbf 88b5 203e 3cad 9ebe
000002d0: 7ce4 e23d 5cf8 babe d2f0 b8be 7dba 673e
000002e0: d8b5 aebe 6798 59bd d064 3abe fa3f 30bf
000002f0: a9cb 92be 29d0 86be 4e6a 903e df1e 863d
00000300: 31ad 293e 75b7 3cbe 3052 9e3e 461d 2b3e
00000310: 35cd d0be b225 babe 8bbd abbe 8a62 9cbe
00000320: 5b70 9fbe 0f9f b9bd 3545 573c c46e c2bd
00000330: 917e 973e 2291 433f 1ecf 48bd f1d9 3abe
00000340: c810 9ebe 6508 4d3f 4c28 2b3e 5f77 003f
00000350: d273 4e3f b56e 9bbe b462 89be 4fd1 39bd
00000360: 95b2 af3c e8a8 143f 3a12 acbe cb64 40bf
00000370: 4ba5 73be 9447 8e3e e8d2 90bd 6e9b 3d3e
00000380: d3ae 20bf 5ccb 0c3e 5ca7 5a3e 09f6 cfbe
00000390: bf23 093e 99d8 2dbf 376a 2cbf 12a0 79be
000003a0: d054 5f3d 6882 93bb 5139 613f 6b1c ca3d
000003b0: 13ae 4abd 9015 8abe f306 373f a766 1b3f
000003c0: df63 ebbe e1c7 91bb 12a3 4dbc d900 883d
000003d0: 940a 2dbf 6393 bd3d 901a c93e 5f7d eb3e
000003e0: 25a2 903b f833 52be 5766 4abe 6429 79bd
000003f0: 1cef d63e 6e9f 21bf 1fc5 833e 2ac9 653f
-0.027686527 0.5950047 -0.14716826 -0.36691737 -0.042085543 0.35465607 -0.1979928 -0.4686351
0.20484436 -0.25368714 0.07051659 0.49498165 -0.2425298 0.25815222 0.12111596 0.52360904
0.024211267 0.23226279 0.89545894 -0.11392094 0.7040833 -0.35035965 -0.27936953 -0.7124769
0.32183328 -0.30701652 0.5445083 0.24440402 0.23858029 -0.22583942 0.37757212 -0.43052354
0.518901 -0.32062146 0.21151826 0.04726557 -0.5569537 -0.7274269 -0.67376715 0.39456666
-0.6051979 -0.5143009 0.2800167 0.7893868 0.2505374 -0.27661857 0.09093357 0.1718151
0.2573833 0.4071211 0.055638578 -0.6820188 -0.2545282 0.40221453 0.72337884 0.26060367
-0.39728346 0.1829244 -0.42852622 -0.14768393 0.5247256 -0.09225439 -0.001767229 0.27175698
-0.6763526 -0.50265205 0.27665842 0.111352056 0.23563564 -0.35240963 -0.31918168 -0.30672872
0.1229236 0.42342222 0.08694019 -0.56177396 0.13947256 -0.47862768 -0.009407391 0.54592603
-0.42466262 0.071773924 0.51652473 1.0859493 0.4752213 -0.1835173 0.26094362 0.08717021
-0.38711584 -0.1326667 0.28533164 -0.4715575 0.46667114 -0.9388827 0.643601 -0.23988643
0.18231457 -0.24244832 -0.21813992 -0.30899438 0.28611887 -0.046558373 -0.3306953 -0.40591514
-0.54391605 0.16256626 0.3020146 -0.55002934 -0.290403 0.19360685 -0.22475675 -0.19460405
-0.45093694 0.1522083 -0.39413136 -0.54536206 0.1904436 0.80172706 0.41341427 -0.7829876
-0.347204 0.5016158 0.71520203 0.014087824 0.3127237 -0.69549733 -0.0216722 0.7274818
0.1703087 0.5186755 -0.09799868 -0.38104105 -0.09830577 -1.0389485 -0.12394672 0.5021917
-0.4824003 0.115607604 -0.31908837 -0.1991597 0.06312022 -0.26151228 -0.33060077 -0.25621733
0.3929433 -0.044467792 -0.14885348 0.014800725 0.046364 0.23108745 0.11207226 -0.07931807
-0.073866464 0.27983314 0.08035982 -0.19647454 -0.47857818 0.14225519 -0.23468263 -1.1966903
0.42382172 0.12515335 -0.066672534 -0.5483155 0.33012766 -0.013127038 0.37597752 -0.46728253
-0.24846716 -0.26317057 -0.23268442 -0.2964243 -0.11497609 -0.11815292 0.29898372 -0.043728452
-0.18622264 -0.66861606 0.15694249 -0.30991542 0.11078736 -0.36517608 -0.3612123 0.22629733
-0.3412311 -0.053123858 -0.1820252 -0.6884762 -0.28671005 -0.2633069 0.28206104 0.06548857
0.16569974 -0.18429358 0.3092208 0.16710386 -0.4078156 -0.36356884 -0.33543047 -0.3054393
-0.31140408 -0.09063541 0.013139059 -0.09493783 0.2958875 0.7639333 -0.049025647 -0.182472
-0.30872178 0.80090934 0.16714591 0.50182146 0.8064548 -0.303579 -0.26833117 -0.045365628
0.02144746 0.5807023 -0.33607656 -0.751538 -0.23793523 0.27788985 -0.07071477 0.18516323
-0.6276676 0.1374945 0.21352905 -0.40617397 0.13392542 -0.67908627 -0.6734957 -0.24377468
0.054524243 -0.0045016296 0.8797808 0.098687015 -0.049482416 -0.26969576 0.7149498 0.6070351
-0.45974633 -0.0044488763 -0.012551086 0.06640787 -0.67594266 0.092566274 0.39278078 0.45994088
0.0044138604 -0.20527637 -0.19765602 -0.06083049 0.419793 -0.63133895 0.2573633 0.89760077

network_body._body_endoder.seq_layers.0.bias f4 [128]
00000000: 5675 98bc 03a5 fb3a fcff 7c3c f670 78ba
00000010: 6bd7 24bd 5e19 51ba e85b 23bc 4bca c4bb
00000020: 7445 65b7 d432 a9ba b202 87bb f70a 90bb
00000030: 59a8 f23a 8b6b 8bba 66d3 e438 b884 f93a
00000040: 719c 7b39 ecda 5fbb 061a cd3c 72cd 703c
00000050: 6a2a 1b3d 427f 263c b746 55bc 5f55 8bba
00000060: 7667 b83a 1a83 11bc 7e5b 12ba e017 61ba
00000070: 7bb5 093b 1bf8 b839 5434 2cb8 f568 24bc
00000080: 8ffe 30ba 5f9e d1bb 382e 993c 9ca9 f7bb
00000090: 20b4 adba beb0 d9bb bb09 5aba b05d cdbb
000000a0: 3018 813b 9391 db3b 49c9 323b 971f 31bb
000000b0: 1eb6 b73b 6988 113c f5c4 a33c e33d 103a
000000c0: d480 96bb 1420 85bc 35bc de3b c490 a039
000000d0: 5431 7f3b fe35 a0bc 3b14 653b 58cc aabb
000000e0: ba70 b0ba fb7f 17bc 1e78 8db8 3fc4 2ebb
000000f0: a7fd 1d3c eecf 883a 0ef6 26bc 7ef6 0b3a
00000100: 7ef2 a4bc 5db3 8abc 8c54 7a3b 12c3 d1bb
00000110: 6eed d93b cd9a 20bb 17e6 e63a e379 953b
00000120: c435 eb3b fb09 7c3c 32c2 a13b 33e6 97bb
00000130: 4dd5 9cbb f4a7 72bb 4652 973b fcbc 273b
00000140: 7041 02bc 414b eebb 2fd0 29ba d0db cb39
00000150: 74db a8bc 00f7 ad3b 935d 50b9 895d 28bc
00000160: 342b 00bb 08b0 0ebc 512b b13c a021 98bb
00000170: 1748 9bba 643e 233b 8693 833c a588 18bb
00000180: 404d 653c 1fcf e6ba b913 953b 736b f7bb
00000190: 1bb6 643b 8b02 02bc 281f 06bc 3851 8abb
000001a0: b8da f33a 946f 01bc df2c 733b 68c2 3c3b
000001b0: a834 95ba ad7f 26bb 90db 23b9 2efc 9fba
000001c0: 9ec2 113b 902b c1ba 12b5 e9bb 42dc 93bb
000001d0: 4427 60bc c3a4 4c3b e9e6 b93b 5367 403c
000001e0: 1bac fdbb 0cab 88bb 5f8a feba 2b85 b4bb
000001f0: 1242 3b3b 896e 203c fe1f 493a 7237 913a
-0.018610638 0.0019198958 0.015441891 -0.0009477282 -0.0402445 -0.0007976497 -0.009970643 -0.0060055605
-1.36656345e-05 -0.0012908825 -0.0041201944 -0.0043958384 0.0018513306 -0.0010636909 0.00010911263 0.0019036746
0.00023995504 -0.0034157587 0.025036823 0.0146974195 0.037882246 0.010162177 -0.013017348 -0.0010630301
0.001406892 -0.008881355 -0.00055830914 -0.00085866265 0.0021012712 0.00035280068 -4.105673e-05 -0.010034789
-0.00067517994 -0.006397053 0.018698797 -0.007558061 -0.0013252534 -0.0066433838 -0.000831749 -0.006267272
0.003939651 0.0067007034 0.002728062 -0.0027026886 0.005606427 0.00888262 0.019991377 0.0005502386
-0.004592994 -0.016250648 0.0067973384 0.00030625437 0.0038939314 -0.019556995 0.0034954685 -0.005212348
-0.001346133 -0.0092468215 -6.7457775e-05 -0.0026667265 0.009642995 0.0010437944 -0.0101905 0.00053391594
-0.02013516 -0.01693123 0.0038197367 -0.006401428 0.0066506183 -0.002450633 0.001761618 0.004561649
0.00717804 0.015383239 0.00493648 -0.004635596 -0.0047861696 -0.0037026377 0.004617962 0.0025594821
-0.007950172 -0.0072721546 -0.000647786 0.0003888295 -0.020612456 0.0053089857 -0.00019871285 -0.010276207
-0.0019557 -0.008708961 0.0216271 -0.0046426803 -0.0011847046 0.0024909014 0.016061556 -0.0023274806
0.013995469 -0.0017609334 0.0045494703 -0.0075506507 0.0034898582 -0.007935177 -0.008186139 -0.004221108
0.0018604612 -0.007900137 0.0037105603 0.0028802399 -0.0011383491 -0.002540569 -0.00015626685 -0.0012205893
0.0022241245 -0.0014737714 -0.007132181 -0.0045123408 -0.013681237 0.0031226135 0.0056732786 0.011743384
-0.007741464 -0.004170781 -0.00194199 -0.005509039 0.0028573317 0.009791979 0.0007672309 0.0011079146

network_body._body_endoder.seq_layers.2.weight f4 [128, 128]
00000000: c907 02be 9cf0 1e3e da5b da3d 5add dd3d
00000010: 4cd3 0cbe 1b9f dd3d 1ef6 83bd aaca d83d
00000020: f10e 3fbd 40d9 053e fa97 2f3e 792a 0fbb
00000030: 076c 863d b902 ccbd c9b9 633d 05cf f2bd
00000040: 2c69 13be 0ad2 14bd 3700 1cbd 393f 65be
00000050: 6a15 5dbd 1d2c 83bd 9b3a a9bc 85b7 9abc
00000060: 7734 523c e039 563e ba4f 8cbd f314 2e3d
00000070: c601 12be 5772 d93d 5cf4 063e 7dd4 8b3c
00000080: 9ecb 93bd b777 063d 224b a33d f5b2 99bb
00000090: 4b0f a4bd cf48 bdbd 168d 8cbd d6f1 c6bc
000000a0: cf16 16be 4ecd dc3c 1514 abbd 0dcf ce3d
000000b0: 856a 953d 7d62 ad3d 14f9 3ebd 0cff 75bd
000000c0: 13f9 40bd 3438 0abe 80fb 0ebd b542 1abe
000000d0: bee0 9d3d cf13 fb3d 6149 31bd 700a 183d
000000e0: 7c11 65bd b1c1 683d d3c1 843d 6aaf 0d3d
000000f0: aec1 f63d f827 65bd fa4d 59bd 77e9 42bd
00000100: b35b e23d 3334 68be c9cb 1bbe e01f f5bc
00000110: 744a b53d ad82 9f3d 39ff 443e 27ff dbbd
00000120: 8fe3 253d 522a 0bbe 1ba1 57bd 8cd2 bbbb
00000130: ce4c aebd 5105 c3bd 159e 7a3d 9389 1ebd
00000140: 532d d63d 3bee 11be be61 70bc 4a4e 4d3d
00000150: ff17 953c 05dc d6bd c1f3 d7bd c8c2 bdbc
00000160: 5a7a 35bd 0045 c63d 71ff e2bd 6981 223d
00000170: 3005 57bc ab44 27bd 134f 483c 9939 3b3d
00000180: 52bc f83d c322 5abe d68a 5a3d 7267 bebd
00000190: b019 a2bd a4f6 25be f0d7 47bd 033c 19bd
000001a0: 5bb4 ed3d fc51 bf3d bb44 8abd 9887 e43d
000001b0: e849 bd3d 6554 78bc e382 48bd fc91 95bd
000001c0: 40af 183d a187 d83d 31b9 36be d073 bd3d
000001d0: c40e efbc c315 7ebc 023b 52be 47af 27be
000001e0: 50d8 64bd db72 37bd 835c b3bc 6d3d b2bd
000001f0: 3015 d1bd ab00 d7bc 5c39 a6bd c3f5 093e
00000200: 4aac f33d fb02 b2bc 59d8 31bd 0e4a 7139
00000210: 2dc9 db3d 27d9 36be 55ca 5cbd b936 22bd
00000220: ab63 d93d b50a 3fbd 36ed 063d f173 7dbd
00000230: fb0b 2dbc a9fb 583c 2d7d b13d 4d78 903e
00000240: 9780 203e 0546 603d 52a8 0d3d 191e aabd
00000250: f5e7 4dbd 556d febc 335c 813d c47f 1a3e
00000260: 335f 74bc 64cb a43d b8f6 a13d 1c5a d6bd
00000270: 8ee9 e2bd 2d4f 36bc 1c09 78bd 806f ea3c
00000280: 1483 84bd 7bad e93b 4e84 ad3b 5320 003c
00000290: dbfc 2fbd 45d2 353e 736c 57bd 930d 71bc
000002a0: 1291 35bd 4b1b cb3d 6c77 3abd 0c60 623c
000002b0: 84f9 bcbd 61e2 b73d 78cd b0bd 3c66 983c
000002c0: 281b 163c 95e2 85bd 372a 17be 019e 933d
000002d0: bf4b fdbd d133 2d3e 7e19 00bd bf47 6cbd
000002e0: 9199 97bd 3b97 32be b791 15be 761b 893d
000002f0: cd07 4fbd 42b2 27bd 385e a63d 3813 183e
00000300: fde3 63bd 5f6f d13d 1ad6 2bbd a65e a9bd
00000310: 6711 b8bc 6112 723d 5cd6 8c3d b42a 0a3d
00000320: 3820 c6bc 9cbd e33d fcab b5bc 3fae 1dbd
00000330: 6e50 46bd fcc0 663e a58d 97bc 152b 3a3e
00000340: 2114 b23d a20d 173c f78b d73d 8600 583d
00000350: 3100 0abe 9651 193d 240c 1e3d cc3e f9bd
00000360: 862d 99bb 57e7 e8bb 54b8 c33b 0ec8 69bd
00000370: 0014 ebbd 4ea8 d43d b690 ce3c fd7e b3bc
00000380: 4900 323d 71fe 653d 41de 993c 0262 f23c
00000390: eef5 3ebd f4b8 f8bd fbf6 babc 03c3 df3d
000003a0: 54a6 e8bd d5bb 493d 3d84 c63d 4ba8 2abd
000003b0: 54b6 6abd 8f5b 2abd 9fce 803d 75ba 72be
000003c0: 4530 833d e620 7a3e ff66 6a3e 3068 a23d
000003d0: f943 b23c 7841 fa3c e32a fc3c c2fc 4f3e
000003e0: d75c ddbd 4205 ecbd b659 0f3d b5bd 73ba
000003f0: f4a0 9a3d 1999 093d 4f53 393e 5ad7 96bc
-0.12698282 0.15521473 0.106620505 0.10833235 -0.13752478 0.108213626 -0.064434275 0.1058553
-0.04664511 0.13071156 0.17147818 -0.0021845384 0.06563573 -0.09961457 0.0555971 -0.11855892
-0.14395589 -0.03633312 -0.038086142 -0.22387399 -0.0539755 -0.06404898 -0.020657828 -0.018886337
0.012829891 0.20920515 -0.06851144 0.042500447 -0.14258489 0.10617512 0.13179153 0.017069096
-0.07216571 0.032829013 0.07973315 -0.004690523 -0.080107294 -0.09242403 -0.068628475 -0.024285238
-0.14657138 0.026953366 -0.0835344 0.100980856 0.072957076 0.08466051 -0.04662426 -0.060057685
-0.047112536 -0.13498002 -0.034907818 -0.15064509 0.07708882 0.122596376 -0.04328287 0.03711933
-0.055924878 0.056825344 0.064822815 0.034591116 0.1204866 -0.05594632 -0.05305288 -0.04758593
0.110526465 -0.22676162 -0.15214457 -0.029922426 0.088520914 0.07788596 0.19237985 -0.10742026
0.04050022 -0.13590363 -0.052643877 -0.0057318863 -0.08510743 -0.095224984 0.061185915 -0.03870542
0.10457864 -0.14251034 -0.014671741 0.05012349 0.018199919 -0.10491184 -0.10544539 -0.023164168
-0.044306137 0.096811295 -0.11083878 0.039674196 -0.013123795 -0.04083697 0.012225884 0.045709226
0.12145294 -0.21302323 0.05335506 -0.092970744 -0.07915056 -0.16207367 -0.04878992 -0.037410747
0.11606666 0.09341809 -0.067513905 0.11158675 0.09242612 -0.01515684 -0.04895295 -0.07303235
0.037276506 0.10572744 -0.17844082 0.09250605 -0.029181845 -0.015508118 -0.20530322 -0.16375457
-0.055870354 -0.04478727 -0.021894699 -0.08703122 -0.10209119 -0.026245436 -0.08116409 0.13472657
0.11898096 -0.021729937 -0.043419216 0.00023011139 0.107317306 -0.17856275 -0.053903896 -0.03960297
0.10614713 -0.04664107 0.032941066 -0.06187815 -0.010561938 0.013243594 0.086664535 0.28216782
0.15674053 0.054754276 0.03458435 -0.08306522 -0.05027004 -0.031057993 0.06316414 0.15087801
-0.014915275 0.08046606 0.07908386 -0.10466406 -0.11079703 -0.011127275 -0.060555562 0.02861762
-0.06470314 0.007131276 0.005295313 0.007820207 -0.04296575 0.17755993 -0.05259366 -0.014712709
-0.044327803 0.09917315 -0.045524046 0.013816845 -0.09227279 0.08978725 -0.0863294 0.018603437
0.009161748 -0.06537358 -0.14762197 0.07207871 -0.12367963 0.16914298 -0.03127431 -0.05768561
-0.07402337 -0.17440502 -0.14606367 0.06694691 -0.05054455 -0.040941484 0.081234396 0.14851081
-0.05563735 0.102263205 -0.04195223 -0.08270006 -0.022469236 0.05909956 0.06876823 0.03373213
-0.024185285 0.111201495 -0.022176735 -0.038496252 -0.048416547 0.22534555 -0.018500159 0.18180497
0.086952455 0.009219559 0.10524743 0.052734874 -0.13476636 0.037431322 0.038585797 -0.12170181
-0.0046746163 -0.007107656 0.0059729014 -0.057075553 -0.11478424 0.10383664 0.025215488 -0.021911139
0.043457303 0.056150857 0.018782737 0.02958775 -0.046621256 -0.12144652 -0.022822848 0.109258674
-0.113598496 0.049251396 0.09693191 -0.041664403 -0.057302788 -0.041591223 0.0628941 -0.2370394
0.06405691 0.24426612 0.22890852 0.079300284 0.021760928 0.030548796 0.030782169 0.20311263
-0.108087234 -0.1152444 0.034997664 -0.0009297983 0.075502306 0.03359327 0.18098186 -0.018413235

network_body._body_endoder.seq_layers.2.bias f4 [128]
00000000: 0931 3bbc ebe5 b9bb 35e0 95ba 0f92 c3bb
00000010: 8bd0 35bb 9abb 0b3c c275 a1bb c7bb f5bb
00000020: c630 693b aaf0 0ebb 6c43 96bb 1e2e a7bb
00000030: 1e19 94bb 0080 0bbc 4977 87bb 1d23 e23a
00000040: c0d6 b03a 8523 923b b9f1 bbbb 3be9 263c
00000050: 94a0 09bc b51e 03bc 1f54 3e3c ab87 bbbb
00000060: 611d d53b 78cb 22bc 8ae1 94bb 8b99 743b
00000070: fe6f 0e3c 3503 c83a 76a1 5a3b 7a50 643c
00000080: 09e2 13bc 6485 06bc ad77 11bb 8ca1 663a
00000090: e7f9 393a c0b7 c3bb 69bc 03bb 708c 5d3b
000000a0: 930f 09bb c40e 45bc bb6c 0c3b e9ac b1ba
000000b0: 9e78 cd3b c45b a13a 55a2 07bb bc84 9fb9
000000c0: 9441 463b 3d1f 19bb 1b8d 68b9 b1ac 9a3c
000000d0: 491c a1bb 2bd3 ccbb 2430 e9ba 67a8 a838
000000e0: 2dea b83b 7732 df3b 4de2 903b 173f 8eb9
000000f0: b12a 843b e1d5 5dbb 59b6 f03b a2e6 44bb
00000100: c145 2bbc 2121 dc3b a181 adbb 554d a83b
00000110: 9b8c b6ba 9acf 8dbb e6f5 0b3c 8567 aebb
00000120: 4cd1 b63b e88b 4abb 32cd 53b9 5345 f33b
00000130: b211 8c3b a6d7 11bc 9c5c 09bc ed7b deba
00000140: 3944 043b fd93 fcbb 2b23 833b c070 783a
00000150: 468b 19bb dc9c 30bc 0d16 1cbb 0791 b93b
00000160: c68f 133b 11fd 72ba 69f1 983a 1d34 a63b
00000170: ff81 883b b8bc 253c 9b65 be3a 4d87 24bb
00000180: 124b 293c 8a6b 81bb 0d51 6b3b 407e 25bc
00000190: 7534 daba 0797 39bb 02d1 acbb 6bc6 90bb
000001a0: e42f 823b aaea c93b e66c 95bc 64c0 13bc
000001b0: ba48 85bb b3c3 3cbb 51dd 063c 76db 053b
000001c0: 81f9 1c3b 0514 3bbb d9e1 3dbb 1c9f bdb8
000001d0: 8f48 1a3b f28d 8bbb 1564 0c3b 6090 b93a
000001e0: f01e 3abc 1e2a 533b 572f dc3b 6a05 f5b9
000001f0: 08a5 273b e2fc c2bb 1601 fe3a 9288 1cbc
-0.011425265 -0.0056731603 -0.0011434617 -0.0059683393 -0.002774271 0.008528614 -0.004927368 -0.0074991914
0.003558205 -0.0021810927 -0.004585674 -0.005101933 -0.0045195958 -0.008514404 -0.004134093 0.0017252896
0.0013491735 0.0044598007 -0.0057356027 0.010187442 -0.008400101 -0.008002927 0.011616736 -0.00572296
0.0065037464 -0.009936206 -0.004543488 0.0037322964 0.008693693 0.0015259745 0.0033360398 0.013935203
-0.009026059 -0.008210514 -0.0022196576 0.0008797876 0.00070944283 -0.0059728324 -0.0020101315 0.003380563
-0.0020913824 -0.012027446 0.0021427113 -0.001355556 0.006270482 0.0012310673 -0.0020696123 -0.00030425738
0.003025149 -0.0023364567 -0.0002217781 0.018881174 -0.004916702 -0.006250759 -0.0017790836 8.042232e-05
0.0056431503 0.006811436 0.0044215084 -0.00027131356 0.0040334095 -0.0033849406 0.0073459563 -0.0030044694
-0.010453642 0.0067178165 -0.005294994 0.005136172 -0.0013927402 -0.0043277266 0.0085425135 -0.005322399
0.0055791494 -0.0030906145 -0.0002019897 0.0074240356 0.0042745704 -0.008901512 -0.008383896 -0.0016974189
0.0020182265 -0.0077080713 0.004001995 0.000947725 -0.002342896 -0.010779586 -0.0023816854 0.0056630406
0.0022516116 -0.0009269277 0.0011668626 0.0050721304 0.0041658874 0.010115795 0.001452613 -0.002510506
0.01033284 -0.0039495872 0.0035906464 -0.010100901 -0.0016647713 -0.002831878 -0.005273939 -0.0044181845
0.003972994 0.0061620073 -0.018240403 -0.0090180375 -0.0040675076 -0.002880317 0.008231477 0.0020424998
0.0023952427 -0.0028545868 -0.0028973727 -9.041859e-05 0.0023541783 -0.0042588646 0.0021421958 0.0014157407
-0.011359915 0.0032221149 0.0067195105 -0.00046734075 0.0025580544 -0.005950556 0.0019378986 -0.009554045

action_model._continuous_distribution.log_sigma f4 [1, 3]
00000000: 1b58 5e3d 0b27 0d3d 0c9e 8c3c
0.054283243 0.034461062 0.017165206

action_model._continuous_distribution.mu.weight f4 [3, 128]
00000000: 87d2 103b 30c4 2c3d c585 093d f9e5 65bb
00000010: 67fc 92bb e920 283c 6bd3 4fbc b4e5 1ebd
00000020: 7bd7 83bc 3c42 f6bc ce1d dd3a fb39 263d
00000030: 45dd 03bc 1d7d dcbb a645 133c 742e 3f3c
00000040: 1a53 293d c464 f9b9 a249 88b9 d975 27bc
00000050: 9823 ef3c e30f c43b 1555 813c 6906 b93c
00000060: 71c6 92bc baae 4f3b 5cef 173c a199 72bc
00000070: e676 163c ec11 423c 5d39 ad3c a2bf 25b9
00000080: 6966 2fbc 8c98 bd3c 97fd 733c 6c84 ba3b
00000090: 5b0a 13bc c3f4 a63c 97db 2cbd 9b5f 3bbb
000000a0: ba73 a53b 3f2b c5bb cf9f a5bc d5c3 b13c
000000b0: b6dd bb3c 1cd7 cdbb 5fdd 6e3b 9cc5 a5bb
000000c0: f2cb 9d3c d2be 603c e072 263c 325a 503c
000000d0: 8487 85bc e08d 03bc 34de a03b 5ca4 91bc
000000e0: 1d1e c8bc 527e 273c 66cd a43c ee8f fcbb
000000f0: edf9 1f3b 5552 a13b 14df 063d aeb5 82bc
00000100: 4e2a a0bc 5699 1f3d b6d1 0d3b 6c92 a3b9
00000110: 750f 9fbb b701 c6b9 8bb0 713d 481e cabb
00000120: f921 01bd 9b5c d23c bf84 82bc 9f37 3b3b
00000130: e29d 9d3c da30 5ebc 547d a03c 4c4b dfbb
00000140: dcf7 383c 9815 86bb bb46 d9bc 4369 783c
00000150: 125d 8cbb ddd3 82bb b658 72bc df11 bcbc
00000160: f334 83bb 3819 743c b713 6fbc 49a4 4abc
00000170: 4574 a53c 5aed 293b 6d5e 43bc 5f00 c4bc
00000180: 3860 9b3c 004f a03c f174 3b3c bc26 a83a
00000190: f0f7 8bbc d03a 193d 105d 95ba 28e8 7ebc
000001a0: 3378 223d 1670 0cbc fd15 61bc 1308 0c3d
000001b0: 3201 16bd 2c48 8d3d 5a82 febc 8ff7 b6bc
000001c0: 8621 b5bc 5582 893c 8b89 09bd feca efbb
000001d0: c130 cebc 3c29 803b 32dd 08bd 3d91 9f3c
000001e0: c494 49b9 ab5f afba 8b17 a2b9 1f6f 2abd
000001f0: 2052 a53b 1221 96bb 4539 96bb e20d 05bc
00000200: 1822 b0bb f85c 0a3d c10c 97bc 53f4 4fba
00000210: 3525 b0b9 1b63 d6bc 61cb ba3b 73b7 093c
00000220: c958 933c 287c 3eba e385 22bc ff22 123c
00000230: 0f79 4fba 3b7e 11bc 5e6b 2c3c 09b6 a93b
00000240: a674 b63c 6dbf 3a3b eddf a7bc 6cd3 8dbc
00000250: aabb e13c 8ef8 1fbd 93a5 49bc 1928 25bc
00000260: bc4b cf3b 5710 c2bc 22e8 153c 117f 07bc
00000270: 837d 29bc 74b0 f9bb a2ee 2cbc 591f d33c
00000280: adf2 893c 24d4 a93c 425f 92ba cb1f 0b3c
00000290: efdb 5e3a 5a1a 0ebc a71c 023b 527b 93bb
000002a0: 2de0 e6bb ae9f db3c 695c 87bc b65b 4039
000002b0: d55d a7bc 0b44 80bb a1e8 ffbc 9731 d73a
000002c0: 8036 61bc 3ccd 253c ed58 e2bc 9484 ebbc
000002d0: ac75 403c 7722 82bc 64c0 663c daed e5bb
000002e0: c8da 6abc 1e65 17bc 653f 923b f959 0ebc
000002f0: 4925 62bc 368c 00bc 2b9a d2bc 3f92 79bc
00000300: 36f9 bd3c e53e 63bc 6196 063d 0bec bfbc
00000310: 8960 153d 7f20 ecba 4024 0cbd 6997 3fbc
00000320: 6c32 0d3d a2c9 cc3b 6346 55bc 9896 24bb
00000330: 0ee3 703c 76a5 163d cbfa 193c 17c7 fc3b
00000340: 62ac ba3c 64a5 053c b106 67bc 25ae debb
00000350: 0105 7e3b 92c7 d93b 8250 ca3b f64f f53c
00000360: a23e fdb9 59bf cc3a 6afb 9bbb 8ffd 80bc
00000370: bdc6 25bc 2126 b5bc f3bc 103b e7bd 5d3c
00000380: 80f3 3a3c f688 adbc 9460 aa3c d904 42bc
00000390: 0472 a73b 6b2c 6cba 7412 d3bb 60e6 0ebc
000003a0: e528 79bc 4006 8c3c d340 663c 7d7c ac3c
000003b0: d7df 2d3c 7e66 8c3c d84c c7bc 2a91 14bb
000003c0: cc9d c63c a52e a0bc ea0b d53a c1f9 11bc
000003d0: 53d8 97bc 42d1 b1bc 47cb e83c 2bf0 8a3c
000003e0: 72b7 283b 1287 1c3c 8413 073c 42c2 3eba
000003f0: a2aa bb3c 10f2 72bb d05a a6bc 9716 ee3c
0.002209814 0.042179286 0.03357484 -0.0035079701 -0.004485655 0.010261753 -0.012684683 -0.03879328
-0.01609396 -0.03006088 0.0016869844 0.04058264 -0.00804836 -0.006728782 0.008988773 0.01166879
0.041339017 -0.00047568057 -0.00025994802 -0.010220968 0.029191777 0.005983339 0.01578764 0.022586064
-0.01791689 0.0031689839 0.009273376 -0.014807136 0.009183621 0.011845093 0.021145517 -0.00015807015
-0.010705569 0.02314403 0.0148920035 0.0056920554 -0.008974637 0.020380383 -0.042201605 -0.002859092
0.005049196 -0.006017118 -0.020217804 0.021699825 0.022932868 -0.0062817466 0.0036447865 -0.0050589573
0.019262288 0.01371737 0.010159224 0.012716817 -0.01629997 -0.008029431 0.004909301 -0.017778568
-0.024428422 0.010222988 0.020117473 -0.0077075874 0.0024410442 0.004923145 0.032927588 -0.015955772
-0.019551422 0.038964592 0.002163989 -0.00031198876 -0.0048541375 -0.0003776678 0.059006255 -0.0061681606
-0.03152654 0.025678923 -0.015932439 0.0028567088 0.019240323 -0.013561452 0.019591011 -0.006814396
0.011289563 -0.0040919296 -0.026522985 0.015161815 -0.004283556 -0.003992541 -0.014791658 -0.02295774
-0.004004115 0.014898591 -0.014592103 -0.01236827 0.020197043 0.0025928826 -0.011924368 -0.023925958
0.01896678 0.01956892 0.011441455 0.0012828927 -0.017086 0.037409604 -0.0011395533 -0.01555828
0.039665412 -0.008571645 -0.013738153 0.034187388 -0.036622234 0.06898531 -0.031068016 -0.022334842
-0.022110712 0.01678578 -0.033578437 -0.0073178997 -0.025169732 0.0039111655 -0.033414073 0.019478435
-0.00019224273 -0.0013379952 -0.0003091659 -0.04160988 0.0050451905 -0.004581579 -0.004584464 -0.008120986
-0.005375158 0.03378007 -0.018438699 -0.00079328305 -0.00033597057 -0.026170304 0.005700514 0.008405554
0.017986672 -0.00072664255 -0.009919616 0.0089194765 -0.00079144625 -0.008880193 0.010523645 0.005179171
0.02227242 0.0028495446 -0.020492518 -0.017312728 0.027555306 -0.0390554 -0.012307542 -0.010080361
0.006326167 -0.023689432 0.009149583 -0.008270041 -0.010344866 -0.007619912 -0.010554941 0.025771784
0.01683935 0.02073104 -0.0011167305 0.008491467 0.00085014006 -0.008673275 0.0019853504 -0.004500785
-0.007045767 0.02680954 -0.016523557 0.00018344712 -0.020430485 -0.0039143614 -0.031238856 0.0016417977
-0.013745904 0.0101197325 -0.027630294 -0.028749742 0.011746805 -0.015885575 0.014083955 -0.0070168795
-0.014334388 -0.009240417 0.0044631236 -0.008688443 -0.013802835 -0.007845929 -0.025708279 -0.015232622
0.023190122 -0.013869976 0.032858256 -0.023427984 0.036469016 -0.0018015056 -0.03421426 -0.011693814
0.034471914 0.0062496224 -0.01301727 -0.0025114175 0.014702572 0.03677889 0.009398173 0.007714163
0.022787277 0.008157108 -0.014100716 -0.006795662 0.0038760307 0.006646105 0.006174148 0.029945355
-0.00048302585 0.0015620991 -0.0047601955 -0.015745906 -0.010118184 -0.022112908 0.0022085279 0.013534046
0.011410594 -0.021183472 0.020798005 -0.011841976 0.0051100273 -0.00090093043 -0.006441409 -0.008721918
-0.015207504 0.017092824 0.014053541 0.021055454 0.01061245 0.017138716 -0.024328634 -0.0022669532
0.024245165 -0.019553492 0.0016254161 -0.008909644 -0.018535769 -0.021706227 0.028417243 0.016960224
0.0025744108 0.009553688 0.008244399 -0.00072768715 0.022908513 -0.003707055 -0.020306975 0.029063506

action_model._continuous_distribution.mu.bias f4 [3]
00000000: 34cc ea3a a857 d6bb ae48 433b
0.001791364 -0.006541211 0.002979796

exp_avg f4 [128, 6]
00000000: 3ea7 1eba ac0a 5d38 c171 4e39 d289 313a
00000010: 01c8 a538 3a71 483a 7593 16ba effa 4b38
00000020: feb1 da39 1c15 233a 38fc 9838 d093 793a
00000030: 8965 59b9 eef7 7336 1192 9b38 ec20 3539
00000040: f6f9 b636 fb7d 8e39 bc2a 97b8 9c0e 62b6
00000050: 5005 41b9 a824 d337 c88a a9b6 de8d 8eb6
00000060: 48e2 98b8 dd95 5a38 8869 9b39 fc8d bd39
00000070: 6ef0 a338 717b 6f39 c0fb a338 d040 3c36
00000080: d052 2d39 d0ce 8db7 9030 8d36 5077 a836
00000090: cc64 b1b8 ba70 9436 2961 6e38 10a8 f538
000000a0: 07a9 de36 264e 5338 67dc 5939 2e07 0b37
000000b0: e2f8 e439 0607 69b8 d68a 5037 8afd 2e37
000000c0: 3099 08b9 e7bf 59b6 9ebf 4db9 48c1 db37
000000d0: ef4f a3b6 aea3 64b6 7201 e435 568e 6533
000000e0: d4d1 5936 a8b6 5bb5 d22a ac33 9629 cd32
000000f0: f84f b638 c046 6f36 7012 4c39 e02f d6b7
00000100: d072 b336 b88b 9c36 a063 cab9 a444 5cb7
00000110: a01f 3bba 88c8 cd38 3c33 a5b7 e8d6 8ab7
00000120: dcb7 86b9 4098 32b7 a094 28ba 28d1 a638
00000130: 58f2 85b7 783c 61b7 0a38 cc39 24ff f6b7
00000140: e082 0eb9 9bec f8b9 503f 39b8 6673 91b9
00000150: 201f 8b38 b042 2f36 2025 0139 40b9 abb7
00000160: 0071 8336 e0db 5336 1816 acb9 3015 4cb7
00000170: 88d7 3eba 789e be38 d00f 99b7 b8b2 80b7
00000180: 81d2 0ab6 1455 9fb3 1d5e 85b6 1b9c 8e35
00000190: baff eeb3 2afb b833 6ac4 ba39 c098 32b8
000001a0: 6a1c dab8 a455 1bba 8cf2 85b8 9240 03b9
000001b0: 08b9 593b 175b 82b9 4649 33ba 0282 7bbb
000001c0: a088 c3b9 96bb 65bb b0f0 acb7 103d 69b6
000001d0: 38a5 92b8 54a5 dcb8 d8ed aeb6 6215 b639
000001e0: f68c 083a 5309 59b8 6c69 07ba a7de 27ba
000001f0: 0cc7 a2b8 8a85 fab9 48a1 aeb9 c8b8 4f37
00000200: f00b 60b9 c6ae 8939 94ca 9b37 50b2 c339
00000210: c00d 24b7 6a23 9cb7 de8e 0939 b609 d8b8
00000220: 2c35 eab7 aabf b4b8 12f7 8337 5115 98b5
00000230: cc46 7e37 4338 56b7 f11f e4b5 3415 27b7
00000240: 0054 4fb9 6007 77b6 8099 85b9 e090 3538
00000250: a043 b9b6 f022 6f37 f007 1aba cb86 df37
00000260: ea3b cd39 4256 283a 24a5 2738 3195 0b3a
00000270: f26c 9233 e69a 36b2 fcb2 13b3 0ce0 b9b3
00000280: 29f4 88b2 e2b1 9eb3 b08f 0cb9 206f 57b6
00000290: 0099 3eb9 80ab dd37 8093 a1b6 401a 5cb6
000002a0: 4d2c 12b6 7ce0 a1b3 b822 59b6 d073 f435
000002b0: c8cf f2b3 1052 0f35 aaa0 a3b8 7ccf 3cb6
000002c0: 1465 24b9 7c5a b037 5e9b 8db6 f421 6eb6
000002d0: 9fcd eeb9 7b5f 8837 7efb 1138 84ec 133a
000002e0: 2b8f cc37 d472 9539 f3d4 9938 d009 13b6
000002f0: bac9 2db7 60ab a1b8 ad8e 5cb6 ab1a adb8
00000300: d00c ab37 e040 7735 04c2 1639 1ab5 0db8
00000310: 8073 b935 50e4 18b6 9038 a539 77d1 b5b7
00000320: 9476 9837 ee73 f1b9 185d 08b8 ac56 4cb9
00000330: b609 8cb9 8c78 2838 b8bc 043a d2df 1e3a
00000340: dab4 7c38 0523 423a 859c 8639 749f c236
00000350: 8ce9 043a de95 c3b8 74f8 1137 c611 18b7
00000360: 7826 12b4 d949 e832 464f 9333 34d5 6a34
00000370: 6737 2e33 1ec0 4634 723b 29b9 509f 1337
00000380: 3a37 8839 19ac 3839 296f 5d37 5d53 6038
00000390: e41c 8ab4 fe0d 3e33 295b 6433 b035 cb34
000003a0: 7e8a 8e33 f680 a234 383f 7638 c87e 8c36
000003b0: 9851 1039 20b6 d6b6 20be d236 560a 7637
000003c0: 7696 6b3a ee5a 31b8 cc8f 7fb9 6de3 85ba
000003d0: 3604 85b8 0c16 1dba 19c3 b5b9 f4e8 3fb7
000003e0: 53d4 26ba 960b b138 70ee 8fb7 a074 78b7
000003f0: 281c 653a f7c9 d7b8 dec0 8aba 5a36 afba
-0.00060521427 5.2700445e-05 0.00019688068 0.0006772551 7.905067e-05 0.00076462666 -0.00057440187 4.863267e-05
0.00041712815 0.0006221102 7.294904e-05 0.0009520622 -0.00020732557 3.6354136e-06 7.418183e-05 0.0001727377
5.453122e-06 0.00027178213 -7.208201e-05 -3.3685128e-06 -0.00018407893 2.517023e-05 -5.0527487e-06 -4.2484453e-06
-7.290073e-05 5.211482e-05 0.0002964253 0.00036154676 7.817229e-05 0.00022838802 7.819338e-05 2.805191e-06
0.00016529416 -1.6904814e-05 4.207781e-06 5.02068e-06 -8.4587926e-05 4.423867e-06 5.683411e-05 0.000117138145
6.635793e-06 5.03791e-05 0.00020776839 8.286717e-06 0.0004367298 -5.555807e-05 1.2430091e-05 1.043024e-05
-0.00013027037 -3.2447222e-06 -0.00019621706 2.6196838e-05 -4.867084e-06 -3.4069922e-06 1.6987744e-06 5.344767e-08
3.2457656e-06 -8.184966e-07 8.017163e-08 2.3884052e-08 8.6933316e-05 3.5654957e-06 0.00019461825 -2.5533081e-05
5.3479816e-06 4.6654277e-06 -0.0003860267 -1.31290035e-05 -0.00071381964 9.8125136e-05 -1.969339e-05 -1.6550955e-05
-0.00025695458 -1.0645075e-05 -0.0006430838 7.954455e-05 -1.5967686e-05 -1.3425124e-05 0.00038951664 -2.9444294e-05
-0.0001359093 -0.0004747853 -4.41664e-05 -0.00027742534 6.633834e-05 2.611585e-06 0.00012316229 -2.0471052e-05
3.917259e-06 3.1569434e-06 -0.00032822858 -1.2164281e-05 -0.00072800415 9.089423e-05 -1.8246385e-05 -1.5342011e-05
-2.0686132e-06 -7.41949e-08 -3.974665e-06 1.0625257e-06 -1.1129255e-07 8.613854e-08 0.00035623024 -4.2580767e-05
-0.000104003426 -0.0005925542 -6.387112e-05 -0.00012517188 0.003322186 -0.000248634 -0.00068392267 -0.0038377051
-0.00037295092 -0.0035054437 -2.0616077e-05 -3.4755249e-06 -6.992597e-05 -0.00010521212 -5.2132928e-06 0.00034729677
0.0005208993 -5.1745516e-05 -0.00051655504 -0.0006403722 -7.761837e-05 -0.0004778321 -0.0003330803 1.2381184e-05
-0.00021366752 0.00026260893 1.8571773e-05 0.00037326152 -9.778363e-06 -1.861314e-05 0.0001311856 -0.000103014914
-2.7919734e-05 -8.618769e-05 1.5731468e-05 -1.1331086e-06 1.51560635e-05 -1.2768493e-05 -1.699662e-06 -9.958912e-06
-0.00019772351 -3.681016e-06 -0.00025482103 4.3288688e-05 -5.5213022e-06 1.4253645e-05 -0.00058758166 2.664644e-05
0.00039145286 0.0006421545 3.9969702e-05 0.00053246605 6.818472e-08 -1.0629014e-08 -3.438889e-08 -8.655488e-08
-1.5943515e-08 -7.389805e-08 -0.00013404968 -3.210218e-06 -0.00018176809 2.6425114e-05 -4.815345e-06 -3.2797834e-06
-2.1781482e-06 -7.53798e-08 -3.2355729e-06 1.8213123e-06 -1.1306798e-07 5.339107e-07 -7.802372e-05 -2.8134955e-06
-0.00015677913 2.102297e-05 -4.2202146e-06 -3.5484527e-06 -0.00045548097 1.6256925e-05 3.4804914e-05 0.00056428486
2.4385363e-05 0.00028505048 7.3352734e-05 -2.1910419e-06 -1.0358572e-05 -7.708999e-05 -3.2865603e-06 -8.25425e-05
2.0390755e-05 9.2109076e-07 0.00014377391 -3.3785684e-05 1.3817189e-06 -2.278266e-06 0.00031513395 -2.1674421e-05
1.817503e-05 -0.00046053476 -3.2511627e-05 -0.00019487244 -0.00026710116 4.016659e-05 0.00050635217 0.00060605735
6.0249913e-05 0.0007405731 0.00025675088 5.8002133e-06 0.00050702016 -9.3262395e-05 8.700521e-06 -9.064044e-06
-1.3611304e-07 2.7041937e-08 6.859641e-08 2.1870511e-07 4.056292e-08 1.8510079e-07 -0.00016139241 8.798976e-06
0.00025981088 0.00017611719 1.3198508e-05 5.34834e-05 -2.5725524e-07 4.4250548e-08 5.3168296e-08 3.785076e-07
6.637582e-08 3.0268683e-07 5.8709848e-05 4.1870844e-06 0.00013763306 -6.398899e-06 6.280621e-06 1.4665149e-05
0.0008986959 -4.2284773e-05 -0.00024372264 -0.0010214873 -6.3427186e-05 -0.000599236 -0.0003466837 -1.1438726e-05
-0.0006364036 8.442176e-05 -1.715796e-05 -1.4809106e-05 0.00087398523 -0.00010289618 -0.0010586043 -0.0013367638

exp_avg_sq f4 [128, 6]
00000000: c165 9537 67ba a333 348e 1738 c2d2 3d38
00000010: cb31 3834 175c 0138 940f a63a 9b40 e233
00000020: 97e1 b83a fc3c 7e38 b188 7e34 f278 0d38
00000030: 9a3d ec38 14ff bf32 f8a8 fc38 9526 8437
00000040: edfe 5733 c051 8637 76d6 c836 4f10 b732
00000050: 08d4 ef37 8190 d236 55f2 4d33 64ab 0a37
00000060: 999d 733a 2d71 f033 92cf 893a b82a 3638
00000070: a33f 8734 a990 0838 424f fe3a cacd c433
00000080: 7f3c 133b 0138 8538 7e67 5d34 fdb1 6d38
00000090: b61c 2237 6a07 a732 6e0a 4e37 80e7 3437
000000a0: 63e8 3b33 4c57 7e37 84b7 6e37 a056 9133
000000b0: 8c46 9d38 03a7 0938 8981 2334 8dd6 ca37
000000c0: 7f6e db37 f9b6 b033 d4e3 ad38 f1ed 2238
000000d0: e7cd 4634 2af3 3738 d700 bb37 3862 4e33
000000e0: 5e52 5638 e252 9937 632e e833 7d3a fb37
000000f0: e4d1 9837 7839 9833 f2b6 b438 d153 4537
00000100: a940 2b34 936c ce37 4806 3a38 7adf 3934
00000110: c1b6 6439 92ff 1338 681b d134 c935 1a38
00000120: 81c4 cf37 9590 cb33 cc12 0039 4adc 5037
00000130: 9202 6534 5ff3 a237 6362 bc37 1a46 5833
00000140: 1ff2 ae37 8f5a 0c38 d94e f333 3157 b437
00000150: 9cc8 9c37 03a2 3c33 fc7d 7138 9563 6937
00000160: 4a36 d433 c7c8 b737 d0d8 a73b e6b3 8c34
00000170: f220 bf3b da6e 1239 604a 1e35 10d7 ce38
00000180: 8194 8337 befd 4333 184c 4838 df93 b137
00000190: 3e7d dc33 56f3 fe37 797e 5138 7197 f333
000001a0: a1f6 0c38 c374 9838 2d05 8934 fe1e 0f38
000001b0: 91c5 2c3b b525 e634 94db 353b e4f1 6c39
000001c0: 2a75 8135 075a 0539 f1b6 8e3a 00a2 2734
000001d0: aad7 a93a c16a 5138 5596 bc34 7e3d 0938
000001e0: 9f4b 103a c6fc 0334 1036 1e3a 34e1 8838
000001f0: 687c 9434 629f b537 ab7a 443a 351f a233
00000200: 4311 673a 3c2f db37 1863 3634 d6d4 8337
00000210: 19f0 8f3a 5a1c 8f33 145e 9d3a e656 2a38
00000220: d3ff 2034 8731 9b37 f430 ee3a aa80 9f33
00000230: 3252 083b 7701 4538 c570 3334 8621 d837
00000240: ec54 3638 db6d 0f34 60d1 3739 6012 ce37
00000250: 995b a134 0f4b d537 a721 4938 415f dd33
00000260: e11c f737 c921 ab38 0e0b 7934 07c4 0038
00000270: 3969 7c3b 700f f233 5a49 8b3b 47d7 dd38
00000280: a128 8834 1223 8838 c1a1 433a 7533 3b34
00000290: 20f7 803a 3680 2d38 ef99 d234 2493 8d38
000002a0: 7665 0f37 77d1 5532 bfd7 5337 2e0f e836
000002b0: a58b f032 710f 6137 995a 8737 f343 a833
000002c0: 17cd a338 2914 df37 434c 3d34 b685 2a38
000002d0: 63cf 3a37 516b ed32 d3c8 5f37 09b8 7d37
000002e0: 638c 8533 e1a4 5337 6430 a437 b28d 2633
000002f0: 7cc5 0238 44db 8b37 6e5f bb33 0821 eb37
00000300: 675d 873a 5972 0234 6d00 a63a e2c5 2938
00000310: 9fc0 9234 8d4b 0e38 ee20 5f3a bb0e 6933
00000320: 0b81 693a 551f 1738 5118 0334 bd3e 0738
00000330: ce9e 9338 bc9c 7634 149f 2c39 371a 7c38
00000340: 31b8 0a35 e750 7938 8a38 4d3b 8a00 4634
00000350: 85e0 713b ceca e738 a5c0 de34 dfa0 8138
00000360: c4c0 a036 a148 2a32 efe9 fb36 81b6 e836
00000370: b791 bf32 0b8e 0237 b0a2 c837 2dbb e533
00000380: 7b8a 7d38 70f3 1438 5139 8134 3cc8 1438
00000390: aa7d 4c37 dde9 f132 639d fe37 0e57 6737
000003a0: 8a13 8833 7ab7 bb37 8630 2737 27dc 1c33
000003b0: fbd8 4238 c343 bc36 a977 b033 2b47 0f37
000003c0: e051 bb39 adbf c033 8ecc c339 a8dc 7038
000003d0: 8ad7 5834 79d1 0038 8a25 3538 b896 5734
000003e0: 7f2b 8039 d3da 3d38 a289 f234 9d12 8738
000003f0: aa8c 4539 4520 ca34 022e a139 6ace 2b39
1.7809567e-05 7.6241854e-08 3.6133642e-05 4.5257395e-05 1.715445e-07 3.0841762e-05 0.0012669438 1.0535697e-07
0.0014105317 6.0615115e-05 2.3705321e-07 3.372966e-05 0.00011264831 2.2351323e-08 0.00012047769 1.5753592e-05
5.0290442e-08 1.6012113e-05 5.985431e-06 2.131142e-08 2.8589755e-05 6.27531e-06 4.795068e-08 8.265346e-06
0.0009293198 1.11964575e-07 0.0010514131 4.3431966e-05 2.519201e-07 3.2559652e-05 0.0019402283 9.164394e-08
0.0022466478 6.352366e-05 2.0619879e-07 5.6670968e-05 9.662637e-06 1.944473e-08 1.2280985e-05 1.0782736e-05
4.3750685e-08 1.5159905e-05 1.42286335e-05 6.767846e-08 7.499484e-05 3.2818887e-05 1.5227683e-07 2.4180184e-05
2.6158288e-05 8.228921e-08 8.291719e-05 3.884541e-05 1.8515094e-07 4.3857064e-05 2.2292528e-05 4.8052442e-08
5.1098286e-05 1.8277617e-05 1.08117796e-07 2.9948767e-05 1.821755e-05 7.088505e-08 8.617145e-05 1.176163e-05
1.5949139e-07 2.4607672e-05 4.4351706e-05 1.7310768e-07 0.00021811856 3.528555e-05 3.8949224e-07 3.6766553e-05
2.4767827e-05 9.4792235e-08 0.00012214034 1.2449056e-05 2.1328222e-07 1.9425233e-05 2.2457161e-05 5.0355176e-08
2.0855163e-05 3.346294e-05 1.13299116e-07 2.1498274e-05 1.8690065e-05 4.391951e-08 5.757621e-05 1.3911068e-05
9.8818944e-08 2.1908794e-05 0.0051222816 2.6207925e-07 0.005832785 0.0001396494 5.8967817e-07 9.862904e-05
1.568557e-05 4.5632753e-08 4.7754584e-05 2.1168902e-05 1.026733e-07 3.0392472e-05 4.994727e-05 1.1343116e-07
3.3608292e-05 7.2696734e-05 2.5522004e-07 3.412272e-05 0.0026362876 4.2868274e-07 0.0027749287 0.00022596825
9.645348e-07 0.00012717406 0.0010888261 1.5612022e-07 0.001295795 4.9928905e-05 3.512711e-07 3.2720614e-05
0.00055044325 1.2292284e-07 0.00060352776 6.526933e-05 2.7657666e-07 2.16511e-05 0.00074950856 7.5493894e-08
0.0008814523 2.612883e-05 1.6986121e-07 1.5715526e-05 0.0010981589 6.6641135e-08 0.0012006187 4.061209e-05
1.499423e-07 1.8500503e-05 0.0018172548 7.427418e-08 0.0020800945 4.6969824e-05 1.67117e-07 2.5764817e-05
4.347127e-05 1.3357878e-07 0.00017530238 2.456567e-05 3.0055233e-07 2.542653e-05 4.7953476e-05 1.0308441e-07
2.9458142e-05 8.1602084e-05 2.3193954e-07 3.0700143e-05 0.0038514866 1.1271811e-07 0.0042506875 0.000105782
2.5361535e-07 6.491518e-05 0.0007462763 1.7434452e-07 0.0009839274 4.136582e-05 3.922755e-07 6.750811e-05
8.547087e-06 1.2445859e-08 1.2626812e-05 6.915906e-06 2.800318e-08 1.341464e-05 1.6135442e-05 7.8354695e-08
7.810647e-05 2.659306e-05 1.762974e-07 4.0655686e-05 1.113475e-05 2.7639233e-08 1.3338594e-05 1.5122824e-05
6.218831e-08 1.2614969e-05 1.9572857e-05 3.8778758e-08 3.1178337e-05 1.6672195e-05 8.7252246e-08 2.8029564e-05
0.0010327519 1.2148793e-07 0.0012664922 4.0477033e-05 2.733477e-07 3.39258e-05 0.0008511682 5.4262937e-08
0.00089074735 3.6030386e-05 1.2209172e-07 3.2244938e-05 7.039086e-05 2.2967555e-07 0.0001646246 6.0105896e-05
5.167704e-07 5.9441572e-05 0.0031314217 1.8440383e-07 0.0036907506 0.00011052714 4.149089e-07 6.181164e-05
4.7908125e-06 9.911816e-09 7.5076164e-06 6.935385e-06 2.230159e-08 7.781676e-06 2.3917615e-05 1.06976906e-07
6.044887e-05 3.551267e-05 2.4069826e-07 3.5472433e-05 1.2188606e-05 2.8162441e-08 3.0352448e-05 1.3788942e-05
6.3365476e-08 2.2377575e-05 9.965273e-06 3.6521808e-08 4.6455283e-05 5.610725e-06 8.217405e-08 8.540034e-06
0.0003572842 8.975562e-08 0.00037345703 5.742596e-05 2.019498e-07 3.0712665e-05 4.3188724e-05 2.0078267e-07
0.0002444647 4.5264907e-05 4.5176154e-07 6.4407686e-05 0.00018839785 3.764891e-07 0.00030742591 0.00016384726

exp_avg f4 [128]
00000000: ae0a dd37 f1fa cb37 e0f7 f335 7c0e e2b5
00000010: e995 da37 2041 bc35 b770 1436 3007 8b36
00000020: 46c0 d9b5 728e e532 2045 ef35 bc44 dcb6
00000030: 5898 b2b6 1eff 76b7 f041 af35 2815 ccb6
00000040: 1055 1fb3 ba98 b2b7 185b 02b9 d43c e9b5
00000050: 5109 d9b7 98b8 cf36 6c23 1cb7 4e15 18b5
00000060: c005 f7b5 d486 5f37 e09a b6b1 2070 d7b5
00000070: 1ce0 21b3 40cf bcb5 785f 0837 d209 93b5
00000080: 6040 f734 72d1 35b7 8278 a837 dc9f 4236
00000090: e049 6832 629f 9336 000e be32 bc7e 0c36
000000a0: f25a b1b7 abe8 bfb6 fdc9 57b8 4215 4cb7
000000b0: b21d 55b7 3034 13b7 64e8 4637 f524 3bb7
000000c0: a3fe a8b3 22cb 5737 8021 9133 c089 b134
000000d0: 4005 4ab3 b21e d5b7 205a 69b4 38f3 2936
000000e0: e8be e836 cb0e dbb6 bfdd 5336 a1b7 9cb7
000000f0: 350e b7b7 481d 4cb7 107e d7b7 68ed 1c36
00000100: 52a4 9337 00cb e9b7 5aef d137 4002 5a35
00000110: b8fc 25b6 66d5 9ab8 c461 36b7 20e4 3436
00000120: a669 fc37 a044 aeb7 ac3a 0637 872a 2bb5
00000130: 530b acaa c0bf 50b7 5027 62b6 80d5 4935
00000140: c2e2 bcb7 3074 8e35 4b57 95b6 5033 2b36
00000150: 4e2d 3bb7 b0a7 2035 1b20 c8b7 ccee 5037
00000160: 3b75 95b5 b661 21b6 8aab 26b8 373a eb37
00000170: d7df 9630 9049 43b5 52d6 4f38 783a da36
00000180: 48b8 3437 d3f1 022d 275d 98b7 0e45 b337
00000190: f0e7 a9b6 a066 ddb5 e619 bf36 0025 bf34
000001a0: 58e8 60b7 e7dd 8137 a995 5537 f8b8 af2f
000001b0: f245 a4b7 70b7 93b3 f87d 3bb6 7c43 51b7
000001c0: 764c 7ab6 e38f adb5 2ce9 c136 ea8b 2d37
000001d0: b408 aeb7 0432 4c30 6873 81b6 f8df 92b7
000001e0: 8b3f e9b6 00fe c8b4 6857 b3b6 bccc edb5
000001f0: 309e c4b6 e0b4 eab7 4650 0438 2827 6e36
2.6350226e-05 2.431634e-05 1.8177052e-06 -1.6842528e-06 2.6057432e-05 1.4026045e-06 2.2119327e-06 4.1433595e-06
-1.6223719e-06 2.6723885e-08 1.7827006e-06 -6.5645127e-06 -5.3225485e-06 -1.4722142e-05 1.3057706e-06 -6.0821367e-06
-3.7097436e-08 -2.1290372e-05 -0.00012431701 -1.7377556e-06 -2.5872754e-05 6.1905703e-06 -9.306572e-06 -5.6655415e-07
-1.8404608e-06 1.3323228e-05 -5.3145044e-09 -1.6051381e-06 -3.768956e-08 -1.4067409e-06 8.12846e-06 -1.0955212e-06
4.6054174e-07 -1.0837206e-05 2.0083276e-05 2.9001303e-06 1.3520975e-08 4.399496e-06 2.2125278e-08 2.0935395e-06
-2.1142394e-05 -5.7193297e-06 -5.144811e-05 -1.2164297e-05 -1.2702703e-05 -8.774034e-06 1.1855827e-05 -1.1154673e-05
-7.869428e-08 1.2862294e-05 6.758182e-08 3.3069045e-07 -4.7036565e-08 -2.5405872e-05 -2.1732603e-07 2.5324534e-06
6.936363e-06 -6.5284307e-06 3.1570523e-06 -1.8682158e-05 -2.1821916e-05 -1.2166165e-05 -2.56887e-05 2.3384e-06
1.7600283e-05 -2.7870294e-05 2.5026198e-05 8.12146e-07 -2.4734018e-06 -7.383041e-05 -1.0870808e-05 2.6954876e-06
3.0089937e-05 -2.0774372e-05 8.000683e-06 -6.376435e-07 -3.0561195e-13 -1.2442411e-05 -3.3699507e-06 7.518902e-07
-2.2516939e-05 1.061364e-06 -4.4507083e-06 2.5510853e-06 -1.1156617e-05 5.984866e-07 -2.3856808e-05 1.2453365e-05
-1.1135484e-06 -2.4047745e-06 -3.9737242e-05 2.8041291e-05 1.0977556e-09 -7.275021e-07 4.9552247e-05 6.503713e-06
1.0771742e-05 7.44334e-12 -1.816319e-05 2.1370619e-05 -5.0635936e-06 -1.6495651e-06 5.6952586e-06 3.5603443e-07
-1.3405537e-05 1.548133e-05 1.2730635e-05 3.1963743e-10 -1.9582894e-05 -6.878588e-08 -2.7938495e-06 -1.2473083e-05
-3.729741e-06 -1.2931381e-06 5.778993e-06 1.034418e-05 -2.0746469e-05 7.4285844e-10 -3.8579346e-06 -1.750885e-05
-6.9513385e-06 -3.7437712e-07 -5.344791e-06 -1.7717462e-06 -5.8596706e-06 -2.79792e-05 3.1546013e-05 3.5487556e-06

exp_avg_sq f4 [128]
00000000: 68ba a332 9840 e232 17ff bf31 5010 b731
00000010: 3071 f032 cfcd c432 6507 a731 a156 9132
00000020: f9b6 b032 3f62 4e32 7739 9832 79df 3933
00000030: 9690 cb32 1946 5832 02a2 3c32 e6b3 8c33
00000040: befd 4332 6e97 f332 b525 e633 ffa1 2733
00000050: c7fc 0333 341f a232 581c 8f32 a980 9f32
00000060: dc6d 0f33 415f dd32 6c0f f232 7433 3b33
00000070: 7dd1 5531 f143 a832 4f6b ed31 b38d 2632
00000080: 5772 0233 b00e 6932 bf9c 7633 8d00 4633
00000090: a248 2a31 2dbb e532 dde9 f131 27dc 1c32
000000a0: adbf c032 b696 5733 4c20 ca33 73bf 9932
000000b0: e4d2 6c33 9652 6933 b8ea 4733 0d07 0434
000000c0: 9348 9731 2c95 2c32 63f7 8733 e0ed 2832
000000d0: ec7f a933 3414 1d33 3685 3932 949e 2033
000000e0: ab12 6933 9692 7f33 6099 3232 a36b 0533
000000f0: 5203 0832 2d3c ac32 38fa 3433 cf08 5632
00000100: 0945 0233 1bcf 2233 dcf3 3133 924a 8832
00000110: 8481 eb31 b1a4 d233 e97f f233 c35a 1733
00000120: 2d19 ae33 c3cf 2633 17fe 1632 f09e 9f31
00000130: 9ab7 5c32 db77 9333 2595 7f33 3012 a933
00000140: 9cb6 9c33 7313 4f32 dda0 1432 e38e 1933
00000150: e733 4a32 be80 b933 f16f 0734 232a 1d32
00000160: 1577 0e32 d6f7 7032 0a24 a032 4f46 8033
00000170: a512 a831 6223 8232 f509 0a33 2ee9 c732
00000180: 4a01 fe32 c053 cb30 0c83 fb32 dad6 ee33
00000190: 60f8 7433 3d95 a331 c0f8 5932 b9fb d831
000001a0: ce13 8533 b228 e733 09de 1f33 86cb 3732
000001b0: fefd 1233 d7b0 9931 ebb0 6232 f441 0134
000001c0: 57f5 a632 f283 0633 5436 4d33 90ed 2232
000001d0: f4e5 f232 8f90 a531 f1d0 5e33 946f 8832
000001e0: 3840 3a33 bf22 bb33 062d 0e33 9a5a f631
000001f0: c525 c130 17c2 e033 1486 c832 a06e 9c32
1.9060465e-08 2.6339237e-08 5.587832e-09 5.3278555e-09 2.7991149e-08 2.2910994e-08 4.8611803e-09 1.6919616e-08
2.0572303e-08 1.2013117e-08 1.7721261e-08 4.3276916e-08 2.369806e-08 1.2588793e-08 1.0979877e-08 6.5519814e-08
1.1408188e-08 2.8357785e-08 1.07170685e-07 3.9030052e-08 3.0730714e-08 1.8873472e-08 1.666028e-08 1.8568544e-08
3.33947e-08 2.5771103e-08 2.8179521e-08 4.3586127e-08 3.111466e-09 1.958867e-08 6.9098074e-09 9.69469e-09
3.0371975e-08 1.35657245e-08 5.7418898e-08 4.610097e-08 2.4779543e-09 2.6744226e-08 7.0406103e-09 9.130452e-09
2.2438906e-08 5.019566e-08 9.412233e-08 1.7898605e-08 5.5139836e-08 5.432465e-08 4.6546774e-08 1.2296023e-07
4.402929e-09 1.0045635e-08 6.331427e-08 9.8329735e-09 7.8929446e-08 3.6572786e-08 1.0798706e-08 3.739713e-08
5.426652e-08 5.9505133e-08 1.0395837e-08 3.106437e-08 7.916997e-09 2.00508e-08 4.213709e-08 1.2458442e-08
3.033077e-08 3.7906926e-08 4.1432813e-08 1.5866394e-08 6.8541244e-09 9.808844e-08 1.129227e-07 3.5239974e-08
8.107086e-08 3.8838845e-08 8.7889225e-09 4.645578e-09 1.2847432e-08 6.8670225e-08 5.950746e-08 7.872984e-08
7.2975325e-08 1.2053408e-08 8.65131e-09 3.5753043e-08 1.1769749e-08 8.638152e-08 1.2613579e-07 9.1481835e-09
8.292564e-09 1.402619e-08 1.864284e-08 5.9732535e-08 4.891563e-09 1.5150082e-08 3.2139685e-08 2.3272687e-08
2.9570078e-08 1.4793997e-09 2.9279839e-08 1.112182e-07 5.7036573e-08 4.760891e-09 1.2687622e-08 6.315045e-09
6.1968976e-08 1.0764178e-07 3.7222012e-08 1.0698278e-08 3.422428e-08 4.4729904e-09 1.3195158e-08 1.2038055e-07
1.9436511e-08 3.131931e-08 4.7779693e-08 9.4836565e-09 2.8277078e-08 4.8185664e-09 5.1878434e-08 1.5883224e-08
4.3364906e-08 8.714186e-08 3.31029e-08 7.1698425e-09 1.4053333e-09 1.04661176e-07 2.3344036e-08 1.8211097e-08
