results/Test8/MoveToTarget/MoveToTarget-10206.pt (torch, 150114 bytes, 12 tensors)

network_body._body_endoder.seq_layers.0.weight f4 [128, 6]
000000 e1 8a 82 be 1d 74 3f be 94 ce aa 3e 0c 72 29 3e
       -0.2549658 -0.18696637 0.33360732 0.16547412
000010 7c 13 fc be a7 d3 f6 3e 4f 03 f5 3d cc 45 83 be
       -0.49233615 0.48208353 0.11963522 -0.25639188
000020 f1 ca 51 3f 71 5f 2e bf 08 79 08 bc 69 f6 3f 3e
       0.8195029 -0.6811438 -0.008329637 0.18746342
000030 df cc 6f 3d 10 21 7f be ba 12 02 3e 28 36 fb 3d
       0.05854499 -0.24914956 0.12702456 0.12266189
000040 23 e2 05 3f f5 74 8e be a4 93 21 be 6f 96 a9 be
       0.5229818 -0.27823606 -0.15778977 -0.33122584
000050 65 ed 27 bf 6a 12 b5 ba 9e 48 a1 3d 3f 98 ec 3d
       -0.6559661 -0.0013814692 0.07875179 0.11552476
000060 b1 3b 14 3f 11 64 be bd 9c 86 44 3f 90 3e d3 3d
       0.5790358 -0.0929643 0.767679 0.10314667
000070 12 5b 5d bf 1a f9 42 3e 97 7e 00 bf 0b 72 c5 3e
       -0.8646709 0.19040337 -0.5019316 0.3856357
000080 45 26 0c bf c2 40 a6 be 59 5c f2 3c c4 72 80 be
       -0.54745895 -0.3247128 0.02958505 -0.2508756
000090 8c 87 3c be 64 81 f3 3d e3 03 b4 3d 1f c9 b2 3c
       -0.18411082 0.11889914 0.08789804 0.021824418
0000a0 74 ad 64 3d 3e 82 fb be a8 22 62 be 77 11 16 3e
       0.05582948 -0.49122804 -0.22083533 0.146551
0000b0 3d 07 92 be 91 57 7e be 71 d5 ad bd 1e cd be 3d
       -0.28521147 -0.24838091 -0.08487976 0.09316467
0000c0 5c 75 32 3f 6f bb 07 3e 2c 60 09 be 41 e7 07 3f
       0.69710326 0.13255094 -0.13415593 0.5308724
0000d0 b7 97 ab 3e cc 63 d0 be c4 6b 9d be f1 d0 81 3e
       0.33514187 -0.4070114 -0.3074628 0.25354722
0000e0 e9 75 c0 3f 43 c4 37 3d 2d 86 4d be ed 41 87 be
       1.5035983 0.044864904 -0.20070715 -0.26417485
0000f0 6d 72 af bd e0 1a 12 3f f6 52 6c bd 0f 1a fd be
       -0.08566747 0.5707226 -0.057696305 -0.49433944
000100 34 de 6d 3e aa 25 9c 3e af 45 0c 3e c2 01 f3 3d
       0.23229295 0.30497485 0.13698457 0.1186557
000110 0a 86 95 3e 3b 62 9b 3e 82 19 83 be 30 08 90 3e
       0.29203826 0.3034838 -0.25605398 0.28131247
000120 a6 8e 83 bd fe 88 fe 3e 44 1f 0d 3e 1d 61 74 be
       -0.064236924 0.49713892 0.13781458 -0.23865171
000130 d4 a7 c9 bd 6b 26 ec bd a7 da f0 3b 8f 99 27 3f
       -0.09846464 -0.11530765 0.007350284 0.65468687
000140 b9 07 fb bd 68 02 2d bf a9 2a 37 3e 3b e6 00 3d
       -0.12257332 -0.67581797 0.17887367 0.031469565
000150 fd 00 10 3f 29 3a 15 3d 10 dc 41 be f3 71 9e 3e
       0.5625151 0.03643242 -0.18931603 0.3094631
000160 6f 69 d5 be be 0a 06 be 97 4d 6e bf 18 3f c3 be
       -0.41682002 -0.13090035 -0.9308714 -0.38134074
000170 42 df cc be 42 4c 0a 3e 5e 35 24 be a4 9d 8d be
       -0.40014082 0.13505653 -0.16035983 -0.27659333
000180 c2 f8 e8 3b f1 5b 02 bf 37 ba 61 be 40 fe d6 bd
       0.0071097324 -0.5092154 -0.22043692 -0.10497713
000190 0b cb 5f bf 69 d4 d6 be d9 ba 53 3e 57 a9 6d be
       -0.87419194 -0.4195893 0.20676745 -0.2320913
0001a0 85 3a 13 3f 0c cf 07 bf ee 8d 21 3d 4f d4 c0 be
       0.5751117 -0.53050303 0.039441995 -0.3766198
0001b0 10 d9 b4 be 7c d2 1e bf 4b a8 80 be ce 37 65 be
       -0.35321856 -0.62039924 -0.25128397 -0.22384569
0001c0 8b 2f 91 3d 51 89 ee be bc 53 b8 be 9c f8 4b be
       0.07089146 -0.4658914 -0.36001384 -0.19919056
0001d0 74 c0 a4 bf 3e 78 a1 3e b4 d6 e8 be c3 89 1b be
       -1.2871232 0.3153705 -0.45476305 -0.1518927
0001e0 07 31 bd be d5 38 a4 be 71 68 f4 3c 65 17 9e be
       -0.36951467 -0.3207461 0.029834958 -0.30877224
0001f0 9e a7 69 3e c2 b9 d4 3e 53 16 84 3d 3d d5 8b be
       0.22817847 0.41547972 0.064495705 -0.27311125
000200 35 0f cc be 14 22 71 bf 82 1b f8 3e 2c 30 75 bf
       -0.39855352 -0.94192624 0.48458487 -0.9577663
000210 3d 2e b1 3e 4b 21 f6 3c c7 7b 08 be 67 50 21 3e
       0.3460559 0.030045172 -0.13328467 0.15753327
000220 7f 8b 0e 3f c1 42 87 3e 2b 4e 76 be 2f 70 ab 3d
       0.55681604 0.26418117 -0.24053256 0.08371007
000230 56 94 8a be 9f fe 90 bf 2b 83 a8 be 37 77 f8 be
       -0.27066296 -1.1327704 -0.32912573 -0.48528454
000240 5f e3 61 3e 33 ba 28 3f 1d 43 54 3f e4 c5 0b bf
       0.22059391 0.6590912 0.82914907 -0.5459883
000250 b5 58 92 bd 3e 2e a0 3e b1 a4 45 3e b4 3c 0a 3f
       -0.07145826 0.3128528 0.19301106 0.53998876
000260 61 7d 5d bf 3e 73 19 3f 8b 0e 85 be 29 8e 68 be
       -0.8651944 0.5994147 -0.25987658 -0.2271048
000270 5e 5c 74 3d 73 57 12 bd 07 c9 cf 3e 30 db 6f 3e
       0.0596584 -0.03572793 0.4058306 0.23423457
000280 e5 bf c5 be 2a c7 03 3f b7 f9 dd 3d 5b d8 53 be
       -0.38622966 0.51475775 0.10838645 -0.20688002
000290 6a 84 13 3f 09 42 08 3d fc 0c 07 be 1e de 1c 3f
       0.5762392 0.0332661 -0.13188547 0.61276424
0002a0 7b 84 37 3c 8f f9 0a be fb 02 95 be 6f 7b a9 be
       0.011201019 -0.13571762 -0.29103836 -0.33101985
0002b0 70 81 18 3f 21 9e 04 3f 2a 79 13 bf b4 a8 87 be
       0.59572506 0.51803786 -0.57606757 -0.26495898
0002c0 ce 8f 49 be ec a8 a7 3e fe f8 5d be 1f c1 06 be
       -0.19683763 0.32746065 -0.21677014 -0.13159607
0002d0 23 09 48 bf 26 e0 29 bf d3 c8 e9 3d d2 e1 30 bf
       -0.7813894 -0.6635765 0.11415257 -0.69094574
0002e0 26 a5 1d bd 58 d6 a8 3e e9 c1 79 be 33 e2 01 3c
       -0.038487576 0.3297603 -0.24390377 0.007927465
0002f0 2e 72 d2 3c f9 17 e9 3d 3c 1c 0b bf 71 f8 6f 3f
       0.02568921 0.113815255 -0.5433996 0.93738467
000300 ec c4 2f bd af 65 3c bd 2b e6 14 be 13 3c 86 3e
       -0.04291241 -0.04599541 -0.14540927 0.26217708
000310 a5 a1 a0 3e 79 75 1e 3e 28 9b 15 3f 75 d9 af 3e
       0.31373325 0.154745 0.58439875 0.34345594
000320 8e 28 07 3f 55 9d 0a 3f 36 4f 29 3f 7d fe d6 be
       0.52796257 0.5414632 0.6613649 -0.41991034
000330 58 0b 83 3e 46 03 32 bd d1 12 96 3e 5c 48 38 bf
       0.25594592 -0.043460153 0.2931123 -0.7198541
000340 30 a5 19 3f 0a 2a c1 3e 30 4a aa 3e 0a b1 a1 3e
       0.6001768 0.37727386 0.33259726 0.31580383
000350 5d ee 3d be e9 8e 4a be e2 5e 82 be 40 c8 b9 be
       -0.1854796 -0.19781078 -0.25463015 -0.3628559
000360 3a 3d 39 be 78 14 0f 3f c7 27 7c 3e 5f d0 65 3e
       -0.18089762 0.5589061 0.24624549 0.22442769
000370 76 a1 c5 be fc 0d cf 3e b0 84 30 be 41 c6 af be
       -0.38599747 0.40440357 -0.17238116 -0.34330943
000380 79 17 16 3f 97 c9 02 3f ce 75 85 bc d6 55 05 be
       0.58629566 0.5108885 -0.016291525 -0.13021025
000390 3f a9 36 bf 8a b7 82 bf ba 7b d4 3d 89 78 69 bf
       -0.71352 -1.0212262 0.103751615 -0.9119955
0003a0 23 a0 2f 3f ea 3e 2e be d7 ec d5 3c 05 21 0c bf
       0.68603724 -0.17016187 0.02611391 -0.54737884
0003b0 16 80 d9 be 8d a0 d8 be 5c 13 a4 3d 00 ca ba be
       -0.42480534 -0.4230999 0.08011505 -0.3648224
0003c0 6a 82 4c be 73 65 20 3f 92 37 88 bd 6c e4 e4 3c
       -0.19971624 0.626548 -0.06651224 0.027940951
0003d0 71 63 74 3e e9 3f eb bc 42 be 5d 3d 0c 3d 23 3e
       0.23866059 -0.028716998 0.054136522 0.15941256
0003e0 5b db 09 bf 0c cf a2 be 8c ae dd be 76 e1 35 be
       -0.53850335 -0.3179859 -0.4329723 -0.17761788
0003f0 8e e9 6e 3c 88 ca 0f bf 17 ec 2a bd f2 9d 65 3f
       0.014582051 -0.56168413 -0.04172906 0.8969413

network_body._body_endoder.seq_layers.0.bias f4 [128]
000000 00 00 00 00 00 00 00 00 00 00 00 00 00 00 00 00
       0.0 0.0 0.0 0.0
000010 00 00 00 00 00 00 00 00 00 00 00 00 00 00 00 00
       0.0 0.0 0.0 0.0
000020 00 00 00 00 00 00 00 00 00 00 00 00 00 00 00 00
       0.0 0.0 0.0 0.0
000030 00 00 00 00 00 00 00 00 00 00 00 00 00 00 00 00
       0.0 0.0 0.0 0.0
000040 00 00 00 00 00 00 00 00 00 00 00 00 00 00 00 00
       0.0 0.0 0.0 0.0
000050 00 00 00 00 00 00 00 00 00 00 00 00 00 00 00 00
       0.0 0.0 0.0 0.0
000060 00 00 00 00 00 00 00 00 00 00 00 00 00 00 00 00
       0.0 0.0 0.0 0.0
000070 00 00 00 00 00 00 00 00 00 00 00 00 00 00 00 00
       0.0 0.0 0.0 0.0
000080 00 00 00 00 00 00 00 00 00 00 00 00 00 00 00 00
       0.0 0.0 0.0 0.0
000090 00 00 00 00 00 00 00 00 00 00 00 00 00 00 00 00
       0.0 0.0 0.0 0.0
0000a0 00 00 00 00 00 00 00 00 00 00 00 00 00 00 00 00
       0.0 0.0 0.0 0.0
0000b0 00 00 00 00 00 00 00 00 00 00 00 00 00 00 00 00
       0.0 0.0 0.0 0.0
0000c0 00 00 00 00 00 00 00 00 00 00 00 00 00 00 00 00
       0.0 0.0 0.0 0.0
0000d0 00 00 00 00 00 00 00 00 00 00 00 00 00 00 00 00
       0.0 0.0 0.0 0.0
0000e0 00 00 00 00 00 00 00 00 00 00 00 00 00 00 00 00
       0.0 0.0 0.0 0.0
0000f0 00 00 00 00 00 00 00 00 00 00 00 00 00 00 00 00
       0.0 0.0 0.0 0.0
000100 00 00 00 00 00 00 00 00 00 00 00 00 00 00 00 00
       0.0 0.0 0.0 0.0
000110 00 00 00 00 00 00 00 00 00 00 00 00 00 00 00 00
       0.0 0.0 0.0 0.0
000120 00 00 00 00 00 00 00 00 00 00 00 00 00 00 00 00
       0.0 0.0 0.0 0.0
000130 00 00 00 00 00 00 00 00 00 00 00 00 00 00 00 00
       0.0 0.0 0.0 0.0
000140 00 00 00 00 00 00 00 00 00 00 00 00 00 00 00 00
       0.0 0.0 0.0 0.0
000150 00 00 00 00 00 00 00 00 00 00 00 00 00 00 00 00
       0.0 0.0 0.0 0.0
000160 00 00 00 00 00 00 00 00 00 00 00 00 00 00 00 00
       0.0 0.0 0.0 0.0
000170 00 00 00 00 00 00 00 00 00 00 00 00 00 00 00 00
       0.0 0.0 0.0 0.0
000180 00 00 00 00 00 00 00 00 00 00 00 00 00 00 00 00
       0.0 0.0 0.0 0.0
000190 00 00 00 00 00 00 00 00 00 00 00 00 00 00 00 00
       0.0 0.0 0.0 0.0
0001a0 00 00 00 00 00 00 00 00 00 00 00 00 00 00 00 00
       0.0 0.0 0.0 0.0
0001b0 00 00 00 00 00 00 00 00 00 00 00 00 00 00 00 00
       0.0 0.0 0.0 0.0
0001c0 00 00 00 00 00 00 00 00 00 00 00 00 00 00 00 00
       0.0 0.0 0.0 0.0
0001d0 00 00 00 00 00 00 00 00 00 00 00 00 00 00 00 00
       0.0 0.0 0.0 0.0
0001e0 00 00 00 00 00 00 00 00 00 00 00 00 00 00 00 00
       0.0 0.0 0.0 0.0
0001f0 00 00 00 00 00 00 00 00 00 00 00 00 00 00 00 00
       0.0 0.0 0.0 0.0

network_body._body_endoder.seq_layers.2.weight f4 [128, 128]
000000 ef a9 14 3d 0d 18 c6 3c 79 cc 8f bd 25 ba af bd
       0.036294874 0.02418139 -0.07021422 -0.08580426
000010 28 85 08 3d d7 d6 55 bc 16 a1 c5 3d 2f 49 8e bb
       0.033330113 -0.01305171 0.09649865 -0.0043422203
000020 a2 37 02 be f6 2e 01 bc 27 72 a5 3d 6d aa eb 3d
       -0.12716535 -0.0078847315 0.080784135 0.115071155
000030 4e 57 f7 bc 44 30 b6 bc 4e 9a 36 3e 49 2d ba 3d
       -0.030192997 -0.022239812 0.178323 0.09090669
000040 28 c7 d5 bc 44 df 08 be 97 79 00 3e 72 53 8f 3d
       -0.026095942 -0.13366419 0.12546383 0.06998338
000050 26 19 53 3c 2f ac 28 3c 5d 7f 0c 3d 2b 52 98 bc
       0.012884414 0.010294958 0.03430115 -0.018593868
000060 b1 31 e2 3c 0c e4 1c be af f0 bd bc d7 bb c6 bb
       0.027611585 -0.15321368 -0.023186056 -0.0060648727
000070 09 80 09 bd 71 fa 31 bd 3f 4d bd bd 32 4b ec 3b
       -0.03356937 -0.04345173 -0.09243249 0.0072111124
000080 c0 f1 a7 3d ca 15 03 3e 9b 7b 92 bc 8c 25 0f bd
       0.08200407 0.1280128 -0.017881205 -0.034947917
000090 92 b6 46 bd a0 64 4d 3c bd d9 06 3d 47 da 55 3d
       -0.048513956 0.012536198 0.032922495 0.05221012
0000a0 e0 c1 98 bd 9c 77 dd bc ba 6e 01 3e 95 44 48 bd
       -0.07458854 -0.027034573 0.12639895 -0.04889353
0000b0 1a 27 82 bc ec ac 3d 3d ae 4a 9e bc fd e1 77 3d
       -0.015887786 0.04630749 -0.01932272 0.060518254
0000c0 04 65 db bb 75 23 ec bd 2f 95 1d be 84 e2 1c 3d
       -0.0066953916 -0.115302004 -0.1538894 0.03830196
0000d0 e9 34 b3 3d 14 82 4b 3d 0a dc a6 3d f1 f4 e8 3d
       0.08750326 0.0496846 0.08147438 0.11374844
0000e0 5a 22 d0 3d f9 6d f4 bd 7d 69 da bd 3f 94 00 bd
       0.10162802 -0.11935038 -0.106646515 -0.03139138
0000f0 b0 76 8c bd 52 48 92 ba 6e 8e 6c 3d 17 a7 45 3c
       -0.06858575 -0.0011160469 0.05775302 0.012063763
000100 78 bb d3 bd 2d 79 8c 3c ce e8 52 3d d9 e7 01 bd
       -0.10338491 0.017147625 0.05149155 -0.031715248
000110 d6 2b 7b bd e0 4d 06 be 30 d8 49 bd 03 62 59 bd
       -0.061321102 -0.13115644 -0.049278438 -0.053071987
000120 a7 34 4d bd 3d c5 29 bd c0 52 63 bd 75 cb 01 3e
       -0.05009904 -0.041447867 -0.05549884 0.12675269
000130 b7 a4 3c 3d 5f 86 d4 bd 75 1b d2 3d 3e 0d 0a 3e
       0.04605552 -0.10377192 0.10259143 0.13481614
000140 a8 91 41 3c fc e7 01 3e 7a b0 84 3d 9e 02 dc 3d
       0.011814512 0.12686151 0.06478973 0.10742687
000150 2c 28 4e 3e 37 bf a1 3d 23 68 0f bd 7d 44 0d 3e
       0.20132512 0.078977995 -0.035011422 0.13795657
000160 72 cb 64 bd ad fe c2 bd 4e 20 ac bc 56 e0 dc 3c
       -0.055858083 -0.09521232 -0.021011498 0.02696244
000170 99 82 24 bd aa d1 0e 3d 2d c6 5e bd ee 83 cc 3c
       -0.04016361 0.03486792 -0.054388214 0.024965253
000180 2f c4 e2 bd b7 40 73 bd 28 6a 31 bd 50 bd 2c 3e
       -0.11072575 -0.05938789 -0.04331413 0.16869092
000190 60 b5 83 bc bb 80 c7 bd 9f 0b 7c bd 11 b0 3d 3d
       -0.016077697 -0.0974135 -0.06153452 0.046310488
0001a0 9d 10 27 bd 23 06 a7 bd 72 70 f6 3d 18 3f b5 3d
       -0.040787328 -0.08155467 0.12033166 0.08849925
0001b0 ba ae 34 3e 1f ee 7b 3d 5a 8d 05 3d 65 f0 de bd
       0.17644778 0.061506387 0.032605506 -0.10885695
0001c0 f1 ad 04 be 49 2d 8a 3d af d1 44 bd d1 58 24 3e
       -0.12956978 0.06746919 -0.048051532 0.16049506
0001d0 92 77 3b bd 76 d1 99 3c b6 74 88 ba bc 60 18 be
       -0.045768328 0.018776637 -0.0010410759 -0.14880651
0001e0 55 1b 82 3d 54 68 8f 3c e2 af 20 3d 9b 0a 4e bc
       0.063528694 0.017505802 0.039230235 -0.012575771
0001f0 e8 69 f2 bd 4d 8d 18 bd 90 12 8a bc d9 98 9b bd
       -0.11836606 -0.03724413 -0.016854554 -0.07597513
000200 60 79 d0 bd 46 49 f0 3c 16 f3 ac bd 88 37 18 3e
       -0.101794004 0.029331814 -0.084448025 0.14864933
000210 a4 a4 98 3d 13 b7 f4 3b 7e 41 06 3d 41 bf d8 bd
       0.07453278 0.007468113 0.032777302 -0.10583354
000220 a9 bc 71 3c 58 ea cb 3c 41 dd 9d 3d ef c5 b8 bc
       0.014754453 0.024892017 0.077082165 -0.02255532
000230 6a be 2e 3d 56 7b f2 3c 7a e8 b9 bd 1f 55 7f bd
       0.04266206 0.029599827 -0.090775445 -0.062337037
000240 0e c3 de bb 62 ab b2 3d 82 3e 48 be 98 95 c3 bd
       -0.0067981547 0.08724095 -0.19555095 -0.09550017
000250 0d 96 82 bd b2 de 95 bb fa 11 ce bb 90 91 85 3d
       -0.06376276 -0.0045736665 -0.006288764 0.065219045
000260 42 5c d5 3d 1f 65 48 3d d7 d2 ca 3d 17 1f 27 3c
       0.104179874 0.04892456 0.09903496 0.0102002835
000270 05 6f 3f 3d 05 0d d8 bd 5a 95 43 be 4e 25 01 bd
       0.046736736 -0.10549358 -0.19099942 -0.031529717
000280 f1 56 88 bd e3 91 41 3d 19 71 72 3d 2e 60 02 be
       -0.06657208 0.04725827 0.05918989 -0.12732002
000290 ac 7c 34 3d 67 38 de 3c b6 68 cb 3d 94 d6 27 3e
       0.04406421 0.027126504 0.099320814 0.16390449
0002a0 59 d9 bd 3c c1 b2 e5 bd e2 12 f5 3c f9 95 31 be
       0.023174929 -0.11215735 0.02991623 -0.17342366
0002b0 0a 29 99 3d b0 ae 6e 3d 4e 97 66 3d 80 39 be 3d
       0.07478531 0.058272064 0.05629664 0.09288311
0002c0 5f 70 8d bd 49 7b a8 3b c6 ec 66 bd 58 fe c8 3d
       -0.06906199 0.00514165 -0.05637815 0.09814137
0002d0 79 eb c8 3d 6f 0f 19 3e 98 58 a5 3d 1f 8c e8 bc
       0.09810538 0.14947294 0.080735385 -0.028387127
0002e0 a5 ab a3 bc cf f9 18 3c 83 7b cd 3d 56 11 1f 3d
       -0.019979307 0.009336903 0.100333236 0.038834892
0002f0 2f ce a6 bb 02 ed 65 bd 11 94 6f bd b4 c5 0b bd
       -0.005090497 -0.05613423 -0.058490817 -0.03412409
000300 c1 d9 a2 3d 09 2d 42 3c ca 45 22 be 6a 72 3a bd
       0.079516895 0.0118515575 -0.15846935 -0.04551927
000310 32 4e a1 bd 95 fc 54 bd bd 70 7f 3d a2 02 2a bd
       -0.07876243 -0.051998693 0.062363375 -0.041506417
000320 2f 39 64 bd 8f 34 25 bd 1e 8e 51 be f9 53 e8 bc
       -0.055718597 -0.040333327 -0.2046437 -0.028360354
000330 82 95 ba 3b de b1 0c be 45 81 6a bc 5c 1e c8 3d
       0.0056940923 -0.13739726 -0.014313047 0.097714156
000340 fd 1d 83 3d f8 08 3b 3e 3f 4c 0a 3d 2c 50 82 3d
       0.06402204 0.1826514 0.03376412 0.06362948
000350 6a 6d 66 bd a6 b2 85 3c be da 6a 3d 5b e4 32 bc
       -0.05625669 0.016320538 0.057337515 -0.010918702
000360 04 6d 11 be 43 57 7c bd be 3c 83 bd a9 f2 b6 bc
       -0.14201742 -0.061606657 -0.0640807 -0.022332506
000370 7c dd b7 3d b5 80 10 3e 44 7d 1e be 34 5d 2d 3e
       0.08977792 0.14111598 -0.15477473 0.16930085
000380 75 8e 17 3c 8e 7f 33 bd 01 de 15 3c 40 83 4e bd
       0.009250273 -0.043822818 0.009147168 -0.05041814
000390 a1 00 6d bd cd 0c bf 3d 68 9a e6 bc 69 22 dd 3d
       -0.057861928 0.093286134 -0.028149799 0.10797579
0003a0 d2 88 ba 3c 9f db 5e bd 66 dc 55 3d bb 31 0d bd
       0.02277032 -0.054408666 0.05221214 -0.034471255
0003b0 19 c0 e7 bd be dc a1 bc 00 11 f7 bd 24 03 be 3d
       -0.113159366 -0.019758578 -0.12063789 0.09277943
0003c0 a5 16 1c 3d 1b ee 91 3b 85 e6 d7 3c f1 31 13 be
       0.038107533 0.004453433 0.026355037 -0.1437452
0003d0 6b d6 21 bb 3a 3a 60 3e f3 cb b5 bc 8c 6f 80 bd
       -0.0024694453 0.21897212 -0.022191977 -0.06271276
0003e0 ab 05 9c bd 12 15 50 3e f1 e3 60 bd 40 c3 4d 3c
       -0.076182686 0.20320538 -0.054904882 0.012558758
0003f0 ae dd 18 be 91 cc 46 3e df ea 6a bd f0 25 30 3e
       -0.14928314 0.19413973 -0.057352897 0.17201972

network_body._body_endoder.seq_layers.2.bias f4 [128]
000000 00 00 00 00 00 00 00 00 00 00 00 00 00 00 00 00
       0.0 0.0 0.0 0.0
000010 00 00 00 00 00 00 00 00 00 00 00 00 00 00 00 00
       0.0 0.0 0.0 0.0
000020 00 00 00 00 00 00 00 00 00 00 00 00 00 00 00 00
       0.0 0.0 0.0 0.0
000030 00 00 00 00 00 00 00 00 00 00 00 00 00 00 00 00
       0.0 0.0 0.0 0.0
000040 00 00 00 00 00 00 00 00 00 00 00 00 00 00 00 00
       0.0 0.0 0.0 0.0
000050 00 00 00 00 00 00 00 00 00 00 00 00 00 00 00 00
       0.0 0.0 0.0 0.0
000060 00 00 00 00 00 00 00 00 00 00 00 00 00 00 00 00
       0.0 0.0 0.0 0.0
000070 00 00 00 00 00 00 00 00 00 00 00 00 00 00 00 00
       0.0 0.0 0.0 0.0
000080 00 00 00 00 00 00 00 00 00 00 00 00 00 00 00 00
       0.0 0.0 0.0 0.0
000090 00 00 00 00 00 00 00 00 00 00 00 00 00 00 00 00
       0.0 0.0 0.0 0.0
0000a0 00 00 00 00 00 00 00 00 00 00 00 00 00 00 00 00
       0.0 0.0 0.0 0.0
0000b0 00 00 00 00 00 00 00 00 00 00 00 00 00 00 00 00
       0.0 0.0 0.0 0.0
0000c0 00 00 00 00 00 00 00 00 00 00 00 00 00 00 00 00
       0.0 0.0 0.0 0.0
0000d0 00 00 00 00 00 00 00 00 00 00 00 00 00 00 00 00
       0.0 0.0 0.0 0.0
0000e0 00 00 00 00 00 00 00 00 00 00 00 00 00 00 00 00
       0.0 0.0 0.0 0.0
0000f0 00 00 00 00 00 00 00 00 00 00 00 00 00 00 00 00
       0.0 0.0 0.0 0.0
000100 00 00 00 00 00 00 00 00 00 00 00 00 00 00 00 00
       0.0 0.0 0.0 0.0
000110 00 00 00 00 00 00 00 00 00 00 00 00 00 00 00 00
       0.0 0.0 0.0 0.0
000120 00 00 00 00 00 00 00 00 00 00 00 00 00 00 00 00
       0.0 0.0 0.0 0.0
000130 00 00 00 00 00 00 00 00 00 00 00 00 00 00 00 00
       0.0 0.0 0.0 0.0
000140 00 00 00 00 00 00 00 00 00 00 00 00 00 00 00 00
       0.0 0.0 0.0 0.0
000150 00 00 00 00 00 00 00 00 00 00 00 00 00 00 00 00
       0.0 0.0 0.0 0.0
000160 00 00 00 00 00 00 00 00 00 00 00 00 00 00 00 00
       0.0 0.0 0.0 0.0
000170 00 00 00 00 00 00 00 00 00 00 00 00 00 00 00 00
       0.0 0.0 0.0 0.0
000180 00 00 00 00 00 00 00 00 00 00 00 00 00 00 00 00
       0.0 0.0 0.0 0.0
000190 00 00 00 00 00 00 00 00 00 00 00 00 00 00 00 00
       0.0 0.0 0.0 0.0
0001a0 00 00 00 00 00 00 00 00 00 00 00 00 00 00 00 00
       0.0 0.0 0.0 0.0
0001b0 00 00 00 00 00 00 00 00 00 00 00 00 00 00 00 00
       0.0 0.0 0.0 0.0
0001c0 00 00 00 00 00 00 00 00 00 00 00 00 00 00 00 00
       0.0 0.0 0.0 0.0
0001d0 00 00 00 00 00 00 00 00 00 00 00 00 00 00 00 00
       0.0 0.0 0.0 0.0
0001e0 00 00 00 00 00 00 00 00 00 00 00 00 00 00 00 00
       0.0 0.0 0.0 0.0
0001f0 00 00 00 00 00 00 00 00 00 00 00 00 00 00 00 00
       0.0 0.0 0.0 0.0

action_model._continuous_distribution.log_sigma f4 [1, 3]
000000 00 00 00 00 00 00 00 00 00 00 00 00
       0.0 0.0 0.0

action_model._continuous_distribution.mu.weight f4 [3, 128]
000000 ca 34 99 3c 4a 8d 16 3b 8d ea 83 3a ff a1 f2 bb
       0.01870193 0.0022972398 0.0010064408 -0.0074045653
000010 1c 03 a6 bc 96 d3 b4 3c db 0b 3c 3d f8 a3 1e 3c
       -0.020265155 0.022073548 0.045909744 0.009682648
000020 43 45 93 3c 1f 60 38 3d 97 aa ad bc 07 5c ce 3c
       0.017977362 0.045013543 -0.021199508 0.025190366
000030 b3 82 8a bc 5c fd 0a bc 83 53 b2 3c 68 a1 2a bc
       -0.016908025 -0.008483257 0.021768337 -0.010414459
000040 47 c8 20 bc 6d 7b e0 bb ca 8a ff 3a c0 c4 d6 bc
       -0.009813375 -0.006850651 0.0019496318 -0.026216865
000050 d7 f4 49 bc ac 2e 0d 3c 9c d7 a9 ba a8 81 e4 bc
       -0.012326441 0.0086170845 -0.0012957933 -0.027893856
000060 48 54 87 3c 9c 70 15 bd 0c 00 35 3c 31 7c 1a bc
       0.01651968 -0.036484346 0.011047374 -0.009429024
000070 28 8f f2 3c 52 a3 b9 bb fa d1 4d 3c 83 99 6f bc
       0.029609278 -0.0056652213 0.012562269 -0.014624002
000080 70 ae 0d 3c 0b f7 bc bb 11 ed 86 3c 8f b4 85 3c
       0.008647546 -0.0057667545 0.016470464 0.016321449
000090 78 49 8b 3c 32 42 7c ba b2 55 9f bb a3 62 a3 bb
       0.017002806 -0.0009622901 -0.0048625106 -0.0049861236
0000a0 e8 2f b3 3a 73 01 d0 3c 62 80 99 bd df f5 a5 ba
       0.0013670893 0.025391316 -0.0749519 -0.0012661776
0000b0 47 32 27 bc 01 ef 2c 3b 52 d4 0a bc 9d 4c 8e b9
       -0.010204858 0.0026387575 -0.008473473 -0.00027141432
0000c0 f3 79 b3 bc 4b e1 5b bc 35 36 0d 3c 2d 0b 61 bc
       -0.021908736 -0.013420413 0.008618881 -0.013735575
0000d0 a3 97 1b bb d5 23 0a 3c af 1f a8 3c f6 20 3a bb
       -0.0023741506 0.008431395 0.02052292 -0.0028400994
0000e0 c2 71 b3 3c 93 1e 11 bc 97 ad 5f 3c 0f 85 99 3c
       0.02190483 -0.008857387 0.013652227 0.018740205
0000f0 5a 18 d2 3a e2 8f ea bc 6f b7 a5 3b f9 4f 33 bc
       0.0016028986 -0.028633062 0.0050572674 -0.01094436
000100 f3 6d 35 3a 77 b9 33 bc 99 3d 0c bd 95 86 3a bb
       0.0006920986 -0.010969511 -0.03423843 -0.0028461565
000110 a8 41 84 bb 63 31 4a 3c af 1a d6 3b 6f 4c 20 3c
       -0.004036147 0.012340876 0.0065339427 0.009783848
000120 84 1b 0c bc 50 5b 82 3b a3 7e 75 3c 25 e8 b3 bc
       -0.008551482 0.0039781705 0.014983806 -0.021961281
000130 6f 6e d6 bb 18 24 00 3d 18 c4 10 bd 17 1e d9 3c
       -0.0065439264 0.03128442 -0.03534326 0.026503606
000140 8b 43 99 3b 0b cb 1c 3b dc bc 1a 3c a3 af 68 bc
       0.004677241 0.0023924734 0.009444442 -0.014202031
000150 4b f0 18 3d cd eb eb 3c 90 58 9e 3b ed f7 72 bc
       0.037338536 0.028798962 0.004832335 -0.014829618
000160 a7 4d 4d 3c 47 c3 5d bc fd 9b e1 3b f5 1a 42 bb
       0.012530721 -0.013535327 0.0068850503 -0.0029618118
000170 de 4f b7 3c 5c 03 a2 3b b3 60 51 bd e7 78 8f bc
       0.02237695 0.004944248 -0.05111761 -0.017513705
000180 ef 30 f0 bb 8a 29 59 bc 88 17 6e bc d5 ed de bb
       -0.007330052 -0.013254533 -0.0145319775 -0.006803254
000190 50 ce 28 ba 70 55 a1 3c 98 26 b7 bc f6 81 8f bc
       -0.00064394344 0.01969406 -0.02235727 -0.017518025
0001a0 c6 a2 8c bc d8 7f ad bc 97 2c 25 bd bf f2 f0 bb
       -0.01716746 -0.021179125 -0.040325727 -0.0073531563
0001b0 27 15 12 bd dd 4a d1 3c 14 ed 04 ba 54 d8 9b 3a
       -0.035664704 0.025548393 -0.0005070728 0.0011890032
0001c0 fb 35 80 3c be 37 2a 3c e4 5b 89 bc fa 0f 1a 3d
       0.01565074 0.010389267 -0.01676745 0.037612893
0001d0 7f a1 7c 3c 0a 3c 76 bc c2 c6 d3 bc bf c8 59 3c
       0.015419363 -0.015028963 -0.025851611 0.0132924905
0001e0 c6 ec 33 3c 62 86 a3 bc 84 1a 02 bc 18 9f 72 3c
       0.010981744 -0.01996154 -0.007940892 0.014808439
0001f0 a0 34 f7 bb 65 28 99 bb ef a8 b4 3b af 65 75 3c
       -0.007544115 -0.004674005 0.0055133025 0.014977857
000200 47 ba 93 bc 7a 29 b1 bb e2 ad 5b bc cd 39 d7 bb
       -0.01803316 -0.0054065557 -0.013408156 -0.0065681697
000210 70 81 9f 3c 33 d1 39 bb 0b 92 a3 bc bf 31 08 bc
       0.0194709 -0.0028353452 -0.0199671 -0.008312642
000220 ce 63 af bc b0 27 4c 3b 3f 24 51 bb ee 22 9f 3c
       -0.021409895 0.0031151585 -0.0031912473 0.019425835
000230 7a 4c 84 bb 8b 36 b5 3c 16 c1 98 3c 2f eb df 3b
       -0.004037437 0.022120735 0.018646758 0.006833456
000240 27 37 2f bb b5 79 45 3b b7 b3 c4 3b bb 90 1c bc
       -0.0026735754 0.0030132357 0.006002869 -0.009555991
000250 b3 ad 27 bc f6 21 42 3c b7 f4 e1 bc 30 dd 39 bb
       -0.010234284 0.011848917 -0.02758251 -0.0028360598
000260 7f 1e 51 3c 17 15 8d ba 93 e6 8d 3b 2a cf e5 3c
       0.0127636185 -0.0010763732 0.004330465 0.028052885
000270 52 6b 9b 3c e0 54 07 3d 65 ca 92 bc c7 ba 9a 3b
       0.018972073 0.033039927 -0.017918775 0.0047219726
000280 1e 38 c0 3b c1 7e bb 3c c2 b6 f1 3b e2 6a 56 bb
       0.0058660647 0.02288759 0.0073765228 -0.0032717516
000290 13 fb 89 3c c8 bf 40 bc 7f 0b 4e ba dd 5a 2f 3d
       0.016843354 -0.011764474 -0.00078599894 0.042811263
0002a0 a5 6b 6b bc b8 5d 66 bc b1 be 01 3d aa 0c eb 3c
       -0.014368926 -0.01406043 0.031675998 0.028692562
0002b0 cf 8b c5 3a c0 46 7f 3c e0 11 64 3b aa d8 57 bc
       0.0015071573 0.015580833 0.0034800693 -0.013174215
0002c0 d7 92 ee 3a cf 08 09 3c b0 c3 2a bc f7 13 91 bc
       0.0018201721 0.008363917 -0.010422632 -0.017709715
0002d0 2e 5d 35 bc 77 e8 02 bd 4d ff c9 ba 7b 7a b8 3b
       -0.011069579 -0.031959977 -0.0015411169 0.005629835
0002e0 ed 99 3e bc f3 5b a9 bc c3 f8 31 3b 1a 12 41 3c
       -0.011633378 -0.020673728 0.002715633 0.011784101
0002f0 59 61 84 bb 9c 4f 32 bc 1b c8 ec 3c 83 e9 76 bc
       -0.004039925 -0.010883238 0.028904011 -0.015070322
000300 f8 ac fd bc c7 44 20 bd 17 6b 43 b9 40 d2 4c bc
       -0.030966267 -0.03912809 -0.00018636543 -0.012501299
000310 95 1b a1 3c 29 c5 9f bc 69 a4 96 3b ad 2d 9f 3c
       0.019666472 -0.019503193 0.004597236 0.01943096
000320 4b 3e aa bb 60 4e 0e bd 99 6c 8d 3c 65 7f 6a 3c
       -0.005195414 -0.034742713 0.017263697 0.0143126
000330 ce 44 1f bd 77 36 3b bc 08 f1 c0 3b 73 ae b0 3c
       -0.038883977 -0.01142656 0.005888108 0.021567559
000340 74 15 1f 3d 12 8c ba bb 7c 36 38 bd 23 cb 2d bc
       0.03883882 -0.005692967 -0.044973835 -0.010607514
000350 48 89 c9 bc 42 1b 10 bd 15 02 f2 bc e3 0b 43 3c
       -0.024601594 -0.035182245 -0.029542008 0.0119046895
000360 ad 43 88 bc 25 7e 00 3d 5c c8 95 bc e7 cd 80 bc
       -0.016633833 0.0313703 -0.018284015 -0.015723182
000370 1f 1c ec 3c e2 3c e2 bc 37 ed 9a bb e3 58 85 3c
       0.028822003 -0.027616922 -0.0047279852 0.016277736
000380 01 26 a9 3b 1d 59 9c 3b 07 24 48 3c b7 f7 01 3d
       0.005162001 0.0047713653 0.012215621 0.03173038
000390 6a 9a 15 bd 55 8b b4 bb eb c3 9b bc 0f 15 0f bb
       -0.036524214 -0.0055097737 -0.01901432 -0.002183262
0003a0 f0 56 ab 3b 2a 1e f2 bc 43 e7 4b 3c b7 65 46 3c
       0.0052288696 -0.029555399 0.012445274 0.012109212
0003b0 7a df 30 3d a7 fa 91 bc eb b5 c7 bc 1a cc 03 3c
       0.043181874 -0.017819716 -0.024378737 0.008044267
0003c0 19 75 00 3d e2 a2 ce bc 2c 02 12 b9 e3 c5 f7 3b
       0.031361673 -0.025224153 -0.00013924454 0.0075614317
0003d0 af 68 95 3b f6 6c 46 3c 0d 6f 17 3c 1b 84 0a 3c
       0.0045595984 0.012110939 0.009242785 0.008454348
0003e0 e0 ee 56 bc 1e 45 90 bc 33 08 0a 3d a8 d0 1e bb
       -0.013118476 -0.017611083 0.033699226 -0.0024233256
0003f0 6b 4f 8c bc 93 4f 4d 3c 00 62 b4 bb cf b6 0e 3c
       -0.017127713 0.012531179 -0.0055048466 0.008710577

action_model._continuous_distribution.mu.bias f4 [3]
000000 00 00 00 00 00 00 00 00 00 00 00 00
       0.0 0.0 0.0

network_body._body_endoder.seq_layers.0.weight f4 [128, 6]
000000 57 47 e7 be 6d 66 0e 3e f0 7b e1 be 0f 5a c4 bc
       -0.45171615 0.1390626 -0.4403987 -0.023968725
000010 df 17 b3 3e 17 4e 3e 3e 8d 37 90 be f4 8e 6d bf
       0.3497915 0.18584476 -0.28167382 -0.92796254
000020 64 52 c9 bd 1b 89 72 3e 2b 97 d6 3c 6f d6 c2 3e
       -0.09830168 0.23685114 0.02619513 0.38054225
000030 db c4 cc be a1 2a 24 3d 2a 8c 2f 3e 4c ca 9c bf
       -0.3999394 0.040079717 0.17143312 -1.2249236
000040 d0 38 44 3e 64 96 4c 3e 92 a6 d9 be ad aa be be
       0.19162297 0.19979244 -0.42509896 -0.3723959
000050 6d 5f 9d 3e 5b 9d a1 be a0 24 39 3d 12 b6 26 3f
       0.30736867 -0.31565365 0.045200944 0.6512157
000060 f5 80 25 bf e3 8b 01 bf f2 73 1d 3e 44 17 7d bf
       -0.646499 -0.50604075 0.15376261 -0.98863626
000070 91 e6 6c be f6 0a 6f 3d 39 7f 2a be 72 df 11 3f
       -0.23134829 0.058360063 -0.16650094 0.56981575
000080 31 e7 66 3d 26 ac 7a 3e b5 d9 d8 3e 35 75 5c bd
       0.056372825 0.24479732 0.42353597 -0.053822715
000090 67 4f 0a 3f e6 d1 98 3d 63 b0 cd be 22 45 0b 3f
       0.5402741 0.0746191 -0.40173635 0.54402363
0000a0 c4 8e f2 3e da 8a d8 3d dc 56 67 3e 84 84 ad be
       0.47374547 0.10573359 0.22591728 -0.33890164
0000b0 34 82 12 bf f5 db 1e be 5e e7 24 bd 7a 49 8e be
       -0.57229924 -0.15513594 -0.04025971 -0.27790433
0000c0 ea 0d db be 41 57 d0 3b 4b de 78 be 06 46 96 3d
       -0.42784053 0.0063580577 -0.24303548 0.07337575
0000d0 87 87 db be 2c d4 06 3f af bd 22 3f 7d 13 83 3c
       -0.42876837 0.526675 0.63570684 0.016000504
0000e0 68 b9 4c bf e2 f6 ce bd c5 9a bf bd 8d 44 9f be
       -0.7997041 -0.10105683 -0.09355692 -0.31106988
0000f0 0d 58 49 be e6 aa e6 bd 05 6c 0d 3a 0c ea c6 3e
       -0.19662495 -0.11263065 0.00053948193 0.3885044
000100 52 3a 5c 3f c2 ae d5 be db b3 1c 3f bc 7f 87 be
       0.8602649 -0.41734892 0.6121194 -0.2646464
000110 01 3c 03 3c ba a4 54 be 22 1f 85 3e 45 96 93 3d
       0.0080099115 -0.20765963 0.26000315 0.07206396
000120 0a 7f e9 be c7 99 0b 3e 84 ef 17 3f bb ca 3c 3f
       -0.45604736 0.1363288 0.59349847 0.7374684
000130 65 29 83 3c ff f8 8c be f3 11 a7 be cd 69 00 be
       0.01601095 -0.2753372 -0.32630882 -0.1254036
000140 b7 60 45 3e ce 3b 51 be 07 80 57 3f 90 99 4d bd
       0.19275175 -0.2043297 0.8417973 -0.050195277
000150 32 12 cb 3e ea 52 d1 be f4 e0 83 bb c4 c0 1e bf
       0.3966232 -0.4088357 -0.0040246192 -0.62012887
000160 ee c6 f2 3d 96 d6 f4 bd 97 bd 05 bf f3 62 66 3d
       0.11854349 -0.119549915 -0.52242416 0.05624671
000170 66 ea 4b 3f 06 bb 58 3f 78 93 14 3d 2e ef c2 3e
       0.7965454 0.84660375 0.03627345 0.38073105
000180 3d 80 00 3e 05 f0 09 3f 88 c0 b3 be d2 df 08 be
       0.12548919 0.53881866 -0.35107827 -0.1336663
000190 75 be 5e 3d 56 ef 11 3f 15 eb 74 3f 3a 57 a3 3e
       0.054380853 0.5700582 0.95671207 0.31902486
0001a0 bb 5c 0c bf e2 1d 2a be 66 c4 4b bf 19 c6 b4 bb
       -0.54828995 -0.16612962 -0.79596555 -0.005516779
0001b0 e4 d6 4f 3f b4 2f 3f 3e 9c 32 f9 3e 71 69 59 bf
       0.8118727 0.18670541 0.48671424 -0.84926516
0001c0 e6 d1 bb be f4 e2 10 be 5d 56 54 be 5c c5 e5 3e
       -0.36683577 -0.14149076 -0.2073607 0.44877136
0001d0 cb 20 4e 3e 43 65 ae 3e a9 b1 58 be af 4e 0f 3f
       0.20129697 0.34061632 -0.21161522 0.55979437
0001e0 8e 8d 51 be 46 7f 73 3d 78 9d ce be 14 bd 46 3f
       -0.20464155 0.05944755 -0.40354514 0.7763226
0001f0 ee 9a 79 be 70 28 6f 3e 8a dc 53 3e e3 3d ce be
       -0.24375507 0.2335527 0.20689598 -0.4028159
000200 c5 8a fc be 4b aa 55 be be 28 9f 3e 6d 5c 83 3c
       -0.49324623 -0.20865743 0.3108577 0.016035283
000210 39 e5 90 3e d6 e9 d2 3b d0 38 63 bc 80 7f 65 3e
       0.28299883 0.006436567 -0.013868526 0.22411919
000220 29 7f 84 3e 9c 63 04 3f a3 e2 12 3d 56 04 e7 3e
       0.25878266 0.5171449 0.03586067 0.45120496
000230 c7 11 0d be ec b8 2c be 5c 55 39 3e fb 6b 0c 3e
       -0.13776313 -0.16867417 0.18098968 0.13713066
000240 78 41 c7 bd 0f 55 3e be c5 95 a7 be 40 2c c0 3e
       -0.09729284 -0.18587135 -0.32731453 0.3753376
000250 67 37 fd 3e 31 c0 90 bc ea 27 ea bd dc e1 66 bf
       0.4945633 -0.017669769 -0.11433394 -0.90188384
000260 16 4b 8e 3d 25 d9 09 3f c5 99 36 3e 88 2b 04 be
       0.06947915 0.5384696 0.17832096 -0.12907231
000270 60 f2 cc be 44 29 cc 3e d1 95 46 3f 87 c4 06 bf
       -0.40028667 0.39875233 0.7757235 -0.52643627
000280 76 c1 1c bf 01 fe 67 be 66 76 4b 3f bc 76 99 3e
       -0.612327 -0.22655489 0.79477537 0.299734
000290 63 e7 b0 be be 56 af bd 96 6e 03 bf 39 d5 05 3d
       -0.34551534 -0.08561467 -0.51340616 0.032674048
0002a0 22 e1 df 3c 1a bc 19 be 99 89 57 be 67 87 bb be
       0.027329031 -0.15013161 -0.21048583 -0.3662674
0002b0 96 79 9e 3d 2c 89 a8 bd fc b9 ec 3d 62 87 ae be
       0.077380344 -0.082292885 0.11558911 -0.34087664
0002c0 b9 22 39 3f 72 8f 28 3f 63 0c 54 3e e5 6e 00 be
       0.7231861 0.6584388 0.2070785 -0.12542303
0002d0 a5 a0 c5 be 0f 20 37 3e 9b 3e 7e be c7 c1 1e be
       -0.38599125 0.17883323 -0.2482857 -0.15503608
0002e0 05 ec 84 bf 0f c2 39 3e cd b3 67 be 57 26 d6 3e
       -1.0384527 0.18140434 -0.22627182 0.41826126
0002f0 2b 46 dd bd 04 a1 b7 be 62 9d b6 bc 2d c7 54 bf
       -0.10804399 -0.35865033 -0.022291843 -0.8311642
000300 03 ea ef be 9f 6c a4 be 6c 91 af 3e 04 be 28 3f
       -0.46858224 -0.3211412 0.34290636 0.6591494
000310 89 fd cf 3e 4b 90 4e bf 76 db 0c be 61 ed d3 3e
       0.4062312 -0.80688924 -0.13755593 0.41392043
000320 3b 53 a8 3d 98 86 4d bf a2 c7 9d 3e 90 30 1d bf
       0.08219 -0.802835 0.3081637 -0.61402225
000330 36 10 c7 bd d5 4c 0b bf 2f 7a 36 3d a8 9f 02 3f
       -0.09719889 -0.5441411 0.044550117 0.51024866
000340 5d b0 be 3d bf c3 e3 3e c0 8b 9e 3e bd 80 85 3d
       0.093109824 0.4448528 0.30965996 0.065186955
000350 3c 40 67 be 12 e2 e3 3e 21 ae 62 be 88 2e 20 3e
       -0.22583097 0.44508415 -0.22136737 0.1564275
000360 33 08 35 3f 12 33 a1 3e 82 be d0 3c 0a cb 7b bf
       0.70715636 0.31484276 0.025481466 -0.9835669
000370 38 52 92 3c ec 6d f6 bd f3 29 cb 3e ea c6 89 bf
       0.01786147 -0.12032685 0.39680442 -1.0763829
000380 0b 8c c2 3e 8d 85 b9 3e 94 ae 85 bd 4d 3e 75 be
       0.3799747 0.36234704 -0.06527439 -0.23949547
000390 fb c2 8f be c9 e3 5c 3f ec b8 fe bd 71 d7 cb 3d
       -0.28078446 0.8628507 -0.12437615 0.099532016
0003a0 c5 81 2a 3d 30 46 9d be b6 f1 81 be bb 65 39 be
       0.041627664 -0.3071761 -0.25379723 -0.18105213
0003b0 f4 95 ac 3d 90 1b c2 3e d9 17 63 3e af 31 6b be
       0.08427039 0.37911654 0.22177066 -0.22968172
0003c0 9f 8b f8 bd e0 27 12 3f 23 98 91 3e af 8b af 3e
       -0.121360056 0.57092094 0.28436384 0.34286258
0003d0 e6 83 bd be ae ed c7 be 6e da 98 be 4b de 58 3d
       -0.37014693 -0.39048523 -0.2985415 0.05294637
0003e0 1d 69 87 be 73 69 9f 3d 27 f0 ad 3e 80 04 10 3f
       -0.26447383 0.07783785 0.33972284 0.56256866
0003f0 47 0e c7 be 5a 23 16 3e 3e 90 1d bf ad ff 59 be
       -0.3887808 0.14661923 -0.6154822 -0.21288939

network_body._body_endoder.seq_layers.0.bias f4 [128]
000000 00 00 00 00 00 00 00 00 00 00 00 00 00 00 00 00
       0.0 0.0 0.0 0.0
000010 00 00 00 00 00 00 00 00 00 00 00 00 00 00 00 00
       0.0 0.0 0.0 0.0
000020 00 00 00 00 00 00 00 00 00 00 00 00 00 00 00 00
       0.0 0.0 0.0 0.0
000030 00 00 00 00 00 00 00 00 00 00 00 00 00 00 00 00
       0.0 0.0 0.0 0.0
000040 00 00 00 00 00 00 00 00 00 00 00 00 00 00 00 00
       0.0 0.0 0.0 0.0
000050 00 00 00 00 00 00 00 00 00 00 00 00 00 00 00 00
       0.0 0.0 0.0 0.0
000060 00 00 00 00 00 00 00 00 00 00 00 00 00 00 00 00
       0.0 0.0 0.0 0.0
000070 00 00 00 00 00 00 00 00 00 00 00 00 00 00 00 00
       0.0 0.0 0.0 0.0
000080 00 00 00 00 00 00 00 00 00 00 00 00 00 00 00 00
       0.0 0.0 0.0 0.0
000090 00 00 00 00 00 00 00 00 00 00 00 00 00 00 00 00
       0.0 0.0 0.0 0.0
0000a0 00 00 00 00 00 00 00 00 00 00 00 00 00 00 00 00
       0.0 0.0 0.0 0.0
0000b0 00 00 00 00 00 00 00 00 00 00 00 00 00 00 00 00
       0.0 0.0 0.0 0.0
0000c0 00 00 00 00 00 00 00 00 00 00 00 00 00 00 00 00
       0.0 0.0 0.0 0.0
0000d0 00 00 00 00 00 00 00 00 00 00 00 00 00 00 00 00
       0.0 0.0 0.0 0.0
0000e0 00 00 00 00 00 00 00 00 00 00 00 00 00 00 00 00
       0.0 0.0 0.0 0.0
0000f0 00 00 00 00 00 00 00 00 00 00 00 00 00 00 00 00
       0.0 0.0 0.0 0.0
000100 00 00 00 00 00 00 00 00 00 00 00 00 00 00 00 00
       0.0 0.0 0.0 0.0
000110 00 00 00 00 00 00 00 00 00 00 00 00 00 00 00 00
       0.0 0.0 0.0 0.0
000120 00 00 00 00 00 00 00 00 00 00 00 00 00 00 00 00
       0.0 0.0 0.0 0.0
000130 00 00 00 00 00 00 00 00 00 00 00 00 00 00 00 00
       0.0 0.0 0.0 0.0
000140 00 00 00 00 00 00 00 00 00 00 00 00 00 00 00 00
       0.0 0.0 0.0 0.0
000150 00 00 00 00 00 00 00 00 00 00 00 00 00 00 00 00
       0.0 0.0 0.0 0.0
000160 00 00 00 00 00 00 00 00 00 00 00 00 00 00 00 00
       0.0 0.0 0.0 0.0
000170 00 00 00 00 00 00 00 00 00 00 00 00 00 00 00 00
       0.0 0.0 0.0 0.0
000180 00 00 00 00 00 00 00 00 00 00 00 00 00 00 00 00
       0.0 0.0 0.0 0.0
000190 00 00 00 00 00 00 00 00 00 00 00 00 00 00 00 00
       0.0 0.0 0.0 0.0
0001a0 00 00 00 00 00 00 00 00 00 00 00 00 00 00 00 00
       0.0 0.0 0.0 0.0
0001b0 00 00 00 00 00 00 00 00 00 00 00 00 00 00 00 00
       0.0 0.0 0.0 0.0
0001c0 00 00 00 00 00 00 00 00 00 00 00 00 00 00 00 00
       0.0 0.0 0.0 0.0
0001d0 00 00 00 00 00 00 00 00 00 00 00 00 00 00 00 00
       0.0 0.0 0.0 0.0
0001e0 00 00 00 00 00 00 00 00 00 00 00 00 00 00 00 00
       0.0 0.0 0.0 0.0
0001f0 00 00 00 00 00 00 00 00 00 00 00 00 00 00 00 00
       0.0 0.0 0.0 0.0

network_body._body_endoder.seq_layers.2.weight f4 [128, 128]
000000 0b 2b ad 3c 99 8e d1 3b 55 74 f8 bd fc 53 f1 bd
       0.021138689 0.006395173 -0.121315636 -0.11783597
000010 ef 41 ad bd e7 f2 9e bd 96 82 55 3b da 5e ed bd
       -0.084598415 -0.07761174 0.0032579056 -0.11590357
000020 01 cb 97 bd ba 8a 52 3e 39 6d 2d 3b 54 20 10 bd
       -0.07411767 0.20560732 0.0026462807 -0.03518708
000030 5a c7 d0 bb 3b 86 57 3a 7c 29 91 3d 6a 42 4d bd
       -0.006371421 0.0008221601 0.07087991 -0.050112166
000040 1f f9 83 bb 0b b9 11 3e c9 c8 95 bd 3d 6a b7 bd
       -0.0040275003 0.14230745 -0.07313687 -0.0895581
000050 b3 aa c5 bd a0 aa 14 3c ae a4 1d be 1b f4 22 be
       -0.09651699 0.009073883 -0.15394852 -0.15913431
000060 35 d3 59 bd cc c1 85 bd 10 62 36 3d fd 22 a8 bc
       -0.05317994 -0.065311044 0.044527113 -0.020524496
000070 30 d2 5b be 56 cd da bd 93 7e 52 3d e7 93 ce bb
       -0.21466899 -0.10683696 0.05139024 -0.0063042524
000080 2f 4d ca 3d f2 16 bf 3d a1 13 96 bd 73 9d 13 be
       0.09878003 0.09330548 -0.07327963 -0.14415531
000090 83 68 9a 3d 38 b8 49 ba bb 64 83 3c c3 0e 54 3d
       0.07539465 -0.0007694992 0.016039243 0.05177189
0000a0 da 63 b8 3b a8 0c 9c bd 37 2a 2a bd 39 2e ac 3d
       0.0056271376 -0.076196015 -0.041544165 0.08407254
0000b0 51 1d 89 bd fb ba 3c bd f1 51 64 be 68 50 78 bd
       -0.06695045 -0.046076756 -0.22296883 -0.060623556
0000c0 c1 18 08 3e 22 fe da bc ea c4 2e 3d e3 4c b5 3c
       0.13290693 -0.026732508 0.04266826 0.022131389
0000d0 f5 e1 d6 3b 89 6c af bc dc d7 ec bc b9 88 66 bd
       0.006557698 -0.021414058 -0.028911524 -0.056282733
0000e0 6c c0 e6 3d dd c6 a1 bd a7 c6 26 3d ac de 06 3b
       0.1126717 -0.07899258 0.040716793 0.00205795
0000f0 5e 8b 38 3e e3 1e 0d bd 6f da a1 3d 77 79 a6 bd
       0.18021914 -0.034453284 0.07902991 -0.08128636
000100 5b f2 b2 bc 75 74 80 bd 4f 10 cd 3d c7 04 90 bb
       -0.02184408 -0.062722124 0.10012876 -0.0043951008
000110 03 91 dd 3d 16 2f a5 bd 1e c6 3e 3d 56 f4 54 bd
       0.108186744 -0.080656216 0.046575658 -0.05199083
000120 cc 6c 93 3c 9b d1 c4 bd a5 0b a9 bd 15 a1 4f 3d
       0.017996214 -0.096102916 -0.08254174 0.05069073
000130 2a 8b e7 3c 95 30 99 3d c2 87 17 3e 54 79 35 3d
       0.0282646 0.074799694 0.14797881 0.04430516
000140 ce bd 96 3d b4 5f 25 bd f6 a6 dc bd 73 95 d2 3d
       0.07360421 -0.040374473 -0.10774033 0.102824114
000150 c5 b4 a7 bd e1 da 0e be 14 cc bc 3d dd c7 24 3d
       -0.08188776 -0.13950683 0.09218612 0.040229667
000160 7c 66 15 be 78 8c 1c 3e 0a 3e 9f 3a 33 27 ae bd
       -0.14589876 0.1528796 0.0012149226 -0.085035704
000170 80 c7 4c bd 19 84 9f bd ff d3 89 3d 7c 25 e7 bd
       -0.049994946 -0.077888675 0.06729888 -0.112864465
000180 ec b4 92 bd 04 92 01 bd 77 ac be 3c 09 48 04 be
       -0.07163414 -0.031633392 0.023275597 -0.12918104
000190 9d 8b 57 3e ea 20 17 3e be 99 ff bc 8e a3 a6 bc
       0.21049352 0.1475865 -0.03120124 -0.02034166
0001a0 76 36 f8 bd 1e 04 84 3d d2 fb bf 3b 3d c1 13 be
       -0.121197626 0.06446098 0.0058588767 -0.14429183
0001b0 36 7a 32 3c ff e6 db bd aa 1e 01 3e 06 c3 f1 bc
       0.010893395 -0.107374184 0.12609354 -0.02951194
0001c0 e4 e5 db 3c de 56 d8 3d 49 7c f1 bc 4f 6b d0 bd
       0.026843019 0.105634436 -0.02947821 -0.101767175
0001d0 04 67 98 3d 14 3b f9 3d 6e 3c 46 bd ce ad e0 3d
       0.07441524 0.121694714 -0.048397474 0.109706506
0001e0 f1 0c 56 3d bf 1a 80 3d 70 76 c2 bd c9 06 cc 3d
       0.052258436 0.062551014 -0.094952464 0.09962232
0001f0 18 a8 d2 3d bc 06 39 3d 95 e2 fd bd f9 c6 c5 3c
       0.102859676 0.045172438 -0.12396733 0.02414273
000200 0e a3 00 bd ad f5 f7 bd 73 20 34 3d c4 a6 c2 3d
       -0.0314055 -0.12107406 0.04397626 0.09504464
000210 92 3c 8f bd 89 bf 58 3d f5 00 0b 3d 28 24 14 bd
       -0.06993975 0.052917037 0.03393646 -0.036167294
000220 4f f0 db 3c 14 aa 22 bd 0f f2 08 be 1f 71 19 be
       0.026847987 -0.03971298 -0.13373588 -0.14984559
000230 7b 82 ba 3d a7 9b e7 3c 48 1c c6 bd ba ac db 3d
       0.091069184 0.028272463 -0.09673363 0.10726304
000240 78 26 a8 bd b0 fa cb 3d b3 66 d0 bd bb 54 91 bd
       -0.08210462 0.09959924 -0.10175838 -0.07096239
000250 7f fc 02 bd a2 90 1e 3d 07 bb c8 3d 9d 86 d9 3d
       -0.03197908 0.03871215 0.09801298 0.106213786
000260 ee a5 1a bd fb 94 4c bd 32 59 78 bd 53 14 0e 3d
       -0.0377559 -0.049946766 -0.06063194 0.03468735
000270 e2 52 91 be 56 be 0b 3d 9d cc 5b 3d c1 fd 91 3b
       -0.28383547 0.034117065 0.05366193 0.0044552987
000280 95 aa 45 3c a6 ef cf 3c 36 b2 40 3d d6 04 c0 bd
       0.012064596 0.025382828 0.047044955 -0.093759224
000290 ad ae 0a 3e f6 29 98 3d 64 41 2c be 4e a7 27 3c
       0.13543196 0.074298784 -0.1682182 0.01023276
0002a0 3a 11 8b bd 3d 11 0a 3e 19 b6 8d bd 61 f0 bd bd
       -0.06790395 0.13483138 -0.06919498 -0.09274364
0002b0 24 38 ac 3c 3b 63 2c 3e 60 19 05 3e f9 2f 4e bc
       0.021022864 0.16834728 0.12997961 -0.01258468
0002c0 f7 20 e1 3d df 59 41 3c 45 a1 12 3b a0 b6 97 b9
       0.10992616 0.011801212 0.0022373956 -0.0002893703
0002d0 f5 1c 19 bc 19 d5 37 3c a0 86 cc bd 18 de e2 bd
       -0.009345283 0.01122024 -0.09986615 -0.11077517
0002e0 1a a8 82 3c d4 10 29 3d 9b bf 83 3d 1d e3 8e bd
       0.015949298 0.041275814 0.0643303 -0.06976912
0002f0 a3 33 80 bd 0e 02 90 3c 90 b4 6b 3d 84 e5 25 bc
       -0.06259849 0.017579105 0.057545245 -0.010125522
000300 f8 d1 d5 3d c1 06 68 bd 63 75 83 3d 4f 69 35 3d
       0.10440439 -0.056647066 0.06418874 0.044289883
000310 ee bb 88 bd 93 6c a8 3c 94 3d 75 3d 79 ee c1 bc
       -0.0667647 0.020559585 0.05987318 -0.023673283
000320 30 4f fa bd bc da bd 3d bd df 0b 3b 93 80 e5 3c
       -0.12222135 0.09270236 0.0021343075 0.02801541
000330 d5 d1 89 bc 2d 76 a3 bd ad f1 44 3d ba a1 15 3e
       -0.016823689 -0.079815246 0.048082042 0.14612475
000340 fc 83 97 3d f6 6d 38 bd e6 f1 7e 3d 83 52 85 bd
       0.07398221 -0.045026742 0.06224241 -0.065098785
000350 1b 6d 32 3d 0f 1c f0 bc 06 32 ce 3d af 8e ab bd
       0.043561082 -0.029310254 0.10068135 -0.08376824
000360 9a 03 18 3c c4 3b 28 bd 5c ac e4 3d 13 4a 12 be
       0.009278202 -0.041072622 0.111656874 -0.1428607
000370 79 01 c3 bd f3 ef ed 3d f0 41 35 3d 2a 88 eb bc
       -0.09521765 0.11618032 0.044252336 -0.028751452
000380 ec 5e 73 bd ad 4a c3 3d 39 bb da bd e1 99 3d 3e
       -0.059416696 0.09535728 -0.10680241 0.18515731
000390 e5 a9 34 be 79 60 bb 3d d4 0d 60 3c fa 71 06 3d
       -0.17642935 0.0914926 0.013675172 0.03282354
0003a0 52 7f e2 3d 3a 17 93 bc 40 0c 9c 3b 0e 34 c3 3d
       0.11059441 -0.017955411 0.0047622025 0.09531413
0003b0 54 8b 8f 3d c5 1f 09 3e 74 7f c5 bc af 26 16 3e
       0.070089966 0.13391025 -0.024108626 0.14663194
0003c0 48 11 63 bd ce 38 80 3d 74 8f 69 bc 3e cd 22 bc
       -0.055436403 0.06260835 -0.014255393 -0.009936629
0003d0 b3 71 f3 3d 36 0e 1a bd b5 34 5c bc a0 d6 e2 bc
       0.11886921 -0.03761121 -0.013440301 -0.027690232
0003e0 d3 0f 3f bd 40 be 25 3e 1f 41 73 bc d6 72 01 3c
       -0.04664595 0.16185856 -0.014847069 0.007900914
0003f0 e4 e9 c2 3d 63 d6 28 3e 43 94 9f bd 0c a9 80 3d
       0.09517267 0.16488032 -0.077919506 0.06282243

network_body._body_endoder.seq_layers.2.bias f4 [128]
000000 00 00 00 00 00 00 00 00 00 00 00 00 00 00 00 00
       0.0 0.0 0.0 0.0
000010 00 00 00 00 00 00 00 00 00 00 00 00 00 00 00 00
       0.0 0.0 0.0 0.0
000020 00 00 00 00 00 00 00 00 00 00 00 00 00 00 00 00
       0.0 0.0 0.0 0.0
000030 00 00 00 00 00 00 00 00 00 00 00 00 00 00 00 00
       0.0 0.0 0.0 0.0
000040 00 00 00 00 00 00 00 00 00 00 00 00 00 00 00 00
       0.0 0.0 0.0 0.0
000050 00 00 00 00 00 00 00 00 00 00 00 00 00 00 00 00
       0.0 0.0 0.0 0.0
000060 00 00 00 00 00 00 00 00 00 00 00 00 00 00 00 00
       0.0 0.0 0.0 0.0
000070 00 00 00 00 00 00 00 00 00 00 00 00 00 00 00 00
       0.0 0.0 0.0 0.0
000080 00 00 00 00 00 00 00 00 00 00 00 00 00 00 00 00
       0.0 0.0 0.0 0.0
000090 00 00 00 00 00 00 00 00 00 00 00 00 00 00 00 00
       0.0 0.0 0.0 0.0
0000a0 00 00 00 00 00 00 00 00 00 00 00 00 00 00 00 00
       0.0 0.0 0.0 0.0
0000b0 00 00 00 00 00 00 00 00 00 00 00 00 00 00 00 00
       0.0 0.0 0.0 0.0
0000c0 00 00 00 00 00 00 00 00 00 00 00 00 00 00 00 00
       0.0 0.0 0.0 0.0
0000d0 00 00 00 00 00 00 00 00 00 00 00 00 00 00 00 00
       0.0 0.0 0.0 0.0
0000e0 00 00 00 00 00 00 00 00 00 00 00 00 00 00 00 00
       0.0 0.0 0.0 0.0
0000f0 00 00 00 00 00 00 00 00 00 00 00 00 00 00 00 00
       0.0 0.0 0.0 0.0
000100 00 00 00 00 00 00 00 00 00 00 00 00 00 00 00 00
       0.0 0.0 0.0 0.0
000110 00 00 00 00 00 00 00 00 00 00 00 00 00 00 00 00
       0.0 0.0 0.0 0.0
000120 00 00 00 00 00 00 00 00 00 00 00 00 00 00 00 00
       0.0 0.0 0.0 0.0
000130 00 00 00 00 00 00 00 00 00 00 00 00 00 00 00 00
       0.0 0.0 0.0 0.0
000140 00 00 00 00 00 00 00 00 00 00 00 00 00 00 00 00
       0.0 0.0 0.0 0.0
000150 00 00 00 00 00 00 00 00 00 00 00 00 00 00 00 00
       0.0 0.0 0.0 0.0
000160 00 00 00 00 00 00 00 00 00 00 00 00 00 00 00 00
       0.0 0.0 0.0 0.0
000170 00 00 00 00 00 00 00 00 00 00 00 00 00 00 00 00
       0.0 0.0 0.0 0.0
000180 00 00 00 00 00 00 00 00 00 00 00 00 00 00 00 00
       0.0 0.0 0.0 0.0
000190 00 00 00 00 00 00 00 00 00 00 00 00 00 00 00 00
       0.0 0.0 0.0 0.0
0001a0 00 00 00 00 00 00 00 00 00 00 00 00 00 00 00 00
       0.0 0.0 0.0 0.0
0001b0 00 00 00 00 00 00 00 00 00 00 00 00 00 00 00 00
       0.0 0.0 0.0 0.0
0001c0 00 00 00 00 00 00 00 00 00 00 00 00 00 00 00 00
       0.0 0.0 0.0 0.0
0001d0 00 00 00 00 00 00 00 00 00 00 00 00 00 00 00 00
       0.0 0.0 0.0 0.0
0001e0 00 00 00 00 00 00 00 00 00 00 00 00 00 00 00 00
       0.0 0.0 0.0 0.0
0001f0 00 00 00 00 00 00 00 00 00 00 00 00 00 00 00 00
       0.0 0.0 0.0 0.0

value_heads.value_heads.extrinsic.weight f4 [1, 128]
000000 d6 5a 01 be 5c ca 3b 3e c0 7c 3a 3e f4 f2 01 bd
       -0.12632307 0.18338913 0.18211651 -0.03172584
000010 24 64 1c 3e cc f8 2c bd e8 27 b2 3d 08 21 b7 3d
       0.15272576 -0.04222946 0.08699018 0.08941847
000020 a0 b3 65 3d d4 7c 1b be 18 91 1c 3e 6e 39 18 3e
       0.056079507 -0.15184337 0.15289724 0.14865658
000030 14 9f b1 3d 00 37 6e 3a 80 a9 4e 3d 6e 3b 2c 3e
       0.0867292 0.0009087175 0.050454617 0.16819546
000040 52 69 0c be 22 ad 26 be c0 9e 91 bc 18 e0 34 bd
       -0.13712052 -0.16276982 -0.017775893 -0.044159025
000050 c0 c3 7e bc 30 a0 14 be 30 25 27 3e 36 cf 21 be
       -0.0155496 -0.14514232 0.1632278 -0.15801701
000060 0a 28 41 3e fc ca e6 3d 76 0b 33 be 24 b8 04 3e
       0.1886293 0.11269185 -0.17484841 0.12960869
000070 90 71 2b 3e ac 86 10 bd 73 f3 37 be 82 1f 59 be
       0.1674254 -0.035284683 -0.17963962 -0.21203426
000080 10 e9 4c 3d 5c a1 6b bd c1 63 f1 bd 80 0a 99 3b
       0.050026953 -0.05752693 -0.11786605 0.004670441
000090 50 9d fa 3d 38 77 06 3d 65 5d 4b be 86 29 2b be
       0.12237036 0.03282854 -0.19859846 -0.16715059
0000a0 d0 60 e0 3d 08 14 93 3d 56 81 57 3e b8 8b 3d 3e
       0.109559655 0.07181555 0.21045431 0.1851033
0000b0 a0 7c 56 3d 68 de 73 3d b0 b5 fb bc 6c 3d b6 bd
       0.052364945 0.059538275 -0.030726284 -0.08898434
0000c0 6c b0 00 3d 4c 8c 17 bd b0 92 9e 3c 44 2a 9b bd
       0.03141825 -0.036999032 0.019357055 -0.07576421
0000d0 04 ee e9 3d 3c 1d c1 3d c0 45 be 3c 08 9c c5 3d
       0.11422351 0.09429404 0.023226619 0.09648901
0000e0 30 68 24 3c 20 cd 9e bb 50 59 e8 3d 72 5a 04 be
       0.010034606 -0.00484623 0.1134516 -0.12925127
0000f0 e6 b1 b2 bd fa 6f 48 be e0 d0 bb 3d c0 a4 5b bc
       -0.08725338 -0.19573966 0.09170699 -0.013405979
000100 00 39 0d 3d 6c 9a 8f 3d 8e fd 03 3e 3e a2 e1 bd
       0.034478188 0.070118755 0.12889692 -0.11017273
000110 78 4c 05 bd 94 1b da 3d 45 43 c9 bd 9a e6 09 be
       -0.03254363 0.10649791 -0.09827284 -0.13466874
000120 24 68 ac bd e8 a6 8f bc 14 34 a8 bd 98 61 95 3c
       -0.08418301 -0.017535642 -0.08213058 0.018235013
000130 b4 60 8a 3d 70 9d 5a 3e 56 b1 1f 3e af 50 de bd
       0.06756726 0.2134912 0.15594992 -0.10855233
000140 30 e5 e9 3d 24 84 25 3e 1e 66 05 3e be 2c 13 3e
       0.11420667 0.16163689 0.13027236 0.14372537
000150 ec b2 b8 3d 80 8d 6a 3d 3c 76 f6 3d ba ff 84 bd
       0.09018502 0.05726385 0.1203427 -0.064940885
000160 fe 7c 9d bd 74 31 47 be 50 e1 e5 3d d7 08 53 be
       -0.07689856 -0.19452459 0.112246156 -0.20608841
000170 68 47 18 3d b8 9a 83 bd c0 c9 cf 3d b6 c8 12 3e
       0.037177473 -0.06425995 0.10145903 0.14334378
000180 60 9a 27 3d 12 98 05 3e 82 3f 08 be ad 17 e7 bd
       0.040918708 0.13046291 -0.13305476 -0.11283813
000190 ec 0b 26 bd a7 82 16 be 3a 41 0d be 0c 89 dc 3d
       -0.040538713 -0.14698277 -0.13794413 0.10768327
0001a0 8a 2b 03 3e f8 5e 51 be e8 56 07 3d 40 9b 1d 3d
       0.12809578 -0.20446384 0.033041865 0.038478136
0001b0 17 d8 5b be 44 69 26 be 44 bb a4 3d 28 1e ac 3d
       -0.2146915 -0.16251093 0.080435306 0.08404189
0001c0 44 21 82 bd 38 0d 5b 3d 81 31 e4 bd c8 18 de bc
       -0.06354001 0.053479403 -0.111422546 -0.027111426
0001d0 60 86 6b 3d 64 5e ab 3d b6 bb 27 be 48 8f 7c 3d
       0.057501197 0.08367613 -0.163802 0.06166008
0001e0 70 df e0 3d 2d 96 fd bd 6c c3 97 3d 92 de 3a be
       0.10980117 -0.123821594 0.07410321 -0.18248966
0001f0 80 d3 94 ba 80 b1 02 be 34 dd 07 3e e0 59 20 bc
       -0.0011354536 -0.12763023 0.13267976 -0.009787053
