results/Test22/MoveToTarget/MoveToTarget-5407.pt (torch, 150090 bytes, 12 tensors)

network_body._body_endoder.seq_layers.0.weight f4 [128, 6]
0	0xbe489fe2	-0.1959224
1	0x3eceeb6a	0.40413982
2	0x3d03c80a	0.032173194
3	0xbdea80ba	-0.11450334
4	0xbdf6046a	-0.12012561
5	0x3e556071	0.2083757
6	0x3f28f027	0.65991443
7	0xbe145f3e	-0.14489457
8	0xbf0bb527	-0.5457329
9	0xbf0b2da7	-0.54366535
10	0x3e79b107	0.24383937
11	0x3e8e1fe6	0.27758712
12	0x3f1db831	0.6160918
13	0x3a55a80e	0.0008150347
14	0x3da8350f	0.08213245
15	0xbe47c424	-0.19508415
16	0x3e355de2	0.17711595
17	0xbf0cdf83	-0.5502855
18	0x3ef9b50b	0.48770937
19	0xbee966ea	-0.4558633
20	0x3e00ba58	0.12571084
21	0xbeb727d6	-0.3577258
22	0xbe9834ca	-0.29727775
23	0x3f293d4e	0.6610917
24	0x3dc32459	0.09528417
25	0x3f123391	0.57109934
26	0xbf36a5f4	-0.71346974
27	0xbede0a45	-0.4336721
28	0xbddff7d5	-0.10935942
29	0x3ea22c8a	0.31674606
30	0x3cff437a	0.031160105
31	0xbe070f2e	-0.13189384
32	0x3ef3c453	0.4761072
33	0x3f03439f	0.51275057
34	0xbea4cf13	-0.32189235
35	0xbf2c0b34	-0.67204595
36	0xbd92c44f	-0.07166349
37	0xbe99c96f	-0.30036494
38	0x3f257049	0.6462446
39	0x3e3881fa	0.18018332
40	0xbe4576a0	-0.19283533
41	0xbd97f4a7	-0.074197106
42	0x3da49135	0.080355085
43	0x3e744396	0.23853907
44	0xbeea9e23	-0.45823774
45	0x3e781596	0.24226984
46	0x3df6ac46	0.12044577
47	0xbeba5cde	-0.36398977
48	0xbe841184	-0.25794613
49	0x3ea48139	0.3212984
50	0xbdcb4115	-0.09924523
51	0xbdf8906d	-0.12136922
52	0xbf1faef9	-0.6237636
53	0x3eac1113	0.33606777
54	0x3e2ea887	0.17056476
55	0x3e36892a	0.17825761
56	0xbeabb2c5	-0.33534828
57	0xbc0558aa	-0.008138815
58	0xbf48a1d1	-0.7837191
59	0x3ee404f2	0.44535023
60	0xbe69ea1e	-0.22843215
61	0x3e8ab56e	0.27091545
62	0xbe34ab05	-0.17643364
63	0x3e9361e8	0.28785634
64	0x3cf7e4ba	0.030260433
65	0x3f458c9b	0.7716767
66	0xbe0a78fe	-0.13522717
67	0x3f09d4ca	0.53840315
68	0x3ef831f4	0.4847561
69	0x3e406044	0.18786722
70	0xbe80bf2c	-0.25145853
71	0x3d64ced4	0.05586131
72	0x3f28a78a	0.65880644
73	0xbcfe50e7	-0.031044437
74	0xbed84f54	-0.42248023
75	0x3e85feaa	0.26170856
76	0xbe708115	-0.23486741
77	0xbd1cacbf	-0.03825068
78	0x3da9277f	0.082594864
79	0xbe221295	-0.15827401
80	0x3dd2349a	0.10263939
81	0xbdd1c54d	-0.1024271
82	0xbe914698	-0.2837417
83	0x3eac1e88	0.33617043
84	0x3f1183e1	0.56841856
85	0xbe9d675d	-0.30742922
86	0xbea83c81	-0.3285866
87	0xbe9730dd	-0.29529467
88	0x3daf9c70	0.0857476
89	0x3dbf182e	0.09330784
90	0x3e5f8142	0.21826652
91	0x3ec26f50	0.3797555
92	0x3e9c7f57	0.30565903
93	0xbebf3a66	-0.37349242
94	0xbe9b093b	-0.3028048
95	0xbe67a744	-0.226224
96	0x3e98d4bc	0.29849803
97	0x3f03db75	0.5150674
98	0xbe24c51f	-0.1609082
99	0x3e683b3c	0.22678846
100	0x3e88a230	0.2668624
101	0xbe2ee77a	-0.17080489
102	0x3d290c1c	0.041271314
103	0xbd97cb24	-0.07411793
104	0x3dbd3408	0.0923844
105	0x3ea2ab37	0.31771252
106	0xbf35621c	-0.7085283
107	0x3d9917c8	0.07475239
108	0xbea5f96a	-0.3241685
109	0xbe46c831	-0.19412304
110	0xbf1dde22	-0.6166707
111	0xbdeb8726	-0.11500387
112	0x3f373130	0.7155943
113	0x3ef729dd	0.48274127
114	0x3d9f339d	0.07773516
115	0xbd5722b6	-0.052523337
116	0x3f56f57e	0.8396834
117	0x3dc224f0	0.094797015
118	0x3ebb2abb	0.36556038
119	0xbd8113df	-0.06302618
120	0x3f7f1431	0.99640185
121	0x3e1fefc3	0.15618806
122	0xbe71f76d	-0.23629542
123	0xbe921ad3	-0.2853609
124	0x3dc6526a	0.09683688
125	0xbf257ee3	-0.6464674
126	0x3efa2ccf	0.4886231
127	0xbe80f2fd	-0.25185385
128	0x3e93b799	0.2885101
129	0x3e1d530a	0.15363708
130	0x3d8e8870	0.06959617
131	0x3f2bad86	0.6706165
132	0x3ecf392f	0.40473315
133	0x3e4d09af	0.20023225
134	0x3e99f919	0.3007286
135	0x3f71545b	0.9426934
136	0x3e22e904	0.15909201
137	0x3f1ce2de	0.6128367
138	0xbf5971ce	-0.8493928
139	0xbf023469	-0.5086122
140	0xbe4e033b	-0.2011842
141	0xbf441c52	-0.76605713
142	0xbe17337e	-0.14765736
143	0x3e96fefb	0.2949141
144	0xbe63d572	-0.22249392
145	0xbf65188e	-0.8949059
146	0xbf107c16	-0.5643934
147	0xbed61369	-0.41811684
148	0xbdf48e46	-0.11941199
149	0x3e07553b	0.13216107
150	0xbdceed51	-0.10103858
151	0xbd804ae7	-0.062642865
152	0xbeba1101	-0.36341098
153	0xbd2a4276	-0.04156729
154	0xbca2f397	-0.019891543
155	0x3e9959eb	0.29951414
156	0xbf1f636d	-0.62261087
157	0x3eb7f4ee	0.35929054
158	0x3e39b4eb	0.18135421
159	0xbe734ccc	-0.23759764
160	0xbd1ccda8	-0.038282067
161	0xbef4ba23	-0.4779826
162	0x3f0284f6	0.5098413
163	0xbe350653	-0.17678194
164	0x3cb3e1bd	0.021958226
165	0xbc2a826c	-0.010407072
166	0x3dcc630a	0.09979828
167	0xbeda656c	-0.42655504
168	0xbf8478bb	-1.0349344
169	0x3e0272e1	0.12739135
170	0x3f1a7697	0.60337204
171	0x3d214cee	0.039380006
172	0x3e6492de	0.2232165
173	0x3e664e31	0.22490765
174	0xbe563f60	-0.20922613
175	0x3dba7aa2	0.091054216
176	0xbec64533	-0.3872467
177	0xbd8d099c	-0.068865985
178	0xbe0f7fbd	-0.14013572
179	0xbc4c1542	-0.01245624
180	0x3c1aed30	0.009455964
181	0x3ec64995	0.38728014
182	0xbeee7920	-0.46576786
183	0x3deeb328	0.11655265
184	0xbcd5c5e7	-0.026095344
185	0xbed479a7	-0.41499063
186	0x3f8a69ad	1.08135
187	0x3e15afaf	0.14617799
188	0x3e5cc44a	0.21559253
189	0x3e11e064	0.14245754
190	0xbe82eeba	-0.2557276
191	0xbe8f5910	-0.27997637
192	0xbed879b1	-0.42280343
193	0x3d373f71	0.044738237
194	0x3e38fceb	0.1806523
195	0x3e9ab241	0.30214122
196	0xbe86106e	-0.2618441
197	0x3e9c0103	0.30469522
198	0xbe9bfcef	-0.3046641
199	0x3d5a02af	0.053225216
200	0xbe82d327	-0.2555172
201	0xbedb79a5	-0.42866245
202	0x3e82ccc5	0.25546852
203	0x3e11228a	0.14173332
204	0x3e9bd763	0.30437765
205	0x3f6bdc64	0.92133164
206	0xbd28c482	-0.04120303
207	0xbe014ed0	-0.12627721
208	0xbf04994e	-0.51796424
209	0xbbaa5b58	-0.0051988773
210	0x3e618e23	0.22026877
211	0xbf22ff5e	-0.6367091
212	0x3d5d3e69	0.054014597
213	0x3ebaa0fa	0.3645094
214	0x3f4989f6	0.78726137
215	0x3e9d2071	0.30688813
216	0x3e36fe02	0.17870334
217	0x3ea58026	0.32324332
218	0x3cbd7ebf	0.023131726
219	0x3e314d37	0.17314611
220	0x3e68b90e	0.22726843
221	0xbe03f8cf	-0.12887882
222	0x3f3dbe24	0.74118257
223	0x3e482e9b	0.19549029
224	0x3f6b1460	0.91827965
225	0xbf147a05	-0.5799869
226	0x3eb20429	0.347688
227	0x3f0a5264	0.5403197
228	0x3df35f04	0.11883357
229	0xbe84d4fb	-0.2594374
230	0xbdfd9f8b	-0.12383946
231	0xbed0c20f	-0.40773055
232	0xbf96acf9	-1.1771537
233	0xbf27da3c	-0.65567374
234	0xbf14a386	-0.58062017
235	0x3f1aa55d	0.60408574
236	0x3e9caf9f	0.30602738
237	0xbebc5f92	-0.36791664
238	0xbe6706d8	-0.22561204
239	0x3ea1e30d	0.31618538
240	0x3e8b1171	0.27161744
241	0x3caf4a20	0.02139765
242	0xbf41a918	-0.7564864
243	0x3f19d3f2	0.6008903
244	0x3f13aaa2	0.5768224
245	0xbe942d2f	-0.28940722
246	0x3d428a64	0.04749526
247	0x3db78440	0.089607716
248	0x3ed9ef5c	0.4256543
249	0xbdb624b3	-0.088937186
250	0xbe887596	-0.2665221
251	0x3dd35d69	0.10320551
252	0x3ed2f565	0.41202846
253	0x3e611664	0.21981198
254	0xbe190650	-0.14943814
255	0xbf80a89d	-1.0051457

network_body._body_endoder.seq_layers.0.bias f4 [128]
0	0x00000000	0.0
1	0x00000000	0.0
2	0x00000000	0.0
3	0x00000000	0.0
4	0x00000000	0.0
5	0x00000000	0.0
6	0x00000000	0.0
7	0x00000000	0.0
8	0x00000000	0.0
9	0x00000000	0.0
10	0x00000000	0.0
11	0x00000000	0.0
12	0x00000000	0.0
13	0x00000000	0.0
14	0x00000000	0.0
15	0x00000000	0.0
16	0x00000000	0.0
17	0x00000000	0.0
18	0x00000000	0.0
19	0x00000000	0.0
20	0x00000000	0.0
21	0x00000000	0.0
22	0x00000000	0.0
23	0x00000000	0.0
24	0x00000000	0.0
25	0x00000000	0.0
26	0x00000000	0.0
27	0x00000000	0.0
28	0x00000000	0.0
29	0x00000000	0.0
30	0x00000000	0.0
31	0x00000000	0.0
32	0x00000000	0.0
33	0x00000000	0.0
34	0x00000000	0.0
35	0x00000000	0.0
36	0x00000000	0.0
37	0x00000000	0.0
38	0x00000000	0.0
39	0x00000000	0.0
40	0x00000000	0.0
41	0x00000000	0.0
42	0x00000000	0.0
43	0x00000000	0.0
44	0x00000000	0.0
45	0x00000000	0.0
46	0x00000000	0.0
47	0x00000000	0.0
48	0x00000000	0.0
49	0x00000000	0.0
50	0x00000000	0.0
51	0x00000000	0.0
52	0x00000000	0.0
53	0x00000000	0.0
54	0x00000000	0.0
55	0x00000000	0.0
56	0x00000000	0.0
57	0x00000000	0.0
58	0x00000000	0.0
59	0x00000000	0.0
60	0x00000000	0.0
61	0x00000000	0.0
62	0x00000000	0.0
63	0x00000000	0.0
64	0x00000000	0.0
65	0x00000000	0.0
66	0x00000000	0.0
67	0x00000000	0.0
68	0x00000000	0.0
69	0x00000000	0.0
70	0x00000000	0.0
71	0x00000000	0.0
72	0x00000000	0.0
73	0x00000000	0.0
74	0x00000000	0.0
75	0x00000000	0.0
76	0x00000000	0.0
77	0x00000000	0.0
78	0x00000000	0.0
79	0x00000000	0.0
80	0x00000000	0.0
81	0x00000000	0.0
82	0x00000000	0.0
83	0x00000000	0.0
84	0x00000000	0.0
85	0x00000000	0.0
86	0x00000000	0.0
87	0x00000000	0.0
88	0x00000000	0.0
89	0x00000000	0.0
90	0x00000000	0.0
91	0x00000000	0.0
92	0x00000000	0.0
93	0x00000000	0.0
94	0x00000000	0.0
95	0x00000000	0.0
96	0x00000000	0.0
97	0x00000000	0.0
98	0x00000000	0.0
99	0x00000000	0.0
100	0x00000000	0.0
101	0x00000000	0.0
102	0x00000000	0.0
103	0x00000000	0.0
104	0x00000000	0.0
105	0x00000000	0.0
106	0x00000000	0.0
107	0x00000000	0.0
108	0x00000000	0.0
109	0x00000000	0.0
110	0x00000000	0.0
111	0x00000000	0.0
112	0x00000000	0.0
113	0x00000000	0.0
114	0x00000000	0.0
115	0x00000000	0.0
116	0x00000000	0.0
117	0x00000000	0.0
118	0x00000000	0.0
119	0x00000000	0.0
120	0x00000000	0.0
121	0x00000000	0.0
122	0x00000000	0.0
123	0x00000000	0.0
124	0x00000000	0.0
125	0x00000000	0.0
126	0x00000000	0.0
127	0x00000000	0.0

network_body._body_endoder.seq_layers.2.weight f4 [128, 128]
0	0x3e01a343	0.12659936
1	0x3d0b27a6	0.03397336
2	0xbd5c3d2e	-0.053769283
3	0xbcdc1251	-0.026864203
4	0x3cf00c04	0.029302604
5	0xbd1c774e	-0.038199715
6	0x3c6d6ff0	0.01449202
7	0xbcb27037	-0.021782024
8	0x3cab7e7c	0.020934336
9	0xbcb9abc3	-0.02266491
10	0x3d26c357	0.040713634
11	0xbd5c7987	-0.053826835
12	0x3e058c1f	0.13041733
13	0x3d9c36b2	0.0762762
14	0xbdb30819	-0.08741779
15	0xbc5db5be	-0.0135321
16	0x3e05ac6b	0.13054053
17	0xbd313d47	-0.04327133
18	0xbd9ef9f8	-0.077625215
19	0x3e0fd604	0.14046484
20	0xbd9f1004	-0.077667266
21	0x3e596bc4	0.21232516
22	0xbe1aa520	-0.15102053
23	0xbdecdb8f	-0.11565315
24	0x3d94c2e5	0.07263736
25	0xbdc79051	-0.09744323
26	0xbd26e6eb	-0.040747564
27	0xbd828935	-0.063738264
28	0x3dd0594f	0.10173284
29	0x3c35e8b1	0.011102841
30	0x3d613892	0.05498559
31	0xbd4c4b67	-0.049876597
32	0xbdd11a80	-0.102101326
33	0xbbb386ae	-0.0054787016
34	0xbd9cbf84	-0.07653716
35	0xbd7a7213	-0.061143946
36	0x3d3060a3	0.04306091
37	0xbd5e82e1	-0.054324035
38	0xbb1760a6	-0.0023098378
39	0xbd713655	-0.058889706
40	0x3dabe290	0.08392823
41	0xbcdaf301	-0.026727201
42	0x3d31a7e9	0.043373022
43	0xbd429cd2	-0.047512837
44	0x3c02d998	0.007986449
45	0x3d0f9a6a	0.03505937
46	0x3bb04110	0.00537885
47	0x3e2a339b	0.16621248
48	0x3cea8082	0.02862573
49	0x3d8eebda	0.06978579
50	0x3db0652e	0.086130485
51	0x3e0be9b1	0.13663365
52	0x3d7e9828	0.062156826
53	0xbea8c9e5	-0.32966533
54	0x3cda690e	0.026661422
55	0xbdd6f583	-0.104960464
56	0x396903ac	0.0002222198
57	0x3dbaff5e	0.09130739
58	0x3de64193	0.11242976
59	0xbd208815	-0.039192278
60	0xbcd2066a	-0.025637824
61	0xbdcdc12e	-0.10046612
62	0xbe0d0852	-0.13772705
63	0xbd81f83c	-0.06346175
64	0xbdec3426	-0.11533384
65	0xbd39d44a	-0.04536847
66	0x3e7d3ada	0.24729481
67	0x3e414432	0.1887367
68	0xbd032e62	-0.032026656
69	0xbdd7c107	-0.10534864
70	0x3ce3775f	0.027766882
71	0xbde8ad3a	-0.11361165
72	0xbc105693	-0.008809703
73	0xbe02a7a1	-0.12759258
74	0x3d50ea1f	0.051004525
75	0x3daf14c1	0.0854888
76	0x3cca3107	0.024681581
77	0x3dd13885	0.10215858
78	0x3e2268f2	0.15860346
79	0xbcf49cd3	-0.029859936
80	0x3be7e0ad	0.007076344
81	0x3dbbf976	0.0917844
82	0xbdd9f242	-0.1064191
83	0x3d0bfdd3	0.034177613
84	0x3d0a6bfe	0.033794396
85	0x3d5d4bcf	0.054027375
86	0x3a29a4fb	0.00064714224
87	0x3ac36a0d	0.0014908925
88	0x3d27a706	0.04093077
89	0x3c9e7862	0.019344512
90	0x3aabf36a	0.0013118808
91	0x3ae77d19	0.0017661183
92	0xbd90d2be	-0.07071446
93	0x3de2c874	0.1107339
94	0xbd94d83f	-0.07267808
95	0xbce68c38	-0.028143033
96	0x3c763496	0.015027186
97	0x3e2b894a	0.1675159
98	0xbd6e9216	-0.058244787
99	0x3c9b732b	0.018975815
100	0xbe042b7c	-0.12907213
101	0xbd813f4a	-0.063108996
102	0xbdc2465e	-0.09486078
103	0x3df6085d	0.12013314
104	0x3dba2c0a	0.09090431
105	0x3d88b8bc	0.0667586
106	0x3d79f8ee	0.061028413
107	0x3d0f48bc	0.034981474
108	0x3d1ba74c	0.038001344
109	0xbdef35ce	-0.11680184
110	0x3daba21d	0.0838053
111	0xbe55ded0	-0.20885777
112	0x3d6ddd53	0.0580724
113	0xbe2111e9	-0.15729488
114	0xbd019048	-0.031631738
115	0x3c4b3dda	0.012404883
116	0x3d2d85e4	0.042364016
117	0xbde8daec	-0.11369881
118	0xbd00fce4	-0.031491175
119	0x3e4a624a	0.19764057
120	0x3c786aa1	0.015162141
121	0xbd1366f9	-0.035986874
122	0x3d68ecfe	0.05686664
123	0xbdf7e196	-0.12103574
124	0xbdc1802d	-0.09448276
125	0xbdbb4ebd	-0.091458775
126	0xbd72abfb	-0.059246045
127	0x3dcf3795	0.10118023
128	0xbd82fcf8	-0.06395906
129	0x3dd6aaea	0.10481818
130	0xbd99804a	-0.07495172
131	0x3cf26c07	0.029592527
132	0x3cb48535	0.022036174
133	0x3ce618ab	0.028087934
134	0xbe0f72f9	-0.14008702
135	0xbda54139	-0.08069081
136	0xbc9e67c6	-0.019336592
137	0x3c4b042a	0.0123911295
138	0xbe2afb6d	-0.16697474
139	0xbcb8740f	-0.022516279
140	0xbcbf781f	-0.023372708
141	0x3c97c2a4	0.01852543
142	0x3e238296	0.15967783
143	0xbe0421dc	-0.12903541
144	0xbda25115	-0.079256214
145	0xbe16f415	-0.14741547
146	0xbd143427	-0.03618255
147	0xbb5e6936	-0.0033937222
148	0xbbd836c7	-0.006598327
149	0xbd5bea0e	-0.05369001
150	0xbd71d32c	-0.05903928
151	0xbe5cadd2	-0.21550682
152	0xbd54025f	-0.051760074
153	0x3be38a38	0.006943967
154	0xb98a5ee6	-0.00026392116
155	0x3d5d28cf	0.053993996
156	0x3dcfddc9	0.10149724
157	0xbdb75344	-0.089514285
158	0xbd86816c	-0.06567654
159	0x3c7a2f39	0.015270048
160	0xbdfbf0a9	-0.12301762
161	0xbcbc95c4	-0.023020633
162	0x3db8e92f	0.09028851
163	0xbe832502	-0.25614172
164	0x3d03c0fb	0.032166462
165	0xbd050b85	-0.03248169
166	0xbce41aa8	-0.027844742
167	0x3db8f750	0.09031546
168	0xbe15fa23	-0.14646201
169	0x3e3ae9be	0.18253228
170	0x3e099212	0.13434628
171	0xbe9aa334	-0.3020264
172	0xbbdf81cc	-0.006820893
173	0xbc823aa8	-0.01589711
174	0xbd50cb69	-0.050975237
175	0xbd1c3cc6	-0.038143896
176	0x3dc0fe0b	0.09423455
177	0x3d7e6dd9	0.062116478
178	0x3cc30078	0.023803934
179	0x3ddaf47c	0.10691163
180	0x3e269930	0.16269374
181	0x3d7a0541	0.061040167
182	0x3cdbb416	0.02681927
183	0xbd7a0a81	-0.061045174
184	0x3d6fe247	0.058565404
185	0xbd742a25	-0.059610505
186	0x3dd8ebd4	0.10591856
187	0xbcc134e6	-0.023584794
188	0xbd570c63	-0.052502047
189	0xbc99e389	-0.018785255
190	0x3e1cf899	0.15329207
191	0xbaea0f2f	-0.0017857308
192	0xbc139bd0	-0.009009317
193	0x3d55f668	0.052236944
194	0xbd58b22f	-0.052904304
195	0x3df774df	0.12082838
196	0xbd3f5707	-0.046713855
197	0xbd6a56f9	-0.05721185
198	0xbd44e959	-0.0480741
199	0xbcc5eb4a	-0.024160046
200	0xbb81cd33	-0.003961229
201	0xbdc49568	-0.095988095
202	0x3c919893	0.017772948
203	0x3da73407	0.0816422
204	0x3dd6d7cc	0.10490379
205	0xbd2ba591	-0.041905943
206	0x3e26af11	0.1627772
207	0xbde67a17	-0.112537555
208	0xbe07aede	-0.132503
209	0xbdf9074a	-0.121595934
210	0xbdd1078b	-0.10206517
211	0x3de442e5	0.111455716
212	0xbc57883b	-0.0131550385
213	0x3dbe6e88	0.09298426
214	0xbde42bba	-0.11141153
215	0x3d821345	0.063513316
216	0x3da2b3d3	0.07944455
217	0xbc14b05a	-0.009075249
218	0xbd8cf027	-0.06881743
219	0xbc1d2b60	-0.009592861
220	0x3de31c2e	0.11089359
221	0x3cdc4ad2	0.026891146
222	0x3d7c3b0c	0.06157975
223	0x3e0095eb	0.12557189
224	0x3de00aa7	0.10939532
225	0xbd40a7e0	-0.047035098
226	0xbe046bbb	-0.12931721
227	0x3c289011	0.010288254
228	0xbd907ca8	-0.07055026
229	0xbd2ef3c1	-0.04271293
230	0x3bfad2d7	0.0076545286
231	0xbe1cbe36	-0.15306935
232	0xbde702eb	-0.112798534
233	0xbe04c1ff	-0.12964629
234	0xbaa72a62	-0.001275372
235	0x3bd480db	0.0064850873
236	0x3d47f7b8	0.048820227
237	0x3d22a2ce	0.039706044
238	0x3da0cb37	0.0785126
239	0xbd119fec	-0.035552904
240	0xbc541b92	-0.012946026
241	0xbc9e0f10	-0.019294292
242	0x3c9be23f	0.019028781
243	0xbd368e65	-0.04456939
244	0x3dd9a2ca	0.10626753
245	0x3d8b4612	0.06800474
246	0x3e0faf49	0.1403171
247	0xbe210be7	-0.15727197
248	0xbba5b614	-0.005057106
249	0xbd7635fc	-0.060110077
250	0x3e7ae482	0.24501231
251	0x3d15d71c	0.036582097
252	0xbdafe423	-0.085884355
253	0xbd39219b	-0.045198064
254	0x3d501879	0.05080459
255	0x3bf086ff	0.0073403115

network_body._body_endoder.seq_layers.2.bias f4 [128]
0	0x00000000	0.0
1	0x00000000	0.0
2	0x00000000	0.0
3	0x00000000	0.0
4	0x00000000	0.0
5	0x00000000	0.0
6	0x00000000	0.0
7	0x00000000	0.0
8	0x00000000	0.0
9	0x00000000	0.0
10	0x00000000	0.0
11	0x00000000	0.0
12	0x00000000	0.0
13	0x00000000	0.0
14	0x00000000	0.0
15	0x00000000	0.0
16	0x00000000	0.0
17	0x00000000	0.0
18	0x00000000	0.0
19	0x00000000	0.0
20	0x00000000	0.0
21	0x00000000	0.0
22	0x00000000	0.0
23	0x00000000	0.0
24	0x00000000	0.0
25	0x00000000	0.0
26	0x00000000	0.0
27	0x00000000	0.0
28	0x00000000	0.0
29	0x00000000	0.0
30	0x00000000	0.0
31	0x00000000	0.0
32	0x00000000	0.0
33	0x00000000	0.0
34	0x00000000	0.0
35	0x00000000	0.0
36	0x00000000	0.0
37	0x00000000	0.0
38	0x00000000	0.0
39	0x00000000	0.0
40	0x00000000	0.0
41	0x00000000	0.0
42	0x00000000	0.0
43	0x00000000	0.0
44	0x00000000	0.0
45	0x00000000	0.0
46	0x00000000	0.0
47	0x00000000	0.0
48	0x00000000	0.0
49	0x00000000	0.0
50	0x00000000	0.0
51	0x00000000	0.0
52	0x00000000	0.0
53	0x00000000	0.0
54	0x00000000	0.0
55	0x00000000	0.0
56	0x00000000	0.0
57	0x00000000	0.0
58	0x00000000	0.0
59	0x00000000	0.0
60	0x00000000	0.0
61	0x00000000	0.0
62	0x00000000	0.0
63	0x00000000	0.0
64	0x00000000	0.0
65	0x00000000	0.0
66	0x00000000	0.0
67	0x00000000	0.0
68	0x00000000	0.0
69	0x00000000	0.0
70	0x00000000	0.0
71	0x00000000	0.0
72	0x00000000	0.0
73	0x00000000	0.0
74	0x00000000	0.0
75	0x00000000	0.0
76	0x00000000	0.0
77	0x00000000	0.0
78	0x00000000	0.0
79	0x00000000	0.0
80	0x00000000	0.0
81	0x00000000	0.0
82	0x00000000	0.0
83	0x00000000	0.0
84	0x00000000	0.0
85	0x00000000	0.0
86	0x00000000	0.0
87	0x00000000	0.0
88	0x00000000	0.0
89	0x00000000	0.0
90	0x00000000	0.0
91	0x00000000	0.0
92	0x00000000	0.0
93	0x00000000	0.0
94	0x00000000	0.0
95	0x00000000	0.0
96	0x00000000	0.0
97	0x00000000	0.0
98	0x00000000	0.0
99	0x00000000	0.0
100	0x00000000	0.0
101	0x00000000	0.0
102	0x00000000	0.0
103	0x00000000	0.0
104	0x00000000	0.0
105	0x00000000	0.0
106	0x00000000	0.0
107	0x00000000	0.0
108	0x00000000	0.0
109	0x00000000	0.0
110	0x00000000	0.0
111	0x00000000	0.0
112	0x00000000	0.0
113	0x00000000	0.0
114	0x00000000	0.0
115	0x00000000	0.0
116	0x00000000	0.0
117	0x00000000	0.0
118	0x00000000	0.0
119	0x00000000	0.0
120	0x00000000	0.0
121	0x00000000	0.0
122	0x00000000	0.0
123	0x00000000	0.0
124	0x00000000	0.0
125	0x00000000	0.0
126	0x00000000	0.0
127	0x00000000	0.0

action_model._continuous_distribution.log_sigma f4 [1, 3]
0	0x00000000	0.0
1	0x00000000	0.0
2	0x00000000	0.0

action_model._continuous_distribution.mu.weight f4 [3, 128]
0	0x3b8d73b4	0.0043167714
1	0x3bf07a75	0.0073388168
2	0x3b6e2afb	0.0036341536
3	0xbace9f60	-0.001576405
4	0xbcbab3f6	-0.02279089
5	0x3c9a8b06	0.01886512
6	0xbc394df7	-0.011310092
7	0x3b9ef519	0.0048509953
8	0xbcf71e3d	-0.030165786
9	0xba2a8717	-0.00065051153
10	0x3adef935	0.0017011525
11	0x3c084787	0.008317835
12	0x3c93ad03	0.018026834
13	0xbb3783e2	-0.0028002192
14	0x3be081e5	0.006851422
15	0x3c9cf868	0.019161418
16	0x3c37a563	0.011208865
17	0xbc890ebf	-0.016730664
18	0xbc6651ca	-0.014057586
19	0xbd06f557	-0.032948818
20	0x3c62dc9d	0.013846544
21	0xba840bb5	-0.001007429
22	0xbbd3603f	-0.0064506824
23	0xbb9e2eaf	-0.0048273425
24	0xbc4607ea	-0.012086848
25	0xbc22204f	-0.009895398
26	0x3cd19740	0.025584817
27	0x3cafd333	0.021463012
28	0x3c948b9f	0.018132983
29	0x3b9027ca	0.0043992745
30	0x3be98513	0.0071264594
31	0xbba63e77	-0.0050733644
32	0xbba9708c	-0.0051708873
33	0xbbe31ded	-0.0069310577
34	0x3c82f902	0.015987877
35	0xbc9b0125	-0.018921444
36	0xbceba22d	-0.028763855
37	0xbb971170	-0.004610233
38	0xbd153ea4	-0.036436692
39	0xbc3d38c2	-0.011549177
40	0x3c2995b0	0.01035063
41	0x3c8d610a	0.017258186
42	0xbb4f2380	-0.0031606853
43	0xbbde1ba7	-0.0067781988
44	0x3bad43ef	0.0052876393
45	0x3c0cf718	0.008603834
46	0xbb63a81a	-0.0034737648
47	0x3abf0819	0.0014574557
48	0xbcacdd3f	-0.021101592
49	0xbd0fc5a3	-0.03510059
50	0x3cd8f6e2	0.02648491
51	0x3c799555	0.015233357
52	0x3c196fcb	0.009365032
53	0x3a7ec950	0.0009719329
54	0xbb4b9033	-0.0031061291
55	0x3c976552	0.01848093
56	0xbcda8a8b	-0.02667739
57	0x3bcf2b1a	0.006322277
58	0x3c3656e2	0.011129113
59	0x3bb897d3	0.005633333
60	0x3c686baf	0.01418583
61	0xbd278139	-0.04089472
62	0x3c430369	0.0119026685
63	0x3c6dfdbd	0.014525828
64	0x3aef8c7d	0.0018276122
65	0xbbc8d193	-0.006128499
66	0x3ba24ebc	0.0049532335
67	0x3c8bb0b7	0.017052038
68	0xbc78838b	-0.015168081
69	0x3c874da2	0.01651651
70	0xbc628b6a	-0.013827184
71	0x3c4f0ae5	0.012636875
72	0xbbde2f02	-0.006780506
73	0x3b3fa45e	0.0029242258
74	0x3d17ae4a	0.03703145
75	0xbcb56317	-0.022141976
76	0x3b995227	0.004678983
77	0x3908b8bc	0.0001303879
78	0xba97635f	-0.0011550001
79	0xbb541698	-0.00323621
80	0x3c203bfc	0.009779926
81	0x3a88467f	0.0010396986
82	0xbc81439d	-0.01577931
83	0xba260cdb	-0.0006334313
84	0x3cf3f8b5	0.029781679
85	0x3c2c440b	0.01051427
86	0xbca4f971	-0.020138474
87	0x3cf74dd7	0.030188484
88	0x3cc7dd01	0.024397375
89	0x3cbcc01b	0.023040822
90	0xbc87f154	-0.016594566
91	0xbc8e9ad9	-0.017407821
92	0x3c5a9282	0.013340594
93	0x3c8f6d9a	0.017508317
94	0x3b5afa2f	0.0033413281
95	0xbd0fe6e3	-0.0351323
96	0xbc9aad1f	-0.018881379
97	0xbb3673ac	-0.0027839942
98	0xbd517aff	-0.05114269
99	0x3b674788	0.0035290439
100	0x3d0f0d75	0.034924943
101	0x3c6edb1d	0.014578608
102	0x3ce4e2fa	0.027940262
103	0x3d05cd97	0.03266677
104	0xbb919ac3	-0.004443498
105	0x3c8556e3	0.016276782
106	0xbc079b5a	-0.008276785
107	0xbb81c16b	-0.003959825
108	0xbc72db35	-0.014822771
109	0x3d4cd375	0.05000635
110	0x3becd488	0.007227484
111	0x3cba928f	0.022774963
112	0x3d19e973	0.03757615
113	0xbbae93e0	-0.0053276867
114	0xbb8e9b0c	-0.004351979
115	0x3c1fc5c4	0.009751741
116	0xbcc00e29	-0.023444252
117	0x3c8b92eb	0.01703783
118	0x3ce95053	0.028480684
119	0x3c3fddc4	0.011710588
120	0x3c6eb043	0.014568391
121	0x3b4a0c8c	0.0030830232
122	0xbd0973e5	-0.03355779
123	0x3a14b53d	0.00056727586
124	0xbc0b84e3	-0.008515569
125	0x3bd4ebad	0.0064978213
126	0xbc11c214	-0.0088963695
127	0x3bb2b31b	0.00545348
128	0xbc293930	-0.010328576
129	0xbbac3ba1	-0.0052561318
130	0xba7242f7	-0.0009241546
131	0xbbcda5f7	-0.006275888
132	0xbc92a0a6	-0.017898869
133	0xbcd4ffef	-0.026000945
134	0x3c48abe5	0.012248014
135	0xbb50513a	-0.0031786696
136	0x3bb77f6c	0.0055999067
137	0xbcf4a842	-0.029865388
138	0x3bcd57a0	0.006266549
139	0xbcf2e14b	-0.029648444
140	0x3d31990f	0.04335886
141	0x3c7de175	0.015495648
142	0x3c92d26b	0.0179226
143	0x3a53dde5	0.0008082076
144	0x3c06a366	0.008217668
145	0xba846c2b	-0.0010103037
146	0x3cb11426	0.021616053
147	0xbbdeb915	-0.006796966
148	0x3d10ff5a	0.035399772
149	0x3c1452a2	0.009052904
150	0x3d090a75	0.03345724
151	0x3c4eedd0	0.012629941
152	0xbc015a45	-0.007895057
153	0x3c9be0cf	0.019028096
154	0xbc5d6420	-0.013512641
155	0x3d09e1f7	0.033662762
156	0xbb1eaabb	-0.002421065
157	0xbce70388	-0.028199926
158	0xbbfe9328	-0.0077690072
159	0x3d0df599	0.03465805
160	0xbc64e1b8	-0.013969831
161	0x3c1db0ae	0.009624643
162	0xbb91d113	-0.0044499724
163	0x3ca8ce5a	0.020606209
164	0xbcceefbb	-0.025260797
165	0x3cc6c8f7	0.02426575
166	0x3d01a497	0.031651106
167	0x3c59c8ad	0.013292474
168	0x3bb2c468	0.0054555424
169	0x3d1b1e88	0.037870914
170	0xbc76a757	-0.015054545
171	0xbb3b3f20	-0.002857156
172	0x3c255853	0.010091859
173	0xbc86ef8b	-0.016471645
174	0xbc2b248f	-0.010445728
175	0x3c2c386c	0.010511499
176	0x3a28d5ec	0.0006440568
177	0x3c3291de	0.010899035
178	0x3c3957ee	0.011312468
179	0xbc4b8c3b	-0.01242357
180	0xbc46c21a	-0.012131238
181	0xbc30303e	-0.010753689
182	0x3d2bc8fb	0.041939717
183	0x3b53fc43	0.0032346405
184	0xbc2b5c3f	-0.010459005
185	0xbcb890d3	-0.022529995
186	0xbcde48e2	-0.027134363
187	0x3bf654bb	0.007517425
188	0x3d1163f3	0.03549571
189	0x3ba84b25	0.005135911
190	0x3c808483	0.015688187
191	0x3b6e7a70	0.0036388896
192	0xbcb8d22c	-0.022561155
193	0xbc69fb05	-0.014281039
194	0x3ca8cf38	0.020606622
195	0x3ca5c9ee	0.02023789
196	0x3c02f5e0	0.0079931915
197	0x39da1c45	0.00041601263
198	0x3cf78fcb	0.030219933
199	0x3cb70bdd	0.022344524
200	0x3c24d5ae	0.010060711
201	0xbbdd39c2	-0.00675127
202	0xbc2107e8	-0.009828545
203	0x3c7b0a30	0.015322253
204	0x3cb18820	0.021671355
205	0xbcb205ad	-0.021731222
206	0xbd10e0bc	-0.035370573
207	0xbc0bcc29	-0.008532562
208	0x3c8fa3f0	0.017534226
209	0x3c177063	0.009243104
210	0xbbb04f91	-0.005380579
211	0xbca343e7	-0.01992984
212	0xbc5009b3	-0.012697625
213	0x3d1f78d5	0.038933594
214	0x3bb7e5bb	0.005612103
215	0xba8e10b3	-0.0010838717
216	0xba1e081b	-0.00060284295
217	0x3b2ed2c1	0.0026675912
218	0x3cc66e69	0.02422257
219	0x3b8862a4	0.0041621495
220	0x3c6df9cf	0.014524891
221	0xbc8e254a	-0.017351765
222	0x3c60c1f5	0.013718118
223	0x3c1c51ba	0.0095409695
224	0xbc19cb71	-0.009386883
225	0x3cd98507	0.02655269
226	0xbb227b6e	-0.0024792808
227	0xbc0d2053	-0.008613664
228	0xbb0cfa22	-0.0021511395
229	0xbcbc05ae	-0.022951927
230	0xbc48932e	-0.012242122
231	0x3afee63f	0.0019447281
232	0xbcc4f71f	-0.024043618
233	0xbc8f6693	-0.017504966
234	0x3c0839d5	0.0083145695
235	0xbc813d3c	-0.01577627
236	0xbc547923	-0.012968334
237	0xbc822942	-0.015888814
238	0x3c209ce9	0.009803035
239	0x3bec8ac7	0.007218692
240	0x3c592797	0.013254068
241	0xbca58ae2	-0.020207826
242	0x38199fe5	3.6626956e-05
243	0x3cdbcb57	0.026830358
244	0xbbc44d3c	-0.0059906524
245	0xbbd384d7	-0.0064550447
246	0xb9b7159f	-0.0003492059
247	0x3c3f8688	0.01168979
248	0xbcb18943	-0.021671897
249	0x3ca6d13d	0.020363444
250	0x3c4bd706	0.012441402
251	0x3cae1f4f	0.021255163
252	0x3b3b3366	0.0028564571
253	0x3c35916d	0.0110820355
254	0xb8e4f517	-0.00010917539
255	0xbcbe7f54	-0.023254074

action_model._continuous_distribution.mu.bias f4 [3]
0	0x00000000	0.0
1	0x00000000	0.0
2	0x00000000	0.0

network_body._body_endoder.seq_layers.0.weight f4 [128, 6]
0	0x3d4ce723	0.050025117
1	0x3ea42eac	0.32066858
2	0x3eac0de3	0.33604345
3	0x3ebf6b17	0.3738639
4	0xbe35da72	-0.17759112
5	0xbe87b6f4	-0.2650677
6	0xbe218b12	-0.15775707
7	0xbeb6d66d	-0.3571047
8	0x3f1fdf6a	0.6245028
9	0x3eafd289	0.34340313
10	0xbcc4ea74	-0.024037577
11	0xbd7af9e3	-0.061273467
12	0x3c52c5c4	0.012864534
13	0xbf0d58c3	-0.55213565
14	0xbcfb7c03	-0.030698782
15	0xbf4163bb	-0.755428
16	0x3a3c7e2e	0.0007190433
17	0xbe84a6f4	-0.25908625
18	0x3f1cd2ec	0.6125934
19	0xbebda5dd	-0.37040606
20	0x3c888a2a	0.016667444
21	0xbce37a0b	-0.027768156
22	0xbb862f87	-0.004095021
23	0xbec6a4db	-0.3879765
24	0x3e3007d8	0.17190492
25	0x3ea6f7b6	0.32610863
26	0xbe1055d4	-0.14095241
27	0x3ef5b5bb	0.47990212
28	0x3e20adf5	0.1569136
29	0x3ecb843d	0.39749327
30	0xbf1d1131	-0.61354357
31	0xbecdca40	-0.40193367
32	0xbe04beae	-0.12963364
33	0x3f0e625a	0.5561882
34	0x3ee2298d	0.44172326
35	0x3c3babe0	0.011454552
36	0xbe1ea65f	-0.15493153
37	0xbf2aec54	-0.6676686
38	0xbd137362	-0.03599871
39	0xbf06ee9b	-0.52707833
40	0x3f464797	0.7745299
41	0x3e3a9678	0.18221462
42	0xbf912557	-1.133952
43	0xbf425104	-0.7590487
44	0xbed4539d	-0.41470042
45	0xbe881e95	-0.26585832
46	0x3ca84135	0.020538906
47	0x3e116c45	0.14201458
48	0x3e9c2d84	0.30503476
49	0xbea63183	-0.3245965
50	0xbe617ef6	-0.22021088
51	0x3dd93bef	0.106071346
52	0x3e037d42	0.12840751
53	0x3e86ffdc	0.2636708
54	0xbf251e3f	-0.64499277
55	0xbdc2c0b0	-0.095094085
56	0x3e86bb2c	0.26314676
57	0x3f51551f	0.8177051
58	0x3e9c855c	0.30570495
59	0x3e386924	0.18008858
60	0x3d926e9c	0.07150003
61	0x3cab03fb	0.020875921
62	0x3e9b4841	0.30328563
63	0xbeb0197c	-0.34394443
64	0xbe058a3c	-0.13041013
65	0xbde8ed7e	-0.11373423
66	0xbd49ecce	-0.0492981
67	0x3c8e7a34	0.017392255
68	0xbd5dea9c	-0.05417882
69	0xbdee30dc	-0.11630413
70	0xbf1eeddb	-0.6208169
71	0x3db117bb	0.08647104
72	0x3ed36ade	0.4129247
73	0x3f2da04b	0.6782271
74	0x3e21b8fa	0.15793219
75	0xbe14bcee	-0.14525196
76	0xbe106643	-0.1410151
77	0x3ea17f35	0.31542364
78	0xbef5dd43	-0.48020372
79	0x3e048312	0.12940624
80	0xbe1a18ab	-0.15048473
81	0x3e2f214e	0.17102548
82	0xbdef425c	-0.11682579
83	0x3d01eb90	0.03171879
84	0xbe3ecee7	-0.18633614
85	0x3f4c6ec7	0.7985653
86	0x3eabc0d4	0.33545554
87	0x3f0d5b2e	0.55217254
88	0x3e2a46c7	0.16628562
89	0x3e4f6f22	0.20257238
90	0xbf814b9e	-1.0101202
91	0xbfb70c7b	-1.4300684
92	0xbec40821	-0.38287452
93	0xbe939ef6	-0.28832215
94	0xbe9f3ba1	-0.3110018
95	0x3e476103	0.19470601
96	0x3e0c74c6	0.1371642
97	0x3e2412c7	0.16022788
98	0xbec04310	-0.37551165
99	0x3ceb823d	0.028748626
100	0x3eb95c65	0.36203304
101	0x3e56cc23	0.2097631
102	0x3efad88c	0.48993337
103	0xbe4408c7	-0.19143973
104	0xbeb91d23	-0.36155042
105	0x3e5da43b	0.2164468
106	0xbf1a396f	-0.60243887
107	0x3e05c992	0.13065174
108	0x3f51e6e0	0.8199291
109	0x3e95615d	0.29175845
110	0xbd4c921c	-0.04994403
111	0xbec5e9df	-0.38654992
112	0xbeb503b3	-0.35354385
113	0x3ec79115	0.38977876
114	0x3ef23b7b	0.47311005
115	0xbe727335	-0.2367676
116	0xbddb8f2c	-0.10720667
117	0xbde827b7	-0.113357
118	0x3dc0cbf9	0.09413905
119	0xbec1c8d3	-0.3784853
120	0xbe8090f9	-0.25110605
121	0xbe34eda2	-0.17668775
122	0x3ea848a1	0.3286791
123	0x3e8402a9	0.2578328
124	0xbd62836c	-0.055301115
125	0xbe10f470	-0.14155746
126	0xbe9e5482	-0.3092385
127	0xbdf3c51c	-0.1190283
128	0xbe15bfc8	-0.1462394
129	0xbe93d6f5	-0.28874937
130	0xbec50b06	-0.38484973
131	0x3f1a23e5	0.6021102
132	0x3f1f03b3	0.6211502
133	0xbda7892a	-0.08180459
134	0xbe43a0ca	-0.19104305
135	0x3e208353	0.15675096
136	0xbe936907	-0.28791067
137	0xbd017b9f	-0.031612035
138	0xbe32d6e7	-0.17464791
139	0x3c3558ba	0.011068517
140	0xbe0c3034	-0.13690263
141	0x3d2ae70f	0.04172426
142	0xbe7bbc09	-0.24583448
143	0x3e876f18	0.26451945
144	0xbf155a56	-0.58340967
145	0xbe131cd5	-0.14366467
146	0xbe3aa3b9	-0.18226518
147	0x3ee70ee0	0.45128536
148	0xbed4f236	-0.41591042
149	0x3ecba303	0.39772806
150	0x3d3468bb	0.04404519
151	0x3e529e58	0.20568216
152	0xbe8c95de	-0.2745809
153	0x3ce15f4f	0.027511267
154	0xbcd973ca	-0.02654447
155	0xbe8fe734	-0.2810608
156	0xbe83b664	-0.2572509
157	0x3f643ce9	0.8915544
158	0xbe1079fa	-0.1410903
159	0xbc7fe9c5	-0.0156197
160	0x3e1555e9	0.14583553
161	0xbd5e2c9e	-0.05424177
162	0xbd95954e	-0.07303868
163	0xbf2cfcb0	-0.6757307
164	0xbeaeab0b	-0.3411487
165	0x3d760ea7	0.060072567
166	0x3f356e64	0.7087157
167	0xbd9108f8	-0.07081789
168	0x3f19944a	0.59991896
169	0xbee637a3	-0.44964322
170	0x3e4f9344	0.20271021
171	0x3de9e1f7	0.114200525
172	0xbf1d6579	-0.6148296
173	0x3e8f7bb1	0.28024057
174	0x3e62fa40	0.22165775
175	0xbf81f3d3	-1.0152534
176	0x3e12ac95	0.14323647
177	0x3e506502	0.20351031
178	0xbea89f6b	-0.32934126
179	0x3de37314	0.11105934
180	0x3ed2ba45	0.41157737
181	0xbdebc912	-0.115129605
182	0xbe12e15e	-0.14343783
183	0xbe7f120f	-0.24909233
184	0x3de69518	0.11258906
185	0x3e833c9f	0.25632188
186	0x3ea53693	0.322682
187	0xbeab4df6	-0.33457917
188	0xbd371bcf	-0.044704255
189	0xbe85ef7f	-0.26159284
190	0xbe9916ac	-0.2990011
191	0xbe138623	-0.14406638
192	0x3ec3afb7	0.38219997
193	0xbf65432c	-0.8955562
194	0xbdf7085c	-0.12062141
195	0xbf069aea	-0.5258013
196	0x3f01687b	0.5055005
197	0x3e9fb30c	0.3119129
198	0x3e707bcd	0.23484726
199	0x3f09e430	0.5386381
200	0xbec601ca	-0.3867324
201	0x3e9dfa35	0.30854955
202	0x3ebdfc40	0.37106514
203	0x3f0eff6f	0.5585851
204	0xbf0aa3a7	-0.54155964
205	0x3e2c2d19	0.16814078
206	0x3efc6f4a	0.49303657
207	0x3deb6187	0.11493211
208	0xbed5b585	-0.4174005
209	0x3d89911e	0.06717132
210	0x3e8fdad5	0.28096643
211	0xbf042a97	-0.51627487
212	0x3e925ab9	0.2858484
213	0xbece1245	-0.40248314
214	0x3f038b32	0.5138427
215	0xbdb3c198	-0.087771595
216	0xbd987a04	-0.07445148
217	0x3d80f434	0.06296578
218	0x3e457d4b	0.19286077
219	0x3e906187	0.28199407
220	0xbd24d855	-0.040245373
221	0x3f0485ea	0.51766837
222	0x3e660121	0.22461368
223	0xbf347331	-0.7048827
224	0xbe65a768	-0.22427142
225	0x3eab2a0c	0.33430517
226	0x3dee5be6	0.11638622
227	0x3e99d226	0.30043143
228	0x3e139872	0.14413622
229	0xbe8e19f9	-0.2775419
230	0x3e82f93c	0.25580776
231	0xbf4484e6	-0.76765287
232	0xbe2bdf51	-0.16784407
233	0xbf321b8c	-0.69573283
234	0xbf1a00fe	-0.60157764
235	0xbcf36cb8	-0.029714927
236	0x3b03d5c3	0.0020116426
237	0xbef83b53	-0.4848276
238	0xbf212082	-0.6294023
239	0xbeb81c93	-0.359593
240	0x3d91f369	0.07126505
241	0x3d49513e	0.049149744
242	0xbf1c4a5e	-0.61050975
243	0xbd2d23d3	-0.042270493
244	0x3dceb9bc	0.1009402
245	0xbd7912f8	-0.060809106
246	0x3efb67ca	0.49102622
247	0x3f46aca6	0.7760719
248	0x3f387cde	0.7206553
249	0x3d0fc7f4	0.0351028
250	0x3eac5d71	0.3366504
251	0xbf4fb199	-0.8113037
252	0x3ed34833	0.4126602
253	0xbdbea0ca	-0.09308012
254	0x3efeec4c	0.49789655
255	0xbf6a9d40	-0.91646194

network_body._body_endoder.seq_layers.0.bias f4 [128]
0	0x00000000	0.0
1	0x00000000	0.0
2	0x00000000	0.0
3	0x00000000	0.0
4	0x00000000	0.0
5	0x00000000	0.0
6	0x00000000	0.0
7	0x00000000	0.0
8	0x00000000	0.0
9	0x00000000	0.0
10	0x00000000	0.0
11	0x00000000	0.0
12	0x00000000	0.0
13	0x00000000	0.0
14	0x00000000	0.0
15	0x00000000	0.0
16	0x00000000	0.0
17	0x00000000	0.0
18	0x00000000	0.0
19	0x00000000	0.0
20	0x00000000	0.0
21	0x00000000	0.0
22	0x00000000	0.0
23	0x00000000	0.0
24	0x00000000	0.0
25	0x00000000	0.0
26	0x00000000	0.0
27	0x00000000	0.0
28	0x00000000	0.0
29	0x00000000	0.0
30	0x00000000	0.0
31	0x00000000	0.0
32	0x00000000	0.0
33	0x00000000	0.0
34	0x00000000	0.0
35	0x00000000	0.0
36	0x00000000	0.0
37	0x00000000	0.0
38	0x00000000	0.0
39	0x00000000	0.0
40	0x00000000	0.0
41	0x00000000	0.0
42	0x00000000	0.0
43	0x00000000	0.0
44	0x00000000	0.0
45	0x00000000	0.0
46	0x00000000	0.0
47	0x00000000	0.0
48	0x00000000	0.0
49	0x00000000	0.0
50	0x00000000	0.0
51	0x00000000	0.0
52	0x00000000	0.0
53	0x00000000	0.0
54	0x00000000	0.0
55	0x00000000	0.0
56	0x00000000	0.0
57	0x00000000	0.0
58	0x00000000	0.0
59	0x00000000	0.0
60	0x00000000	0.0
61	0x00000000	0.0
62	0x00000000	0.0
63	0x00000000	0.0
64	0x00000000	0.0
65	0x00000000	0.0
66	0x00000000	0.0
67	0x00000000	0.0
68	0x00000000	0.0
69	0x00000000	0.0
70	0x00000000	0.0
71	0x00000000	0.0
72	0x00000000	0.0
73	0x00000000	0.0
74	0x00000000	0.0
75	0x00000000	0.0
76	0x00000000	0.0
77	0x00000000	0.0
78	0x00000000	0.0
79	0x00000000	0.0
80	0x00000000	0.0
81	0x00000000	0.0
82	0x00000000	0.0
83	0x00000000	0.0
84	0x00000000	0.0
85	0x00000000	0.0
86	0x00000000	0.0
87	0x00000000	0.0
88	0x00000000	0.0
89	0x00000000	0.0
90	0x00000000	0.0
91	0x00000000	0.0
92	0x00000000	0.0
93	0x00000000	0.0
94	0x00000000	0.0
95	0x00000000	0.0
96	0x00000000	0.0
97	0x00000000	0.0
98	0x00000000	0.0
99	0x00000000	0.0
100	0x00000000	0.0
101	0x00000000	0.0
102	0x00000000	0.0
103	0x00000000	0.0
104	0x00000000	0.0
105	0x00000000	0.0
106	0x00000000	0.0
107	0x00000000	0.0
108	0x00000000	0.0
109	0x00000000	0.0
110	0x00000000	0.0
111	0x00000000	0.0
112	0x00000000	0.0
113	0x00000000	0.0
114	0x00000000	0.0
115	0x00000000	0.0
116	0x00000000	0.0
117	0x00000000	0.0
118	0x00000000	0.0
119	0x00000000	0.0
120	0x00000000	0.0
121	0x00000000	0.0
122	0x00000000	0.0
123	0x00000000	0.0
124	0x00000000	0.0
125	0x00000000	0.0
126	0x00000000	0.0
127	0x00000000	0.0

network_body._body_endoder.seq_layers.2.weight f4 [128, 128]
0	0x3c6f2deb	0.01459835
1	0xbe1c4808	-0.15261853
2	0x3e362ec2	0.17791274
3	0xbe8d32cd	-0.2757782
4	0xbe152279	-0.14563932
5	0xbd8d510a	-0.069002226
6	0x3d88b116	0.066744015
7	0x3dd356b3	0.10319271
8	0x3d0460be	0.032318823
9	0x3d2d473b	0.04230426
10	0x3da42215	0.08014313
11	0xbc6527a9	-0.0139865065
12	0xbd9bde94	-0.07610813
13	0xbe13473d	-0.14382644
14	0x3caac6ca	0.020846743
15	0x3c432dc8	0.011912771
16	0xbd4873ad	-0.048938442
17	0x3d6a71cb	0.057237428
18	0xbd18c898	-0.037300676
19	0xbcf829b1	-0.030293318
20	0xbd4aa400	-0.04947281
21	0x3dcf2c36	0.101158544
22	0xbc01e9ba	-0.00792926
23	0xbc4f9bb7	-0.012671403
24	0x3b69a606	0.0035651936
25	0x3d4db967	0.05022564
26	0xbe20d6dd	-0.15706964
27	0x3e701995	0.23447259
28	0xbde657b0	-0.11247194
29	0xbd6d3d20	-0.05791962
30	0xbd9884f8	-0.07447237
31	0xbe05202b	-0.13000552
32	0x3d80d82e	0.06291233
33	0x3dab2f41	0.08358622
34	0xbc3cb423	-0.011517557
35	0x3d214ebb	0.039381724
36	0xbc8c08e8	-0.01709409
37	0x3e0f2c91	0.13981844
38	0x3d3034c3	0.043019067
39	0x3d83fc6c	0.0644463
40	0x3d9f9fea	0.07794173
41	0x3c92bbdb	0.017911842
42	0xbe109a6e	-0.1412141
43	0xbd52c73b	-0.051459532
44	0xbc423d80	-0.011855483
45	0xbe0c41f3	-0.13697033
46	0x3d54a14b	0.051911633
47	0x3dd392c0	0.10330725
48	0xbc298cb9	-0.010348492
49	0x3cdabc2b	0.026701054
50	0xbda4954d	-0.08036289
51	0x3ca79311	0.020455869
52	0xbdb5f8d7	-0.08885353
53	0xbe00b9be	-0.12570855
54	0xbc1d42f6	-0.009598484
55	0x3dbf52cb	0.093419634
56	0xbd5a64a4	-0.053318635
57	0x3c033cb0	0.0080100745
58	0x3e0670a3	0.13128905
59	0xbdf1d005	-0.11807255
60	0x3e51d6c1	0.20492078
61	0x3d35fe6b	0.044432085
62	0x3de2743b	0.110573255
63	0xbe050ebc	-0.12993902
64	0xbdc89a8f	-0.09795105
65	0x3dfb9df5	0.12285987
66	0x3d3d8bed	0.04627602
67	0xbd9f60a0	-0.07782102
68	0xbc843167	-0.016136838
69	0xbdd5dee8	-0.104429066
70	0xbd694eec	-0.05696003
71	0x3de37400	0.111061096
72	0xbd84c24f	-0.06482374
73	0x3c380e2e	0.011233849
74	0xbd3ae1d7	-0.045625534
75	0x3ad2b029	0.0016074228
76	0x3d9b5490	0.075844884
77	0xbe289c8a	-0.16465965
78	0x3cbd87b5	0.023136
79	0xbdf85f36	-0.12127535
80	0x3d57c25a	0.052675582
81	0x3e24536c	0.16047448
82	0xbd05d5cc	-0.032674596
83	0x3e34e3e5	0.1766506
84	0xbdb2a9fe	-0.0872383
85	0x3db83037	0.08993571
86	0xbd3ce3cb	-0.046115678
87	0x3caf29b3	0.021382188
88	0xbd65faeb	-0.056147497
89	0x3d252750	0.040320694
90	0xbe0d5ff3	-0.13806133
91	0x3d5dd696	0.054159723
92	0x3cc68b5f	0.02423638
93	0x3c6f1131	0.014591501
94	0xbe32e4fa	-0.1747016
95	0xbc5b19c5	-0.013372843
96	0xbbfa7f9b	-0.0076446063
97	0x3d29af96	0.041427217
98	0xbda4bccc	-0.08043823
99	0xbdcb0352	-0.09912743
100	0xba9e7f8a	-0.0012092453
101	0xbd5a02cb	-0.05322532
102	0x3d811ca2	0.063042894
103	0x3d0cf7bb	0.03441594
104	0x3e4f3f48	0.20238984
105	0x3c37feaa	0.01123015
106	0x3d3073bf	0.043079134
107	0xbd2883dd	-0.04114138
108	0x3de4267f	0.11140155
109	0xbe3f0a02	-0.18656161
110	0xbd9e1361	-0.0771854
111	0xbc58cd5b	-0.013232554
112	0x3df6915b	0.12039443
113	0xbdacf122	-0.0844443
114	0x3d514f3c	0.051100954
115	0xbb8b0e9d	-0.0042436854
116	0xbd0b38f1	-0.03398985
117	0x3ccd6c4f	0.02507606
118	0x3e067f87	0.13134585
119	0x3dad881a	0.08473225
120	0xbc512107	-0.012764222
121	0xbe2d49b5	-0.16922648
122	0xbd7ff715	-0.062491495
123	0x3e634f54	0.2219823
124	0x3d1b9c07	0.037990596
125	0x3c98f70a	0.018672485
126	0xbd330c76	-0.043713056
127	0x3d43f1ef	0.047838148
128	0xbd83852e	-0.064218864
129	0xbd134f8e	-0.03596454
130	0xbcce902a	-0.025215227
131	0x3dc6b83e	0.0970311
132	0x3c9ee549	0.019396441
133	0xbd9b3adc	-0.07579586
134	0xbd9d8abe	-0.076924786
135	0xbdf4c79f	-0.11952137
136	0xbe62a05b	-0.22131483
137	0xbd4354f5	-0.047688443
138	0x3d3e698a	0.04648737
139	0xbbff328a	-0.007788007
140	0xbdc26ced	-0.09493432
141	0xbdb4939a	-0.08817215
142	0xbd99a9f4	-0.07503119
143	0xbd00c0a6	-0.031433724
144	0xbc978d15	-0.01849989
145	0x3d2ea894	0.042641237
146	0xbe252f1d	-0.16131254
147	0x3cfea68a	0.031085271
148	0x3def97d1	0.116988786
149	0xbd6e502d	-0.05818193
150	0x3d722351	0.05911571
151	0x3d000bbd	0.031261194
152	0xbe19b55a	-0.15010586
153	0xbc582e45	-0.013194625
154	0x3d7614d2	0.06007845
155	0xbd834335	-0.06409303
156	0x3dec72ba	0.1154532
157	0x3d156aec	0.03647892
158	0xbdbab450	-0.09116423
159	0xbe2e8851	-0.17044188
160	0xbd063599	-0.03276596
161	0x3d8c19f3	0.06840887
162	0x3dd894f0	0.105752826
163	0x3bfad7d6	0.007655124
164	0x3da2573d	0.07926796
165	0xbe6b521b	-0.2298054
166	0x3e166015	0.1468509
167	0xbd06ed07	-0.03294089
168	0x3d40d0a3	0.04707397
169	0x3d888390	0.066657186
170	0x3dafb56c	0.08579525
171	0xbddf9443	-0.109169506
172	0x3d210f00	0.039320946
173	0x36c05cc7	5.7328466e-06
174	0xbd95f333	-0.07321777
175	0x3d820413	0.06348433
176	0x3e1739b4	0.14768106
177	0x3daa547a	0.08316894
178	0xbe869ec2	-0.26292998
179	0x3d2704c9	0.040776048
180	0x3d21f4e5	0.03954019
181	0xbc9c051a	-0.019045401
182	0x3e3ee219	0.18640937
183	0x3cd74073	0.026275849
184	0x3e05b57d	0.13057514
185	0x3e207369	0.15669025
186	0xbc1f2e6c	-0.009715658
187	0x3d84b256	0.064793274
188	0x3d5398a5	0.051659245
189	0x3e1a7fab	0.15087764
190	0xbc464bee	-0.012103064
191	0x3d083af5	0.03325935
192	0xbdca9a4e	-0.098927125
193	0xbd1b017e	-0.03784322
194	0xbda2a852	-0.07942261
195	0xbce653ea	-0.028116185
196	0x3d8ad50f	0.06778919
197	0xbcb27ad1	-0.021787079
198	0xbc3495aa	-0.011022011
199	0x3d410a98	0.047129244
200	0x3cbb1b02	0.022840027
201	0xbcec0a92	-0.028813634
202	0x3d0afbb6	0.033931457
203	0x3d7075dc	0.05870615
204	0xbd4c6463	-0.049900424
205	0x3d4b4ec9	0.049635682
206	0xbc7ffd1c	-0.015624311
207	0x3d2e0ecf	0.04249459
208	0xbd9c0082	-0.07617284
209	0x3d1ba579	0.037999604
210	0x3ad5af77	0.0016302903
211	0xbe0307be	-0.12795922
212	0x3cecae05	0.028891573
213	0xbe09d443	-0.13459878
214	0x3b97fa1f	0.004637971
215	0xbe193bf5	-0.14964278
216	0x3dcc81ec	0.09985718
217	0x3da37dc5	0.07982973
218	0xbd642313	-0.055697512
219	0x3c45cf0f	0.012073292
220	0x3bcf7a08	0.006331686
221	0x3e3ae60f	0.18251823
222	0x3d20ac89	0.039227042
223	0x3cf27049	0.029594557
224	0xbce6b1d1	-0.028160961
225	0x3d354710	0.044257224
226	0x3d1f6cd7	0.038922157
227	0x3e19c35b	0.15015928
228	0x3d996f1a	0.07491894
229	0xbdb826f9	-0.089918084
230	0x3da8640f	0.0822221
231	0xbd8f7a5d	-0.07005761
232	0x3e0c8c2d	0.13725348
233	0xbc43b46e	-0.011944873
234	0xbd1d8d79	-0.038464997
235	0x3a2b0d02	0.00065250706
236	0x3db93041	0.09042407
237	0x3ddf1953	0.10893502
238	0x3cb48fdf	0.02204126
239	0x3d5df7f5	0.05419155
240	0x3d30e3c8	0.04318598
241	0x3c2c2b4d	0.010508371
242	0xbdecb2d6	-0.11557548
243	0xbdea9343	-0.11453869
244	0xbd1123b1	-0.03543443
245	0x3e109766	0.14120254
246	0x3e532ed6	0.20623335
247	0x3e2681d7	0.16260467
248	0xbd782ebf	-0.060591456
249	0xbccb65b8	-0.024828777
250	0x3b0fdf3b	0.0021953124
251	0x3dc5eb47	0.09664016
252	0xbda4734b	-0.08029803
253	0xbd770ee8	-0.06031695
254	0x3d338934	0.04383202
255	0xbc83546b	-0.016031465

network_body._body_endoder.seq_layers.2.bias f4 [128]
0	0x00000000	0.0
1	0x00000000	0.0
2	0x00000000	0.0
3	0x00000000	0.0
4	0x00000000	0.0
5	0x00000000	0.0
6	0x00000000	0.0
7	0x00000000	0.0
8	0x00000000	0.0
9	0x00000000	0.0
10	0x00000000	0.0
11	0x00000000	0.0
12	0x00000000	0.0
13	0x00000000	0.0
14	0x00000000	0.0
15	0x00000000	0.0
16	0x00000000	0.0
17	0x00000000	0.0
18	0x00000000	0.0
19	0x00000000	0.0
20	0x00000000	0.0
21	0x00000000	0.0
22	0x00000000	0.0
23	0x00000000	0.0
24	0x00000000	0.0
25	0x00000000	0.0
26	0x00000000	0.0
27	0x00000000	0.0
28	0x00000000	0.0
29	0x00000000	0.0
30	0x00000000	0.0
31	0x00000000	0.0
32	0x00000000	0.0
33	0x00000000	0.0
34	0x00000000	0.0
35	0x00000000	0.0
36	0x00000000	0.0
37	0x00000000	0.0
38	0x00000000	0.0
39	0x00000000	0.0
40	0x00000000	0.0
41	0x00000000	0.0
42	0x00000000	0.0
43	0x00000000	0.0
44	0x00000000	0.0
45	0x00000000	0.0
46	0x00000000	0.0
47	0x00000000	0.0
48	0x00000000	0.0
49	0x00000000	0.0
50	0x00000000	0.0
51	0x00000000	0.0
52	0x00000000	0.0
53	0x00000000	0.0
54	0x00000000	0.0
55	0x00000000	0.0
56	0x00000000	0.0
57	0x00000000	0.0
58	0x00000000	0.0
59	0x00000000	0.0
60	0x00000000	0.0
61	0x00000000	0.0
62	0x00000000	0.0
63	0x00000000	0.0
64	0x00000000	0.0
65	0x00000000	0.0
66	0x00000000	0.0
67	0x00000000	0.0
68	0x00000000	0.0
69	0x00000000	0.0
70	0x00000000	0.0
71	0x00000000	0.0
72	0x00000000	0.0
73	0x00000000	0.0
74	0x00000000	0.0
75	0x00000000	0.0
76	0x00000000	0.0
77	0x00000000	0.0
78	0x00000000	0.0
79	0x00000000	0.0
80	0x00000000	0.0
81	0x00000000	0.0
82	0x00000000	0.0
83	0x00000000	0.0
84	0x00000000	0.0
85	0x00000000	0.0
86	0x00000000	0.0
87	0x00000000	0.0
88	0x00000000	0.0
89	0x00000000	0.0
90	0x00000000	0.0
91	0x00000000	0.0
92	0x00000000	0.0
93	0x00000000	0.0
94	0x00000000	0.0
95	0x00000000	0.0
96	0x00000000	0.0
97	0x00000000	0.0
98	0x00000000	0.0
99	0x00000000	0.0
100	0x00000000	0.0
101	0x00000000	0.0
102	0x00000000	0.0
103	0x00000000	0.0
104	0x00000000	0.0
105	0x00000000	0.0
106	0x00000000	0.0
107	0x00000000	0.0
108	0x00000000	0.0
109	0x00000000	0.0
110	0x00000000	0.0
111	0x00000000	0.0
112	0x00000000	0.0
113	0x00000000	0.0
114	0x00000000	0.0
115	0x00000000	0.0
116	0x00000000	0.0
117	0x00000000	0.0
118	0x00000000	0.0
119	0x00000000	0.0
120	0x00000000	0.0
121	0x00000000	0.0
122	0x00000000	0.0
123	0x00000000	0.0
124	0x00000000	0.0
125	0x00000000	0.0
126	0x00000000	0.0
127	0x00000000	0.0

value_heads.value_heads.extrinsic.weight f4 [1, 128]
0	0xbe1fef11	-0.1561854
1	0x3d1cac90	0.038250506
2	0x3dde7a20	0.10863137
3	0xbe1ff766	-0.15621719
4	0xbc4b7b90	-0.012419596
5	0xbd4ba7c0	-0.049720526
6	0xbe2ee2a7	-0.17078649
7	0x3e111492	0.14168003
8	0xbe268a32	-0.16263655
9	0x3e2d165a	0.16903058
10	0xbe50bada	-0.20383778
11	0xbdfb4954	-0.122698456
12	0x3cb9c250	0.022675663
13	0x3dbcbcd4	0.092157036
14	0x3d4651a8	0.048417717
15	0xbe04131f	-0.12897919
16	0xbe0c083e	-0.13675019
17	0x3d009f8c	0.031402156
18	0xbda86a94	-0.08223453
19	0xbe0b8db6	-0.13628277
20	0x3e38a074	0.18029958
21	0xbe4649e0	-0.19364119
22	0x3e1a8480	0.15089607
23	0x3e3a7b98	0.1821121
24	0x3dd8348c	0.105568975
25	0xbd581dd8	-0.052762836
26	0xbe16d06a	-0.14727941
27	0xbdbd1fc5	-0.09234575
28	0x3e13c9c8	0.14432442
29	0x3dd81be8	0.10552198
30	0x3e00ac60	0.12565756
31	0xbd47bb24	-0.048762456
32	0xbe07c516	-0.13258776
33	0x3d162058	0.03665194
34	0x3e273c1a	0.1633152
35	0x3dcc7868	0.09983903
36	0x3e4f1ef4	0.20226651
37	0x3e580992	0.21097401
38	0xbd95d8f8	-0.07316774
39	0xbe260b9e	-0.16215369
40	0x3c7c4850	0.0153981
41	0xbe161dc6	-0.14659795
42	0xbd98a298	-0.07452887
43	0x3e3929d4	0.18082362
44	0x3dd3d9ac	0.10344252
45	0xbda05502	-0.07828714
46	0xbdded9f8	-0.10881418
47	0xbdea90ee	-0.114534244
48	0xbd278710	-0.04090029
49	0xbdd03037	-0.10165446
50	0xbe03fd17	-0.12889515
51	0x3e4745bc	0.19460195
52	0x3e4e0816	0.20120272
53	0xbe168ad2	-0.14701393
54	0x3d9aa5b8	0.075511396
55	0xbda03106	-0.078218505
56	0xbd40a924	-0.047036305
57	0x3daf8ef0	0.08572185
58	0xbe301990	-0.17197251
59	0x3dced1c0	0.100986004
60	0x3e120814	0.14260894
61	0xbd32fa94	-0.043696
62	0xbdadc848	-0.08485466
63	0x3e4a6932	0.19766691
64	0x3cac27c8	0.021015063
65	0x3e466f28	0.1937834
66	0xbca35768	-0.01993914
67	0xbd703b00	-0.058650017
68	0x3d5c35d8	0.053762287
69	0xbde94e3e	-0.11391877
70	0xbe0aa44e	-0.1353924
71	0x3e1cdb1c	0.15317959
72	0x3b9f33a0	0.004858449
73	0x3c827e88	0.015929475
74	0xbc873968	-0.016506866
75	0xbd3e766c	-0.046499655
76	0xbc9b0b88	-0.018926397
77	0x3d4026f8	0.046912163
78	0xbd9857d6	-0.074386284
79	0xbd9260fe	-0.07147406
80	0x3d6827e8	0.056678683
81	0xbd5b8a04	-0.05359842
82	0xbcd286d0	-0.02569905
83	0x3e4d888e	0.20071623
84	0x3d64d470	0.05586666
85	0x3e2131c8	0.15741646
86	0x3e0a0a84	0.13480574
87	0x3e340e8e	0.17583677
88	0xbe37a45c	-0.17933792
89	0x3e06622e	0.1312339
90	0x3e2574c2	0.16157821
91	0xbe3b9986	-0.18320283
92	0x3ccb66c8	0.024829283
93	0xbde63904	-0.112413436
94	0xbc4417a0	-0.011968523
95	0x3e43d48c	0.19124049
96	0xbdb7d876	-0.089768335
97	0xbcaac318	-0.020844981
98	0xbe1804ba	-0.14845553
99	0x3d95dd94	0.07317653
100	0xbe0d6b9f	-0.13810585
101	0xbdc70c91	-0.09719194
102	0x3e33b8a2	0.175509
103	0x3e48e1c2	0.1961737
104	0xbcf409b0	-0.029789776
105	0x3e41261c	0.18862194
106	0xbc681480	-0.014165044
107	0x3e135d90	0.1439116
108	0xbcb1f330	-0.021722406
109	0xbd167498	-0.036732286
110	0x3e00cc0e	0.1257784
111	0x3d31fd58	0.043454498
112	0xbe59d91f	-0.21274231
113	0x3bf81340	0.007570654
114	0x3b194480	0.0023386776
115	0xbe565160	-0.2092948
116	0x3cbddb30	0.023175806
117	0xbd9ec71e	-0.07752822
118	0x3d0d4ff8	0.034500092
119	0x3e5a16ac	0.21297711
120	0xbd10c1ac	-0.03534095
121	0x3d9fe654	0.078076035
122	0xbe121d29	-0.14268936
123	0x3cb8b418	0.022546813
124	0x3e546c76	0.207445
125	0x3dd66b70	0.10469711
126	0x3df9cdbc	0.12197444
127	0xbdac6b20	-0.0841887
