results/Test15/MoveToTarget/MoveToTarget-358832.onnx (onnx, 75612 bytes, 7 tensors)

network_body._body_endoder.seq_layers.0.weight f4 [128, 6]
00000000: b818 8f3e 0ff3 db3e f68a 7dbd 36a5 b0bd
00000010: a61f 603e e1a8 c23e 7248 4ebe 9727 8a3e
00000020: 3f2d 8a3e 4c2d d2be 100d 8cbe 5066 033c
00000030: 8cb5 73bc 300f d63e 9d0b ef3e 124e 243f
00000040: 19e4 b8be 1315 103f aea9 083f 02b3 cc3e
00000050: 0c5a 9bbd 212a adbe 79d0 56bd a489 7a3d
00000060: d056 b53d 4eac d03e 71bb c6be e8cb c8bd
00000070: 2f9c a6be 84ce a2be a044 34be 5c06 223f
00000080: 711a 1a3e 20c7 70be a5f5 83be fbe4 fc3d
00000090: 5ac9 173e 3404 903f 68ae 183e a70d 38bf
000000a0: 92a0 b53e 5f63 1a3e 185d 48be 96a5 81be
000000b0: 16c9 823e 62e8 95bd 3ce1 91bd 50d9 85be
000000c0: 6b1f eabe 6861 26bf 4607 ca3e 5faf 033e
000000d0: a65b a6be 671a febe 3df3 743e 198f a93e
000000e0: d762 08bf 44a4 873e 65c1 423e 52fe 8bbe
000000f0: 322f 60bc bc1b 08be ec97 4bbd b49d eebe
00000100: 23cf f8be 8263 cabe 25f0 083f a5c7 173f
00000110: c931 893e de39 1d3e 3594 fe3d 4e1e abbd
00000120: 87b7 873e bbc5 f53e 941a d4be 05ec 8ebe
00000130: ba6c 1f3f b8d3 483e 6172 eabe 62a1 03bf
00000140: 9fe6 3ebf fd2e 3a3f 3b70 e8be fc16 583f
00000150: 496c 84be ecf4 eebe f760 44bf fd02 9a3e
00000160: fe82 22bf 03b8 bcbe 64b9 b3bd 18ef 45be
00000170: ad43 00be a28a 993d d267 4f3e 3bc4 633e
00000180: bb9e 4abf d4ea 593e 455a 28bb d1b9 b6be
00000190: 97b1 4f3f ab1b b9bc c01b 16bf 2004 7b3e
000001a0: a83d 143e 9526 003f 26db 043f c712 3d3f
000001b0: 611d c5bd 8f70 0e3d 6fd6 1dbf 521d 213e
000001c0: 3327 963f 9eb6 f2be 6bb8 c63e bb34 eb3d
000001d0: 7e55 43bd a125 8dbe 4368 443d 66cc b53e
000001e0: 1339 0fbf 2345 0e3c d85e c03e cdd0 503e
000001f0: 7a63 4f3f 66b9 183e c74c c0be 1606 bf3e
00000200: 1086 dc3d 2d8f f83d cffd 3c3e ceb2 8c3e
00000210: d0d8 743e db29 1b3f 2e0a 6b3e f3aa 63be
00000220: 9c05 56bd f598 80be 2bfa 60be 68d2 823c
00000230: 2907 1cbe b34a bfbe faf3 0c3f a6a2 2d3e
00000240: 9210 773e 85e5 953b 501c df3e 5b37 993d
00000250: 2227 02be 922c 01be da52 143f 22a0 85be
00000260: caa0 44bc 663c 273f cce5 1ebd 140f a3bd
00000270: d3a9 54be 1b72 8b3d 55c0 46b9 e360 163f
00000280: e336 c4bd 2141 673d 755d fb3d 44a5 1bbf
00000290: 9c96 e93d b868 193f 9e7e efbc 3716 9e3e
000002a0: dee8 023f f4a5 18bf 62d2 14be 1c3c 6d3e
000002b0: 6e6a f6bd 8d7d c13e 7d26 7bbe 0b6c 063f
000002c0: ea31 98be 5c47 4b3e ad97 11be 9d82 133f
000002d0: c49d 323f e680 ff3e ca80 9d3e 1aa1 df3c
000002e0: f6d4 b9be f674 22bf 791b 103f c0b8 c3bd
000002f0: b907 ccba 1a71 90bd f21c 92bd c3ff 3dbe
00000300: 3464 1b3d f4ad 49bf 0881 673e fe7e 13bf
00000310: aad5 8e3f 5419 17bf a6c2 2abe 3157 b73a
00000320: 4170 263e 2b9f cc3e 314b 623e 8e3d e2bd
00000330: 2890 b03e e469 e23e d827 e9be ce5c e53e
00000340: eff3 d43e dd85 cabe 6e04 a63d 22a6 2c3e
00000350: de88 c53e 99f9 5f3d eb3f c73d d944 a23e
00000360: 7a32 f4bd 97f2 1a3f 3486 1abf 8326 433e
00000370: 5934 933e 408e 2bbf fd83 073f d1b3 af3e
00000380: 6c03 f43e 7d00 533c ea80 ddbc 3183 993e
00000390: c4f8 adbd cf2b a9be fca0 e4be dd1b a3bf
000003a0: 24c6 8cbc dee6 74be 1b71 13bf a4b8 76bf
000003b0: 6064 aabe f2cb 5e3e d1a1 5abf 49c5 523e
000003c0: e941 b43e 35aa 3d3f b60f f5be 87c8 353e
000003d0: cd86 493f b12e fd3d 3b4c d23c 78f6 9bbd
000003e0: e6ea cd3e 11e1 b43e 986b 00be 068b 19be
000003f0: 0a91 733c eb44 d13d 103e 163e fc58 94be
0.27948546 0.42958876 -0.0619001 -0.086252615 0.21887073 0.3801947 -0.20144823 0.2698333
0.26987645 -0.41050184 -0.27353716 0.008019999 -0.014874827 0.41808462 0.46688548 0.64181626
-0.36111525 0.56282157 0.5338391 0.39980322 -0.075855345 -0.33821204 -0.05244491 0.06116642
0.08854449 0.40756458 -0.3881488 -0.09804517 -0.32541034 -0.31798184 -0.17604303 0.63290954
0.15049149 -0.2351346 -0.2577335 0.12348362 0.14822903 1.1251283 0.1491028 -0.7189583
0.35474068 0.1507697 -0.19566762 -0.25321645 0.2554404 -0.07319714 -0.07123038 -0.2614236
-0.45727095 -0.6499238 0.39458674 0.12859868 -0.32491797 -0.49629518 0.23920913 0.33116987
-0.5327582 0.26492512 0.19019087 -0.27342469 -0.013683127 -0.1329183 -0.04970543 -0.46604693
-0.48595533 -0.39529043 0.5349143 0.5928901 0.26795796 0.15354106 0.12430612 -0.083553895
0.26507208 0.4800242 -0.41426528 -0.27914444 0.6227528 0.19612014 -0.4579039 -0.51418126
-0.7457065 0.7272795 -0.45398125 0.8441007 -0.25863865 -0.46671236 -0.76710457 0.30080405
-0.6348113 -0.3685914 -0.08775595 -0.19329488 -0.12525816 0.07497145 0.20254448 0.22242825
-0.79148453 0.21280986 -0.002568857 -0.35688642 0.81130356 -0.0225962 -0.58636093 0.24513292
0.14476645 0.5005887 0.51896894 0.73856777 -0.09624744 0.034775313 -0.61655325 0.15733841
1.1730713 -0.4740495 0.38812575 0.11484667 -0.047688954 -0.2756777 0.047950994 0.35507506
-0.55946463 0.008683476 0.3757236 0.20392151 0.81011164 0.14914474 -0.37558576 0.3730933
0.10767758 0.121366836 0.18456195 0.27480167 0.23910832 0.6061074 0.22953102 -0.2223318
-0.052251443 -0.25116697 -0.21970432 0.01596947 -0.15237106 -0.37361678 0.5505978 0.16956577
0.24127415 0.00457448 0.43576288 0.07481261 -0.1271024 -0.12614658 0.5793892 -0.26098734
-0.012001226 0.65326536 -0.03879337 -0.0796186 -0.20767908 0.06808873 -0.00018954401 0.5874159
-0.09580781 0.056458596 0.12273685 -0.6079905 0.114056796 0.59925413 -0.02923518 0.30876324
0.5113658 -0.59628224 -0.1453338 0.23167461 -0.120320186 0.377911 -0.24526401 0.5250861
-0.2972558 0.1985144 -0.14218016 0.57621175 0.6977198 0.4990303 0.3076232 0.027298499
-0.3629529 -0.6345972 0.5629192 -0.09556723 -0.0015566266 -0.070528224 -0.07134427 -0.18554597
0.037937358 -0.78781056 0.22607815 -0.5761565 1.1158955 -0.5902302 -0.16675815 0.0013987777
0.16253759 0.39965186 0.22098996 -0.11046897 0.34484982 0.44221413 -0.4553821 0.44797367
0.41592357 -0.39555255 0.08106314 0.1686025 0.38580984 0.054681394 0.09728988 0.31693152
-0.1192369 0.6052641 -0.6036103 0.1905766 0.28750876 -0.6701393 0.52935773 0.34316877
0.4765886 0.012878534 -0.02703901 0.29982904 -0.08494714 -0.33041236 -0.4465407 -1.2742878
-0.017184325 -0.23916194 -0.5759446 -0.9637549 -0.33279705 0.21757486 -0.8540316 0.20583071
0.35206535 0.7408784 -0.4786355 0.17752276 0.78721315 0.12362421 0.025671115 -0.076153696
0.40218276 0.35327962 -0.12541044 -0.1499444 0.014866123 0.10218223 0.14672112 -0.2897414

network_body._body_endoder.seq_layers.0.bias f4 [128]
00000000: 63d6 0a3d f23f 55bc 9ba4 1e3d 32e1 b43c
00000010: 24b2 543d 0fc2 f13b 279e 66bb c912 3d3d
00000020: 4c5e f1bb 97d5 b23d e5ca a7bd 6082 d73c
00000030: 1939 c93c de80 853d f93c ca3d c773 f5bc
00000040: 1847 bd3c fbcf 103d aca9 823d fb52 bd3b
00000050: b36d 8f3c f62d 173d ec8c c5bc 3f77 02bd
00000060: 0a0b b03b 417e 873c aecb 703d dc4e 543d
00000070: f4ea 083c 73ec 343d 4fd3 fa3c eede 0dbd
00000080: b2a5 e13c b94c 813d 97b5 993d 5270 b5ba
00000090: e13d c43c 3b18 16bd 7dea 343d c85c 3ebd
000000a0: f57f 443d 5afd 973c e30f d7bc 44b5 283d
000000b0: 30da d5bb 434f 1abd 6687 5f3d 4bdf bf3d
000000c0: 5752 b23c e967 19b9 b34f 753d e954 3ebc
000000d0: d527 8537 3d60 4d3d 411b 473d 15c9 d1bc
000000e0: c40e 86bc cfbb 9abc 51e1 913c cfb5 c93c
000000f0: 2102 293d a2c6 e43c 8e92 503d 7281 433b
00000100: 8e94 32bd c8d6 a7bb dfd4 043d a7ed 713b
00000110: b20b 243d 7281 6bbc 9064 ab3d 47db 153d
00000120: 043c b63c 332b a8bb dad0 d1bc 1652 1ebc
00000130: 64c4 703c c690 1bbc db64 183d 967e 6abc
00000140: eab2 593c 322d 133d 913d c4bc 9084 a13c
00000150: d029 7c3c 2bd2 0e3d 3438 37ba 685a 623c
00000160: 795a 4cbc e293 02bd 6b41 663d 1ba8 573d
00000170: 1748 503d 3692 ae3c 6368 90bc 80ab 943d
00000180: d179 8f3d c50d 8a3d 4d7a 153d 6694 c2bb
00000190: 928f 23bd 4766 9a3d 2a18 64ba 1e6b 08bd
000001a0: ae31 9c3d 1fbe 1e3d e16a b33d d354 89bc
000001b0: c0bc 083d 59d5 b33b c185 b1bd c97c b93b
000001c0: b16c 423c 8adb 0cbd 1114 efbb 439a 263d
000001d0: 8657 213d 5fbf ab3c 9c41 943a 2e48 1f3d
000001e0: 22d3 1d3d 0605 953d 4ff3 463d 5b82 003d
000001f0: a0ab 0e3d 874b 7d3d 044e 9ebb 2608 943d
0.03389586 -0.013015734 0.0387312 0.022080038 0.0519277 0.00737787 -0.003518948 0.046160493
-0.0073659774 0.08732145 -0.08192996 0.026307285 0.02456336 0.0651872 0.09874911 -0.029962434
0.02310519 0.035354596 0.063800186 0.0057777143 0.017508363 0.036909066 -0.024115048 -0.031852003
0.0053724097 0.016539695 0.058787994 0.05183302 0.008356798 0.044170808 0.030618338 -0.03463643
0.02754483 0.06313462 0.07505339 -0.0013842678 0.023955287 -0.0366442 0.044168938 -0.0464752
0.04797359 0.018553425 -0.026252693 0.041188493 -0.006526254 -0.037673246 0.054572485 0.09368762
0.021767778 -0.00014629927 0.05989046 -0.011616924 1.5873384e-05 0.050140608 0.048609976 -0.025608579
-0.016364463 -0.018888382 0.017807635 0.024622826 0.041261796 0.027926747 0.050921015 0.0029831794
-0.043598704 -0.0051220395 0.032429572 0.0036915333 0.040050216 -0.014374124 0.0836879 0.036586072
0.022245415 -0.005132103 -0.025612283 -0.0096631255 0.014695261 -0.009494966 0.03720556 -0.014312407
0.013287285 0.035931773 -0.023955138 0.019716531 0.015390828 0.0348684 -0.0006989271 0.0138155
-0.012472742 -0.031879313 0.05621473 0.052650552 0.05085 0.021309953 -0.0176279 0.072592735
0.070056565 0.067409076 0.03649359 -0.0059381006 -0.03993184 0.07539039 -0.00087011105 -0.03330528
0.07626663 0.038755532 0.0876062 -0.01676408 0.03338313 0.0054880795 -0.0866809 0.0056606275
0.011866734 -0.034389056 -0.0072960933 0.04067446 0.03939011 0.020965276 0.0011311057 0.038887195
0.03853143 0.07276349 0.04857188 0.031374317 0.034831643 0.061839607 -0.0048310775 0.07228117

network_body._body_endoder.seq_layers.2.weight f4 [128, 128]
00000000: c677 713c c098 19bd 1432 253e 2ba8 d63b
00000010: da4f af3c 5a98 d9bd c10f 3b3e 5936 8b3d
00000020: 0fc4 973c 9a1a 2a3d b4bc a5bd 4825 ba3d
00000030: e486 87bd b8be 39bd f2bf 08bb dc61 063e
00000040: 1083 3c3d 2f98 603d 8847 283e f4a2 9b3e
00000050: e724 cdbc cd52 ffbd 88de 78bc ae78 7fbd
00000060: bc82 43bd dddb babd 1b48 ec3b 7c59 23bd
00000070: 7de9 f03c 2b81 893c 570d fe3d 8ca1 df3c
00000080: 1dc8 6ebd 5ef3 13bd 49cb 843a 4d8a 1e3e
00000090: 4a77 20bd 2db6 86bd 5ec1 5a3d d729 523d
000000a0: 6b82 af3d 8142 cbbc 22d8 3d3d 8b5d 2f3c
000000b0: d86e 9fbd 0548 653e 347d 84bd 574b 8cbd
000000c0: ea07 893d 4d04 303e cc72 5fbd 975c 153e
000000d0: 289a 983c ab08 76bd d58b c43d 576e 383d
000000e0: e6e8 95bc 258a fcbd d5d2 953d 5b20 e13d
000000f0: 5db8 a53d b007 88bd 9e96 7d3d a7de abbb
00000100: 48cd ddbb 54df 5bbd f461 c7bc fabc 433d
00000110: 6e8c ae3d 35e4 043e 30cf 5a3d ac57 d7bd
00000120: eafa 4dbd fbd9 243d 0c10 c1bd 797a 133d
00000130: 05a1 31bd e2e0 b1bd 91b2 533d 48e1 c5bc
00000140: 3850 a2bd 99f6 06bd bfa3 cc3d 0bcd 0d3d
00000150: 5df5 4dbd 8b1c cbbd 7c3d 56bd 61b4 043c
00000160: 3311 e53d bc21 22bd d111 213d 8d1a 733c
00000170: c714 7ebd 12eb c03d 306a 413e 8a8c e23c
00000180: 3f15 7fbd 5ff7 d0bd b9e2 f6bd 02ac 31bc
00000190: e0fb 0e3c c922 b8bd 151e 2d3e e2c5 c7bc
000001a0: 852d 6b3e bb55 bc3b 7ffd 8f3d 9c3c 03be
000001b0: a6bf ffbc 3ed4 95bd 09ee ad3d 6165 65bd
000001c0: cbd1 903c ac05 8a3d 96c3 e43c f380 3bbd
000001d0: 19eb df3d 49c9 13bd 8336 083d 6aa7 b3bc
000001e0: 21a8 0cbd 183c 053c 602b c43c d457 133e
000001f0: 234a 3abd 5a79 29be c32a 90bd 12a4 05be
00000200: 4874 563d 4a34 81bd cc8b 8c3c 3a48 9f3d
00000210: a2e4 85bb 755f 22be 622c db3d 87a4 fabb
00000220: cf4a aa3c 4ffe e13d 0d9b 313d a859 dc3c
00000230: aa6c d63d eec1 ae3d fcce 6dbd bbe4 3e3d
00000240: 174c 2bbe 993b f7bc 40db 1abd 3757 fd3c
00000250: f5eb 943d 67fa 15be b023 2d3e 2f7c 24bd
00000260: 6fcd 33bc 37d5 853c 2eb6 48bc 6c36 f93d
00000270: 62eb 90bc 4a4d d33c e835 38bc 77a3 9d3d
00000280: f328 68bd 6721 9d3d 5a9e 7bbd 12e0 04be
00000290: bcf0 213d d8f7 d73d a4bc 8f3d 697f 1a3e
000002a0: 8520 3f3b 2c65 75bc 6f8a 9ebd 313f 55bc
000002b0: 148d 9d3c 58ba 5e3d f917 eebd 0f5b 2dbd
000002c0: c68a 0abd 05f3 a3bc f200 99bb d96d f43c
000002d0: ad25 5b3c 64b2 043d 4506 2fbe ed41 0abd
000002e0: 9a0a 33be b486 3abd 7f34 91bd 7adf 95bd
000002f0: 97e9 0dbe 0967 2cbe 5168 4dbe daa9 33be
00000300: 3371 123c 3be6 203e c347 a4bd dbab 76ba
00000310: 5d29 28bd df9f 9dbd def2 44be 9a5f 6e3d
00000320: ba07 773b bea7 903c d942 083d 8b2a 183e
00000330: 2ec9 c5bd 4b75 5a3d 68bc 293d 4c5b 123c
00000340: c222 ffbd 062a 7bbd 360f 95bb 4ab8 19be
00000350: 65ca 313d 64ab 683d af75 e0bd 9960 ffbc
00000360: 43c5 bdbc cb35 0cbe c1cf e9bd 8267 8e3d
00000370: 8c5b 5c3d f470 663d cdb3 66bc a500 a53d
00000380: 98d3 f63c 339c a4bc 8f16 b33c 6bf0 c03d
00000390: 8bf2 293d aaf1 96bd 51eb e33d 7476 d63c
000003a0: 3371 e4bd 5ac7 953d 5bd8 d3bd 9709 933b
000003b0: ebd9 873d 2193 d9bc 28b7 45bc 6507 41bc
000003c0: 50ff 323d 47a3 063e ee1e 053d 47ba 9a3b
000003d0: 05dc dcbb 0ed3 b13d da15 75bc b5fb 98bd
000003e0: dc16 d9b9 1626 9e3b 3f1d 19bc d809 cc3d
000003f0: 2032 c5bc 612e 9fbd 5eb3 c43a 636e 8abe
0.014738029 -0.03749919 0.16132385 0.006550809 0.02140038 -0.10624762 0.18267728 0.06797475
0.018526105 0.041529275 -0.08092633 0.09089142 -0.06617525 -0.0453479 -0.0020866361 0.13123268
0.04602343 0.054832634 0.16433537 0.3039776 -0.02504201 -0.12466965 -0.015189774 -0.06237095
-0.0477321 -0.09123967 0.007210744 -0.03988026 0.02940821 0.016785225 0.12404888 0.027298711
-0.05829631 -0.036120765 0.0010131384 0.15482445 -0.039176263 -0.06577716 0.053407066 0.051309433
0.08569797 -0.024811985 0.0463487 0.010703455 -0.07784814 0.22390755 -0.06469193 -0.068503074
0.066909626 0.1718914 -0.05455284 0.14586101 0.018628195 -0.06006686 0.09596983 0.045027103
-0.018299531 -0.123310365 0.07315604 0.109924994 0.08091805 -0.06642091 0.061911218 -0.005245048
-0.006768856 -0.05367978 -0.0243387 0.047787644 0.085228786 0.12977679 0.053420246 -0.10514769
-0.05028812 0.040246945 -0.09426889 0.03600547 -0.04336645 -0.08685471 0.051683966 -0.024155274
-0.07925457 -0.032950018 0.099921696 0.034619372 -0.050282825 -0.099175535 -0.05230473 0.008099646
0.11184921 -0.039582953 0.03932363 0.014837873 -0.062031534 0.09419836 0.18888164 0.027654905
-0.06227612 -0.10203432 -0.12054963 -0.0108442325 0.008727044 -0.0899101 0.16906007 -0.02438635
0.22966583 0.0057475246 0.070307724 -0.1281609 -0.031219315 -0.073158726 0.08492667 -0.056004886
0.017678162 0.06739363 0.027925294 -0.045777272 0.10933513 -0.036080632 0.03325511 -0.021930415
-0.034340028 0.008132003 0.023946464 0.14388973 -0.04548086 -0.16550198 -0.07039406 -0.13050869
0.05235699 -0.063088015 0.017156504 0.07777448 -0.004086093 -0.15856726 0.10701825 -0.0076490077
0.020787625 0.11034834 0.04336076 0.02689822 0.10469945 0.08533083 -0.058058724 0.046604853
-0.16728245 -0.030179786 -0.03780675 0.030925376 0.07271568 -0.14646302 0.16908145 -0.040157493
-0.010974272 0.01633702 -0.012250466 0.12168583 -0.017690364 0.02579369 -0.011243321 0.07697194
-0.056679677 0.076723866 -0.061430313 -0.12976101 0.039536223 0.10545319 0.07018402 0.15087666
0.002916367 -0.014977735 -0.07741248 -0.013015554 0.01923231 0.05437693 -0.11625666 -0.04232317
-0.03382375 -0.020013342 -0.004669302 0.029837536 0.013375682 0.03239669 -0.17092235 -0.033754278
-0.17484513 -0.04553862 -0.07090091 -0.073180154 -0.13858639 -0.1683618 -0.20059325 -0.17545262
0.008938122 0.15712826 -0.080215 -0.0009409764 -0.041055072 -0.076965086 -0.19233271 0.05819664
0.0037693814 0.01765811 0.033266876 0.14859979 -0.096575126 0.053334516 0.041439444 0.0089329
-0.124578014 -0.061319374 -0.0045489324 -0.15011707 0.04340591 0.056804076 -0.10959946 -0.031173991
-0.02316535 -0.13692395 -0.11416579 0.06953336 0.053798243 0.056260064 -0.014080954 0.080567636
0.030130193 -0.020094013 0.021861343 0.09420856 0.041491073 -0.073703125 0.111288674 0.02617953
-0.111544035 0.07313414 -0.10344001 0.004487227 0.066333614 -0.026559414 -0.012067594 -0.011781548
0.043700516 0.13148223 0.0325002 0.004721913 -0.0067400956 0.086828336 -0.014958823 -0.07469884
-0.00041406497 0.0048263175 -0.009345352 0.09962815 -0.024071753 -0.07772518 0.0015007069 -0.27037343

network_body._body_endoder.seq_layers.2.bias f4 [128]
00000000: ce9a 7ebc 24a5 e3ba 0e50 b8bc da80 86bb
00000010: f41f 5737 6fc8 f3bc 0347 9d3c a7b9 373d
00000020: 53a7 903c f4e0 483b b346 e03c e3ad 963d
00000030: a520 663d f991 063d 0253 dd3c e28f a0bc
00000040: a21e a6bc c3f7 7c3d 7edf 9abc 430c 4a3d
00000050: 36a4 61bc 7a33 073c 12ae 233c 8a76 903c
00000060: 3f57 9bbb 2025 6f3d 541f 1fbc 292a 623d
00000070: 13da 873d 52eb 203d 662d 0ebd 749d c3bc
00000080: affd d43a f82a 063d 4992 243d e1b4 63bc
00000090: be3a 3d3d 2e7f cebb f7b4 513d 3e14 ff3c
000000a0: f506 2ebd 7dd0 673d 3784 03bb 54d9 67bc
000000b0: d850 883c accb 793c caec 9fbc 1c60 1bbd
000000c0: aae6 51bb 6984 863b 1273 ac3a 861e 3e3d
000000d0: 4a4a a03c 5d36 143d 8ad5 853c c602 a4bc
000000e0: 42e3 e9bc 232b de3c bdd7 203d a5b7 263b
000000f0: 03c9 c1bc 8a09 013d 35ff cfbc 28bb 663d
00000100: 2877 5a3d 50db 46bd 17d8 d6bc edb4 9bbc
00000110: b12f d33c 64f7 7b3c 98df 063d 7914 1b3b
00000120: 90a9 ed3c e7a2 4a3d cfb9 fc3c b38c 3e3c
00000130: 72e3 823d b955 d9bc 65dc 793d 59d9 b8bc
00000140: 0fd5 9d3c d4de 52bc 1220 5a3d 483b 673d
00000150: b18e 983c 4656 813d 152a dcbc 7787 863c
00000160: 0090 7dbb 294b d63c 69c2 133d 0a8d 293d
00000170: fb2e bb3c 6c8c bd3c 49ba 72bb 44ef b5bc
00000180: 186a 1fbd 60c5 3ebc bfe2 a8bc 8307 e83c
00000190: 2d7a 083d 0a1d 4f3d d41d ed3a 80d7 93bc
000001a0: 457b 743d e9d9 be3c 224f 4b3d c61f 793d
000001b0: 1903 46bc fbe6 793c b004 1b3d 539b e33a
000001c0: 03de dcbc b860 8abc 7f33 913d 5855 af3c
000001d0: 384d 8c3d fe50 d2bb ebfe 0ebc aa58 643d
000001e0: b3e6 573d ecd5 6cbc 5199 3ebb 007d 3f3c
000001f0: 0004 323c d9c5 b7bb e2fb cb3a 5eb3 503d
-0.015539838 -0.0017367941 -0.02249911 -0.004104716 1.2822438e-05 -0.02975866 0.0191989 0.044854786
0.017657911 0.003065166 0.027377462 0.07357385 0.056183476 0.032854054 0.02701712 -0.019599859
-0.020278279 0.06175972 -0.018905398 0.0493281 -0.013772061 0.008252019 0.009990232 0.017634649
-0.004740625 0.058385015 -0.009712059 0.05521599 0.06633391 0.03928692 -0.034711264 -0.02387879
0.001624992 0.032755822 0.04017857 -0.013898105 0.0461986 -0.006301782 0.051197972 0.031137582
-0.042487103 0.056595314 -0.002006782 -0.014150936 0.016640112 0.015246313 -0.01952209 -0.037933454
-0.0032028356 0.00410514 0.0013156852 0.04641583 0.019566674 0.036184657 0.016337175 -0.020020854
-0.028550748 0.027120179 0.039268244 0.002543905 -0.02365542 0.031503238 -0.025390247 0.05633083
0.053336293 -0.048548996 -0.026226087 -0.01900717 0.025779577 0.015378807 0.03292808 0.0023663326
0.029011518 0.049471762 0.03085032 0.011630225 0.06391038 -0.026530134 0.0610012 -0.022564577
0.019266633 -0.012870509 0.05325324 0.05645302 0.018622728 0.063152835 -0.026875535 0.016422017
-0.0038690567 0.026158886 0.036074076 0.04139427 0.02284955 0.023138247 -0.0037037304 -0.022208817
-0.03891954 -0.011643738 -0.020615933 0.028323894 0.03331964 0.050564803 0.0018090555 -0.018047094
0.05968787 0.023297267 0.049636014 0.060821317 -0.0120856995 0.015252824 0.037846267 0.0017365016
-0.026961332 -0.016891822 0.070899 0.021403 0.06850666 -0.0064183464 -0.008727769 0.05574862
0.052710246 -0.0144553 -0.0029083083 0.011687517 0.0108652115 -0.005608302 0.0015562738 0.050952308

action_model._continuous_distribution.log_sigma f4 [1, 3]
00000000: 316f 6abd be51 ddbc 6a67 50bd
-0.057234947 -0.027016517 -0.050879873

action_model._continuous_distribution.mu.weight f4 [3, 128]
00000000: eb22 f63b 0b74 2c3d e27b a3bc 1ec6 503c
00000010: 0826 16bc 0cd7 9abd 3108 5a3c 6ddd 7c3b
00000020: 52ef 913c 3c6d fdbc 0811 053d 55f0 263c
00000030: 5a4b 8e3d d135 7d3c 94ec 51bd c676 913b
00000040: 5bbd a2bc cb9d 2abd f217 3b3c e6ba dd3c
00000050: 4144 363c fba1 8dbc e190 e9bd 1fa6 e3ba
00000060: ac7b afbc 2bd2 50bd af82 afbb 641c 7f3c
00000070: bf04 ab3d 1abb b83b c214 1fbd bf4c dabb
00000080: bcd4 ecbc e410 95ba ec41 e7ba 2a3d 77bc
00000090: d088 7c3d db20 acbc 436f 863c 8aef 153d
000000a0: ffc8 3fbd 4948 893d 72a5 e73c 2824 aabc
000000b0: 264e 9e3c a95a 003c 1fec e23b 4389 0abd
000000c0: 4923 a2bc 1fdb dcbd fd6f 41bc 4998 a43d
000000d0: a229 80bd 7c10 973a bfdb 113d aad8 3ebd
000000e0: e3c9 80bb 6f59 9a3c 3e64 af3b f9d0 e6b9
000000f0: 0499 463c 5f61 d83c 0a73 e7bc 93af b43d
00000100: 2731 ccbb 2069 47bd c0da b1bd e18d c5bc
00000110: 3b5e a63c 0408 d93c ada5 293c 902b d5bd
00000120: b66e d8bb fac8 af3b 7db2 8abd 7b2d bc3b
00000130: 8640 bd3d e70e 98b9 6a88 2a3d 4dd3 adbd
00000140: 52f7 61bc 9b01 503c f8f0 513b 754b 8b3d
00000150: e50d 9b3c df9c 743d 62da 8bbd ec0a 863c
00000160: 30c4 e23b f08a 623c 1021 873d fba1 df3b
00000170: 47a8 8a3c 3c3c a03b 2043 d83b f20f adbc
00000180: d665 93bd be67 cdbc 350e 4cbd a4f2 023d
00000190: 0085 9c3c f190 253d b07a 553b 7cc9 24bc
000001a0: 68e6 403c fb21 603c df06 a83d 7bd3 483d
000001b0: fa8f 8fbc 044b 7cbb c150 333d c633 edba
000001c0: 70ec 7ebd dfa5 0ebc 946b 21bc 9b28 4abb
000001d0: 4d01 d73d 30dd 44bc af8b 8ebc 1ee6 873c
000001e0: 424c 5d3d d862 f3bc a2ef 01bd 5e37 423b
000001f0: 1969 afbc c7bd b6bc b2f1 b7bd d0b1 9f3d
00000200: 6248 cfbb 83ca 0abc 46fd df3c f486 17bd
00000210: 8052 74bc c547 5fbd 9778 c63c 9cac bcbb
00000220: 41b8 b83c b069 2fbc 08d5 11bc 0c3f 863c
00000230: d2f4 623d b8e2 9e3b d2ea 213d 4048 24bc
00000240: ebeb 9d39 a232 483d 342a d3bc 4c79 fe3c
00000250: 7b61 92ba e646 5cbd 6a5c 0a3d b5ab be3c
00000260: c6d0 813b e5c2 7e3d 393a bb3c 6d4a 503d
00000270: 0b28 5bbd 467c b73b c19d e8bc 757e 20bd
00000280: 2864 ee3b 549e 02ba ce48 313c 7634 90bd
00000290: 3025 693c 3689 ccbc ee31 d7bc afac 4c3c
000002a0: 6dc9 01bd 6811 87bc 4600 19bc 24fe 7c3c
000002b0: 5b8a 09be c48c 243d 0945 df3b 9c86 41bd
000002c0: 655a 033c 7ad5 90ba def4 32bc 9837 a4bc
000002d0: 91a4 bc3c b901 263c 1b70 32bc c8b6 7abd
000002e0: 6ddd a5bc 5c14 ce3b cfcc a23a 099d 06bd
000002f0: 20ce f6bc a402 763c 4ce0 90bc c1ac bdbd
00000300: 95dc f93a 21dd 95bd 63d5 b0bc 6ce1 99bb
00000310: a776 d73c df5a e0bc ec5a fbba 6f62 2fbd
00000320: 68c4 3ebb 65b2 953c c277 bd3c cede 09bc
00000330: 9299 ad3c 18de 943b 41dc 8f3d cf94 8bbd
00000340: f921 ab3c aa87 86bb f000 9a3d 4ac4 5d3b
00000350: 4ed4 40bc b7d3 563d 7936 b9bd 3059 42bb
00000360: b070 38bc c171 1bbc 7cca a93c 9917 1a3c
00000370: ce89 493c bb41 ad3c eed3 a5ba f6fa 09bd
00000380: 4928 ebbc 8dc7 003c 3025 cc3c b362 0bbb
00000390: ae16 fab8 3991 963d 9593 e03b dc53 9eb9
000003a0: 3e6b 8a3d 851e 9abb 5855 5a3c 8249 453d
000003b0: eb79 91bc db2c 903c 82b4 69bd dcac 933a
000003c0: 62d2 3fbd 407e a6bb 6b42 2a3d da39 b1bc
000003d0: 7fba ce3c dd75 593d ba3a 7d3b d95f 2d3b
000003e0: af81 c13c 6d78 83bd c4a7 933c fc13 1b3c
000003f0: 94d3 ed3b 7980 b2bb a0ac fe3b 6d51 ef39
0.0075114868 0.042102855 -0.019956533 0.012742547 -0.009164341 -0.07560548 0.013307617 0.0038584128
0.017814312 -0.030935876 0.032486945 0.010189136 0.06947966 0.015454725 -0.05125101 0.0044392077
-0.019865682 -0.04165439 0.011419283 0.02706666 0.011124671 -0.017289152 -0.114045866 -0.0017368234
-0.021421276 -0.05098168 -0.005356155 0.015570734 0.083505146 0.0056375386 -0.038838156 -0.006661981
-0.028910033 -0.0011372832 -0.0017643548 -0.015090266 0.061653912 -0.02101176 0.016410476 0.036605395
-0.046822544 0.067032404 0.028277133 -0.020769194 0.019324373 0.007834115 0.0069251205 -0.03382231
-0.019792216 -0.107839815 -0.011806485 0.080368586 -0.06257941 0.0011525298 0.035609957 -0.046593346
-0.003930317 0.018841473 0.005352526 -0.00044024715 0.012121443 0.026413618 -0.028253097 0.088225506
-0.0062314454 -0.04868424 -0.086843014 -0.024115505 0.020308604 0.02649308 0.010354442 -0.104086995
-0.0066049946 0.0053645344 -0.06772325 0.0057427264 0.092408225 -0.00029002802 0.041634 -0.08487568
-0.013791876 0.012695695 0.0032034498 0.06801502 0.018927524 0.059719916 -0.068287626 0.01636263
0.00692036 0.013827071 0.06598103 0.0068247295 0.016925944 0.004889993 0.006599799 -0.021125767
-0.07197158 -0.025073882 -0.049818236 0.03196968 0.019106388 0.04042143 0.0032574348 -0.010057803
0.011773683 0.013679977 0.082044356 0.04902981 -0.017524708 -0.0038496861 0.043778185 -0.0018097095
-0.062237203 -0.008706539 -0.009852309 -0.0030846957 0.10498295 -0.012015626 -0.01740059 0.01658922
0.054027803 -0.029710218 -0.031722672 0.0029635052 -0.02141242 -0.02230729 -0.089816466 0.07797587
-0.0063257674 -0.008471134 0.02734245 -0.036993936 -0.014912248 -0.054511804 0.024227424 -0.0057578813
0.022548797 -0.01070635 -0.008900888 0.016387485 0.05540926 0.0048488043 0.039530583 -0.010026991
0.00030121146 0.048876412 -0.02577696 0.031063698 -0.0011167967 -0.05377855 0.03377954 0.023275236
0.0039616553 0.062197585 0.022854911 0.050852228 -0.053504985 0.0055995313 -0.028395535 -0.0391831
0.007275123 -0.0004982699 0.010820581 -0.07041256 0.014230058 -0.024967771 -0.026268926 0.012492343
-0.031686235 -0.016487792 -0.009338444 0.015441451 -0.13431685 0.040173307 0.0068136496 -0.047247514
0.008017157 -0.0011049949 -0.010922639 -0.02004604 0.02302769 0.010132247 -0.010890986 -0.06120947
-0.020247186 0.006289048 0.0012420657 -0.032864604 -0.030127585 0.015015278 -0.017685078 -0.09261466
0.0019062931 -0.073175676 -0.021586126 -0.004696062 0.026301695 -0.02738708 -0.0019176877 -0.042818483
-0.0029108766 0.018273542 0.023128394 -0.008414937 0.021191392 0.004543077 0.07024432 -0.06815492
0.020890223 -0.004105528 0.0751971 0.0033838921 -0.011769367 0.052448 -0.09043593 -0.002965521
-0.011257336 -0.00948757 0.020726435 0.00940504 0.012300922 0.021149507 -0.0012651661 -0.0336866
-0.028705733 0.007860077 0.024920076 -0.0021268546 -0.000119251534 0.07351918 0.0068535306 -0.00030198589
0.06758736 -0.0047033452 0.013326012 0.048165806 -0.01775833 0.017599514 -0.05705691 0.0011266726
-0.046831496 -0.005080968 0.041567247 -0.021634031 0.025235413 0.05309092 0.003863974 0.0026454835
0.023621408 -0.06419454 0.018024333 0.009465214 0.007257888 -0.005447444 0.0077720433 0.000456463

action_model._continuous_distribution.mu.bias f4 [3]
00000000: d0ff fe3c 3dcc 873c 2839 e1bc
0.03112784 0.01657688 -0.027493075
