results/Test25/checkpoint.pt (torch, 442914 bytes, 36 tensors)

network_body._body_endoder.seq_layers.0.weight f4 [128, 6]
0	0x3e48b293	0.1959937
1	0xbee677bd	-0.45013228
2	0x3e6f88d9	0.23392047
3	0x3de80517	0.11329096
4	0x3ee1d3a7	0.4410679
5	0x3ca699d1	0.020337017
6	0xbebb0352	-0.3652597
7	0x3e8b1e7b	0.27171692
8	0x3e890d4d	0.2676796
9	0x3e40679b	0.18789522
10	0xbf220827	-0.6329369
11	0x3d9e83c6	0.077399775
12	0xbf45998d	-0.77187425
13	0x3e62b7e8	0.22140467
14	0x3e4973ae	0.19673035
15	0xbf0b2839	-0.5435825
16	0xbf094f8b	-0.53637
17	0x3f164e77	0.5871348
18	0xbea3a46e	-0.31961387
19	0xbd839ee8	-0.06426793
20	0x3e4d1606	0.20027933
21	0x3e82bf87	0.2553675
22	0x3ebf89df	0.37409875
23	0x3ef7236b	0.4826921
24	0xbe9a002f	-0.30078265
25	0xbe5f26b7	-0.21792112
26	0x3e2e5746	0.1702548
27	0x3ebd5eff	0.3698654
28	0x3e1ca523	0.1529737
29	0xbeb2b5e3	-0.34904394
30	0x3e10bfec	0.14135712
31	0x3f4815a9	0.7815805
32	0x3f4bc1ff	0.7959289
33	0xbe91383d	-0.2836322
34	0x3ece4f96	0.40295094
35	0x3e88ec9d	0.26743022
36	0x3c402ef1	0.011729942
37	0xbf61e7f5	-0.88244563
38	0xbedae980	-0.4275627
39	0x3e988dc5	0.29795662
40	0x3f35f800	0.7108154
41	0xbeeb1362	-0.45913225
42	0x3eac2e4e	0.33629078
43	0x3e44a0da	0.19201985
44	0xbf2fda60	-0.6869259
45	0xbecb1258	-0.39662433
46	0x3e10383c	0.14083952
47	0x3eab64c1	0.33475307
48	0xbe2b7553	-0.16743974
49	0xbecb6716	-0.39727086
50	0xbebfcfb8	-0.37463164
51	0x3ef022fc	0.4690169
52	0xbf316187	-0.6928944
53	0x3f9ceae2	1.225918
54	0x3d97379b	0.07383653
55	0x3ec031bf	0.37537953
56	0x3e5bf0bd	0.21478553
57	0xbe7462f0	-0.23865867
58	0xbe59828b	-0.21241204
59	0x3f08c423	0.5342428
60	0xbc9ad988	-0.018902555
61	0x3d201359	0.03908095
62	0x3f98056f	1.1876658
63	0x3f133627	0.57504505
64	0x3cf2b813	0.029628789
65	0x3cb03d09	0.021513479
66	0xbe8826f1	-0.2659221
67	0xbe1495d9	-0.14510287
68	0x3e3abe97	0.18236767
69	0x3ef1bf77	0.4721639
70	0x3e9f871f	0.31157777
71	0xbc244242	-0.010025563
72	0x3ed2575b	0.41082272
73	0xbf24813c	-0.64259696
74	0xbf47062f	-0.7774381
75	0x3ee0f312	0.43935448
76	0xbf81718b	-1.0112776
77	0x3e303830	0.17208934
78	0xbeca52a9	-0.3951619
79	0x3f38a786	0.7213062
80	0x3ea7419c	0.32667243
81	0x3ef093e2	0.46987826
82	0x3e223a3a	0.15842524
83	0x3ee73c04	0.45162976
84	0xbf287365	-0.6580108
85	0x3f20e0c1	0.6284295
86	0xbeac5dab	-0.33665213
87	0xbf1753e6	-0.59112394
88	0x3f32f164	0.6989958
89	0x3eed77df	0.46380517
90	0x3e790fea	0.24322477
91	0xbe2faeb6	-0.1715649
92	0xbeb94863	-0.3618804
93	0x3eb1ff37	0.34765026
94	0xbe2e4a68	-0.17020571
95	0xbf3363b3	-0.70074004
96	0xbe9f2332	-0.3108154
97	0xbe9435b1	-0.28947213
98	0xbf240714	-0.640733
99	0xbe9a7fb9	-0.3017557
100	0xbebdeaa8	-0.3709309
101	0x3e87f1e7	0.26551744
102	0xbec49525	-0.38395038
103	0x3da64eee	0.081205234
104	0x3e64a233	0.22327499
105	0xbea3842e	-0.31936783
106	0xbddde4ac	-0.10834631
107	0x3f733357	0.95000213
108	0x3de204ef	0.11036097
109	0x3e0732b3	0.13202934
110	0x3ec4c0db	0.38428387
111	0xbf1ebd6e	-0.62007797
112	0xbc7aa147	-0.015297241
113	0xbf55b6db	-0.8348214
114	0x3eba504e	0.36389393
115	0xbdf85fca	-0.12127645
116	0xbea3cb25	-0.31990924
117	0x3cf48115	0.029846707
118	0x3e523a22	0.20529988
119	0xbe92ae5c	-0.2864865
120	0xbf40cad8	-0.75309515
121	0x3da1361a	0.07871647
122	0xbf25779d	-0.6463564
123	0x3e82fba1	0.25582603
124	0xbd421c80	-0.04739046
125	0x3ead6ef6	0.3387372
126	0x3ce470ec	0.027885877
127	0xbd9a244e	-0.07526456
128	0xbd3459c1	-0.04403091
129	0xbd86fdcf	-0.06591379
130	0xbf3fcaa4	-0.7491858
131	0xbf372ee0	-0.715559
132	0xbe0d17c5	-0.13778599
133	0x3e996784	0.2996179
134	0x3f1d0657	0.613378
135	0xbf0c18f7	-0.54725593
136	0xbf346283	-0.70462817
137	0xbe42d854	-0.19027835
138	0x3f353f62	0.7079984
139	0x3e47903e	0.19488618
140	0x3eab24b2	0.33426434
141	0x3e23aede	0.15984675
142	0x3e972c9c	0.29526222
143	0xbd69d960	-0.05709207
144	0x3d1cd4af	0.03828877
145	0xbea5e155	-0.32398477
146	0x3e71f88d	0.23629971
147	0xbe6b6e35	-0.2299126
148	0xbf6460bc	-0.89210105
149	0x3c46b944	0.012129132
150	0x3ee67f03	0.45018777
151	0x3f8ee225	1.1162764
152	0x3f4f279c	0.80919814
153	0x3ea0fd60	0.3144331
154	0x3e257695	0.16158517
155	0xbe4cc2a2	-0.19996122
156	0x3b4b15bc	0.0030988296
157	0xbf616d26	-0.8805717
158	0xbeef17ff	-0.46697995
159	0xbe51539f	-0.20442055
160	0x3dbed663	0.09318235
161	0xbec87db6	-0.3915841
162	0x3d3c5db2	0.045987792
163	0xbe8e85e0	-0.27836514
164	0xbdc1da1a	-0.09465428
165	0xbe2ef2b1	-0.17084767
166	0xbd2d9406	-0.042377494
167	0x3e445b7a	0.1917552
168	0xbe9558c2	-0.2916928
169	0xbecffbce	-0.406218
170	0xbf359d2b	-0.70942944
171	0xbe91f95a	-0.28510553
172	0xbf3fede5	-0.74972373
173	0xbd4062ba	-0.046969153
174	0xbe482972	-0.1954706
175	0x39eb5f64	0.00044893764
176	0x3d72f403	0.05931474
177	0x3edf324b	0.43593058
178	0xbe956a82	-0.29182822
179	0x3f3c28fd	0.73500043
180	0xbeebe8a5	-0.4607593
181	0x3d0ab146	0.033860467
182	0x3f11a080	0.5688553
183	0xbf063325	-0.5242179
184	0xbeb0afdf	-0.3450918
185	0x3f430706	0.7618259
186	0x3ef90416	0.4863593
187	0xbdb6f341	-0.08933116
188	0xbd7eb0c1	-0.062180284
189	0xbe59847c	-0.21241945
190	0xbf0b832e	-0.5449704
191	0xbe0b9903	-0.13632588
192	0x3e9b612c	0.30347574
193	0xbf0c41c6	-0.5478786
194	0xbea61162	-0.32435137
195	0x3e83c4ca	0.25736076
196	0x3e32c29a	0.17457047
197	0xbdaede63	-0.08538511
198	0xbe810cbf	-0.25205037
199	0xbe301b30	-0.17197871
200	0xbe841846	-0.2579977
201	0xbe2eb872	-0.17062548
202	0xbebd82a0	-0.3701372
203	0x3e31280c	0.17300433
204	0x3e1bd42a	0.15217653
205	0xbe771b1e	-0.24131438
206	0xbe050050	-0.129884
207	0xbf216137	-0.63038963
208	0x3f412eed	0.7546223
209	0x3f163956	0.5868124
210	0x3dd06ec5	0.101773776
211	0x3e29c3a4	0.16578537
212	0x3eadb1d7	0.33924744
213	0x3e60802a	0.2192389
214	0x3e162bb5	0.1466511
215	0x3d09f94d	0.033685017
216	0xbb3853d5	-0.002812614
217	0x3e83fb76	0.25777787
218	0x3e6fa7b7	0.23403822
219	0x3dfe817b	0.1242704
220	0x3ecb52a4	0.39711487
221	0x3c98c100	0.018646717
222	0xbd1c1c66	-0.03811302
223	0xbe81714a	-0.25281745
224	0x3eab789f	0.33490464
225	0x3ec48dd6	0.38389462
226	0x3dcfe303	0.10150721
227	0xbe90bd1d	-0.28269282
228	0xbe4206f3	-0.18947963
229	0x3d909ab3	0.070607565
230	0xbd4f701a	-0.050644018
231	0x3ee69ea2	0.45042902
232	0x3e2a5321	0.16633274
233	0x3ef29ce1	0.47385314
234	0x3e343c17	0.17601047
235	0x3ef0d69e	0.4703874
236	0xbeb40ef1	-0.3516765
237	0x3f6ec5a3	0.9327032
238	0xbf0597af	-0.52184576
239	0xbcb627c9	-0.022235768
240	0xbdb0acb8	-0.086266935
241	0xbf05c343	-0.5225107
242	0x3e8296ba	0.2550562
243	0x3f0dccdf	0.55390733
244	0x3d494179	0.049134705
245	0x3f23a1fb	0.6391904
246	0xbe8dc936	-0.27692574
247	0xbd24cf3e	-0.040236704
248	0x3e5a4d1b	0.21318476
249	0x3cb1e0ad	0.02171358
250	0xbd10929a	-0.03529606
251	0xbea4b7ba	-0.32171422
252	0xbe6fe7ab	-0.23428218
253	0x3d7ab049	0.061203275
254	0xbf0f1d0e	-0.5590371
255	0xbdb7a6f0	-0.08967388

network_body._body_endoder.seq_layers.0.bias f4 [128]
0	0xb962ec36	-0.00021641035
1	0xb9c09774	-0.00036733935
2	0xbb2646c2	-0.0025371765
3	0xb830569c	-4.204233e-05
4	0xba411ee8	-0.0007366971
5	0xba857428	-0.0010181712
6	0xbaa8d5f4	-0.0012881146
7	0xbad1a3e2	-0.0015994275
8	0xbab2c128	-0.0013637887
9	0xba4946c0	-0.0007678084
10	0x3ab4b39d	0.0013786439
11	0xb9514cf9	-0.00019960468
12	0xb9d77be0	-0.0004110029
13	0xbac99aaa	-0.0015381176
14	0xb9a4dba4	-0.00031444163
15	0xba0268a6	-0.00049747
16	0x3ad5f73d	0.0016324293
17	0xbb481bd5	-0.0030534167
18	0x3911f193	0.00013918271
19	0xba43c34e	-0.00074677623
20	0xb964a9ea	-0.00021807072
21	0xba4fbd67	-0.00079246465
22	0xb9c0ddc6	-0.00036786328
23	0xba3984b4	-0.0007076964
24	0x3b04bb86	0.0020253374
25	0xba3509ae	-0.00069060444
26	0x393e2797	0.0001813456
27	0x3a456cea	0.0007531183
28	0xbb6cd2ac	-0.0036136312
29	0x38048c6f	3.160204e-05
30	0xb988f965	-0.00026125755
31	0xba8ce559	-0.0010749503
32	0x3985f8ea	0.00025553192
33	0xbb3324e8	-0.002733523
34	0xbaf2fece	-0.0018539072
35	0xb8b97b2a	-8.8444285e-05
36	0x3a39739f	0.0007074419
37	0xba61d06b	-0.00086141255
38	0x3a951838	0.0011375016
39	0xba0d227c	-0.0005383862
40	0x39f2753d	0.00046245186
41	0x3b197de6	0.0023420989
42	0x3998958e	0.00029103126
43	0xbb018697	-0.001976406
44	0x3aab5c2d	0.0013073735
45	0x396d7cb2	0.00022648534
46	0xbaa29a4a	-0.0012405601
47	0xba02f4c4	-0.00049955794
48	0xba099996	-0.00052490213
49	0xba4270b5	-0.00074173074
50	0xbab9985b	-0.0014159785
51	0x38e3ec57	0.00010868225
52	0x39829406	0.00024905818
53	0x3aa4f185	0.0012584185
54	0xb967ffa7	-0.00022125115
55	0xbb04304d	-0.002017039
56	0xbaf47c82	-0.0018652829
57	0x3af6b4ea	0.0018822227
58	0xb948289a	-0.00019088612
59	0x3ae8f977	0.0017774542
60	0x399cf1e2	0.00029934855
61	0xba59b4ca	-0.0008304833
62	0x3784feb2	1.5854228e-05
63	0xba66ca3b	-0.00088039384
64	0x3ac1bf32	0.0014781712
65	0xbb31c495	-0.0027125229
66	0xbad410b1	-0.0016179291
67	0x39a146da	0.00030761102
68	0xbb0b39dc	-0.0021244204
69	0xb89f58d0	-7.5982534e-05
70	0xba1463d5	-0.0005660628
71	0xbb010cd8	-0.0019691493
72	0x39b749bd	0.0003495942
73	0xb9a03179	-0.00030554438
74	0x3ad0135b	0.0015874909
75	0xba7373fc	-0.00092869974
76	0x3906963a	0.000128352
77	0xb99eab7d	-0.00030263877
78	0xba8ad57e	-0.001059219
79	0xbb065dcc	-0.0020502685
80	0xbb09d969	-0.0021034128
81	0x3ab43581	0.0013748856
82	0xb9c989ab	-0.00038440278
83	0x39f0921f	0.00045885236
84	0xb9f179b7	-0.00046057787
85	0x3a4ec62a	0.0007887805
86	0xbb55287d	-0.0032525354
87	0xb9c99af9	-0.0003845317
88	0xba616181	-0.0008597598
89	0xb8a1b713	-7.7111785e-05
90	0x3b5766bf	0.0032867638
91	0xbacfbab1	-0.0015848485
92	0xba94e4bd	-0.0011359673
93	0x38cf7759	9.8927594e-05
94	0x3a4e20de	0.0007863174
95	0xb932e0f9	-0.00017059212
96	0xb92607b8	-0.00015833869
97	0xbb165e8f	-0.0022944545
98	0x3905a854	0.00012746576
99	0x3aff9f5c	0.0019502449
100	0xbb4ecc39	-0.0031554832
101	0xb9b85a42	-0.00035162462
102	0x3aa6e287	0.0012732305
103	0x3a7ecb58	0.00097196316
104	0x3aac2bba	0.001313559
105	0xb9a803fb	-0.00032046423
106	0xba30eda7	-0.000674928
107	0xba066a9e	-0.00051275815
108	0xb9bc0c58	-0.0003586735
109	0x3af740d7	0.0018863928
110	0x392967b9	0.00016155736
111	0xba2d8c3a	-0.00066203217
112	0xb9846488	-0.00025251904
113	0x3944df60	0.0001877523
114	0x3857497d	5.1328436e-05
115	0xbb1b4028	-0.0023689363
116	0xba360034	-0.00069427793
117	0x3a16f2d1	0.00057582284
118	0x3b2c796a	0.0026317486
119	0xbaf44d5a	-0.0018638775
120	0xb9a46095	-0.00031352477
121	0x39dd3a6e	0.00042195938
122	0x393e6612	0.00018157836
123	0xbad71c2d	-0.0016411595
124	0xb8a8b8d3	-8.0452905e-05
125	0x3a52af56	0.00080369913
126	0x3a994a58	0.001169513
127	0xbafd858f	-0.0019342172

network_body._body_endoder.seq_layers.2.weight f4 [128, 128]
0	0x3d6f8a50	0.058481514
1	0xbb84eff6	-0.004056926
2	0x3e120d49	0.1426288
3	0xbdd98d93	-0.10622706
4	0x3d988199	0.07446594
5	0x3d8a97ea	0.067672566
6	0xbe0d180b	-0.13778703
7	0x3cc7bc96	0.024381917
8	0xbcd48801	-0.025943758
9	0x3dc8d4d4	0.09806219
10	0xbe00000e	-0.12500021
11	0x3debb499	0.11509056
12	0xbd0a58f3	-0.033776235
13	0xbce71836	-0.028209787
14	0x3e00e2b8	0.12586486
15	0x3e09e91f	0.13467835
16	0xbe27acbc	-0.16374487
17	0xbd84639f	-0.06464314
18	0xbdf5fa04	-0.12010577
19	0xbd391958	-0.045190185
20	0xbe081e43	-0.13292794
21	0x3c7b13f0	0.015324578
22	0x3cff7715	0.031184712
23	0x3d4239d8	0.047418445
24	0xbd9761fa	-0.073917344
25	0xbcb190cf	-0.021675495
26	0x3d917f37	0.071043424
27	0xbde32401	-0.110908516
28	0xbc626903	-0.013818982
29	0xbe17f3c8	-0.14839089
30	0xbdaaf90d	-0.08348284
31	0xbcac9bad	-0.021070326
32	0xbb519436	-0.003197921
33	0x3cf5516f	0.029946057
34	0x3d419e2d	0.04726999
35	0x3d98194b	0.07426699
36	0xbc10e423	-0.0088434545
37	0xbe0cab64	-0.13737255
38	0xbdb9ea0a	-0.090778425
39	0xbe1421c8	-0.14466012
40	0xbe213edc	-0.15746635
41	0x3e604769	0.21902241
42	0xbdd8a941	-0.105791576
43	0x3c38a1cb	0.011269043
44	0xbc4c19c6	-0.012457317
45	0xbbf6a9f5	-0.0075275847
46	0x3e058128	0.1303755
47	0xbe087895	-0.13327248
48	0x3b857c3a	0.004073647
49	0xbd87773b	-0.06614538
50	0xbca74a45	-0.020421157
51	0x3d8e00c1	0.069337375
52	0xbda6e9bb	-0.08150049
53	0xbd793ab1	-0.060846988
54	0x3b4881ab	0.0030594866
55	0xbda30f27	-0.079618745
56	0xbe3a3c6e	-0.18187115
57	0xbd18546a	-0.03718988
58	0x3b5b1c0c	0.0033433465
59	0xbcb9ad76	-0.02266572
60	0xbda463c1	-0.08026839
61	0xbc7bf0e7	-0.01537726
62	0xbbfa2459	-0.0076337275
63	0xbde4dd17	-0.11174982
64	0x3d854374	0.06507006
65	0xbce7e5c2	-0.0283078
66	0xbe01f5d3	-0.12691431
67	0x3de80d31	0.11330641
68	0x3cf5d8eb	0.030010661
69	0xbe662a60	-0.22477102
70	0xbe337a90	-0.17527223
71	0xbc615564	-0.013753269
72	0xbd0c6652	-0.034277268
73	0xbd848b9b	-0.0647194
74	0x3ba1127d	0.004915534
75	0xbd00f241	-0.03148103
76	0xbd80b8ae	-0.06285225
77	0xbe1d5fe7	-0.15368615
78	0x3dc99cd3	0.09844365
79	0x3d4fc706	0.050726913
80	0xbd003984	-0.03130485
81	0xbe36caed	-0.17850848
82	0x3d070a2a	0.032968678
83	0xbd1dd586	-0.03853371
84	0x3d17d20b	0.037065547
85	0xbc21c68c	-0.009873997
86	0xbda52088	-0.080628455
87	0xbddf5269	-0.1090439
88	0xbd3b6b30	-0.04575652
89	0xbd591077	-0.052994218
90	0x3d58d1e5	0.052934546
91	0xbd00839b	-0.03137551
92	0x3dd96e1b	0.10616704
93	0xbdaf2845	-0.08552603
94	0xbd61b8f9	-0.055108044
95	0xbd87b975	-0.0662717
96	0x3d5c726b	0.053820055
97	0xbbd99ae5	-0.0066407793
98	0x3c849831	0.016185852
99	0xbe1df765	-0.15426405
100	0xbc83b3a5	-0.016076872
101	0x3d581d89	0.052762542
102	0x3da63fa4	0.08117607
103	0xbdf61072	-0.120148554
104	0x3d558ea7	0.052137997
105	0xbe01f1ef	-0.12689947
106	0x3c72c8b2	0.014818357
107	0xbd5fb6ba	-0.05461762
108	0xbd3677b0	-0.044547737
109	0x3dea8818	0.11451739
110	0xbcef330a	-0.029199142
111	0xbd784430	-0.060611904
112	0x3d1806da	0.03711591
113	0xbcc33edb	-0.023833683
114	0x3e34385d	0.17599626
115	0x3e20463a	0.1565179
116	0xbdd860f0	-0.10565364
117	0x3cec8eb9	0.02887665
118	0x3cdd7bc7	0.02703656
119	0x3d828bad	0.06374297
120	0x3d28cc9d	0.04121076
121	0x3e0a20d9	0.13489093
122	0x3d01c94d	0.031686116
123	0xbc1dec43	-0.009638849
124	0x3c817485	0.015802631
125	0x3d96f7c2	0.07371475
126	0xbd71655c	-0.058934554
127	0x3e185edb	0.14879934
128	0x3c3e0a46	0.011599129
129	0x3de5c5ed	0.11219392
130	0x3d34a120	0.044098973
131	0x3d85049a	0.06495018
132	0xbd2c4247	-0.042055395
133	0xbe0e67e5	-0.1390682
134	0xbd8dcdf1	-0.06924046
135	0x3b1c38fb	0.0023837674
136	0xbe456ef3	-0.19280605
137	0xbe45bd1f	-0.19310425
138	0xbe22dc96	-0.1590446
139	0x3de1e519	0.11030025
140	0xbe0bed16	-0.1366466
141	0xbcefb1d8	-0.029259607
142	0x3d2d5ebd	0.042326678
143	0x3d6510df	0.055924293
144	0x3e7329ce	0.23746416
145	0xbdce2b69	-0.100668736
146	0x3da28b18	0.07936686
147	0xbd813b24	-0.06310108
148	0xbc7d1ed9	-0.015449249
149	0xbd897361	-0.0671146
150	0xbca11f28	-0.019668177
151	0xbdb12c4a	-0.086510256
152	0x3e0b1e56	0.13585791
153	0xbe333a63	-0.17502742
154	0xbd7224b8	-0.05911705
155	0xbddb8833	-0.10719337
156	0x3dff8fb0	0.12478578
157	0x3c100b4d	0.008791757
158	0xbbfe04ec	-0.0077520516
159	0x3e798754	0.2436803
160	0x3d6ca655	0.057775814
161	0xbb7133e6	-0.0036804616
162	0xbe0c3ae0	-0.13694334
163	0xbd0c913c	-0.034318194
164	0xbdbcb518	-0.092142284
165	0x3d2579a4	0.04039921
166	0x3d746d02	0.05967427
167	0xbdfa3503	-0.122171424
168	0x3d7db365	0.061938662
169	0xbe3087d0	-0.17239308
170	0x3e02de47	0.12780105
171	0x3d949e3a	0.07256742
172	0xbd5c7dd8	-0.05383095
173	0x3d4163a1	0.047214154
174	0x3d5895ea	0.052877344
175	0xbd68a5ec	-0.05679886
176	0x3d324182	0.043519504
177	0xbbfab231	-0.0076506366
178	0x3c16dce1	0.009207935
179	0x3dbba48f	0.091622464
180	0x3c10ac77	0.008830181
181	0x3d0ac7c1	0.033881906
182	0x3d92c0c2	0.07165672
183	0x3e7d8746	0.24758634
184	0x3d59b823	0.053154122
185	0x3d6ffda7	0.05859151
186	0xbdaba289	-0.083806105
187	0xbd8306ee	-0.06397806
188	0xbcd1d96a	-0.025616366
189	0x3dc7a346	0.09747939
190	0x3ca8d41e	0.020608958
191	0xbd46bb2c	-0.048518345
192	0x3d850e80	0.06496906
193	0x3dac105e	0.08401559
194	0xbe120566	-0.14259872
195	0xbc9c27ee	-0.019062009
196	0x3c8c71c6	0.017144095
197	0x3ba2eed2	0.0049723173
198	0xbe4384c6	-0.19093618
199	0xbcaeff00	-0.021361828
200	0x3d338448	0.043827325
201	0xbb3e5dcc	-0.0029047607
202	0xbc9b8dff	-0.018988607
203	0xbe0abdd2	-0.13548973
204	0xbd1d9c67	-0.038479235
205	0xbe074c28	-0.13212645
206	0xbd70fcc2	-0.0588348
207	0x3da6380f	0.08116161
208	0xbdd13725	-0.10215596
209	0xbd3a9910	-0.045556128
210	0xbd82d3ef	-0.063880794
211	0x38f44364	0.00011647379
212	0x3c6dc66d	0.01451264
213	0xbdb95a80	-0.09050465
214	0xbd1b1cf1	-0.037869398
215	0x3db25ee0	0.08709502
216	0x3dc4dda3	0.09612586
217	0x3e0ed604	0.13948828
218	0xbce2ac8c	-0.027670167
219	0xbdf3bdce	-0.11901437
220	0xbdb66a4b	-0.089069925
221	0x3ded6d5d	0.11593125
222	0xbdf13fc6	-0.11779742
223	0x3e184f90	0.148741
224	0x3dd3eff1	0.103484996
225	0x3d9b1b68	0.07573587
226	0x3e04f0b0	0.1298244
227	0x3cf8ef4d	0.030387545
228	0xbc8b00ec	-0.016968213
229	0xbc364811	-0.01112558
230	0xbd844b1c	-0.064596385
231	0xbd3d0307	-0.046145465
232	0xbd9fa389	-0.07794864
233	0x3d7fcb35	0.062449653
234	0x3c1361c0	0.008995473
235	0xbdc96081	-0.0983286
236	0x3d6a01c1	0.05713058
237	0xbd711f7b	-0.058867913
238	0xbd8948d8	-0.06703347
239	0xbd6315ed	-0.055440832
240	0x3bd014ef	0.0063501517
241	0xbd980a90	-0.0742389
242	0xbe8e1fb7	-0.27758572
243	0xbcc36ee4	-0.023856588
244	0x3d3d0574	0.04614778
245	0x3db3c94b	0.08778628
246	0xbd6b730e	-0.05748277
247	0x3d06a232	0.032869525
248	0x3dd28c46	0.10280661
249	0xbdc6c661	-0.097058065
250	0xbe0597ae	-0.13046142
251	0xbe1b4a3c	-0.15165037
252	0xbda07ebd	-0.078366734
253	0x3cce78fc	0.025204174
254	0xbd98d120	-0.074617624
255	0x3c591bdb	0.01325127

network_body._body_endoder.seq_layers.2.bias f4 [128]
0	0xbb198c47	-0.002342956
1	0xba9315d2	-0.0011221713
2	0x3831795b	4.231311e-05
3	0x3b1ca9bc	0.002390488
4	0x3aa0d616	0.0012270834
5	0xba0c84fe	-0.00053603936
6	0x3b010e27	0.0019692273
7	0xbad3346d	-0.0016113647
8	0x3b13f788	0.002257796
9	0xba41db48	-0.0007395041
10	0xbad35c65	-0.0016125558
11	0xba547c54	-0.00081056845
12	0x3afabca9	0.0019129711
13	0xba92c41f	-0.0011197365
14	0x3af920a7	0.0019006924
15	0xba18c2c8	-0.00058273645
16	0xb9dc5277	-0.0004202311
17	0xb9dd1445	-0.00042167507
18	0x395d1d8a	0.00021087207
19	0xb99e5f4f	-0.0003020712
20	0xb9e87f64	-0.00044345402
21	0xb9a9e101	-0.00032401833
22	0xbaea926d	-0.0017896421
23	0xbb22ec11	-0.0024859945
24	0x3a7fee36	0.0009762974
25	0x3b0998a9	0.0020995534
26	0xb9a05d18	-0.00030586938
27	0xbb04fd35	-0.0020292525
28	0xbad95252	-0.001658032
29	0xb99ddd6e	-0.00030110352
30	0x3894e874	7.100488e-05
31	0x3a594e1c	0.0008289532
32	0x3b168f7a	0.0022973702
33	0xbad6d909	-0.0016391586
34	0x3a7587c0	0.00093662366
35	0x39878fa8	0.0002585624
36	0x3ab53871	0.0013826025
37	0xba6ad089	-0.0008957466
38	0x3b23b830	0.002498161
39	0xba059a63	-0.0005096553
40	0xb9072197	-0.00012887116
41	0x39de49d2	0.0004239814
42	0x398961c2	0.00026203512
43	0xba9fa09f	-0.0012178606
44	0xb9ee990c	-0.00045508926
45	0xbab28778	-0.0013620695
46	0x38194908	3.654606e-05
47	0xb955e6e7	-0.00020399281
48	0x39b7646d	0.00034979303
49	0xba5423e5	-0.0008092507
50	0x397480a3	0.00023317574
51	0x39c859e7	0.00038213955
52	0x3a58679d	0.00082551857
53	0xb91211a7	-0.00013930221
54	0xbb06e206	-0.0020581498
55	0xbaf26d9d	-0.0018495802
56	0x3916b6a3	0.00014373152
57	0xb97a8bd3	-0.00023893946
58	0xbb22966b	-0.0024808894
59	0xba6209b9	-0.00086226646
60	0xb7e34cf5	-2.7096345e-05
61	0xb9d27c27	-0.00040146822
62	0xb818b539	-3.64084e-05
63	0xb9dc7d20	-0.00042054895
64	0x3a4897af	0.0007651997
65	0x3acab6a7	0.0015465812
66	0xb9010ec9	-0.00012307907
67	0xb9d22ede	-0.0004008924
68	0xba6baa63	-0.0008989928
69	0xbb171723	-0.0023054562
70	0x3a9b4e95	0.0011848981
71	0xba08f210	-0.00052240584
72	0x39f53f6b	0.00046777292
73	0x3927ca71	0.00016001776
74	0xbb18edbc	-0.002333506
75	0x3a66978f	0.00087963877
76	0x3b046dc1	0.002020702
77	0xbadbe1ab	-0.0016775628
78	0x3a31ca76	0.0006782183
79	0x3aead2ef	0.0017915646
80	0xb7f33355	-2.899176e-05
81	0xb9a76a7d	-0.00031932062
82	0x3a57af09	0.00082276814
83	0xbafb518b	-0.0019174082
84	0x3ac8271b	0.0015270443
85	0xba1ece7f	-0.0006057992
86	0x3a8c8758	0.0010721488
87	0xb92239a3	-0.00015470995
88	0x3ad8179f	0.0016486532
89	0x3ab909c8	0.0014117295
90	0xba18919b	-0.0005820037
91	0xba6e62a2	-0.0009093677
92	0x3a02d2bb	0.0004990508
93	0xba58e384	-0.00082736486
94	0xb8e1c274	-0.00010765056
95	0x3ab8c0b4	0.0014095516
96	0x3a76f9df	0.0009421389
97	0x394458d0	0.00018725102
98	0xba173165	-0.0005767553
99	0x39278799	0.00015976875
100	0x3a33a618	0.0006853058
101	0x3a4c04b6	0.00077826844
102	0x3ab94a98	0.001413661
103	0x399dfd9b	0.00030134324
104	0x3a4a1346	0.00077085604
105	0xbb215edf	-0.0024623198
106	0xba19604f	-0.0005850838
107	0x3a5db2fe	0.0008457153
108	0xb9a476bd	-0.00031368984
109	0xbae05b0c	-0.0017116978
110	0xb8b7552e	-8.741986e-05
111	0xb933f578	-0.00017162214
112	0xbb0a597c	-0.0021110466
113	0xbabc74f2	-0.0014378114
114	0xba5738e8	-0.0008210079
115	0x3b872bec	0.004125109
116	0xb9faeed6	-0.00047861662
117	0x3b0808bc	0.002075716
118	0x3aa4b695	0.0012566621
119	0xba8ad7fa	-0.001059293
120	0xbad7093d	-0.0016405951
121	0x3a1dbbb5	0.0006017045
122	0xbaa7de7d	-0.0012807396
123	0x3a158ec1	0.0005705171
124	0xb98d9497	-0.00027004324
125	0x3891b905	6.9486014e-05
126	0x3aa8c650	0.0012876485
127	0xb9a615b6	-0.00031678163

action_model._continuous_distribution.log_sigma f4 [1, 3]
0	0xbb84c55e	-0.0040518483
1	0xba8e03e8	-0.0010834904
2	0xbb157bb6	-0.0022809333

action_model._continuous_distribution.mu.weight f4 [3, 128]
0	0x3bb75033	0.0055942773
1	0x3b9f5f30	0.004863642
2	0x3c130247	0.008972711
3	0xbbe39ffb	-0.0069465614
4	0xbc8e2d07	-0.017355455
5	0x3bc42532	0.0059858793
6	0xbcaedd56	-0.021345776
7	0x3ccb57de	0.024822172
8	0x3c51ae07	0.012797839
9	0xbba2b966	-0.004965949
10	0xbca582c7	-0.020203961
11	0x3cb58c79	0.02216171
12	0xbc9adb0d	-0.01890328
13	0x3b914b51	0.0044340272
14	0xbc7d04be	-0.015443025
15	0x3bea20e0	0.0071450323
16	0x3c81ad6e	0.015829768
17	0xbcd3f0e5	-0.025871703
18	0x3c1ae718	0.009454511
19	0xbc1ba1e3	-0.009499046
20	0x3cc8ca99	0.024510669
21	0x3b7fc887	0.0039029436
22	0x3c887f1a	0.01666217
23	0x3cd0b34e	0.025476124
24	0xbc058848	-0.008150168
25	0xbce67de2	-0.028136197
26	0x3d00f589	0.03148416
27	0x3aeb2a2d	0.0017941647
28	0x3a0828f6	0.0005194092
29	0x3b3ab0d0	0.0028486736
30	0x3c3d7939	0.011564546
31	0xbd05ef3b	-0.03269885
32	0xbc40f95a	-0.0117782
33	0x3b75d587	0.0037511305
34	0xbbf0da16	-0.0073502166
35	0xbd37d167	-0.044877436
36	0xbc4d771b	-0.012540604
37	0x39dbe356	0.00041940314
38	0xbc147044	-0.009059969
39	0x3bdae5c3	0.0066802218
40	0x3b949af9	0.0045350757
41	0x3cc04805	0.023471842
42	0x3c2c4d96	0.010516545
43	0x3c4f73c7	0.012661881
44	0x3b87ff11	0.0041502793
45	0x3d3eb816	0.046562277
46	0xbca7544d	-0.02042594
47	0x3d0172ca	0.031603612
48	0x3c898533	0.016787147
49	0xbcbf20f8	-0.02333115
50	0xbc3ccd3e	-0.011523543
51	0xbcd3e447	-0.025865687
52	0xbbdfc330	-0.006828688
53	0x3c6a139b	0.014286901
54	0xbc88b219	-0.016686486
55	0x3c230e09	0.009952077
56	0xbc1ae24a	-0.009453366
57	0xbcc3d275	-0.023904065
58	0x3ca6c720	0.020358622
59	0x3c1e8b60	0.009676784
60	0xbc39af46	-0.011333292
61	0x3aa78ac9	0.001278245
62	0x3c216ce9	0.009852626
63	0xbc4b81b0	-0.012421057
64	0x3b8a4e5d	0.0042207674
65	0xbd3499d3	-0.04409201
66	0xbcbd827d	-0.02313351
67	0xbc1f3767	-0.009717799
68	0x3af29679	0.0018507979
69	0x3cb03459	0.021509336
70	0xbbe8b342	-0.0071014473
71	0x3be4463b	0.00696638
72	0xbcb5d5e3	-0.022196716
73	0x3b8de10b	0.0043298057
74	0x3cafd3d7	0.021463318
75	0xbc967765	-0.018367479
76	0xbc236db4	-0.009974886
77	0x3c652d5a	0.013987863
78	0xbc35e74c	-0.011102509
79	0xbce71e35	-0.028212646
80	0x3b72d07f	0.0037050543
81	0xbc3033b8	-0.010754518
82	0xbcb69000	-0.022285461
83	0x3a350259	0.0006904952
84	0xbba0ac34	-0.0049033407
85	0xbc29d098	-0.010364674
86	0xbcb2e251	-0.021836432
87	0xbba93539	-0.0051638153
88	0xbbc999f9	-0.006152388
89	0xbc84c312	-0.016206298
90	0xbc2e0c0c	-0.010622989
91	0x3c35fdca	0.011107871
92	0x3bfdcaa3	0.0077451034
93	0x397881ba	0.0002369945
94	0x3b4798a1	0.0030455964
95	0xbc8c7aec	-0.017148457
96	0xbcc348aa	-0.02383836
97	0xbc20959a	-0.009801293
98	0xba396dbc	-0.00070735416
99	0xbbc439b0	-0.005988322
100	0xba3b54dc	-0.0007146129
101	0x3a7ef8b5	0.0009726391
102	0xbb842884	-0.00403315
103	0xba8240d8	-0.0009937538
104	0xbb531f72	-0.0032214788
105	0x3bedec2c	0.00726082
106	0x3bbb4c2b	0.005715867
107	0xbd176039	-0.036957
108	0xbc2f07da	-0.010683024
109	0x3d1ced23	0.03831209
110	0xbd1f0854	-0.0388263
111	0xbcf8b3be	-0.030359145
112	0x3ceeeef8	0.029166684
113	0x3c4b7dc0	0.012420118
114	0x3bbc19ce	0.005740381
115	0x3c3ac326	0.011399066
116	0xbbc90b89	-0.0061354083
117	0xbca046a5	-0.019564936
118	0x3c16459a	0.009171868
119	0xbaa7dc81	-0.0012806804
120	0x39a7004b	0.0003185294
121	0xbc939b4f	-0.018018393
122	0x3d0d2dee	0.03446763
123	0xbb652dbb	-0.0034969884
124	0x3c2e4c03	0.01063824
125	0x3c3cd868	0.011526205
126	0xbc7c5322	-0.01540068
127	0x3c114216	0.008865854
128	0x3c8bd91d	0.017071301
129	0xbca0f3d1	-0.01964751
130	0xbc7de448	-0.015496321
131	0xbb96fe44	-0.0046079475
132	0xbd0bcd58	-0.034131378
133	0xbc3e04f5	-0.011597862
134	0xbbf9ada0	-0.0076195747
135	0xbc99e507	-0.018785967
136	0xbc114553	-0.008866626
137	0x3cf4d0e9	0.029884772
138	0xbc83a0fe	-0.016067978
139	0xbc99744f	-0.018732218
140	0xbbee8789	-0.0072793406
141	0x3bcba969	0.0062152636
142	0xbbb65c07	-0.0055651697
143	0xbc1958bc	-0.009359535
144	0xbc94c887	-0.018162025
145	0xbc96d653	-0.018412745
146	0xba09de71	-0.00052592816
147	0x3c18752e	0.009305282
148	0xbd3b1327	-0.045672562
149	0xbc6ab1d4	-0.014324624
150	0x3c236f28	0.009975232
151	0x3c815386	0.015786897
152	0x3a224cba	0.0006191243
153	0xbb6d43bb	-0.00362037
154	0xbc281a70	-0.010260209
155	0x3c9c311c	0.019066386
156	0x3d00c65e	0.031439178
157	0x3cab47ea	0.020908315
158	0x3aa53a33	0.0012605846
159	0xbbd877c2	-0.006606073
160	0xbc30cadc	-0.010790553
161	0x3a873159	0.0010314389
162	0xbc57ee69	-0.0131794
163	0x3c5264a4	0.012841377
164	0xbc518964	-0.012789104
165	0x3cc843ed	0.024446452
166	0xbc12f419	-0.00896933
167	0xbc258aba	-0.010103876
168	0xbd1e012c	-0.038575336
169	0xbb9a9ee8	-0.00471865
170	0xbbfac3ec	-0.0076527502
171	0xbc62b3a0	-0.013836771
172	0x3ca7f99d	0.020504767
173	0xbc1e6a6e	-0.0096689295
174	0x3bba91aa	0.005693634
175	0x3c497f60	0.012298435
176	0x3c158faf	0.009128495
177	0x3cf9bc40	0.030485272
178	0x3ba943ad	0.0051655383
179	0x3a64d22a	0.00087288267
180	0xbc2d8570	-0.010590896
181	0xbc6c94ac	-0.014439743
182	0xbb88a2ad	-0.004169783
183	0xbc14589e	-0.009054331
184	0x3b88e3a1	0.004177526
185	0xbcefa95d	-0.029255563
186	0x3c4a8c21	0.012362511
187	0x3cac62b7	0.021043165
188	0xbbb7e45c	-0.0056119394
189	0x3d52fa22	0.051508076
190	0x3c0d7aa8	0.008635201
191	0x3cef58a5	0.029217074
192	0x3c4c6ac3	0.012476626
193	0xbc07e67a	-0.008294696
194	0x3c3ca017	0.011512778
195	0x3ca410cc	0.02002754
196	0x3c9f1b47	0.019422187
197	0x3c5890e1	0.013218136
198	0xbc3a6d0d	-0.011378539
199	0xbc0687e4	-0.00821111
200	0x3bd6658c	0.006542867
201	0x3c6f3284	0.014599446
202	0x3bd29c15	0.006427298
203	0xbcc29ae6	-0.023755502
204	0xbc05ac9d	-0.00815883
205	0x3c892915	0.016743222
206	0xbb610a01	-0.0034338238
207	0x3c2f60f5	0.010704269
208	0x3c53f8a5	0.012937699
209	0x3b6bf29f	0.0036002768
210	0x3b85e3ec	0.0040860083
211	0xbb04d0d3	-0.002026607
212	0xbbab248f	-0.005222864
213	0xbd0067ec	-0.031349108
214	0x3bdac6c2	0.006676526
215	0x3bdaf746	0.0066823093
216	0xbc10ca83	-0.008837345
217	0xbba6275d	-0.0050706104
218	0xbc4bb2c8	-0.0124327615
219	0xbc63fb8b	-0.013914953
220	0xbd15ccd1	-0.03657228
221	0x3b8203f1	0.003967755
222	0x3c6ea524	0.01456574
223	0x3c4cc6fe	0.012498615
224	0xbaf54faf	-0.0018715764
225	0x3c029ea3	0.007972392
226	0x3cc7f002	0.024406437
227	0x3b967b66	0.004592347
228	0xbb9399a2	-0.0045043984
229	0xbcc04323	-0.023469513
230	0xbb4c2f2e	-0.003115605
231	0x3cbf0466	0.023317527
232	0xbbaebfd5	-0.0053329268
233	0x3ac164f9	0.0014754824
234	0x3c001ad6	0.007818898
235	0xbb1dc418	-0.002407318
236	0x3bd00920	0.006348744
237	0x3d2523cd	0.040317345
238	0xbcd0339a	-0.02541523
239	0xbc8d5f0a	-0.017257232
240	0x3cbace05	0.022803316
241	0xbba01af1	-0.004886024
242	0xbc9ee3a8	-0.019395664
243	0x3cb15652	0.021647606
244	0xbb949da6	-0.0045353947
245	0x3cc04fe6	0.023475599
246	0x3bc1b5b6	0.005911554
247	0xbb882d21	-0.0041557704
248	0x3b5864f8	0.0033019166
249	0x3c8f5eca	0.017501254
250	0xbc911ed3	-0.017714893
251	0x3b33e279	0.002744822
252	0x3c5dece9	0.013545253
253	0xbc81c0db	-0.015839031
254	0xbc5d03eb	-0.013489704
255	0x3cc36781	0.023853065

action_model._continuous_distribution.mu.bias f4 [3]
0	0xbae0cea9	-0.0017151433
1	0xba6a3574	-0.0008934357
2	0xba2d3e4a	-0.0006608708

exp_avg f4 [128, 6]
0	0x37e04c60	2.6738446e-05
1	0x36dea860	6.635717e-06
2	0xb7d6a480	-2.558739e-05
3	0xb90329d6	-0.00012508719
4	0x3726fd74	9.953383e-06
5	0x383aa1c0	4.4496497e-05
6	0xb890ceda	-6.904984e-05
7	0x371d24d6	9.366506e-06
8	0x38b1d9d6	8.480593e-05
9	0x390e96bb	0.00013598327
10	0x376bb710	1.4049714e-05
11	0x399b04f4	0.00029567594
12	0xb8706f10	-5.7323894e-05
13	0x38ca9964	9.660682e-05
14	0xb9cd91a9	-0.00039209172
15	0xba56dc9e	-0.00081963267
16	0x3917f2fc	0.00014491001
17	0xb9843cf0	-0.00025222404
18	0xb8fcdbd2	-0.00012057241
19	0x37afedcd	2.097236e-05
20	0x37a2eb50	1.942148e-05
21	0xb84df240	-4.910142e-05
22	0x3803f264	3.1458578e-05
23	0x3a051d12	0.0005077879
24	0xb79d35a9	-1.8740846e-05
25	0x36b218e8	5.307713e-06
26	0xb8031441	-3.1251697e-05
27	0x38c6507e	9.4563686e-05
28	0x37059292	7.961544e-06
29	0x392b8128	0.00016355945
30	0xb91f2afc	-0.00015179435
31	0x37e07062	2.6755213e-05
32	0xb8a665ee	-7.934483e-05
33	0x389ea2b8	7.564336e-05
34	0x3828543e	4.0132778e-05
35	0xb75be2a0	-1.3106182e-05
36	0x363137de	2.6407574e-06
37	0x368e8c3f	4.2482566e-06
38	0xb824da66	-3.9304046e-05
39	0xb817acd0	-3.616215e-05
40	0x36d5d25e	6.3723846e-06
41	0xb7a2ca57	-1.9406127e-05
42	0x392f1d20	0.0001670015
43	0x39030060	0.00012493273
44	0xba384b6f	-0.00070302835
45	0xbae8da26	-0.0017765209
46	0x3944809b	0.00018739926
47	0x39b9b14e	0.00035418052
48	0xb910f8e3	-0.00013825628
49	0x377123c8	1.437305e-05
50	0x383f795e	4.565098e-05
51	0x38029fc2	3.11432e-05
52	0x37b4db0e	2.1559677e-05
53	0x399a1b8c	0.00029393693
54	0x3907d9c7	0.00012955732
55	0x37da19fc	2.5999725e-05
56	0x390c919a	0.00013405681
57	0xb8c5e0f8	-9.435596e-05
58	0x38239374	3.8999555e-05
59	0x3878a2bc	5.9279366e-05
60	0x38d0c442	9.954769e-05
61	0xb786477a	-1.6007329e-05
62	0xb869507a	-5.562648e-05
63	0xb830fbc4	-4.2196145e-05
64	0xb7c96b3c	-2.4011002e-05
65	0xb981a81a	-0.00024730043
66	0x36896af0	4.0953673e-06
67	0x362790e8	2.4969286e-06
68	0xb7db8ad0	-2.6171474e-05
69	0x382923ae	4.032597e-05
70	0x367b5a08	3.745432e-06
71	0x36fb1a00	7.4834097e-06
72	0x33f06a00	1.1195152e-07
73	0x364d96c2	3.0635133e-06
74	0xb8267bf4	-3.9692924e-05
75	0x37ce5a09	2.459904e-05
76	0x369a314a	4.5952956e-06
77	0x371cc190	9.343392e-06
78	0x37783f00	1.479662e-05
79	0xb7155fe0	-8.903415e-06
80	0x38eea9a0	0.000113803195
81	0x39753a40	0.0002338672
82	0xb7600fc0	-1.33551075e-05
83	0x37cd3200	2.4461187e-05
84	0x37c19f40	2.308155e-05
85	0x387897fa	5.9269347e-05
86	0xba090a04	-0.00052276277
87	0xba942aa7	-0.0011304215
88	0x38ba7238	8.890446e-05
89	0x3a131e74	0.0005612143
90	0xb7668fe5	-1.3742571e-05
91	0x35c3b7ae	1.458209e-06
92	0xb58754ec	-1.0082999e-06
93	0x367f762b	3.8066744e-06
94	0x3612c9ba	2.1873116e-06
95	0xb7de9fa1	-2.6538795e-05
96	0xb905a6e0	-0.00012746034
97	0xb7d921dc	-2.5884183e-05
98	0x3931957c	0.00016935723
99	0x398a27c4	0.0002635104
100	0xb822d952	-3.8826205e-05
101	0x3a09f532	0.0005262672
102	0x38f11654	0.000114959345
103	0x38bd4297	9.0246256e-05
104	0xb98149f0	-0.00024659885
105	0xba61039f	-0.00085836084
106	0x390df1de	0.0001353691
107	0xb8c3f618	-9.344163e-05
108	0x38f70f2e	0.00011780705
109	0x381d8413	3.755472e-05
110	0xb9457372	-0.00018830391
111	0xb9fde380	-0.0004842542
112	0x386c460c	5.633202e-05
113	0x38e0cd42	0.000107193846
114	0xb8ee3a49	-0.00011359581
115	0x37eb684c	2.806275e-05
116	0xb92a0689	-0.00016214898
117	0xb998a622	-0.00029115478
118	0x38308e00	4.2093918e-05
119	0xb8117d66	-3.468748e-05
120	0x3786904e	1.6041242e-05
121	0x3779e85d	1.4895658e-05
122	0xb8d072bd	-9.9395846e-05
123	0xb8e9f0b2	-0.00011155139
124	0x37bb6e54	2.2343513e-05
125	0x381be3bc	3.7166974e-05
126	0xb5d7c2d4	-1.6075451e-06
127	0x3681d6d1	3.8695075e-06
128	0x35627f18	8.4376506e-07
129	0xb891a36c	-6.9445785e-05
130	0x36c2c23e	5.8042633e-06
131	0xb7a022ef	-1.9089754e-05
132	0x390a5e87	0.0001319592
133	0x375b1352	1.3057916e-05
134	0xb8d4a70c	-0.00010140063
135	0xb949e4ef	-0.00019254138
136	0x37a44e7e	1.9586874e-05
137	0xb9735480	-0.00023205765
138	0x36de5f96	6.6272432e-06
139	0x34b578f0	3.380187e-07
140	0xb7a65072	-1.9826202e-05
141	0xb7cf024e	-2.4677396e-05
142	0x35081a60	5.070233e-07
143	0x3638551c	2.7467677e-06
144	0xb66ed600	-3.5589328e-06
145	0xb899b2e3	-7.328929e-05
146	0x39ebdf93	0.0004498927
147	0x3a82336f	0.0009933541
148	0xb8e68c40	-0.00010993378
149	0xb9f001b4	-0.00045777636
150	0x3975be45	0.00023435902
151	0xb7f29610	-2.8918526e-05
152	0xb921e0ea	-0.00015437944
153	0xb9acbbb0	-0.00032946235
154	0xb835f099	-4.3377837e-05
155	0xba3f47c4	-0.00072967657
156	0x3804c0b2	3.1650714e-05
157	0xb6091684	-2.0427697e-06
158	0xb81b691e	-3.7052778e-05
159	0xb8b67faa	-8.7022156e-05
160	0xb64da1a4	-3.0641468e-06
161	0x38e14cd4	0.000107431464
162	0xb7cf6120	-2.472155e-05
163	0xb849c0fc	-4.8101865e-05
164	0x39b5154c	0.00034538878
165	0x3a63a324	0.00086836726
166	0xb89750d5	-7.215297e-05
167	0xba1f7862	-0.0006083307
168	0x38dea6fe	0.000106168896
169	0x3898ab47	7.279828e-05
170	0xb94a7b36	-0.00019310121
171	0xba56b393	-0.0008190211
172	0x38e500d6	0.000109197266
173	0x38b4f5d8	8.628861e-05
174	0xb8e31223	-0.00010827582
175	0x37c0dbef	2.2990598e-05
176	0x37c7335b	2.3746563e-05
177	0x37b54c04	2.1612279e-05
178	0x3810a4de	3.448582e-05
179	0x39f6d74f	0.00047081194
180	0x384e0708	4.9120776e-05
181	0x36bff4f0	5.720758e-06
182	0x39839f18	0.000251048
183	0x39c91246	0.00038351322
184	0x370ff570	8.58061e-06
185	0xba3987b2	-0.000707741
186	0xb92409ac	-0.00015643862
187	0x37f1a8b6	2.8808001e-05
188	0xb8d9e210	-0.00010389474
189	0xb956c9ba	-0.0002048378
190	0x38353e87	4.3211996e-05
191	0xb94b0266	-0.00019360482
192	0x37b0c5aa	2.107288e-05
193	0x36affa65	5.244556e-06
194	0xb861e3d2	-5.3856354e-05
195	0xb8962c39	-7.1607945e-05
196	0x3703fbca	7.866833e-06
197	0xb70beeca	-8.340643e-06
198	0x3883d1c4	6.285639e-05
199	0x38d9f559	0.00010393066
200	0xb96af011	-0.0002240541
201	0xba5cb779	-0.00084196735
202	0x39237804	0.000155896
203	0x394dd278	0.00019628729
204	0xb8b6e182	-8.7204404e-05
205	0x37fd59a6	3.0201696e-05
206	0x38265964	3.9660736e-05
207	0xb808b89e	-3.2596865e-05
208	0x383e0319	4.5302415e-05
209	0x3876c968	5.8838545e-05
210	0xb81ac840	-3.690296e-05
211	0x35a5c230	1.2349974e-06
212	0x380a1516	3.29214e-05
213	0x3884271e	6.3015366e-05
214	0x35f8a4ee	1.8525441e-06
215	0x37a7829e	1.9968775e-05
216	0x37dcb1a4	2.6308764e-05
217	0x35db6924	1.6347371e-06
218	0xb811bd23	-3.474684e-05
219	0xb8062f39	-3.199207e-05
220	0x36248e00	2.452056e-06
221	0x371612ac	8.945044e-06
222	0xb918143c	-0.00014503388
223	0x3779359a	1.4854037e-05
224	0x38e20c63	0.00010778827
225	0x38dd811d	0.000105621504
226	0x37bae862	2.228114e-05
227	0x397caa2f	0.00024095991
228	0xb7ccc6c0	-2.4411245e-05
229	0x371ad4a8	9.228628e-06
230	0xb8a4eb4e	-7.863958e-05
231	0xb9a239b0	-0.00030942028
232	0x37683de0	1.3842684e-05
233	0x3882ed80	6.243121e-05
234	0xb852dcae	-5.0273426e-05
235	0x376b7e5a	1.403651e-05
236	0x37cafa67	2.419688e-05
237	0xb7dd72ae	-2.6398655e-05
238	0x37b09ee2	2.105482e-05
239	0x396aed06	0.00022404277
240	0xb90e260a	-0.00013556346
241	0x37878f6a	1.6160036e-05
242	0x3921f65c	0.00015445933
243	0x38d17ba0	9.9889236e-05
244	0x37cb5735	2.4240095e-05
245	0x39f34559	0.0004640024
246	0x36f3c634	7.265038e-06
247	0xb4effd80	-4.4701665e-07
248	0x3614afbe	2.2156014e-06
249	0xb71c1d3a	-9.305129e-06
250	0xb533fe04	-6.705234e-07
251	0x37afb668	2.0946565e-05
252	0xb984f180	-0.00025356933
253	0xb8a3c0ec	-7.80838e-05
254	0x39904b55	0.00027521947
255	0x3a81b178	0.0009894809

exp_avg_sq f4 [128, 6]
0	0x353ec30a	7.1064335e-07
1	0x323a061c	1.0828014e-08
2	0x34b0a4b3	3.290239e-07
3	0x35754331	9.136739e-07
4	0x32d146d9	2.436302e-08
5	0x36a70a76	4.9782057e-06
6	0x34d70f93	4.0058202e-07
7	0x31cc8c59	5.953137e-09
8	0x342d9559	1.6166213e-07
9	0x3501c752	4.8346294e-07
10	0x32661dea	1.3394564e-08
11	0x3628354a	2.506497e-06
12	0x35387b99	6.87252e-07
13	0x330f847b	3.3415272e-08
14	0x353cb215	7.02946e-07
15	0x36aaf260	5.094611e-06
16	0x33a1750b	7.518437e-08
17	0x36933128	4.386664e-06
18	0x342b4f01	1.5954357e-07
19	0x31201816	2.3296756e-09
20	0x33ce9c56	9.62106e-08
21	0x34bd742d	3.5288522e-07
22	0x31b41b14	5.241768e-09
23	0x3582f983	9.758372e-07
24	0x3511cdec	5.4316365e-07
25	0x319a4eaf	4.490935e-09
26	0x3609ab2f	2.0514233e-06
27	0x358984fd	1.0246e-06
28	0x322d988c	1.01046105e-08
29	0x35423406	7.2346336e-07
30	0x35238d3e	6.0927766e-07
31	0x327e72c5	1.4810841e-08
32	0x34ac077d	3.2042945e-07
33	0x35dd121a	1.6471051e-06
34	0x330f2088	3.332437e-08
35	0x369dd5b1	4.7038416e-06
36	0x3447721f	1.8574836e-07
37	0x3128494f	2.4488889e-09
38	0x35bace9a	1.3918209e-06
39	0x349a69e9	2.8761795e-07
40	0x31bd5279	5.51e-09
41	0x3428be5a	1.5715469e-07
42	0x3462a9d9	2.110968e-07
43	0x32a3d4d0	1.9072473e-08
44	0x36074504	2.015674e-06
45	0x3653ce12	3.1561399e-06
46	0x33384f66	4.291305e-08
47	0x35d96cf4	1.6199469e-06
48	0x3492a223	2.731259e-07
49	0x31b57e18	5.2821285e-09
50	0x352d39e0	6.453174e-07
51	0x3518d340	5.693182e-07
52	0x324c2de1	1.18847945e-08
53	0x35ff8344	1.9037184e-06
54	0x349a4e07	2.8741508e-07
55	0x32120bbf	8.500989e-09
56	0x342a5040	1.5861679e-07
57	0x357c96ac	9.409657e-07
58	0x32a44d36	1.9127224e-08
59	0x3619eed6	2.2937797e-06
60	0x34cd360d	3.8223553e-07
61	0x3154ec20	3.0984282e-09
62	0x345b7f07	2.0442177e-07
63	0x343bf035	1.7503119e-07
64	0x31ef89ae	6.971468e-09
65	0x35a60ea5	1.2372226e-06
66	0x3446e32a	1.8522829e-07
67	0x31f55bce	7.1408754e-09
68	0x3647bef8	2.976447e-06
69	0x3609128c	2.0425387e-06
70	0x328a03a5	1.6066972e-08
71	0x350c66b3	5.230351e-07
72	0x33ec698e	1.1008807e-07
73	0x318b61da	4.056557e-09
74	0x36026c6c	1.943462e-06
75	0x358976d3	1.0241878e-06
76	0x321cce18	9.127255e-09
77	0x34845349	2.4647514e-07
78	0x35718302	8.997014e-07
79	0x3301be0b	3.0207996e-08
80	0x34a99b1b	3.1591557e-07
81	0x35e89b41	1.7330532e-06
82	0x3391f5cf	6.796801e-08
83	0x370eeeb4	8.519437e-06
84	0x35857ced	9.94563e-07
85	0x33806475	5.9787375e-08
86	0x367814d6	3.6967008e-06
87	0x36abca38	5.1197385e-06
88	0x34107105	1.3452161e-07
89	0x37260856	9.896312e-06
90	0x33e3a2ff	1.060016e-07
91	0x308282c9	9.495916e-10
92	0x35169bc6	5.6106035e-07
93	0x344c4a89	1.9026096e-07
94	0x3112d326	2.136582e-09
95	0x33ec16f4	1.09937815e-07
96	0x34874358	2.5194709e-07
97	0x323f0e40	1.1120903e-08
98	0x359c758f	1.165712e-06
99	0x35f86e3a	1.850952e-06
100	0x32d6f00b	2.5022038e-08
101	0x36084e33	2.0311097e-06
102	0x34bfc19a	3.5717386e-07
103	0x32b19f0e	2.0677842e-08
104	0x34c2da84	3.6294307e-07
105	0x36290396	2.518505e-06
106	0x3347d2f0	4.6525145e-08
107	0x3684b93e	3.9554716e-06
108	0x3486eb73	2.5130757e-07
109	0x320d3983	8.220357e-09
110	0x35a5a2a0	1.2340788e-06
111	0x35ab519b	1.2764243e-06
112	0x329ee0b4	1.8495804e-08
113	0x34a347b1	3.0413278e-07
114	0x348e4dd1	2.650618e-07
115	0x329e4eaa	1.8429393e-08
116	0x36539de2	3.153335e-06
117	0x368cdc93	4.1980034e-06
118	0x33321880	4.1466137e-08
119	0x34bb0e32	3.4841793e-07
120	0x34bc21eb	3.5042407e-07
121	0x3203fee2	7.683157e-09
122	0x35723ed5	9.024346e-07
123	0x35acb707	1.2868267e-06
124	0x32947ec4	1.7287114e-08
125	0x36100ce9	2.1465187e-06
126	0x344a1f38	1.8824073e-07
127	0x31afe127	5.118767e-09
128	0x363b9fcc	2.7958185e-06
129	0x35b4b454	1.3463527e-06
130	0x3245dd4d	1.1517227e-08
131	0x347a2c24	2.3299123e-07
132	0x3446814d	1.8487226e-07
133	0x31512dff	3.0439649e-09
134	0x346afb68	2.188441e-07
135	0x3542c02e	7.255029e-07
136	0x31eb53c3	6.8489228e-09
137	0x35833b95	9.777601e-07
138	0x31a43d54	4.7800004e-09
139	0x2facef4e	3.1456654e-10
140	0x32a4116d	1.9100037e-08
141	0x33230d15	3.7963293e-08
142	0x30428d39	7.077748e-10
143	0x328602dd	1.5600955e-08
144	0x33696795	5.4343747e-08
145	0x325138c0	1.2178305e-08
146	0x34c0c9ba	3.5909562e-07
147	0x364fd37b	3.0968502e-06
148	0x32eb5fd6	2.7401182e-08
149	0x35e5f286	1.7132413e-06
150	0x356857a0	8.6554246e-07
151	0x32282027	9.786198e-09
152	0x34d88a62	4.0333822e-07
153	0x355c26b7	8.2012724e-07
154	0x32bd242a	2.2018941e-08
155	0x367effa6	3.7997756e-06
156	0x347b4ffb	2.3405293e-07
157	0x3228e5ac	9.831108e-09
158	0x3646ebc7	2.964154e-06
159	0x35aa362d	1.2681754e-06
160	0x32be0262	2.2119995e-08
161	0x34880eb2	2.5342666e-07
162	0x34da242c	4.0631983e-07
163	0x328ffcc4	1.6762336e-08
164	0x355c29ba	8.2017107e-07
165	0x360741c5	2.015485e-06
166	0x3321fc5d	3.7715257e-08
167	0x36755919	3.6559707e-06
168	0x33cd2ac3	9.553835e-08
169	0x321490c7	8.647652e-09
170	0x353b0f49	6.968517e-07
171	0x3596eeb6	1.1245345e-06
172	0x32a722d8	1.9457204e-08
173	0x353d4cce	7.051975e-07
174	0x34586360	2.015272e-07
175	0x31ad20fa	5.0387117e-09
176	0x33b5a8fe	8.459209e-08
177	0x34f9eeaa	4.6553515e-07
178	0x3242c519	1.1337101e-08
179	0x36003199	1.9102356e-06
180	0x34dfc846	4.1682705e-07
181	0x33167e9e	3.5039754e-08
182	0x350882fc	5.0854555e-07
183	0x369ee2e8	4.7351823e-06
184	0x33a94e77	7.8839484e-08
185	0x36bd71ad	5.6458725e-06
186	0x34f4e927	4.5618182e-07
187	0x32fea694	2.9645243e-08
188	0x369b53db	4.629122e-06
189	0x368f954c	4.2791125e-06
190	0x338f3db1	6.670178e-08
191	0x355aeb1d	8.1553463e-07
192	0x342dd94d	1.6190934e-07
193	0x31641ad6	3.3193621e-09
194	0x35f6e4bd	1.8395e-06
195	0x351437f5	5.5215725e-07
196	0x32004f19	7.468565e-09
197	0x342667d7	1.5497731e-07
198	0x35527323	7.839864e-07
199	0x32d4264a	2.469746e-08
200	0x361c8dd6	2.332837e-06
201	0x3678dec0	3.7084537e-06
202	0x336eab1e	5.5569323e-08
203	0x36d1609e	6.239933e-06
204	0x34cf4992	3.8610284e-07
205	0x3287c324	1.5804808e-08
206	0x357c5e70	9.401474e-07
207	0x35ee0465	1.7733661e-06
208	0x3318bb89	3.556082e-08
209	0x3631f778	2.65191e-06
210	0x34528550	1.9606273e-07
211	0x31094e3b	1.9980593e-09
212	0x33c11429	8.99093e-08
213	0x342bc770	1.5998171e-07
214	0x319a7801	4.4956328e-09
215	0x3584fa07	9.907534e-07
216	0x3492f733	2.737448e-07
217	0x315afecc	3.186801e-09
218	0x3447e248	1.861564e-07
219	0x3453f071	1.9738378e-07
220	0x31f65e9a	7.1702972e-09
221	0x356bcb2a	8.7839965e-07
222	0x350b7cbf	5.1963065e-07
223	0x317fcaf0	3.722274e-09
224	0x35ec9ab0	1.762839e-06
225	0x35605e90	8.358411e-07
226	0x320fe227	8.375117e-09
227	0x357da832	9.44946e-07
228	0x356f585b	8.916301e-07
229	0x32d3765b	2.4617455e-08
230	0x360b7063	2.0778032e-06
231	0x35f204f8	1.8031851e-06
232	0x336de531	5.538931e-08
233	0x36f65e15	7.342324e-06
234	0x34cb9ac8	3.7924315e-07
235	0x31f7a188	7.20701e-09
236	0x3604fe66	1.9817612e-06
237	0x359d7e55	1.1734179e-06
238	0x328b4ada	1.6215768e-08
239	0x35ee4925	1.775367e-06
240	0x347975f6	2.3232846e-07
241	0x3230a669	1.0282386e-08
242	0x361b4cb9	2.3141458e-06
243	0x35fd2862	1.8861722e-06
244	0x32c6bb3f	2.3135383e-08
245	0x35c623e1	1.4762592e-06
246	0x3319e859	3.5834407e-08
247	0x2f8d5b63	2.5712685e-10
248	0x333d2316	4.4036902e-08
249	0x328a041d	1.6067185e-08
250	0x301f06d2	5.7853555e-10
251	0x3370fd83	5.6109922e-08
252	0x359acc9e	1.1533446e-06
253	0x32918594	1.6940966e-08
254	0x368f7df6	4.276396e-06
255	0x361b5c87	2.3150658e-06

exp_avg f4 [128]
0	0x365ea838	3.3178494e-06
1	0x369d24da	4.6832547e-06
2	0x384a994f	4.8303333e-05
3	0x372fedd0	1.0486183e-05
4	0x363218e0	2.6538546e-06
5	0x3760705f	1.3377604e-05
6	0x360e8c40	2.1241285e-06
7	0x38830065	6.24664e-05
8	0x36f123ec	7.1865416e-06
9	0x375a1a16	1.2999886e-05
10	0xb7064780	-8.00367e-06
11	0x35a79130	1.2484725e-06
12	0x35cd96c2	1.5317567e-06
13	0xb6956010	-4.451729e-06
14	0x37f897fa	2.9634673e-05
15	0x3543b7ae	7.291045e-07
16	0xb75921b8	-1.2942059e-05
17	0x383d428f	4.51231e-05
18	0x379d841a	1.8777373e-05
19	0x376b6833	1.4031352e-05
20	0x36f9e876	7.4478403e-06
21	0x3601d6cf	1.9347533e-06
22	0x36db134e	6.528956e-06
23	0x34357878	1.6900765e-07
24	0xb819b2d8	-3.6644604e-05
25	0xb77295fc	-1.4459245e-05
26	0xb5891668	-1.0213816e-06
27	0xb7c9c114	-2.4050976e-05
28	0x3818ab40	3.6399113e-05
29	0x3740dbf1	1.1495301e-05
30	0x363ff2f8	2.8602644e-06
31	0x3771a89c	1.4403977e-05
32	0x362ffa62	2.6222774e-06
33	0x3859f559	5.196533e-05
34	0x377d597a	1.5100808e-05
35	0x3525c2a2	6.175052e-07
36	0x355b68f8	8.173661e-07
37	0x36f93599	7.427018e-06
38	0x369ad3d0	4.614216e-06
39	0x36eb7e72	7.018266e-06
40	0x37078f70	8.080024e-06
41	0xb46ffdd4	-2.2350952e-07
42	0xb823c0f0	-3.9041915e-05
43	0x3878e877	5.9344307e-05
44	0x3725a34e	9.872789e-06
45	0xb60572bc	-1.9885329e-06
46	0xb78c6b42	-1.6739246e-05
47	0x373518d0	1.0794218e-05
48	0xb74ac75d	-1.2086556e-05
49	0xb708d4bb	-8.155762e-06
50	0x3584c860	9.893083e-07
51	0x3532d129	6.6614535e-07
52	0xb82eb910	-4.1657186e-05
53	0xb7caa6b1	-2.4157898e-05
54	0x38385ea4	4.395716e-05
55	0x36f1c9dc	7.205859e-06
56	0x3668704c	3.463606e-06
57	0xb58ce06c	-1.0496128e-06
58	0x380ede1f	3.4062305e-05
59	0xb87a483a	-5.967191e-05
60	0x357f3633	9.5073773e-07
61	0x37268864	9.926127e-06
62	0x3663137a	3.3836973e-06
63	0x3794b30f	1.7726356e-05
64	0xb80edd26	-3.40614e-05
65	0x36ac52d0	5.13564e-06
66	0x37446914	1.1706976e-05
67	0xb6173f14	-2.253747e-06
68	0x3774410a	1.4558676e-05
69	0x355299a8	7.8454696e-07
70	0x361df919	2.3539817e-06
71	0x38959473	7.1325245e-05
72	0xb736bb4c	-1.0891654e-05
73	0x3693cae4	4.404561e-06
74	0xb8768ae0	-5.8780308e-05
75	0xb7e7f029	-2.764918e-05
76	0x380cbb34	3.3552948e-05
77	0x368e1a5a	4.2349975e-06
78	0x363dc280	2.8276409e-06
79	0xb5210156	-5.997912e-07
80	0x37e9ad70	2.7856528e-05
81	0x35ca89f0	1.5090318e-06
82	0xb6f8732e	-7.4043846e-06
83	0xb4550a47	-1.984091e-07
84	0x348be8e0	2.6060206e-07
85	0xb65ce4fa	-3.2915837e-06
86	0x383e7a14	4.5413224e-05
87	0x354c24e9	7.6049633e-07
88	0x36a77022	4.990042e-06
89	0x3595ce9e	1.1161499e-06
90	0xb8641aed	-5.4384513e-05
91	0xb815aaaf	-3.568333e-05
92	0x3552cec5	7.8531986e-07
93	0xb62c7be0	-2.5702102e-06
94	0xb4bcc200	-3.5158882e-07
95	0x372f16bf	1.0436109e-05
96	0x36a3c56c	4.8807615e-06
97	0x37f632be	2.9349114e-05
98	0xb7953c0a	-1.7790142e-05
99	0xb84b965b	-4.8539e-05
100	0xb74c71c0	-1.2185832e-05
101	0x36c06a94	5.734453e-06
102	0xb6ae7952	-5.1997276e-06
103	0x36b44417	5.3723447e-06
104	0xb80ee539	-3.406892e-05
105	0x350c9938	5.2377027e-07
106	0x379776c8	1.8055915e-05
107	0x37f0034d	2.8611767e-05
108	0x36471313	2.9664413e-06
109	0xb7ffd608	-3.0498035e-05
110	0x3702f568	7.805742e-06
111	0x36b57f02	5.409006e-06
112	0x372921e2	1.0081074e-05
113	0x36ed0042	7.0631804e-06
114	0xb693fc8b	-4.4103413e-06
115	0x37b5fcc5	2.1694586e-05
116	0x3833c028	4.2855885e-05
117	0xb834edd6	-4.3136846e-05
118	0xb74085c0	-1.1475233e-05
119	0x36d74952	6.416035e-06
120	0xb6041c40	-1.9685976e-06
121	0xb75187b4	-1.2488967e-05
122	0x36931331	4.3831756e-06
123	0x3745e9bc	1.1796536e-05
124	0xb6efced0	-7.146831e-06
125	0xb845911b	-4.71036e-05
126	0xb7b71da0	-2.1829095e-05
127	0x35f0ec6e	1.7950204e-06

exp_avg_sq f4 [128]
0	0x313a061e	2.707004e-09
1	0x30cc8c5b	1.4882845e-09
2	0x320f847c	8.353819e-09
3	0x30201813	5.824187e-10
4	0x309a4eb8	1.1227348e-09
5	0x317e72bd	3.7027086e-09
6	0x3028494e	6.1222216e-10
7	0x31a3d4d0	4.7681183e-09
8	0x30b57e1b	1.3205325e-09
9	0x31120bbc	2.1252466e-09
10	0x3054ec22	7.7460716e-10
11	0x30f55bd1	1.7852192e-09
12	0x308b61da	1.0141392e-09
13	0x3201be0c	7.552e-09
14	0x32806476	1.4946846e-08
15	0x2f8282c7	2.3739785e-10
16	0x313f0e42	2.7802263e-09
17	0x31b19f0e	5.1694604e-09
18	0x310d3984	2.0550894e-09
19	0x319e4eaa	4.6073483e-09
20	0x3103fee3	1.9207895e-09
21	0x30afe128	1.2796919e-09
22	0x30512e07	7.6099166e-10
23	0x2eacef4b	7.8641614e-11
24	0x315138be	3.0445757e-09
25	0x31282028	2.4465496e-09
26	0x3128e5ab	2.4577769e-09
27	0x318ffcc6	4.1905848e-09
28	0x311490c0	2.1619115e-09
29	0x30ad20fa	1.2596779e-09
30	0x32167e9d	8.759938e-09
31	0x31fea695	7.411311e-09
32	0x30641ad8	8.2984064e-10
33	0x31d4264f	6.1743672e-09
34	0x3187c324	3.951202e-09
35	0x30094e3a	4.9951476e-10
36	0x305afecc	7.9670026e-10
37	0x307fcaf0	9.305685e-10
38	0x31d3765e	6.154365e-09
39	0x30f7a180	1.8017516e-09
40	0x3130a66b	2.5705968e-09
41	0x2e8d5b67	6.428174e-11
42	0x31918592	4.2352406e-09
43	0x315504df	3.0998348e-09
44	0x317ebd6b	3.7069536e-09
45	0x310c82ff	2.0447144e-09
46	0x319088b1	4.2064916e-09
47	0x31523445	3.0588734e-09
48	0x30bc2935	1.3690512e-09
49	0x3208ecb3	7.970061e-09
50	0x31aa939e	4.9644333e-09
51	0x2ffc3f26	4.5883403e-10
52	0x313f5b07	2.7845901e-09
53	0x31c96917	5.8618173e-09
54	0x3180dc0a	3.750306e-09
55	0x30ceffc9	1.5061171e-09
56	0x308e013d	1.0332212e-09
57	0x309a8a93	1.124436e-09
58	0x31bf046a	5.5593334e-09
59	0x31844629	3.849682e-09
60	0x30e6e77e	1.6800497e-09
61	0x3196534f	4.3750457e-09
62	0x30d8b050	1.576618e-09
63	0x31010018	1.8772024e-09
64	0x32114a2a	8.456974e-09
65	0x2fb8955f	3.357554e-10
66	0x310b96e8	2.0312942e-09
67	0x312b4df6	2.492809e-09
68	0x322a46c6	9.911394e-09
69	0x309bea0c	1.1344254e-09
70	0x30c6c957	1.446362e-09
71	0x31f25a29	7.053377e-09
72	0x311277b7	2.1313846e-09
73	0x30f664e5	1.7927532e-09
74	0x3193d9c4	4.30302e-09
75	0x306427a7	8.3002266e-10
76	0x31dff802	6.5183494e-09
77	0x3030c807	6.4312683e-10
78	0x3072d969	8.8348046e-10
79	0x2eec2542	1.0738656e-10
80	0x31c90998	5.8509606e-09
81	0x304e5c1a	7.507325e-10
82	0x31a5b569	4.822756e-09
83	0x30ba7777	1.3567235e-09
84	0x307bc777	9.1596725e-10
85	0x2fd2e9c3	3.8364875e-10
86	0x322eca55	1.0174138e-08
87	0x304a2cbb	7.355074e-10
88	0x314c4508	2.9725147e-09
89	0x3119ce65	2.2381752e-09
90	0x31dc388a	6.4092704e-09
91	0x3063c073	8.2855606e-10
92	0x314873d3	2.916967e-09
93	0x319c807f	4.554806e-09
94	0x310ce737	2.0504112e-09
95	0x30b9ceb5	1.3519271e-09
96	0x2f5980ab	1.9781747e-10
97	0x3186c52d	3.9223296e-09
98	0x310f2fbb	2.083637e-09
99	0x326bfe42	1.3736612e-08
100	0x318cf39c	4.1022314e-09
101	0x3086de84	9.813026e-10
102	0x3090af10	1.0527135e-09
103	0x30567e99	7.803265e-10
104	0x3250addd	1.2146725e-08
105	0x30762ec4	8.9560737e-10
106	0x3163f929	3.3174479e-09
107	0x31248277	2.3939302e-09
108	0x307fb494	9.3025077e-10
109	0x3198f0b3	4.4511466e-09
110	0x2fcd3b4f	3.7331424e-10
111	0x30c39a43	1.4231961e-09
112	0x3177741d	3.6009233e-09
113	0x30b8ca4e	1.344526e-09
114	0x30ac94a9	1.2556899e-09
115	0x3090d719	1.0538513e-09
116	0x322d8aa4	1.0101449e-08
117	0x31eabece	6.8319883e-09
118	0x31994a81	4.461356e-09
119	0x30cd4de4	1.4937851e-09
120	0x3167b392	3.3716998e-09
121	0x31aa1b74	4.9507722e-09
122	0x313b4022	2.7248537e-09
123	0x3212aff1	8.538323e-09
124	0x3136c286	2.659506e-09
125	0x31e4d197	6.659501e-09
126	0x32467d4a	1.1553604e-08
127	0x2fed204e	4.3133003e-10
