Assets/MoveToTargetNew.onnx (onnx, 75612 bytes, 7 tensors)

network_body._body_endoder.seq_layers.0.weight f4 [128, 6]
0	0xbdb8bcb2	-0.09020366
1	0xbc94d9f5	-0.018170336
2	0x3bfff5cd	0.007811284
3	0xbe941973	-0.28925666
4	0xbf0dfae0	-0.5546093
5	0x3e8eec60	0.27914715
6	0x3e547bfe	0.20750424
7	0xbf1c5193	-0.6106197
8	0x3f26b9fb	0.65127534
9	0xbf2404c9	-0.640698
10	0x3d63ba43	0.055597555
11	0xbea16c9b	-0.31528172
12	0xbd3fa7a5	-0.046790738
13	0x3d678a77	0.056528535
14	0x3eb79ea0	0.3586321
15	0xbe413ac3	-0.18870072
16	0x3e08425f	0.13306569
17	0x3d2a2922	0.041543134
18	0x3f192d9f	0.5983524
19	0xbf5bf0a7	-0.8591408
20	0xbe437cfb	-0.19090645
21	0xbdb07824	-0.08616665
22	0x3f607b3b	0.87688035
23	0x3ee2f533	0.44327697
24	0x3e07f3bb	0.1327657
25	0xbf040c4d	-0.5158127
26	0xbef7eb0f	-0.48421523
27	0x3ea411a9	0.32044724
28	0x3f025fe9	0.509276
29	0x3eac730d	0.33681527
30	0xbe83ee65	-0.25767818
31	0x3d64e97b	0.055886727
32	0x3e7679bb	0.24069874
33	0xbea838dd	-0.32855883
34	0x3e2ce863	0.16885523
35	0x3ecdfdb6	0.4023263
36	0xbd683117	-0.05668744
37	0xbe873815	-0.26409975
38	0xbf003ce2	-0.500929
39	0x3f515edc	0.8178537
40	0xbe94b219	-0.29042128
41	0x3f4ce885	0.80042297
42	0xbdf11c21	-0.11772943
43	0x3f182c96	0.5944303
44	0x3ea2dd31	0.3180938
45	0x3f36428d	0.711953
46	0xbf416584	-0.75545526
47	0xbf4a77c7	-0.79089016
48	0xbe7c43cb	-0.24635236
49	0xbe80aa29	-0.25129822
50	0xbe8f766b	-0.28020033
51	0x3ef3037d	0.474636
52	0x3efa4790	0.48882723
53	0xbda8bd92	-0.08239283
54	0x3ee431bb	0.4456919
55	0x3e1a4d78	0.15068614
56	0x3ec3d9c7	0.38252088
57	0x3db27c99	0.08715171
58	0x3e379245	0.17926891
59	0xbe84f0d4	-0.25964987
60	0x3ead6472	0.33865696
61	0x3e90cde1	0.28282073
62	0x3ecd2f3e	0.40075105
63	0xbf09e46e	-0.5386418
64	0xbefac284	-0.4897653
65	0xba2e48c4	-0.0006648416
66	0xbebf671b	-0.3738335
67	0x3f34a6c5	0.7056697
68	0xbd8d545d	-0.06900857
69	0xbe715661	-0.23568107
70	0xbf660458	-0.8985038
71	0xbeca34c5	-0.39493385
72	0xbdf5654b	-0.11982211
73	0xbe75124e	-0.23932764
74	0xbf36d3d5	-0.7141698
75	0x3e19e3fe	0.15028378
76	0x3e079b4b	0.13242833
77	0x3e30f9af	0.17282747
78	0x3f19dca6	0.6010231
79	0xbf5d142d	-0.8635891
80	0xbe8a174f	-0.26970908
81	0x3f080453	0.531316
82	0xbf05d076	-0.5227121
83	0xbf28d82a	-0.6595484
84	0xbe83466c	-0.25639665
85	0xbe192db5	-0.14958842
86	0x3e9cebab	0.3064855
87	0x3eca5ce3	0.39523992
88	0xbe1289b1	-0.14310338
89	0xbeec28c4	-0.46124852
90	0x3f11e98f	0.5699701
91	0xbc9e72e7	-0.0193419
92	0xbf42d2fe	-0.761032
93	0x3e20c139	0.15698709
94	0xbf0fddf8	-0.5619807
95	0xbf1cc801	-0.6124268
96	0xbf12fdff	-0.5741882
97	0xbe9f595d	-0.31122866
98	0xbe9c1081	-0.3048134
99	0xbd9c9e0c	-0.076473325
100	0x3f1a4e0e	0.6027535
101	0x3eefcae6	0.46834487
102	0x3dc350e8	0.09536916
103	0xbdd65b55	-0.10466639
104	0x3eee996b	0.46601424
105	0xbf04035c	-0.51567626
106	0xbe6f0698	-0.23342359
107	0xbf7636db	-0.9617745
108	0x3cee92a8	0.029122666
109	0xbe1c384f	-0.15255855
110	0x3e09399d	0.13400884
111	0xbc8c8e91	-0.017157825
112	0xbee125ae	-0.4397406
113	0xbeb10fee	-0.34582466
114	0x3e32e3bc	0.17469686
115	0xbe3ab8f5	-0.18234618
116	0xbda34d29	-0.079737015
117	0xbe2e4a7e	-0.17020604
118	0x3ebb1ffc	0.3654784
119	0x3f302cbf	0.6881828
120	0x3e995fbb	0.2995585
121	0x3d57243c	0.05252479
122	0xbe9beed7	-0.30455658
123	0xbf17e302	-0.5933076
124	0xbf29eb89	-0.66375023
125	0x3da40c83	0.08010199
126	0x3e44d6a3	0.19222502
127	0xbd1f7ce3	-0.03893746
128	0x3ec57f32	0.38573605
129	0x3f0c4f87	0.5480885
130	0x3e128464	0.14308316
131	0x3e8076d6	0.25090665
132	0xbea946a9	-0.33061722
133	0x3d8029a2	0.06257941
134	0xbdcff70c	-0.10154542
135	0x3f411ebd	0.7543753
136	0x3f3e9383	0.74443835
137	0xbcce1ad3	-0.025159275
138	0xbe040f4b	-0.12896459
139	0xbe36f8c4	-0.17868334
140	0xbef84276	-0.48488206
141	0x3f2e4a3b	0.68082017
142	0xbe1bad72	-0.15202883
143	0xbbcaf01a	-0.006193173
144	0x3e2026c3	0.15639786
145	0xbdfe296e	-0.12410246
146	0x3f33d9f2	0.70254433
147	0xbf37ad65	-0.71748954
148	0xbe994d9e	-0.2994203
149	0xbea2680f	-0.31720015
150	0x3e04c251	0.12964751
151	0x3e18cd78	0.1492213
152	0x3ebcf8d9	0.36908606
153	0x3f0aa6aa	0.5416056
154	0x3f0263ca	0.50933516
155	0x3ecae238	0.39625716
156	0xbec2c7a7	-0.38042948
157	0xbe20bd3d	-0.15697189
158	0x3e1421ab	0.14465968
159	0xbf2272a3	-0.6345617
160	0xbecb4a62	-0.39705187
161	0xbe5b292c	-0.21402425
162	0xbd634710	-0.055487692
163	0xbec2188a	-0.37909347
164	0x3ea56df1	0.3231044
165	0x3dd3a695	0.103345074
166	0x3ea92db3	0.33042678
167	0xbe1ca7cf	-0.15298389
168	0xbe8a8273	-0.2705265
169	0x3d356d3f	0.04429364
170	0xbd96c5ce	-0.07361947
171	0xbf098773	-0.53722304
172	0x3f1fa3d3	0.6235935
173	0x3e8fb046	0.28064173
174	0xbef7cc6b	-0.48398146
175	0xbe826ae8	-0.25472188
176	0x3eb2511a	0.348275
177	0x3ec6cbc0	0.38827324
178	0xbf2aaf11	-0.6667338
179	0xbe411fbe	-0.18859765
180	0xbe0d3097	-0.13788067
181	0xbf1114be	-0.56672275
182	0x3e9b8a7d	0.30379096
183	0x3f134093	0.5752041
184	0x3ec683fe	0.38772577
185	0x3f643178	0.89137983
186	0xbe808aa1	-0.25105765
187	0x3ed414d4	0.4142214
188	0x3e80fddd	0.25193682
189	0x3eafb075	0.34314314
190	0x3d682df5	0.056684453
191	0x3f1b2d1e	0.6061572
192	0x3eed5508	0.46353936
193	0xbe428bb4	-0.18998605
194	0x3d98a015	0.07452408
195	0x3ead5a22	0.33857828
196	0xbe38670b	-0.18008058
197	0xb9be9ede	-0.0003635799
198	0x3e9b5f2e	0.30346054
199	0xbe562dba	-0.20915881
200	0x3cc0575c	0.023479156
201	0x3f5254b6	0.8216051
202	0x3d92656b	0.0714825
203	0x3f1eb125	0.6198905
204	0x3f46c4d9	0.77644116
205	0x3d060542	0.032719858
206	0x3e8eb6f4	0.27873957
207	0xbf6fb8f0	-0.9364157
208	0xbe1b80cd	-0.15185852
209	0x3e9323ef	0.28738353
210	0x3eb56b75	0.35433546
211	0x3ed633a8	0.41836286
212	0x3dd5191f	0.10405182
213	0x3ef4e42b	0.47830328
214	0xbe7d1c54	-0.24717838
215	0xbee9e665	-0.4568359
216	0x3ea431ff	0.32069394
217	0x3f7b2058	0.9809623
218	0xbea0fb40	-0.3144169
219	0x3f2d82dd	0.67777807
220	0xbe7c20d1	-0.24621893
221	0xbe77617d	-0.24158283
222	0x3f266828	0.6500268
223	0x3f3763f9	0.7163692
224	0x3ebcb1a7	0.36854288
225	0x3e018695	0.12648995
226	0xbe83ffa2	-0.2578097
227	0x3ead81e3	0.33888158
228	0xbea6afb9	-0.3255594
229	0x3e3ba640	0.18325138
230	0x3efd5180	0.49476242
231	0x3cf31301	0.029672148
232	0xbf02d17f	-0.51100916
233	0xbca9dc1f	-0.020734845
234	0x3ebabad3	0.3647066
235	0x3ec26629	0.37968567
236	0x3db95722	0.090498224
237	0xbe2e4aee	-0.17020771
238	0xbeb1540c	-0.34634435
239	0x3ea21210	0.31654406
240	0xbd21dbc0	-0.03951621
241	0xbe838477	-0.25687
242	0xbeaa6fa4	-0.332883
243	0x3f134d80	0.5754013
244	0xbdeda9bb	-0.11604639
245	0x3f43ea95	0.7652982
246	0xbe308bf9	-0.17240895
247	0x3e628c7a	0.221239
248	0x3f070241	0.52737814
249	0x3edab0e2	0.42713076
250	0xbd946d83	-0.0724745
251	0x3dd8a494	0.10578266
252	0x3eb402b7	0.3515832
253	0x3e0cfbf3	0.13767986
254	0xbd11e6ec	-0.035620615
255	0x3e911f2c	0.28344095

network_body._body_endoder.seq_layers.0.bias f4 [128]
0	0xbc97e407	-0.01854135
1	0x3d47147a	0.048603512
2	0x3c9007ad	0.017581785
3	0x3d4f6433	0.050632667
4	0x3d417eb9	0.047239993
5	0x3d04ee87	0.03245404
6	0x3d6c8801	0.05774689
7	0x3d4010bb	0.046890955
8	0x3d1fd4e9	0.039021406
9	0x3cbdf160	0.023186386
10	0x3b558ff0	0.0032587014
11	0xbc592d3e	-0.0132554155
12	0x3d6987d9	0.05701432
13	0x3ca076ca	0.019587893
14	0x3c5880ca	0.013214299
15	0x3c14e72f	0.009088322
16	0x3d8c793a	0.0685906
17	0x3c980da3	0.01856119
18	0x3c2d59f0	0.010580525
19	0x3c573876	0.01313602
20	0xbbdef518	-0.00680412
21	0x3d3d0264	0.046144858
22	0x3d375847	0.044761922
23	0x3d214482	0.039371975
24	0x3d062dc5	0.032758493
25	0x3d104222	0.03521932
26	0xbcfadd33	-0.030623054
27	0x3d2c5fa0	0.042083383
28	0xbb88ede1	-0.004178748
29	0x3cc411e0	0.023934305
30	0x3d2b9ee7	0.041899588
31	0x3d35b3e4	0.04436101
32	0x3bac14d6	0.0052515073
33	0x3d21ce96	0.039503656
34	0xbc9cca84	-0.019139536
35	0x3d109c00	0.035305023
36	0x3d4d354e	0.050099663
37	0xbc0acd62	-0.008471819
38	0x3d03a301	0.032137875
39	0x3c532528	0.012887277
40	0x3d746d49	0.059674535
41	0x3d1fd137	0.039017882
42	0xbc9cefaa	-0.01915725
43	0x3d42a273	0.047518205
44	0xbc039f3d	-0.008033571
45	0x3b6df715	0.0036310602
46	0x3d429231	0.0475027
47	0x3badc947	0.005303535
48	0x3d101977	0.035180535
49	0x3d22138b	0.03956942
50	0x3cd62955	0.026142756
51	0xbca9d687	-0.020732177
52	0xbb58c023	-0.0033073507
53	0x3cb2356d	0.021753991
54	0x3cde6c5f	0.027151285
55	0xbc9c7193	-0.019097125
56	0xbd258ddd	-0.040418494
57	0x3d02b823	0.031913888
58	0x3b5cb429	0.003367672
59	0x3d0cc829	0.034370575
60	0xbbfa3922	-0.0076362053
61	0xbd16da05	-0.036829013
62	0xbaae43b0	-0.0013295319
63	0xbbb62da5	-0.0055596405
64	0xbd10a4f8	-0.035313576
65	0xbc2c55e5	-0.010518526
66	0x3d3097dc	0.043113574
67	0x3c817622	0.0158034
68	0x3cb7caf2	0.022435639
69	0xbd6d7829	-0.05797592
70	0x3c80485e	0.015659507
71	0xbc0d4a64	-0.008623693
72	0x3d186e23	0.03721441
73	0x3cf0f479	0.029413449
74	0xbd00d545	-0.03145339
75	0x3cae5b9f	0.021283923
76	0xbd3b7b0d	-0.045771647
77	0x3d4bd5f6	0.049764596
78	0x3c32391b	0.010877873
79	0xbb5e2f1b	-0.0033902589
80	0x3ca16901	0.01970339
81	0xbac16e69	-0.0014757636
82	0x3a39fef4	0.0007095181
83	0xbb298c5b	-0.0025871012
84	0x3d564ba0	0.052318215
85	0xbd23173f	-0.03981709
86	0x3d125214	0.035722807
87	0xbbb2cb20	-0.0054563433
88	0x3c5d6d14	0.013514776
89	0x38f4317a	0.000116440424
90	0x3cb69398	0.022287175
91	0x3cbedc7f	0.0232985
92	0xbd466886	-0.048439525
93	0xbd08fa52	-0.03344185
94	0x3d079d5f	0.033109065
95	0x3d6ed543	0.05830885
96	0x3d3d1f8c	0.046172664
97	0x3d15d2c6	0.036577962
98	0x3b1a47df	0.0023541374
99	0xbc6e47cc	-0.014543485
100	0xbd606153	-0.054780316
101	0x3c3acb5f	0.0114010265
102	0x3cd74f91	0.026283057
103	0x3b0443c0	0.0020181984
104	0x3d405742	0.046958216
105	0xbc4439a7	-0.011976636
106	0x3af5a86d	0.0018742211
107	0x3d2ed35a	0.04268203
108	0x3ce33b61	0.027738275
109	0x3d32332a	0.043505825
110	0x3cd322fa	0.025773514
111	0xbd0e3514	-0.034718588
112	0x3d8729df	0.06599783
113	0xbd043409	-0.032276187
114	0xbd109262	-0.03529585
115	0x3d3d7296	0.046251856
116	0xbb147781	-0.0022654238
117	0xbcc8886e	-0.024479117
118	0xbc9c0079	-0.019043194
119	0x3c2d5eb9	0.010581666
120	0x3d577cb9	0.05260918
121	0x37b32dd6	2.1359807e-05
122	0x3d100904	0.035164848
123	0xbcbdc15e	-0.023163494
124	0x39eb98cd	0.00044936538
125	0x3c729fae	0.014808578
126	0x3d207dd8	0.039182514
127	0x3d503186	0.05082848

network_body._body_endoder.seq_layers.2.weight f4 [128, 128]
0	0xbd762dc0	-0.060102224
1	0xbe0fe6ec	-0.14052933
2	0xbd20c352	-0.039248772
3	0xbc9e7a0a	-0.019345302
4	0x3e21e02a	0.15808168
5	0x3bedf18e	0.0072614616
6	0x3d92181f	0.07133507
7	0xbe37ae25	-0.17937525
8	0xbcdd378d	-0.027004028
9	0xbdbbd9a9	-0.09172375
10	0xbd08dd0c	-0.03341393
11	0xbcf04d3f	-0.029333709
12	0xbcbf116a	-0.023323733
13	0xbe07bd04	-0.13255697
14	0x3cb5c3a4	0.022188015
15	0x3dde123b	0.10843321
16	0xbd2b3616	-0.041799627
17	0x3d800869	0.06251604
18	0xbe20e415	-0.15712006
19	0xbdac2e34	-0.0840725
20	0xbe18590d	-0.1487772
21	0xbc96892d	-0.018375957
22	0x3b228ac8	0.0024801958
23	0xbe2ec2f7	-0.1706656
24	0x3d5bd35b	0.05366836
25	0xbd5418ba	-0.051781394
26	0xbe190ace	-0.14945528
27	0x3c8b4ed7	0.017005367
28	0x3e2d212d	0.16907187
29	0x3e29e743	0.16592126
30	0xbca1c0ef	-0.019745318
31	0xbe343073	-0.17596607
32	0x3c0c9ebd	0.008582768
33	0xbd78d166	-0.060746573
34	0xbd3368a9	-0.043800984
35	0xbd0a33bd	-0.033740748
36	0x3d928d78	0.07155889
37	0xbdae95a6	-0.08524637
38	0xbe0870f7	-0.13324343
39	0x3ddf8e9c	0.109158725
40	0xbd60700b	-0.054794353
41	0xbd2deb8a	-0.042460956
42	0x3cf6577e	0.030071016
43	0x3d328983	0.043588173
44	0xbbc320cb	-0.005954837
45	0xbe0f30f7	-0.13983522
46	0xbd820aa1	-0.063496836
47	0x3e2f0e1a	0.17095223
48	0x3d9d22f2	0.07672681
49	0xbe2eb265	-0.1706024
50	0x3d5386f5	0.051642377
51	0xbe2d938a	-0.16950813
52	0xbd077c1c	-0.033077344
53	0x3ddbd2a5	0.10733537
54	0x3bc5965b	0.0060298867
55	0x3de0e012	0.10980238
56	0xbc165e07	-0.009177691
57	0x3d54f529	0.051991615
58	0xbd9cb5a1	-0.076518305
59	0xbcc3d6ca	-0.02390613
60	0xbd6f1307	-0.058367755
61	0x3e1c02dd	0.15235467
62	0x3d7d00bf	0.06176829
63	0x3ddd6988	0.10811144
64	0x3b8c4c01	0.0042815213
65	0xbd847acf	-0.064687364
66	0x3db8997b	0.09013649
67	0xbc78093c	-0.01513892
68	0x3cd87406	0.026422512
69	0x3e209fdd	0.15685983
70	0x3c185eb8	0.009299926
71	0xbd2e6df7	-0.04258534
72	0x3d6bd3fd	0.057575215
73	0x3d51e22c	0.051241085
74	0xbcc88618	-0.024478003
75	0x3daa1538	0.083048284
76	0x3d4a69a1	0.04941714
77	0xbe0ed6f6	-0.13949189
78	0x3e6ae77c	0.22939867
79	0xbe31ec47	-0.17375289
80	0xbd747c6e	-0.059688978
81	0xbbdf5407	-0.0068154368
82	0xbd8eec44	-0.06978658
83	0x3d94cb72	0.072653666
84	0x3d34f000	0.044174194
85	0xbdd64a68	-0.104634106
86	0x3c0a24e6	0.008431649
87	0xbe25849b	-0.16163866
88	0xbe8765ab	-0.26444754
89	0xbd032a06	-0.0320225
90	0x3ba49759	0.005022925
91	0xbd262765	-0.040564913
92	0x3c5d84cd	0.013520432
93	0x3d3f23da	0.04666505
94	0x3d149861	0.036278132
95	0xbd48f889	-0.049065147
96	0x3ced839a	0.028993417
97	0x3cd2dad4	0.025739111
98	0x3d08e441	0.033420805
99	0xbd367ec0	-0.044554472
100	0x3d4dabf3	0.05021281
101	0xbd489ec9	-0.048979554
102	0x3d33a76e	0.043860845
103	0x3dc786f0	0.09742534
104	0x3d18823f	0.037233587
105	0xbd35545f	-0.044269916
106	0xbe0909d2	-0.13382652
107	0x3d371241	0.044695143
108	0xbd1c7efc	-0.03820704
109	0xbbc04972	-0.0058681304
110	0x3df99bde	0.121879324
111	0x3de807ca	0.11329611
112	0x3d4fc014	0.05072029
113	0x3d575592	0.05257184
114	0xbe3b381d	-0.18283124
115	0x3d3ba907	0.045815494
116	0x3c73cd17	0.01488044
117	0xbc7a1822	-0.015264543
118	0x3daaf2ef	0.08347117
119	0x3e266fbb	0.1625356
120	0x3d819f1a	0.06329174
121	0x3d9332b1	0.07187403
122	0xbe4b248c	-0.1983816
123	0xbd76762a	-0.060171284
124	0xbd7462eb	-0.059664648
125	0x3d3c3fba	0.045959212
126	0xbe09b06c	-0.13446206
127	0xbe07bb82	-0.13255122
128	0x3d617ef7	0.055052724
129	0xbd52d2f2	-0.051470704
130	0x3d5231b9	0.05131695
131	0xbe2c1cb1	-0.1680782
132	0x3e00d0c9	0.12579645
133	0x3d5e2386	0.054233097
134	0x3e0fc21f	0.14038895
135	0xbd8637f8	-0.06553644
136	0x3df691e6	0.12039547
137	0x3d6c0b13	0.05762775
138	0xbb06df88	-0.0020580012
139	0x3db03c51	0.086052544
140	0x3da21fee	0.07916246
141	0x3d1b92e1	0.03798187
142	0xbe3e03ba	-0.18556109
143	0xbd329b2f	-0.043605026
144	0x3dc1b964	0.094591886
145	0xbe002667	-0.1251465
146	0x3b539dca	0.0032290095
147	0xbd6804bf	-0.05664515
148	0xbd3fbe29	-0.04681221
149	0x3ca1050d	0.019655729
150	0xbe50c242	-0.20386603
151	0xbda9c577	-0.082896166
152	0xbddede4c	-0.108822435
153	0x3e176233	0.14783554
154	0xbd0f0ae7	-0.034922507
155	0x3d7b24d9	0.061314438
156	0xbda42ee0	-0.08016753
157	0x3b376393	0.0027982935
158	0x3df134bc	0.117776364
159	0x3e1fc4ae	0.15602371
160	0x3d9d2840	0.07673693
161	0x3d725c51	0.05917007
162	0xbde3867d	-0.11109636
163	0x3dae418b	0.08508595
164	0x3d8bbac1	0.0682273
165	0xbb7cbd59	-0.0038565008
166	0xbb937599	-0.0045001027
167	0xbd85318a	-0.065035895
168	0x3c9522af	0.018205015
169	0xbc32967f	-0.010900139
170	0x3d2341a1	0.03985751
171	0xbdb1e975	-0.086871065
172	0xbdfe7304	-0.12424281
173	0x3d4808c6	0.048836492
174	0xbd668922	-0.056283124
175	0xbde2b1b1	-0.11069048
176	0xbe2b5fcf	-0.16735767
177	0x3db376aa	0.08762868
178	0x3e050688	0.12990773
179	0xbd9c724b	-0.07638987
180	0xbc63be6e	-0.013900382
181	0x3a69c817	0.00089180603
182	0xbd39233f	-0.04519963
183	0x3d26504c	0.04060392
184	0x3c7be584	0.015374545
185	0x3de68a41	0.112568386
186	0xbd0c1eb1	-0.034208957
187	0x3d8d1978	0.068896234
188	0xbd0059a7	-0.0313355
189	0x3dcf12d7	0.10111015
190	0xbc3d702d	-0.011562389
191	0xbda76c50	-0.08174956
192	0x3d68cd97	0.05683669
193	0x3d7303e0	0.059329867
194	0x3c8b082d	0.016971672
195	0xbcc9b63c	-0.024623029
196	0x3c9bfb39	0.01904069
197	0xbd380f0a	-0.044936217
198	0x3cbd3109	0.02309467
199	0x3d9dc781	0.07704068
200	0xbe0da46e	-0.13832256
201	0x3dc197a2	0.0945275
202	0x3d975db7	0.073909216
203	0x3cee7407	0.02910806
204	0xbd67354e	-0.05644732
205	0xbd0915a0	-0.03346789
206	0x3d590d61	0.052991275
207	0x3c326d83	0.010890367
208	0x3e8473fa	0.25869733
209	0x3dfa7d77	0.12230962
210	0xbd722c71	-0.059124414
211	0x3da6c4b1	0.08142985
212	0x3e5612a6	0.20905551
213	0xbe34ec1c	-0.17668194
214	0x3be576c2	0.0070026824
215	0xbc26893d	-0.010164556
216	0xbd91c4d1	-0.07117618
217	0x3d7f17bb	0.06227849
218	0xbda73456	-0.08164279
219	0xbd528540	-0.05139661
220	0xbd42749f	-0.0474745
221	0xbdb266aa	-0.08710988
222	0xbde60d43	-0.11232998
223	0xbd26f76d	-0.040763307
224	0xbe1217b3	-0.14266853
225	0xbd6717f0	-0.056419313
226	0xbe2d74e7	-0.16939126
227	0x3d83cc5c	0.06435463
228	0x3dee8a3f	0.11647462
229	0x3beb8e9f	0.0071886326
230	0x3df2a3ed	0.118476726
231	0xbd8d85f7	-0.069103174
232	0xbddee4f3	-0.10883512
233	0xbc23955e	-0.009984342
234	0xbb96fa52	-0.004607477
235	0xbd5f6206	-0.05453684
236	0xbd34b805	-0.044120807
237	0x3d9e29ce	0.07722817
238	0xbbb88bcb	-0.005631899
239	0x3dad3334	0.08457032
240	0x3c78b22b	0.015179197
241	0x3d42ca0d	0.047555972
242	0xbdf1db45	-0.118094005
243	0xbe60756a	-0.2191979
244	0xbc9d30a5	-0.019188235
245	0x3d6c060e	0.05762296
246	0xbddc693b	-0.107622586
247	0x3ce7260f	0.02821639
248	0x3dc2575b	0.09489318
249	0x3da3a71a	0.079908565
250	0x3cf5b432	0.02999315
251	0x3e290f62	0.16509774
252	0x3dd221f1	0.1026038
253	0xbdddd8e7	-0.108323865
254	0xbc7f625c	-0.015587416
255	0xbba07549	-0.004896794

network_body._body_endoder.seq_layers.2.bias f4 [128]
0	0xbcba699a	-0.022755433
1	0x3d191891	0.037376944
2	0x3c6c6034	0.0144272335
3	0x3d34f974	0.04418321
4	0x3d6b1379	0.057391617
5	0xbce40a76	-0.02783702
6	0x3d1d7f8e	0.038451724
7	0xbccf58f6	-0.025310975
8	0x3d0d843c	0.034549937
9	0x3d2f87a8	0.04285398
10	0x3d25b61f	0.040456887
11	0x3d4f0327	0.050540116
12	0x3d7fea52	0.062479325
13	0x3c3db3c8	0.011578508
14	0xbc58dce3	-0.013236257
15	0x3d4d8115	0.05017193
16	0xbd00b065	-0.031418223
17	0x37f437da	2.9113075e-05
18	0x3ce9e9e5	0.028553912
19	0xbd0921e1	-0.033479575
20	0x3cb3d443	0.0219518
21	0x3d06af57	0.03288206
22	0x3ce58149	0.02801575
23	0x3cb07c4a	0.02154364
24	0xbcc5c1ff	-0.024140356
25	0x3d333c6b	0.04375879
26	0xbd003791	-0.031302992
27	0xbc3aa8c4	-0.011392776
28	0x3d66eebd	0.056380022
29	0x3ce5c6ec	0.028048955
30	0x3d20ae0f	0.039228495
31	0x3cdc7d62	0.026915256
32	0x3c63f4cc	0.013913345
33	0x3c149313	0.009068268
34	0xbc067795	-0.0082072215
35	0xbc1c05f9	-0.009522908
36	0xbc050888	-0.00811971
37	0x3d14b515	0.036305506
38	0x3d03f7ba	0.032218672
39	0x3d27a16d	0.040925432
40	0xbcf09147	-0.029366149
41	0x3d4f167e	0.05055856
42	0x3cf1dde0	0.029524744
43	0xbc96049b	-0.018312743
44	0x3cc7e455	0.02440087
45	0xbd168cec	-0.036755487
46	0xbd0eecaf	-0.034893688
47	0x3c830c62	0.015997116
48	0x3b0d9049	0.0021600893
49	0xbcd32dbb	-0.025778642
50	0xba839f10	-0.0010041911
51	0xbca55f50	-0.02018705
52	0xbcc51b76	-0.024060946
53	0xbcbb5421	-0.022867264
54	0xbc7c2849	-0.015390464
55	0x3c0b416b	0.008499484
56	0x3bf6bd80	0.0075299144
57	0x3d0a4ae3	0.033762824
58	0x3cace61a	0.021105815
59	0x3bc8f9cd	0.006133294
60	0xbcc12443	-0.023576861
61	0xbd06c2a9	-0.032900486
62	0x3d074d84	0.03303291
63	0xbbbb6c7b	-0.005719719
64	0x3cfcd890	0.030864984
65	0x3c48acf7	0.012248269
66	0xbcc6cbbb	-0.024267068
67	0x3c42400c	0.01185609
68	0x3d0a2073	0.033722352
69	0xbc4d1a68	-0.012518503
70	0xbc6b227b	-0.0143514825
71	0x3c841405	0.016122827
72	0x3bff1d16	0.0077854497
73	0xbc5e22ee	-0.013558133
74	0x3ce12219	0.02748208
75	0x3d03b7d3	0.03215773
76	0x3cb72e14	0.022360839
77	0x3c72938a	0.014805684
78	0x3d0b12ce	0.03395348
79	0x3c3aa052	0.011390762
80	0x3d323b93	0.043513846
81	0xbcd1abcc	-0.025594614
82	0x3d318320	0.04333794
83	0x3d1c4dbe	0.03816008
84	0xbbf86a58	-0.0075810365
85	0x3d4b3198	0.049607843
86	0x3d0de6c1	0.034643892
87	0x3cec0c0c	0.028814338
88	0x3cd40ce9	0.025885062
89	0x3c28eebf	0.010310828
90	0xbb0c5a27	-0.002141604
91	0x3c88f136	0.01671658
92	0x3bca0be6	0.006165969
93	0x3d4438d5	0.04790576
94	0xbb65c248	-0.0035058428
95	0x3ccff0c2	0.025383357
96	0xbb7f3a74	-0.0038944753
97	0xbcc4e74d	-0.024036074
98	0xbc94baf2	-0.018155549
99	0x3c2aca8b	0.010424267
100	0x3cabd3cf	0.020975022
101	0x3c52167d	0.012822744
102	0x3caac7b4	0.020847179
103	0xbacd64a7	-0.0015670256
104	0x3d4f4b54	0.050608948
105	0x3d134eac	0.0359637
106	0x3cb691ad	0.02228626
107	0x3d266ec7	0.04063299
108	0x3cfa32db	0.030541828
109	0xbb9991ab	-0.0046865544
110	0x3a924922	0.0011160711
111	0x3c2bd243	0.010487142
112	0x3ca99228	0.020699576
113	0x3d520e03	0.051282894
114	0x3cd447b3	0.025913095
115	0x3c1d87d2	0.009614902
116	0x3d34e89f	0.044167157
117	0xbc87c21d	-0.016572053
118	0xbcfb2c49	-0.030660765
119	0xbc08018a	-0.008301148
120	0xbcb3658a	-0.021899004
121	0x3d3aa145	0.045563955
122	0x3d3da9cd	0.046304513
123	0x3bcb6877	0.0062075215
124	0xbcb5e8fd	-0.022205824
125	0xbc5263ca	-0.012841174
126	0x3c7cbecd	0.01542635
127	0xbc92be5c	-0.017913036

action_model._continuous_distribution.log_sigma f4 [1, 3]
0	0xbc4f1f85	-0.012641792
1	0xb895e0ce	-7.146747e-05
2	0xbc33eac2	-0.010981264

action_model._continuous_distribution.mu.weight f4 [3, 128]
0	0xbd113e29	-0.03545967
1	0x3c7c3050	0.015392378
2	0x3b97c6bc	0.0046318453
3	0x3cbefabe	0.023312923
4	0x3cc3250c	0.023821376
5	0xbd823153	-0.06357064
6	0x3d12531e	0.035723798
7	0xbc9dbacc	-0.01925411
8	0x3d7bc0bc	0.061463103
9	0x3c17a57d	0.009255764
10	0x3d820920	0.06349397
11	0x3d2341a4	0.03985752
12	0x3d084cc2	0.033276327
13	0xbc7274c1	-0.014798344
14	0xbca946fa	-0.020663727
15	0x3d229f3b	0.039702635
16	0xbd0f0c97	-0.034924116
17	0xbd0235dc	-0.031789646
18	0x3c5dbe1e	0.013534097
19	0xbd6e8f6c	-0.058242247
20	0x3ca831f8	0.02053164
21	0x3d34786f	0.044060167
22	0x3c2e65a9	0.010644355
23	0x3b9aad20	0.004720345
24	0xbd673f1e	-0.056456678
25	0x3d22e9c4	0.039773718
26	0xbd01c922	-0.031685956
27	0xbcf51c1d	-0.029920632
28	0x3cc6f219	0.024285363
29	0x3c4d56af	0.012532874
30	0x3cd10a9d	0.025517756
31	0xbc0e2f16	-0.008678218
32	0xbd7e40b9	-0.062073443
33	0x3c50db63	0.012747618
34	0xbbccede2	-0.006253944
35	0xbd5bf29b	-0.053698163
36	0xbd48f12f	-0.049058136
37	0x3cdf8174	0.027283408
38	0x3a1ddb0a	0.0006021714
39	0x3d0c0ddc	0.034192905
40	0xbd357591	-0.044301573
41	0x3d5cdba4	0.053920403
42	0x3c9ac992	0.018894944
43	0xbd4c715a	-0.049912788
44	0x3ce17073	0.02751944
45	0xbd881fbb	-0.06646677
46	0xbd9c85b6	-0.07642691
47	0xbd3fb59b	-0.04680405
48	0xbc93c3bd	-0.018037671
49	0xbcbdaaec	-0.023152791
50	0xbd4dc833	-0.050239753
51	0xbd5b838d	-0.053592253
52	0xbd142387	-0.036166694
53	0xbcc0cb72	-0.02353451
54	0xbc9df5c5	-0.019282231
55	0x3cacbc82	0.021085981
56	0xbd407f83	-0.046996605
57	0xbb99ca34	-0.004693294
58	0x3c2ee018	0.010673545
59	0xbccc0d1c	-0.024908595
60	0xbd01ec5a	-0.031719543
61	0xbd5c21cb	-0.053743165
62	0x3cf771b2	0.030205581
63	0xbb638b21	-0.0034720378
64	0x3be3d754	0.0069531593
65	0x3cceb073	0.025230622
66	0xbbc2f89b	-0.0059500462
67	0x3c3efc5f	0.01165685
68	0x3a25b5fc	0.0006321368
69	0xbcbe58ec	-0.02323576
70	0xbbde4794	-0.006783435
71	0x3c1eb784	0.009687308
72	0xbc27fd9c	-0.010253336
73	0xbcdffbce	-0.02734175
74	0x3cfc1139	0.030769931
75	0x3d81fbbe	0.06346844
76	0xbd113b47	-0.035456922
77	0x3c3f73f6	0.011685362
78	0x3d6b91ef	0.05751222
79	0xbbad3b7d	-0.0052866326
80	0xbc4fca93	-0.012682575
81	0xbc823010	-0.015892059
82	0x3ce8517e	0.028359171
83	0x3cc6d4c1	0.02427137
84	0xbc715607	-0.014729983
85	0x3d08e214	0.03341873
86	0x3cb7fab9	0.022458421
87	0xbbcdbf74	-0.0062789265
88	0x3cc2157c	0.023691885
89	0xbd99ef9f	-0.07516407
90	0xbd48d5bb	-0.049031954
91	0x3cac8efc	0.021064274
92	0xbccbd903	-0.024883753
93	0x3db6c7c9	0.08924825
94	0x3c387220	0.011257678
95	0xbd0505d2	-0.032476254
96	0xbc280426	-0.010254895
97	0xbd3ad973	-0.045617532
98	0xbd2ee9d1	-0.042703453
99	0x3a7ba88e	0.0009600007
100	0x3c9b4f60	0.018958747
101	0x3cca9394	0.024728574
102	0x3c87c7c1	0.016574742
103	0xbccab3ad	-0.02474388
104	0x3d394382	0.045230396
105	0x3d48b891	0.04900414
106	0x3cdd8d99	0.027045058
107	0x3d43daa1	0.047815923
108	0xbbf87a39	-0.0075829295
109	0xbd898014	-0.06713882
110	0xbc02db27	-0.00798682
111	0xbd155c48	-0.03646496
112	0xbc73cb25	-0.014879976
113	0x3d1e24fb	0.038609486
114	0x3c7afaf3	0.01531862
115	0xba572ab3	-0.0008207962
116	0x3d2bde1e	0.041959874
117	0xbc9d0ffa	-0.019172657
118	0xbd731a51	-0.05935127
119	0xbd9c8194	-0.076419026
120	0xbd902b2f	-0.070394866
121	0x3baef4b6	0.0053392304
122	0x3d72b1eb	0.059251707
123	0xbd153c67	-0.036434557
124	0xbcf0e39e	-0.029405411
125	0xbd150e25	-0.036390442
126	0x3cd31e2d	0.025771225
127	0xbd27f14e	-0.04100161
128	0xbc5ecfa0	-0.013599306
129	0x3baad671	0.0052135517
130	0xbd9a5789	-0.07536227
131	0x3c55522e	0.013020081
132	0x3d6ebe84	0.05828716
133	0xbb4d18ef	-0.003129538
134	0x3d73e177	0.059541192
135	0xbc947605	-0.018122682
136	0xbbfb9629	-0.0076778126
137	0x3c1fe2b1	0.009758637
138	0xbc39eef7	-0.011348478
139	0xbd82938d	-0.06375799
140	0x3d77b642	0.06047655
141	0xbc1a51b4	-0.009418894
142	0xbd0703fb	-0.03296278
143	0x3c1df82b	0.009641687
144	0xbd0ba1bb	-0.034089785
145	0xbc935b61	-0.017987909
146	0x3d1d70d1	0.03843767
147	0xbcb83f01	-0.02249098
148	0xbcb5073b	-0.022098174
149	0x3c46b097	0.012127063
150	0x3d73eb55	0.059550602
151	0x3cafeeab	0.02147611
152	0xbcecdfdb	-0.028915336
153	0x3ce83956	0.028347652
154	0xbca65f7f	-0.020309208
155	0xbc4e949e	-0.012608675
156	0x3d4c7ff2	0.049926706
157	0x3cbfc728	0.023410395
158	0x3d181936	0.037133418
159	0x3c88c720	0.016696513
160	0x3b86aa5b	0.0041096634
161	0xbd247176	-0.040147267
162	0xbbc9579c	-0.006144477
163	0xbbcdcb1c	-0.006280316
164	0x3d250a55	0.040293057
165	0xbbcaa7a0	-0.0061845332
166	0x3d5daf83	0.05412246
167	0xbc6d7fce	-0.014495803
168	0xbccc13da	-0.02491181
169	0xbc4776b7	-0.0121743
170	0x3ccfdd6b	0.025374135
171	0xbd09d00b	-0.03364567
172	0xbba80d8e	-0.005128569
173	0xbcfd8a5d	-0.030949766
174	0xbc8c2ec7	-0.017112149
175	0xbc71a00d	-0.014747632
176	0x3d2edb3c	0.042689547
177	0xbcdf787c	-0.027279131
178	0x3ce0c308	0.027436748
179	0xbbca4cfb	-0.0061737276
180	0xbb705bd5	-0.003667583
181	0x3af34c4b	0.0018562166
182	0xbc017be4	-0.007903073
183	0xbd2c7bda	-0.0421103
184	0x3d43e467	0.047825243
185	0x3d4476c9	0.047964845
186	0x3b667c4e	0.0035169306
187	0x3c96e2e5	0.018418739
188	0x3c0074e1	0.007840366
189	0xbbc51742	-0.0060147354
190	0xbc43d864	-0.011953447
191	0x3cb0f429	0.0216008
192	0xbc3a80c8	-0.011383243
193	0xbce10606	-0.027468693
194	0xbc7dd8ed	-0.015493614
195	0xbc8f655f	-0.017504392
196	0x3d12736c	0.035754606
197	0x3c0b0ee4	0.008487437
198	0xbcb3b0b0	-0.021934837
199	0x3d0d98f9	0.034569714
200	0x3d43c151	0.047791783
201	0xbd3f281a	-0.046669103
202	0xbacba1cc	-0.001553589
203	0x3c6ed810	0.0145778805
204	0x3d87c1de	0.06628774
205	0xbcd42350	-0.025895745
206	0xbd2f03d3	-0.042728256
207	0xbce1d92c	-0.027569376
208	0x3d8f500e	0.06997691
209	0xbca0c200	-0.019623756
210	0xbcbac357	-0.022798223
211	0x3d10bdfa	0.035337426
212	0xbcef5788	-0.029216543
213	0x3c5f3a04	0.013624672
214	0x3d31856b	0.043340128
215	0x3d4db008	0.050216705
216	0xbd689b46	-0.056788705
217	0xbbaef7b2	-0.005339586
218	0x3cae26c6	0.021258723
219	0xbc14344e	-0.0090456735
220	0x3c61a712	0.013772743
221	0x3c9e05d1	0.019289883
222	0xbd91c4c2	-0.07117607
223	0x3c6b2047	0.014350957
224	0xbc19bba5	-0.009383117
225	0xbd283497	-0.04106578
226	0xbcb02af2	-0.021504853
227	0xbc07ae41	-0.008281291
228	0xbd8a056b	-0.06739315
229	0xbcfe329c	-0.031029992
230	0xbd757cbf	-0.05993342
231	0x3d68160e	0.056661658
232	0x3d540f4a	0.051772393
233	0x3c31ed94	0.010859866
234	0xbb553bfc	-0.0032536974
235	0xbd1dd762	-0.038535483
236	0xbc287116	-0.010280868
237	0xbda235a5	-0.07920388
238	0xbd2d908d	-0.042374182
239	0x3d55829b	0.05212651
240	0xbba2792d	-0.004958293
241	0xbbbea6cc	-0.0058182236
242	0x3c5d8964	0.013521526
243	0xba85e854	-0.0010216334
244	0x3cd79fc6	0.026321303
245	0x3c9ce467	0.01915188
246	0xbcdbdd19	-0.026838826
247	0xbd129d84	-0.03579475
248	0x3c7a7f12	0.015289085
249	0x3d0b4717	0.034003343
250	0x3cdd985e	0.027050193
251	0xbcc3d94c	-0.023907326
252	0xbcbbdee1	-0.022933425
253	0xbcace0d1	-0.021103295
254	0x3bd80ebd	0.006593554
255	0xbb99cfaa	-0.004693945

action_model._continuous_distribution.mu.bias f4 [3]
0	0x3d1b103b	0.037857275
1	0x3c82cf92	0.015968118
2	0x3a459bec	0.0007538188
