results/Test9/MoveToTarget.onnx (onnx, 75612 bytes, 7 tensors)

network_body._body_endoder.seq_layers.0.weight f4 [128, 6]
000000 cb fd 1e 3c 5b a9 06 bf ca 14 d1 3d 08 f0 94 3e
       0.009704064 -0.52602166 0.10209043 0.2908938
000010 24 66 cf bd 0a bb f6 be 83 bd b4 be 15 c8 1f bf
       -0.10126904 -0.48189574 -0.35300836 -0.62414676
000020 7c df cd 3d 6c 74 17 3f 64 ce 6b 3e c5 76 d3 be
       0.10052392 0.5916202 0.2302795 -0.4130155
000030 19 88 1a bf bd c5 34 3e e1 b8 b8 bf ed 70 40 3e
       -0.6036392 0.17653556 -1.443142 0.18793078
000040 f6 28 29 3f df 8a 05 bf 76 ce 18 be 66 a5 67 3e
       0.66078126 -0.52165025 -0.14922509 0.22621688
000050 69 f6 ff 3e 64 7e c8 3d 34 44 a0 be 23 41 91 be
       0.49992684 0.09789732 -0.31302035 -0.28370008
000060 5a 2c bc be 6e 33 35 bf 50 bc 3b 3f bb 7c 01 be
       -0.36752588 -0.707816 0.7333422 -0.12645237
000070 af 24 a9 be 7a 03 78 be 4b 9d 01 be ed 16 1b bf
       -0.330358 -0.24220076 -0.12657659 -0.60581857
000080 72 67 8b be 4a d0 0b be 13 f7 89 be 3c f6 b7 be
       -0.2722736 -0.13653675 -0.26946315 -0.3593005
000090 9a 40 8e be 95 65 ad 3d 30 7f 4a 3d fb 52 95 3e
       -0.27783662 0.08466641 0.0494377 0.29164872
0000a0 9e c5 15 bf b4 61 a7 be 88 91 fe be a5 16 1f 3f
       -0.58504665 -0.3269173 -0.49720407 0.6214393
0000b0 ca e8 1b bf c9 5b 4c 3e f4 a9 42 3f f5 97 6f 3e
       -0.6090208 0.19956888 0.7604058 0.23397811
0000c0 1f c6 20 bf 13 af 02 be 1c d7 b4 3e cd 61 fe 3d
       -0.6280231 -0.12762098 0.35320365 0.12420998
0000d0 07 91 a7 3d 5b 91 89 be 3d d7 b7 3d 70 ba c3 3e
       0.08181959 -0.2686871 0.089766 0.38228178
0000e0 83 42 c9 be 90 d1 36 be 29 09 9c 3e c2 c0 64 3e
       -0.39308557 -0.17853379 0.3047574 0.22339156
0000f0 53 7a f1 bd 47 fc de be 31 94 11 bd 80 75 50 3f
       -0.117909096 -0.43551847 -0.035541717 0.8142929
000100 6d 46 85 be ee 77 1f be 9c 67 18 be ef cb fc be
       -0.26030293 -0.15573093 -0.14883274 -0.4937434
000110 c7 d4 25 bf 95 7d e7 bd 06 b5 0f 3e de 29 94 3e
       -0.647778 -0.1130325 0.14033899 0.28938192
000120 cb 1a fb 3e 31 7b e0 3e 12 20 d0 3e d8 ae 6a be
       0.4904388 0.43843988 0.40649468 -0.2291826
000130 c4 b9 97 bf 88 29 ad 3e b0 78 88 bf 13 a9 6f 3e
       -1.1853566 0.33820748 -1.0661831 0.2340434
000140 90 8e 8a 3e db e4 b2 3d a3 55 c5 3d 4d 5d ca 3d
       0.27061892 0.08735057 0.096354745 0.09881077
000150 06 ff b8 be 8a f5 86 3e d1 a7 b8 3e e8 c1 1b be
       -0.36132067 0.26359206 0.36065534 -0.15210688
000160 33 50 14 bf c1 35 43 3f 29 fe 83 bd ca 27 e9 be
       -0.57934874 0.76253897 -0.064449616 -0.4553817
000170 bf 54 19 bf f4 6d 77 bf a4 33 3a 3f 65 6b 15 be
       -0.5989494 -0.9665215 0.7273505 -0.14591749
000180 bb 8c 4c be 03 f9 8b 3d ac 34 7a 3e 7a fb f2 be
       -0.1997556 0.068346046 0.24434155 -0.47457486
000190 13 1a 29 3e 79 b7 46 3e 5a 7b 9c 3e c3 06 91 be
       0.16513853 0.19405927 0.3056286 -0.2832547
0001a0 36 8c 61 be c5 17 1a 3f 62 5b bc 3e d6 50 f3 3e
       -0.22026142 0.6019252 0.3678847 0.4752261
0001b0 56 80 95 3e 2f ff 49 3f 05 8f 4b 3f ba 72 19 bf
       0.29199475 0.78905004 0.79515105 -0.59940684
0001c0 f7 ea 9e 3d 70 79 e4 3e 56 c4 c6 be 46 ad 35 3f
       0.0775966 0.446239 -0.38821667 0.7096752
0001d0 00 47 80 bd 89 0e 33 bc f2 10 12 be 75 86 04 3f
       -0.06263542 -0.010928758 -0.14264277 0.51767665
0001e0 5b a3 24 bf af 62 b1 be 3a 00 dd bd e9 c1 1b bf
       -0.6431176 -0.34645602 -0.10791059 -0.6084276
0001f0 89 b2 c2 3e e9 b5 4a bf bd f3 a1 3e 12 81 80 be
       0.38026837 -0.7918382 0.3163127 -0.25098473
000200 1a c4 78 3e 82 85 6b 3e c0 cc fd bd 8f 0f 34 bf
       0.24293557 0.23000148 -0.123925686 -0.7033624
000210 dc b2 6c be db 5b 9f 3e 62 81 97 3c f2 61 25 be
       -0.23115104 0.31124768 0.018494312 -0.16150644
000220 66 d4 fb bd 17 b4 4d bf 06 bc 8f 3d 87 37 e2 be
       -0.12296371 -0.8035292 0.070182845 -0.4418299
000230 31 b7 f2 3d 4a 5a 9c 3e 55 74 a6 be 50 5e 08 3a
       0.11851347 0.30537635 -0.3251063 0.0005202042
000240 04 6a c4 be e3 c9 5e 3e 10 41 03 3e ba 0d 06 3f
       -0.38362134 0.21756701 0.12817788 0.52364695
000250 a0 3e 54 3e ad 8a 8a be 52 3a ba be 40 02 47 be
       0.20727015 -0.27058926 -0.3637262 -0.19434452
000260 a2 e3 21 3e e4 68 18 3e 76 99 89 bf 53 88 b8 be
       0.15809491 0.14883763 -1.0749958 -0.36041507
000270 65 3d 7f be 59 a6 f6 3e 83 a9 7e 3d d4 96 42 3d
       -0.24925764 0.48173788 0.062173378 0.047507122
000280 0e 9e f4 3e 1d 2f 1a 3f 7e a7 12 be 7c e4 d2 3d
       0.47776836 0.6022814 -0.14321706 0.10297486
000290 47 68 93 be 95 b0 9c be c4 84 d0 be b0 c4 21 bf
       -0.28790495 -0.3060347 -0.40726292 -0.63190746
0002a0 c2 8d f3 be 74 cd fa 3e 68 38 0c bf 05 d9 33 3e
       -0.4756909 0.48984873 -0.5477357 0.17563255
0002b0 61 48 0c be 10 e2 cc 3d 40 b2 b6 be a9 af 92 3e
       -0.13699485 0.100040555 -0.3568287 0.28649643
0002c0 87 d6 97 be c3 00 b5 bc e1 61 40 3f 3b 75 8a 3c
       -0.2965586 -0.02209509 0.7514935 0.016901603
0002d0 04 f7 06 3f 9b c7 28 be 57 34 b6 3e 6d a1 93 3d
       0.52720666 -0.16482393 0.35586807 0.07208524
0002e0 d2 c8 c5 3d eb 19 bb bc 64 35 93 be 45 ac 09 3f
       0.09657444 -0.022839507 -0.2875167 0.5377849
0002f0 5c cf 1a 3d 21 7b 2d 3e 1c 3f 62 bd 4f a0 ff bd
       0.03779541 0.16941501 -0.055235967 -0.12481748
000300 83 84 f1 3e de 64 a4 3d a3 c6 e4 be 46 f8 0f 3f
       0.4717141 0.080270514 -0.44682798 0.5623821
000310 31 80 cb 3e 18 3d 11 be 3a 2e 9f be 81 d5 2a 3a
       0.3974624 -0.14183462 -0.31089956 0.00065168
000320 b7 d8 5b be 51 bf f5 3e 33 3f a8 be 8c ed 32 3f
       -0.21469389 0.47997525 -0.32860717 0.6989372
000330 ed c9 bf 3d b3 01 07 bf 1f d0 15 be d9 78 1d 3f
       0.09364686 -0.5273697 -0.14630173 0.61512524
000340 d9 0a 62 3f 46 f1 2d 3c e2 0d f0 3e c8 12 d3 3e
       0.882978 0.010616606 0.46885592 0.41225266
000350 c7 d3 e1 be 2d 57 da be 52 dc a9 be 2f 5d 8d 3e
       -0.44106886 -0.42644635 -0.33175904 0.27610156
000360 a6 b1 e9 3d 72 f3 a4 be 07 e7 36 3f fe 70 66 3f
       0.11410837 -0.32216984 0.7144627 0.9001616
000370 a0 95 32 3f 62 1b f7 be 46 f3 df 3d 4e 24 3f 3f
       0.6975956 -0.4826308 0.109350726 0.7466477
000380 57 b9 2e 3f b5 b1 9e 3f ef 9b fc 3e dd 11 31 3e
       0.68251556 1.2397982 0.49337718 0.1729197
000390 be 56 c8 be ec ae 01 bd c2 8c 23 3e 4b f0 0d bf
       -0.3912868 -0.03166096 0.15971664 -0.5544478
0003a0 2a bc 80 3e 5f 96 31 bf 55 c2 55 bf d9 b7 15 bd
       0.25143558 -0.69370073 -0.8349965 -0.036552284
0003b0 3a 59 f7 be 46 91 32 3d c0 2f 32 bf 7a c4 a6 be
       -0.48310262 0.043595575 -0.6960411 -0.32571775
0003c0 87 c3 17 bd 77 91 10 3f 5d 5d b4 be 94 b5 44 bf
       -0.037051704 0.5647196 -0.3522748 -0.76839566
0003d0 6e b6 24 3f 1f 0f 0b 3f 1c b9 69 3e c6 12 02 bf
       0.64340866 0.5431995 0.2282452 -0.50809896
0003e0 97 05 ef 3e 5f 60 1f bf d7 d0 8b 3e 03 35 8a be
       0.46683952 -0.62256426 0.2730777 -0.2699357
0003f0 45 26 d9 3e 2b f7 92 be 3b b2 40 bf 9d ce 27 bf
       0.4241201 -0.287042 -0.7527196 -0.6554964

network_body._body_endoder.seq_layers.0.bias f4 [128]
000000 bb 8a 97 3b b2 45 b5 3b 71 85 9f bb 48 75 10 3c
       0.0046246923 0.00553199 -0.0048682024 0.0088170245
000010 1f ab 3c 3c af 2d 69 bc d0 41 3a 3c 8c 9f 50 bb
       0.011515408 -0.014232083 0.01136823 -0.0031833379
000020 ec 50 87 3c 5f 52 ac 3b f4 ec 9d bb 73 b4 c0 bb
       0.016518079 0.005258843 -0.004819507 -0.005880886
000030 e1 c6 c5 3b 6b b4 2d 3a a8 c9 b0 3b fa 4f b2 bb
       0.006035671 0.00066263106 0.005395133 -0.005441663
000040 31 ab dd 3b 64 68 09 3b 38 ba d3 b9 b3 2d 0c bb
       0.0067647924 0.0020966763 -0.000403838 -0.0021389544
000050 33 74 35 bc d0 18 99 ba ba d8 fd bb 6c 3c 4b 3c
       -0.011075067 -0.0011680368 -0.007746783 0.012404542
000060 75 90 32 3c 7a 56 c2 bb d4 8e f0 3b ec 04 52 bb
       0.010898699 -0.005930719 0.007341245 -0.003204639
000070 52 b4 bd bb 83 02 1f 3c ab e4 fa ba e6 2a c5 3b
       -0.005789318 0.009705189 -0.0019141635 0.006017077
000080 37 e8 38 bc b2 4e 96 3a 1c d6 26 bb b9 93 cb 3a
       -0.011285833 0.0011467545 -0.002545721 0.0015531696
000090 17 47 4b 3b 00 49 86 ba 7d 44 32 bb 42 0c 51 3b
       0.0031017715 -0.0010245144 -0.0027201467 0.0031898175
0000a0 a8 d8 70 39 61 d4 00 bc 90 de c7 bb 29 05 af 3a
       0.00022968894 -0.007863135 -0.0060995296 0.0013352978
0000b0 ee ac 33 3c 61 58 78 3b 1d da d5 3a e1 59 39 bb
       0.010966523 0.0037894475 0.0016315613 -0.0028282332
0000c0 ca db 54 3c ee 3c a0 bb e0 eb ac 3b 8d 00 56 3c
       0.012991855 -0.004890076 0.005277142 0.013061655
0000d0 12 69 66 3c 51 56 6d bb 2a 05 e3 3a 00 c0 fc 39
       0.014063137 -0.0036214779 0.0017320265 0.00048208237
0000e0 ec 85 14 bb dd cc 0b bc 69 9a 1d 3b a7 dd 2c 3b
       -0.0022662831 -0.00853273 0.0024048334 0.0026377232
0000f0 fb 60 c7 3b 7f 89 c3 3b 2a d0 4d bb 98 5a ca bb
       0.006084559 0.0059673185 -0.0031404593 -0.0061753504
000100 65 e2 49 3b 94 f7 d6 b8 92 67 0d 3c 1e 75 8a bb
       0.0030805108 -0.0001025043 0.00863065 -0.0042253872
000110 1a 15 1e bb 54 2e ce ba 5b b6 35 3b a2 5c 5c bc
       -0.0024121464 -0.001573036 0.00277271 -0.01344982
000120 5d 28 d0 3a 7a 6d 0d 3c 78 06 5a bc a5 96 aa 3a
       0.001588117 0.008632058 -0.013307206 0.0013014866
000130 f2 e8 08 3c 04 f4 04 bc cd fa b1 3b fa c2 e9 3b
       0.00835632 -0.0081148185 0.005431509 0.0071338387
000140 19 4b 1d bc c8 03 e6 3b de 54 bf 3b 7f de f1 bb
       -0.009600424 0.0070194937 0.0058389744 -0.00738126
000150 e2 e0 ab 3a 6a 99 57 ba 7e 96 3d 3c dd 53 4f 3b
       0.0013113285 -0.00082244596 0.011571525 0.003163568
000160 8a 70 5f 3c fc 0e 58 3b b7 fe 04 bc 19 88 c7 3b
       0.013637671 0.0032967916 -0.008117369 0.006089222
000170 07 4f d7 3b 0d 8c dc 3b d8 42 04 3c f6 d8 06 bb
       0.0065707 0.0067305625 0.008072577 -0.0020576096
000180 45 22 52 3c 97 ee 0b bc 19 8d 66 bc cc f1 12 3b
       0.012825553 -0.008540771 -0.014071726 0.0022421954
000190 f0 78 02 bb aa 85 8b 3a d0 10 e2 bb 88 f9 d0 bb
       -0.001990851 0.0010644693 -0.006898977 -0.0063774027
0001a0 6a b3 d6 bb 27 91 10 3b 10 6f 43 bc 2d 7e cf bb
       -0.0065521495 0.0022059174 -0.011928335 -0.00633218
0001b0 0d b6 24 bb 8a 8c ba bb 72 f0 25 3c ba 90 99 3b
       -0.0025132925 -0.005693023 0.010128127 0.004686442
0001c0 ad 47 40 3b 32 ec ab bb f7 b7 b5 bb ad 02 fc 3b
       0.0029339597 -0.0052466625 -0.005545612 0.0076907487
0001d0 1e 9a e4 3b 4e 66 c7 3b 15 0b 5e 3c 15 18 fc 3b
       0.00697638 0.0060851937 0.013552447 0.0076933005
0001e0 80 3f 9e bb f8 3b aa bb 34 1a c3 bb 90 d5 c6 ba
       -0.004829347 -0.005195137 -0.0059540514 -0.0015169848
0001f0 55 ef 4d 3b 9d 9f 84 3a 74 8a e3 3b 75 28 04 bb
       0.003142317 0.0010118369 0.006943995 -0.0020165716

network_body._body_endoder.seq_layers.2.weight f4 [128, 128]
000000 9d d7 98 bc 24 e2 3c 3e a8 65 fc 3d a0 1e 6a bd
       -0.0186575 0.18445641 0.12324077 -0.057158113
000010 7f a2 d3 bd ed ec a0 3c 21 f3 a3 3d b6 c4 97 bc
       -0.10333728 0.019644225 0.080053575 -0.018526416
000020 bf 8f b6 3c 27 6b 0e be b4 1c 5a 3d f5 1b a1 3d
       0.02228534 -0.13908063 0.05325003 0.078666605
000030 83 cc 91 bd 4e 85 6e bc f9 c0 4a be 85 6e 0a bd
       -0.07119086 -0.0145581495 -0.19800176 -0.033796806
000040 0d cb 80 3d a2 dd 27 be 36 74 16 bd dc 7d cd bb
       0.06288729 -0.1639314 -0.03673192 -0.006271107
000050 84 66 4d bc 4f 52 00 3e 0b 24 12 3e bb 5f 11 be
       -0.012536649 0.12531398 0.14271562 -0.14196675
000060 ef e6 a9 bd 08 8a 74 3d 63 61 ea bc b0 9f 7e bc
       -0.08296 0.05970195 -0.02861089 -0.015541002
000070 e9 f3 7b 3d d2 7c 9c 3d d0 42 b7 bc ef fc 45 3d
       0.061511908 0.07640995 -0.022370726 0.04833692
000080 02 56 0b bd 47 91 2c 3c e1 b7 05 be 36 08 66 3e
       -0.03401757 0.010532684 -0.13058425 0.2246407
000090 7f f9 0d 3e 23 21 c6 3b af 3c 8d 3c 16 b3 fa 3c
       0.13864706 0.0060464307 0.01724085 0.030602973
0000a0 d2 c6 7e bd 02 3e 16 bd b7 2e 02 bc 99 9f 93 bb
       -0.06220133 -0.03668023 -0.007945708 -0.0045051095
0000b0 4c 9e fc 3c d5 63 09 3e ac c6 16 3d a6 ca 54 3d
       0.0308372 0.13416989 0.036810562 0.051951073
0000c0 a1 55 2d 3e 8b 59 5a be 53 99 21 be d8 cb 82 be
       0.16927196 -0.2132322 -0.15781145 -0.25546145
0000d0 12 a6 0f 3c b1 09 a5 bc d2 b5 40 bd 9e ba 94 bd
       0.008767622 -0.020146223 -0.047048397 -0.07262157
0000e0 1c 67 c4 bc 07 74 65 be d7 6c b8 bd c9 43 34 3e
       -0.023974948 -0.22407542 -0.090051346 0.17603983
0000f0 60 8a 9e 3d c3 1f 24 3d be 3b 3f 3c 41 12 23 bc
       0.07741237 0.040069353 0.0116719585 -0.009953083
000100 f1 4e 1b 3e 9f 0b ef bd 39 f0 a2 bc ce c4 19 bd
       0.15166833 -0.116721384 -0.019889938 -0.037541203
000110 f7 2e 64 3d 80 79 13 3d e0 3b 37 be 5e 31 4d 3d
       0.05570885 0.036004543 -0.17893934 0.05009591
000120 47 b9 f5 3d b4 42 eb 3c a3 16 bf bd ac 52 24 bd
       0.119982295 0.02871833 -0.093304895 -0.040117905
000130 06 8b 4b bc 87 90 f2 bc 8e 9f b0 3d bf f6 f6 3c
       -0.0124232825 -0.029609932 0.08624183 0.030146955
000140 bb bf 4c bd b3 0b cc bd e1 62 dc 3b 25 f1 09 bd
       -0.049987536 -0.09963169 0.0067256545 -0.03367724
000150 34 62 cf 3d 94 45 da 3d 2d f1 ff 3b 18 c4 72 3d
       0.10126153 0.10657802 0.007810733 0.05926904
000160 12 06 09 3d 2b 3a ae bd 4f 25 f6 bd 91 57 a2 3d
       0.033453055 -0.085071884 -0.12018835 0.07926858
000170 39 58 ef bc 62 7a c5 3d 10 50 fd bc 43 b0 1c bd
       -0.029216873 0.09642483 -0.030921966 -0.038254034
000180 b8 e9 32 3d d3 61 02 3e 5b 31 11 3d f4 10 3d be
       0.043679923 0.1273263 0.03544746 -0.18463498
000190 48 45 81 bd b0 93 1a 3e 80 85 5b 3c f4 5d 64 3d
       -0.063120425 0.15095401 0.013398528 0.055753663
0001a0 44 85 64 bd 34 7f 14 3e 9b e4 04 be 98 2d a8 bc
       -0.055791155 0.14501649 -0.12977831 -0.020529553
0001b0 e0 66 26 3d bf 05 f1 3d 11 01 01 be c6 0b a5 bd
       0.040625453 0.11768674 -0.12598063 -0.08058886
0001c0 f4 03 35 be 3c a5 60 3d 20 66 22 bd 56 b6 f9 3b
       -0.17677289 0.05484508 -0.039648175 0.007620613
0001d0 42 52 b5 bd cc c5 10 3e 84 e8 e0 bd e7 af 48 bd
       -0.0885358 0.14137954 -0.10981849 -0.04899588
0001e0 d5 87 8f bc 8f f3 ab bc 7c 5c a9 bc af 02 f4 3d
       -0.017520824 -0.020990161 -0.020673983 0.11914574
0001f0 88 fc c8 bc 87 15 66 3d ab a3 0f be bd 74 e8 bd
       -0.024534479 0.056172874 -0.14027278 -0.11350391
000200 1b a9 88 3c b9 27 00 be ce b0 ae bc 77 e8 9c 3d
       0.016682198 -0.12515153 -0.021324541 0.07661527
000210 e2 db 89 3d 91 e6 bf bd bc 7e e4 bd 4a 65 5c 3d
       0.067313924 -0.09370149 -0.11156985 0.053807534
000220 bb ff ad bd 17 53 6a 3c df 48 67 bd d8 6b f2 bd
       -0.08496042 0.014302037 -0.05646598 -0.11836976
000230 c0 52 f9 3d f3 8d 86 3d 7b 90 f6 bd 61 8c 74 bd
       0.121739864 0.065700434 -0.12039276 -0.05970419
000240 f5 89 d8 3d b0 b6 1c 3e 56 cf 35 3e 5f 2c 4a bd
       0.10573188 0.15304065 0.17754874 -0.04935872
000250 33 24 9e bd c7 5d a0 3d 64 c5 a4 3c 0e 9a b6 bd
       -0.07721748 0.078303866 0.020113654 -0.08916102
000260 b4 1d 89 bc 55 72 7f 3d 29 04 5e bc 4f 38 6f 3d
       -0.016737796 0.062364895 -0.013550797 0.05840331
000270 5a a9 ae 3d 16 a5 6e be b6 4b 43 3c f0 b5 8b bd
       0.08528395 -0.23305163 0.011919906 -0.06821811
000280 7f e8 4d bd 47 c6 1f 3d d7 fe e6 3b db 70 f5 3b
       -0.050270554 0.03900745 0.0070494222 0.00749026
000290 43 b3 ea bd 1b 1b a1 bd 2b 9d 33 3e 5c f8 0e 3c
       -0.11459973 -0.07866498 0.17540424 0.008726206
0002a0 90 06 2c be 4b dd 86 3e 27 bc f6 3d 1a 91 26 3d
       -0.16799378 0.26340708 0.12047606 0.040665723
0002b0 8d a8 6d bd 67 16 14 bd 90 96 c8 3d 08 44 66 bd
       -0.05802207 -0.036154177 0.097943425 -0.056217223
0002c0 b1 7f 91 3b ad 73 ca 3d d7 e6 c1 bd 84 02 0d 3d
       0.004440271 0.09885345 -0.09467857 0.034426227
0002d0 db 9b 21 3e c6 5e 2b 3e df ae bd bd 84 7f 1d 3e
       0.1578211 0.16735372 -0.0926187 0.15380675
0002e0 4c b1 85 3d 5c 89 aa 3d eb 3a 0b 3e 91 15 46 3c
       0.06527957 0.083269805 0.13596694 0.012090103
0002f0 c1 f1 d8 3d e5 a5 35 bd 0c cc 85 bd dd 0a bb bd
       0.10592986 -0.044347662 -0.065330595 -0.091329314
000300 88 06 8d 3c a9 8f 19 3d d9 15 73 3d a8 d0 b5 bc
       0.017215028 0.03749052 0.059347007 -0.022194222
000310 44 c4 c4 3d 37 ae 8a 3d 05 13 e3 3d 72 cd 36 bd
       0.09607747 0.0677151 0.11087612 -0.04462952
000320 16 8d 30 3d 05 10 bf 3c b0 af d4 3c 25 68 1c bd
       0.0431033 0.023323068 0.02596268 -0.038185257
000330 82 16 ef 3c b7 d6 96 3d dd ce 6d bc ea d6 71 bd
       0.029185537 0.07365172 -0.014514652 -0.05904285
000340 99 98 16 3d d1 52 17 3e 3e 16 24 3d 9f bb 46 3c
       0.036766622 0.14777686 0.040060274 0.012129693
000350 2b f6 13 3c dd 49 3b bd e5 b9 45 3e a5 8c 4f bd
       0.009030859 -0.04572474 0.19309194 -0.05067124
000360 04 f8 57 bd 37 81 ea 3d f3 3d 42 bc 0a 90 8a 3d
       -0.05272676 0.11450427 -0.01185559 0.067657545
000370 7c 0c f0 bd 10 6b 47 3d 94 2b a9 bb f7 34 0e 3d
       -0.11721131 0.048686087 -0.0051626656 0.03471848
000380 90 d0 a1 3d 00 65 d7 3c 3d 9e c4 3b 5d 60 90 3d
       0.07901108 0.026293278 0.006000309 0.0704963
000390 2b 62 83 bd 07 09 5d bd d5 4c 51 3d 19 69 05 3c
       -0.064152084 -0.053963687 0.051098663 0.008142733
0003a0 1a b8 37 3e 75 b5 a5 bd 31 6a d2 3d 34 81 30 bd
       0.17941323 -0.08091251 0.10274161 -0.043091968
0003b0 91 3d 87 3d 27 55 c2 bd 35 66 d8 3c 16 0c b4 3d
       0.0660354 -0.09488898 0.026415924 0.08791368
0003c0 98 3d e6 bc be b2 14 39 b8 aa cf 3c 9d c5 a4 bb
       -0.028105542 0.00014180967 0.02534996 -0.00502844
0003d0 18 6d 09 3d 50 bd f0 3c 5a 56 0e be 25 b4 c7 bc
       0.033551306 0.029387146 -0.13900128 -0.024377892
0003e0 7a 18 0b bc ab 3f 36 bc 66 0b 26 3e a7 4c 2e 3e
       -0.008489722 -0.011123578 0.16215286 0.17021428
0003f0 34 cf 02 bd cc 91 d9 bd ab 3c 50 3c b1 97 6d bc
       -0.031935886 -0.10623512 0.012709777 -0.014501498

network_body._body_endoder.seq_layers.2.bias f4 [128]
000000 b6 b2 05 3a 67 a1 81 3b 53 5c 4f 3c 52 f0 ed 3a
       0.00051001774 0.0039560082 0.012656289 0.0018153286
000010 e6 cf b6 39 6b 25 2e 3c d2 5c 37 3c 10 cf 58 3b
       0.00034868642 0.010629038 0.011191564 0.0033082403
000020 6e 1b 09 bb 7a 6e 87 3b f5 75 96 bb 45 a5 16 bb
       -0.002092089 0.004133043 -0.0045916983 -0.0022986692
000030 97 49 95 bb 32 5b 27 bb 9c 44 2b 3b 20 bf 9a 3c
       -0.0045558917 -0.0025536534 0.0026133424 0.018889964
000040 08 93 a8 ba ac 7f 6c 3b fd 4a d7 bb 15 e2 c8 ba
       -0.0012861202 0.003608684 -0.0065702186 -0.0015326167
000050 99 28 3e 3b ce e2 b6 ba 7c 1c 7e 3b 94 d7 8b 3b
       0.0029015897 -0.0013953091 0.0038774302 0.0042676423
000060 b8 e1 0a bb 6f ea 84 3b 57 9a c3 3b aa 8a c3 3b
       -0.0021191668 0.004056267 0.0059693265 0.005967458
000070 6a 00 84 bb a2 32 73 3a 00 ed 00 bc 13 28 10 3a
       -0.0040283697 0.0009277259 -0.007869005 0.00054991356
000080 f1 28 5b 3b c5 3c d7 3a c2 15 f8 bb f4 57 bc 3b
       0.003344115 0.0016421309 -0.007570953 0.0057477895
000090 5e ee 8f 3c 73 9c eb 3b 00 61 ea 3a b8 d5 90 bb
       0.017569717 0.007190281 0.0017881691 -0.0044200085
0000a0 60 e1 f9 bb 8a f3 79 3b c9 bc a7 bb c4 8b 73 3c
       -0.0076257437 0.0038139545 -0.0051189405 0.014864866
0000b0 01 90 16 3b 73 e7 bf 3b 60 18 22 bc af 95 0d 3b
       0.0022974017 0.0058564483 -0.009893507 0.002160411
0000c0 0f 0f d6 bb f2 c2 91 3b bf fc 2b bb 67 71 09 bc
       -0.006532557 0.004448288 -0.0026243178 -0.008388854
0000d0 5f 03 86 3a 72 e3 3f 3a 28 27 dc 3b 59 b5 6e bc
       0.0010224393 0.0007319964 0.006718535 -0.014569604
0000e0 4f ea d1 b9 8c 1b 3e 3b ae 96 ae 39 0f 3d 0f 3b
       -0.0004003816 0.0029008118 0.0003330013 0.0021856462
0000f0 b8 96 fc 3b c1 ec e6 3b 06 9b dc 3b 4b 7c e0 39
       0.0077083968 0.0070472662 0.0067323474 0.00042817215
000100 e5 d3 5f bb 3a f4 d3 3b f2 cb 03 3b ff ba d3 3a
       -0.0034153399 0.006468323 0.0020110575 0.0016153752
000110 f0 19 96 3b 59 6d a1 bb 91 f5 b5 ba ab 80 82 3b
       0.0045807287 -0.0049263653 -0.0013882389 0.0039826236
000120 60 8a eb 3b e6 1e b4 b8 e1 50 3f 3b 27 82 f8 bb
       0.0071881264 -8.588824e-05 0.0029192495 -0.0075838747
000130 29 d7 06 3c d3 d9 a5 3b 65 e7 03 bb 2b ad 2c b9
       0.008230009 0.005061367 -0.0020126936 -0.00016467708
000140 f5 f2 25 bb 1e 41 ab bb 5e c2 2a bb c5 83 5a bb
       -0.0025321816 -0.0052262684 -0.0026055793 -0.00333427
000150 d9 19 ad 3b 08 07 a1 bb 42 d8 cc 3b 57 42 91 3c
       0.0052826223 -0.0049141683 0.006251366 0.017731829
000160 cb 7e 9a 3b c5 eb 9a bb 89 85 8c 3b c7 14 9f bb
       0.004714822 -0.004727813 0.0042883796 -0.004854772
000170 91 15 f6 ba 04 89 9e bb 84 57 42 3c 6f b0 72 3c
       -0.0018774738 -0.004838111 0.011861686 0.014812573
000180 14 a0 52 b9 ec f7 8f b9 7c 1f be bb 88 d1 2e 3c
       -0.00020086794 -0.00027459802 -0.005802093 0.010670073
000190 12 d8 4f 3b a3 86 16 3c ca fb bd bb 77 69 2d ba
       0.0031714481 0.009187373 -0.005797838 -0.0006615142
0001a0 2b 04 04 bc 80 03 ef bb 21 da 8b bb 51 ef 42 bb
       -0.008057634 -0.0072941184 -0.0042679464 -0.0029744694
0001b0 84 26 db 3b 1b e1 2a 3c f4 36 90 3b 88 e0 40 3c
       0.006687941 0.010429646 0.004401082 0.011772282
0001c0 3f fa 10 bc 96 c0 2b ba 59 cb 2d 3c 5e 5f 23 3c
       -0.008848726 -0.000655183 0.010607564 0.009971468
0001d0 be ad 5f 3b 3a eb 91 3a 3b 90 97 3b f6 a2 78 bc
       0.0034130658 0.0011132725 0.004625348 -0.015175572
0001e0 e6 84 95 3b a8 95 fb bb 35 99 35 3c 10 bf b3 3b
       0.004562962 -0.0076777525 0.011083891 0.005485423
0001f0 5c 15 0a bb 07 09 d1 3b 26 97 df bb 40 99 a0 bb
       -0.002106986 0.00637925 -0.006823438 -0.0049010813

action_model._continuous_distribution.log_sigma f4 [1, 3]
000000 3b 3c 04 3b 9c 69 80 bb f4 8f 1c 39
       0.0020177502 -0.0039188396 0.00014930946

action_model._continuous_distribution.mu.weight f4 [3, 128]
000000 a6 66 a2 3c 2f ce 3d 3b 4c d6 13 3d 07 47 b9 3c
       0.019824337 0.0028962006 0.03609304 0.022616876
000010 be 86 84 bc 48 70 82 3c 5f b3 48 3d e7 d0 dc 3c
       -0.016177531 0.01592268 0.048999187 0.026955081
000020 42 b3 4d 3b 46 70 d4 3b 8b be 19 bd 71 b1 2b bc
       0.0031387364 0.0064831106 -0.03753523 -0.010479317
000030 a4 a3 9e bb c1 94 74 bc 2d 59 14 3d 63 79 91 3c
       -0.004841285 -0.014928044 0.036217857 0.017758077
000040 09 4c 79 bc c2 02 6b 3a 75 04 d9 3b 44 76 0b bc
       -0.015215882 0.00089649495 0.006622846 -0.008512083
000050 bd c7 40 3d 40 b3 e2 3b ef a8 6e bc 2e 4b b4 3b
       0.047065485 0.006918341 -0.014566644 0.005502126
000060 83 0a 48 bc 22 10 53 3c 78 e1 07 3c ac 53 59 3c
       -0.012209537 0.012882264 0.008293502 0.013264578
000070 b8 8d 8f 3c 72 d1 da ba d7 74 90 3c 42 80 ae 39
       0.017523631 -0.00166945 0.017633839 0.00033283426
000080 cf 2e 91 3c 9d 2e 1e 3d 2a e9 fc bc 93 0d 0b 3c
       0.017722515 0.038618673 -0.0308729 0.008487123
000090 36 8f d2 3b fb e0 42 3c e9 27 08 3d cc 4a 57 bc
       0.0064257635 0.01189446 0.033241186 -0.013140392
0000a0 00 93 94 bb 9f da 5b bc 2a c1 d2 bc d0 dc 03 3c
       -0.0045341253 -0.013418823 -0.025726873 0.008048251
0000b0 c2 f8 3c bd cb 8e de 3b 63 1e 97 bc 32 4c d0 3c
       -0.04613567 0.0067919246 -0.018447107 0.025426958
0000c0 a3 c2 81 bb c8 db 4f 3c c6 d8 a5 3b 3b 6f 62 bc
       -0.00395997 0.012686677 0.005061242 -0.013820465
0000d0 b7 f4 4e 3c 1e 2c 5a bb f0 ad dd bb 59 04 b0 bc
       0.012631587 -0.0033290456 -0.0067651197 -0.021486448
0000e0 47 35 dd bc 46 e0 19 bc 6f 98 a4 3c 9f f6 75 3c
       -0.027002944 -0.00939185 0.020092217 0.015012412
0000f0 c1 b5 cd 3b c6 17 b8 3c 6a 44 88 3c 4c f3 a7 bc
       0.0062777703 0.022472274 0.016634185 -0.020501755
000100 c6 e1 02 bd d7 cb 15 3c d6 4e 71 3c 95 9b 98 3b
       -0.031953596 0.0091428375 0.014728269 0.0046572187
000110 73 95 83 bc f1 69 6c 3c e3 9a d7 3b a1 9d 0e 3c
       -0.016062474 0.014429555 0.006579743 0.008704574
000120 1e 70 08 3d 8c af d9 bc fa c9 c4 3c 09 44 a9 bc
       0.03331005 -0.026572965 0.024022091 -0.020662325
000130 e4 b0 9f 3c 9c 9d b2 3c e3 58 4b 3c 6a 87 46 bb
       0.019493528 0.02180367 0.012411329 -0.0030293115
000140 1c 60 47 bc 0a 56 51 bc 57 d7 15 3c 00 3b 23 3c
       -0.01216891 -0.012776861 0.009145579 0.009962797
000150 10 65 81 bc ed 9a 36 bc f8 df 8f bc fb a4 d9 3b
       -0.01579526 -0.011145336 -0.017562851 0.0066419817
000160 34 9c 18 bc 08 6d b4 3a af d2 b1 3c 65 4f e5 bc
       -0.0093145855 0.0013765404 0.021706907 -0.02799196
000170 d9 16 89 bc f5 56 7e bb d0 ad 8d 3c c5 d3 17 3d
       -0.016734527 -0.0038809155 0.017294794 0.037067194
000180 0a a2 f4 bc 09 05 cd ba 2f 77 99 3b d0 ed 00 3d
       -0.029862422 -0.0015641759 0.0046833972 0.031476796
000190 6b 59 42 3b 30 27 68 3c 2e 51 3c bc ec a2 21 3c
       0.0029655348 0.014169499 -0.011493964 0.009865504
0001a0 f5 4a 41 bd d0 39 f6 bc c5 ed 89 bb 55 bd 8f 3b
       -0.047190625 -0.030056864 -0.0042092525 0.004386584
0001b0 cd 7a 9a 3c 06 1b 56 bb b0 0f 9c ba 0b 6d 46 3c
       0.018857384 -0.0032669916 -0.0011906531 0.012110959
0001c0 58 3b 4d bb cb 6a bd 3a a2 c1 59 3c 89 15 6c 3c
       -0.003131589 0.0014451382 0.013290795 0.014409431
0001d0 b4 c9 81 bb 18 50 4f 3c 90 66 9c 3a 10 48 eb bc
       -0.0039608125 0.012653373 0.0011932421 -0.028720886
0001e0 51 54 b0 3c ad 74 1f bd ca 12 91 bb 4a 74 49 3d
       0.02152458 -0.03892963 -0.0044272887 0.049183168
0001f0 a2 4e 3f 3b b2 7b ff bc 36 61 ed b9 0f 3a c7 bc
       0.0029191156 -0.031186912 -0.0004527659 -0.024319677
000200 4e 67 d9 bc e4 33 da 3c 0c e3 c3 3c 56 a9 6e 3a
       -0.026538517 0.026636072 0.023911975 0.00091042125
000210 f4 68 dc bb f2 fb 9e 3c 29 46 83 3c 70 19 31 bc
       -0.0067263786 0.019407246 0.016024666 -0.010809287
000220 43 04 0a 3c 43 a8 46 bc be 37 07 3d f2 37 35 3c
       0.008423868 -0.012125078 0.033012144 0.011060702
000230 be d4 0b bd 66 fb 0a bd 5c 9c 83 3c 99 99 ae 3c
       -0.034138434 -0.03393116 0.016065769 0.021313475
000240 9a 26 f9 3c 8f 30 b0 3c fd fa 6a bb fd 86 f3 bc
       0.030413914 0.02150753 -0.0035855167 -0.029727453
000250 a0 ef e0 bc 3d 52 6c 3b ed f2 0c 3d 5c c1 f3 3b
       -0.027458012 0.003605976 0.03441136 0.0074388217
000260 8f 54 cb 3a c5 09 b7 b8 30 4d 95 3c f2 61 5e 3c
       0.0015512871 -8.72794e-05 0.018225282 0.013573157
000270 f6 f1 3b bc b2 d6 81 3c 10 8a 13 bd 42 1f 98 3c
       -0.011471262 0.015849445 -0.03602034 0.018569592
000280 ec f1 e0 37 9b 35 d8 3b e4 02 b0 3b e2 fb 86 bb
       2.6815535e-05 0.006598187 0.0053714383 -0.0041193822
000290 ce 8d 92 3c 2d d2 df 3c 7a 6c a2 bc 24 fc e2 bc
       0.017889883 0.0273219 -0.019827116 -0.02770812
0002a0 73 e9 8c bb fe f9 f3 3c 1d d2 71 bb 30 67 b1 3c
       -0.0043002903 0.029782292 -0.003689892 0.021655649
0002b0 24 a8 ea bc c6 3d 08 3d f0 82 c5 bc 76 13 9b bc
       -0.028644629 0.033262037 -0.024110287 -0.018930178
0002c0 ac 12 fe bb 1d 44 07 3d 85 1a 8b bc a3 3e 91 bb
       -0.0077536907 0.033023942 -0.016980419 -0.0044325157
0002d0 68 b9 e1 bc 8d 99 18 3c 41 16 86 3b 9b 57 c6 bc
       -0.027554229 0.009313953 0.0040920083 -0.024211695
0002e0 5d b9 01 3d aa 42 b1 bb d7 14 83 bc 0a 39 aa 3b
       0.031670917 -0.0054095583 -0.016001148 0.005194788
0002f0 dc 68 94 ba 2e a9 f5 b9 ec 88 d8 b9 77 0b ad bc
       -0.0011322754 -0.0004685609 -0.00041300745 -0.02112363
000300 e4 8f ed bb 6d 00 61 3c 55 d0 ac bc 39 8e 19 bd
       -0.007249819 0.013733012 -0.021095434 -0.03748915
000310 36 01 01 3d ce b9 ef bc 68 9e 8f 3c 55 24 60 3c
       0.031495295 -0.029263403 0.017531589 0.013680537
000320 ff 38 74 3b db f3 03 bd 85 b0 cd bc 49 6b 0f bc
       0.0037265418 -0.03221498 -0.025108585 -0.008753606
000330 53 56 71 3c b4 b0 af bc 67 1a 93 bb c9 23 d8 ba
       0.014730054 -0.021446563 -0.0044892314 -0.0016490157
000340 01 52 74 3c 04 9e 3c bc 1e c6 d3 bc fe 4f a1 bc
       0.014912129 -0.011512283 -0.025851306 -0.019691464
000350 ce 47 31 3c 16 5e d5 3b ec 4e ca 3c a0 e8 4c 3b
       0.010820342 0.00651146 0.024695836 0.0031266585
000360 66 d0 ab 3b 19 7a 6b bb da b0 0a 3c e5 bf 4f bc
       0.005243349 -0.003593093 0.008465016 -0.012680029
000370 8e 6b 7f 3c 6c 6a ca bc 50 0b 87 3c ec cf 47 39
       0.015589608 -0.024708949 0.016484886 0.00019055576
000380 cc f1 cb 3c bb 1d 94 bc 59 92 5a bc 81 25 ab bb
       0.024895571 -0.018080583 -0.013340556 -0.0052229767
000390 f4 57 16 3d f3 ae 6d 3c 32 00 26 bc 98 ea 78 3b
       0.036704972 0.014507043 -0.0101318825 0.0037981626
0003a0 68 12 67 bc 56 00 fd ba 19 09 b0 3a 49 08 40 bc
       -0.0141035095 -0.0019302468 0.0013430446 -0.011720725
0003b0 47 48 e5 3c 60 6e db 3c d5 cd 83 3c 8d f6 b9 3c
       0.027988566 0.02678603 0.01608936 0.022700572
0003c0 ea ad 99 3b 98 3c 87 ba b4 9b c3 bc bf ba 77 3c
       0.0046899216 -0.0010317741 -0.023877956 0.015120207
0003d0 33 21 b4 3c ec ca ba 3b be ef 2e 3c 14 9f 09 bc
       0.021988487 0.0057004597 0.010677276 -0.008399744
0003e0 8c 1d 76 3b ac b7 35 bc 4f aa ae 3b 3d 0d 5a 3c
       0.0037554232 -0.011091154 0.005330361 0.01330882
0003f0 89 bb b1 ba f3 8e 06 bc 53 dc 25 bc 52 74 c8 bc
       -0.0013559918 -0.008212793 -0.01012333 -0.024469528

action_model._continuous_distribution.mu.bias f4 [3]
000000 7f 5c 13 3c 3c bb 97 3b 7b 60 33 bb
       0.008994221 0.0046304744 -0.002737074
