results/Test19/MoveToTarget/MoveToTarget-103417.pt (torch, 443481 bytes, 36 tensors)

network_body._body_endoder.seq_layers.0.weight f4 [128, 6]
00000000: 7c31 f73d 2187 823e 4615 e7be 14c6 433f
00000010: d71f 113f 6f9f b33e c5ce 9bbd 5720 233d
00000020: 6b8f b6bd 82d3 f9bd 0b18 8bbe f6f4 32bf
00000030: ae25 c33d 3f37 09bf cd67 f3bd 7038 92be
00000040: 710b fcbe ee49 6fbf c4ef babe e05c d73e
00000050: eb5b 7d3e 312d acbd cb19 263e 15c6 cfbe
00000060: 5c2a d9be 0f03 fa3e 68c8 7abf 79a7 24be
00000070: 821a 463e 99ac 0c3f 8272 17be ae02 09bf
00000080: 30c8 6bbe a5cf a1be d410 dc3e 900e e5be
00000090: b8d8 3d3e 729f 303e c6e9 12bf 1550 5b3c
000000a0: d9ff 07bf 10a5 e63d b094 4bbe 5d4a 993e
000000b0: 74ee 7a3e dcd3 e2be 847a 04be 405a 9cbe
000000c0: 00ea 643e b083 5e3f 2f60 16bd e91d c2be
000000d0: d2de 8c3e c0eb 933e d790 14bf 576e c1be
000000e0: ddc8 223f 8bef 8d3e 6d61 aebe 4742 703e
000000f0: d8a6 66be 5467 093e 3aee be3e 0ab2 82be
00000100: 0ae4 503e a09d 2cbd 9239 153f 88a3 183e
00000110: 8ac8 7d3e c01a b5be 5f86 0cbe 9e42 7e3e
00000120: 34fb 7a3f d2e0 5abe 0f57 ac3e 942d de3d
00000130: 02a3 d53e 0df7 553f 798b 793e f0e7 01bf
00000140: 73f5 97bd 66a9 c33e 3f9b 29bf e5f6 2cbe
00000150: 5432 e03e 3422 173e 65de eabb 8d45 dbbe
00000160: 1282 18be caf4 303e 2c9f d83d 95cf e53e
00000170: 568c 2a3e 45ac 123b f82d a53e 6c41 623d
00000180: 3525 90bb 63b9 41bf c84f 603f c882 fc3e
00000190: 473e 12bf 7e2c 12bf 5e93 693e 6316 75be
000001a0: 47f1 133f 92e5 51bd 5080 c83e 8189 c13e
000001b0: 4062 13be 25fd 1c3e bdef 50be 33d7 1d3e
000001c0: ed9a a03e c7f1 df3d 0895 82bd 6a84 313e
000001d0: 54e3 cc3e 8810 683e e486 ae3e 27db e93e
000001e0: b6b6 a93e 1541 6c3d a1b1 2d3e 834b 3b3e
000001f0: 19ad 26bf 2881 6abe 22b4 2abf 464b e73c
00000200: 8c95 b2bd da95 0abf 91c5 343e 70e2 ddbe
00000210: 7db6 833e 3bbf 093e d7b7 b3be a468 38bf
00000220: a3cc c53e 5738 45bf 7b16 aebe 8b79 a0be
00000230: c223 213e 7084 4a3d 908d 253d 2f19 e6be
00000240: 7250 37bf 1428 123e 3348 e53e 4b74 99ba
00000250: 6541 8f3e 06ca 8d3d 8197 78be 6d99 d5bd
00000260: fd95 3e3e fbc6 383d 9d4c 0a3f 34aa 763c
00000270: 6466 7fbe 4a48 173f cfbe c1be 3673 debe
00000280: 4e24 663e 09fd 983e bbb5 043e 3560 143e
00000290: b012 633e 1ef7 9a3e ce98 203e acbc 9d3d
000002a0: 93e4 8dbd 2ca8 efbe ce28 0b3f 5a11 333f
000002b0: ae71 a33e d999 193e 109f cf3e dfe6 4ebe
000002c0: 230d 053f b079 b73e 2ebc 31bd f62f 103f
000002d0: 70bd 3b3e 4ff0 f83d 5a9e 223f 9881 a83e
000002e0: 34ce dfbe 4683 253e bef9 5e3f 6a85 cdbe
000002f0: f7d1 793d be1d 3cbe abe1 373f 5c11 cebe
00000300: 9889 64bf 6805 ab3d ee9c 53bd 5a37 4abf
00000310: ad73 22be 7873 063d 6393 d9be 8201 88be
00000320: 1f9b 13be 49e7 593e 3fbf 9cbf 862c febe
00000330: 3dea 033b ac0a 0ebf 5a0d 913e b659 a8be
00000340: 78e3 673e d675 ce3e c5ca 243f d40a 2fbd
00000350: 3e08 ba3e a836 9dbe ece9 723e 3f8a bfbc
00000360: 894e 473f 2f34 cf3e b28e 003f 9355 963e
00000370: 2e52 03be 15cc 9bbe 7a0c d03e f158 d8be
00000380: 8fe3 cdbe ae2f 86be 0a88 8b3e 3a8b 4e3f
00000390: 2648 cf3e e890 5abf 2594 81be 9bb5 4fbc
000003a0: ad32 403f bccd 6bbe 34ee 46bf 9356 f13e
000003b0: 20f0 653f 7e4d f73e c58c 4e3e 7b7d 14bf
000003c0: af9e ce3e 78c1 dc3e 6af1 d73e 3cdd be3d
000003d0: 2b09 16bf f548 36bf d49d a3be 9731 b4bd
000003e0: 55cc 2d3f 6e96 41be defb 28be f299 173f
000003f0: 9e07 9cbd 4aa1 253e 6648 983d b53b 593d
0.12069985 0.2549372 -0.45133418 0.7647412 0.5668921 0.35082576 -0.076077975 0.039825764
-0.089140736 -0.12198545 -0.2716678 -0.6990503 0.09528671 -0.53599924 -0.11885033 -0.28558683
-0.4922748 -0.9347218 -0.36511052 0.42063046 0.24742095 -0.08407057 0.16220777 -0.40580812
-0.4241513 0.4883046 -0.97962046 -0.16079511 0.1934605 0.54950863 -0.14789775 -0.53519714
-0.23025584 -0.31603733 0.4298159 -0.44737673 0.18539703 0.17248324 -0.5738796 0.013385792
-0.5312477 0.11261952 -0.19880939 0.29939547 0.24505025 -0.4430226 -0.12937361 -0.30537605
0.22354889 0.8691969 -0.03671282 -0.37913445 0.27513748 0.288908 -0.5803351 -0.37779495
0.63587743 0.2772182 -0.34058705 0.23462783 -0.22524583 0.13418323 0.37291127 -0.25526458
0.2039949 -0.04214251 0.5829097 0.14906132 0.24783531 -0.3537197 -0.13723134 0.248301
0.98039556 -0.21374825 0.3366017 0.10848537 0.41725928 0.83580095 0.24369611 -0.50744534
-0.074198626 0.38215178 -0.6625251 -0.16891058 0.43788397 0.14759141 -0.007167625 -0.428265
-0.14893368 0.1728088 0.105772346 0.44884935 0.16655096 0.0022380513 0.32261634 0.055238172
-0.0043989667 -0.756735 0.87621737 0.49318528 -0.5712628 -0.5709914 0.22810122 -0.23934321
0.57790035 -0.051244326 0.39160395 0.3780022 -0.14392948 0.15330942 -0.20403953 0.15414123
0.313682 0.10934787 -0.06376082 0.17335668 0.40017188 0.22662556 0.34087288 0.45675012
0.3314721 0.057679255 0.16962291 0.18290524 -0.65107876 -0.22900832 -0.6668111 0.028234135
-0.0871993 -0.54134905 0.1765349 -0.4333682 0.25725165 0.13451855 -0.35101196 -0.7203467
0.38632688 -0.7703909 -0.34001526 -0.3134273 0.15736297 0.04944271 0.040418208 -0.4494109
-0.71607125 0.14273101 0.44781646 -0.0011707632 0.2797958 0.069232985 -0.24276544 -0.10429654
0.18611903 0.045111638 0.5402315 0.015055228 -0.24941403 0.5909468 -0.37840888 -0.43447274
0.22474787 0.2988055 0.1295995 0.14489825 0.22175097 0.3026666 0.1568329 0.07702002
-0.06928363 -0.46807992 0.5435914 0.6994835 0.31922668 0.15000094 0.40551043 -0.20205258
0.5197317 0.35835028 -0.043392353 0.5632318 0.18333983 0.1215521 0.63522875 0.32911372
-0.43712008 0.16163358 0.87099826 -0.4014085 0.060991254 -0.1837072 0.71828717 -0.4024762
-0.8927245 0.083506405 -0.05166333 -0.7899071 -0.1586444 0.032824963 -0.4249526 -0.2656365
-0.14414643 0.21279635 -1.2245864 -0.49643344 0.002012863 -0.55485034 0.283305 -0.32880944
0.22645366 0.40324277 0.643719 -0.042734936 0.36334413 -0.30705762 0.23722047 -0.02338135
0.7785421 0.404695 0.50217736 0.29362163 -0.12824318 -0.3042914 0.4063452 -0.42255357
-0.40212676 -0.26208252 0.27252227 0.8068119 0.40484732 -0.8537736 -0.25308338 -0.012677575
0.75077325 -0.230277 -0.7770722 0.47136363 0.89819527 0.4830131 0.20170887 -0.5800397
0.4035544 0.43116355 0.42176372 0.09319541 -0.5860774 -0.71205074 -0.3195635 -0.08798521
0.6788991 -0.1890504 -0.1650233 0.59219277 -0.0761864 0.16174808 0.07435684 0.053035457

network_body._body_endoder.seq_layers.0.bias f4 [128]
00000000: 0827 1b3c 22dd 4abb 2e53 fbba 9e7f b43c
00000010: ea30 a73c f6a5 cabb d307 b83c abc9 32bc
00000020: 43e8 14bb 7b50 98bc 5bc3 143c 5b7a 223c
00000030: 634a 5dbc bae3 6338 777c 513c 66aa 3d3b
00000040: 257c 203c 5e3d 23bc 3452 be3b ec39 263b
00000050: 0d9e 863c 4cdf 81bc 993f fbbb a071 22bb
00000060: 82a7 16bc 5876 633c e858 ad3c b6f8 573b
00000070: ea72 1e3c a6b5 2f3c ea43 0e3c 7afa cabc
00000080: 0455 343b c4f1 97bb b738 bebb 55ad 9bbb
00000090: cc58 353b 42db 833c 21c7 28bb 2cd0 e83c
000000a0: 2c91 76bb 5440 1d3b 0a3a bbbc f40a 943c
000000b0: 6296 e73b c3e9 123c 8691 103d 9c2c c93b
000000c0: 5437 ccba 27c2 f83c a1a0 583c 44a4 5db9
000000d0: 4ba1 3fbb e861 46bc 38d6 abbc 178b db3b
000000e0: 3701 023c 45e7 c6bb 2eaf e93c 318e 8f3c
000000f0: 76b8 a63c 13d3 253c 1a15 5d3b 142b 7b3c
00000100: 865b bfba ec81 b4bc a10e 1fbc 4d3f 503c
00000110: dded 9f3c cfca 11bb ab97 673b 3c95 cebc
00000120: 17a0 103c 02ca 66bc f1a8 12bc 3c05 e33b
00000130: 1178 a03a 9705 8e3c b59b 3a3b b3ac 7bbc
00000140: 9af9 e6bb 1ce8 b43c 56fd 80bc ef0b 85bc
00000150: 1dde 963c 1c8b 45bc 9850 933c 5f8a e63c
00000160: 7702 053c 3631 5abc add8 2a3c 6feb 47ba
00000170: e4ff 0b3c f8e5 97bb 9bf7 c9bb 14c5 ac3a
00000180: 8977 1c3c 1e05 043c a31c 14bb a9ef e6bc
00000190: 1d3c 013d 7a82 2c3b e260 0cba b232 813c
000001a0: afb0 e93b eb27 bb3b 6b34 8c3b 3aab ca3c
000001b0: ab9e 7c3b 797e 1d3d 1230 643c 8f0b 45ba
000001c0: 2e42 13bb 8f1d 303c 1bbc 6c3c dffe 0c3d
000001d0: a3e4 543a 75e0 823a ae2a 38bb 528c 7e3c
000001e0: d096 333c 03b0 2a3b 342e 90bb 3c3b 083d
000001f0: fbe9 72ba c8da 94bc ed92 d5bb f57c b83c
0.009469755 -0.003095456 -0.001917457 0.022033509 0.020409066 -0.006184335 0.022464668 -0.010912339
-0.0022721447 -0.018593064 0.0090797795 0.009916867 -0.013506505 5.4333104e-05 0.012786022 0.0028940677
0.009795223 -0.009963362 0.005808139 0.0025364114 0.016432786 -0.015853547 -0.0076674935 -0.0024786964
-0.00919521 0.013883196 0.021160558 0.003295464 0.009670952 0.010724461 0.008683184 -0.02477764
0.0027516494 -0.004636975 -0.005805101 -0.0047508874 0.0027671335 0.016095761 -0.0025753456 0.028419577
-0.003762315 0.0023994641 -0.022854824 0.01807163 0.0070674876 0.008966866 0.035295032 0.006139351
-0.0015580454 0.030366017 0.013221891 -0.00021137396 -0.0029240425 -0.012108304 -0.02097617 0.0066999304
0.00793486 -0.00607005 0.028525915 0.017523857 0.02035163 0.010121125 0.0033734501 0.015330095
-0.001459942 -0.022034608 -0.009708078 0.012710405 0.019522602 -0.0022246127 0.0035338204 -0.025217645
0.008827231 -0.014086248 -0.008951412 0.006928114 0.0012242814 0.01733665 0.0028474156 -0.015360999
-0.007048798 0.022083335 -0.0157458 -0.016241042 0.018416459 -0.012057092 0.017982766 0.028142152
0.008118263 -0.013317397 0.010427636 -0.000762633 0.008544896 -0.0046355687 -0.00616355 0.0013181292
0.009549984 0.008057861 -0.0022600077 -0.02819045 0.03155147 0.0026322887 -0.0005355013 0.015771244
0.007131658 0.0057115457 0.0042787096 0.02473985 0.0038546722 0.03845069 0.0139274765 -0.0007516676
-0.0022469866 0.010749235 0.014449145 0.03442275 0.0008121228 0.0009985106 -0.002810161 0.015536385
0.0109612495 0.0026044853 -0.004400039 0.033259615 -0.0009266433 -0.01817073 -0.006517759 0.022520522

network_body._body_endoder.seq_layers.2.weight f4 [128, 128]
00000000: 3190 f2bc 1636 cd3a 41e2 ea3d 0b01 c7bc
00000010: 61f5 bbbc 55dd b9bc 6e6a e5bd 8acb 91bd
00000020: 8796 b0bd 04d3 a9bd fd19 aebd b568 16be
00000030: 950b 00bd 1848 a93d 2a80 fdbd 3f99 9ebc
00000040: b2e7 463d 045f f5bc 55a4 f53c 8f88 193d
00000050: 418e 153d 4a9f 5b3d 540c 823d 4c2f 51be
00000060: 4987 9b3d 5e2c 633e 0935 35bd 5286 cf3d
00000070: 8d49 10bd f598 093e bc02 45b9 1f3c 0fbc
00000080: f109 2a3e 6445 b1ba ac03 88bd c397 2abe
00000090: 3682 b8bd aac8 7bbd cb78 51bd c858 933d
000000a0: 20be 0d3e d2d0 533d bb61 b33c 9f45 b6bd
000000b0: 31dd 993d cb06 84bd 013a 5bbc ae34 633d
000000c0: 3721 b13d 4050 97bd 313d b13d 529a 85bc
000000d0: 34e2 61be 2418 ac3d 75e1 f3bd c3c9 70bb
000000e0: eb45 7bbd 50f9 15be 74a0 abbc cb93 9f3c
000000f0: d05e 353e 1558 8f3d fdff 44be 137c 03be
00000100: 00c3 2a3d d2fb bcbd 1695 ddbd 6daa 9ebd
00000110: e2c0 d3bd c2ea 06be 9396 3c3d e062 7a3d
00000120: 5f7b 1bbe 0fd4 c6bd 01ac 76bd f786 47bd
00000130: 97c1 81bd 101d 6a3d 5df9 9bbd f20c d53b
00000140: 8800 073e 83a8 d8bd bd08 ca3d 9258 b33d
00000150: 998c 0fbe b30e 013e 06e8 973c 3c0b d0bb
00000160: 35fe 9abd 8526 1b3d af2c 02bd b7e4 b53d
00000170: 3f00 0d3d 5acd ffbd ec4b 3939 47e3 023d
00000180: 5fc5 80bc 0a10 fabd b2ad 693e 5448 d2bd
00000190: 224a 483b 7c46 553d 08b9 913c 751d 92bd
000001a0: 9551 583d 4398 07be 5da9 0ebd 50ec ecbd
000001b0: 2cc2 8a3d 9ab9 c4bd 007b 01be a35b 303d
000001c0: 78a0 c8bd 4c2a 6a3c fd9f 4abd ba5e 4b3d
000001d0: c3dd 10be dc3b 303b 74e7 b8bd ad90 73bd
000001e0: 8c2c 3bbd 4c9a debd a912 97bd 1007 0b3d
000001f0: bd1c e4bc 6a73 a53c cab1 fe3c 2821 8a3d
00000200: 79f1 fa3d 1aa2 033d 73cb 7bbd 0c27 a43d
00000210: f26e 0b3d ae1a 90bc 8085 10be 43df 823c
00000220: 612a 9abc 38fc e8bc c8fb 6cbd 7b9a 09be
00000230: f8da a83c 833c d3bd c232 28be bb7a 813c
00000240: 9e43 443d 96c4 f2bc 0155 4cbd b608 e63d
00000250: efd2 22be 9918 65be 6238 f3bd 286f 03be
00000260: 05ea 55bd 2f65 ff3c e96e b53d 4018 323d
00000270: 7698 f8bd 07ef 2ebd ba30 9ebd b2e2 e7bd
00000280: 54c5 543d 9127 c4bd 57cd a5bd 9e86 43bc
00000290: 2cfc bfbd 27a0 25ba 9a2c 3bbe 73b0 1dbe
000002a0: d195 81bc 3eb7 88bd 3673 6fbd 658c e23c
000002b0: 42df f4bd b9a0 f5bd 6bc4 7ebd 7058 503d
000002c0: b099 26bd 6f15 9abd a34b d3bd aaf8 143d
000002d0: 5ed5 72bd 4658 00bd ded6 f43d 853a 803c
000002e0: 46c4 07be 9606 f7bd 38de 463d 5625 933d
000002f0: 7085 6c3e b18c 7dbd 2901 a43d 4bfd f5bd
00000300: b224 87bc f029 60be 3c63 01be 09aa 313e
00000310: 5cf7 363e e0b9 bcbd 4300 cebd e0dd 4abc
00000320: 3916 8e3d c45c 93ba 0c31 e3bb 0263 213e
00000330: b640 0f3e 61af acbc 17fa 4b3d 2839 c8bd
00000340: 16a2 28be 1d95 313d 20a3 68bd 862f 283e
00000350: af38 8f3d 896e 80bd 4775 6e3d ee8f c83d
00000360: 16bb 47bd 42d9 4bbe e4fd 81bd 8cb9 e3bd
00000370: 434b cc3c 84e7 4abe a762 81bd 2a1e 923d
00000380: 1740 cf3c 0659 d5bd 157d f2bb 816c 3e3d
00000390: b8b8 d13d c408 c1bd 95e0 1dbe 5bbf 273e
000003a0: 252f 953d ac03 85bc 1df8 96bb 5b7d 9bbd
000003b0: b5be b23d e132 073c aec4 02bd d502 fa3c
000003c0: 9856 ccbc db04 acba 82bd 03be 7735 1ebb
000003d0: d270 463e 5dac e23d 9a7a a737 9a15 003e
000003e0: e3bd 9bbb 57dd 7bbd 92a0 ab3d ffe6 b5bd
000003f0: 60dd 89bc 8da2 9abd 23df 493d 2735 e23c
-0.029609771 0.0015656378 0.11468936 -0.02429249 -0.022944154 -0.022688547 -0.112019405 -0.071189
-0.08622461 -0.08292201 -0.085010506 -0.1468838 -0.031261045 0.08265704 -0.12377961 -0.019360183
0.048560806 -0.029952534 0.029985586 0.037483748 0.036512617 0.053618707 0.06350008 -0.20428199
0.07594163 0.22184893 -0.04424003 0.101330414 -0.035226393 0.13437255 -0.00018788403 -0.008742361
0.16605355 -0.0013524708 -0.06641325 -0.16659455 -0.09009211 -0.061470665 -0.051140588 0.07194668
0.13842058 0.05171282 0.021897187 -0.08899998 0.07512892 -0.06446608 -0.013380528 0.05547016
0.08648913 -0.07388353 0.086542495 -0.016308937 -0.22058946 0.08403042 -0.11908237 -0.0036741353
-0.061345976 -0.14645886 -0.020950533 0.019479653 0.1771195 0.06999222 -0.19238277 -0.128403
0.041689873 -0.092277184 -0.108194515 -0.0774735 -0.10339524 -0.1317549 0.046042036 0.06112945
-0.15183781 -0.09708416 -0.06022263 -0.048712697 -0.063357525 0.057156622 -0.07615922 0.0065017873
0.13183796 -0.10579016 0.09864948 0.08757128 -0.14018477 0.12603264 0.018543255 -0.0063489955
-0.075680174 0.037878532 -0.031780895 0.088815145 0.034424063 -0.124903396 0.00017671258 0.03195503
-0.015719114 -0.122100905 0.22820166 -0.10267702 0.0030561765 0.052069172 0.017788425 -0.07134525
0.052812178 -0.13241677 -0.034829486 -0.115685105 0.067753166 -0.09605713 -0.12644577 0.04305614
-0.09796232 0.014292311 -0.049468983 0.049650885 -0.14147095 0.0026891148 -0.09028521 -0.059464145
-0.04569678 -0.108692735 -0.07376606 0.033942282 -0.027845735 0.020196635 0.031090636 0.06744605
0.122530885 0.032137014 -0.06147332 0.0801526 0.034041353 -0.017590847 -0.14113426 0.0159756
-0.018819036 -0.02844058 -0.057857305 -0.13437836 0.020612225 -0.10314276 -0.16425613 0.015805593
0.047916047 -0.029634755 -0.049885754 0.1123213 -0.15900777 -0.22372665 -0.118759885 -0.12835371
-0.05222513 0.031176178 0.08859045 0.043480158 -0.121384546 -0.042708423 -0.077241376 -0.113225356
0.051946 -0.09577859 -0.08095806 -0.011933951 -0.0937427 -0.0006318115 -0.18278733 -0.15399341
-0.015818508 -0.06675576 -0.058459483 0.027654836 -0.119566455 -0.11993546 -0.062199038 0.05086559
-0.04067391 -0.075236194 -0.10317161 0.036369957 -0.059285514 -0.031334184 0.11955045 0.015652904
-0.13258466 -0.12061803 0.048551768 0.07184856 0.23097777 -0.061901752 0.08008034 -0.120112024
-0.01649699 -0.21890998 -0.12635511 0.1735002 0.17867798 -0.0921514 -0.10058644 -0.012382001
0.069378324 -0.0011242856 -0.006933337 0.15760425 0.13989529 -0.02107972 0.04979905 -0.09776527
-0.16468081 0.043355096 -0.056796193 0.16424379 0.069932334 -0.06271083 0.058217313 0.097930774
-0.048762403 -0.19907096 -0.06347254 -0.11119375 0.024938231 -0.19814879 -0.063176446 0.071346596
0.025299115 -0.104173705 -0.007400165 0.046490196 0.102403104 -0.094255 -0.15417702 0.1638159
0.07284383 -0.016237102 -0.004607214 -0.07592269 0.08727781 0.008251877 -0.03192585 0.030518929
-0.024943635 -0.0013124006 -0.1286526 -0.0024140754 0.19378975 0.11068032 1.9965042e-05 0.1250824
-0.004752861 -0.061490383 0.08380236 -0.0888195 -0.016829193 -0.07550535 0.049285065 0.027613236

network_body._body_endoder.seq_layers.2.bias f4 [128]
00000000: 1765 5b3c 96fd a03c c1c1 73bc 8cd5 7f3b
00000010: 44e3 10bc d3d5 793c f5bc 4ebc 0a5b ae3b
00000020: 09a9 06bb 1c95 843c 766b 93bb 004f cb3c
00000030: 8a89 67bc 99a5 c83c 7400 713c c50e eb3b
00000040: 572f a83c feb0 7dbc 8993 8abc a3ff 50bc
00000050: c93c 123c a7ce 923b 5b9b a63b 604b 373c
00000060: 4003 2b3c 144b 573b 9708 54bc 8708 31bc
00000070: 24ad 17bb 8488 3a3c 5929 60bc a2e0 baba
00000080: 5b89 573c 928f 9ebb 4ff7 2dbc 8a10 6d3c
00000090: ec35 b13b f6f8 c63c c4aa c13a 2971 19bc
000000a0: 301d 0c3d 0c33 9bb8 e64c ad3c 6687 f5bb
000000b0: 9c76 d13b 114c afbb 3908 053d 9a09 9c3c
000000c0: 8606 90bc 8dca 943b 2461 23ba cb98 9bbb
000000d0: 9ae5 39bc eb3f 5dbc 7307 a6bc e110 e83a
000000e0: e515 d03c 6604 953c 7fb2 6b3c 2674 9abc
000000f0: a0ee 2fbb ae1f 733b 96bc 113b 7b26 bfba
00000100: 0dff 9e3c 8e10 233c f9c0 503b d1ff ca3b
00000110: 7c63 d8ba 0d77 543c 6717 543c a34c 123c
00000120: d5aa 26bc d75b b23b 22ad 0abc d83b 7b3c
00000130: a27e babc 1973 e1bb ae6c 1dbb 662e 373b
00000140: eac2 bdbb e0f8 8b3b 0fb4 09bc 465a b0bc
00000150: d400 6a3c a712 6e3c 9b99 c83c b4e5 f93b
00000160: 329d f2bb 6b56 30bc eb0e bf3c 7e3e 373c
00000170: 3f7c ccbb c368 753c f150 37bc 47d1 cc3c
00000180: 2c72 893b 9d1e 8b3c f15f b73b dfec 0bbc
00000190: fd11 0dbc 3114 a03c 19f9 803b 4c43 9c3c
000001a0: d5d9 a13c 1998 4a3c d786 75bc 2576 4cbc
000001b0: 984c 23bc 8f4b ce3c e1c6 e13b ea2d 74bc
000001c0: 77e3 d7bb de0a 93bb a2b5 953c baee 91bc
000001d0: 3757 bab8 30b6 4e3a 0a70 ea3a d272 14bc
000001e0: 0cb8 95bc 71d3 6bbc 09b2 a33b 4ca4 8dbc
000001f0: 547d 76bb bbf4 3a3c f644 3bbb 71fe 31bc
0.013390801 0.01965217 -0.0148777375 0.0039037196 -0.008843247 0.015248734 -0.012618293 0.0053209113
-0.002054753 0.016184382 -0.0044988943 0.024817944 -0.014131913 0.024493026 0.014709581 0.0071733915
0.020530386 -0.015484093 -0.016916053 -0.012756261 0.008925625 0.0044802013 0.005084438 0.011187404
0.010437787 0.0032851147 -0.012941501 -0.010805256 -0.0023143971 0.011385087 -0.013681733 -0.001425762
0.013155307 -0.0048388923 -0.010618045 0.014469275 0.0054080393 0.024288636 0.0014775624 -0.009365358
0.034207523 -7.400484e-05 0.021154832 -0.0074929474 0.006392313 -0.005349644 0.032478545 0.019047547
-0.017581236 0.0045407475 -0.00062324316 -0.004748439 -0.011346245 -0.013504009 -0.020267224 0.0017705226
0.025401065 0.018190574 0.0143858185 -0.018854212 -0.0026845112 0.003709774 0.002223765 -0.0014583612
0.019408727 0.009952677 0.0031853302 0.0061950465 -0.0016509141 0.012967837 0.012945033 0.008929404
-0.0101725655 0.005443077 -0.00846413 0.015334092 -0.022765461 -0.006880176 -0.0024021077 0.002795124
-0.005791058 0.0042716116 -0.008404746 -0.02152742 0.014282424 0.014530814 0.024487307 0.0076262597
-0.007403993 -0.010762791 0.023322543 0.011184333 -0.006240397 0.01497859 -0.0111887315 0.025002135
0.0041945186 0.016982371 0.005596154 -0.008540361 -0.008610246 0.019540878 0.0039359448 0.019075058
0.01975719 0.0123653645 -0.014985762 -0.01247934 -0.009966992 0.025182514 0.0068901633 -0.014903525
-0.006588395 -0.0044873795 0.018275086 -0.017814029 -8.885416e-05 0.00078854244 0.0017886173 -0.009060578
-0.018276237 -0.014393673 0.0049955887 -0.017290257 -0.0037611322 0.011410887 -0.002857504 -0.010863886

action_model._continuous_distribution.log_sigma f4 [1, 3]
00000000: 8764 37bd 6a28 bbbc f740 1b3b
-0.044773605 -0.02284642 0.0023689845

action_model._continuous_distribution.mu.weight f4 [3, 128]
00000000: 062b 3bbc 67c1 193d 2037 8bbc 3aa7 0c3b
00000010: ef68 a6bc ac64 90bc 65c4 3cbd f2e6 833c
00000020: eb47 853c a8da 4e3d b212 11bd 8705 f13b
00000030: ea55 6cbd f719 233c 0464 b13c d86c 4c3c
00000040: 2d78 cf3c 2232 84bc 635d 41bd 3db4 afbc
00000050: df8d d3ba af50 13bc 6d9a 043b ae8b e93c
00000060: ba5f 293c 3ea9 213b 4063 81bc 1dc9 83bd
00000070: 44f9 77bd d432 253d 4e51 02bc cd66 59bc
00000080: 74f1 c23c b435 31bc 0366 f9bc 76e5 a93c
00000090: 1215 ac3c cc27 e1bb fd65 8cbc 0ad6 e13a
000000a0: 5e8d 403d b63a 92bd 4a5f f33c f0d3 71bd
000000b0: 08be bf3c 1b1d 70bd 027a 373d 089a 593d
000000c0: fdb5 0ebd 29fa 5d3c 7019 99bb 40dc 27bd
000000d0: aa34 cdbc 8f8b 8cbc 78f6 23bd a369 a23c
000000e0: 8279 033d 24c7 1d3d f58e 0e3d 73ba c3bc
000000f0: d741 f7bb 29d0 f4bb 4ba3 54bc 0d3c 8ebd
00000100: 80ba f93c 91b3 813b 6824 9a3c 39c0 693c
00000110: 8518 1dbd ebd6 373c df31 ad3b 51cc be3c
00000120: 9105 11bb bc86 eabc 5672 1fbd 5f21 743c
00000130: 7861 eebc 44ca 2cbd 5fcd 5cba c580 00bd
00000140: f985 e5bc 7c04 363c cac3 72bc 3dd3 92bc
00000150: 9a25 403c c93e e13c 4193 483d a3c9 773b
00000160: 179e 25bc 08e2 fcbc 8eac 803d 1eb3 053d
00000170: 874e c4bc 1018 ef3a 5600 26bc fed2 d63c
00000180: 58b8 7b3c 3a45 43bc fc2a 86bc 4557 6ebb
00000190: bb54 d9bc e8fa 123c 246f 87bb 8ca8 7abd
000001a0: 0251 453d c87a 203a 86d2 3abd 6818 2abd
000001b0: 54ad f7bc 93d2 b53c edcc 613c af40 a2bc
000001c0: d27d 8f3b 9f39 02bd cf7e c43c 9583 31bd
000001d0: 8136 e9bc d9a1 ac3c 0a1d 823b b215 d7bc
000001e0: c683 17bd 859b 78bc 51ac 9bbc 972b bdbc
000001f0: 3e24 88bd 0e0a 9b3c d31c 62bc 10c2 8abc
00000200: f147 91bc 32e6 b33c a663 bb3c 8a87 a13c
00000210: 12a5 a93c 13ef d3bc fc8d 3d3c 3c6b 083d
00000220: 45de 1b3d 6afe c93b 728c 6a3c 0428 b7bc
00000230: dd9f 363c e9ec 6cbd 914d 07bd f2a2 813c
00000240: 6175 afbc 57c0 8b3a 8303 f83b 5f00 a83c
00000250: 7796 be3c 32cd 353d 8f92 06bd 3076 7d3c
00000260: a4bb 2e3d 1298 463c d2d0 06bc 7ecb fd3c
00000270: eb22 4b3d e307 fb3c 2185 b23c 6886 75bd
00000280: 7b8f 9bbc 1ac2 5cbc a3c3 71bc 1e00 28bc
00000290: 281b f73c 3300 f8bc 9921 9cbc eeae 183c
000002a0: 5317 053c da43 443d 112c 63bc 9a5f f2bb
000002b0: 33e0 fb3c ca4a 9c3c f6a3 d7bc fdea e1bc
000002c0: 3ec3 6f3c c2b8 c93b f2c9 7e3c ccf3 5fbc
000002d0: a7c1 5abc 37d2 133c e828 bb3c 9e4e f13c
000002e0: 03a2 d23b 9373 ec3c b763 4ebc e8ee 82bb
000002f0: 44b5 81bc 907c aebc c8ff 7e3d 798f 3dbd
00000300: b4f6 80bc a1b7 c9bc 8578 163d f49d 413d
00000310: f878 dfbc bc90 1bbd 51dd 39bd efe1 a23c
00000320: e148 ae3c 1b99 393d 50b9 443d fa5c b4bc
00000330: 215d 053b 08af 80bc 2be8 a0bc f4cc e0bc
00000340: ce83 7cbc a47d 163d 1ef4 0f3d c161 1f3c
00000350: 50be 78bc 1907 5f3d 073e 0f3c 985f dfbc
00000360: 80ef 063b 6ade 6c3c 0fe1 9dbc 63f5 0fbc
00000370: ed2f 543c a957 a4bc d952 c13b 28b5 e4bc
00000380: d3b7 053d abe7 18bd 63b8 80bc 5a50 3bbc
00000390: 1ba3 b03c 6a91 103d 3ff1 2cbc 23ff 4e3d
000003a0: bb54 023b 8f91 6fbc eb11 12bc d987 de3c
000003b0: f798 e2bb cab7 48bc 9238 fa3c 1280 58b8
000003c0: 1dc7 d33b 0b1e b33c 193c cdbc 66c7 093b
000003d0: 3a8d 3a3d 36c3 553d c882 1b3d 23af 003d
000003e0: 8a63 baba 834b f43c 89a7 5abc 6f2e 593b
000003f0: ecad 273d a426 11bd 2ae4 ed3c 0700 983c
-0.011423832 0.03753796 -0.01699406 0.002146198 -0.020313708 -0.01762613 -0.046085734 0.016101334
0.016269645 0.050501496 -0.03541822 0.0073553952 -0.05769912 0.009954921 0.021654136 0.012477122
0.025325859 -0.016137186 -0.0472082 -0.021448249 -0.0016140303 -0.008991404 0.0020233647 0.028508987
0.010337764 0.0024667527 -0.015794396 -0.06434844 -0.060540453 0.040331677 -0.007953955 -0.0132691385
0.023796774 -0.0108160265 -0.03044415 0.020739298 0.02100614 -0.0068711992 -0.017138476 0.0017229926
0.04700982 -0.071401045 0.029708523 -0.05904001 0.023406044 -0.058621507 0.04479409 0.05312541
-0.034841526 0.013548412 -0.004672222 -0.04098153 -0.025049526 -0.01715639 -0.040029973 0.019825762
0.0320983 0.038519993 0.034804303 -0.023892617 -0.0075456905 -0.0074711037 -0.012978385 -0.069450475
0.030484438 0.0039581736 0.018816188 0.014267021 -0.03835346 0.011220674 0.005285486 0.023290785
-0.0022128562 -0.0286287 -0.0389274 0.014900534 -0.029099211 -0.042185083 -0.00084229367 -0.031372804
-0.028017985 0.011109468 -0.014817188 -0.017922992 0.011727715 0.027495759 0.048968557 0.0037809394
-0.010108492 -0.030869499 0.06282912 0.032641523 -0.023963226 0.0018241424 -0.010131916 0.026223656
0.015363775 -0.01191836 -0.016377918 -0.0036367935 -0.02652966 0.0089709535 -0.004133122 -0.061195895
0.04817296 0.00061218115 -0.045610927 -0.041527182 -0.030234016 0.022195136 0.013781768 -0.019806234
0.0043790126 -0.031793233 0.023986248 -0.043338377 -0.028468372 0.021073269 0.003970747 -0.026255462
-0.036990903 -0.0151737975 -0.019003065 -0.023092074 -0.06647538 0.018925693 -0.013800818 -0.01693824
-0.0177345 0.021960352 0.022874665 0.01971795 0.020708594 -0.025870835 0.011569496 0.03330539
0.03805377 0.0061643617 0.014315711 -0.022357948 0.011146513 -0.057843123 -0.033032957 0.015824769
-0.021418275 0.001066218 0.007568778 0.02050799 0.023265107 0.044385143 -0.032854613 0.015470073
0.042659417 0.012121217 -0.008228498 0.030980822 0.049593847 0.03064341 0.021791996 -0.059942633
-0.018989315 -0.013474012 -0.014756116 -0.010253934 0.030164316 -0.030273532 -0.01905899 0.00931905
0.008123237 0.04791627 -0.013865487 -0.0073966505 0.030746555 0.019078631 -0.0263233 -0.027577871
0.014633952 0.006156058 0.015551077 -0.013668966 -0.013351834 0.009022287 0.022846654 0.029456433
0.0064280047 0.028863704 -0.012597016 -0.003995765 -0.015833504 -0.02129963 0.06225565 -0.046279404
-0.015742637 -0.024623694 0.03673603 0.047269776 -0.027279362 -0.037979826 -0.04537708 0.019883124
0.021274986 0.04531203 0.04802829 -0.02201699 0.0020349699 -0.015708461 -0.019641956 -0.02744148
-0.015412284 0.036740914 0.035144918 0.009727896 -0.015182093 0.05445013 0.008742816 -0.027267262
0.002058953 0.0144573245 -0.019272355 -0.008786532 0.0129508795 -0.02006133 0.005899769 -0.027918413
0.03264601 -0.03733031 -0.015712922 -0.0114327315 0.02156215 0.035294928 -0.010555564 0.050536286
0.001988693 -0.014622106 -0.008915405 0.027164387 -0.0069152075 -0.01225085 0.030544553 -5.1617688e-05
0.006462945 0.021864912 -0.02505307 0.0021023392 0.04554484 0.05218812 0.03796652 0.031417023
-0.0014220339 0.029821163 -0.013345608 0.003313925 0.04093735 -0.03543724 0.029039461 0.0185547

action_model._continuous_distribution.mu.bias f4 [3]
00000000: edfe a43c fac9 f9bb 0e03 b439
0.02014109 -0.0076229544 0.0003433455

exp_avg f4 [128, 6]
00000000: 1c95 47b8 9958 79b8 8fa9 3ab9 8089 3db8
00000010: 9958 79b8 c2d4 b6b8 4c3f 20b8 9f01 d4b7
00000020: 2090 5f35 47b7 84b8 a701 d4b7 24e2 2737
00000030: a354 cbb7 6003 cab7 c667 1ab7 56a8 37b8
00000040: 6003 cab7 3206 9f37 84cf 29b8 ca3f 8ab8
00000050: 5d19 48b9 da3b 7db8 cd3f 8ab8 28cb 87b8
00000060: ebcc 9eb8 5c05 92b7 759f 9c37 b8c8 7c37
00000070: 5c05 92b7 321c 2738 ec5b fcb8 c2ed c437
00000080: c910 b438 e41e 9636 cbed c437 1702 7db7
00000090: b8dc b136 4250 88b8 7cee 1039 b7be c2b8
000000a0: 4250 88b8 582f f436 2c1d 29b8 962e a738
000000b0: 24ff 0b39 8adf a338 952e a738 fae1 f537
000000c0: e849 cfb8 123c 36b8 0880 8bb8 2a25 74b8
000000d0: 123c 36b8 e4f0 83b8 6dc6 b6b7 dc86 b338
000000e0: 2171 0339 1ad2 0239 e286 b338 7c96 1b39
000000f0: 70e6 87b8 30a6 40b7 6b5a 8638 58ce f9b7
00000100: 30a6 40b7 ad66 0739 aefa e1b8 923f 3138
00000110: 18bc 3938 c2e9 9737 8e3f 3138 7a34 ad38
00000120: 5f5b d3b8 6f0f f538 4af1 f138 eb4e f938
00000130: 6f0f f538 8eee c338 aaaf a937 5040 6937
00000140: 0534 b3b7 c80f ed37 4d40 6937 9682 b0b7
00000150: c293 55b8 a3e9 8238 b2bc 0c39 047e 4438
00000160: a3e9 8238 5c8a 3538 c237 b5b8 e05a a437
00000170: 9019 dfb8 d186 7438 e45a a437 80c2 92b5
00000180: 94a1 0138 b33e 46b8 78a0 d737 115e 98b8
00000190: b33e 46b8 5062 9838 2229 1c38 d6dd 8e37
000001a0: 467b 0339 6920 a137 cfdd 8e37 3570 80b7
000001b0: 0712 3238 3e0e 63b8 3abd 52b9 4e75 39b8
000001c0: 3e0e 63b8 e981 3b38 54f2 0739 004b cfb8
000001d0: 4c06 9cb8 406e 15b9 fe4a cfb8 a4e0 27b9
000001e0: 4b6f d6b7 4e2c 7eb7 c2c0 f538 b720 1db8
000001f0: 4e2c 7eb7 1bd8 8438 1218 7cb9 5603 5c38
00000200: d86b 8a38 f661 5436 5803 5c38 6674 c5b8
00000210: 00a6 f337 7496 a237 227e eb37 f11f 1937
00000220: 7496 a237 5633 94b7 616b 52b9 3e95 4d37
00000230: ca47 a938 ac92 cfb8 5395 4d37 88d5 3d37
00000240: 890a 8238 90cf 1437 a470 f138 7c67 9db8
00000250: 90cf 1437 c0d0 f836 f606 c4b6 becf dcb7
00000260: 5f6d 3ab9 cd72 15b8 becf dcb7 d76d 1a38
00000270: 8043 6e37 ace3 14b8 002c 4137 00e5 6ab7
00000280: ace3 14b8 2b8c 8bb8 17d3 64b7 b058 8f37
00000290: 5e3a c2b7 5a51 7738 a358 8f37 bea1 3639
000002a0: b6e4 ba37 294e 82b8 3424 2eb8 32a1 9eb8
000002b0: 294e 82b8 92a4 5eb8 2608 fc38 dbc0 ddb8
000002c0: e5d8 a1b8 c852 11b9 dac0 ddb8 ce85 dbb8
000002d0: 4e82 8839 e006 19b9 85a7 71b8 1d60 47b9
000002e0: e006 19b9 cc01 5a38 9a2d dbb8 526d 8838
000002f0: 1b7c c039 0402 0938 546d 8838 9a2d 6938
00000300: 00b6 ecb7 e368 4d38 aab1 2939 eeeb 2738
00000310: e368 4d38 b335 02b9 4a30 31b9 70ef 8b37
00000320: 7738 0a38 3ede 53b7 70ef 8b37 caea 26b8
00000330: a455 09b8 eb10 0138 1011 25b7 a65d 1038
00000340: eb10 0138 803c b4b7 a27f 44b8 8968 fd38
00000350: 02d5 8039 6803 fa38 8b68 fd38 50e9 c738
00000360: a0fb 3637 9f8c 1eb9 cc3d 1cb9 eb2b 20b9
00000370: 9f8c 1eb9 7878 8a37 8225 12b9 8812 66b7
00000380: dc36 4e37 ca7f 88b8 5812 66b7 34cd 9838
00000390: fea9 94b8 2b3a 06b8 7c8b 0839 dd24 8fb8
000003a0: 2b3a 06b8 55d4 00b7 31c3 d6b8 aa05 e8b8
000003b0: c656 90b8 4a00 26b9 a805 e8b8 40e0 9b37
000003c0: af2f 5838 c44a f3b8 4121 99b8 258e 3ab9
000003d0: c44a f3b8 72a1 0c39 f093 bb38 bcac 0ab8
000003e0: 5838 2a37 96b4 08b8 b6ac 0ab8 9eef bdb8
000003f0: eb57 1ab8 9c1d 8f38 daf2 d237 4950 d738
-4.7584166e-05 -5.944874e-05 -0.00017801508 -4.518917e-05 -5.944874e-05 -8.7180655e-05 -3.8205922e-05 -2.5273124e-05
8.3283703e-07 -6.3283886e-05 -2.5273139e-05 1.0006628e-05 -2.4238898e-05 -2.4081848e-05 -9.203277e-06 -4.3787375e-05
-2.4081848e-05 1.8957162e-05 -4.0486004e-05 -6.5922344e-05 -0.00019082935 -6.037564e-05 -6.5922366e-05 -6.4751424e-05
-7.572196e-05 -1.7407052e-05 1.8670902e-05 1.5067104e-05 -1.7407052e-05 3.984216e-05 -0.00012033418 2.3475735e-05
8.586195e-05 4.4739445e-06 2.3475752e-05 -1.5080462e-05 5.300706e-06 -6.4999345e-05 0.00013821753 -9.286164e-05
-6.4999345e-05 7.277278e-06 -4.031991e-05 7.971858e-05 0.0001335112 7.814083e-05 7.971857e-05 2.9311504e-05
-9.884295e-05 -4.3448126e-05 -6.651884e-05 -5.8208745e-05 -4.3448126e-05 -6.291436e-05 -2.178849e-05 8.560505e-05
0.00012535277 0.00012476035 8.560509e-05 0.00014838012 -6.480224e-05 -1.1482785e-05 6.4064596e-05 -2.97792e-05
-1.1482785e-05 0.00012912853 -0.00010775529 4.2259293e-05 4.4282613e-05 1.8109455e-05 4.225928e-05 8.259057e-05
-0.00010078283 0.00011685385 0.00011536719 0.00011887945 0.00011685385 9.342759e-05 2.022817e-05 1.3902856e-05
-2.1362686e-05 2.825995e-05 1.3902853e-05 -2.1041644e-05 -5.0920768e-05 6.242401e-05 0.00013421735 4.6847403e-05
6.242401e-05 4.328262e-05 -8.641138e-05 1.959264e-05 -0.0001063823 5.829969e-05 1.9592648e-05 -1.0934455e-06
3.0906478e-05 -4.7265272e-05 2.5704721e-05 -7.265446e-05 -4.7265272e-05 7.266237e-05 3.7231606e-05 1.703102e-05
0.00012539056 1.9207788e-05 1.7031007e-05 -1.531104e-05 4.2455296e-05 -5.413428e-05 -0.00020097653 -4.4216686e-05
-5.413428e-05 4.4705263e-05 0.00012964878 -9.884499e-05 -7.4398326e-05 -0.00014250819 -9.8844976e-05 -0.00016010046
-2.5562613e-05 -1.5149895e-05 0.00011718414 -3.7462185e-05 -1.5149895e-05 6.334503e-05 -0.0002404156 5.2455194e-05
6.60044e-05 3.1647483e-06 5.24552e-05 -9.415373e-05 2.9045157e-05 1.9381965e-05 2.8072918e-05 9.126948e-06
1.9381965e-05 -1.766688e-05 -0.00020067162 1.22537e-05 8.07192e-05 -9.897849e-05 1.2253719e-05 1.13149945e-05
6.2008454e-05 8.869814e-06 0.000115127565 -7.505619e-05 8.869814e-06 7.4152777e-06 -5.8420655e-06 -2.6322781e-05
-0.00017779086 -3.5631285e-05 -2.6322781e-05 3.6818758e-05 1.42016215e-05 -3.5497986e-05 1.1513941e-05 -1.4000805e-05
-3.5497986e-05 -6.654145e-05 -1.3639007e-05 1.7088227e-05 -2.3153782e-05 5.8965154e-05 1.7088203e-05 0.00017417126
2.227943e-05 -6.2134415e-05 -4.151855e-05 -7.564052e-05 -6.2134415e-05 -5.3082193e-05 0.00012017814 -0.00010574023
-7.717478e-05 -0.00013859116 -0.000105740226 -0.00010467657 0.00026037026 -0.00014593778 -5.7614892e-05 -0.00019013924
-0.00014593778 5.1976924e-05 -0.00010451228 6.505348e-05 0.0003671356 3.2665223e-05 6.505349e-05 5.5594e-05
-2.8218143e-05 4.8973492e-05 0.00016183281 4.003563e-05 4.8973492e-05 -0.0001241777 -0.00016898024 1.6681588e-05
3.295435e-05 -1.2628325e-05 1.6681588e-05 -3.979615e-05 -3.2743104e-05 3.0771753e-05 -9.838739e-06 3.4419492e-05
3.0771753e-05 -2.1485845e-05 -4.684891e-05 0.00012083451 0.00024572766 0.000119215634 0.00012083453 9.532517e-05
1.0906631e-05 -0.0001512044 -0.0001490034 -0.0001527515 -0.0001512044 1.650698e-05 -0.00013937618 -1.3713383e-05
1.229133e-05 -6.508788e-05 -1.3713339e-05 7.286147e-05 -7.0888535e-05 -3.2002263e-05 0.00013021933 -6.825638e-05
-3.2002263e-05 -7.678832e-06 -0.000102406724 -0.00011063677 -6.882618e-05 -0.00015831101 -0.000110636756 1.8581864e-05
5.1542822e-05 -0.00011601069 -7.3018025e-05 -0.00017791295 -0.00011601069 0.00013411583 8.9444104e-05 -3.3062635e-05
1.0145908e-05 -3.259311e-05 -3.3062614e-05 -9.0568545e-05 -3.679834e-05 6.8242865e-05 2.5147037e-05 0.00010266953

exp_avg_sq f4 [128, 6]
00000000: 2a94 9d33 394f 4e33 71d6 2033 0acf ef33
00000010: 394f 4e33 b4ae a433 3315 8c32 4e2d f531
00000020: 8c88 6d32 1442 8832 4e2d f531 fb7d 6132
00000030: f778 2531 ee7b 8f30 4f09 5031 f732 2331
00000040: ee7b 8f30 f91e 4431 454b aa32 6383 6732
00000050: 507e 9632 4c3e f932 6283 6732 3c2d 7532
00000060: bd8e 1233 e888 ac32 6ee5 8532 9731 3533
00000070: e888 ac32 0a54 0133 8821 5832 6d18 8431
00000080: c69c 0432 ddd6 0132 6a18 8431 e8a1 0532
00000090: 7754 dc32 acd2 1432 0c60 bf32 d93e a532
000000a0: acd2 1432 e95a 6732 af48 0432 ed6f 6531
000000b0: 253f f331 c7f7 e931 e96f 6531 19bd 7031
000000c0: 8ab5 be32 2b0c 1c32 a61c 8a32 b833 a932
000000d0: 2b0c 1c32 6be4 c232 6817 f232 cfa5 1332
000000e0: 70ec 9132 ae5c b032 cca5 1332 2856 9632
000000f0: e3b3 a633 c2b1 0233 0c53 9933 0691 8733
00000100: c2b1 0233 ab0d 9533 c18f ae32 53bd d631
00000110: e841 2d32 2e93 6732 54bd d631 a5d6 d532
00000120: d4dd 8e33 2b09 e432 179b 4233 dcac 7a33
00000130: 2b09 e432 987b 9033 a560 3432 5e58 6631
00000140: 39d5 0f32 a5a6 2532 5c58 6631 f9b5 9231
00000150: 91fb 2133 b76a 3432 b2dc c732 ca8a ae32
00000160: b76a 3432 441b 0d33 33e6 1033 b4c2 a932
00000170: 2c8e db32 0f06 4433 b5c2 a932 fd2a 1333
00000180: ba93 9132 1f73 e031 adcc a932 92f9 8732
00000190: 1f73 e031 d6d0 ed31 4d70 3c32 ea56 6531
000001a0: 7378 4d32 0c97 fc31 eb56 6531 ee83 0532
000001b0: 397e 5933 6606 f632 3a0f 0c33 0274 8e33
000001c0: 6606 f632 a002 5633 828c 2033 3f8f 8e32
000001d0: 8cfc ed32 0e6b 2233 3c8f 8e32 07d4 4533
000001e0: 383a a532 8a62 c831 3fc4 6e32 72c0 7a32
000001f0: 8a62 c831 71d8 6432 4450 5e33 ff2f 8732
00000200: 4442 b932 5e5f 0733 ff2f 8732 ce67 9232
00000210: 735d 3432 db3d f731 0abc 5632 c466 7b32
00000220: db3d f731 7d80 5332 59aa 0f34 6580 3533
00000230: f08e b833 b5ae d533 6380 3533 830f 3833
00000240: 03b7 4a34 998f bc33 1a39 f433 41b8 5834
00000250: 998f bc33 078a e533 ca9f 4e32 4fca c731
00000260: 7194 6032 1818 6332 4eca c731 fce9 8732
00000270: 4006 8a33 4008 1633 c3ab 2733 ea0e 9a33
00000280: 4008 1633 87b0 7d33 fac4 f532 045f bc32
00000290: 49ff d832 83a5 6133 035f bc32 1ccb 3633
000002a0: 8c3d 1f33 0415 8532 2838 0233 953b 1a33
000002b0: 0415 8532 b3a0 0233 36de 2132 292b a031
000002c0: 9df1 2032 f85e 3532 282b a031 8578 5d32
000002d0: 6691 6b33 b303 bb32 f0fc 1633 d002 5f33
000002e0: b303 bb32 6e63 5133 cbd1 d233 74d5 1133
000002f0: f615 a533 6c8b a533 74d5 1133 038a 7a33
00000300: dfa9 4833 20a0 4432 d7fa 9a32 4e78 bb32
00000310: 20a0 4432 7935 8a32 9abf 6532 f596 6531
00000320: 364c a731 6acd 0332 f696 6531 4b6f 1332
00000330: 5408 9131 d15d 0631 ad4a 6b31 f660 8b31
00000340: d15d 0631 ca18 1332 cb6b 9133 3c0d d832
00000350: bde9 8a33 a34d 5f33 3f0d d832 cf4e 9933
00000360: da3e 8c33 5048 1a33 f95e 9d33 1a4c b033
00000370: 5048 1a33 0b8f 6233 c7de 8433 6e83 0b33
00000380: 97b3 0433 a2c4 a033 6a83 0b33 e859 eb33
00000390: 9650 7633 ca0c 6332 d8d3 0033 d255 f032
000003a0: ca0c 6332 df48 a132 4ba0 7d33 a419 3a33
000003b0: bf38 a933 9278 c633 a419 3a33 7c45 e533
000003c0: 178e 8e32 7f1c 0032 8f1f 8832 cdb9 8f32
000003d0: 7f1c 0032 ed33 5032 0262 5b32 4d4d e431
000003e0: f1bf 0d32 21c8 8032 4a4d e431 b391 c532
000003f0: a8e6 ee32 741a 3f32 cbd3 a032 f0b0 dd32
7.337833e-08 4.8035165e-08 3.7447936e-08 1.1166965e-07 4.8035165e-08 7.6686234e-08 1.6307785e-08 7.135589e-09
1.3826263e-08 1.5862533e-08 7.135589e-09 1.3125368e-08 2.407942e-09 1.0439842e-09 3.0273275e-09 2.3748592e-09
1.0439842e-09 2.853936e-09 1.9824833e-08 1.34758436e-08 1.7519739e-08 2.9015744e-08 1.3475843e-08 1.4271162e-08
3.4123094e-08 2.0085693e-08 1.558757e-08 4.2187448e-08 2.0085693e-08 3.0111586e-08 1.2580479e-08 3.8444825e-09
7.719057e-09 7.5576425e-09 3.844481e-09 7.778432e-09 2.5649781e-08 8.662635e-09 2.2279004e-08 1.9237108e-08
8.662635e-09 1.346664e-08 7.699938e-09 3.3387508e-09 7.0794095e-09 6.8093615e-09 3.33875e-09 3.5032086e-09
2.2201466e-08 9.083162e-09 1.6078342e-08 1.9697708e-08 9.083162e-09 2.2688445e-08 2.8183152e-08 8.594227e-09
1.6987741e-08 2.0531242e-08 8.594224e-09 1.7501478e-08 7.7626986e-08 3.0429653e-08 7.139724e-08 6.312807e-08
3.0429653e-08 6.9408394e-08 2.0321638e-08 6.2497434e-09 1.0084911e-08 1.34794345e-08 6.249744e-09 2.4894073e-08
6.6527406e-08 2.6546862e-08 4.53102e-08 5.8364876e-08 2.6546862e-08 6.728004e-08 1.0499353e-08 3.3519636e-09
8.372177e-09 9.642155e-09 3.3519632e-09 4.269847e-09 3.7714532e-08 1.0501643e-08 2.326701e-08 2.031938e-08
1.0501643e-08 3.285392e-08 3.3736978e-08 1.976273e-08 2.5559608e-08 4.5640316e-08 1.9762732e-08 3.4265202e-08
1.69474e-08 6.5323458e-09 1.9767265e-08 1.582956e-08 6.5323458e-09 6.9213497e-09 1.09685745e-08 3.337329e-09
1.19599575e-08 7.3513373e-09 3.3373293e-09 7.771616e-09 5.063905e-08 2.8641079e-08 3.261014e-08 6.633492e-08
2.8641079e-08 4.9828145e-08 3.7380694e-08 1.6596116e-08 2.7705276e-08 3.781593e-08 1.6596111e-08 4.6060475e-08
1.9235003e-08 5.8319687e-09 1.38980445e-08 1.4595672e-08 5.8319687e-09 1.332056e-08 5.1761404e-08 1.5737895e-08
2.1566969e-08 3.1518873e-08 1.5737895e-08 1.7043842e-08 1.0498627e-08 7.1956783e-09 1.2499195e-08 1.4633489e-08
7.1956783e-09 1.2311031e-08 1.3379885e-07 4.225912e-08 8.594168e-08 9.9503644e-08 4.2259114e-08 4.2854946e-08
1.8879295e-07 8.7805525e-08 1.1372522e-07 2.0183599e-07 8.7805525e-08 1.06887505e-07 1.202711e-08 5.814662e-09
1.3072268e-08 1.3218617e-08 5.8146616e-09 1.5822472e-08 6.4272626e-08 3.49321e-08 3.9038934e-08 7.173897e-08
3.49321e-08 5.9066704e-08 2.8611328e-08 2.1929289e-08 2.52618e-08 5.2537427e-08 2.1929287e-08 4.2559904e-08
3.707605e-08 1.5492795e-08 3.0319057e-08 3.591011e-08 1.5492795e-08 3.041414e-08 9.421958e-09 4.6615196e-09
9.368162e-09 1.055718e-08 4.661519e-09 1.2891296e-08 5.484744e-08 2.1771347e-08 3.5154642e-08 5.192379e-08
2.1771347e-08 4.8752035e-08 9.817048e-08 3.3954578e-08 7.687406e-08 7.708772e-08 3.3954578e-08 5.8333182e-08
4.6720626e-08 1.144511e-08 1.8042028e-08 2.1824373e-08 1.144511e-08 1.6089631e-08 1.33731195e-08 3.3409695e-09
4.869004e-09 7.671909e-09 3.3409697e-09 8.581831e-09 4.221002e-09 1.9552895e-09 3.423945e-09 4.0564556e-09
1.9552895e-09 8.5621625e-09 6.771696e-08 2.5151728e-08 6.4686425e-08 5.1991844e-08 2.5151733e-08 7.138953e-08
6.530691e-08 3.5921687e-08 7.3281576e-08 8.2094815e-08 3.5921687e-08 5.2749822e-08 6.187252e-08 3.2482994e-08
3.089698e-08 7.486348e-08 3.248298e-08 1.0959394e-07 5.734963e-08 1.3216047e-08 2.9994993e-08 2.7978704e-08
1.3216047e-08 1.8776005e-08 5.905194e-08 4.332982e-08 7.879998e-08 9.242025e-08 4.332982e-08 1.06762826e-07
1.659559e-08 7.45706e-09 1.5846835e-08 1.6731883e-08 7.45706e-09 1.2119e-08 1.2769762e-08 6.6444614e-09
8.250923e-09 1.499217e-08 6.64446e-09 2.3000075e-08 2.7811737e-08 1.1123678e-08 1.8722764e-08 2.5808248e-08

exp_avg f4 [128]
00000000: d4c9 4fb8 feab b0b7 2858 a8b7 586a 66b8
00000010: 285e 73b7 7c1b a437 6c30 63b8 7c51 8b38
00000020: bedc 17b8 079b 9538 f889 20b7 fdb4 1338
00000030: 8b37 cc38 4560 4237 0530 5a38 62f6 8837
00000040: 3b34 25b8 651c 6e37 8236 3db8 80be acb8
00000050: 88cf 53b7 2458 3738 627d 8737 dc51 2b37
00000060: e002 f836 7d02 b8b7 0c26 f8b7 1ae9 6e37
00000070: ec2c 59b8 5dcb b8b8 710b ffb8 e260 6338
00000080: bd2c 2b38 bb39 6937 2e1c d737 772c d338
00000090: d61f 04b9 20ba 3fb7 41b6 dfb7 0b5a c1b8
000000a0: 4dbe cab8 df1f e7b7 b486 6e38 0d1b 49b7
000000b0: 03f0 84b8 5380 06b9 a08a 00b8 ac1c bf37
000000c0: 2ca2 9638 b53b a6b7 9dae cab8 e495 1ab9
000000d0: cc32 61b8 89bc 2038 ab4c eb36 5df6 fab8
000000e0: 7096 89b6 904b cf36 63fc 0cb9 4819 e3b7
000000f0: 5e9b bb37 6371 b137 f185 bdb8 4c7e 30b9
00000100: 409e 94b8 c908 5938 a893 0338 06c9 91b8
00000110: 6a52 a3b8 9480 60b7 f7c7 3eb9 51ac 8537
00000120: 7ee3 8838 6c73 8138 543d 5a37 fea0 69b7
00000130: 2c0d 78b8 a47f 55b7 4b1c 06b7 dcc1 cb34
00000140: a833 15b8 55a5 be37 c45e 0b39 6c9f 29b8
00000150: 183e 8736 a066 fc34 75a7 22b9 e4a2 4eb9
00000160: 815a c836 a2fb b138 06ad 36b7 1a01 cc38
00000170: d20c 85b8 87ae 0cb7 7a66 48b6 cd17 bf38
00000180: 2055 89b8 5b3e 95b7 0660 a537 6669 de37
00000190: 8a1a c8b8 2e46 a9b8 0c0f 96b8 71dc 4bb9
000001a0: 30b2 81b6 d0a0 c5b7 8e8c ab38 3b6f 2c38
000001b0: 1543 fc36 fee7 49b7 88f1 78b6 104d a636
000001c0: 8732 05b9 6eb0 80b7 28f0 c9b7 7caf 01b9
000001d0: ec13 ee38 7fd7 1cb8 262c 65b7 3cc8 8eb8
000001e0: 70f8 9bb8 2ae3 5b38 1b9c 8437 3a00 50b9
000001f0: 5354 4537 67d3 c337 21c9 0238 e415 a036
-4.9540613e-05 -2.1060925e-05 -2.0068212e-05 -5.4935314e-05 -1.4505851e-05 1.9563122e-05 -5.4166114e-05 6.643214e-05
-3.6206788e-05 7.13375e-05 -9.5688665e-06 3.521609e-05 9.737824e-05 1.1585716e-05 5.2019972e-05 1.6327194e-05
-3.938771e-05 1.4192517e-05 -4.5111876e-05 -8.2370825e-05 -1.26249e-05 4.3712687e-05 1.615164e-05 1.0211454e-05
7.3913106e-06 -2.1935668e-05 -2.958162e-05 1.4240179e-05 -5.177867e-05 -8.811683e-05 -0.00012161479 5.4211247e-05
4.0811243e-05 1.3901324e-05 2.564312e-05 0.00010069546 -0.00012600361 -1.1427823e-05 -2.666854e-05 -9.219729e-05
-9.667557e-05 -2.7552187e-05 5.6869074e-05 -1.1986832e-05 -6.338956e-05 -0.0001282704 -3.0646683e-05 2.2782326e-05
7.182764e-05 -1.9816545e-05 -9.664635e-05 -0.00014742423 -5.369149e-05 3.832256e-05 7.012471e-06 -0.00011966818
-4.1004314e-06 6.1778774e-06 -0.00013445462 -2.7072281e-05 2.2364486e-05 2.1152844e-05 -9.037171e-05 -0.00016831717
-7.086666e-05 5.1745013e-05 3.137035e-05 -6.951582e-05 -7.7877965e-05 -1.3381377e-05 -0.00018194305 1.5935077e-05
6.527359e-05 6.172698e-05 1.3008092e-05 -1.3925366e-05 -5.9140075e-05 -1.2725508e-05 -7.99361e-06 3.7952748e-07
-3.5572477e-05 2.2726754e-05 0.00013291376 -4.0441213e-05 4.030542e-06 4.7013327e-07 -0.00015511907 -0.00019706372
5.9710005e-06 8.486888e-05 -1.08883305e-05 9.727683e-05 -6.344322e-05 -8.385286e-06 -2.9861972e-06 9.112023e-05
-6.548525e-05 -1.779122e-05 1.9714247e-05 2.6513542e-05 -9.5416864e-05 -8.07162e-05 -7.15536e-05 -0.0001944171
-3.8652433e-06 -2.3559114e-05 8.180096e-05 4.1111587e-05 7.5179946e-06 -1.20345485e-05 -3.709547e-06 4.9561568e-06
-0.00012702691 -1.5340946e-05 -2.4072899e-05 -0.00012367772 0.00011352435 -3.7393995e-05 -1.3659743e-05 -6.808384e-05
-7.437251e-05 5.2425232e-05 1.5808318e-05 -0.0001983651 1.1761748e-05 2.3344253e-05 3.118173e-05 4.77092e-06

exp_avg_sq f4 [128]
00000000: 3c45 0f33 0443 aa31 9448 4730 e5c5 2032
00000010: aca1 6f32 3c77 3731 c9b2 ce31 d054 1f31
00000020: 94bb d831 e610 cd31 1b85 b532 ed1f 9531
00000030: b65b 9e32 40f6 1f31 3294 fa31 46c7 6b32
00000040: 27de 9b31 7b43 1f31 c3d9 aa32 d9ff 4532
00000050: 0328 8b31 b2c2 3b32 12b2 ab31 e115 fc32
00000060: f3f1 8233 41be 8a31 d860 d032 32d0 8232
00000070: 0fd6 3832 d774 5e31 0fdf 8132 0d8c ca32
00000080: a68b 0832 f56f 1f31 bb9e ba30 2d09 9632
00000090: eb47 d632 bbc4 c132 76ac 1d32 7b3c 0133
000000a0: aaee b131 038b 9e31 e8b5 0432 44b2 6131
000000b0: b722 ab32 01e4 cf32 c76c 0b31 5390 0b31
000000c0: 9c78 e832 4943 1a32 1738 d832 7327 c632
000000d0: e8bf 0431 561b a131 cb7e ed30 9799 2c33
000000e0: b437 7c32 2843 e432 f335 7333 f65b 0433
000000f0: 6831 c033 ffa3 1b31 ba2e e032 8c28 1933
00000100: 585b 3932 ada1 2e31 dc58 c831 101e 1733
00000110: daad 0133 8115 0a31 2369 1133 2a60 8c30
00000120: 9665 e732 c7e4 a732 3fea f12e e2ec d52f
00000130: b164 0e32 c457 4f31 b921 682f aca4 3b2f
00000140: c8c6 1731 beec a632 2163 f132 16b9 a932
00000150: b0bf 2c32 86aa e32f 9dc7 6332 499c 0834
00000160: 99be 8132 acbc e431 734c 2a32 1a8f 4d32
00000170: 631c a532 99a0 5f30 2f96 8d31 b0c8 2132
00000180: 4b51 e232 9cc1 1832 7223 d631 ec2a aa31
00000190: 0d52 a933 ffd1 3132 f021 d031 50f0 2133
000001a0: edf0 6932 f375 5c31 ce18 7b32 c85f 1c33
000001b0: 4c19 3932 8c0a c532 82ac 2b31 d947 6232
000001c0: 444a d932 8f11 4732 0dae 4631 3432 9132
000001d0: 814d 1333 2e14 bf31 1d45 e32f 5e2a ab33
000001e0: ae92 9832 9bf8 8530 f20f 6931 eaa5 8e33
000001f0: d700 f130 f100 fb2f 20ed b331 1b98 9432
3.335775e-08 4.95527e-09 7.249892e-10 9.358222e-09 1.3948391e-08 2.6697782e-09 6.0157146e-09 2.3185756e-09
6.3077525e-09 5.9682064e-09 2.1131703e-08 4.3401003e-09 1.8435326e-08 2.3277522e-09 7.2928055e-09 1.372411e-08
4.5363495e-09 2.3175903e-09 1.9889631e-08 1.1525082e-08 4.0499812e-09 1.0929101e-08 4.9969993e-09 2.934661e-08
6.097607e-08 4.037958e-09 2.4258426e-08 1.5228668e-08 1.0758881e-08 3.2371668e-09 1.5119012e-08 2.3579583e-08
7.947994e-09 2.3201185e-09 1.3578395e-09 1.7466471e-08 2.4945583e-08 2.255762e-08 9.177816e-09 3.009016e-08
5.178511e-09 4.614209e-09 7.724772e-09 3.2843142e-09 1.9922807e-08 2.4201656e-08 2.0288995e-09 2.03092e-09
2.7063201e-08 8.979279e-09 2.5171216e-08 2.3068173e-08 1.9317614e-09 4.6888244e-09 1.7280056e-09 4.018656e-08
1.4680996e-08 2.6573233e-08 5.6626913e-08 3.0817283e-08 8.949684e-08 2.264869e-09 2.609828e-08 3.5659966e-08
1.0789186e-08 2.5412235e-09 5.8308682e-09 3.518477e-08 3.019327e-08 2.0093867e-09 3.3856065e-08 1.0213672e-09
2.6938135e-08 1.9545395e-08 1.10010216e-10 3.891279e-10 8.288382e-09 3.0172354e-09 2.1112258e-10 1.7066054e-10
2.2086386e-09 1.9432601e-08 2.8101171e-08 1.9758357e-08 1.0055302e-08 4.1412224e-10 1.3258526e-08 1.2722843e-07
1.510425e-08 6.657123e-09 9.912685e-09 1.1965108e-08 1.9221437e-08 8.135515e-10 4.120714e-09 9.4170645e-09
2.634683e-08 8.891586e-09 6.2322494e-09 4.952531e-09 7.884601e-08 1.0350504e-08 6.057455e-09 3.7704297e-08
1.3617165e-08 3.208126e-09 1.4615763e-08 3.6408693e-08 1.0774169e-08 2.2938615e-08 2.4981834e-09 1.3171268e-08
2.5295897e-08 1.1587317e-08 2.8911729e-09 1.6903051e-08 3.4296594e-08 5.561126e-09 4.1340167e-10 7.9705146e-08
1.7761831e-08 9.747682e-10 3.3915026e-09 6.64257e-08 1.7535297e-09 4.5657303e-10 5.2365436e-09 1.7298637e-08
