results/Test21/MoveToTarget/checkpoint.pt (torch, 149922 bytes, 12 tensors)

network_body._body_endoder.seq_layers.0.weight f4 [128, 6]
0.4761597 0.38756913 0.6991651 0.062213343 -0.13543923 -0.3995382 0.30163926 -0.2270549
-0.46191856 0.07930755 0.30784312 -0.13587378 -0.26039386 -0.15582329 0.032296542 -0.15986156
-0.0044130944 0.12523425 -0.15883355 0.9572118 -0.66684896 0.57159925 0.088291146 -0.7390219
0.70437205 -0.35593113 -0.7098519 -0.20983432 -0.6227567 -0.27534223 -0.7692604 -0.4622999
0.010904569 0.13189508 0.1056169 -0.11791676 0.31810188 -0.36640695 -0.35205036 0.145424
0.11847389 0.40995988 0.32851636 0.6042704 -0.30664074 -0.058081664 0.45585558 -0.30315945
-0.0080972 -0.2477483 0.10539129 0.47041416 -0.15057185 -0.5688671 -0.8135242 -0.12049699
-0.42298388 -0.41108724 -0.7970064 0.10847027 -0.16858889 0.31679192 0.39203912 -0.21908756
-0.55277604 0.03971389 -0.26353124 0.6128761 -0.5097104 -0.06581836 0.4275081 0.05983258
0.12821424 -0.03454371 -0.13793746 0.036779758 0.3396132 -0.13661318 -0.04505274 0.06329139
-0.73835313 0.41227126 0.08773997 0.18127266 0.52999324 0.22442627 0.032472804 -0.23642842
0.29151973 0.11187644 -0.45813027 -0.16018766 0.024615873 0.12169934 -0.44186157 -0.2535515
-0.5049522 0.5612122 0.19314425 0.72264284 0.016334873 0.27536777 0.40107575 0.6486631
0.43259797 -0.2929136 0.33142927 -0.014532897 0.1432659 0.81481314 -0.32559985 0.24037991
-0.0026879413 0.4438027 -0.4907176 0.06336728 0.034170788 -0.07027767 0.07648178 0.13031384
-0.11735636 -0.5370409 -0.48123658 -0.49954578 -0.1893276 0.4932487 -0.6073413 -0.2788703
0.532525 0.31493965 -0.07564363 0.5009326 0.5450721 -0.30960858 -0.16352262 0.45439526
-0.44106942 -0.7318671 0.5063517 0.6061152 -0.49986538 0.027702522 -0.4951605 -0.3833691
0.2648583 0.22165792 0.84739256 0.19624478 0.068704374 0.19605456 -1.0796928 -0.21288912
0.9995757 0.255648 0.26761487 0.4219066 0.12480072 0.5191649 0.43997246 0.12805931
-0.12941684 0.010606442 0.1409227 -0.34243378 -0.05718745 0.26863438 0.025968898 0.21533217
0.473125 -0.2090022 -0.5556111 0.6345182 -0.32040277 0.8230759 0.52202284 0.3289177
-0.35415325 0.7167909 0.112149246 0.53972995 0.22286472 -0.006742567 -0.54538155 0.69123966
-0.061531916 0.34176847 0.68329394 -0.25802213 -0.1403023 -0.46872944 -0.1033494 -0.42538518
-0.22728221 -0.4377968 -0.44018382 -0.13710342 -0.18494877 0.051534608 0.2264071 -0.31568053
0.068116345 -0.33474612 0.27422115 -0.4671136 0.1594017 0.048473973 0.7920874 0.6576529
-0.075652026 -0.030615335 0.11769926 -0.37002924 0.2862917 0.7939414 -0.19258605 0.14595918
-0.48224267 -0.074818596 0.3948354 0.016920522 -0.53712183 -0.01704126 -0.7915077 -1.0519906
-0.07203992 0.18230154 -0.39893916 0.036790922 -0.9211516 0.31116137 -0.3430561 0.010563432
0.412577 0.22850882 -0.23927729 0.08980221 -0.27089676 0.48683512 0.014952472 -0.2758684
0.18430474 0.58747715 -0.27605513 -0.4655106 0.6781068 -0.17832993 0.3747819 0.4363368
0.13799016 -0.22648199 0.94146615 -0.32635328 0.38038182 0.22069678 0.31353268 -0.15967405
00000000: 34cb f33e 766f c63e 7cfc 323f 6bd3 7e3d
00000010: 95b0 0abe 4590 ccbe 7670 9a3e 1481 68be
00000020: 9780 ecbe ff6b a23d 9d9d 9d3e 7f22 0bbe
00000030: 5852 85be 2490 1fbe 6149 043d c0b2 23be
00000040: b89b 90bb 683d 003e 43a5 22be d50b 753f
00000050: 9db6 2abf 5454 123f fdd1 b43d 8a30 3dbf
00000060: ba51 343f 9b3c b6be dbb8 35bf cfde 56be
00000070: fc6c 1fbf a8f9 8cbe 40ee 44bf 93b2 ecbe
00000080: 14a9 323c 810f 073e ac4d d83d 587e f1bd
00000090: 40de a23e b199 bbbe f23f b4be 07ea 143e
000000a0: 70a2 f23d 43e6 d13e 4c33 a83e 77b1 1a3f
000000b0: 0400 9dbe 0ae7 6dbd e765 e93e b737 9bbe
000000c0: 1eaa 04bc bbb1 7dbe 63d7 d73d 20da f03e
000000d0: 822f 1abe 46a1 11bf 1f43 50bf 20c7 f6bd
000000e0: 5891 d8be 077a d2be 9d08 4cbf a925 de3d
000000f0: 91a2 2cbe 8d32 a23e 5ab9 c83e 7d58 60be
00000100: bb82 0dbf 08ab 223d 91ed 86be 73e5 1c3f
00000110: 617c 02bf c7cb 86bd 57e2 da3e 0213 753d
00000120: 984a 033e b57d 0dbd 7a3f 0dbe 5fa6 163d
00000130: c8e1 ad3e 53e4 0bbe 3989 38bd eb9e 813d
00000140: b604 3dbf 3815 d33e 03b1 b33d 8a9f 393e
00000150: a3ad 073f 00d0 653e 3402 053d 4b1a 72be
00000160: 1342 953e 7a1f e53d 0d90 eabe 3c08 24be
00000170: 3aa7 c93c 813d f93d ae3b e2be 81d1 81be
00000180: 8c44 01bf 9aab 0f3f 9bc7 453e 1fff 383f
00000190: b6d0 853c 01fd 8c3e cd59 cd3e c90e 263f
000001a0: 7b7d dd3e c5f8 95be 19b1 a93e 631b 6ebc
000001b0: 4cb4 123e 9897 503f 06b5 a6be 2726 763e
000001c0: 2c28 30bb 1c3a e33e 563f fbbe b4c6 813d
000001d0: abf6 0b3d bded 8fbd 7ba2 9c3d fe70 053e
000001e0: 8858 f0bd 837b 09bf a464 f6be 77c4 ffbe
000001f0: 18df 41be 188b fc3e b87a 1bbf 17c8 8ebe
00000200: 8f53 083f c53f a13e 0ceb 9abd 1e3d 003f
00000210: d889 0b3f 0485 9ebe 7972 27be 7fa6 e83e
00000220: dad3 e1be a45b 3bbf 44a0 013f 5e2a 1b3f
00000230: 5bee ffbe 66f0 e23c ad85 fdbe f448 c4be
00000240: 829b 873e 4bfa 623e b8ee 583f 64f4 483e
00000250: e1b4 8c3d 87c2 483e 6033 8abf 9bff 59be
00000260: 31e4 7f3f 4be4 823e d104 893e 2404 d83e
00000270: 8597 ff3d fee7 043f 1244 e13e fb21 033e
00000280: d985 04be a4c6 2d3c 0a4e 103e 7b53 afbe
00000290: 633d 6abd 728a 893e babc d43c 0980 5c3e
000002a0: 713d f23e ac04 56be 873c 0ebf c96f 223f
000002b0: d50b a4be 1ab5 523f 4aa3 053f e767 a83e
000002c0: 9353 b5be 9c7f 373f 81ae e53d be2b 0a3f
000002d0: a636 643e c0f0 dcbb 209e 0bbf 15f5 303f
000002e0: e408 7cbd 47fc ae3e 5aec 2e3f 7a1b 84be
000002f0: 68ab 0fbe 4efd efbe daa8 d3bd 16cc d9be
00000300: abbc 68be e726 e0be c65f e1be d764 0cbe
00000310: 3663 3dbe f415 533d 43d7 673e e1a0 a1be
00000320: 9580 8b3d d863 abbe b766 8c3e 8429 efbe
00000330: 333a 233e a58c 463d 3dc6 4a3f f15b 283f
00000340: 73ef 9abd 03cd fabc 4f0c f13d 7974 bdbe
00000350: d394 923e be3f 4b3f 4735 45be 5376 153e
00000360: 83e8 f6be 7e3a 99bd de27 ca3e e89c 8a3c
00000370: d180 09bf 1d9a 8bbc 40a0 4abf a1a7 86bf
00000380: aa89 93bd 41ad 3a3e c141 ccbe 14b2 163d
00000390: 97d0 6bbf 8b50 9f3e 0da5 afbe 3f12 2d3c
000003a0: 4b3d d33e 37fe 693e 1b05 75be 39ea b73d
000003b0: fbb2 8abe 7442 f93e 37fb 743c 9f3e 8dbe
000003c0: 62ba 3c3e e764 163f 1957 8dbe 6857 eebe
000003d0: 6898 2d3f 1f9c 36be 6ae3 bf3e 8967 df3e
000003e0: 4b4d 0d3e e5ea 67be ed03 713f c717 a7be
000003f0: 68c1 c23e 56fe 613e 5b87 a03e 9881 23be

network_body._body_endoder.seq_layers.0.bias f4 [128]
0.0 0.0 0.0 0.0 0.0 0.0 0.0 0.0
0.0 0.0 0.0 0.0 0.0 0.0 0.0 0.0
0.0 0.0 0.0 0.0 0.0 0.0 0.0 0.0
0.0 0.0 0.0 0.0 0.0 0.0 0.0 0.0
0.0 0.0 0.0 0.0 0.0 0.0 0.0 0.0
0.0 0.0 0.0 0.0 0.0 0.0 0.0 0.0
0.0 0.0 0.0 0.0 0.0 0.0 0.0 0.0
0.0 0.0 0.0 0.0 0.0 0.0 0.0 0.0
0.0 0.0 0.0 0.0 0.0 0.0 0.0 0.0
0.0 0.0 0.0 0.0 0.0 0.0 0.0 0.0
0.0 0.0 0.0 0.0 0.0 0.0 0.0 0.0
0.0 0.0 0.0 0.0 0.0 0.0 0.0 0.0
0.0 0.0 0.0 0.0 0.0 0.0 0.0 0.0
0.0 0.0 0.0 0.0 0.0 0.0 0.0 0.0
0.0 0.0 0.0 0.0 0.0 0.0 0.0 0.0
0.0 0.0 0.0 0.0 0.0 0.0 0.0 0.0
00000000: 0000 0000 0000 0000 0000 0000 0000 0000
00000010: 0000 0000 0000 0000 0000 0000 0000 0000
00000020: 0000 0000 0000 0000 0000 0000 0000 0000
00000030: 0000 0000 0000 0000 0000 0000 0000 0000
00000040: 0000 0000 0000 0000 0000 0000 0000 0000
00000050: 0000 0000 0000 0000 0000 0000 0000 0000
00000060: 0000 0000 0000 0000 0000 0000 0000 0000
00000070: 0000 0000 0000 0000 0000 0000 0000 0000
00000080: 0000 0000 0000 0000 0000 0000 0000 0000
00000090: 0000 0000 0000 0000 0000 0000 0000 0000
000000a0: 0000 0000 0000 0000 0000 0000 0000 0000
000000b0: 0000 0000 0000 0000 0000 0000 0000 0000
000000c0: 0000 0000 0000 0000 0000 0000 0000 0000
000000d0: 0000 0000 0000 0000 0000 0000 0000 0000
000000e0: 0000 0000 0000 0000 0000 0000 0000 0000
000000f0: 0000 0000 0000 0000 0000 0000 0000 0000
00000100: 0000 0000 0000 0000 0000 0000 0000 0000
00000110: 0000 0000 0000 0000 0000 0000 0000 0000
00000120: 0000 0000 0000 0000 0000 0000 0000 0000
00000130: 0000 0000 0000 0000 0000 0000 0000 0000
00000140: 0000 0000 0000 0000 0000 0000 0000 0000
00000150: 0000 0000 0000 0000 0000 0000 0000 0000
00000160: 0000 0000 0000 0000 0000 0000 0000 0000
00000170: 0000 0000 0000 0000 0000 0000 0000 0000
00000180: 0000 0000 0000 0000 0000 0000 0000 0000
00000190: 0000 0000 0000 0000 0000 0000 0000 0000
000001a0: 0000 0000 0000 0000 0000 0000 0000 0000
000001b0: 0000 0000 0000 0000 0000 0000 0000 0000
000001c0: 0000 0000 0000 0000 0000 0000 0000 0000
000001d0: 0000 0000 0000 0000 0000 0000 0000 0000
000001e0: 0000 0000 0000 0000 0000 0000 0000 0000
000001f0: 0000 0000 0000 0000 0000 0000 0000 0000

network_body._body_endoder.seq_layers.2.weight f4 [128, 128]
-0.06807718 -0.06344156 -0.0022473105 -0.0323117 0.0027906916 -0.00999642 0.060848758 -0.073249064
0.061008714 -0.2081655 -0.036762115 0.081875876 0.059847258 0.0710284 -0.1277191 0.14369328
0.08987508 0.04835354 0.17829172 0.045143764 0.005193255 -0.19397926 -0.1387873 -0.0632322
0.20463015 -0.045532998 -0.12133815 -0.07353693 0.1003648 0.017032389 0.05925928 -0.0019596182
-0.15173934 0.037432943 0.0069388864 -0.21164343 -0.052955907 -0.019385489 0.0017288391 -0.20881046
-0.017030519 0.036721203 0.085242905 0.07908394 0.017114744 -0.116085544 0.0054876795 0.20919783
-0.022226961 0.0038368672 -0.025407387 -0.04900566 -0.04297011 -0.09884792 -0.0063349763 0.074136205
-0.124948926 0.04277221 0.14451894 -0.089477986 0.054352835 -0.18447566 0.08762861 -0.028700115
-0.11947987 -0.06957968 0.009725873 0.10036485 -0.047027014 -0.020634262 0.008790481 -0.066676855
-0.039391443 -0.037185594 -0.13113579 -0.053032905 -0.022536455 0.14187568 0.011414514 0.12552263
-0.044952516 -0.1324619 0.18698786 -0.116910234 0.019057663 -0.015993088 0.0064277267 0.13276525
-0.11035535 0.04596054 0.020492528 0.15301438 -0.19959132 0.07256032 -0.07550871 -0.03713583
0.034400105 -0.050692543 -0.12498513 -0.059356306 -0.11179791 0.026269622 0.0739275 -0.09076507
0.04287921 0.041259103 0.020406935 0.093589865 -0.075612 -0.026693134 0.18017341 -0.046560455
0.07100964 0.12767029 0.14444464 0.099956684 -0.24488178 0.012199648 -0.11439198 -0.013810999
0.10072337 -0.083172366 -0.053078353 -0.0074148015 0.014268829 0.00014436427 0.0072158743 -0.11137172
-0.015452303 0.02751508 0.05260041 0.007948167 0.06968479 -0.024095586 -0.11775315 0.006488256
-0.06204448 0.091110766 -0.04393692 0.012669992 -0.059662223 0.061652526 0.094641834 -0.019873979
-0.028494548 0.044104654 0.05158732 -0.12221317 -0.09122879 0.03746873 -0.071636334 -0.110954635
-0.05647653 -0.052296884 0.11732729 0.019834885 -0.01404294 -0.013040787 0.0254291 -0.058777846
0.132661 0.026449012 -0.103687316 0.07829926 0.05935914 -0.12795097 0.03240439 -0.061037555
-0.21034013 -0.058490045 -0.13176182 -0.009435266 0.122946456 -0.037461627 0.0008812305 0.011197037
-0.04379566 -0.05515366 0.039177414 0.039288703 -0.063179374 -5.842662e-05 -0.07702573 0.10432797
-0.17616071 0.043084685 0.04858867 -0.009060034 0.08294294 -0.027847731 -0.028378531 -0.0629713
-0.15229356 0.017389942 0.061873052 -0.060856964 -0.07592942 -0.07505251 -0.06814151 -0.051359136
-0.19170831 0.029737854 0.057770506 -0.0019193976 0.030252997 0.043958884 -0.12788117 0.018080186
0.005494482 0.06706452 -0.028467957 0.057083618 -0.021951495 -0.020050945 -0.057239503 0.008412816
-0.015530036 -0.086697705 0.12614752 0.019561844 0.03770363 -0.023347238 -0.12017279 -0.058266174
-0.13855807 0.03790073 0.06654245 0.045405563 -0.0053369896 0.008271608 0.00072048453 0.10055707
0.0452388 -0.10719939 -0.011627962 0.052406676 0.11039147 0.026037462 0.16915917 -0.11388534
0.101030916 0.011099219 -0.008020912 0.042980038 -0.07661039 0.07205519 0.08612719 -0.04041983
-0.014565736 -0.11096294 0.028374428 -0.020709611 -0.027660547 0.27633664 -0.0033772283 -0.0769666
00000000: 0c6c 8bbd a6ed 81bd 9d47 13bb 4659 04bd
00000010: 09e4 363b 06c8 23bc 8c3c 793d 9b03 96bd
00000020: 46e4 793d 5629 55be df93 16bd 8aae a73d
00000030: 6622 753d 5677 913d ccc8 02be 5524 133e
00000040: 6d10 b83d 5d0e 463d 1b92 363e abe8 383d
00000050: 2e2c aa3b 80a2 46be 421e 0ebe e27f 81bd
00000060: 918a 513e cf80 3abd 2380 f8bd 889a 96bd
00000070: 0f8c cd3d 8287 8b3c dcb9 723d f06c 00bb
00000080: 8f61 1bbe 4953 193d 995f e33b 0eb9 58be
00000090: 4be8 58bd 51ce 9ebc 379a e23a 69d2 55be
000000a0: 9683 8bbc f968 163d d593 ae3d c3f6 a13d
000000b0: 3834 8c3c 42be edbd fed1 b33b f537 563e
000000c0: 5115 b6bc f373 7b3b 2723 d0bc 29ba 48bd
000000d0: 6d01 30bd c770 cabd a295 cfbb b9d4 973d
000000e0: 39e5 ffbd ea31 2f3d c6fc 133e 3c40 b7bd
000000f0: 14a1 5e3d 30e7 3cbe a176 b33d 811c ebbc
00000100: ddb1 f4bd cb7f 8ebd 4559 1f3c 168c cd3d
00000110: 669f 40bd 2f09 a9bc f305 103c e08d 88bd
00000120: ec58 21bd ec4f 18bd 7648 06be 0839 59bd
00000130: 5f9e b8bc dc47 113e f103 3b3c 0189 003e
00000140: 2120 38bd 18a4 07be bf79 3f3e a26e efbd
00000150: d11e 9c3c f003 83bc ae9f d23b 9df3 073e
00000160: fc01 e2bd 1f41 3c3d f2df a73c cdaf 1c3e
00000170: ab61 4cbe 819a 943d 50a4 9abd bd1b 18bd
00000180: 20e7 0c3d fca2 4fbd 34f8 ffbd 991f 73bd
00000190: 4df6 e4bd 6433 d73c 4d67 973d 09e3 b9bd
000001a0: 1ca2 2f3d 4eff 283d 722c a73c 0bac bf3d
000001b0: 77da 9abd 8fab dabc 617f 383e 2db6 3ebd
000001c0: 816d 913d 00bc 023e 4ce9 133e 17b6 cc3d
000001d0: 4ac2 7abe 08e1 473c 5846 eabd 8747 62bc
000001e0: 0e48 ce3d 4656 aabd b068 59bd ddf7 f2bb
000001f0: cec7 693c 7d60 1739 2473 ec3b db16 e4bd
00000200: a82b 7dbc 4e67 e13c 8773 573d 0739 023c
00000210: e6b6 8e3d 1b64 c5bc 9028 f1bd 709b d43b
00000220: 5a22 7ebd 4898 ba3d 33f7 33bd cc95 4f3c
00000230: 6060 74bd 5c87 7c3d 94d3 c13d c1ce a2bc
00000240: 666d e9bc 15a7 343d 3a4d 533d e64a fabd
00000250: 29d6 babd d078 193d 12b6 92bd 2f3c e3bd
00000260: ef53 67bd 4235 56bd 4a49 f03d c57c a23c
00000270: 5c14 66bc 06a9 55bc b050 d03c 0ac1 70bd
00000280: 49d8 073e 99ab d83c 045a d4bd 5d5b a03d
00000290: 9222 733d 9405 03be 77ba 043d 8402 7abd
000002a0: 6763 57be 4293 6fbd 92ec 06be 6096 1abc
000002b0: 5acb fb3d 5d71 19bd 6102 673a c773 373c
000002c0: 1463 33bd cee8 61bd 7f78 203d 31ed 203d
000002d0: 3064 81bd 1b0f 75b8 aabf 9dbd e7a9 d53d
000002e0: 7963 34be 9179 303d ea04 473d 8970 14bc
000002f0: fddd a93d ed20 e4bc 187a e8bc 19f7 80bd
00000300: d8f2 1bbe 5a75 8e3c 996e 7d3d 2745 79bd
00000310: e280 9bbd 21b5 99bd c78d 8bbd f55d 52bd
00000320: 2f4f 44be cd9c f33c c4a0 6c3d 4c94 fbba
00000330: 22d5 f73c 3b0e 343d 48f3 02be e61c 943c
00000340: 0e0b b43b 2059 893d a235 e9bc 83d0 693d
00000350: 9fd3 b3bc e141 a4bc f873 6abd e8d5 093c
00000360: b171 7ebc 918e b1bd d12c 013e 2940 a03c
00000370: 1f6f 1a3d b542 bfbc 271d f6bd 83a8 6ebd
00000380: 2be2 0dbe cc3d 1b3d 6847 883d 2ffb 393d
00000390: eae1 aebb a385 073c e6de 3c3a ddf0 cd3d
000003a0: 524c 393d 5b8b dbbd 3583 3ebc 62a8 563d
000003b0: ec14 e23d 844c d53c 1038 2d3e b83c e9bd
000003c0: 4ce9 ce3d 80d9 353c 256a 03bc d60b 303d
000003d0: e8e5 9cbd ac91 933d 7463 b03d 438f 25bd
000003e0: 20a5 6ebc 8a40 e3bd 7d71 e83c 34a7 a9bc
000003f0: 5f98 e2bc ff7b 8d3e 7d54 5dbb aaa0 9dbd

network_body._body_endoder.seq_layers.2.bias f4 [128]
0.0 0.0 0.0 0.0 0.0 0.0 0.0 0.0
0.0 0.0 0.0 0.0 0.0 0.0 0.0 0.0
0.0 0.0 0.0 0.0 0.0 0.0 0.0 0.0
0.0 0.0 0.0 0.0 0.0 0.0 0.0 0.0
0.0 0.0 0.0 0.0 0.0 0.0 0.0 0.0
0.0 0.0 0.0 0.0 0.0 0.0 0.0 0.0
0.0 0.0 0.0 0.0 0.0 0.0 0.0 0.0
0.0 0.0 0.0 0.0 0.0 0.0 0.0 0.0
0.0 0.0 0.0 0.0 0.0 0.0 0.0 0.0
0.0 0.0 0.0 0.0 0.0 0.0 0.0 0.0
0.0 0.0 0.0 0.0 0.0 0.0 0.0 0.0
0.0 0.0 0.0 0.0 0.0 0.0 0.0 0.0
0.0 0.0 0.0 0.0 0.0 0.0 0.0 0.0
0.0 0.0 0.0 0.0 0.0 0.0 0.0 0.0
0.0 0.0 0.0 0.0 0.0 0.0 0.0 0.0
0.0 0.0 0.0 0.0 0.0 0.0 0.0 0.0
00000000: 0000 0000 0000 0000 0000 0000 0000 0000
00000010: 0000 0000 0000 0000 0000 0000 0000 0000
00000020: 0000 0000 0000 0000 0000 0000 0000 0000
00000030: 0000 0000 0000 0000 0000 0000 0000 0000
00000040: 0000 0000 0000 0000 0000 0000 0000 0000
00000050: 0000 0000 0000 0000 0000 0000 0000 0000
00000060: 0000 0000 0000 0000 0000 0000 0000 0000
00000070: 0000 0000 0000 0000 0000 0000 0000 0000
00000080: 0000 0000 0000 0000 0000 0000 0000 0000
00000090: 0000 0000 0000 0000 0000 0000 0000 0000
000000a0: 0000 0000 0000 0000 0000 0000 0000 0000
000000b0: 0000 0000 0000 0000 0000 0000 0000 0000
000000c0: 0000 0000 0000 0000 0000 0000 0000 0000
000000d0: 0000 0000 0000 0000 0000 0000 0000 0000
000000e0: 0000 0000 0000 0000 0000 0000 0000 0000
000000f0: 0000 0000 0000 0000 0000 0000 0000 0000
00000100: 0000 0000 0000 0000 0000 0000 0000 0000
00000110: 0000 0000 0000 0000 0000 0000 0000 0000
00000120: 0000 0000 0000 0000 0000 0000 0000 0000
00000130: 0000 0000 0000 0000 0000 0000 0000 0000
00000140: 0000 0000 0000 0000 0000 0000 0000 0000
00000150: 0000 0000 0000 0000 0000 0000 0000 0000
00000160: 0000 0000 0000 0000 0000 0000 0000 0000
00000170: 0000 0000 0000 0000 0000 0000 0000 0000
00000180: 0000 0000 0000 0000 0000 0000 0000 0000
00000190: 0000 0000 0000 0000 0000 0000 0000 0000
000001a0: 0000 0000 0000 0000 0000 0000 0000 0000
000001b0: 0000 0000 0000 0000 0000 0000 0000 0000
000001c0: 0000 0000 0000 0000 0000 0000 0000 0000
000001d0: 0000 0000 0000 0000 0000 0000 0000 0000
000001e0: 0000 0000 0000 0000 0000 0000 0000 0000
000001f0: 0000 0000 0000 0000 0000 0000 0000 0000

action_model._continuous_distribution.log_sigma f4 [1, 3]
0.0 0.0 0.0
00000000: 0000 0000 0000 0000 0000 0000

action_model._continuous_distribution.mu.weight f4 [3, 128]
-0.0070736865 0.0022942794 0.03440869 -0.03666621 -0.003374428 -0.008395494 4.5730463e-05 -0.004402757
-0.0015878099 0.020619499 -0.0035520878 0.0046335994 0.0055776304 -0.0015609473 0.011918766 0.00044609164
-0.027559375 -0.0026844093 -0.0065168175 0.008599372 -0.01755177 -0.011080733 -0.022676064 -0.003976291
-0.033425964 0.022601468 -0.004862368 -0.0145932855 0.009000122 -0.02350354 0.018551605 -0.019749036
0.022465738 -0.04967062 0.044676587 0.012773941 0.0034108148 -0.022326874 0.0020462663 -0.0048306934
0.014895314 -0.0041114325 0.011636033 0.010305903 -0.014289369 0.003564838 0.0008080032 -0.0013623092
-0.02446754 0.030030755 -0.0035245814 0.0034160123 0.008266906 -0.01302093 -0.01604904 -0.0331567
0.0041938648 0.0026591888 -0.021620262 0.015293464 -0.014999503 -0.0002971748 0.00866539 0.0023222994
-0.010517358 -0.01036911 -0.049767148 -0.0011730908 0.046129685 0.0054592937 -0.0028999718 -0.006405947
-0.005699148 -0.021086412 2.2646722e-05 -0.0081228 5.4989196e-05 0.0042541423 0.0100407135 -0.0021489488
-0.004988904 -0.021182366 0.0009546705 -0.029326705 0.0035484738 -0.009224033 0.008155732 -0.006262076
0.00468027 0.028574107 -0.0031486095 0.028439302 0.0047016046 -0.027185574 -0.00934166 -0.04570783
-0.007686928 -0.03134479 -0.012846026 0.001256083 0.0056652245 0.010705263 -0.00032396847 -0.015766433
0.0130776195 -0.01505584 0.026797611 -0.013660957 0.008863365 -0.023238374 0.0084534725 -0.034090888
0.0075085247 -0.025854757 -0.0021856956 0.0011641531 0.0090038255 -0.023190066 0.00021092892 0.0133531615
-0.028944133 -0.015203494 -0.0078589525 0.014787666 -0.022912232 0.010492019 -0.0130099105 -0.0056224703
0.044510674 0.0056308503 -0.010539612 -0.022718402 -0.020024998 -0.0075462325 -0.00022292463 0.0033899115
0.008770452 -0.0023029915 -0.011231796 -0.0117295515 -0.008625324 -0.029745016 -0.014229109 0.015130999
-0.0033702308 -0.021598557 -0.009007096 0.018840125 0.03523456 0.038352765 -0.015437675 -0.009010977
-0.007984151 0.036736336 -0.0013876631 0.0026270307 -0.012088585 0.0265674 -0.0014346119 -0.03236158
0.00064184907 0.008707452 0.03185438 -0.0018268118 0.024061432 -0.0364062 0.012989151 0.03002255
-0.00096619065 -0.035661254 -0.0012030005 -0.01125542 -0.027329573 -0.0015772438 -0.0072900667 -0.023851126
0.026245791 -0.01194287 0.00017617886 0.011043361 -6.222887e-05 0.020658737 0.0031501378 0.008321312
-0.020372923 0.018725155 0.009355467 -0.011680022 0.037798647 0.004733188 0.0030302294 0.008896886
-0.009813853 -0.006132702 -0.010433568 -0.01088058 -0.021354705 0.0063701267 -0.009766198 0.014110588
-0.010851319 -0.006626885 0.008495334 0.0023224512 -0.0077209077 -8.2332226e-05 0.0056330124 0.02790384
0.0036194348 -0.0136811985 0.021297652 0.0015951087 0.034020476 -0.0122128455 0.033080954 0.023907281
0.012182022 0.014043688 0.008794679 -0.0065854467 -0.002101069 -0.014915372 0.019359242 0.008706248
-0.017929683 -0.023512885 -0.00943065 0.0030820435 -0.010727444 0.015571137 -0.011038982 -0.014026153
-0.022930885 -0.0060166973 -0.022741763 -0.004563326 0.0007848816 0.012457945 0.027134746 -0.0026022126
-0.0045962445 -0.0033070524 0.011321693 -0.009802137 -0.010048124 -0.033425 0.006229879 0.003104306
-0.013198177 0.011249546 0.02488335 -0.023930406 0.033107027 -0.0017649884 -0.0050385613 -0.013734487
00000000: 62ca e7bb 9f5b 163b 20f0 0c3d 4f2f 16bd
00000010: 8225 5dbb 418d 09bc b6ce 3f38 0145 90bb
00000020: 0f1e d0ba 39ea a83c 25ca 68bb 73d5 973b
00000030: 8ec4 b63b b398 ccba ee46 433c 68e1 e939
00000040: 33c4 e1bc eaec 2fbb 078b d5bb 61e4 0c3c
00000050: bbc8 8fbc f68b 35bc 27c3 b9bc 8c4b 82bb
00000060: aae9 08bd b726 b93c 8054 9fbb ad18 6fbc
00000070: 3f75 133c 7f8a c0bc 89f9 973c bbc8 a1bc
00000080: 110a b83c 6c73 4bbd ccfe 363d cb49 513c
00000090: fa87 5f3b d9e6 b6bc a71a 063b cb4a 9ebb
000000a0: 7a0b 743c 32b9 86bb 0fa5 3e3c 17da 283c
000000b0: f51d 6abc 0fa0 693b 2dd0 533a 838f b2ba
000000c0: 2770 c8bc 0f03 f63c aafc 66bb 2ddf 5f3b
000000d0: eb71 073c bd55 55bc 4779 83bc 52cf 07bd
000000e0: b06c 893b c945 2e3b fa1c b1bc 7091 7a3c
000000f0: 7ac0 75bc 20ce 9bb9 48f9 0d3c b831 183b
00000100: ff50 2cbc 33e3 29bc a3d8 4bbd 65c2 99ba
00000110: 7bf2 3c3d e0e3 b23b 740d 3ebb fae8 d1bb
00000120: ebbf babb 69bd acbc 77f9 bd37 7e15 05bc
00000130: 33a4 6638 5566 8b3b ce81 243c 61d5 0cbb
00000140: f679 a3bb a486 adbc da42 7a3a 8f3e f0bc
00000150: 838d 683b 6620 17bc 9f9f 053c 1a32 cdbb
00000160: f35c 993b 3f14 ea3c e758 4ebb 8af9 e83c
00000170: eb0f 9a3b 48b4 debc c30d 19bc 2238 3bbd
00000180: a0e2 fbbb 6563 00bd 2378 52bc 27a3 a43a
00000190: 59a3 b93b 2165 2f3c 50da a9b9 9b28 81bc
000001a0: 8343 563c c5ac 76bc aa86 db3c 35d2 5fbc
000001b0: a637 113c 675e bebc 6f80 0a3c e3a2 0bbd
000001c0: 120a f63b 5bcd d3bc e33d 0fbb 7f96 983a
000001d0: c884 133c 18f9 bdbc cd2c 5d39 38c7 5a3c
000001e0: 3f1c edbc 1318 79bc d6c2 00bc f747 723c
000001f0: 6fb2 bbbc b8e6 2b3c 8527 55bc b33c b8bb
00000200: d350 363d ff82 b83b 56ae 2cbc f11b babc
00000210: 770b a4bc 6346 f7bb e0c0 69b9 4729 5e3b
00000220: f1b1 0f3c c9ed 16bb 9105 38bc 4e2d 40bc
00000230: 3b51 0dbc d2ab f3bc 3521 69bc 02e8 773c
00000240: 17df 5cbb 75ef b0bc 8092 13bc 9b56 9a3c
00000250: 1d52 103d ca17 1d3d 4dee 7cbc c7a2 13bc
00000260: f5cf 02bc d778 163d 3fe2 b5ba 432a 2c3b
00000270: 330f 46bc e0a3 d93c 9609 bcba 938d 04bd
00000280: c341 283a b3a9 0e3c bd79 023d a271 efba
00000290: 7b1c c53c ab1e 15bd 73d0 543c daf1 f53c
000002a0: f547 7dba 8911 12bd 00ae 9dba a768 38bc
000002b0: 45e2 dfbc 85bb ceba 83e1 eebb 7063 c3bc
000002c0: 6a01 d73c 07ac 43bc a7bc 3839 37ef 343c
000002d0: df80 82b8 833c a93c 8b72 4e3b 1d56 083c
000002e0: 1ee5 a6bc 7f65 993c ac47 193c 905d 3fbc
000002f0: c1d2 1a3d dc18 9b3b d096 463b 3fc4 113c
00000300: 48ca 20bc d5f4 c8bb 8ef1 2abc 7644 32bc
00000310: 10f0 aebc 7fbc d03b 6702 20bc 1830 673c
00000320: bbc9 31bc 5726 d9bb 0330 0b3c 4434 183b
00000330: abff fcbb c7a9 acb8 2295 b83b 9896 e43c
00000340: 0a34 6d3b 1b27 60bc 6a78 ae3c f712 d13a
00000350: 0e59 0b3d 6318 48bc e57f 073d 34d9 c33c
00000360: 1b97 473c 7f17 663c 8f17 103c bbca d7bb
00000370: 17b2 09bb 9b5f 74bc 4697 9e3c a7a4 0e3c
00000380: 45e1 92bc 189e c0bc 0383 1abc 1cfc 493b
00000390: 29c2 2fbc 151e 7f3c d9dc 34bc f3cd 65bc
000003a0: 8dd9 bbbc b727 c5bb ef4c babc f487 95bb
000003b0: 83c0 4d3a 691c 4c3c b049 de3c e289 2abb
000003c0: 189c 96bb 22bb 58bb 9f7e 393c 2499 20bc
000003d0: e3a0 24bc a7e8 08bd 0324 cc3b 9d71 4b3b
000003e0: 2b3d 58bc 0450 383c 2bd8 cb3c b309 c4bc
000003f0: 3c9b 073d 2f57 e7ba 841a a5bb 9d06 61bc

action_model._continuous_distribution.mu.bias f4 [3]
0.0 0.0 0.0
00000000: 0000 0000 0000 0000 0000 0000

network_body._body_endoder.seq_layers.0.weight f4 [128, 6]
-0.053262737 0.6835684 0.27425006 0.20228419 0.4894198 -0.21896929 0.61943 -0.16458637
-0.7416653 -0.2042875 0.19037557 0.2972862 0.0378268 0.45437503 0.56465656 0.44962648
0.12967789 -0.06986341 0.062147353 0.030089818 -0.07167339 0.97235596 -0.5645805 1.1066784
0.110413074 -0.033913616 0.10008476 0.1387566 0.42961088 0.24361008 -0.4046248 0.20708957
-0.18173009 -0.025667366 -0.9470286 0.2474307 0.5055801 -0.78481686 -0.3352673 -0.49972618
-0.055489708 0.18277673 0.34426746 0.47336474 0.04264063 0.38432062 -0.59417254 0.20868413
0.21492845 0.23794512 -0.16696544 0.3359816 0.031430762 0.13132268 -0.29057217 0.53005236
-0.055870034 0.38693857 -0.31655788 -0.384505 0.02288462 0.53242356 0.98452944 0.889753
0.054443672 0.7273156 0.25412187 0.001639578 0.78666234 -0.035017572 -0.017083228 0.36201507
0.10896366 -0.6535904 -0.27961588 0.32240453 -0.17692871 -0.19168258 0.4479928 0.50817585
-0.6698071 0.5964812 -0.57920116 -0.6393072 0.4367321 0.25388664 -1.0791883 -0.12938729
0.064706616 -0.44709304 -0.097629346 0.53892285 0.26978344 0.07935197 0.27556273 0.5426037
-0.29424468 -0.18386698 -0.80969155 0.3581557 0.119636714 -0.062395472 0.26084423 0.30424565
-0.16253006 -0.12076399 0.21534404 -0.21819445 -0.55003923 -0.26555178 0.43057054 -0.10322624
0.51335996 -0.10220466 -0.32302615 0.07888646 -0.3079539 0.15309455 1.0806187 -0.06858534
0.018592829 0.48675376 -0.059791535 -0.012751933 0.37551412 -0.36927947 -0.58536154 -0.48561004
-0.3255626 -0.06906218 -0.20341429 0.4604708 0.44349173 0.26173058 0.31958592 -0.16152821
-0.5501511 0.19591513 1.1750457 0.07779032 0.3262643 -0.90728635 0.20458765 0.5462602
-0.6195782 -0.039544374 0.10977434 -0.041491076 -0.28407812 0.6721579 0.5024469 -0.85699165
-0.39851347 0.74812365 -0.35442492 0.44181013 -0.4356088 -0.18616237 -0.5559313 0.016826224
-0.6868161 0.35378754 0.24474014 -0.18615654 0.17234994 -0.026365831 0.14284104 -0.1842258
-0.24786851 -0.32721815 -0.12222352 -0.280981 0.13014197 -0.28231475 -0.04854659 0.25947666
0.2841387 -0.18688135 0.19834311 -0.54797524 0.49707684 -0.42790037 -0.38074833 -0.24951807
0.17841424 0.48593974 0.1725456 0.27014422 -0.10589632 -0.72167546 -0.23786522 0.18152808
-0.15064935 0.51190597 0.30851683 -0.27210692 0.14018752 -0.6377964 0.49175897 -0.24483506
0.056263026 0.06898596 -1.1524514 -0.37794158 0.3406655 0.12585008 0.23472133 -0.011668253
-0.36347014 -0.48556262 0.13797039 0.08708975 0.06413766 0.44849402 0.031929042 -0.47420153
0.3884428 0.14924921 0.1902617 -0.2587224 -0.3415916 -0.86784554 0.14052755 -0.17202686
0.235894 0.3840972 -0.08691134 -0.07349503 0.59338176 0.17344978 -0.017120726 0.73131406
-0.15278368 0.48602292 0.07277452 0.01001518 -0.30373192 -0.06084675 -0.4172002 0.8853183
-0.5698774 -0.31889772 -0.099761404 -0.09336064 0.18498549 0.17030759 0.5071157 -0.33827218
-0.60078126 0.34907913 0.033616472 -0.4104612 0.20137595 0.064475566 1.126725 0.27866524
00000000: 072a 5abd 57fe 2e3f 816a 8c3e 9623 4f3e
00000010: 3b95 fa3e 7c39 60be f792 1e3f 5489 28be
00000020: c7dd 3dbf be30 51be d0f1 423e e635 983e
00000030: 46f0 1a3d d8a3 e83e 558d 103f 7135 e63e
00000040: 48ca 043e 8c14 8fbd 398e 7e3d ec7e f63c
00000050: 80c9 92bd 52ec 783f 5988 10bf a3a7 8d3f
00000060: 4020 e23d 01e9 0abd 3df9 cc3d 3616 0e3e
00000070: f5f5 db3e ec74 793e fb2a cfbe 4a0f 543e
00000080: 7417 3abe 5e44 d2bc 7770 72bf 795e 7d3e
00000090: b36d 013f c2e9 48bf 28a8 abbe 1cdc ffbe
000000a0: 2d49 63bd d329 3b3e d343 b03e dd5c f23e
000000b0: f1a7 2e3d acc5 c43e b11b 18bf 4bb1 553e
000000c0: 3416 5c3e e3a7 733e fdf8 2abe c805 ac3e
000000d0: 8bbd 003d 7479 063e e0c5 94be 83b1 073f
000000e0: fad7 64bd d01c c63e e013 a2be d7dd c4be
000000f0: 8778 bb3c e94c 083f 1f0a 7c3f dac6 633f
00000100: 5400 5f3d 5b31 3a3f 431c 823e 1ce7 d63a
00000110: b462 493f 966e 0fbd 20f2 8bbc 0a5a b93e
00000120: 5728 df3d b351 27bf d029 8fbe 3512 a53e
00000130: cd2c 35be 7048 44be 505f e53e d017 023f
00000140: 7a78 2bbf feb2 183f 8746 14bf a3a9 23bf
00000150: 5a9b df3e 6efd 813e d822 8abf 1a7e 04be
00000160: e784 843d 61e9 e4be e5f1 c7bd d9f6 093f
00000170: 0e21 8a3e 4983 a23d 8f16 8d3e 13e8 0a3f
00000180: 3da7 96be a047 3cbe f247 4fbf 2f60 b73e
00000190: 1804 f53d 6592 7fbd 608d 853e 16c6 9b3e
000001a0: 486e 26be 1c53 f7bd 2683 5c3e 5e6e 5fbe
000001b0: 5fcf 0cbf 67f6 87be be73 dc3e 4768 d3bd
000001c0: 8f6b 033f ad50 d1bd af63 a5be 398f a13d
000001d0: 22ac 9dbe d1c4 1c3e b751 8a3f 7976 8cbd
000001e0: fd4f 983c ca37 f93e f8e7 74bd 7ced 50bc
000001f0: 6343 c03e 3312 bdbe 41da 15bf e1a1 f8be
00000200: 24b0 a6be 7970 8dbd d64b 50be d4c2 eb3e
00000210: 5911 e33e 8d01 863e c4a0 a33e a767 25be
00000220: b4d6 0cbf fa9d 483e e667 963f 8850 9f3d
00000230: 1d0c a73e eb43 68bf 6d7f 513e b5d7 0b3f
00000240: ad9c 1ebf 48f9 21bd 5fd1 e03d 8cf2 29bd
00000250: b072 91be 8a12 2c3f 5ca0 003f ce63 5bbf
00000260: f509 ccbe 0885 3f3f 2f77 b5be f034 e23e
00000270: 1e08 dfbe 59a1 3ebe 8451 0ebf 26d7 893c
00000280: 2ed3 2fbf a423 b53e 299d 7a3e d29f 3ebe
00000290: 817c 303e 28fd d7bc ec44 123e b0a5 3cbe
000002a0: 3ed1 7dbe 2389 a7be 5350 fabd bedc 8fbe
000002b0: f043 053e 8f8b 90be cad8 46bd 20da 843e
000002c0: a17a 913e d35d 3fbe 751a 4b3e 1b48 0cbf
000002d0: db80 fe3e c215 dbbe 72f1 c2be aa81 7fbe
000002e0: 39b2 363e 18cd f83e cbaf 303e 5850 8a3e
000002f0: 2be0 d8bd b9bf 38bf f192 73be 7fe2 393e
00000300: d343 1abe 450c 033f ebf5 9d3e 9951 8bbe
00000310: 518d 0f3e a046 23bf d5c7 fb3e 0bb6 7abe
00000320: 0f74 663d 8348 8d3d 8783 93bf 8f81 c1be
00000330: b56b ae3e d8de 003e ca5a 703e 332c 3fbc
00000340: c218 babe aa9b f8be 1c48 0d3e 1c5c b23d
00000350: 9b5a 833d 02a1 e53e 07c8 023d 8bca f2be
00000360: fae1 c63e c9d4 183e f7d3 423e 4377 84be
00000370: 18e5 aebe 202b 5ebf 74e6 0f3e cf27 30be
00000380: 328e 713e 63a8 c43e 93fe b1bd 9084 96bd
00000390: dee7 173f d29c 313e c440 8cbc 6637 3b3f
000003a0: 5373 1cbe ffd7 f83e cf0a 953d b616 243c
000003b0: c082 9bbe 713a 79bd 449b d5be 38a4 623f
000003c0: 7ce3 11bf 9046 a3be b54f ccbd dd33 bfbd
000003d0: d66c 3d3e 1d65 2e3e 56d2 013f 0332 adbe
000003e0: cdcc 19bf 80ba b23e 6db1 093d f827 d2be
000003f0: 7f35 4e3e c40b 843d 8638 903f 36ad 8e3e

network_body._body_endoder.seq_layers.0.bias f4 [128]
0.0 0.0 0.0 0.0 0.0 0.0 0.0 0.0
0.0 0.0 0.0 0.0 0.0 0.0 0.0 0.0
0.0 0.0 0.0 0.0 0.0 0.0 0.0 0.0
0.0 0.0 0.0 0.0 0.0 0.0 0.0 0.0
0.0 0.0 0.0 0.0 0.0 0.0 0.0 0.0
0.0 0.0 0.0 0.0 0.0 0.0 0.0 0.0
0.0 0.0 0.0 0.0 0.0 0.0 0.0 0.0
0.0 0.0 0.0 0.0 0.0 0.0 0.0 0.0
0.0 0.0 0.0 0.0 0.0 0.0 0.0 0.0
0.0 0.0 0.0 0.0 0.0 0.0 0.0 0.0
0.0 0.0 0.0 0.0 0.0 0.0 0.0 0.0
0.0 0.0 0.0 0.0 0.0 0.0 0.0 0.0
0.0 0.0 0.0 0.0 0.0 0.0 0.0 0.0
0.0 0.0 0.0 0.0 0.0 0.0 0.0 0.0
0.0 0.0 0.0 0.0 0.0 0.0 0.0 0.0
0.0 0.0 0.0 0.0 0.0 0.0 0.0 0.0
00000000: 0000 0000 0000 0000 0000 0000 0000 0000
00000010: 0000 0000 0000 0000 0000 0000 0000 0000
00000020: 0000 0000 0000 0000 0000 0000 0000 0000
00000030: 0000 0000 0000 0000 0000 0000 0000 0000
00000040: 0000 0000 0000 0000 0000 0000 0000 0000
00000050: 0000 0000 0000 0000 0000 0000 0000 0000
00000060: 0000 0000 0000 0000 0000 0000 0000 0000
00000070: 0000 0000 0000 0000 0000 0000 0000 0000
00000080: 0000 0000 0000 0000 0000 0000 0000 0000
00000090: 0000 0000 0000 0000 0000 0000 0000 0000
000000a0: 0000 0000 0000 0000 0000 0000 0000 0000
000000b0: 0000 0000 0000 0000 0000 0000 0000 0000
000000c0: 0000 0000 0000 0000 0000 0000 0000 0000
000000d0: 0000 0000 0000 0000 0000 0000 0000 0000
000000e0: 0000 0000 0000 0000 0000 0000 0000 0000
000000f0: 0000 0000 0000 0000 0000 0000 0000 0000
00000100: 0000 0000 0000 0000 0000 0000 0000 0000
00000110: 0000 0000 0000 0000 0000 0000 0000 0000
00000120: 0000 0000 0000 0000 0000 0000 0000 0000
00000130: 0000 0000 0000 0000 0000 0000 0000 0000
00000140: 0000 0000 0000 0000 0000 0000 0000 0000
00000150: 0000 0000 0000 0000 0000 0000 0000 0000
00000160: 0000 0000 0000 0000 0000 0000 0000 0000
00000170: 0000 0000 0000 0000 0000 0000 0000 0000
00000180: 0000 0000 0000 0000 0000 0000 0000 0000
00000190: 0000 0000 0000 0000 0000 0000 0000 0000
000001a0: 0000 0000 0000 0000 0000 0000 0000 0000
000001b0: 0000 0000 0000 0000 0000 0000 0000 0000
000001c0: 0000 0000 0000 0000 0000 0000 0000 0000
000001d0: 0000 0000 0000 0000 0000 0000 0000 0000
000001e0: 0000 0000 0000 0000 0000 0000 0000 0000
000001f0: 0000 0000 0000 0000 0000 0000 0000 0000

network_body._body_endoder.seq_layers.2.weight f4 [128, 128]
-0.043611426 -0.067431666 0.008102604 -0.04727166 0.032413602 -0.115337506 -0.08091836 -0.03516928
-0.042533375 -0.14747901 -0.05449336 -0.030189568 -0.03199524 -0.18267977 -0.044380013 0.18367366
0.11794672 -0.11052346 0.01728341 -0.013246153 0.05856244 -0.09374902 0.039929148 -0.07206951
0.068189114 -0.10751045 0.018609155 0.008735168 -0.080772094 0.011299686 -0.045507748 0.031487163
0.030538885 -0.15619913 0.017432459 0.07315068 0.13178295 -0.22021767 -0.028202634 0.041853067
-0.1706117 -0.15358876 0.008029417 -0.07608854 0.14736558 0.06322789 -0.03797718 0.08078716
0.199199 0.09121342 -0.0062971506 0.0023549015 -0.010419584 -0.02524594 0.025056744 -0.0138967605
0.043366726 -0.09594739 -0.004068135 -0.03428935 0.12852445 -0.020110924 0.010259495 0.06310182
-0.021957243 -0.12001789 0.0131802615 0.030347683 0.074661985 0.01650697 -0.09012861 -0.027110027
-0.07426155 0.047035128 -0.02742064 -0.11355992 0.044817705 0.016598567 0.09050976 -0.10021169
-0.03903619 -0.045921065 0.06523369 0.09615721 -0.015184841 0.048636615 -0.110578366 -0.008437331
0.1443894 -0.02843746 0.15847945 0.24901403 0.01993746 0.026168277 0.0974335 0.10843065
-0.021641951 0.09491413 0.0823652 0.061020873 -0.2500494 0.053053483 0.0026924582 0.20213097
0.0126757 0.014215731 0.0512686 0.1161575 0.13077123 0.17606393 -0.06557199 -0.11638616
-0.1528163 -0.105322 0.14415829 -0.0035269626 0.074432954 0.10657549 -0.09071373 0.05793252
0.10507202 -0.09880676 0.15012553 0.057018936 0.051215705 -0.18304045 0.17916204 -0.0167451
0.24966349 0.015864195 -0.040390577 -0.1942977 0.07219175 0.05816023 -0.1167469 -0.22510484
0.11956186 0.115039624 -0.03374988 -0.03868673 -0.11737898 0.01636815 0.034307625 0.0081704585
-0.098276146 -0.025678191 0.03789251 0.08664754 -0.045559857 0.22541793 -0.09808322 -0.038302526
0.0581969 0.044118673 0.23743507 0.021314451 0.04444518 0.018574638 0.084567584 0.06510348
0.014011261 -0.027496524 -0.024067461 0.14144477 -0.16146287 -0.099195495 -0.0042119334 0.12247897
0.072791725 0.02964671 -0.032050695 -0.022822289 -0.07397711 0.102497764 -0.21336754 -0.066389896
-0.04220459 0.03236516 0.013127605 -0.010570319 0.07225607 0.022755105 -0.11195104 0.116121896
0.060149282 -0.05453957 0.055787086 -0.029800477 -0.048848074 -0.06030891 -0.124573424 0.07420981
0.062777966 0.11223762 0.13819861 0.17301309 0.012685253 0.057623792 0.042992704 -0.018203897
-0.034831576 -0.101421244 0.14229597 0.11907538 0.014210152 -0.12352083 -0.20229107 0.036558732
-0.015617071 -0.09674221 0.019780518 0.03069884 -0.25061595 0.01821844 -0.056812454 -0.058340833
-0.007788645 -0.036860783 0.12918267 0.031233925 -0.034564562 -0.14622411 0.012679747 0.11523865
-0.053165045 0.038965616 -0.10175524 -0.08046726 -0.07176463 -0.036752816 -0.045384306 0.03734625
0.04432191 0.006259382 0.00227684 0.18345459 0.10242781 -0.041449398 0.055694308 0.0177349
0.010082586 -0.037038546 0.04631372 0.08436955 0.04522728 -0.08371843 -0.0010285944 -0.004978332
-0.033879805 0.15437528 0.022449855 0.02662176 0.054952297 0.154112 -0.024741814 0.20934866
00000000: e5a1 32bd 9d19 8abd c9c0 043c ee9f 41bd
00000010: 20c4 043d 1236 ecbd 86b8 a5bd aa0d 10bd
00000020: 7a37 2ebd bd04 17be 6e34 5fbd 1d50 f7bc
00000030: 710d 03bd 6810 3bbe d1c7 35bd f314 3c3e
00000040: 0d8e f13d 205a e2bd f095 8d3c 6406 59bc
00000050: 2bdf 6f3d 7cff bfbd bf8c 233d 2e99 93bd
00000060: bca6 8b3d 702e dcbd 3a72 983c f31d 0f3c
00000070: d76b a5bd 5122 393c 5566 3abd aff8 003d
00000080: af2c fa3c aaf2 1fbe 84ce 8e3c 06d0 953d
00000090: 1cf2 063e be80 61be 3609 e7bc 1f6e 2b3d
000000a0: d5b4 2ebe 5f46 1dbe d18d 033c 4fd4 9bbd
000000b0: 01e7 163e a07d 813d f68d 1bbd bd73 a53d
000000c0: d3fa 4b3e 1ace ba3d 5458 cebb b154 1a3b
000000d0: e7b6 2abc 93d0 cebc cd43 cd3c 3daf 63bc
000000e0: 4fa1 313d 1180 c4bd fd4d 85bb fd72 0cbd
000000f0: ea9b 033e aabf a4bc 7117 283c 873b 813d
00000100: addf b3bc f1cb f5bd 06f2 573c b49b f83c
00000110: 62e8 983d a039 873c 5995 b8bd d915 debc
00000120: 7116 98bd e8a7 403d 40a1 e0bc 1a92 e8bd
00000130: c592 373d b8f9 873c 2e5d b93d c93b cdbd
00000140: 69e4 1fbd ba17 3cbd 3e99 853d 12ee c43d
00000150: d7c9 78bc 3037 473d e976 e2bd bb3c 0abc
00000160: d1da 133e adf5 e8bc 7048 223e 89fd 7e3e
00000170: e253 a33c db5e d63c 378b c73d e310 de3d
00000180: 764a b1bc 5762 c23d 16af a83d 06f1 793d
00000190: 7a06 80be 9c4e 593d f473 303b 6cfb 4e3e
000001a0: bdad 4f3c 19e9 683c 06ff 513d fce3 ed3d
000001b0: e5e8 053e 1a4a 343e 9c4a 86bd de5b eebd
000001c0: e07b 1cbe 10b3 d7bd 3b9e 133e 9d24 67bb
000001d0: 4e70 983d 4044 da3d 1fc8 b9bd a64a 6d3d
000001e0: 0030 d73d 335b cabd 82ba 193e b08c 693d
000001f0: 8fc7 513d f56e 3bbe 4176 373e 052d 89bc
00000200: c9a7 7f3e a1f5 813c 9770 25bd faf5 46be
00000210: 45d9 933d 6c39 6e3d 0019 efbd e281 66be
00000220: d9dc f43d e599 eb3d 503d 0abd fa75 1ebd
00000230: 6464 f0bd 8016 863c 2786 0c3d 63dd 053c
00000240: 0145 c9bd 125b d2bc 2d35 1b3d 4474 b13d
00000250: f99c 3abd f5d3 663e dbdf c8bd 1ce3 1cbd
00000260: df5f 6e3d c8b5 343d 2e22 733e a59b ae3c
00000270: 260c 363d d729 983c c531 ad3d f954 853d
00000280: 7d8f 653c 6440 e1bc 2029 c5bc e6d6 103e
00000290: 8656 25be 0227 cbbd 4204 8abb 41d6 fa3d
000002a0: d413 953d a8dd f23c 9747 03bd cff5 babc
000002b0: 5081 97bd 59ea d13d 057d 5abe 6df7 87bd
000002c0: b8de 2cbd 5491 043d 2b15 573c 222f 2dbc
000002d0: fefa 933d ea68 ba3c 9646 e5bd 51d1 ed3d
000002e0: 185f 763d e264 5fbd 0081 643d 2120 f4bc
000002f0: eb14 48bd 7a06 77bd 5a20 ffbd 50fb 973d
00000300: bc91 803d d6dc e53d f083 0d3e 582a 313e
00000310: cfd5 4f3c ed06 6c3d 1e19 303d 5720 95bc
00000320: 8eab 0ebd f1b5 cfbd 09b6 113e cbdd f33d
00000330: b3d1 683c 7df8 fcbd 6425 4fbe 9cbe 153d
00000340: bede 7fbc c820 c6bd c10a a23c 227c fb3c
00000350: bc50 80be d63e 953c 2db4 68bd ccf6 6ebd
00000360: e437 ffbb 55fb 16bd 7648 043e 4ade ff3c
00000370: 9293 0dbd c6bb 15be b7be 4f3c 3e02 ec3d
00000380: 97c3 59bd 699a 1f3d 0d65 d0bd 05cc a4bd
00000390: 56f9 92bd 1f8a 16bd e5e4 39bd 62f8 183d
000003a0: e48a 353d 801b cd3b 0937 153b 85db 3b3e
000003b0: acc5 d13d d8c6 29bd b71f 643d c848 913c
000003c0: 6e31 253c bbb5 17bd 75b3 3d3d f1c9 ac3d
000003d0: 3e40 393d 9174 abbd e7d1 86ba 4721 a3bb
000003e0: 8dc5 0abd 8e14 1e3e c2e8 b73c e115 da3c
000003f0: a915 613d 89cf 1d3e 58af cabc 7f5f 563e

network_body._body_endoder.seq_layers.2.bias f4 [128]
0.0 0.0 0.0 0.0 0.0 0.0 0.0 0.0
0.0 0.0 0.0 0.0 0.0 0.0 0.0 0.0
0.0 0.0 0.0 0.0 0.0 0.0 0.0 0.0
0.0 0.0 0.0 0.0 0.0 0.0 0.0 0.0
0.0 0.0 0.0 0.0 0.0 0.0 0.0 0.0
0.0 0.0 0.0 0.0 0.0 0.0 0.0 0.0
0.0 0.0 0.0 0.0 0.0 0.0 0.0 0.0
0.0 0.0 0.0 0.0 0.0 0.0 0.0 0.0
0.0 0.0 0.0 0.0 0.0 0.0 0.0 0.0
0.0 0.0 0.0 0.0 0.0 0.0 0.0 0.0
0.0 0.0 0.0 0.0 0.0 0.0 0.0 0.0
0.0 0.0 0.0 0.0 0.0 0.0 0.0 0.0
0.0 0.0 0.0 0.0 0.0 0.0 0.0 0.0
0.0 0.0 0.0 0.0 0.0 0.0 0.0 0.0
0.0 0.0 0.0 0.0 0.0 0.0 0.0 0.0
0.0 0.0 0.0 0.0 0.0 0.0 0.0 0.0
00000000: 0000 0000 0000 0000 0000 0000 0000 0000
00000010: 0000 0000 0000 0000 0000 0000 0000 0000
00000020: 0000 0000 0000 0000 0000 0000 0000 0000
00000030: 0000 0000 0000 0000 0000 0000 0000 0000
00000040: 0000 0000 0000 0000 0000 0000 0000 0000
00000050: 0000 0000 0000 0000 0000 0000 0000 0000
00000060: 0000 0000 0000 0000 0000 0000 0000 0000
00000070: 0000 0000 0000 0000 0000 0000 0000 0000
00000080: 0000 0000 0000 0000 0000 0000 0000 0000
00000090: 0000 0000 0000 0000 0000 0000 0000 0000
000000a0: 0000 0000 0000 0000 0000 0000 0000 0000
000000b0: 0000 0000 0000 0000 0000 0000 0000 0000
000000c0: 0000 0000 0000 0000 0000 0000 0000 0000
000000d0: 0000 0000 0000 0000 0000 0000 0000 0000
000000e0: 0000 0000 0000 0000 0000 0000 0000 0000
000000f0: 0000 0000 0000 0000 0000 0000 0000 0000
00000100: 0000 0000 0000 0000 0000 0000 0000 0000
00000110: 0000 0000 0000 0000 0000 0000 0000 0000
00000120: 0000 0000 0000 0000 0000 0000 0000 0000
00000130: 0000 0000 0000 0000 0000 0000 0000 0000
00000140: 0000 0000 0000 0000 0000 0000 0000 0000
00000150: 0000 0000 0000 0000 0000 0000 0000 0000
00000160: 0000 0000 0000 0000 0000 0000 0000 0000
00000170: 0000 0000 0000 0000 0000 0000 0000 0000
00000180: 0000 0000 0000 0000 0000 0000 0000 0000
00000190: 0000 0000 0000 0000 0000 0000 0000 0000
000001a0: 0000 0000 0000 0000 0000 0000 0000 0000
000001b0: 0000 0000 0000 0000 0000 0000 0000 0000
000001c0: 0000 0000 0000 0000 0000 0000 0000 0000
000001d0: 0000 0000 0000 0000 0000 0000 0000 0000
000001e0: 0000 0000 0000 0000 0000 0000 0000 0000
000001f0: 0000 0000 0000 0000 0000 0000 0000 0000

value_heads.value_heads.extrinsic.weight f4 [1, 128]
0.19713315 0.055211455 0.044267505 0.026624843 -0.10075327 -0.024556652 -0.2048814 0.028952524
-0.15580018 -0.1932588 -0.18921532 -0.024243623 0.087611675 0.111092865 -0.17608327 0.18113041
-0.13904944 -0.103213035 -0.053278103 0.13621607 -0.084668145 -0.03924592 0.090510696 -0.031923905
0.08547351 0.012261525 -0.15205228 -0.034646466 -0.10770705 -0.06792347 0.14666268 -0.05141121
0.20964086 0.133861 0.18370417 -0.049848855 -0.16679883 0.16693008 -0.17488489 0.20381415
0.0012631565 0.20367101 -0.17621139 -0.13112965 0.08550659 -0.13115159 0.07715085 0.07475978
-0.17520505 -0.11969054 0.017975256 -0.14114554 0.044761658 0.13677308 -0.1519511 0.004230723
-0.20825997 0.046313822 -0.123579845 -0.14281577 0.13846812 0.10452601 -0.0743693 -0.19783065
-0.15715683 0.04068181 0.036904424 0.09033868 0.17181608 -0.02824314 0.05659449 0.049266666
0.113467306 -0.18566175 0.20552233 0.20193928 0.08943844 0.117634624 0.04772955 -0.025681749
0.12417713 0.008633614 -0.044968694 0.13787106 0.03825766 -0.18971074 -0.018897519 0.20173863
0.05522108 -0.09364091 -0.018327266 0.20172915 0.014736071 0.097358525 0.045641452 -0.06182587
-0.0775487 0.09934074 -0.11310218 -0.12923896 -0.16528216 0.1615878 0.10191357 0.18594334
-0.06962153 -0.043506727 0.034648955 -0.09674323 0.11482644 0.07628122 0.09541193 0.12235135
-0.17542395 -0.04250078 -0.118437976 -0.032879412 -0.08017218 -0.07490516 -0.16352709 -0.08626318
0.01180689 0.06029761 0.015919477 0.18392271 0.036433637 0.038960874 -0.2079243 0.10570547
00000000: 46dd 493e 6825 623d d851 353d 581c da3c
00000010: bb57 cebd 082b c9bc 6ecc 51be d82d ed3c
00000020: 158a 1fbe a3e5 45be a9c1 41be 909a c6bc
00000030: c06d b33d a884 e33d 2c4f 34be 407a 393e
00000040: fa62 0ebe 5b61 d3bd 243a 5abd 3a7c 0b3e
00000050: 7e66 adbd 54c0 20bd ac5d b93d a4c2 02bd
00000060: bc0c af3d 90e4 483c 98b3 1bbe 74e9 0dbd
00000070: 8495 dcbd 761b 8bbd be2e 163e 9094 52bd
00000080: 18ac 563e dc12 093e f21c 3c3e 502e 4cbd
00000090: 50cd 2abe b8ef 2a3e 0615 33be a8b4 503e
000000a0: 8090 a53a 228f 503e c270 34be da46 06be
000000b0: 141e af3d 9a4c 06be 4401 9e3d a81b 993d
000000c0: f468 33be 5020 f5bd d840 933c 7588 10be
000000d0: 0058 373d 3e0e 0c3e 1299 1bbe e0a1 8a3b
000000e0: 1a42 55be 90b3 3d3d 6e17 fdbd 4c3e 12be
000000f0: 96ca 0d3e bc11 d63d ee4e 98bd 1e94 4abe
00000100: b8ed 20be f8a1 263d 1829 173d 7c03 b93d
00000110: 8ef0 2f3e 285e e7bc a0cf 673d d8cb 493d
00000120: 8c61 e83d 1d1e 3ebe 7274 523e 2cc9 4e3e
00000130: 802b b73d 6cea f03d 1080 433d 8862 d2bc
00000140: 9450 fe3d 0074 0d3c 1831 38bd 122e 0d3e
00000150: 10b4 1c3d 8843 42be f8ce 9abc 9294 4e3e
00000160: 802f 623d cec6 bfbd 1023 96bc 1692 4e3e
00000170: 906f 713c e863 c73d 88f2 3a3d 203d 7dbd
00000180: dad1 9ebd 2873 cb3d 1ea2 e7bd 3857 04be
00000190: ba3f 29be 4677 253e 10b8 d03d ee67 3e3e
000001a0: bc95 8ebd 1c34 32bd 10ec 0d3d 5121 c6bd
000001b0: 202a eb3d 5439 9c3d 5467 c33d 5893 fa3d
000001c0: 56a2 33be 4c15 2ebd 9c8f f2bd 90ac 06bd
000001d0: 5031 a4bd e067 99bd a573 27be c0aa b0bd
000001e0: b071 413c a0fa 763d 9069 823c 3c56 3c3e
000001f0: 703b 153d 7095 1f3d 1cea 54be 1c7c d83d
