results/Test6/MoveToTarget/checkpoint.pt (torch, 149922 bytes, 12 tensors)

network_body._body_endoder.seq_layers.0.weight f4 [128, 6]
0.08002892 -0.080464296 0.74336284 -0.5275411 0.065757416 -0.4622281 -0.28519425 0.19812989
-0.32561392 -0.6105157 0.35187337 -0.39506656 0.38586763 0.7849917 -0.030331617 -0.56216246
-0.033926092 -0.12091674 -0.28099936 -0.2914975 0.3398456 0.5298156 0.46083558 0.024576295
-0.38021278 0.052338302 -0.30488437 -0.1558665 -0.021575972 0.6134164 0.096072055 0.6848363
0.23826033 -0.053260986 0.2661248 0.32933503 -0.27862516 0.253003 -0.29116467 0.42537126
-0.18842322 0.64711845 0.19057426 0.3836671 0.32918772 -0.3075373 0.14697674 0.5496596
0.4853701 -0.109509364 -0.1834151 0.14977494 -0.1533726 0.058323685 -0.15803875 0.07261081
0.097126946 -0.06864612 0.062119108 -0.22347344 0.2049055 -0.07255737 0.49477315 0.54730517
0.05624306 0.014682743 -0.26894015 -0.022958465 -0.5375917 0.2535202 -0.02301747 -0.081447095
-0.47919387 -0.51027626 0.19740118 -0.39629892 -0.41277152 0.32851145 0.3022309 0.3927016
0.072275 0.06010498 0.4018723 0.2809618 -0.16519834 -0.4929031 0.042912472 -0.13897735
0.50924224 -0.38512182 -0.029485721 0.12544468 0.38507658 -0.21821189 -0.034286886 0.53299665
0.19556943 -0.38254166 -0.4102267 -0.52955693 0.44418108 0.6978711 -0.16404481 0.16206534
-0.3600041 -0.30991977 0.210893 -0.13635568 -0.26633462 -0.21141179 0.6484854 0.31171128
-0.5134418 0.8171784 0.7222999 0.3175924 0.2775734 0.14966004 0.19576746 0.1627727
-0.5704283 0.56530154 -0.18641244 0.1781967 -0.42728674 -0.82559955 0.37252223 -0.38769144
-0.7238039 -0.09664284 -0.08697475 0.65630627 0.5912648 0.58194953 -0.020907925 0.21075712
-0.29333767 0.60804784 0.17495428 -0.19496694 -0.3131828 0.2466681 -1.1114422 -0.29506934
-0.6211217 -0.7817541 0.26299432 0.116204396 0.4412 1.0901741 -0.14659104 0.833671
1.1119368 0.83386177 -0.42407808 0.3056073 -0.21136463 0.17557217 0.2975553 -0.0924376
0.034071784 -0.41350326 -0.021152383 0.46750244 0.24610758 0.91245484 0.018046997 -0.30184308
0.02235656 0.03911798 -0.32872537 0.15703385 -0.68164444 0.1532863 0.05045586 -0.1322961
0.6029281 0.51087344 -0.18944277 0.45845434 -0.68281204 -0.62806904 0.5205437 -0.278884
0.24790914 0.3579695 -0.22016318 -0.05525848 -0.12207599 0.109767884 0.18812263 -0.18886316
-0.1862145 -0.14308536 -0.03213503 -0.47204962 0.25261614 -0.3290937 0.53660697 0.10560911
-0.41480273 -0.23173498 -1.2743087 0.24635364 0.029524658 -0.21342431 -0.024565354 -0.412504
0.427147 0.066978775 0.08361536 0.31478834 0.15563557 0.03710579 0.31274483 0.45878103
-0.1507748 0.14935122 0.51615417 -0.15431635 0.42644536 -0.5652092 0.32747832 -0.11138122
0.073327586 0.9880242 0.35734937 -0.3549828 0.39203516 -0.3867679 0.085703656 0.023087198
-0.1326934 -0.52917624 0.53278905 0.28761244 -0.034763686 -0.17178711 -0.60932326 0.11893149
0.05710011 0.34685132 -0.32259274 -0.0724113 -0.093703955 -0.30405653 0.155699 -0.4095391
0.14566526 -0.08540361 0.00108136 -0.4061281 -0.12793802 -0.09433752 0.15306936 0.066440694
00000000: 34e6 a33d 77ca a4bd 074d 3e3f ef0c 07bf
00000010: d3ab 863d 29a9 ecbe fb04 92be 90e2 4a3e
00000020: deb6 a6be c24a 1cbf bf28 b43e 2a46 cabe
00000030: 7190 c53e 37f5 483f 037a f8bc e1e9 0fbf
00000040: 16f6 0abd 32a3 f7bd 26df 8fbe 293f 95be
00000050: 3e00 ae3e ffa1 073f a4f2 eb3e 3a54 c93c
00000060: 40ab c2be b060 563d ce19 9cbe 789b 1fbe
00000070: 18c0 b0bc db08 1d3f 6dc1 c43d 6f51 2f3f
00000080: 84fa 733e 3128 5abd 8341 883e 9a9e a83e
00000090: f5a7 8ebe 9c89 813e 8913 95be 43ca d93e
000000a0: 04f2 40be 8ea9 253f e625 433e 0470 c43e
000000b0: 4b8b a83e 8775 9dbe 1281 163e 7eb6 0c3f
000000c0: 6e82 f83e 7246 e0bd 2bd1 3bbe 9a5e 193e
000000d0: b50d 1dbe d1e4 6e3d e9d4 21be fab4 943d
000000e0: 7eea c63d 5696 8cbd 9b70 7e3d 39d6 64be
000000f0: bfd2 513e f598 94bd e852 fd3e 311c 0c3f
00000100: 1f5f 663d e38f 703c 86b2 89be 6413 bcbc
00000110: 9c9f 09bf 66cd 813e 228f bcbc bccd a6bd
00000120: e658 f5be 77a1 02bf 8923 4a3e b1e7 cabe
00000130: ca56 d3be a732 a83e 02be 9a3e 2f10 c93e
00000140: ea04 943d a430 763d 35c2 cd3e 3ada 8f3e
00000150: c129 29be cc5d fcbe fdc4 2f3d 1450 0ebe
00000160: b35d 023f b02e c5be 0a8c f1bc 9274 003e
00000170: c228 c53e f072 5fbe 6870 0cbd 7872 083f
00000180: 5a43 483e 80dc c3be 3c09 d2be 0b91 07bf
00000190: b46b e33e aea7 323f 5dfb 27be 75f4 253e
000001a0: 7552 b8be cead 9ebe 56f4 573e d3a0 0bbe
000001b0: 035d 88be 557c 58be 2403 263f 9f98 9f3e
000001c0: ec70 03bf 9b32 513f a5e8 383f 799b a23e
000001d0: 1a1e 8e3e 7b40 193e 4477 483e e3ad 263e
000001e0: 9707 12bf 9ab7 103f e7e2 3ebe 3279 363e
000001f0: 54c5 dabe 7e5a 53bf 3cbb be3e 7e7f c6be
00000200: 364b 39bf aeec c5bd d11f b2bd b003 283f
00000210: 215d 173f a5fa 143f 1947 abbc b7d0 573e
00000220: 5b30 96be 06a9 1b3f 3727 333e 6aa5 47be
00000230: 7f59 a0be 9096 7c3e bd43 8ebf 5413 97be
00000240: d501 1fbf 0921 48bf 31a7 863e 92fc ed3d
00000250: f7e4 e13e d38a 8b3f f61b 16be 766b 553f
00000260: f253 8e3f f777 553f c320 d9be 8f78 9c3e
00000270: f86f 58be 31c9 333e 2b59 983e ed4f bdbd
00000280: db8e 0b3d b3b6 d3be c347 adbc 7b5c ef3e
00000290: a003 7c3e a496 693f 4cd7 933c 2d8b 9abe
000002a0: 1b25 b73c 2d3a 203d b14e a8be 7bcd 203e
000002b0: 4080 2ebf 15f7 1c3e ceaa 4e3d a178 07be
000002c0: 7f59 1a3f 9ac8 023f 49fd 41be 87ba ea3e
000002d0: c5cc 2ebf 22c9 20bf 5a42 053f e2c9 8ebe
000002e0: e5db 7d3e c747 b73e 7572 61be b756 62bd
000002f0: fa02 fabd fccd e03d 38a3 403e 5865 41be
00000300: 04af 3ebe f884 12be 05a0 03bd 7db0 f1be
00000310: e756 813e f87e a8be 135f 093f 9749 d83d
00000320: 0661 d4be ef4b 6dbe 8c1c a3bf 2144 7c3e
00000330: b2dd f13c e78b 5abe 483d c9bc b933 d3be
00000340: 03b3 da3e 2b2c 893d 883e ab3d f02b a13e
00000350: ee5e 1f3e 3efc 173d 1720 a03e 59e5 ea3e
00000360: b664 1abe 87ef 183e ae22 043f 1b05 1ebe
00000370: 0c57 da3e 8db1 10bf 3dab a73e d61b e4bd
00000380: c62c 963d 27ef 7c3f 7ff6 b63e 4ec0 b5be
00000390: d5b8 c83e 7106 c6be 6685 af3d 5d21 bd3c
000003a0: c7e0 07be 1878 07bf dd64 083f f041 933e
000003b0: 5e64 0ebd f6e8 2fbe 9cfc 1bbf 5a92 f33d
000003c0: cee1 693d 7f96 b13e e02a a5be 604c 94bd
000003d0: dce7 bfbd 4cad 9bbe 8f6f 1f3e 1caf d1be
000003e0: 4629 153e 16e8 aebd 6cbc 8d3a 06f0 cfbe
000003f0: 2f02 03be 0834 c1bd 37be 1c3e 0f12 883d

network_body._body_endoder.seq_layers.0.bias f4 [128]
0.0 0.0 0.0 0.0 0.0 0.0 0.0 0.0
0.0 0.0 0.0 0.0 0.0 0.0 0.0 0.0
0.0 0.0 0.0 0.0 0.0 0.0 0.0 0.0
0.0 0.0 0.0 0.0 0.0 0.0 0.0 0.0
0.0 0.0 0.0 0.0 0.0 0.0 0.0 0.0
0.0 0.0 0.0 0.0 0.0 0.0 0.0 0.0
0.0 0.0 0.0 0.0 0.0 0.0 0.0 0.0
0.0 0.0 0.0 0.0 0.0 0.0 0.0 0.0
0.0 0.0 0.0 0.0 0.0 0.0 0.0 0.0
0.0 0.0 0.0 0.0 0.0 0.0 0.0 0.0
0.0 0.0 0.0 0.0 0.0 0.0 0.0 0.0
0.0 0.0 0.0 0.0 0.0 0.0 0.0 0.0
0.0 0.0 0.0 0.0 0.0 0.0 0.0 0.0
0.0 0.0 0.0 0.0 0.0 0.0 0.0 0.0
0.0 0.0 0.0 0.0 0.0 0.0 0.0 0.0
0.0 0.0 0.0 0.0 0.0 0.0 0.0 0.0
00000000: 0000 0000 0000 0000 0000 0000 0000 0000
00000010: 0000 0000 0000 0000 0000 0000 0000 0000
00000020: 0000 0000 0000 0000 0000 0000 0000 0000
00000030: 0000 0000 0000 0000 0000 0000 0000 0000
00000040: 0000 0000 0000 0000 0000 0000 0000 0000
00000050: 0000 0000 0000 0000 0000 0000 0000 0000
00000060: 0000 0000 0000 0000 0000 0000 0000 0000
00000070: 0000 0000 0000 0000 0000 0000 0000 0000
00000080: 0000 0000 0000 0000 0000 0000 0000 0000
00000090: 0000 0000 0000 0000 0000 0000 0000 0000
000000a0: 0000 0000 0000 0000 0000 0000 0000 0000
000000b0: 0000 0000 0000 0000 0000 0000 0000 0000
000000c0: 0000 0000 0000 0000 0000 0000 0000 0000
000000d0: 0000 0000 0000 0000 0000 0000 0000 0000
000000e0: 0000 0000 0000 0000 0000 0000 0000 0000
000000f0: 0000 0000 0000 0000 0000 0000 0000 0000
00000100: 0000 0000 0000 0000 0000 0000 0000 0000
00000110: 0000 0000 0000 0000 0000 0000 0000 0000
00000120: 0000 0000 0000 0000 0000 0000 0000 0000
00000130: 0000 0000 0000 0000 0000 0000 0000 0000
00000140: 0000 0000 0000 0000 0000 0000 0000 0000
00000150: 0000 0000 0000 0000 0000 0000 0000 0000
00000160: 0000 0000 0000 0000 0000 0000 0000 0000
00000170: 0000 0000 0000 0000 0000 0000 0000 0000
00000180: 0000 0000 0000 0000 0000 0000 0000 0000
00000190: 0000 0000 0000 0000 0000 0000 0000 0000
000001a0: 0000 0000 0000 0000 0000 0000 0000 0000
000001b0: 0000 0000 0000 0000 0000 0000 0000 0000
000001c0: 0000 0000 0000 0000 0000 0000 0000 0000
000001d0: 0000 0000 0000 0000 0000 0000 0000 0000
000001e0: 0000 0000 0000 0000 0000 0000 0000 0000
000001f0: 0000 0000 0000 0000 0000 0000 0000 0000

network_body._body_endoder.seq_layers.2.weight f4 [128, 128]
0.09261183 -0.0066928323 -0.050507247 0.036658943 -0.085177496 0.124757886 0.014300998 -0.077090204
-0.00019398231 0.023484705 -0.0051450096 0.097510874 0.04290329 0.16706732 -0.0506546 0.012544048
0.1291332 -0.02125387 0.082311645 -0.040209748 -0.08055126 -0.0020286457 0.0905595 -0.0091034975
-0.13869992 0.08971386 0.034457475 0.0384269 0.022488259 -0.11480995 -0.10324078 -0.06594335
-0.03673171 -0.0125406785 0.062769055 0.11660374 -0.08274824 -0.009418824 0.16917019 0.06274747
-0.1139767 -0.09018988 0.056287024 0.10613478 -0.029531337 -0.015393848 -0.11417312 -0.05490831
-0.0021555799 0.020967575 0.12436958 0.07194266 -0.10317454 0.060879227 0.08233856 -0.028816475
0.052912455 0.098532304 -0.1359819 0.13698617 0.04419275 -0.06990461 -0.0032094002 -0.11704269
0.0047107544 0.07367793 -0.13278538 -0.03342673 0.105515465 0.05770686 0.036711797 0.083734736
-0.033089742 -0.11873098 0.055364236 -0.02445025 0.114837885 -0.13603066 -0.05418186 -0.14644052
-0.08532666 -0.05197289 0.047337428 0.064269796 0.031362277 -0.09582754 0.196784 -0.067969255
-0.10455103 0.033480667 0.053003654 -0.071977206 0.0017851449 0.04472805 0.22772355 0.011755573
0.071115665 -0.06869322 0.115434945 -0.12068948 -0.03623842 -0.10923647 -0.015019428 0.05642661
0.039157674 0.22962247 0.111404695 -0.13323782 0.0026856984 0.09820152 0.12341519 -0.028831571
-0.10685693 -0.013199385 0.08032254 0.011332696 0.0016425592 -0.019687336 0.061872326 -0.10363131
0.003451267 0.002777028 -0.08132633 0.034599494 -0.004426112 0.11870512 -0.03845915 0.11982175
-0.1768383 0.092744455 -0.11853863 -0.08405744 0.08884777 -0.035479113 -0.11371592 0.07199481
-0.1224855 0.02593521 -0.15893607 -0.01989253 0.070083104 0.03054552 0.041016467 -0.12754583
-0.054254588 0.08908102 0.033915214 0.04624015 0.18347535 0.0015341036 -0.03125193 -0.011592662
0.07266401 -0.049391605 -0.027471354 0.118595526 -0.12578821 0.06763925 0.06771952 -0.049169984
0.05105872 -0.003041461 0.12527464 0.2558654 -0.12357437 -0.029102603 0.011848399 0.061733183
-0.039656434 0.0814008 -0.03780508 0.14926097 -0.14484152 -0.009297515 -0.02698383 0.036725294
-0.008345218 0.02416109 0.03954338 -0.16211826 -0.043802276 -0.23100647 -0.0028789185 -0.05929483
-0.03682689 -0.084897295 -0.15488167 0.02707028 0.021605667 0.003721748 -0.12492166 0.07438527
0.07086548 -0.025173977 -0.08074756 -0.105648 0.036124095 -0.16683969 0.035177138 0.035098802
-0.08813206 -0.075590394 0.08222376 0.020793231 0.024302093 -0.029296674 0.22464542 0.09420381
-0.13301028 -0.036733694 -0.14216402 -0.096319884 0.012116836 0.12780789 0.09736545 0.028547393
0.1859716 0.06676929 0.14740595 -0.04997031 -0.05558991 -0.09406624 -0.011836851 0.014812372
-0.039484043 -0.14330392 0.0057316693 -0.0681986 -0.007151327 -0.032847237 0.011700557 -0.022557762
-0.021727972 0.0062436946 0.00090443343 0.09343462 0.030696008 -0.028709041 -0.0816036 -0.097424716
0.03928586 0.00922321 -0.0034738607 -0.013262408 -0.10625599 -0.095398076 -0.12807429 0.053369716
-0.07528895 0.019936671 0.0027563435 -0.043885622 0.035051934 0.016215734 -0.028663097 -0.087606974
00000000: 45ab bd3d 8c4f dbbb b0e0 4ebd b027 163d
00000010: 8a71 aebd 1081 ff3d bc4e 6a3c 78e1 9dbd
00000020: bb67 4bb9 ff62 c03c 7897 a8bb c8b3 c73d
00000030: 5cbb 2f3d b213 2b3e 337b 4fbd 8d85 4d3c
00000040: 7e3b 043e 991c aebc 0293 a83d fab2 24bd
00000050: 0ff8 a4bd 07f3 04bb 4277 b93d d626 15bc
00000060: 5a07 0ebe e6bb b73d 4823 0d3d 8665 1d3d
00000070: 4c39 b83c 7b21 ebbd e76f d3bd 4f0d 87bd
00000080: fd73 16bd 6b77 4dbc 108d 803d f1cd ee3d
00000090: e977 a9bd 6951 1abc f33a 2d3e bf81 803d
000000a0: 9e6c e9bd 79b5 b8bd 398d 663d 315d d93d
000000b0: b4eb f1bc 7a36 7cbc 99d3 e9bd 89e7 60bd
000000c0: a144 0dbb 31c4 ab3c 7ab5 fe3d ac56 933d
000000d0: 2c4d d3bd 7f5c 793d 1ea1 a83d 8710 ecbc
000000e0: bbba 583d 4ecb c93d d73e 0bbe 1a46 0c3e
000000f0: 7503 353d 262a 8fbd cd54 52bb 14b4 efbd
00000100: ac5c 9a3b 74e4 963d e4f8 07be 78ea 08bd
00000110: 7e18 d83d 075e 6c3d 1c5f 163d 1e7d ab3d
00000120: 1c89 07bd 3a29 f3bd 9cc5 623d e44b c8bc
00000130: 2030 eb3d 9f4b 0bbe cced 5dbd 81f4 15be
00000140: bebf aebd 86e1 54bd e4e4 413d e29f 833d
00000150: bb75 003d 3b41 c4bd bf81 493e 7733 8bbd
00000160: da1e d6bd 0623 093d 5c1a 593d c968 93bd
00000170: 86fb e93a c234 373d 5d30 693e 729a 403c
00000180: 17a5 913d 08af 8cbd 2869 ec3d 0c2c f7bd
00000190: bd6e 14bd 5fb7 dfbd 0c14 76bc 971f 673d
000001a0: cc63 203d 2722 6b3e 2528 e43d 7f6f 08be
000001b0: 8b02 303b e11d c93d 1ac1 fc3d 3030 ecbc
000001c0: ced7 dabd 3c42 58bc 2580 a43d c6ac 393c
000001d0: 244b d73a 5647 a1bc d66d 7d3d a73c d4bd
000001e0: a72e 623b ccfe 353b 6b8e a6bd 33b8 0d3d
000001f0: eb08 91bb ac1b f33d 5787 1dbd 1b65 f53d
00000200: 1915 35be cef0 bd3d 62c4 f2bd 4f26 acbd
00000210: d2f5 b53d 8c52 11bd e4e3 e8bd 0472 933d
00000220: aed9 fabd 1476 d43c 23c0 22be a9f5 a2bc
00000230: bb87 8f3d 993a fa3c e200 283d 609b 02be
00000240: 0f3a 5ebd 1c70 b63d aeea 0a3d 5066 3d3d
00000250: f6e0 3b3e fa13 c93a 0602 00bd 26ef 3dbc
00000260: ded0 943d da4e 4abd 9b0b e1bc 36e2 f23d
00000270: a0ce 00be 7286 8a3d 88b0 8a3d 7766 49bd
00000280: f322 513d 4053 47bb ff47 003e ca00 833e
00000290: 8f14 fdbd 9568 eebc ca1f 423c efdb 7c3d
000002a0: c96e 22bd 76b5 a63d 80d9 1abd ded7 183e
000002b0: 5651 14be 9b54 18bc 310d ddbc 436d 163d
000002c0: 62ba 08bc 7aed c53c 3df8 213d 5402 26be
000002d0: 046a 33bd f68c 6cbe 3dac 3cbb 23df 72bd
000002e0: cbd7 16bd a2de adbd 4d99 1ebe 7ec2 dd3c
000002f0: 5efe b03c 92e8 733b edd6 ffbd 4e57 983d
00000300: ec21 913d a839 cebc fa5e a5bd fb5d d8bd
00000310: dcf6 133d 06d8 2abe e715 103d c3c3 0f3d
00000320: 957e b4bd 23cf 9abd ee64 a83d 9156 aa3c
00000330: 2f15 c73c 94ff efbc 7309 663e eded c03d
00000340: d933 08be 1276 16bd 7293 11be 5c43 c5bd
00000350: b285 463c 12e0 023e 8967 c73d 39dc e93c
00000360: 576f 3e3e 56be 883d 96f1 163e abad 4cbd
00000370: 3fb2 63bd cda5 c0bd 5aef 41bc 97af 723c
00000380: 05ba 21bd 43be 12be bad0 bb3b b5ab 8bbd
00000390: ae55 eabb d38a 06bd b1b3 3f3c 0ecb b8bc
000003a0: dcfe b1bc e897 cc3b 8017 6d3a a65a bf3d
000003b0: 3276 fb3c 392f ebbc ca1f a7bd 9c86 c7bd
000003c0: 36ea 203d f21c 173c b6a9 63bb 924a 59bc
000003d0: be9c d9bd 1160 c3bd e825 03be 349a 5a3d
000003e0: 1831 9abd 3b52 a33c c5a3 343b 69c1 33bd
000003f0: 9e92 0f3d dcd6 843c dfce eabc 496b b3bd

network_body._body_endoder.seq_layers.2.bias f4 [128]
0.0 0.0 0.0 0.0 0.0 0.0 0.0 0.0
0.0 0.0 0.0 0.0 0.0 0.0 0.0 0.0
0.0 0.0 0.0 0.0 0.0 0.0 0.0 0.0
0.0 0.0 0.0 0.0 0.0 0.0 0.0 0.0
0.0 0.0 0.0 0.0 0.0 0.0 0.0 0.0
0.0 0.0 0.0 0.0 0.0 0.0 0.0 0.0
0.0 0.0 0.0 0.0 0.0 0.0 0.0 0.0
0.0 0.0 0.0 0.0 0.0 0.0 0.0 0.0
0.0 0.0 0.0 0.0 0.0 0.0 0.0 0.0
0.0 0.0 0.0 0.0 0.0 0.0 0.0 0.0
0.0 0.0 0.0 0.0 0.0 0.0 0.0 0.0
0.0 0.0 0.0 0.0 0.0 0.0 0.0 0.0
0.0 0.0 0.0 0.0 0.0 0.0 0.0 0.0
0.0 0.0 0.0 0.0 0.0 0.0 0.0 0.0
0.0 0.0 0.0 0.0 0.0 0.0 0.0 0.0
0.0 0.0 0.0 0.0 0.0 0.0 0.0 0.0
00000000: 0000 0000 0000 0000 0000 0000 0000 0000
00000010: 0000 0000 0000 0000 0000 0000 0000 0000
00000020: 0000 0000 0000 0000 0000 0000 0000 0000
00000030: 0000 0000 0000 0000 0000 0000 0000 0000
00000040: 0000 0000 0000 0000 0000 0000 0000 0000
00000050: 0000 0000 0000 0000 0000 0000 0000 0000
00000060: 0000 0000 0000 0000 0000 0000 0000 0000
00000070: 0000 0000 0000 0000 0000 0000 0000 0000
00000080: 0000 0000 0000 0000 0000 0000 0000 0000
00000090: 0000 0000 0000 0000 0000 0000 0000 0000
000000a0: 0000 0000 0000 0000 0000 0000 0000 0000
000000b0: 0000 0000 0000 0000 0000 0000 0000 0000
000000c0: 0000 0000 0000 0000 0000 0000 0000 0000
000000d0: 0000 0000 0000 0000 0000 0000 0000 0000
000000e0: 0000 0000 0000 0000 0000 0000 0000 0000
000000f0: 0000 0000 0000 0000 0000 0000 0000 0000
00000100: 0000 0000 0000 0000 0000 0000 0000 0000
00000110: 0000 0000 0000 0000 0000 0000 0000 0000
00000120: 0000 0000 0000 0000 0000 0000 0000 0000
00000130: 0000 0000 0000 0000 0000 0000 0000 0000
00000140: 0000 0000 0000 0000 0000 0000 0000 0000
00000150: 0000 0000 0000 0000 0000 0000 0000 0000
00000160: 0000 0000 0000 0000 0000 0000 0000 0000
00000170: 0000 0000 0000 0000 0000 0000 0000 0000
00000180: 0000 0000 0000 0000 0000 0000 0000 0000
00000190: 0000 0000 0000 0000 0000 0000 0000 0000
000001a0: 0000 0000 0000 0000 0000 0000 0000 0000
000001b0: 0000 0000 0000 0000 0000 0000 0000 0000
000001c0: 0000 0000 0000 0000 0000 0000 0000 0000
000001d0: 0000 0000 0000 0000 0000 0000 0000 0000
000001e0: 0000 0000 0000 0000 0000 0000 0000 0000
000001f0: 0000 0000 0000 0000 0000 0000 0000 0000

action_model._continuous_distribution.log_sigma f4 [1, 3]
0.0 0.0 0.0
00000000: 0000 0000 0000 0000 0000 0000

action_model._continuous_distribution.mu.weight f4 [3, 128]
0.009587111 -0.027263895 0.02065235 -0.018453402 -0.024391739 0.008715751 0.0006574341 -0.0027765078
0.005594608 0.01967958 0.0039085015 0.03744784 0.02191892 -0.000664867 0.012238181 0.017096546
-0.02572595 -0.030691251 -0.032102562 -0.026944567 0.00895642 -0.028926957 0.019600416 0.007079381
0.003761768 -0.015398956 -0.025565643 0.014867069 0.021983484 -0.00494585 -0.023999648 -0.033285063
0.0126661705 0.01746277 0.019649044 -0.005424931 -0.00362609 0.002151741 0.023508457 0.0044571254
0.0151025355 -0.00068614463 0.009812447 0.015059401 -0.017972974 -0.030075852 0.022480479 0.026639227
0.0010023374 0.029240265 0.03255551 -0.0076237842 0.010842792 -0.015500903 0.0066911727 0.014336268
-0.012824711 0.00017396465 0.034309335 0.0051877764 -0.013893728 0.011086618 -0.006609996 0.021674503
0.012801158 0.03884565 0.025363976 0.011793137 0.013555743 -0.015744265 0.011352069 -0.0011103101
0.026177157 -0.0076009235 0.0013590934 0.019544864 0.0014319253 -0.027507603 0.005082805 -0.011882572
-0.002587357 0.011572408 -0.01290229 -0.014676991 -0.005944278 0.027205033 -0.019504456 0.019551897
0.026215902 0.008516814 0.021446325 -0.018698627 0.00573596 -0.008377425 0.0045058248 -0.01699303
0.023678232 -0.02018156 -0.014267129 -0.015101678 0.006194736 -0.01193622 0.0062036733 0.004952238
0.006919581 -0.0049802535 0.009627747 0.012216891 -0.0013159295 0.020561157 0.007851834 0.01472704
0.031627275 -0.021480624 0.02825181 -0.025719408 0.0063690967 0.0069845193 -0.022384219 -0.020408621
-0.010350053 0.004555543 0.018650418 0.0032144338 0.004682054 -0.0063246633 0.015237614 -0.022961518
0.016980795 0.006082499 -0.017959252 -0.0053657014 -0.01556093 -0.009561225 -0.014719098 0.05763864
-0.0014239931 -0.01976536 0.012995101 0.013642234 0.008493104 -0.0057100463 0.0052373684 0.017865982
-0.017117294 0.03363943 0.008668269 -0.045442868 0.020009743 -0.017564103 -0.006826689 -0.009003203
0.011402012 0.015961464 0.023043234 -0.02333105 0.0033425197 -0.0020233388 0.016107008 0.043855093
0.011532461 0.011796611 0.025996586 0.01061119 -0.0017735491 -0.009713374 0.015879268 0.023179429
0.008886642 -0.016044563 -0.022499934 0.031156495 0.011991407 -0.0006496943 0.015824664 -0.038549993
-0.0058838795 -0.0073329806 0.0036025052 -0.0006400684 0.01514809 0.0027970031 0.013182017 -0.009713354
0.014333844 -0.002872487 -0.022482822 -0.025472403 -0.0013656444 0.02088077 -0.014461206 0.007845064
0.023724299 -0.010651304 -0.018903067 -0.009919953 0.006085334 -0.00897242 -0.006388908 -0.010428647
-0.0022303686 -0.0027212242 -0.02340713 0.0006473593 0.0072132954 -0.011580013 -0.0018620857 0.027726913
0.0049267393 0.011447972 0.027274493 -0.007108235 -0.0007346577 0.024805322 -0.02421323 -0.010943247
-0.00063587626 0.018649621 -0.006782529 0.018078443 -0.03005977 0.0007209309 0.02722438 0.022074806
0.013423105 0.019289816 0.008979649 -0.010651583 -0.021000989 0.013027258 0.0105515 0.017182294
0.016326291 -0.000990305 0.012848991 -0.024582079 0.009271744 0.022502398 0.021641927 -0.01611222
0.004610264 -0.0005911662 0.024678765 0.04358084 0.023664294 -0.03261848 -0.022432115 -0.0083574345
0.009041566 0.0048976685 -0.016377924 -0.0185758 -0.023081694 -0.011125576 -0.016493132 -0.011760481
00000000: 4213 1d3c 8858 dfbc 1e2f a93c 972b 97bc
00000010: 2fd1 c7bc 82cc 0e3c a857 2c3a 12f6 35bb
00000020: f952 b73b 1237 a13c e312 803b e862 193d
00000030: 4f8f b33c 784a 2eba a782 483c 0e0e 8c3c
00000040: 3abf d2bc 386c fbbc fa7d 03bd daba dcbc
00000050: f3bd 123c 3af8 ecbc 0d91 a03c 27fa e73b
00000060: ff87 763b e74b 7cbc 0a6f d1bc 0295 733c
00000070: b516 b43c cc10 a2bb e99a c4bc eb55 08bd
00000080: c585 4f3c 150e 8f3c 08f7 a03c 9fc3 b1bb
00000090: b2a3 6dbb 3904 0d3b cf94 c03c 140d 923b
000000a0: a070 773c 63de 33ba 63c4 203c b5bb 763c
000000b0: 0f3c 93bc a261 f6bc fb28 b83c 823a da3c
000000c0: dd60 833a 4889 ef3c ed58 053d f0d0 f9bb
000000d0: f7a5 313c 80f7 7dbc a041 db3b abe2 6a3c
000000e0: bd1e 52bc 486a 3639 f287 0c3d 39fe a93b
000000f0: 85a2 63bc a5a4 353c aa98 d8bb ba8e b13c
00000100: f3bb 513c 9e1c 1f3d 1dc8 cf3c 0038 413c
00000110: e818 5e3c 1efa 80bc 07fe 393c d387 91ba
00000120: 7a71 d63c 2b11 f9bb 9b23 b23a 8d1c a03c
00000130: 71af bb3a a057 e1bc a98d a63b 1faf 42bc
00000140: a690 29bb 329a 3d3c 2064 53bc c377 70bc
00000150: 38c8 c2bb 17dd de3c cfc7 9fbc 4d2b a03c
00000160: bbc2 d63c 1b8a 0b3c 34b0 af3c dd2d 99bc
00000170: b8f4 bb3b 7841 09bc 99a5 933b f834 8bbc
00000180: daf8 c13c cd53 a5bc adc0 69bc 076d 77bc
00000190: 36fd ca3b 2390 43bc 2f48 cb3b 6246 a23b
000001a0: a7bd e23b 6531 a3bb b3bd 1d3c 5b29 483c
000001b0: 447b acba df6f a83c fba4 003c af49 713c
000001c0: 9a8b 013d 22f8 afbc 5770 e73c 82b1 d2bc
000001d0: dbb3 d03b 65de e43b 1c5f b7bc fb2f a7bc
000001e0: 4593 29bc aa46 953b c3c8 983c 40a9 523b
000001f0: ea6b 993b 1f3f cfbb 2fa7 793c cb19 bcbc
00000200: 4f1b 8b3c b34f c73b 481f 93bc c4d2 afbb
00000210: 45f3 7ebc afa6 1cbc 5f28 71bc 7f16 6c3d
00000220: 48a5 baba f7ea a1bc 67e9 543c ad83 5f3c
00000230: a926 0b3c 571b bbbb 3b9e ab3b ae5b 923c
00000240: 9139 8cbc 80c9 093d 5b05 0e3c 4d22 3abd
00000250: 79eb a33c 98e2 8fbc 6bb2 dfbb 2c82 13bc
00000260: 81cf 3a3c 9ec1 823c 2ac5 bc3c c220 bfbc
00000270: 2d0e 5b3b fe99 04bb d8f2 833c 66a1 333d
00000280: a6f2 3c3c 9346 413c cbf6 d43c 8fda 2d3c
00000290: 6f76 e8ba d824 1fbc 3d15 823c c9e2 bd3c
000002a0: 4799 113c e36f 83bc c851 b8bc e83b ff3c
000002b0: 9b77 443c 3f50 2aba baa2 813c 99e6 1dbd
000002c0: 8fcd c0bb 8049 f0bb 0218 6c3b 43ca 27ba
000002d0: b22f 783c ed4d 373b 63f9 573c c224 1fbc
000002e0: 80d8 6a3c 5640 3cbb e52d b8bc 80ab d0bc
000002f0: 6cff b2ba 260e ab3c b2ee 6cbc 9588 003c
00000300: 7659 c23c cf82 2ebc 9bda 9abc 4c87 22bc
00000310: 7b67 c73b 0f01 13bc 0b5a d1bb eadc 2abc
00000320: 602b 12bb 9156 32bb 4fc0 bfbc 8cb3 293a
00000330: 825d ec3b 18ba 3dbc 3a11 f4ba 8d23 e33c
00000340: 7c70 a13b 4690 3b3c c26e df3c 32ec e8bb
00000350: 0b96 40ba 8834 cb3c d35a c6bc 4e4b 33bc
00000360: efb0 26ba 17c7 983c fa3f debb 3e19 943c
00000370: e83f f6bc dbfc 3c3a aa05 df3c 39d6 b43c
00000380: 95ec 5b3c ad05 9e3c 611f 133c fa83 2ebc
00000390: 440a acbc 4870 553c 33e0 2c3c e2c1 8c3c
000003a0: b7be 853c 1fcd 81ba 9384 523c 5b60 c9bc
000003b0: 83e8 173c f356 b83c 694a b13c c6fd 83bc
000003c0: b311 973b 7ef8 1aba 1f2b ca3c d381 323d
000003d0: 9fdb c13c f59a 05bd 8ec3 b7bc 9fed 08bc
000003e0: 1423 143c 9f7c a03b ff2a 86bc 472c 98bc
000003f0: d215 bdbc 0c48 36bc 9b1c 87bc 08af 40bc

action_model._continuous_distribution.mu.bias f4 [3]
0.0 0.0 0.0
00000000: 0000 0000 0000 0000 0000 0000

network_body._body_endoder.seq_layers.0.weight f4 [128, 6]
-0.37904015 0.36877978 0.47728682 -0.21853489 0.030970883 0.06407126 -0.40920204 0.4752643
0.24828473 0.39075375 0.4994359 -0.18421991 -0.66932386 -0.08147235 0.10989011 0.08338817
-0.24552059 -0.53802145 -0.42483416 0.5118523 -0.60640305 -0.49032655 0.54351884 -0.07091645
-0.14134806 0.16889478 -0.3280682 -0.08607619 -0.2910798 -0.5099533 -0.11123271 -0.6526484
0.18454759 0.29134625 0.639052 -0.25306547 0.024403613 0.2935148 -0.4342098 -0.49720305
0.44677296 0.10541068 -0.45749277 -0.8802456 0.8614746 0.21378945 -0.15370272 -0.17545223
-0.04780198 0.0044884034 -0.2770842 -0.21863796 0.5379719 -0.29758096 -0.0638 0.009826284
0.04209649 -0.46380985 0.055739246 0.15418985 0.030470043 0.021957703 0.18813908 -0.4267515
-0.6276687 -0.5321474 0.05214571 0.41876596 0.07086535 -0.060544655 0.020200953 -0.076758765
-0.25759158 -0.036451798 0.23010585 0.17281269 0.18103667 0.15560675 -0.036009368 0.52836585
0.15946794 1.6434712 -0.6362828 1.1848973 0.16180836 0.21107922 -0.08242644 -0.33935574
0.19498453 0.3732359 0.22332734 -0.34960467 0.06859478 0.052254118 0.35015 -0.023625081
0.038546037 0.2598854 -0.5021456 0.46477312 -0.93590975 0.09357267 0.14603692 0.4799842
-0.3966993 -0.10920498 0.70078933 0.13095383 -0.25874084 -0.28596726 -0.121652015 0.34349078
-0.8173253 0.44303936 0.21752739 0.13137734 0.30997407 -0.672534 -0.21450087 -0.2624556
0.36129972 0.26613858 -0.27736524 -0.35110304 0.11833745 0.083952434 0.008306051 -0.52978826
-0.5579268 0.0048018955 0.5775699 -0.24535806 0.37710893 -0.96028155 0.38562003 -0.3485505
0.40734792 0.5515143 0.020387543 -0.7340084 -0.00029843458 0.26828444 -0.8758527 -0.2031871
0.5612064 0.31004864 0.4690432 -0.18775547 -0.74111855 -0.73447174 -0.36991522 0.4823534
0.39076862 -0.6708427 -0.30535462 0.3212552 -0.023912733 0.1358179 0.42158827 -0.40197548
0.12173711 0.55424905 0.41643122 -0.2963694 -0.11177632 -0.2098384 0.45024315 0.067775995
-0.22316268 -0.052200973 -0.34903404 0.32542273 -0.3271242 0.1606027 -0.1015654 -1.2656955
0.04876257 0.5682281 -0.2672261 -0.78457826 0.268931 0.1961825 0.084100984 0.34837583
0.13135298 0.03331106 0.31814477 0.21688943 -0.13990666 0.3138078 -0.51533276 -0.4745213
0.0555208 -0.24018033 -0.39580688 0.1222929 -0.31704426 -0.0386682 -0.5702197 -0.32040304
0.25576013 -0.014421133 0.4982114 0.35496405 -0.0866654 -0.039792933 -0.9132754 -0.29163587
-0.6482867 0.09040892 -0.22610833 -0.19575891 -0.4200427 0.22267401 -0.38212237 0.5205353
0.38378984 -0.40074384 0.30414712 -0.8853899 0.17969033 0.08203991 0.23617275 -0.2502844
0.08003645 -0.806112 0.029629491 -0.4357326 0.33130497 -0.14558852 -0.5569646 0.77289754
-0.12910457 -0.31877756 -0.12880525 0.15081908 0.10808777 -0.44785064 -0.035067704 0.018335238
-0.20867702 0.45385447 -0.82679737 0.57661 -0.17572369 -0.6063737 -0.26490036 0.1771711
0.043676715 0.0812763 -0.58960086 -0.55269265 -0.56171423 0.5262999 -0.14382659 0.96579826
00000000: 8d11 c2be b4d0 bc3e f05e f43e 9cc7 5fbe
00000010: a6b6 fd3c cb37 833d ee82 d1be d855 f33e
00000020: 5a3e 7e3e e010 c83e 10b6 ff3e 25a4 3cbe
00000030: cf58 2bbf fada a6bd 110e e13d 6bc7 aa3d
00000040: c069 7bbe c6bb 09bf dd83 d9be c108 033f
00000050: 3b3d 1bbf 150c fbbe 0d24 0b3f a53c 91bd
00000060: 8cbd 10be c1f2 2c3e 8ef8 a7be b748 b0bd
00000070: 6908 95be 4d8c 02bf facd e3bd f713 27bf
00000080: 0bfa 3c3e 562b 953e e998 233f cc91 81be
00000090: 16ea c73c 9247 963e bf50 debe 6691 febe
000000a0: 6dbf e43e 8ee1 d73d 7e3c eabe c757 61bf
000000b0: 9989 5c3f 9feb 5a3e 3f64 1dbe c0a9 33be
000000c0: 02cc 43bd 7513 933b fbdd 8dbe a1e2 5fbe
000000d0: 87b8 093f 885c 98be 93a9 82bd 6cfe 203c
000000e0: 5e6d 2c3d 7c78 edbe d64e 643d f2e3 1d3e
000000f0: 509c f93c a4e0 b33c 88a7 403e 2c7f dabe
00000100: e5ae 20bf d03a 08bf bd96 553d 7e68 d63e
00000110: da21 913d acfd 77bd 787c a53c b333 9dbd
00000120: 0be3 83be 7b4e 15bd dea0 6b3e cff5 303e
00000130: ad61 393e 6057 1f3e 8f7e 13bd fc42 073f
00000140: 904b 233e 445d d23f 6ee3 22bf b7aa 973f
00000150: 17b1 253e 2725 583e 32cf a8bd 09c0 adbe
00000160: 06aa 473e c718 bf3e ecaf 643e 62ff b2be
00000170: 6c7b 8c3d 6a08 563d dc46 b33e 6389 c1bc
00000180: 73e2 1d3d b30f 853e 9d8c 00bf bef6 ed3e
00000190: c897 6fbf 07a3 bf3d b48a 153e 7dc0 f53e
000001a0: 2c1c cbbe dca6 dfbd ee66 333f c318 063e
000001b0: ae79 84be 4d6a 92be b124 f9bd 06de af3e
000001c0: 3b3c 51bf 0ed6 e23e 80bf 5e3e c887 063e
000001d0: ecb4 9e3e 302b 2cbf 1ea6 5bbe 9560 86be
000001e0: 47fc b83e 5143 883e d102 8ebe c7c3 b3be
000001f0: e85a f23d 41ef ab3d 1a16 083c 34a0 07bf
00000200: 4ad4 0ebf 3859 9d3b 9fdb 133f 253f 7bbe
00000210: 6c14 c13e 03d5 75bf fd6f c53e 3675 b2be
00000220: e88f d03e 0b30 0d3f c703 a73c f9e7 3bbf
00000230: 3677 9cb9 945c 893e e237 60bf 4710 50be
00000240: 39ab 0f3f b2be 9e3e 6e26 f03e f842 40be
00000250: f2b9 3dbf 5706 3cbf 8765 bdbe 06f7 f63e
00000260: d312 c83e 59bc 2bbf 7157 9cbe 907b a43e
00000270: a3e4 c3bc d913 0b3e 6bda d73e bbcf cdbe
00000280: 4e51 f93d 44e3 0d3f 7936 d53e bbbd 97be
00000290: fcea e4bd e1df 56be 4586 e63e 24ce 8a3d
000002a0: c284 64be b0d0 55bd 97b4 b2be cf9d a63e
000002b0: d37c a7be 0975 243e 8501 d0bd 4f02 a2bf
000002c0: 43bb 473d 6677 113f dcd1 88be 1fda 48bf
000002d0: 53b1 893e 11e4 483e 233d ac3d 515e b23e
000002e0: 6581 063e 2e71 083d dfe3 a23e 4318 5e3e
000002f0: b143 0fbe 6aab a03e d9ec 03bf 75f4 f2be
00000300: c769 633d d5f1 75be 33a7 cabe b374 fa3d
00000310: a053 a2be 8c62 1ebd ebf9 11bf de0b a4be
00000320: fef2 823e 9e46 6cbc 9115 ff3e d9bd b53e
00000330: a17d b1bd eafd 22bd 6bcc 69bf 4c51 95be
00000340: 1ef6 25bf 5028 b93d f188 67be 0675 48be
00000350: d60f d7be a804 643e 8ba5 c3be cd41 053f
00000360: 1a80 c43e 4c2e cdbe 2cb9 9b3e eaa8 62bf
00000370: be00 383e 8a04 a83d 45d7 713e 4725 80be
00000380: 26ea a33d 5b5d 4ebf 8cb9 f23c 5818 dfbe
00000390: cea0 a93e 2815 15be 3b95 0ebf 9ddc 453f
000003a0: fd33 04be d036 a3be 86e5 03be 5170 1a3e
000003b0: 1f5d dd3d ae4c e5be 27a3 0fbd c833 963c
000003c0: 6eaf 55be 9d5f e83e fea8 53bf b79c 133f
000003d0: e9f0 33be 4f3b 1bbf 05a1 87be 576c 353e
000003e0: 5be6 323d 3074 a63d 15f0 16bf 447d 0dbf
000003f0: 81cc 0fbf 97bb 063f 4747 13be 8e3e 773f

network_body._body_endoder.seq_layers.0.bias f4 [128]
0.0 0.0 0.0 0.0 0.0 0.0 0.0 0.0
0.0 0.0 0.0 0.0 0.0 0.0 0.0 0.0
0.0 0.0 0.0 0.0 0.0 0.0 0.0 0.0
0.0 0.0 0.0 0.0 0.0 0.0 0.0 0.0
0.0 0.0 0.0 0.0 0.0 0.0 0.0 0.0
0.0 0.0 0.0 0.0 0.0 0.0 0.0 0.0
0.0 0.0 0.0 0.0 0.0 0.0 0.0 0.0
0.0 0.0 0.0 0.0 0.0 0.0 0.0 0.0
0.0 0.0 0.0 0.0 0.0 0.0 0.0 0.0
0.0 0.0 0.0 0.0 0.0 0.0 0.0 0.0
0.0 0.0 0.0 0.0 0.0 0.0 0.0 0.0
0.0 0.0 0.0 0.0 0.0 0.0 0.0 0.0
0.0 0.0 0.0 0.0 0.0 0.0 0.0 0.0
0.0 0.0 0.0 0.0 0.0 0.0 0.0 0.0
0.0 0.0 0.0 0.0 0.0 0.0 0.0 0.0
0.0 0.0 0.0 0.0 0.0 0.0 0.0 0.0
00000000: 0000 0000 0000 0000 0000 0000 0000 0000
00000010: 0000 0000 0000 0000 0000 0000 0000 0000
00000020: 0000 0000 0000 0000 0000 0000 0000 0000
00000030: 0000 0000 0000 0000 0000 0000 0000 0000
00000040: 0000 0000 0000 0000 0000 0000 0000 0000
00000050: 0000 0000 0000 0000 0000 0000 0000 0000
00000060: 0000 0000 0000 0000 0000 0000 0000 0000
00000070: 0000 0000 0000 0000 0000 0000 0000 0000
00000080: 0000 0000 0000 0000 0000 0000 0000 0000
00000090: 0000 0000 0000 0000 0000 0000 0000 0000
000000a0: 0000 0000 0000 0000 0000 0000 0000 0000
000000b0: 0000 0000 0000 0000 0000 0000 0000 0000
000000c0: 0000 0000 0000 0000 0000 0000 0000 0000
000000d0: 0000 0000 0000 0000 0000 0000 0000 0000
000000e0: 0000 0000 0000 0000 0000 0000 0000 0000
000000f0: 0000 0000 0000 0000 0000 0000 0000 0000
00000100: 0000 0000 0000 0000 0000 0000 0000 0000
00000110: 0000 0000 0000 0000 0000 0000 0000 0000
00000120: 0000 0000 0000 0000 0000 0000 0000 0000
00000130: 0000 0000 0000 0000 0000 0000 0000 0000
00000140: 0000 0000 0000 0000 0000 0000 0000 0000
00000150: 0000 0000 0000 0000 0000 0000 0000 0000
00000160: 0000 0000 0000 0000 0000 0000 0000 0000
00000170: 0000 0000 0000 0000 0000 0000 0000 0000
00000180: 0000 0000 0000 0000 0000 0000 0000 0000
00000190: 0000 0000 0000 0000 0000 0000 0000 0000
000001a0: 0000 0000 0000 0000 0000 0000 0000 0000
000001b0: 0000 0000 0000 0000 0000 0000 0000 0000
000001c0: 0000 0000 0000 0000 0000 0000 0000 0000
000001d0: 0000 0000 0000 0000 0000 0000 0000 0000
000001e0: 0000 0000 0000 0000 0000 0000 0000 0000
000001f0: 0000 0000 0000 0000 0000 0000 0000 0000

network_body._body_endoder.seq_layers.2.weight f4 [128, 128]
-0.04714038 -0.07164714 0.037712593 -0.054062895 0.15056743 -0.032864925 0.010279052 -0.05911557
-0.031200493 0.13026999 -0.05596952 -0.07871426 -0.14805149 -0.1276783 -0.0217856 0.051310677
-0.05342443 0.0125136385 -0.073113546 -0.015398513 0.02528803 -0.12501472 0.06429076 0.1740245
-0.036724795 0.005822405 -0.08527223 0.09665866 -0.09077379 -0.072654486 -0.12930836 0.014675979
0.16172932 0.05376616 -0.026960148 -0.07368514 -0.073891744 -0.0119601535 0.042784847 0.13763244
-0.005399349 0.00596867 0.08978703 0.031295113 -0.15082063 0.11101727 -0.09034984 -0.11453877
0.10880694 0.14219221 0.116110586 -0.10072546 0.14818755 -0.106732205 0.0027912678 0.032703456
0.0881314 -0.099404424 -0.018438058 -0.09683427 0.05170421 0.06100685 -0.08223894 0.016699387
-0.10734903 0.032607123 0.034010753 0.07299078 -0.009203406 -0.14513804 0.02788839 0.08971959
0.033135545 0.18758258 -0.043781035 -0.08106312 -0.17857102 -0.004889585 0.03727285 0.0452049
-0.05143501 0.024660097 0.026212154 0.041679192 -0.15262792 -0.038026903 0.1623709 -0.1500839
-0.12720126 0.034460515 0.120656654 0.13225223 0.11749003 -0.028753301 0.027037121 -0.027581522
-0.043360483 -0.10951725 -0.0041681 -0.018909156 -0.12935603 0.028338388 0.006088139 -0.059760436
-0.02369224 -0.086312026 -0.14131685 -0.060535412 0.17035604 0.14723454 -0.07097203 -0.009551558
-0.036089238 0.034581084 0.039421078 -0.08781976 0.12979564 0.08921927 0.15888342 -0.026138032
-0.1601584 0.09338256 0.093178496 -0.09428507 -0.03591664 0.12380514 -0.06545628 0.0042096507
0.13442698 -0.0026657153 -0.020444151 0.07602897 -0.12557684 -0.11627675 0.009415467 -0.15973632
-0.019396517 -0.063446805 -0.062254984 0.04662598 0.11201566 -0.06659298 0.05128866 -0.14665908
-0.037197057 -0.00056104665 0.09482718 -0.1071383 0.03235664 -0.05701204 0.10892089 -0.040496398
0.031671572 -0.08890636 -0.030580172 0.12539591 -0.097014226 0.031165568 0.014024917 -0.08688463
0.11518974 -0.010574045 -0.08411263 0.013139336 0.022723213 0.14021333 0.1236017 -0.06644331
0.0058052978 0.0024330977 -0.037070386 0.04308268 0.037564997 0.1680207 -0.07553989 0.056745917
0.06829837 0.05413087 0.044933304 0.12882163 -0.0019564463 -0.13836277 -0.03414997 -0.053657427
-0.1794924 -0.048456185 -0.046550497 0.013876488 0.08591546 0.15755309 -0.0016478098 0.037079368
-0.012214134 -0.11373857 -0.0039850604 -0.040063348 0.04283488 0.18730877 -0.050743215 -0.030777588
-0.09915111 0.13838983 0.15224427 -0.016923185 -0.055709276 0.06402851 -0.1126873 -0.07080511
0.08871079 -0.04250382 -0.11126333 -0.11039051 0.018764803 0.045710538 0.11030725 -0.13529745
-0.0018819666 -0.021511529 0.046052016 0.09070332 -0.08792279 0.035760198 -0.023527471 0.012359729
-0.097279795 0.08090326 0.018853715 0.12505886 -0.039646376 -0.057649348 0.096148685 0.056771737
0.041879702 -0.050573815 0.075014815 -0.01987516 -0.07116875 -0.101156525 -0.0926247 -0.15864633
-0.043626975 -0.026960637 -0.009271602 0.012089932 -0.21215174 -0.16078462 0.024500037 -0.045404363
0.007999595 0.019517161 0.15960881 0.037450552 0.049165927 0.17688736 -0.01654726 0.007031957
00000000: 4516 41bd bcbb 92bd 8578 1a3d 0e71 5dbd
00000010: 592e 1a3e 5f9d 06bd 7869 283c 2b23 72bd
00000020: 2d98 ffbc 7f65 053e 4c40 65bd f134 a1bd
00000030: cf9a 17be 1abe 02be b777 b2bc 252b 523d
00000040: 93d3 5abd 0106 4d3c 8ebc 95bd 0b4a 7cbc
00000050: d828 cf3c dc03 00be e0aa 833d 7b33 323e
00000060: bd6c 16bd e0c9 be3b 35a3 aebd faf4 c53d
00000070: 9ce7 b9bd e0cb 94bd 6969 04be 8473 703c
00000080: 5f9c 253e e839 5c3d 87db dcbc 3ce8 96bd
00000090: 8e54 97bd 85f4 43bc 2a3f 2f3d 85ef 0c3e
000000a0: 06ed b0bb d594 c33b 43e2 b73d 4e2f 003d
000000b0: b970 1abe 065d e33d 5609 b9bd 4d93 eabd
000000c0: 2cd6 de3d d69a 113e 63cb ed3d 2649 cebd
000000d0: 7abe 173e 6a96 dabd b4ed 363b 0ff4 053d
000000e0: 3c7e b43d 8c94 cbbd 690b 97bc 0c51 c6bd
000000f0: cbc7 533d 52e2 793d e46c a8bd 27cd 883c
00000100: cfd9 dbbd 0c8f 053d dc4e 0b3d 317c 953d
00000110: e2c9 16bc 119f 14be 3176 e43c e8be b73d
00000120: 23b9 073d a615 403e be53 33bd 6c04 a6bd
00000130: 52db 36be d038 a0bb 6aab 183d c628 393d
00000140: 84ad 52bd f903 ca3c dfba d63c cdb7 2a3d
00000150: 7e4a 1cbe 19c2 1bbd 8f44 263e 98af 19be
00000160: 0c41 02be 7826 0d3d d61a f73d 216d 073e
00000170: 9d9e f03d 0b8c ebbc f47c dd3c a5f2 e1bc
00000180: c39a 31bd 944a e0bd 8f94 88bb 60e7 9abc
00000190: e875 04be e825 e83c 037f c73b 5cc7 74bd
000001a0: 3a16 c2bc 5cc4 b0bd 5db5 10be fbf3 77bd
000001b0: d071 2e3e a7c4 163e c959 91bd 237e 1cbc
000001c0: 4fd2 13bd e5a4 0d3d ff77 213d d9da b3bd
000001d0: 26e9 043e 98b8 b63d 56b2 223e 6d1f d6bc
000001e0: 9000 24be 5b3f bf3d 5ed4 be3d 8818 c1bd
000001f0: 541d 13bd 8d8d fd3d f10d 86bd 1cf1 893b
00000200: 3aa7 093e 48b3 2ebb 7e7a a7bc 14b5 9b3d
00000210: 3797 00be 8122 eebd 5543 1a3c eb91 23be
00000220: 72e5 9ebc 66f0 81bd 15ff 7ebd e2fa 3e3d
00000230: 7768 e53d e661 88bd 0f14 523d cc2d 16be
00000240: f15b 18bd 3413 13ba c134 c23d 536b dbbd
00000250: 6588 043d 7585 69bd ea11 df3d 8ddf 25bd
00000260: 0dba 013d 8a14 b6bd 4583 fabc c967 003e
00000270: 65af c6bd ef4e ff3c c4c8 653c 92f0 b1bd
00000280: 99e8 eb3d c23e 2dbc 3e43 acbd 5f46 573c
00000290: 0826 ba3c 1594 0f3e e322 fd3d 6e13 88bd
000002a0: 5e3a be3b 9b74 1f3b 1ed7 17bd 7777 303d
000002b0: c1dd 193d 9e0d 2c3e a8b4 9abd 686e 683d
000002c0: 04e0 8b3d 55b8 5d3d fc0b 383d d1e9 033e
000002d0: b937 00bb f8ae 0dbe d7e0 0bbd e4c7 5bbd
000002e0: dbcc 37be fe79 46bd bcab 3ebd 365a 633c
000002f0: 72f4 af3d 9955 213e 52fb d7ba 89e0 173d
00000300: cb1d 48bc c4ef e8bd 1c95 82bb 7719 24bd
00000310: a173 2f3d dfcd 3f3e 1ed8 4fbd 4821 fcbc
00000320: bd0f cbbd 10b6 0d3e ece5 1b3e 7ea2 8abc
00000330: 692f 64bd 6121 833d 99c8 e6bd 4502 91bd
00000340: 01ae b53d 7c18 2ebd 07de e3bd 6b14 e2bd
00000350: a5b8 993c f93a 3b3d c4e8 e13d 6a8b 0abe
00000360: 52ac f6ba f238 b0bc 0aa1 3c3d aac2 b93d
00000370: dd10 b4bd 4979 123d afbc c0bc 7680 4a3c
00000380: a13a c7bd 9cb0 a53d 1b73 9a3c 6e0f 003e
00000390: 3d64 22bd b921 6cbd 9ae9 c43d 7b89 683d
000003a0: 0d8a 2b3d 7d26 4fbd 5ea1 993d 3bd1 a2bc
000003b0: ecc0 91bd 272b cfbd 05b2 bdbd 2f74 22be
000003c0: 33b2 32bd 8edc dcbc ebe7 17bc da14 463c
000003d0: 4e3e 59be b9a4 24be 4db4 c83c edf9 39bd
000003e0: bc10 033c 74e2 9f3c 7e70 233e c065 193d
000003f0: 3662 493d f621 353e 1f8e 87bc 556c e63b

network_body._body_endoder.seq_layers.2.bias f4 [128]
0.0 0.0 0.0 0.0 0.0 0.0 0.0 0.0
0.0 0.0 0.0 0.0 0.0 0.0 0.0 0.0
0.0 0.0 0.0 0.0 0.0 0.0 0.0 0.0
0.0 0.0 0.0 0.0 0.0 0.0 0.0 0.0
0.0 0.0 0.0 0.0 0.0 0.0 0.0 0.0
0.0 0.0 0.0 0.0 0.0 0.0 0.0 0.0
0.0 0.0 0.0 0.0 0.0 0.0 0.0 0.0
0.0 0.0 0.0 0.0 0.0 0.0 0.0 0.0
0.0 0.0 0.0 0.0 0.0 0.0 0.0 0.0
0.0 0.0 0.0 0.0 0.0 0.0 0.0 0.0
0.0 0.0 0.0 0.0 0.0 0.0 0.0 0.0
0.0 0.0 0.0 0.0 0.0 0.0 0.0 0.0
0.0 0.0 0.0 0.0 0.0 0.0 0.0 0.0
0.0 0.0 0.0 0.0 0.0 0.0 0.0 0.0
0.0 0.0 0.0 0.0 0.0 0.0 0.0 0.0
0.0 0.0 0.0 0.0 0.0 0.0 0.0 0.0
00000000: 0000 0000 0000 0000 0000 0000 0000 0000
00000010: 0000 0000 0000 0000 0000 0000 0000 0000
00000020: 0000 0000 0000 0000 0000 0000 0000 0000
00000030: 0000 0000 0000 0000 0000 0000 0000 0000
00000040: 0000 0000 0000 0000 0000 0000 0000 0000
00000050: 0000 0000 0000 0000 0000 0000 0000 0000
00000060: 0000 0000 0000 0000 0000 0000 0000 0000
00000070: 0000 0000 0000 0000 0000 0000 0000 0000
00000080: 0000 0000 0000 0000 0000 0000 0000 0000
00000090: 0000 0000 0000 0000 0000 0000 0000 0000
000000a0: 0000 0000 0000 0000 0000 0000 0000 0000
000000b0: 0000 0000 0000 0000 0000 0000 0000 0000
000000c0: 0000 0000 0000 0000 0000 0000 0000 0000
000000d0: 0000 0000 0000 0000 0000 0000 0000 0000
000000e0: 0000 0000 0000 0000 0000 0000 0000 0000
000000f0: 0000 0000 0000 0000 0000 0000 0000 0000
00000100: 0000 0000 0000 0000 0000 0000 0000 0000
00000110: 0000 0000 0000 0000 0000 0000 0000 0000
00000120: 0000 0000 0000 0000 0000 0000 0000 0000
00000130: 0000 0000 0000 0000 0000 0000 0000 0000
00000140: 0000 0000 0000 0000 0000 0000 0000 0000
00000150: 0000 0000 0000 0000 0000 0000 0000 0000
00000160: 0000 0000 0000 0000 0000 0000 0000 0000
00000170: 0000 0000 0000 0000 0000 0000 0000 0000
00000180: 0000 0000 0000 0000 0000 0000 0000 0000
00000190: 0000 0000 0000 0000 0000 0000 0000 0000
000001a0: 0000 0000 0000 0000 0000 0000 0000 0000
000001b0: 0000 0000 0000 0000 0000 0000 0000 0000
000001c0: 0000 0000 0000 0000 0000 0000 0000 0000
000001d0: 0000 0000 0000 0000 0000 0000 0000 0000
000001e0: 0000 0000 0000 0000 0000 0000 0000 0000
000001f0: 0000 0000 0000 0000 0000 0000 0000 0000

value_heads.value_heads.extrinsic.weight f4 [1, 128]
-0.072156236 -0.08683629 0.08355218 -0.14883713 -0.066763625 0.09280053 -0.040918723 -0.103722416
0.18290809 -0.14148527 0.1816695 -0.06478049 0.15106308 -0.19424163 -0.034028083 0.21146914
0.057884544 0.1320577 -0.072172716 -0.078761965 0.13239744 -0.13763225 -0.14969045 -0.073426485
-0.11484348 -0.047724113 0.20376873 -0.08035891 -0.035135105 0.16762638 0.07103741 0.12655729
-0.030760199 0.18800282 0.16852808 -0.018190026 -0.11516045 0.105683506 0.09787235 0.17079401
-0.084648505 0.17571571 0.05607924 -0.11766698 0.080237746 -0.012385607 0.20673144 -0.11680006
0.12137622 0.035393924 0.1447779 0.13522005 -0.1651022 -0.008223444 -0.09503148 -0.11321582
0.15618834 0.14174303 -0.16282302 -0.023376063 0.1062361 0.17434606 -0.15580079 -0.16977222
-0.15953165 -0.028855845 0.09265429 0.053339362 -0.14550322 0.036462665 0.11387628 0.1803554
0.098736584 0.1035355 -0.15756556 0.19387898 0.16803035 -0.14769596 -0.12469316 0.11363104
0.1056869 0.08726999 -0.09593529 0.13508636 -0.100328036 -0.06344244 0.1151475 0.18213993
0.09312871 -0.035497725 -0.083216235 0.20887959 -0.19045664 0.16912585 -0.15062205 0.15617487
-0.06897512 -0.10825502 0.0327041 0.07332584 -0.12937585 0.023874462 -0.18043879 0.11756119
0.059492767 0.065384924 -0.13329738 0.20332828 0.014564216 0.081933856 0.17708701 -0.02729629
-0.024425387 -0.10201717 0.13324872 -0.06731452 0.1038816 -0.1648002 -0.10997266 -0.08105567
0.07143524 -0.21188137 0.14344361 0.011830255 0.03888601 -0.09062053 0.020408615 0.16907299
00000000: a6c6 93bd 3ad7 b1bd 681d ab3d c368 18be
00000010: 5ebb 88bd 340e be3d 649a 27bd 6b6c d4bd
00000020: 424c 3b3e 84e1 10be 9207 3a3e a2ab 84bd
00000030: 48b0 1a3e 47e7 46be 0861 0bbd 5e8b 583e
00000040: 5818 6d3d 223a 073e 4acf 93bd f44d a1bd
00000050: 3293 073e 78ef 0cbe 7448 19be a060 96bd
00000060: 0f33 ebbd 5c7a 43bd c0a8 503e 3693 a4bd
00000070: d4e9 0fbd 40a6 2b3e 107c 913d 3c98 013e
00000080: d0fc fbbc d083 403e a092 2c3e 4003 95bc
00000090: 3ed9 ebbd 9870 d83d 4c71 c83d a0e4 2e3e
000000a0: 325c adbd d2ee 333e 58b3 653d 63fb f0bd
000000b0: b053 a43d 00ed 4abc 68b1 533e df34 efbd
000000c0: 1894 f83d 38f9 103d a840 143e 2077 0a3e
000000d0: 8d10 29be a0bb 06bc dd9f c2bd b2dd e7bd
000000e0: d6ef 1f3e 1625 113e 14bb 26be 287f bfbc
000000f0: 5092 d93d c687 323e 3e8a 1fbe c5d8 2dbe
00000100: 445c 23be 1863 ecbc 88c1 bd3d 607a 5a3d
00000110: ccfe 14be e059 153d f837 e93d 16af 383e
00000120: 6836 ca3d 6c0a d43d de58 21be 3688 463e
00000130: 2610 2c3e 9c3d 17be 215f ffbd 64b7 e83d
00000140: 6072 d83d 9cba b23d b979 c4bd 1454 0a3e
00000150: c978 cdbd 1cee 81bd 74d2 eb3d e482 3a3e
00000160: 44ba be3d 1066 11bd 466d aabd 88e4 553e
00000170: 1107 43be 542f 2d3e ab3c 1abe 4eec 1f3e
00000180: d442 8dbd cfb4 ddbd bcf4 053d dc2b 963d
00000190: 1a7b 04be 6094 c33c f2c4 38be ecc3 f03d
000001a0: b0ae 733d 88e8 853d 1c7f 08be 4a35 503e
000001b0: c09e 6e3c f0cc a73d 4c56 353e 789c dfbc
000001c0: c017 c8bc 61ee d0bd 5a72 083e 32dc 89bd
000001d0: e0bf d43d 62c1 28be 5939 e1bd 8400 a6bd
000001e0: a44c 923d 6ef7 58be e2e2 123e b0d3 413c
000001f0: f046 1f3d 4297 b9bd f82f a73c 7821 2d3e
