results/Test30/Move To Target/Move To Target-2500004.pt (torch, 443734 bytes, 36 tensors)

network_body._body_endoder.seq_layers.0.weight f4 [128, 6]
00000000: ed5f 373f f343 10bf 6a93 8bbe 8628 41be
00000010: 06b6 3b3f 4311 41be 16dc 973d 6648 8fbd
00000020: 67cd 6e3d a8a4 72bf d8e6 99be 841c b0bd
00000030: 1529 173d 8b1e 79bd c973 14bf 93a4 14be
00000040: 7eb1 0dbe 6ed8 b1bd 18b4 023e 3aee 1e3e
00000050: a1bc b73e d52d 023e 27dd 093f ea77 c4b9
00000060: 74bf 8dbe 322d d73d 19c2 d43e 25ab 723d
00000070: c2c6 07be 0f05 883e 59b3 573c c79e 17bc
00000080: d82b 5fbd d105 533e da0a 74be d37e 1f3c
00000090: 764a 6b3d 89e0 d43d 3c18 213f e8a8 a93e
000000a0: 17df dfbd c4a8 cf3e f688 5b3e e601 843e
000000b0: ff91 42bf 99af 56be 8b02 94be a2c1 e1bd
000000c0: 4d22 853e c80c 233f 9686 0e3d cfea ffbd
000000d0: 4826 b3be 5638 023f bc87 a43f d47b f53e
000000e0: f7e5 393e 5e57 00bf ab03 af3e 3907 e93d
000000f0: d0be e4bd 34bc d8be 1955 f2be 729f 52be
00000100: 994f 4e3b 0bab a93e 5f17 3abf f390 81bc
00000110: bc09 6b3e 0901 fe3e 4319 89bc 875a a93e
00000120: 9b7a d6be 2c94 1ebd 829a c93e 8a8b f13e
00000130: ed21 a33c 79ca 4fbf 442a 8cbf 52cc 3cbe
00000140: 3128 3b3e 7140 0d3f d0a3 0cbd 76c5 36bd
00000150: 8dd7 803e 3646 a1be b154 73bc 0067 b23d
00000160: ee1c 02bf 72b2 6c3d ef4e 483e 6031 88bd
00000170: f1b5 10bc 2d57 8f3d 2859 b8be 8a96 30bf
00000180: efdd acbe f7fb 073e 33bb c7be 690c a4be
00000190: 1872 8fbd 0e7a 1d3e 9ebf a43e 1b69 233f
000001a0: e1de 28bf 1292 86be cfc4 e33e b010 0bbe
000001b0: 80dd 913e 82bd 3f3f fbd4 623f b55d 10be
000001c0: fc05 7b3e f862 6e3f 36db 02be baea ff3e
000001d0: d1e5 d63e 6563 6cbd 4e77 6abe 82b4 aebd
000001e0: 2268 2fbe 4abc 92be 743f 213e d773 a4be
000001f0: 8583 9e3e 7b8c 9fbd f3a9 87be 4d3a 8fbd
00000200: cb17 773e 6ce6 913e aa18 28bf 1b0d 563e
00000210: 1bbb 4c3e aace 5b3e 9698 8b3d f46a debd
00000220: 26e3 e2bd b60f 86be 2661 2b3e 3f2d f4be
00000230: c375 033f 0652 6cbf 5a08 ca3e 64a2 e23e
00000240: 377a 323f 59fc 42bf 8499 1cbe 08f1 1abf
00000250: 5b74 393e 9494 0cbd 7cad a2bd a00f babe
00000260: 0de7 1ebe 5ad5 a0be 87c9 16be 3d86 7f3e
00000270: c2a2 81be 5aa3 8e3e e821 49bd 9e3d 063e
00000280: 1065 95bd b594 0c3d 06d0 a3be 86c7 c4bd
00000290: 9a5f 2d3e c874 d13c 5e46 033d 6c39 3dbe
000002a0: 2dc5 df3d 67ca 463e b681 693f 6931 be3e
000002b0: 5ddf 213f 2fca 923c 914d 7a3f 4b90 4b3f
000002c0: a66b 78bd 1b68 853e 3bea 6e3f ee21 b43e
000002d0: 8019 7dbf 03bb 1abd 274d 2f3f 8e00 f03e
000002e0: 44ff 8c3e 1c14 0c3f b415 89be 241a ebbc
000002f0: 73db 0dbf efd7 da3e a69e 763e a9aa c03e
00000300: 02f0 17bf b6f8 19bd 3178 003e b4ca 4f3f
00000310: 5755 4fbd b2bb c6be d88d 56be dfe7 403f
00000320: bd65 9b3e cebb cbbe caca 07bc ce6f 8d3e
00000330: 6936 bb3d 8d7c 1abf 5cb0 ce3e 30e8 80bb
00000340: ef0b fabe 942d d8be 6d39 bbbe 1bd2 a23e
00000350: 02e6 f73d e204 623e e5a6 833d a876 6a3d
00000360: 6237 233e 7ce6 46bf e694 4fbd fedb 07bf
00000370: 571a 5c3f 9f06 073f 7e12 9cbc 2cf0 ba3e
00000380: 202a 37bf 7440 323e 3300 51bf 3702 7b3f
00000390: 8dc4 aebe 1f7d 05bf d088 933d 65c1 84be
000003a0: 8cfd 06bf 1d6d 3ebd 8df2 d5bd f6e4 2d3e
000003b0: eafb a6be f96a 083f 4444 b43e 830c 88bc
000003c0: 3571 253e ea00 dc3e c211 89be cdd8 973e
000003d0: 1caa 9c3e 856a cb3d aca1 993e c640 1b3f
000003e0: 017e b83e 0efb a7be d59f 213f a66d 7cbe
000003f0: 22c8 e7be c634 253d 1584 6ebe b773 d3be
0.71630746 -0.5635368 -0.27260906 -0.18863115 0.7332462 -0.18854241 0.07415025 -0.06996231
0.058301356 -0.94782495 -0.30058932 -0.08599189 0.036904413 -0.060820144 -0.57989174 -0.14515905
-0.13837239 -0.08683859 0.12764013 0.15520564 0.358861 0.12712796 0.53853077 -0.00037473376
-0.2768513 0.10506667 0.41554335 0.059245247 -0.13259414 0.2656636 0.013165318 -0.009254164
-0.054485172 0.20607688 -0.23832265 0.009734827 0.05744406 0.10394389 0.62927604 0.33136678
-0.10931223 0.40558445 0.21438965 0.25782698 -0.7600402 -0.20965423 -0.2890819 -0.11023261
0.26002732 0.6369138 0.03479632 -0.12495958 -0.34990144 0.5086721 1.2853923 0.47946036
0.18154131 -0.5013331 0.34182486 0.11378331 -0.11169207 -0.42331088 -0.4733055 -0.20568636
0.003148055 0.33138308 -0.7269191 -0.015816187 0.22952932 0.49610165 -0.016735679 0.3307688
-0.41890416 -0.038715526 0.39375693 0.47176772 0.019913638 -0.81168324 -1.0950398 -0.18437317
0.1827705 0.55176455 -0.03433591 -0.044621907 0.25164452 -0.3149888 -0.014851735 0.08711052
-0.50825393 0.057787366 0.19561361 -0.066500425 -0.008832441 0.06999049 -0.3600552 -0.68979704
-0.33763072 0.1327971 -0.3901001 -0.32040718 -0.070041835 0.15378591 0.32177442 0.63832253
-0.65965086 -0.26283318 0.4448609 -0.13580585 0.28489304 0.7489854 0.8860623 -0.14098246
0.24514002 0.93119764 -0.12778935 0.4998377 0.4197221 -0.057711978 -0.22897074 -0.08530523
-0.17129567 -0.28659278 0.15746862 -0.3211963 0.30959716 -0.077904664 -0.26496848 -0.06993542
0.2413017 0.2849611 -0.65662634 0.20903437 0.1999325 0.21465555 0.06816213 -0.108602434
-0.110784814 -0.26183861 0.16736278 -0.4769077 0.51351565 -0.9231266 0.39459497 0.4426452
0.69717735 -0.761663 -0.15292937 -0.60524035 0.18110792 -0.034321383 -0.07943246 -0.36340046
-0.15517826 -0.31412774 -0.14725314 0.24953552 -0.25319487 0.27859002 -0.0491046 0.13109443
-0.07294667 0.034321506 -0.31994647 -0.096083686 0.16931 0.025568381 0.03204953 -0.18478936
0.1092628 0.19413148 0.9121355 0.37147072 0.6323145 0.017918674 0.97774607 0.7951705
-0.060649537 0.2605599 0.9332616 0.35182136 -0.98867035 -0.037776005 0.684771 0.46875423
0.27538502 0.54718184 -0.2677437 -0.028698988 -0.5541298 0.4274287 0.24083957 0.37630203
-0.593506 -0.037590705 0.1254585 0.81168675 -0.050618496 -0.38815075 -0.20952547 0.7535381
0.30351058 -0.3979172 -0.008288095 0.27624363 0.09141237 -0.603463 0.40368927 -0.003933929
-0.4883723 -0.42222273 -0.3656725 0.31800923 0.121044174 0.22072175 0.06428317 0.057242066
0.15939096 -0.7769544 -0.05067911 -0.53070056 0.8597769 0.5274448 -0.019051787 0.36511362
-0.7154865 0.174074 -0.8164093 0.98050255 -0.3413433 -0.52144045 0.07203829 -0.25928798
-0.5273063 -0.046490777 -0.104466535 0.16981873 -0.3261407 0.5328823 0.35208333 -0.016607529
0.16156466 0.42969447 -0.2677136 0.29657593 0.30598533 0.09932426 0.30006158 0.6064571
0.36033633 -0.32808727 0.6313451 -0.24651203 -0.45269877 0.04033353 -0.23292573 -0.4129922

network_body._body_endoder.seq_layers.0.bias f4 [128]
00000000: dd5e 1a3c be46 05bc 6324 0fbc 0891 873b
00000010: 0df6 8abb f498 95bb 7f83 663a 013a fc3b
00000020: 48cb c03b 0d44 cbbb c790 94bc b633 0ebc
00000030: 510e c5bb 6244 6abb e524 b03b cf4a 33bb
00000040: b2b5 87bb 2591 fd3b 8e92 13bc 3a65 96ba
00000050: 5afa ab3b 60e5 22ba 2266 d437 5ab4 8b3c
00000060: ebd3 283c 5fbe 9a3b d5ad 053a 1a82 943a
00000070: ebf7 b538 c4a7 a03b d7fe 143b 88cd dbbb
00000080: 20f8 5bbb 61ab 043c 2164 c3ba 754f 303b
00000090: 3ba2 bbbb 1926 18bc 7a91 cd3a ba90 cf3c
000000a0: c920 19bc 9661 92bc b1f3 2db9 203c bc3b
000000b0: 8ce0 9238 0b33 8c3b 33c4 40bb 763b ddb9
000000c0: 4ea2 383b 5855 10bc 7e38 97ba 5ebb 583a
000000d0: 90a5 c9bb b536 5c3b 5c2f 5fb9 7124 67bb
000000e0: 3a35 d23b c13c 383c db06 40bc 9edd 47bb
000000f0: 50fe e5bb b6aa 8abc e8d6 eb3c c997 a5b9
00000100: 89e3 af3b c6c5 3abc 7aa3 86b9 46d9 39bb
00000110: 5b85 f4ba 1f22 07bc 63ec 843b 698c 36bb
00000120: 480f 85bc 487c 293a cfa0 fb3b 1751 f4bb
00000130: cdc1 25bc 47fc e73a 76d9 333a fe9c 4ebc
00000140: 4623 a33c 60e4 fa3b 1ed6 6e3b ef6a 493c
00000150: cc5a 50bb 3868 df3a 707e 98ba b616 7cbb
00000160: 1bd1 b7ba a979 e13b dc8e c03a 0ebe e8b9
00000170: ea52 d4bb 6eeb 7fbb bad9 e43b a927 06bc
00000180: 40b4 87bb 7790 c1ba c0ab c33b 9b75 023c
00000190: 3813 e73a 654a fa3a 2ffb 423c e732 cbbb
000001a0: 7adf 16b8 b2ab 013b 4ce1 813a e2ef 6238
000001b0: d45b 093b 822f 4d3b 26e5 bc39 f73d 13bc
000001c0: 76b9 da3b 15f6 17bc 8322 4ebb 2a9f 79bc
000001d0: 051b 81bc ce86 f6ba 49e3 d93a 5b73 afbb
000001e0: 0ec3 f339 3143 f33b 2796 07bc 7f95 1d3c
000001f0: a5ed 63bb 5176 233c 203f a4bc efc3 923b
0.009422031 -0.008134542 -0.008736703 0.004137162 -0.0042407573 -0.0045653526 0.0008793398 0.0076973443
0.005883608 -0.0062031806 -0.018135441 -0.008679321 -0.0060136695 -0.0035746326 0.005375492 -0.0027357822
-0.004141533 0.00773825 -0.009007109 -0.001147426 0.00524835 -0.0006213989 2.5319929e-05 0.017053772
0.010304431 0.004722401 0.00050994504 0.0011330277 8.676931e-05 0.0049028117 0.0022734904 -0.006707851
-0.0033564642 0.008097501 -0.001490716 0.0026902829 -0.0057261265 -0.009286427 0.0015683614 0.025337566
-0.0093461955 -0.017868798 -0.00016589348 0.005744472 7.0036476e-05 0.0042785457 -0.002941382 -0.00042196707
0.0028172913 -0.00880941 -0.0011537222 0.0008267666 -0.00615377 0.0033601944 -0.0002128458 -0.0035269524
0.0064150365 0.011244954 -0.0117203845 -0.0030497084 -0.007018842 -0.016927104 0.028788999 -0.0003158434
0.0053677005 -0.011399692 -0.0002568027 -0.0028358265 -0.0018655466 -0.008247881 0.0040565 -0.0027854687
-0.016242638 0.0006465358 0.007679082 -0.0074559557 -0.0101170065 0.0017699086 0.00068607123 -0.012610672
0.01991428 0.007656619 0.0036443542 0.012293561 -0.00317924 0.0017044609 -0.0011634361 -0.0038465685
-0.001402411 0.006880958 0.0014691013 -0.0004439209 -0.0064796107 -0.003905024 0.006983963 -0.008188167
-0.0041413605 -0.0014767785 0.005971402 0.00796261 0.0017629629 0.0019095658 0.011900707 -0.0062011364
-3.5970916e-05 0.0019786176 0.0009909063 5.4106007e-05 0.0020959275 0.0031308834 0.00036028883 -0.008986942
0.0066749407 -0.009274979 -0.0031453676 -0.015235702 -0.015759954 -0.0018808485 0.0016623522 -0.0053543276
0.000464939 0.0074237813 -0.008275545 0.009618162 -0.0034779098 0.009976939 -0.020049632 0.0044789235

network_body._body_endoder.seq_layers.2.weight f4 [128, 128]
00000000: 3b65 f3bc 7906 373d 171a c13d 9dfc ca3c
00000010: e0eb e5bd 5f3c f2bb 57e9 f6bc 883c f0bd
00000020: 0e19 9dbd 3101 c03c 0d40 803d e664 75bd
00000030: e276 c8bd 7218 64bd 63ef f23d afff e9bd
00000040: 6f95 7bbd 22dd 0dbc 5d98 bb3c e041 2cbd
00000050: fe49 6b3d 9707 133e c7ce 31bd fd42 4c3d
00000060: 1b7d af3d 0288 193c 64b4 b53d 4be4 e4bd
00000070: 67d6 4cbb 11dc cfbd 359f c3bd c24b fc3d
00000080: 7ad5 533d b378 2cbb 79a4 09be 16d9 343d
00000090: 49e8 763d 541f a73c fd37 4fbc 8d32 b13d
000000a0: 9cff 86bb 9332 80bd 947f 12bd 824c dbbd
000000b0: d33d 9f3d 6bf1 6dbd 3553 e6bc 100e 193d
000000c0: 5fbe a13d c5bd 5b3d 4917 05be 03e4 95bd
000000d0: 9914 a93d fd30 88be 7ed4 83bd 870f ecbc
000000e0: dd3c a63c 61f7 513d 0686 5b3e 408f c2bc
000000f0: cdbe 6b3d 988b 233e ab61 c2bd 13ea 40bc
00000100: 39cf e9bd 53d6 b4bc 3fea 85bd 3bfa 9f3d
00000110: 3ce9 7cbd 0579 b5bd 68fc 2ebb d8a9 1a3d
00000120: 3bb2 b6bc 1f25 383d 668e 2d3d 16d6 103b
00000130: 81b6 1e3e df64 513c f911 88bd 1467 9abd
00000140: 6035 9dbc 6efa 843c eb07 053c 5613 e9bc
00000150: e6fd 113d 8268 943d 053f 4abd 7189 d63d
00000160: e87c 443d 62ce 6a3d a98b da39 1dec 013c
00000170: d31b 123d fce9 093c 6428 4cbd 31d6 3d3d
00000180: ef87 50be 5a9a 4a3e cf8b a23d 03d6 823e
00000190: e3dd 153e 9dce a33d 2543 50be 3436 233e
000001a0: 165b d5bd ceee 0d3e fc9f 20bd 2868 c03c
000001b0: f55c 35bd cefd 08bc a3e5 aa3d c7db 67bd
000001c0: 2d54 a53d 0860 efbc c751 bc3d 6d63 00bd
000001d0: e03e ce3d 5bad cdbd e176 0cbd 05af 453c
000001e0: afe5 dabc 6b40 64bd a2d6 49bc be5a 753e
000001f0: 6cb5 113d cd76 22be 904f 25be 0c6d b53d
00000200: ef7f b23d 494d 94bd 5752 fdbb 598b 1e3d
00000210: 210e 883d 8e77 203d 4022 f43d ae9e 62bd
00000220: 7b25 133d 9146 bb3a 990c 9d39 1a8e 003e
00000230: 5813 aebd 31d3 223c aae1 6ebd a177 eb3d
00000240: 553b 8fbd a87f ed3b 15c9 6e3e 25e1 a4bc
00000250: de43 183e e7ac f43d af62 803d f07e 393d
00000260: 8325 223e bece 67bd 3490 92bd de68 753d
00000270: 9bec c2bc 9f2c f53c 035b d73d 0797 d03d
00000280: 3288 3e3d 0562 c23d 9f80 653b 605d 0a3d
00000290: a7bc 803b de5b 1d3d c52e 833d b5a9 33bc
000002a0: d026 013e 5435 79bc 9ab8 003e 08b6 253e
000002b0: 9ed7 4e3e 944c d53d 032b 8e3d 5840 38bd
000002c0: c489 0d3b 485d a13b e614 08bd 4ec8 a3bc
000002d0: 0188 123d c0d4 5b3e 3a7d 4a3e 91d3 ba3d
000002e0: 21b2 15bd c45d 9c3d 8aa2 b8bd 759b b63d
000002f0: a242 74be 6ccb f53d bbd1 56be 9823 15bd
00000300: 2ebd dc3c 27f0 94bd 41ec 7dbd e29a 24be
00000310: 92a0 babc 9643 43bb b90a 39bc cb7c c6bc
00000320: cf1b 94bc f7cb a13d ec39 aabd 5f89 9ebd
00000330: 5abf f5bc 26e9 843d 1971 18bc efc5 f5bd
00000340: 4bed b73d 0dfd 0ebe 739a 113e 18e2 553c
00000350: a598 2abc 38c8 343e 1447 5ebd db62 2b3b
00000360: 6e57 b3bd f9a7 e6bc 28c7 a9bd 310e 5fbd
00000370: cef9 cf3d 0221 c73d e369 a7bc 1269 b93d
00000380: 0a97 3b3e 2a16 253d c5db d63d 40c6 8bbd
00000390: 6102 9c3d aceb e53b d1d1 3fbd 79cf 5abd
000003a0: 1069 adbd 79d8 eb3d c8e3 aa3d 3030 96bd
000003b0: f981 08be 8713 743c 5ec1 9fbd 773c f4bd
000003c0: 35e5 fc3b 8798 003e 01b9 1c3b 7b12 aa3d
000003d0: 95c5 6c3d eea2 f9bc e7ac f83d 4022 b3bc
000003e0: c6b5 68be 8181 78bd 2317 e53c 8f47 1cbe
000003f0: f75a a43a 9735 66bd ef06 373d 129f a4bb
-0.029711356 0.044683907 0.09428804 0.024778659 -0.1122663 -0.0073924507 -0.030140562 -0.117302954
-0.076707944 0.023438068 0.06262217 -0.059910677 -0.097883 -0.055687375 0.11862066 -0.11425721
-0.061421808 -0.008658679 0.0228998 -0.04205501 0.05744361 0.14358364 -0.04341009 0.049868573
0.08568784 0.009370806 0.088722974 -0.11176356 -0.0031255723 -0.10149396 -0.09551851 0.12319137
0.05171726 -0.002631706 -0.13441648 0.04415234 0.06028012 0.02040068 -0.012647626 0.0865222
-0.0041198265 -0.06259646 -0.0357662 -0.10707952 0.07775464 -0.058091562 -0.028115848 0.037366927
0.078976385 0.053647775 -0.12997164 -0.073188804 0.08255882 -0.26599875 -0.06437014 -0.028815998
0.020292694 0.05126131 0.21437845 -0.023749948 0.05755501 0.1597122 -0.09491285 -0.011774558
-0.11416478 -0.022074854 -0.065388195 0.078113995 -0.061745867 -0.08860973 -0.0026700739 0.037759632
-0.022301784 0.044957276 0.04237213 0.0022100261 0.15499307 0.012780397 -0.06644053 -0.07539192
-0.01919049 0.016232695 0.008119564 -0.028451603 0.035642527 0.07246496 -0.049376506 0.104754336
0.047970682 0.05732573 0.00041684255 0.007929829 0.035671066 0.008417603 -0.049843207 0.046346847
-0.20364355 0.19785443 0.079368226 0.25553903 0.14635424 0.07998393 -0.20338114 0.15938646
-0.10417764 0.13860628 -0.039215073 0.023487166 -0.044278104 -0.008361293 0.08344581 -0.05660608
0.08072696 -0.029220596 0.09195285 -0.03134482 0.10070586 -0.100428306 -0.03429306 0.012065654
-0.02672085 -0.055725496 -0.012319239 0.23960397 0.035573408 -0.15865631 -0.16143632 0.0885869
0.08715808 -0.072413035 -0.007730763 0.03870711 0.0664332 0.039176516 0.11920595 -0.05532711
0.035924416 0.0014287998 0.0002995476 0.12554207 -0.08499783 0.009938047 -0.05832068 0.11497427
-0.069937386 0.007247884 0.23318894 -0.020126889 0.1486964 0.11947041 0.062688224 0.045287073
0.15834622 -0.05659365 -0.07156411 0.059914462 -0.023794463 0.029928504 0.10515406 0.10185056
0.046516605 0.09491352 0.003501929 0.033780456 0.003928739 0.03841769 0.06405405 -0.010965754
0.12612462 -0.015210468 0.1257042 0.1618272 0.20199439 0.10414997 0.069417976 -0.044983238
0.0021597007 0.00492445 -0.033223055 -0.019992974 0.035774235 0.21467876 0.19774333 0.09122384
-0.03654683 0.07635072 -0.09015377 0.0891637 -0.23853543 0.1200169 -0.20978443 -0.036410898
0.026945677 -0.07272368 -0.061992887 -0.16074708 -0.022781644 -0.0029794923 -0.01129406 -0.024229428
-0.018079666 0.07900231 -0.08311829 -0.07741045 -0.02999847 0.06489782 -0.009304308 -0.120006435
0.08980807 -0.13963719 0.14219074 0.013054393 -0.01041237 0.17654502 -0.054267004 0.0026151452
-0.0875691 -0.028156267 -0.08289939 -0.054456893 0.10155068 0.097230926 -0.020436233 0.09053244
0.18319336 0.04030434 0.104911365 -0.068249226 0.07617641 0.0070166197 -0.046830956 -0.053420518
-0.08467305 0.11515898 0.08344227 -0.0733341 -0.1333083 0.014897234 -0.07800554 -0.11925595
0.0077177533 0.12558185 0.0023913982 0.08304306 0.057805616 -0.030473199 0.121423535 -0.021866918
-0.22725591 -0.06067038 0.027965134 -0.15261672 0.0012539317 -0.05620345 0.044684347 -0.0050238455

network_body._body_endoder.seq_layers.2.bias f4 [128]
00000000: 0d6d d336 bc12 593b 4aab 013c 1742 373b
00000010: 64b5 86ba 6a9d 0037 ec96 133c 872f f1bb
00000020: 2804 e2ba 4619 c73b 0ae6 f9b9 eac6 4fba
00000030: 005a 3fbb 57ec df3b fd5a c6bb f26b b4bb
00000040: 4d90 a539 6307 4cbb 790e e0ba 6b1b 783b
00000050: 7fdf aabb 5c3e fe3a 8c42 e4ba 1112 e3bb
00000060: 6e89 51bb 3e9a 23ba 538e f1bb 032c d6bb
00000070: 7e62 b1bb 54a4 55bc b45d deba 28b3 383b
00000080: cd96 0b3a 25fd afba 3168 15bb 1799 0fb9
00000090: 19e8 aeba 553d d03b bf7d b3bb bf26 68bb
000000a0: 6653 ad3b 38fe 87ba 77ea 87bb c81d 19bc
000000b0: ea9b e93b c88e 783b bcee d73b ca63 82bb
000000c0: d2b6 243b 2428 17bb d7ed 353c be66 02bc
000000d0: 4529 1f3c 723d 1abb 3667 e43a f7fc f739
000000e0: a9c4 8739 973d d03b 608e d23a 4852 a13a
000000f0: 335e 1f3c 03a9 f4bb 37b9 613b b554 6bbc
00000100: 6377 2439 e886 28bb 8d1d c03a 474a e23c
00000110: 2fdd 17bb 9f83 193c 3a3f e03a 7426 6139
00000120: 4199 27bc 98a1 0c3c 654f 76bb b278 ee3b
00000130: d380 b7bb afc7 9a3b 3d12 1c3c 3c21 e7ba
00000140: a349 bb3b 90af daba 427b ebba 2b45 0d3c
00000150: 1be0 c33b 9909 dc3a 88ae 82bc 6329 ec3a
00000160: 171e c73a 4eb1 6d37 98de e73b 69a4 e03b
00000170: a1d9 48bc a63f 243b 2172 313b e77c a93c
00000180: f3af 793b 9463 9dba 5e11 a23b 2eea c8bb
00000190: ef70 adbb 7286 4fbc 37b3 22bb aa95 f5bb
000001a0: a1d2 f83b 26ee 7c3a b23f ab3b 14ff af39
000001b0: 637c 39bb 6f10 943c 04b9 193c 940e 16bc
000001c0: 03fc a7bb 0751 06bc f2ea 3e39 4b65 923c
000001d0: 83a2 913b 4753 26bc 1284 38bc 3bee ca3b
000001e0: 7702 aeba 7d30 1e3b 4e88 28bc 6bb0 743b
000001f0: 43fe 103c 3ed3 0f3b ddea 22bc 745d ab3b
6.300985e-06 0.0033122739 0.007914374 0.0027962977 -0.0010277447 7.666045e-06 0.009008151 -0.007360402
-0.001724367 0.006076011 -0.00047664373 -0.0007926064 -0.0029197931 0.006833594 -0.006053327 -0.005506032
0.00031578765 -0.0031132333 -0.0017094157 0.003785814 -0.005214631 0.0019397247 -0.0017414852 -0.006929644
-0.0031972784 -0.00062409404 -0.0073717027 -0.0065360083 -0.0054133525 -0.013039667 -0.0016965182 0.0028182957
0.00053249 -0.0013426883 -0.0022797699 -0.00013694573 -0.0013344317 0.0063549676 -0.0054776366 -0.0035423485
0.005289483 -0.0010375446 -0.0041478234 -0.009345479 0.007129182 0.00379269 0.0065897387 -0.003979181
0.0025133383 -0.0023064697 0.011104069 -0.007959066 0.009714429 -0.002353516 0.0017425779 0.00047299985
0.0002589573 0.0063549983 0.001606416 0.0012307847 0.009727049 -0.007466437 0.0034442672 -0.014363457
0.00015684734 -0.0025715176 0.0014657244 0.027623309 -0.0023172607 0.00936976 0.0017108687 0.00021471997
-0.01022941 0.008583449 -0.0037583944 0.0072775716 -0.005600074 0.004723511 0.009525833 -0.0017633806
0.0057155653 -0.0016684402 -0.0017965811 0.008622448 0.005977643 0.0016787528 -0.015952364 0.0018017705
0.0015191463 1.4167583e-05 0.007076096 0.0068555367 -0.012258918 0.0025062351 0.0027076083 0.02068944
0.0038099259 -0.0012007826 0.004945918 -0.006131432 -0.0052930037 -0.012666332 -0.0024826059 -0.007494648
0.0075934683 0.0009648524 0.005226099 0.0003356865 -0.00283029 0.018074242 0.00938249 -0.009158749
-0.0051264777 -0.008198029 0.00018207336 0.017870566 0.0044444217 -0.010151691 -0.011261957 0.00619295
-0.0013275881 0.0024137788 -0.010286404 0.0037336599 0.008849683 0.0021945979 -0.009943691 0.0052296463

action_model._continuous_distribution.log_sigma f4 [1, 3]
00000000: c1d3 263d 8259 d43c e96d 853c
0.040729288 0.025921587 0.01628776

action_model._continuous_distribution.mu.weight f4 [3, 128]
00000000: 670d a8bc f648 d83b c1f1 973b 65da 653c
00000010: 4b23 68bb 9370 993b 464e 7cbc 9e93 123c
00000020: fbff 4bbc 3ae8 c33c a7ea 3fbc 38a3 14bb
00000030: 3f08 793c ab5b 1ebd bd73 9ebc c781 bc3c
00000040: 58a5 203c 62b7 ad3a 0c9d 1fbc ba6c 2f3d
00000050: 0a63 bf3b c9a4 92bc 6d38 4e3c c5d9 e83b
00000060: 7231 acbb 5498 803b ac1c 7cbc 2819 a5bc
00000070: a5be 34bc f1f7 f2bb 4dfa 24bc 0a0a 8c3c
00000080: 099f 173c 811a ee3b 6c0b 823c 0021 6cbc
00000090: 6c38 b83c 2ba4 04bc 127f 93bc 6a00 e53c
000000a0: 25b1 7bbc 3b7e 0c3b b991 033d 3d2b 073c
000000b0: d828 483b 0d3a 94bc 8db1 aebc 6458 043d
000000c0: 97d6 853c 0966 23bc a7ed 813b 1b77 5c3c
000000d0: ba35 dbba 4614 9d3b 85ba 51bc 17a2 803c
000000e0: c041 6bbc f33a 893c af86 093d 0004 2e3c
000000f0: 2c81 ddbc c255 a53b 4a0a 11bd 7963 333b
00000100: cfdf a63a 394d 233a 2968 51bc a0f5 75bd
00000110: 301c 0f3c c5f8 123c bc87 28ba 07bc 9fbc
00000120: ed09 ac3b 1c20 81bc 0133 05bc 8c64 2b3b
00000130: 6134 b03b 721a 01bd ed10 4dbd 680b 9d3b
00000140: 05fb 02bb c740 0abc e5c8 913a 9d9b 9eba
00000150: 6c6c edbb 66e6 223d 08c4 b7ba ae45 d9bb
00000160: 5a52 8cbc 1cc6 043c c0f8 f83b 352b 763d
00000170: 20b7 4d3c bc5e 6dbc 6252 033c 19df 21bc
00000180: c18b 85bc de7e 1dbd a8a6 39bc b12e 96bb
00000190: 233f 85bc 8110 52ba 90d6 3c3c 379b 81bc
000001a0: 9787 7c3d 6620 d03b 5bd6 9c3c 11da 0cbc
000001b0: 62ee 32bc 9be6 8e3a c073 d93b 43b7 11bc
000001c0: fede 093d 8a02 4b3c 08a6 83bc 79fd 3bbc
000001d0: 5a83 87bc 2ecf febc 8ab9 b4bb a3c6 693c
000001e0: 7333 dfbc b324 79bc 1494 193c 56f8 4cbc
000001f0: 59cf a6bb c448 0e3d 067a cd3c a18a a53c
00000200: 3738 d63b 81be 5bbc 7cb9 4bbc 3f59 63ba
00000210: 9afe 2b3c c2bd e83c 8f50 93bc c7e9 ef3b
00000220: 9beb 913c 1e20 993c e262 a93c 8485 c5bc
00000230: 93fa 5abb d6df f9bc 4b6c 4e3c 0d1b fcba
00000240: 2626 3e3c 494f 313c abb0 f5bb 35ae 65bb
00000250: 10f1 5c3c 4fe8 f83a 1d78 78bb be66 8d3c
00000260: aab2 c6bb 3dcf 74bb 99e7 c23c 76ad f73c
00000270: 02d1 9a3b 4944 de3c ab31 b53c a907 e9bb
00000280: f82c 903c d80b 45bc 7edf 00bd 5973 e3ba
00000290: 9783 c53b 1e8b 6dbc 8e34 02bb e310 c03c
000002a0: 5aa4 c7ba ade7 78bc 4226 51bc 49e1 4f3c
000002b0: 468e 1abc 24f4 e73a a08a f2bb 2370 7bbc
000002c0: a0eb 31bc 6bc1 cc3a 11ca 8bbc 9b51 c8bb
000002d0: 0890 cfbc 455c 6e3c 152a 90bc 9dcb e93c
000002e0: bf77 c33c 94e1 9fbc 1621 82bc 0f00 0f3c
000002f0: 91c5 443c facc 95ba c627 3f3c 5d99 173c
00000300: 7dbb 873c d009 bf3b db03 0fba 0e4e f0bc
00000310: 421c cabc e058 e4bc ee64 5ebc ae8a 163d
00000320: bb7f e23c 67df cebc 621a 6d3c c16d 84bc
00000330: 318f 6ebc 322c f4bc 8186 343d 7797 113d
00000340: 9f96 1cbc cc96 85bc 1dd8 fb3c 622a 6bbc
00000350: 1715 643d af63 acbb 30c5 bc3b 1af0 0a3d
00000360: 80aa 543b 2834 f0bb db0c 2dbc 9f75 933c
00000370: 9f1a 7c3b a867 453c 5c0b df3a f66d 28bd
00000380: 122c 11bb a87c 563c 3f5f ccbb 1833 aa3c
00000390: fcbd 903c 691b e33c e6ec 723a be8f 993c
000003a0: 89d4 3a3d 17f2 6d39 0a68 3bbc eaa1 54bb
000003b0: dfc5 18bc ab34 b6bc b2e9 12bd 80c7 d33b
000003c0: ae69 663c 5dae fdbc cf0b fb3a fc51 e2bb
000003d0: 29a4 05bc 1107 473d 475a b53c a152 89bc
000003e0: 9d8a 583c 4a79 b33c 4b37 a33c 40bd c4bc
000003f0: 4a3f 26bc 3811 c73c 1b21 463c adcb 803c
-0.020514203 0.0066004945 0.0046369736 0.01402912 -0.0035421427 0.0046826093 -0.015399521 0.0089463275
-0.012451167 0.023914445 -0.01171366 -0.0022680294 0.01519972 -0.03866164 -0.019342298 0.023011101
0.009805046 0.0013253505 -0.009742033 0.0428283 0.005840664 -0.017900841 0.012586695 0.0071060383
-0.005254918 0.003924409 -0.015387695 -0.020153597 -0.011031781 -0.007414811 -0.010069442 0.01709463
0.0092542255 0.007266343 0.015874587 -0.014412165 0.022487842 -0.008095781 -0.018004928 0.027954299
-0.015362059 0.0021437544 0.032121394 0.008250055 0.0030541923 -0.018094087 -0.021324897 0.03231086
0.016337676 -0.009973058 0.003965098 0.013456131 -0.0016724386 0.0047936765 -0.012800817 0.01570229
-0.014358938 0.016751742 0.03357571 0.010621071 -0.027039133 0.0050456235 -0.035410203 0.0027372523
0.0012731495 0.00062294636 -0.012781181 -0.0600487 0.008734748 0.008970444 -0.00064289174 -0.019498838
0.0052502067 -0.015762381 -0.008129836 0.002615246 0.005377338 -0.03151936 -0.05006497 0.0047926195
-0.0019986045 -0.008438296 0.0011122493 -0.001210082 -0.007245591 0.039770506 -0.0014020214 -0.006630621
-0.017129112 0.008103874 0.0075980127 0.0600998 0.012555867 -0.0144879185 0.008015247 -0.009879851
-0.016301991 -0.038451068 -0.011331238 -0.004583203 -0.016265457 -0.00080133235 0.011525765 -0.015821083
0.061652746 0.0063515184 0.019145181 -0.008596913 -0.010921093 0.0010902466 0.006636113 -0.008893791
0.033659928 0.012390742 -0.01607038 -0.011474007 -0.016542125 -0.03110465 -0.005515282 0.01426855
-0.027246213 -0.015206504 0.0093736835 -0.01251038 -0.0050906357 0.034737363 0.0250826 0.020207705
0.006537463 -0.013412119 -0.01243436 -0.00086726615 0.010497713 0.028410796 -0.01798275 0.0073215696
0.01781254 0.018692072 0.020677034 -0.024111517 -0.0033413514 -0.030502241 0.012599061 -0.0019234136
0.011605775 0.010822126 -0.007497867 -0.0035046462 0.013485208 0.0018990132 -0.003791339 0.017260905
-0.006063779 -0.003735497 0.023792075 0.03023408 0.0047246227 0.02713217 0.02211841 -0.007111509
0.017599568 -0.01202675 -0.03146314 -0.0017353102 0.0060276496 -0.0144985 -0.001986775 0.023445552
-0.0015231476 -0.015191955 -0.012765469 0.0126879895 -0.009433335 0.0017696661 -0.0074017793 -0.01534656
-0.0108594 0.0015621608 -0.017064126 -0.0061132438 -0.025337234 0.014548366 -0.017598191 0.028539473
0.02386081 -0.019516744 -0.015884917 0.008728041 0.012009994 -0.0011428886 0.011667198 0.009252873
0.016568894 0.005830027 -0.00054555916 -0.029334094 -0.024671678 -0.02787441 -0.013573868 0.03675335
0.027648797 -0.02525301 0.014471622 -0.016165616 -0.014560507 -0.02980623 0.044073585 0.03554484
-0.009557395 -0.016307257 0.0307427 -0.014353367 0.055684175 -0.0052609066 0.0057608113 0.033920385
0.0032450259 -0.0073304363 -0.010562147 0.018000422 0.0038468016 0.012048639 0.0017016935 -0.041120492
-0.0022151512 0.013091244 -0.00623694 0.020776317 0.017668717 0.027723031 0.0009266868 0.0187453
0.045612846 0.00022692267 -0.011438379 -0.003244514 -0.00932452 -0.02224191 -0.0358674 0.0064629912
0.014063282 -0.030966932 0.00191533 -0.006906746 -0.008156815 0.048590723 0.022137774 -0.016763033
0.013216642 0.021908421 0.019923827 -0.024016023 -0.010146925 0.024300203 0.012092854 0.01572212

action_model._continuous_distribution.mu.bias f4 [3]
00000000: 151e 88bb 520a 31bc 6bab 72bb
-0.0041539767 -0.010805683 -0.0037028443

exp_avg f4 [128, 6]
00000000: 80d7 d6b6 9636 53b9 85d7 93ba 1d9d 193a
00000010: ff68 9eb9 54e4 2d3b 70f1 96b9 92ff 5a39
00000020: 5da2 383a 0a9a a439 ae3f a439 bbf9 27bb
00000030: c037 6137 5afd b238 8ffb d93a c46f 6bb9
00000040: 0a3e 0639 2efb 1bbb 95f8 16b7 ffb4 f8b6
00000050: fe56 5538 910d 1038 bd87 3ab7 d17e b4b7
00000060: 9668 0d37 0e02 ef36 5914 30b8 982f 0fb8
00000070: 8841 3337 9e64 e737 78ed 3638 8454 9935
00000080: 6ef1 a8b8 acd0 cdb8 58fe e535 a27a 4b39
00000090: 20b4 12b4 3cac 80b4 3dc9 d035 990b 8935
000000a0: 5b02 c1b4 f460 53b5 5fa9 4539 b1ea 41b8
000000b0: 0a04 54b9 ea26 0dba e66f 91b8 4a66 b439
000000c0: 8cbc 4439 766d 53b8 10b8 b8b6 2db9 82b9
000000d0: 1992 9eb8 bf6c 0a3a d3b9 3f39 b7ef bfb8
000000e0: 94a4 98b9 8677 a3b9 caf3 0fb9 f64c 9e3a
000000f0: b9d7 083a f671 4239 044f 1dba 62b5 c8ba
00000100: 7ad5 9139 a0fa ee38 08cb 6335 3c0c f734
00000110: 6770 50b7 f8f5 87b6 4449 3935 74dc 1337
00000120: e589 b02f 643f 8b30 f597 cbb1 30b8 91b1
00000130: 16df d030 12e1 5431 6551 0f33 1d99 c3b3
00000140: 04e8 4035 6604 cd34 d8b2 12b4 a376 95b4
00000150: 73de 5a39 1ab0 4238 3613 2dba d8be 13ba
00000160: 1b04 9238 3581 5c3a bbf1 9237 5d78 1737
00000170: b800 95b8 e3bb 69b8 8934 6337 209d cc37
00000180: 2324 3aba 2776 bcb8 6c7d 093b 0db5 da3a
00000190: a558 0db9 58a7 34bb 2137 69b9 18f0 3ab9
000001a0: a007 36b8 5125 823a 1134 8cb9 e61b 4b3a
000001b0: c555 b03a 3c82 9b39 e923 8fbb b223 51bb
000001c0: 5d43 e939 18b4 8d3b 0cce 30b5 36f4 8db5
000001d0: e644 ee36 8ee4 f336 5cee d4b5 6a8b 37b6
000001e0: ac79 72b9 a61c e0b8 a61e 3e3a 96c3 313a
000001f0: 7815 28b9 fd32 8db9 3a8d 7836 afce 2c36
00000200: 0c74 94b7 1a18 3cb7 049b 8136 2ab8 2937
00000210: 4ce9 afb9 7d72 0bb9 5620 9a3a 154a 893a
00000220: bd2b 51b9 2d77 c0b9 005a 46ba 6e8c e7b9
00000230: 00e4 0e3b b413 303b 4ea9 2dba 72c2 04ba
00000240: efe8 8cb9 a05e 30b9 ff70 8b3a 9886 363a
00000250: f946 84b9 1856 61ba b63f dbb7 f221 2e38
00000260: 2395 5bb9 639a a138 7999 8238 786f a3b7
00000270: 120e 87b9 2e96 e9b8 14c3 ca3a 8ce4 593a
00000280: a230 2fb9 a234 baba a4e2 f036 b449 f6b5
00000290: f69a b836 a8d8 7c35 3cb7 38b6 78b6 e5b6
000002a0: 30d9 eeb1 cdc3 3eb2 1774 9633 a64f 4833
000002b0: d512 8fb2 68b2 11b3 2029 a8b7 b8ec 61b9
000002c0: 601b abb8 0ce0 f239 8a71 a9b9 96a6 d73a
000002d0: 3b62 9a32 cf9b e333 94cf 22b5 f39f edb4
000002e0: e0b4 2a34 5664 a934 117e 453a e86c 7c38
000002f0: 23cc 05bb 38ba e4ba b351 bd38 b06f 413b
00000300: fa06 0ab1 3dbe c731 a55b 34b2 6cd8 d1b2
00000310: aece 1532 0289 9832 b895 9339 fbb5 5d37
00000320: 549c a2b9 6efe 1dba 5c48 a637 6815 133a
00000330: 6420 bab2 00fe fbb2 c447 5434 e389 1134
00000340: 83fe 3cb3 99b7 bbb3 7a72 6c36 d2ea 1736
00000350: 7e32 b8b7 92ab 2eb7 3de0 6336 3253 4b36
00000360: 37f3 1139 282d 2b39 ceb6 2bba 053d 0fba
00000370: dc61 8039 3f75 88b9 7cce b639 88fa 5d39
00000380: ca56 8fba 5df2 96ba e47b a639 5ce7 09b8
00000390: 9186 5b37 c851 a736 6542 c6b8 e668 4eb8
000003a0: c0fa fa36 37e3 7638 58f5 1fba df4a f8b9
000003b0: 0736 aa3b 342e 2b3b 2a38 3aba 75a5 7bbb
000003c0: 3038 c939 c64f 3ab8 c0dc 3d3a ba45 1dba
000003d0: d4bb 8bb8 a241 4e3a 649c 8839 bc21 4139
000003e0: 770d c4ba bf22 a2ba 4fd9 9039 0358 053a
000003f0: 99a6 0bb9 66b9 7038 3fd6 203a 74f7 8f39
-6.4027845e-06 -0.00020142863 -0.001127944 0.00058598985 -0.00030214337 0.00265338 -0.00028790114 0.00020885307
0.0007043237 0.00031395286 0.00031327963 -0.0025631029 1.3424025e-05 8.534892e-05 0.0016630756 -0.00022452982
0.00012802347 -0.0023800838 -8.998574e-06 -7.4120467e-06 5.0864175e-05 3.434491e-05 -1.1118068e-05 -2.1516726e-05
8.428606e-06 7.1229942e-06 -4.198062e-05 -3.4138182e-05 1.0684489e-05 2.75842e-05 4.361334e-05 1.1423986e-06
-8.055834e-05 -9.81403e-05 1.7135853e-06 0.00019405273 -1.3662839e-07 -2.3967175e-07 1.5555776e-06 1.0210671e-06
-3.5950765e-07 -7.874471e-07 0.0001885048 -4.623336e-05 -0.000202194 -0.0005384522 -6.9349815e-05 0.00034408487
0.00018762256 -5.0408264e-05 -5.505055e-06 -0.000249335 -7.56124e-05 0.00052804867 0.00018284404 -9.15224e-05
-0.0002911432 -0.00031178835 -0.00013728361 0.001207738 0.00052201335 0.00018543735 -0.0006000849 -0.0015312845
0.00027815608 0.00011395407 8.485954e-07 4.6016237e-07 -1.2423937e-05 -4.051948e-06 6.9024486e-07 8.813211e-06
3.2112193e-10 1.0131598e-09 -5.925353e-09 -4.240995e-09 1.5197397e-09 3.0977998e-09 3.336881e-08 -9.108246e-08
7.18632e-07 3.8187426e-07 -1.3662373e-07 -2.7839732e-07 0.00020872969 4.641721e-05 -0.0006602289 -0.0005636043
6.962587e-05 0.00084115873 1.751712e-05 9.028326e-06 -7.1050075e-05 -5.5726512e-05 1.3542486e-05 2.4391862e-05
-0.00071007217 -8.986546e-05 0.0020979298 0.0016686037 -0.0001347983 -0.0027565565 -0.00022241149 -0.00017827784
-4.3399283e-05 0.0009929334 -0.00026741673 0.00077479926 0.0013453296 0.00029660936 -0.0043682945 -0.0031912145
0.00044491413 0.0043244474 -6.5864947e-07 -1.0576393e-06 7.1009736e-06 7.2685716e-06 -1.5864603e-06 -2.7350275e-06
-0.00023124245 -0.000106864885 0.0007252492 0.0006781159 -0.00016029726 -0.00026931605 3.7037084e-06 2.5750303e-06
-1.7697013e-05 -1.1211285e-05 3.862546e-06 1.0116064e-05 -0.0003355242 -0.00013298723 0.0011758904 0.0010474349
-0.00019948087 -0.00036709887 -0.00075665116 -0.00044164382 0.002180338 0.0026867213 -0.00066246546 -0.0005064375
-0.0002687643 -0.00016819919 0.0010638534 0.0006962805 -0.0002522988 -0.0008595898 -2.6136502e-05 4.1516447e-05
-0.00020941025 7.705835e-05 6.2274696e-05 -1.948302e-05 -0.0002575969 -0.00011138279 0.0015469515 0.0008311949
-0.00016707418 -0.001420636 7.178942e-06 -1.8349879e-06 5.501667e-06 9.419259e-07 -2.7524793e-06 -6.845974e-06
-6.951403e-09 -1.11039755e-08 7.006036e-08 4.663857e-08 -1.6655955e-08 -3.3922703e-08 -2.0046311e-05 -0.00021545857
-8.1590144e-05 0.00046324765 -0.00032318785 0.0016452845 1.797263e-08 1.05988526e-07 -6.065177e-07 -4.4261068e-07
1.5898286e-07 3.1551707e-07 0.0007533739 6.018291e-05 -0.0020415864 -0.0017450517 9.02744e-05 0.0029516034
-2.0085609e-09 5.81329e-09 -1.04982165e-08 -2.442922e-08 8.719935e-09 1.7757433e-08 0.00028149574 1.3214997e-05
-0.0003101552 -0.00060269877 1.9822437e-05 0.0005610795 -2.166798e-08 -2.9335752e-08 1.9770147e-07 1.355434e-07
-4.4003638e-08 -8.741262e-08 3.5233375e-06 2.2637437e-06 -2.1958022e-05 -1.0411155e-05 3.395616e-06 3.0297783e-06
0.00013918882 0.00016324653 -0.00065503723 -0.00054641097 0.00024486973 -0.00026027297 0.00034867588 0.00021169533
-0.0010935899 -0.0011516322 0.00031754293 -3.2878816e-05 1.3084748e-05 4.9865084e-06 -9.453743e-05 -4.921192e-05
7.4797717e-06 5.886258e-05 -0.0006101928 -0.0004735803 0.005194429 0.0026120069 -0.0007103706 -0.003839818
0.0003837957 -4.442015e-05 0.0007242672 -0.0005999465 -6.663022e-05 0.00078680564 0.00026056462 0.00018418481
-0.0014957626 -0.0012369974 0.00027627728 0.0005086662 -0.00013318135 5.7393125e-05 0.0006135441 0.00027459452

exp_avg_sq f4 [128, 6]
00000000: 338e 3537 f0ee 4e35 19af fd38 9aca 5538
00000010: d6cc e835 5e31 fa38 3eb5 7236 91e3 a834
00000020: b773 3e38 5b5f a137 0000 3e35 2247 2338
00000030: 0867 3b37 f3fb 2935 0fc2 e238 3ccb 3438
00000040: 7a3b bf35 671e d338 a705 bc35 11dd fb31
00000050: 4e8c a235 7eb5 5c35 5eac 8d32 c120 6635
00000060: 2c86 8236 daf6 c432 ca51 4736 68f0 3f36
00000070: 9495 5d33 a0fb 8d36 c95d 1136 c098 5d32
00000080: a70b 1936 96c0 0736 c14b f932 bc31 0136
00000090: 45af 9d35 6dae 0b32 0afc 8435 714e 6335
000000a0: 3224 9d32 dbfc b635 26bc 9c36 9a31 3a34
000000b0: a45c ea37 d27c 5537 e077 d134 e1bb d037
000000c0: 84f1 4136 efed 3b33 ef0f 0837 2f72 8936
000000d0: c86b d333 ed60 f036 9712 1636 2637 2634
000000e0: 0a58 cf37 2eeb 2d37 06fe ba34 75f4 c437
000000f0: c08f a736 c43e b734 fca0 7138 51d4 c837
00000100: 8c26 4e35 5e8e 6c38 48d3 bd35 dec0 e331
00000110: 529f a835 9d3c 9135 7d1c 8032 73c8 c135
00000120: d6fc 4f35 c5d5 2831 f111 3a35 e683 cf34
00000130: 89f0 bd31 0c7c f134 e523 e735 363d c531
00000140: 5b67 9835 8605 7b35 eee4 5d32 76df b535
00000150: 76af b335 036a 3833 1eca 2337 d12c 8236
00000160: 3577 cf33 097f 2d37 3375 b535 8c4d fa31
00000170: 6846 d235 4171 8335 a1cb 8c32 4474 b335
00000180: 4c57 9136 ff79 2734 b16c fb37 38b5 4b37
00000190: 4569 bc34 3c02 fa37 cb32 e936 b299 e934
000001a0: f919 9d38 d175 0638 7b66 8335 c4b1 a238
000001b0: f5fa 0b37 44d0 b734 d2b5 9338 c9e0 ff37
000001c0: 57ca 4e35 91e5 af38 af64 6035 30ab 8831
000001d0: c583 1635 f7bf ef34 87c0 1932 0283 1235
000001e0: df24 8935 4f4d e032 ebdb 5336 2b37 2b36
000001f0: 0457 7c33 9b01 db35 f3f3 9436 bd91 9732
00000200: 6654 3636 101a 2736 0484 2a33 bf07 8d36
00000210: b6eb 5435 541e 9132 ec6c 0736 ce11 c635
00000220: 1d42 2333 53f6 4335 65f7 9c36 4643 dd34
00000230: 326c 6738 a3f5 dc37 aceb 7835 67ff 3638
00000240: aab5 4536 7be3 8034 ffff 1438 9568 8d37
00000250: e7ff 1035 e390 0038 bed6 0036 1d1f be33
00000260: 81ba 7737 3ff1 d736 fee2 5534 1f4e 5f37
00000270: 142c ae36 0e54 7e33 ddb1 6137 0713 d836
00000280: 5b0f 0f34 c6db 4837 4a28 a736 2ece 9f32
00000290: 7826 5936 ad09 2436 04c8 3333 54be 4536
000002a0: d88a 8836 01ee ac32 5e39 2136 c1e8 e835
000002b0: c08b 4233 06c0 4636 a0a5 fb35 470b 4a34
000002c0: 2f05 db37 4390 4237 c64c e334 d299 b737
000002d0: d430 b835 a8e4 ce31 36f8 cb35 27f7 8335
000002e0: 4cc1 6832 9c87 b935 435d c836 af4e 9734
000002f0: 27aa 5238 25e7 b037 8338 2a35 5f61 4d38
00000300: a5cf c035 c6f3 e631 0a67 8a35 eb6b 2a35
00000310: 32e9 8132 3aec 9735 8d43 be35 ddcd 2333
00000320: 4bb3 cd36 d5fa 3a36 9e47 b833 bfa3 b036
00000330: 381e 2536 2083 8832 4d79 3f36 b57c 9c35
00000340: 6393 1933 2963 4136 9bb6 3636 4754 3a32
00000350: e0d3 0336 a521 d835 da9e d132 8ebb 2336
00000360: 2c83 0836 9507 9c33 f37f 3937 f49f a336
00000370: 7788 2f34 8de2 1637 265b 3636 d2d4 c433
00000380: 3f32 3e37 2015 e836 666f 5d34 0c31 bf36
00000390: b506 ed35 a4a8 6232 41ba 6736 7277 ec35
000003a0: e5fd fe32 bbd4 2636 cfd5 3536 75bc 0d34
000003b0: 9863 bf37 a1e0 ef36 0574 9f34 e4f2 a737
000003c0: c00a 3d37 c474 5035 02aa 0539 0626 6038
000003d0: 7c83 ea35 b421 f838 69a9 8835 1405 1333
000003e0: e6e9 3036 1000 2b36 b365 a533 058c 8435
000003f0: 8575 c936 496c 2b34 4997 e737 5050 5537
1.0821549e-05 7.708868e-07 0.000120965946 5.0971845e-05 1.7344962e-06 0.00011930124 3.6166307e-06 3.1458015e-07
4.5407298e-05 1.9237099e-05 7.0780516e-07 3.8928476e-05 1.1170057e-05 6.332404e-07 0.00010812666 4.310462e-05
1.4247919e-06 0.00010066927 1.4008737e-06 7.330194e-09 1.2110775e-06 8.222049e-07 1.6492944e-08 8.572934e-07
3.8899216e-06 2.2929658e-08 2.9700918e-06 2.8601153e-06 5.1591613e-08 4.2314205e-06 2.1661274e-06 1.2898624e-08
2.280556e-06 2.0228667e-06 2.9021864e-08 1.9251447e-06 1.1748422e-06 8.130525e-09 9.908119e-07 8.4678237e-07
1.8293665e-08 1.3633647e-06 4.6710657e-06 1.7340645e-07 2.7938113e-05 1.2724851e-05 3.9016504e-07 2.488302e-05
2.8899822e-06 4.375573e-08 8.1099415e-06 4.096211e-06 9.8450585e-08 7.163841e-06 2.2362563e-06 1.5480018e-07
2.471732e-05 1.0366361e-05 3.4830026e-07 2.3478855e-05 4.9937225e-06 3.4132074e-07 5.7608806e-05 2.3940725e-05
7.6797073e-07 5.6399374e-05 1.4143088e-06 6.628496e-09 1.2563344e-06 1.0820983e-06 1.4914116e-08 1.4437959e-06
7.7481434e-07 2.4568731e-09 6.931651e-07 3.8652723e-07 5.5279696e-09 4.4980004e-07 1.7221288e-06 5.7404135e-09
1.1354963e-06 9.3512824e-07 1.2915946e-08 1.3550587e-06 1.3387605e-06 4.2937256e-08 9.762616e-06 3.879519e-06
9.660872e-08 1.0341181e-05 1.351966e-06 7.2847737e-09 1.566671e-06 9.793222e-07 1.6390745e-08 1.3370377e-06
4.3314994e-06 1.5597469e-07 2.9972145e-05 1.2141936e-05 3.5094322e-07 2.9803363e-05 6.949854e-06 4.351146e-07
7.491181e-05 3.2057815e-05 9.790086e-07 7.7578734e-05 8.343476e-06 3.423794e-07 7.043373e-05 3.0503043e-05
7.7035423e-07 8.38741e-05 8.3593017e-07 3.9775827e-09 5.6071104e-07 4.4656892e-07 8.949548e-09 5.457988e-07
1.0218026e-06 2.6112188e-08 3.156946e-06 2.5513098e-06 5.8752462e-08 1.6317239e-06 4.439143e-06 1.7644988e-08
2.716924e-06 2.490011e-06 3.9701277e-08 4.203029e-06 7.931916e-07 1.6894013e-08 2.0179968e-06 1.4757331e-06
3.8011525e-08 7.300161e-07 4.677963e-06 4.1213406e-07 5.5175457e-05 2.6340427e-05 9.2730147e-07 4.3630043e-05
2.946103e-06 2.4007372e-07 3.5524365e-05 1.685721e-05 5.401657e-07 3.0652514e-05 1.9198483e-06 8.853224e-08
1.4765771e-05 6.435584e-06 1.991975e-07 1.3310025e-05 5.1907355e-06 5.921543e-08 1.3452457e-05 6.4395167e-06
1.3323499e-07 1.1972099e-05 4.981678e-06 1.8603796e-08 3.2357912e-06 2.4443536e-06 4.18586e-08 2.9466073e-06
4.0692794e-06 2.0131667e-08 2.4024262e-06 1.7353087e-06 4.5296247e-08 2.9616072e-06 1.874916e-06 1.8816819e-07
2.6109248e-05 1.159689e-05 4.2337905e-07 2.1886928e-05 1.3723279e-06 6.0213843e-09 1.5196918e-06 9.832191e-07
1.3548128e-08 1.3823042e-06 5.9713216e-06 2.8183192e-07 5.022637e-05 2.108847e-05 6.341217e-07 4.8966493e-05
1.4365547e-06 6.721595e-09 1.031179e-06 6.3486976e-07 1.5123621e-08 1.1319128e-06 1.4175763e-06 3.8138626e-08
6.1303485e-06 2.7862163e-06 8.581195e-08 5.2642713e-06 2.4604506e-06 1.5892113e-08 2.8531824e-06 1.16592e-06
3.5757136e-08 2.881696e-06 2.7226404e-06 1.0845787e-08 1.9643849e-06 1.6103046e-06 2.440304e-08 2.4398064e-06
2.0341931e-06 7.265695e-08 1.105665e-05 4.8763995e-06 1.634779e-07 8.993445e-06 2.7173169e-06 9.165673e-08
1.1336581e-05 6.916598e-06 2.0622755e-07 5.6979534e-06 1.7659828e-06 1.3193276e-08 3.4530096e-06 1.7618133e-06
2.968495e-08 2.4859753e-06 2.7095555e-06 1.3200209e-07 2.2815351e-05 7.1489053e-06 2.9700473e-07 2.0021056e-05
1.1267781e-05 7.7655955e-07 0.00012747201 5.3441174e-05 1.7472626e-06 0.00011831839 1.0182094e-06 3.4230723e-08
2.636219e-06 2.5481022e-06 7.70191e-08 9.875517e-07 6.003948e-06 1.596501e-07 2.7607794e-05 1.2714489e-05

exp_avg f4 [128]
00000000: a036 d3b8 90ff da38 68fd 3238 00b5 78b6
00000010: 0b02 6f36 4c54 1935 3bac 00b4 a1ea c1b7
00000020: 766d d3b7 b6ef 3fb8 f871 c238 560c 7734
00000030: 623f 0b30 1a99 43b3 1ab0 c237 5c78 9736
00000040: 2776 3cb8 16f0 bab8 3b82 1b39 38f4 0db5
00000050: a41c 60b8 b0ce ac35 8072 8bb8 6c8c 67b9
00000060: a45e b0b8 f221 ae37 3096 69b8 b149 76b5
00000070: c9c3 beb1 baec e1b8 cd9b 6333 ea6c fc37
00000080: 40be 4731 e6b5 dd36 02fe 7bb2 d8ea 9735
00000090: 232d ab38 87fa dd38 ce51 2736 e24a 78b9
000000a0: b64f bab7 bf21 c138 74b9 f037 5df0 48b8
000000b0: 5465 a8b7 6f50 15b6 88b0 09b1 8282 c4b5
000000c0: d00c 3438 f834 2d38 40df 33b8 16f5 02b9
000000d0: b1e9 1e39 c056 81b8 7e6e 2032 7edc c2b8
000000e0: af22 0ab9 db23 dbb8 21c8 7d38 0cf1 4236
000000f0: 8e84 c737 fdee ab38 0cfd 81b8 13a4 2538
00000100: 4de5 bab8 6d3e eab6 9ce4 a5b7 45bb 41b6
00000110: 6852 c2b6 6232 f836 c57d bbb6 a87a 1bb8
00000120: 8e95 0337 dc6e 1e35 2e14 8eb8 b301 b936
00000130: 7c14 3338 ad4b 7eb6 2f3b 7635 2a28 d138
00000140: a4ec e238 a8c1 21b9 39c2 b0b8 0b68 31b9
00000150: 2016 9334 c1d6 b9b5 18ab acb0 1dc6 1f35
00000160: 8885 b8b2 225a 4e38 cc8b 15b4 df67 a536
00000170: cb40 4336 ce09 a635 d51a 90b8 e777 ba38
00000180: a6a9 4831 2ec5 e731 5e68 91b8 da07 7837
00000190: f0cd 4f38 5acc ac34 def6 21b8 08ee f036
000001a0: 3254 4fb9 73ff 6fb3 282c 8636 c069 f432
000001b0: 061b b4b3 5884 6531 2814 fe32 afad 83b8
000001c0: 8028 bab4 b03f b338 dac8 adb3 a701 fe38
000001d0: 1efd d4b8 894b 82b7 8401 0036 b24a 3e39
000001e0: 8134 cf32 b0ac 37b8 979c 9537 00ba 7038
000001f0: 7b3a 0638 f63b fc37 9a4a ba38 9b5c efb8
-0.00010071439 0.00010442652 4.267451e-05 -3.7060236e-06 3.5614964e-06 5.711961e-07 -1.1983586e-07 -2.311665e-05
-2.5204132e-05 -4.5761197e-05 9.271869e-05 2.3008155e-07 5.065798e-10 -4.554122e-08 2.3208606e-05 4.5141624e-06
-4.493273e-05 -8.9138906e-05 0.00014830467 -5.288198e-07 -5.3432435e-05 1.2875153e-06 -6.649364e-05 -0.00022082188
-8.409962e-05 2.0758223e-05 -5.5691402e-05 -9.1749376e-07 -5.551986e-09 -0.0001077293 5.2994256e-08 3.0091458e-05
2.9066456e-09 6.607489e-06 -1.4667878e-08 1.1318725e-06 8.162323e-05 0.000105847656 2.4932556e-06 -0.00023679019
-2.2210046e-05 9.209243e-05 2.8696588e-05 -4.790757e-05 -2.0074345e-05 -2.2249549e-06 -2.003647e-09 -1.4641121e-06
4.2927277e-05 4.1295745e-05 -4.2884843e-05 -0.00012489068 0.00015155111 -6.167358e-05 9.338349e-09 -9.291711e-05
-0.00013173626 -0.000104494124 6.0506285e-05 2.904856e-06 2.3784374e-05 8.1984304e-05 -6.198333e-05 3.949187e-05
-8.911882e-05 -6.9810108e-06 -1.9775987e-05 -2.8868246e-06 -5.791244e-06 7.3968413e-06 -5.587676e-06 -3.7069112e-05
7.843029e-06 5.902091e-07 -6.7748464e-05 5.5136275e-06 4.2696003e-05 -3.7892999e-06 9.1728265e-07 9.973378e-05
0.000108205975 -0.00015426299 -8.428511e-05 -0.00016918794 2.7396982e-07 -1.3846076e-06 -1.2563275e-09 5.952041e-07
-2.1481142e-08 4.919817e-05 -1.3927564e-07 4.9294754e-06 2.9094979e-06 1.2370817e-06 -6.871453e-05 8.891505e-05
2.9200264e-09 6.7454016e-09 -6.933579e-05 1.478378e-05 4.954444e-05 3.2186182e-07 -3.8615304e-05 7.180268e-06
-0.00019772424 -5.5878854e-08 3.9986517e-06 2.8453428e-08 -8.386819e-08 3.3399115e-09 2.9578658e-08 -6.278918e-05
-3.4674667e-07 8.547248e-05 -8.092475e-08 0.000121119716 -0.000101560945 -1.5532381e-05 1.9074369e-06 0.00018147638
2.4121848e-08 -4.3791428e-05 1.7835102e-05 5.7393685e-05 3.2002554e-05 3.0068662e-05 8.883067e-05 -0.00011413657

exp_avg_sq f4 [128]
00000000: efee 4e34 8ee3 a833 f1fb 2934 11dd fb30
00000010: dbf6 c431 b998 5d31 6dae 0b31 9a31 3a33
00000020: f0ed 3b32 2637 2633 c63e b733 e2c0 e330
00000030: c2d5 2830 303d c530 016a 3832 8a4d fa30
00000040: ff79 2733 b399 e933 44d0 b733 30ab 8830
00000050: 4c4d e031 bd91 9731 531e 9131 4743 dd33
00000060: 7ce3 8033 1b1f be32 0654 7e32 2dce 9f31
00000070: 01ee ac31 4e0b 4a33 a8e4 ce30 ae4e 9733
00000080: c6f3 e630 ddcd 2332 2083 8831 4954 3a31
00000090: 9407 9c32 d4d4 c432 a2a8 6231 75bc 0d33
000000a0: c374 5034 1505 1332 456c 2b33 64c4 8e32
000000b0: 794f c232 1471 0b31 2c0a 4a31 8dbd b631
000000c0: 4f1f 9632 b2a0 0931 fb99 5133 f6b1 a833
000000d0: cbd7 4933 5624 5f33 59b7 f230 3547 e032
000000e0: 7fcd 0433 19a7 4d33 31e0 ec33 a3bd 6031
000000f0: 6add ce32 333e 1534 7bb8 f531 1865 af32
00000100: 5d1b 5232 2f8e 3832 60b5 f232 697b 9130
00000110: 94b0 0233 7f10 9c30 657b 0331 6940 bc32
00000120: 3fc7 0c33 db54 0631 47cd 9333 ec6b 3a31
00000130: 28ec 7033 a987 9931 7175 cb30 ab44 7333
00000140: bba4 af32 4b75 1c34 e78f fb32 7f67 6e33
00000150: 2395 8431 13f7 f330 cfd3 3931 a274 7c30
00000160: b84f 6d31 889a aa32 f32e 8031 45d4 3431
00000170: e773 2931 c05c b830 544a 2e33 b9d4 6e32
00000180: fbaf fe30 810c c730 1eba 8331 ecb1 a933
00000190: 3da9 ec33 1aee 8531 4269 3d34 5158 f830
000001a0: c6d3 8733 982d 0d30 d798 f531 46f0 cd31
000001b0: 305d 1931 794e 0930 0e0a 1731 6900 7734
000001c0: 22e6 b933 2995 0933 38bd 0731 8b0f f133
000001d0: aec4 4533 c2df ed30 fd60 6a32 66b6 0a33
000001e0: 1d85 1c31 7795 8b31 68cd 2f34 7ee6 1e34
000001f0: fc20 3433 134e 6633 b5da 6533 7867 e933
1.9272169e-07 7.8645016e-08 1.5831007e-07 1.8325484e-09 5.732415e-09 3.2246545e-09 2.0326312e-09 4.3351612e-08
1.0938933e-08 3.8700044e-08 8.53302e-08 1.6571244e-09 6.142181e-10 1.4351027e-09 1.0734312e-08 1.8211932e-09
3.8993672e-08 1.0877866e-07 8.559485e-08 9.943957e-10 6.5280457e-09 4.411247e-09 4.223503e-09 1.0303352e-07
6.0018436e-08 2.2133056e-08 1.4803851e-08 4.6509485e-09 5.0329168e-09 4.704207e-08 1.5053461e-09 7.045797e-08
1.6803987e-09 9.534657e-09 3.973028e-09 2.7114473e-09 1.8164236e-08 2.2914186e-08 3.2983185e-09 3.300052e-08
1.9413987e-07 8.557682e-09 3.991251e-08 1.6620284e-08 2.2620712e-08 2.029144e-09 2.940065e-09 5.3184466e-09
1.7476536e-08 2.0027469e-09 4.880165e-08 7.8554805e-08 4.6995222e-08 5.195428e-08 1.7659928e-09 2.6109413e-08
3.0920543e-08 4.7882256e-08 1.10303866e-07 3.2704086e-09 2.4082244e-08 1.3899334e-07 7.1514115e-09 2.0418653e-08
1.22298305e-08 1.0742538e-08 2.8254988e-08 1.0585214e-09 3.042858e-08 1.1355182e-09 1.913315e-09 2.191537e-08
3.2777503e-08 1.9547801e-09 6.882561e-08 2.7127909e-09 5.6094137e-08 4.468309e-09 1.4803573e-09 5.66403e-08
2.0447592e-08 1.4571303e-07 2.9285685e-08 5.5507822e-08 3.8586605e-09 1.77508e-09 2.7041442e-09 9.184281e-10
3.4533354e-09 1.9860877e-08 3.730628e-09 2.6314109e-09 2.465862e-09 1.3414123e-09 4.0580133e-08 1.3901791e-08
1.8530949e-09 1.448271e-09 3.833761e-09 7.9020396e-08 1.10203906e-07 3.8978785e-09 1.7640289e-07 1.8069476e-09
6.324949e-08 5.1360294e-10 7.1478143e-09 5.993601e-09 2.2317401e-09 4.9951826e-10 2.1979107e-09 2.3003817e-07
8.656595e-08 3.203346e-08 1.9752644e-09 1.1225264e-07 4.6046516e-08 1.7307615e-09 1.3642645e-08 3.229652e-08
2.2776654e-09 4.0624246e-09 1.6372871e-07 1.4798749e-07 4.1939515e-08 5.3622056e-08 5.351713e-08 1.0868729e-07
