results/Test27/-135157.pt (torch, 442341 bytes, 36 tensors)

network_body._body_endoder.seq_layers.0.weight f4 [128, 6]
0	0xbf4ecca7	-0.80781025
1	0xbad3293c	-0.0016110311
2	0x3b81b7a9	0.0039586616
3	0xbeaa07f2	-0.33209187
4	0x3e647f3b	0.2231416
5	0xbe9f5efa	-0.3112715
6	0x3e9a7190	0.30164766
7	0x3e5e1e4c	0.21691245
8	0x3d957c84	0.0729914
9	0xbe2ba16b	-0.16760795
10	0xbf421605	-0.7581485
11	0xbe258ef6	-0.16167817
12	0xbdc61342	-0.09671642
13	0x3f0ca494	0.54938626
14	0xbe050415	-0.12989838
15	0xbf4d86a1	-0.8028355
16	0x3e1eb4a2	0.15498593
17	0x3d7f9808	0.062400848
18	0x3ea739a2	0.32661158
19	0xbeda4a8b	-0.42634997
20	0x3e209a1d	0.1568379
21	0x3e4d054f	0.20021556
22	0xbe430769	-0.19045796
23	0xbf07bbf9	-0.530212
24	0xbe4a8a71	-0.19779374
25	0x3ebb13ca	0.36538535
26	0x3e1955f2	0.14974192
27	0x3e869187	0.26282904
28	0x3e869517	0.26285622
29	0x3eeb4aab	0.45955405
30	0x3e8bd829	0.27313355
31	0x3d8e43ba	0.069465116
32	0x3ea0a4a9	0.31375626
33	0x3e8ca819	0.27471998
34	0xbef5fe2e	-0.48045486
35	0x3d68c1e8	0.05682555
36	0x3f1a755e	0.6033534
37	0x3e1f1804	0.15536505
38	0xbea6868a	-0.3252452
39	0x3e5b770b	0.2143213
40	0x3c67fd5f	0.0141595295
41	0xbe9f211d	-0.3107995
42	0x3cc2e18d	0.023789192
43	0x3e0c4d66	0.137014
44	0xbed66389	-0.41872814
45	0xbe9482a2	-0.29005915
46	0x3e13e92c	0.14444417
47	0x3d118aa1	0.035532597
48	0x3e78b25a	0.24286786
49	0x3e5c11b7	0.21491133
50	0x3ee25220	0.4420328
51	0x3f1f35db	0.6219155
52	0xbf4f1373	-0.8088905
53	0xbef8c91f	-0.48590943
54	0xbeedaa03	-0.4641877
55	0xbee25661	-0.44206527
56	0xbda2c45c	-0.07947609
57	0x3dcdf584	0.10056594
58	0xbeb5b38b	-0.35488543
59	0x3ec2af2d	0.38024274
60	0x3ebf5eb7	0.3737695
61	0xbe162bba	-0.14665118
62	0xbeca243f	-0.3948078
63	0x3d87f0da	0.06637736
64	0x3dbfd1d5	0.09366194
65	0xbf092958	-0.5357871
66	0x3e0be754	0.13662463
67	0x3c5a5de8	0.013328053
68	0xbf3d93cc	-0.74053645
69	0xbb2c2778	-0.0026268642
70	0xbf1cd33e	-0.6125983
71	0x3dbcbf71	0.09216202
72	0xbe507586	-0.20357332
73	0x3ec6bfd3	0.38818225
74	0xbf0aa52d	-0.5415829
75	0xbec2aec2	-0.38023955
76	0xbed055c0	-0.40690422
77	0xbef22599	-0.4729431
78	0x3e9c7eab	0.3056539
79	0xbeb1a1e8	-0.34693837
80	0x3d22b5ec	0.039724275
81	0x3ee3a5da	0.44462472
82	0x3e799e3d	0.2437677
83	0xbe8be7b7	-0.27325222
84	0x3e4085c4	0.18801028
85	0x3d56a209	0.052400623
86	0x3e20eda6	0.15715656
87	0xbe0b8ebc	-0.13628668
88	0xbdc3e6f6	-0.09565537
89	0x3ee7724f	0.45204398
90	0x3e2c47c8	0.16824257
91	0xbf3bcf56	-0.73363245
92	0xbe78d722	-0.24300817
93	0x3ea99a97	0.33125755
94	0x3d99362a	0.07481034
95	0xbf44512c	-0.7668636
96	0x3f56e3f8	0.839416
97	0xbf0a28c1	-0.53968436
98	0xbf3e8ab0	-0.7443037
99	0xbf4386bb	-0.7637746
100	0x3ede4d71	0.43418458
101	0x3eccd519	0.4000633
102	0xbec6ba52	-0.38814026
103	0x3e6cae65	0.23113401
104	0x3d56e783	0.05246688
105	0x3e819557	0.2530925
106	0x3f30d69c	0.6907747
107	0x3e8956aa	0.26823932
108	0x3ea86d25	0.3289577
109	0xbf495793	-0.7864925
110	0xbea0904a	-0.31360084
111	0xbd4bb7bb	-0.049735766
112	0xbe7d10d9	-0.24713458
113	0x3dbddbb2	0.09270419
114	0x3c8e0abd	0.017339105
115	0xbe09764a	-0.1342403
116	0x3f0a7c0c	0.5409553
117	0xbed657a9	-0.41863754
118	0xbe0e542b	-0.13899295
119	0x3db5fa0c	0.08885583
120	0x3ecf286d	0.4046053
121	0xbef42c58	-0.47690082
122	0x3d8005d1	0.062511094
123	0x3e87b509	0.26505306
124	0x3ef355c9	0.47526386
125	0x3e4b6804	0.19863898
126	0x3ec88732	0.39165646
127	0xbdd0c6c5	-0.10194162
128	0x3d80f38f	0.06296455
129	0x3e04fc8c	0.12986964
130	0x3dcea371	0.10089768
131	0x3ee86a79	0.45393732
132	0xbf0a8d01	-0.54121405
133	0xbe2aa4df	-0.16664456
134	0xbcc10d41	-0.02356589
135	0xbe93d432	-0.2887283
136	0x3f3bac10	0.7330942
137	0xbe77cbc9	-0.24198832
138	0xbc4d0ee2	-0.012515755
139	0x3e884cb1	0.2662101
140	0xbecb4d47	-0.39707395
141	0xbea54fd3	-0.32287464
142	0x3f87444c	1.0567718
143	0xbd013404	-0.031543747
144	0x3e82ec71	0.25571015
145	0x3e38ee91	0.18059756
146	0x3f4a5b33	0.7904541
147	0xbe8efd14	-0.27927458
148	0xbe8543be	-0.26028246
149	0xbe123e1a	-0.14281502
150	0x3f71d053	0.944585
151	0x3ea305ad	0.31840268
152	0xbda36f6c	-0.079802364
153	0xbd14cb6e	-0.03632682
154	0x3ddb71af	0.10715043
155	0x3d129e1f	0.035795327
156	0x3d0b05cd	0.03394108
157	0x3c004986	0.007830029
158	0xbea72bac	-0.32650506
159	0xbdaea7b8	-0.085280836
160	0xbf00a23f	-0.5024757
161	0xbc358972	-0.011080133
162	0x3e5a71fe	0.21332547
163	0x3ebe3743	0.37151536
164	0x3f61cbc4	0.88201547
165	0x3dc68c4a	0.09694727
166	0xbf1ff245	-0.6247905
167	0xbe56a5fe	-0.20961758
168	0x3dccc8e9	0.09999258
169	0xbf183680	-0.5945816
170	0xbdd03f14	-0.10168281
171	0x3dbb5b05	0.0914822
172	0xbdb8d060	-0.090241194
173	0x3f27a859	0.65491253
174	0x3f081bac	0.53167224
175	0x3ed112a9	0.4083455
176	0x3d5ac0ef	0.053406652
177	0x3e2c00e2	0.16797212
178	0xbf41a195	-0.7563718
179	0x3dd58cad	0.104272224
180	0xbef645a1	-0.48099998
181	0x3d87aceb	0.06624778
182	0x3ef8fe2e	0.48631424
183	0xbce938f8	-0.028469548
184	0xbf52c2de	-0.82328594
185	0x3e14ce26	0.14531764
186	0xbf2054aa	-0.6262919
187	0xbf1ebcbe	-0.6200675
188	0xbf034e18	-0.51291037
189	0xbe28fb5d	-0.16502137
190	0xbd9f0ac6	-0.07765727
191	0x3de4ba45	0.111683406
192	0x3e93624f	0.2878594
193	0x3de6350f	0.11240589
194	0xbf3342f5	-0.70024043
195	0xbe9f584e	-0.3112206
196	0x3ec06af1	0.3758159
197	0xbe9fbbb2	-0.31197888
198	0x3edf032b	0.43557104
199	0x3e86d17d	0.26331702
200	0x3f160d5b	0.5861413
201	0xbefd3faa	-0.49462634
202	0xbd880f85	-0.06643585
203	0x3b8db092	0.0043240273
204	0xbeca54dd	-0.3951787
205	0x3e32020c	0.17383593
206	0xbe975db0	-0.29563665
207	0x3e068b54	0.13139087
208	0xbdce5720	-0.100752115
209	0xbcda7e74	-0.026671626
210	0xbe67ddfe	-0.22643277
211	0x3ec89013	0.3917242
212	0xbef42e04	-0.47691357
213	0x3d4cc3bf	0.049991366
214	0xbe0e8e87	-0.13921557
215	0x3eed6ca4	0.4637195
216	0xbea1ac0d	-0.31576577
217	0xbe2de326	-0.16981182
218	0xbe37e01c	-0.17956585
219	0x3ee97379	0.4559591
220	0xbeb1d3d0	-0.34731913
221	0x3edbdb1c	0.42940605
222	0x3f10d6b9	0.5657764
223	0x3e87578d	0.26433983
224	0xbe686ef4	-0.22698575
225	0x3e92cac2	0.28670317
226	0x3ebaf13c	0.36512172
227	0xbf087e94	-0.5331814
228	0x3f38c1d9	0.7217079
229	0xbe7d0c1b	-0.24711649
230	0x3cdd5306	0.027017128
231	0xbe6387b6	-0.22219738
232	0xbe2946eb	-0.1653096
233	0xbead2ffc	-0.33825672
234	0xbeeaed59	-0.45884207
235	0xbe68cfe8	-0.2273556
236	0xbf261418	-0.6487441
237	0xbf124695	-0.5713895
238	0xbe7ec9fc	-0.24881738
239	0xbf0f7144	-0.56032205
240	0xbf48d931	-0.7845641
241	0xbeb688f5	-0.35651365
242	0xbe8eb7ac	-0.27874506
243	0x3df9eb6d	0.12203107
244	0x3e59846d	0.21241923
245	0xbe01369c	-0.12618488
246	0xbf451068	-0.7697816
247	0xbf566277	-0.83743995
248	0x3e872a25	0.2639934
249	0xbebd0d5f	-0.36924264
250	0xbe10df4e	-0.14147684
251	0x3e661e47	0.22472487
252	0xbdd3ece9	-0.103479214
253	0x3dabbbb8	0.08385414
254	0x3f2d47b2	0.67687523
255	0x3e15498c	0.14578837

network_body._body_endoder.seq_layers.0.bias f4 [128]
0	0xbafd058d	-0.0019304022
1	0xbb014b98	-0.0019728895
2	0xba70c641	-0.00091848156
3	0xbb25ea35	-0.00253166
4	0xba83a974	-0.0010045008
5	0xba4eb746	-0.0007885586
6	0xb8b73f92	-8.737961e-05
7	0x3b1f3d78	0.0024298113
8	0xbb88ba14	-0.004172573
9	0xbb5d878a	-0.0033802711
10	0xbade48c3	-0.001695894
11	0xbb9ab288	-0.0047209896
12	0xbaa0718a	-0.0012240869
13	0xb9444c1d	-0.00018720371
14	0x39db85da	0.00041870662
15	0xb9f957e8	-0.00047558476
16	0x3b4619d5	0.00302278
17	0x37df51dc	2.662179e-05
18	0x3ac0732f	0.0014682765
19	0x3a516051	0.00079870695
20	0xba705a10	-0.0009168694
21	0xbbc96cec	-0.0061470177
22	0xba08ec94	-0.0005223241
23	0x3a25819d	0.00063135644
24	0xb9bb4b94	-0.0003572373
25	0x39390d86	0.00017648013
26	0xbaaaad1d	-0.0013021562
27	0xba9ad08e	-0.0011811422
28	0xba52e2ca	-0.00080446585
29	0x3b2a099e	0.0025945674
30	0xbb28442c	-0.00256754
31	0x3aa65ca7	0.0012692407
32	0x3b850f58	0.004060667
33	0xbadbe75b	-0.0016777323
34	0xba52f9c9	-0.0008048085
35	0xbb66727b	-0.003516345
36	0xba80962e	-0.0009810382
37	0xbb056092	-0.002035175
38	0xbab7070c	-0.0013963892
39	0xb9789788	-0.00023707573
40	0x39e19e1d	0.00043033148
41	0x3ae4a86d	0.0017445214
42	0xbb72c565	-0.0037043926
43	0xbb497e14	-0.0030745314
44	0xbaf6cbd3	-0.0018829055
45	0xba2917dd	-0.0006450394
46	0xbb486b57	-0.0030581558
47	0xbb6ab490	-0.003581319
48	0x393e5a42	0.00018153436
49	0x3b42d9f9	0.0029731973
50	0xbb09ef62	-0.0021047224
51	0xbb32a42b	-0.0027258496
52	0x3acac1b3	0.0015469104
53	0xb99beea4	-0.00029741705
54	0xb8671858	-5.5097364e-05
55	0x3b2649c0	0.0025373548
56	0xba977ccc	-0.0011557578
57	0xb9f97ec8	-0.0004758744
58	0x3af99abe	0.0019043309
59	0x3b8e8db5	0.004350389
60	0x3a4ef167	0.0007894248
61	0x3902381f	0.00012418673
62	0x3a1a469f	0.0005885157
63	0xba9ba5ff	-0.0011875032
64	0x39b7cad1	0.0003505559
65	0xbb8ad725	-0.004237073
66	0xba6ab507	-0.0008953367
67	0xbb369134	-0.0027857544
68	0xbb07379e	-0.0020632516
69	0x3b8aec57	0.0042395997
70	0x3a8ca6c9	0.0010730858
71	0xb9a3eeae	-0.00031267613
72	0x390350ae	0.00012523189
73	0x3ae2ac85	0.0017293846
74	0xbb0feec7	-0.002196239
75	0xbb202e88	-0.0024441797
76	0x3aee6e47	0.0018190824
77	0x3973521a	0.00023204871
78	0x3ac172ca	0.0014758941
79	0xbb8fdcfa	-0.004390356
80	0xbac85c5f	-0.0015286318
81	0x3b1c1939	0.0023818745
82	0x3a7d725a	0.0009668224
83	0xbb379469	-0.0028012043
84	0x3aabc0e7	0.0013103754
85	0xba9bce84	-0.0011887108
86	0x3aa6f52e	0.0012737864
87	0xbb860f2e	-0.004091165
88	0xba6340ed	-0.00086690375
89	0xbb2aca22	-0.0026060422
90	0x3ace1755	0.0015723506
91	0x3b1566fb	0.0022796977
92	0xbab9c1bd	-0.0014172118
93	0x3b07962a	0.002068887
94	0xba88bb83	-0.0010431859
95	0x3b9b45bd	0.004738538
96	0x3a85f0ab	0.0010218819
97	0x3a5aff41	0.0008354076
98	0xbb09f08a	-0.0021047913
99	0xba41081a	-0.0007363573
100	0xba81a689	-0.000989155
101	0x3afcf9fa	0.0019300573
102	0xba320491	-0.00067908416
103	0xbb369e39	-0.0027865304
104	0xb9a7ab4d	-0.0003198035
105	0xb990f6d9	-0.00027649736
106	0xbbc1a8ee	-0.0059100306
107	0x3ad432e2	0.0016189481
108	0xbb682cec	-0.0035427166
109	0x3a9f73ac	0.001216521
110	0xba1c8627	-0.0005970918
111	0xbb5c155f	-0.0033582074
112	0x3abdd89c	0.001448411
113	0x3b3d6285	0.0028897834
114	0x3b0161d9	0.001974216
115	0xbaca5cca	-0.001543903
116	0x3b01461e	0.001972563
117	0x3aefc8f8	0.0018294146
118	0xbae1fa45	-0.0017240724
119	0xb9cb8bf0	-0.0003882344
120	0x3a8f9701	0.0010955037
121	0xbb65f87c	-0.0035090735
122	0x3aca3055	0.0015425781
123	0xbaa84c26	-0.0012840077
124	0xbb25eaab	-0.0025316875
125	0xba047714	-0.00050531444
126	0x39c2945a	0.00037113094
127	0x392eb6a3	0.0001666197

network_body._body_endoder.seq_layers.2.weight f4 [128, 128]
0	0x3d2e9fe5	0.042632956
1	0x3ce4bcd6	0.027922075
2	0xbd8219b9	-0.063525625
3	0x3e7d54b4	0.24739343
4	0x3e07935f	0.13239811
5	0xbe07eb5d	-0.13273378
6	0x3d8ad89f	0.067795984
7	0xbd18e4c3	-0.03732754
8	0xbd215e48	-0.039396554
9	0x3cee35b3	0.02907834
10	0xbce1c588	-0.02756001
11	0xbe212186	-0.15735444
12	0x3e166e67	0.14690553
13	0xbdee51eb	-0.11636718
14	0xbdbae20c	-0.09125146
15	0xbce012df	-0.027352748
16	0x3d6c3644	0.05766894
17	0x3b550d03	0.0032508976
18	0xbb8576fc	-0.004073022
19	0x3e1d14dc	0.15339988
20	0xbd92d914	-0.071703106
21	0x3c89b2ac	0.01680883
22	0x3b12c0a5	0.0022392657
23	0x3bc5f38c	0.006040996
24	0xbe051844	-0.12997538
25	0x3dc325bc	0.09528682
26	0x3cbac1d9	0.022797512
27	0xbcff8de7	-0.031195594
28	0xbc59e84c	-0.013300013
29	0x3de2e7d2	0.110793725
30	0x3d87ac59	0.066246696
31	0x3d562a0b	0.05228619
32	0x3d4c6cf3	0.04990859
33	0xbd702326	-0.05862727
34	0x3d528c6f	0.05140346
35	0xbe044e23	-0.12920432
36	0x3c1a9969	0.00943599
37	0xbc98498a	-0.018589754
38	0xbc8c95a0	-0.01716119
39	0xbd870c1c	-0.065941066
40	0x3cf0c14b	0.029389044
41	0x3c7078a8	0.014677204
42	0x3d16847f	0.036747452
43	0x3c746d58	0.014918648
44	0x3c0c8911	0.008577601
45	0x3d0cfaf3	0.03441901
46	0x3e06b691	0.13155581
47	0x3e0f0707	0.13967524
48	0xbcc839d9	-0.024441646
49	0x3d6496e5	0.055807967
50	0xbba7036b	-0.005096843
51	0xbe6780d1	-0.22607733
52	0x3ce737f9	0.028224932
53	0x3b1bbd33	0.0023763895
54	0xbdee3805	-0.11631779
55	0x3e223dc2	0.15843871
56	0xbe18b61d	-0.1491322
57	0xbe1524ef	-0.1456487
58	0x39e12afe	0.00042947376
59	0x3d233169	0.039842043
60	0xbd245d88	-0.04012826
61	0xbd0cfac2	-0.03441883
62	0xbbe7da0c	-0.0070755538
63	0xbe47be7c	-0.19506258
64	0x3caf927f	0.02143216
65	0xbd7a972e	-0.061179332
66	0xbd3847e3	-0.04499043
67	0x3dbe02f3	0.09277906
68	0x3d53f8ec	0.051751062
69	0x3d8ce6b0	0.06879938
70	0x3a8a4e0d	0.0010551825
71	0xbe770f1e	-0.2412686
72	0xbdb2bead	-0.08727775
73	0x3d90dc1f	0.07073235
74	0xbe229dd0	-0.15880513
75	0xbe88d289	-0.26723126
76	0xbdffd396	-0.12491529
77	0x3d9f9ff7	0.07794183
78	0x3cdd5637	0.02701865
79	0x3dd70ed2	0.105008736
80	0x3d1f7190	0.03892666
81	0xbd38b318	-0.045092672
82	0xbd4e0845	-0.050300855
83	0xbc2ee7e2	-0.010675402
84	0x3c89121f	0.016732274
85	0xbe4d1659	-0.20028056
86	0x3d74114c	0.059586808
87	0x3d5ff2fe	0.054675095
88	0xbd0d3308	-0.034472495
89	0x3d9ae8d1	0.075639375
90	0xbc0236e7	-0.00794766
91	0x3df56bf6	0.119834825
92	0xbdc1486e	-0.09437643
93	0x3cf6a157	0.03010623
94	0x3d7e38a3	0.06206573
95	0xbbfdbc98	-0.0077434294
96	0x3e1b254d	0.15150948
97	0x3dfe6baa	0.12422879
98	0x3d974744	0.0738664
99	0xbd7cb6f2	-0.061697908
100	0xbb1d8820	-0.0024037436
101	0xbd1fb75e	-0.038993232
102	0x3db451c7	0.0880466
103	0x3c1f7579	0.0097325975
104	0x3cf9ac62	0.030477706
105	0x3df1a766	0.11799507
106	0xbcacfacb	-0.021115681
107	0x3d488b32	0.048960872
108	0xbd412b6a	-0.047160544
109	0xbd3178e3	-0.043328177
110	0x3e809a40	0.25117683
111	0x3dc26624	0.09492138
112	0x3aef2445	0.0018245062
113	0x3d82013c	0.06347892
114	0x3dd0b6e1	0.101911314
115	0xbc17af1b	-0.009258057
116	0xbd0cb077	-0.034347977
117	0x3d695d65	0.056973834
118	0xbd8f9c61	-0.07012249
119	0xbc353e5b	-0.01106223
120	0x3dc03d3d	0.0938668
121	0x3d58275a	0.052771904
122	0x3e511d93	0.20421438
123	0x3e52e3f0	0.20594764
124	0xbcf611c4	-0.030037768
125	0xbd8e38b7	-0.06944411
126	0xbd16e1df	-0.0368365
127	0xbda9f593	-0.08298793
128	0x3db34f98	0.08755416
129	0x3dff015e	0.12451433
130	0xbe429e4d	-0.190057
131	0x3cb1b00e	0.021690395
132	0x3b1db2de	0.0024062912
133	0x3c4372d0	0.011929229
134	0x3accfc99	0.0015639245
135	0xbc88442f	-0.016634075
136	0x3d88fcc1	0.06688834
137	0xbd6f6b47	-0.058451917
138	0x3dd28de1	0.102809675
139	0x3d578e6c	0.05262606
140	0xbd892559	-0.066965766
141	0x3d608766	0.054816626
142	0x3d21c2cb	0.03949241
143	0x3da0d599	0.078532405
144	0xbd9e02ce	-0.07715379
145	0xbdd8dd80	-0.10589123
146	0x3d3e133e	0.04640507
147	0xbe17a754	-0.14809924
148	0xbe01e18a	-0.12683693
149	0x3cec1438	0.028818235
150	0xbd630e34	-0.055433467
151	0xbc110af7	-0.008852712
152	0x3d33186a	0.043724455
153	0xbb7eaffb	-0.0038862217
154	0x3df0013a	0.11718984
155	0x3bec7576	0.007216151
156	0x3c3c6ed7	0.011501036
157	0xbdc703de	-0.097175345
158	0x3e0f380e	0.13986227
159	0x3cb0a2f7	0.021562083
160	0x3ddf333c	0.10898444
161	0x3e4a2297	0.19739757
162	0xbd6a8fd2	-0.057266064
163	0x3d25d8ae	0.040489845
164	0xbae11515	-0.0017172421
165	0x3d61de67	0.05514374
166	0xbd97fbb9	-0.07421059
167	0x3d32759e	0.0435692
168	0x3b946563	0.004528688
169	0x3d6ff207	0.058580425
170	0x3cc0acbc	0.023519866
171	0x3d1f55f7	0.03890034
172	0x3d47aaef	0.048747
173	0xbd0ee765	-0.034888644
174	0xbb9fd1b2	-0.0048772926
175	0xbe33bce0	-0.17552519
176	0xbdc0b8e4	-0.09410265
177	0x3cf54da2	0.029944245
178	0x3e871228	0.2638104
179	0xbd805556	-0.062662765
180	0x3d2618a8	0.040550858
181	0xbdacde12	-0.08440794
182	0x3c333853	0.010938722
183	0xbdcb06cb	-0.09913405
184	0xbe3cd493	-0.18440466
185	0x3c54e225	0.01299337
186	0x3c0b8ca9	0.008517423
187	0xbdddbf11	-0.10827459
188	0xbe3c414f	-0.18384288
189	0xbcfef711	-0.03112367
190	0x3de5a5f6	0.11213295
191	0x3cf8be38	0.03036414
192	0x3d425000	0.047439575
193	0x3d68015c	0.05664192
194	0xb9eac9c0	-0.00044782273
195	0x3c8fd04c	0.017555378
196	0x3da13129	0.07870705
197	0x3e34a57d	0.17641254
198	0x3d52cda7	0.051465657
199	0xbd9c921b	-0.07645055
200	0x3d192281	0.03738642
201	0x3d91b399	0.07114334
202	0xbe856475	-0.26053205
203	0x39c32fae	0.00037228822
204	0xbc84b4ec	-0.016199552
205	0xbc62c865	-0.013841723
206	0x3df756c3	0.12077095
207	0xbc66eb83	-0.014094236
208	0x3d3df703	0.046378147
209	0xbd289ff0	-0.041168153
210	0xbe102c8a	-0.1407949
211	0xbd7fabb0	-0.062419593
212	0x3d999c5f	0.075005285
213	0xbe0c6095	-0.13708718
214	0xbc54b872	-0.012983428
215	0x3cdd99eb	0.027050933
216	0x3dd50a72	0.10402383
217	0x3d2728c4	0.04081036
218	0xbdb5c070	-0.08874595
219	0x3d2c1770	0.04201454
220	0x3b1b7415	0.0023720313
221	0x3e15edfe	0.14641568
222	0x3d646cb4	0.05576773
223	0x3d000233	0.031252097
224	0xbd977bfb	-0.07396694
225	0xbd2a122d	-0.04152124
226	0xbc1b99ba	-0.0094971005
227	0xbd59362f	-0.05303019
228	0x3c094cfd	0.008380172
229	0xbdf94127	-0.1217063
230	0xbd2327a0	-0.03983271
231	0xbd6c7dc8	-0.05773714
232	0x3e37494a	0.17899051
233	0xbb65026d	-0.0034944073
234	0x3df4fb7f	0.119620316
235	0xbe2f3885	-0.17111404
236	0xbc56fd27	-0.01312188
237	0xbdb766d7	-0.08955162
238	0x3d28df68	0.04122868
239	0x3d91ba98	0.07115668
240	0x3da3b9b1	0.07994402
241	0xbdc5322b	-0.096287094
242	0x3cf896ee	0.030345406
243	0xbd8bf7ae	-0.068343505
244	0x3d8c8193	0.06860652
245	0x3d9d0704	0.07667354
246	0xbcc2821d	-0.023743683
247	0x3b138bed	0.0022513822
248	0x3d874910	0.066057324
249	0x3e2ce72d	0.16885062
250	0xbd315315	-0.043292124
251	0xbd5ac8a8	-0.053414017
252	0x3d991e79	0.07476515
253	0x3d8255c5	0.063640155
254	0x3ddaa61f	0.10676216
255	0xbd75639c	-0.059909448

network_body._body_endoder.seq_layers.2.bias f4 [128]
0	0x3a623664	0.00086293207
1	0xbba93d18	-0.0051647536
2	0xba9ecdea	-0.001211581
3	0x3a8dd798	0.0010821698
4	0xbadd005a	-0.0016861067
5	0xbae40111	-0.0017395337
6	0x3a388cf5	0.0007040047
7	0xba9f8e4b	-0.0012173144
8	0x3b53078c	0.0032200543
9	0xb9056dbf	-0.00012724752
10	0xbad6a9ad	-0.0016377472
11	0x3a2bf042	0.00065589335
12	0xbaf263cf	-0.001849288
13	0x3ad395e8	0.0016142698
14	0xb9055053	-0.00012713792
15	0x3a9333c9	0.0011230643
16	0xbabf321c	-0.0014587077
17	0xbaea085b	-0.0017855273
18	0x382c721d	4.1114272e-05
19	0x3a8f6716	0.0010940756
20	0xbab5fac3	-0.0013883937
21	0x3b922350	0.004459776
22	0xba1ac905	-0.0005904588
23	0x3b76729b	0.0037604931
24	0x3a429030	0.00074219983
25	0x39e85ad3	0.00044318158
26	0xba2b4d04	-0.00065346085
27	0xbb26d2f3	-0.0025455325
28	0x3a210cc6	0.0006143566
29	0x39ccd59f	0.00039069072
30	0xbb0b412d	-0.0021248565
31	0xbabba468	-0.0014315965
32	0xbb32368b	-0.0027193155
33	0x39b15dee	0.00033830054
34	0xba27e6f2	-0.0006404958
35	0x39e8fbf4	0.00044438208
36	0x3894668f	7.076293e-05
37	0x3a27c7d2	0.000640032
38	0xbb1831ed	-0.0023223117
39	0xbb39cdb0	-0.002835136
40	0x39841a11	0.00025196423
41	0x3a7befae	0.0009610605
42	0x3a101f1d	0.00054978003
43	0xbb18340c	-0.0023224382
44	0x39001590	0.00012215064
45	0xb9291b2e	-0.00016127221
46	0xba8cd6db	-0.0010745184
47	0xbada4d39	-0.0016655094
48	0xbb74aed9	-0.0037335663
49	0xba721fc8	-0.0009236303
50	0xbb271090	-0.002549205
51	0xbb556ed8	-0.0032567289
52	0xbb29ceb5	-0.002591056
53	0x3b43941f	0.0029842926
54	0xbac4b5be	-0.0015007777
55	0xbb160758	-0.002289256
56	0xba0c1944	-0.0005344341
57	0xbae8aeeb	-0.0017752325
58	0xbbaeb6f9	-0.0053318706
59	0xba6e2db0	-0.00090857875
60	0xb9ff8983	-0.00048739844
61	0xbb1737a9	-0.0023073948
62	0xba199c52	-0.00058597804
63	0xbab22495	-0.0013591225
64	0xbadce200	-0.0016852021
65	0xba176137	-0.0005774679
66	0xbbac8831	-0.0052652587
67	0xb85c118a	-5.2468422e-05
68	0xbb587a44	-0.003303186
69	0x3a1176ff	0.0005549043
70	0xbac49773	-0.0014998749
71	0x3b5ddade	0.003385238
72	0xbadd488e	-0.0016882585
73	0x39d7a576	0.00041131274
74	0x3a4d9c78	0.0007843445
75	0xbb190bb3	-0.002335292
76	0xbb9e90e3	-0.004839049
77	0xb9dc964c	-0.0004207365
78	0xbb0f210d	-0.0021839768
79	0xbae5fb12	-0.0017546138
80	0x3909157b	0.0001307334
81	0xbb501b45	-0.0031754535
82	0xb92a9e9e	-0.00016271553
83	0xbb070644	-0.00206031
84	0x3aa7d2f2	0.0012803955
85	0xba47c404	-0.0007620456
86	0xb9c7a3fc	-0.00038078416
87	0xbb936fc3	-0.004499407
88	0xbb67dc12	-0.0035378975
89	0xbb6553e8	-0.003499264
90	0xbaff4a38	-0.0019477075
91	0xbb29d0a5	-0.0025911715
92	0x3a5dd5a4	0.0008462316
93	0xba63a83c	-0.00086844317
94	0xbadef41d	-0.0017010007
95	0xbbdda216	-0.006763707
96	0x3b67b7fd	0.0035357468
97	0x3a380f6d	0.00070213416
98	0xbbdd2742	-0.0067490647
99	0x3ad252da	0.001604642
100	0x3b081186	0.0020762398
101	0xba4900f9	-0.00076676864
102	0x3ab2abe9	0.0013631555
103	0x3aafbea3	0.0013408255
104	0x3aa203d5	0.0012360761
105	0xbb258022	-0.0025253375
106	0x398b1b14	0.0002653232
107	0x3aa8cb52	0.0012877977
108	0x3ab49bfc	0.0013779397
109	0xbacb5716	-0.0015513625
110	0x3be3cf4e	0.006952203
111	0x3b1bd953	0.0023780658
112	0x39691259	0.00022227447
113	0xba9e237a	-0.0012065016
114	0xb9a7cd5e	-0.00032005733
115	0x39d81130	0.00041211536
116	0xbb219244	-0.0024653831
117	0x3b01bf8f	0.0019798016
118	0xb9ebad72	-0.0004495192
119	0xba3192c8	-0.0006773886
120	0x3abdd621	0.0014483371
121	0x390d9ce7	0.00013505259
122	0xba4718bc	-0.0007594933
123	0xbad67d6e	-0.0016364285
124	0x3bf710c3	0.00753984
125	0xb93a6e31	-0.00017779392
126	0xbabd9139	-0.0014462835
127	0xbaadab2f	-0.0013249869

action_model._continuous_distribution.log_sigma f4 [1, 3]
0	0x3b7d462d	0.0038646564
1	0x3b5bd1f1	0.0033541883
2	0xbc36d044	-0.011158053

action_model._continuous_distribution.mu.weight f4 [3, 128]
0	0x3c3a4ed2	0.011371331
1	0xbc3a06b6	-0.011354139
2	0xbce33845	-0.027736792
3	0xba48e044	-0.0007662813
4	0xbc7dd38d	-0.015492332
5	0xbce8f2e5	-0.028436134
6	0x3b421f07	0.0029620545
7	0xbc2c7fae	-0.010528488
8	0x3cf648cf	0.030064015
9	0x3bd06794	0.0063600037
10	0xbcc5a02a	-0.024124224
11	0xbc721431	-0.014775322
12	0xbcdb3471	-0.026758404
13	0x3c8df061	0.017326536
14	0x3c4d25d3	0.012521225
15	0xb962599a	-0.00021586419
16	0x3cd5ea9d	0.026112849
17	0xbcc6602a	-0.024215776
18	0x3bfeafa3	0.0077724024
19	0x3c104ff4	0.008808125
20	0xbcec04e9	-0.028810935
21	0x3c8243d7	0.01590149
22	0xbd022251	-0.031771008
23	0x3b5d8e88	0.003380688
24	0x3bfa3c55	0.0076365867
25	0x3c4c6d48	0.012477227
26	0xbc827a05	-0.015927324
27	0xbd029b3e	-0.03188633
28	0x3c80ecff	0.015738009
29	0x3ccb86c8	0.024844542
30	0xbb8f0478	-0.0043645464
31	0xbcaf68f4	-0.02141235
32	0xbc601702	-0.0136773605
33	0x3bb55c71	0.0055347015
34	0xbc9290de	-0.017891344
35	0x3b2837a4	0.002566793
36	0x3cc5ff95	0.024169723
37	0x3b68f8b3	0.0035548627
38	0xbc723890	-0.014783993
39	0xbd0ef3e9	-0.03490058
40	0xbca2c190	-0.019867688
41	0x3ce82dc2	0.028342132
42	0x3c01a7c6	0.007913535
43	0x39ef2a56	0.00045617175
44	0x3becd48c	0.007227486
45	0xbcae5b0f	-0.021283654
46	0xbca1a21a	-0.019730616
47	0xbca4cdc4	-0.020117648
48	0xbcd6b84f	-0.026210932
49	0xbc116985	-0.0088752555
50	0x3bee19e2	0.007266269
51	0x3c202f7b	0.009776945
52	0xbb3a3d71	-0.002841797
53	0x3a813b79	0.0009859643
54	0xbc5c571c	-0.013448503
55	0xbc056021	-0.008140595
56	0xbbf3d0b6	-0.0074406518
57	0x3d64b62b	0.05583779
58	0x3b8454eb	0.0040384433
59	0xbc9091ed	-0.017647708
60	0x3cc55fc9	0.024093525
61	0xbcbf40eb	-0.023346385
62	0xbcd90f28	-0.026496485
63	0xbcc10492	-0.02356175
64	0xbc9f054c	-0.019411705
65	0x3c5610da	0.013065541
66	0xbc63c0c9	-0.013900944
67	0xbc210053	-0.009826737
68	0x3cafb01d	0.021446282
69	0x3d377238	0.044786662
70	0xbd165997	-0.036706533
71	0x3c25b650	0.0101142675
72	0xbb70ad01	-0.0036724212
73	0x3bee3ec9	0.007270668
74	0x3d09fd43	0.033688795
75	0xbc171a3f	-0.009222566
76	0x3bfe1793	0.007754275
77	0x3c4755e9	0.012166479
78	0xbc0b60ad	-0.008506936
79	0xbcd2d7f9	-0.02573775
80	0x3ce775f2	0.028254483
81	0x3c1502b2	0.009094881
82	0xbbe697c5	-0.0070371353
83	0xbb1cff07	-0.002395572
84	0x3c14f87d	0.009092447
85	0xba8bc893	-0.0010664634
86	0x3c7850ba	0.015155965
87	0xbb30a046	-0.0026951
88	0xbb938ac1	-0.0045026247
89	0xbc01875f	-0.00790581
90	0xbb68e969	-0.0035539514
91	0xbc0e7867	-0.008695698
92	0x3c0a02eb	0.008423547
93	0x3ba9a5bb	0.0051772273
94	0xbc27a3bd	-0.010231909
95	0xbcc9716c	-0.024590217
96	0x3cb1f0aa	0.021721203
97	0x3c2a1e0c	0.01038314
98	0x3b05c2d8	0.0020410325
99	0xbc60061e	-0.013673333
100	0x3cf5c15e	0.029999431
101	0xbc631f35	-0.013862421
102	0x3cc65536	0.024210554
103	0x3c68fd01	0.014220477
104	0x3c1c6982	0.009546639
105	0xbc2d928b	-0.010594021
106	0x3c00125f	0.00781688
107	0x3c8a9db8	0.01692091
108	0x3c3c43db	0.011490787
109	0x3a1436f1	0.0005653939
110	0xbcff6600	-0.031176567
111	0x3b8ff317	0.0043929922
112	0x3a931213	0.0011220596
113	0x3ad31bc6	0.00161063
114	0x3c90d095	0.017677585
115	0x3c9fa71d	0.019488866
116	0xbc148ba9	-0.009066501
117	0x3c284ef7	0.010272733
118	0x3c7d4465	0.015458201
119	0x3cdad67d	0.026713604
120	0x3cc5a21b	0.02412515
121	0x3c71283d	0.014719066
122	0xbc11b679	-0.0088936025
123	0xbbaff23d	-0.005369453
124	0x3c9c1856	0.019054573
125	0x3d0f2436	0.034946643
126	0xbc1bad16	-0.009501716
127	0xbb30d0ff	-0.002698004
128	0x3cb5cf9f	0.022193728
129	0x3c73f09e	0.014888911
130	0xbc56455a	-0.013078058
131	0xbd246959	-0.04013953
132	0xbcc5058e	-0.0240505
133	0xbd274f8e	-0.040847354
134	0xbc5dd5f6	-0.013539782
135	0xbcf95dd9	-0.030440258
136	0x3c9c03a9	0.019044714
137	0xbcd0d635	-0.025492767
138	0xba72ff6a	-0.0009269627
139	0xbcd94709	-0.02652313
140	0xbca63fd2	-0.020294104
141	0xbbad0f88	-0.0052813925
142	0xbc0c29a7	-0.008554853
143	0x3b118d9e	0.0022209655
144	0x3a36abc3	0.00069683435
145	0xbcb706a4	-0.022342034
146	0x3c808029	0.015686112
147	0xbc6275ae	-0.013822002
148	0xbc1e1a1c	-0.00964978
149	0x3b81a91a	0.003956926
150	0x3c29e619	0.010369801
151	0x3ad795ce	0.0016447844
152	0x3cabd5bf	0.020975946
153	0xbc5b67dd	-0.013391462
154	0x3ca7a905	0.020466337
155	0xbafb6818	-0.0019180803
156	0x3c8b1383	0.016977077
157	0x3d3284d8	0.04358372
158	0x3d1c7cd0	0.038204968
159	0xbc50754d	-0.012723279
160	0x3c8f2fee	0.01747891
161	0x3c1d25f4	0.009591568
162	0x3c411f20	0.011787206
163	0xbb698dc4	-0.0035637477
164	0xbc27975e	-0.01022896
165	0x3d13fe42	0.03613115
166	0x3ceeede3	0.029166168
167	0x3c93a0e7	0.01802106
168	0x3bb09858	0.0053892545
169	0x3cd3062b	0.025759777
170	0x3b75fa54	0.003753324
171	0xbc727b7e	-0.014799951
172	0x3d0789b4	0.03309031
173	0x3d5cf82d	0.053947616
174	0xbcd14fbc	-0.025550716
175	0x3b8d9279	0.0043204394
176	0xbbb97122	-0.0056592384
177	0xbcbcf062	-0.023063842
178	0xbcc3c6e0	-0.023898542
179	0xbbc46d49	-0.005994473
180	0x3c16e6f2	0.009210335
181	0xbd04d716	-0.032431684
182	0xbc6e8f56	-0.014560541
183	0xbc3c94cb	-0.011510084
184	0xbcacbf95	-0.021087447
185	0x3c5fe9c9	0.013666579
186	0x3c83249e	0.016008671
187	0xbc0a9f55	-0.008460839
188	0xbbd8aa0e	-0.006612069
189	0x3bd6e9dc	0.00655864
190	0x3cda6764	0.026660629
191	0xbccddee0	-0.02513069
192	0xbc3bce91	-0.0114628235
193	0xbc933f13	-0.017974412
194	0x3b7edf99	0.0038890599
195	0x3d126e61	0.035749797
196	0xbd16614f	-0.036713894
197	0xbcf8d8e7	-0.030376865
198	0x3ce2925a	0.027657676
199	0xbbb8b2fe	-0.005636572
200	0xbd109cab	-0.03530566
201	0xbc124de1	-0.008929701
202	0xbbdcc397	-0.0067371833
203	0xba40eaca	-0.0007359205
204	0x3c140fe5	0.009036993
205	0xbd1ae6f9	-0.03781793
206	0xbcb01db2	-0.021498535
207	0x3c65cea9	0.014026322
208	0x3cc1cc80	0.023657084
209	0xbc64ad1a	-0.013957286
210	0xbc2d0bb2	-0.01056187
211	0xbc5c596b	-0.013449053
212	0xbb3efe2f	-0.0029143204
213	0x3b1bcfaf	0.0023774912
214	0x3ccaf4b7	0.024774892
215	0x3c16728a	0.009182582
216	0x3ceb248c	0.02870395
217	0xbb345d5d	-0.002752147
218	0xbc945ee4	-0.018111654
219	0xb94ad795	-0.00019344532
220	0x3c6a8542	0.014313998
221	0xbcdf9db4	-0.027296878
222	0xbc8f285b	-0.017475298
223	0x3c26c825	0.010179554
224	0xbce20b3e	-0.027593251
225	0xbc9638e3	-0.018337673
226	0xbb0ffc1b	-0.0021970335
227	0xbba1af54	-0.004934231
228	0x3b2d55ed	0.002644892
229	0xbc0376bf	-0.008023917
230	0x3c8dc5bc	0.017306201
231	0x3c84aabe	0.016194697
232	0xba1d783a	-0.000600699
233	0x3bae69b1	0.005322658
234	0x3c430715	0.011903544
235	0x3bcd7893	0.006270477
236	0x3bd3f35b	0.006468219
237	0x3ae9306d	0.0017790921
238	0x3bc731de	0.0060789427
239	0xbc560b0e	-0.013064159
240	0x3d255fa7	0.040374424
241	0x3cf3e384	0.029771574
242	0xbc62cd79	-0.013842934
243	0xbb2c685b	-0.0026307318
244	0x3beb24fe	0.0071760407
245	0x3a6de1bf	0.00090744713
246	0xbcce85fa	-0.02521037
247	0x3c1ee38d	0.009697807
248	0xbd055405	-0.03255083
249	0x3bb41620	0.0054958016
250	0x3d0bba16	0.034113012
251	0xbcab098c	-0.020878576
252	0x3c0ebb4a	0.008711645
253	0x3cbf7d01	0.023375036
254	0xbca2dd7d	-0.019881004
255	0xbcde4a3c	-0.027135007

action_model._continuous_distribution.mu.bias f4 [3]
0	0x3ace13aa	0.0015722413
1	0x39e8f073	0.00044429637
2	0xbadcc200	-0.0016842484

exp_avg f4 [128, 6]
0	0x39688098	0.00022173149
1	0xb7f81c68	-2.9577131e-05
2	0xb952030c	-0.00020028296
3	0xb9f0ae8a	-0.0004590641
4	0xb83a1578	-4.436585e-05
5	0xba067177	-0.0005128602
6	0xba1c08b8	-0.0005952227
7	0xb8be0719	-9.061228e-05
8	0x3ad5bf8f	0.0016307699
9	0x3a8b7579	0.0010639868
10	0xb90e8556	-0.00013591847
11	0x3a9a1d46	0.0011757992
12	0xb8f65230	-0.00011745503
13	0x380620e3	3.1978718e-05
14	0xb9f90519	-0.0004749678
15	0xb964f23c	-0.00021834014
16	0x38493166	4.796814e-05
17	0xb98a05fc	-0.0002632587
18	0x38edad6a	0.000113333415
19	0x38d273b2	0.0001003513
20	0x3a36fb97	0.0006980239
21	0x39a1e2ee	0.0003087739
22	0x391dd6cf	0.00015052709
23	0xb9d67b6a	-0.0004090921
24	0x3b00674d	0.0019592822
25	0xb8cbd8f6	-9.7202064e-05
26	0xba1f70e0	-0.00060821883
27	0x392d49f6	0.00016526118
28	0xb918e2b4	-0.00014580303
29	0xba093980	-0.00052347034
30	0x3a8c0f1e	0.0010685658
31	0x3633ace2	2.677371e-06
32	0xba9c238e	-0.0011912452
33	0xb9813778	-0.00024646125
34	0x3686c2c9	4.016187e-06
35	0xba4ade69	-0.000773883
36	0x37f1b580	2.8813956e-05
37	0xb88ba8aa	-6.6594526e-05
38	0x3a219798	0.0006164252
39	0xb8b06772	-8.411602e-05
40	0xb8d17d12	-9.989193e-05
41	0x39ce0e0e	0.00039301853
42	0x392ab468	0.0001627967
43	0xb925af8e	-0.00015801025
44	0x3ac290c7	0.0014844172
45	0x3aa26e06	0.0012392409
46	0xb9788762	-0.00023701557
47	0xb9954de1	-0.0002847752
48	0xb902471f	-0.00012424261
49	0x3647c618	2.9768617e-06
50	0x3993eff0	0.00028216792
51	0xb86216b0	-5.390373e-05
52	0x3695d4a6	4.4653016e-06
53	0x37d48078	2.5332192e-05
54	0x38eb8cd8	0.000112319074
55	0x38b50a4a	8.632669e-05
56	0xb87b6290	-5.9934857e-05
57	0x3a25e64e	0.00063285686
58	0x3907c7bc	0.0001294901
59	0x3a99c526	0.0011731728
60	0xb9ab885c	-0.00032717257
61	0x38f16f07	0.00011512456
62	0xba971e9e	-0.001152951
63	0x3a2a662a	0.0006500209
64	0x3935133c	0.0001726867
65	0xb9e05066	-0.0004278451
66	0x39e341d3	0.00043345857
67	0x37882568	1.6229882e-05
68	0x39ab802c	0.00032711157
69	0x3a16fc72	0.0005759663
70	0x37cc3819	2.4344818e-05
71	0x39af68e6	0.00033456757
72	0x3976b5fe	0.00023528186
73	0x381814b7	3.6258916e-05
74	0xba79bef9	-0.00095270533
75	0xb9f578fe	-0.00046820188
76	0x38641f0d	5.4388354e-05
77	0x3a79c754	0.00095282984
78	0xba080e34	-0.0005190105
79	0xb7bb0d64	-2.2298373e-05
80	0xb9f3d487	-0.00046506917
81	0x38ed621b	0.00011319314
82	0xb80c4a0b	-3.344756e-05
83	0x379a72f0	1.8411753e-05
84	0xba8e3ad9	-0.0010851278
85	0xb961c548	-0.00021531165
86	0xbb07580a	-0.002065184
87	0xb9a25cd8	-0.00030968222
88	0xb9a95400	-0.00032296777
89	0xbb0df78d	-0.0021662444
90	0xba0058a6	-0.0004896022
91	0xb78ecb44	-1.7022372e-05
92	0x3a573f23	0.0008211007
93	0x3816f730	3.5992998e-05
94	0xb7d630f7	-2.5533589e-05
95	0xb9892825	-0.00026160586
96	0xb871db20	-5.7662954e-05
97	0xb883b5f6	-6.28046e-05
98	0x39928854	0.00027948862
99	0x3a09e340	0.0005259998
100	0xb8c590f4	-9.420692e-05
101	0xba3716ad	-0.0006984275
102	0xb95a5bf6	-0.00020824358
103	0xb716ceda	-8.988858e-06
104	0xba269dee	-0.0006355931
105	0xba18f731	-0.0005835174
106	0xb762366c	-1.3483321e-05
107	0xb929cf48	-0.00016194314
108	0xb9e4b57e	-0.0004362277
109	0xb8dbb431	-0.00010476297
110	0x3af1a8a8	0.0018437104
111	0x3b010775	0.0019688283
112	0xb924c72c	-0.00015714456
113	0x3aad39c1	0.0013216065
114	0xba2bc844	-0.0006552974
115	0xb7ab6b10	-2.0434643e-05
116	0xba1a987e	-0.0005897357
117	0xba48c904	-0.0007659348
118	0xb8009054	-3.0651994e-05
119	0xb988a42a	-0.00026062253
120	0x3a5c4b8e	0.00084035925
121	0x3817552c	3.6080528e-05
122	0x39f027b6	0.00045805954
123	0x38533ed8	5.0364848e-05
124	0x3862ffba	5.4120763e-05
125	0x39aacd48	0.00032577873
126	0x3a5b83d0	0.00083738286
127	0x38d127ee	9.973334e-05
128	0x3a7bbf68	0.0009603412
129	0x3a3d365e	0.0007217879
130	0x391cddf2	0.0001496
131	0x3a78488e	0.0009471261
132	0xba8f4f94	-0.001093375
133	0x38511ee2	4.9858245e-05
134	0x393b985c	0.00017890468
135	0x394b0eb8	0.00019365072
136	0x389cd730	7.4787415e-05
137	0x3a8f6b7c	0.0010942067
138	0x3a047243	0.0005052427
139	0xb8b6784d	-8.700844e-05
140	0xba368077	-0.0006961892
141	0xbac27bb4	-0.0014837892
142	0xb908da37	-0.00013051262
143	0xb9621024	-0.00021559052
144	0xb9ef1f30	-0.0004560887
145	0x393a520f	0.00017768911
146	0x3b0d4623	0.0021556697
147	0x3a10bb0d	0.0005521037
148	0x398bbd89	0.0002665336
149	0x3b1925b8	0.002336843
150	0x3a088e3c	0.0005209183
151	0x386fe158	5.7191908e-05
152	0x3ab6c552	0.0013944304
153	0x3a99ac89	0.0011724393
154	0x38b3e90e	8.578795e-05
155	0x3a662717	0.00087796286
156	0xba050398	-0.0005074083
157	0xb7011b36	-7.695335e-06
158	0x38bc8810	8.989882e-05
159	0x39d7fc27	0.00041195864
160	0xb741a8f0	-1.154303e-05
161	0xb9ea379f	-0.000446734
162	0x3ac61d65	0.0015114961
163	0x3841b919	4.618717e-05
164	0x39cc34ca	0.00038949243
165	0x3a74cf5e	0.00093387614
166	0x38914ae1	6.928086e-05
167	0x39f01bb6	0.00045797013
168	0xba421464	-0.0007403551
169	0x35c2ab60	1.4504003e-06
170	0xb9fa023a	-0.00047685375
171	0xba3cedf2	-0.00072070875
172	0x36120250	2.1757041e-06
173	0x38390ad0	4.4117507e-05
174	0xbae31146	-0.0017323873
175	0xb9293c43	-0.00016139545
176	0xb903cfb8	-0.00012570515
177	0xba78ee18	-0.0009495928
178	0xb97dda64	-0.00024209317
179	0xbac82c33	-0.0015271961
180	0x3a3d43fd	0.0007219909
181	0xb8e7e2f6	-0.00011057213
182	0xb9f28742	-0.00046258612
183	0xb9ad6a1c	-0.0003307619
184	0xb92dea3a	-0.00016585822
185	0xba24b8f3	-0.0006283663
186	0x3982f650	0.0002497905
187	0xb8cd4f99	-9.789988e-05
188	0x3a11553a	0.0005544011
189	0x39e053da	0.00042787084
190	0xb919fbb2	-0.00014684981
191	0x3a1c0584	0.00059517496
192	0x39aada0e	0.0003258739
193	0xb8815c19	-6.168354e-05
194	0x398ad126	0.0002647724
195	0x39ae19da	0.00033207127
196	0xb8c20a19	-9.252522e-05
197	0x3a177b7d	0.0005778594
198	0xb9b8ddc2	-0.00035260437
199	0xb8b2172c	-8.4920175e-05
200	0xb980ed6c	-0.00024590956
201	0x39e3bcf7	0.00043437604
202	0xb9059162	-0.00012738028
203	0xba467dc0	-0.0007571839
204	0xb9c8dcb7	-0.00038311418
205	0xb7db40b6	-2.6136968e-05
206	0x3a53a77e	0.00080739695
207	0xba493154	-0.0007674892
208	0xb824709c	-3.9205523e-05
209	0x3a092468	0.000523156
210	0x38e92e50	0.00011118932
211	0x38c577f6	9.4160365e-05
212	0xb9809d34	-0.00024531188
213	0x37f6dc50	2.9428076e-05
214	0x391419ff	0.00014124064
215	0x3a71e4ff	0.00092275435
216	0x3894e790	7.100322e-05
217	0xb857faa5	-5.1493425e-05
218	0x3a0fe44d	0.00054890366
219	0xb9b9db4e	-0.00035449344
220	0xb8a1fbf8	-7.724011e-05
221	0x39b28506	0.00034049916
222	0x398c6521	0.00026778228
223	0x38a16eae	7.697694e-05
224	0xba6cf48a	-0.00090391247
225	0x39f81204	0.0004731567
226	0x38f22612	0.000115465504
227	0x38fc64a6	0.000120350436
228	0x3a23d3e1	0.0006249529
229	0x38acf9f0	8.2481536e-05
230	0x398e6e2e	0.0002716644
231	0xb794f2c0	-1.7756014e-05
232	0x3901bb78	0.00012372236
233	0x3a139248	0.00056294026
234	0x3976bc84	0.00023530616
235	0x37b8d15e	2.2032003e-05
236	0x38444950	4.679832e-05
237	0x3a464011	0.0007562647
238	0x380a9cf0	3.3047923e-05
239	0xba1b9588	-0.00059350627
240	0x3a3e06b6	0.0007248925
241	0xb7f77d62	-2.950308e-05
242	0xb9c18813	-0.00036913212
243	0x38dd091c	0.00010539798
244	0xb8399e28	-4.425473e-05
245	0xba454f8c	-0.0007526807
246	0xb994dd42	-0.0002839361
247	0x36bb9298	5.5901e-06
248	0xba203f7e	-0.00061129767
249	0xba7dbd04	-0.00096793496
250	0x370cae60	8.38525e-06
251	0x3a8e1ef2	0.0010842963
252	0xb9ce3561	-0.00039331152
253	0xb803385e	-3.128533e-05
254	0x375d38c0	1.318584e-05
255	0xb9c1fd64	-0.0003700062

exp_avg_sq f4 [128, 6]
0	0x388c57cd	6.6920744e-05
1	0x34888341	2.5427474e-07
2	0x37ebc75a	2.8107013e-05
3	0x37df5d58	2.6627138e-05
4	0x351993ae	5.7211844e-07
5	0x3751afcc	1.2498302e-05
6	0x3695ed32	4.468159e-06
7	0x32f7f221	2.8864692e-08
8	0x36dc7993	6.570664e-06
9	0x3697e466	4.5267398e-06
10	0x338b7838	6.4945596e-08
11	0x369094f5	4.3088753e-06
12	0x382f574b	4.180455e-05
13	0x34257cef	1.5412273e-07
14	0x37569ac1	1.2791425e-05
15	0x37a43b86	1.9578041e-05
16	0x34ba2c8f	3.467762e-07
17	0x374c604b	1.21817675e-05
18	0x370ced73	8.399936e-06
19	0x3374ee82	5.70276e-08
20	0x372b4790	1.0209056e-05
21	0x37058095	7.957356e-06
22	0x3409c62a	1.2831211e-07
23	0x371f903d	9.510722e-06
24	0x3849269d	4.7958096e-05
25	0x349abfdc	2.882433e-07
26	0x385ba382	5.2365947e-05
27	0x385f5c83	5.32535e-05
28	0x352e17d6	6.4854737e-07
29	0x3749a1f8	1.2018245e-05
30	0x366b956e	3.5104708e-06
31	0x3349e010	4.7002743e-08
32	0x37600bc1	1.3354177e-05
33	0x372498f5	9.810775e-06
34	0x33e31c0c	1.0575613e-07
35	0x36b647bc	5.4323737e-06
36	0x35fe7730	1.8959163e-06
37	0x3300d9cf	3.0000418e-08
38	0x370d2feb	8.415412e-06
39	0x36efd777	7.1478385e-06
40	0x3390f509	6.750094e-08
41	0x361363ee	2.1962874e-06
42	0x37827ebb	1.5556221e-05
43	0x33f7b95c	1.15355505e-07
44	0x37af9442	2.0930664e-05
45	0x37d97ed6	2.5927478e-05
46	0x348b5850	2.5955023e-07
47	0x3735cafa	1.08357e-05
48	0x35a43e8f	1.2237159e-06
49	0x32daa6de	2.5454423e-08
50	0x36fba2eb	7.499349e-06
51	0x36cfbbe7	6.1909554e-06
52	0x3375fbc0	5.7272473e-08
53	0x362bb193	2.5584347e-06
54	0x37a83e7a	2.0056254e-05
55	0x33cbc60a	9.488947e-08
56	0x3773240a	1.449232e-05
57	0x376086c0	1.3382814e-05
58	0x34653ed2	2.1350141e-07
59	0x3709bf0d	8.210319e-06
60	0x371c07f1	9.300174e-06
61	0x344eb7f9	1.9252174e-07
62	0x385d8be2	5.2820782e-05
63	0x38421f94	4.6282614e-05
64	0x34e88eea	4.331735e-07
65	0x37815d82	1.5421541e-05
66	0x3642f3a9	2.9050082e-06
67	0x32a27285	1.891136e-08
68	0x369d5175	4.6884475e-06
69	0x366fe713	3.5748278e-06
70	0x3336c0d6	4.255056e-08
71	0x36057bbd	1.989057e-06
72	0x3892972e	6.989982e-05
73	0x348ab139	2.583345e-07
74	0x37a7387c	1.9934254e-05
75	0x3803fdad	3.1469088e-05
76	0x351c075b	5.812523e-07
77	0x37080289	8.106822e-06
78	0x35a09e98	1.1967086e-06
79	0x333b6a79	4.3636167e-08
80	0x37681dd7	1.3835225e-05
81	0x3768a2f7	1.3866221e-05
82	0x33d2d7c7	9.818137e-08
83	0x36014982	1.9265285e-06
84	0x387ad14a	5.979956e-05
85	0x34898920	2.561801e-07
86	0x37e25892	2.6982543e-05
87	0x37f28044	2.8908376e-05
88	0x351aba4f	5.7640585e-07
89	0x3787aa11	1.6172447e-05
90	0x367621f8	3.667663e-06
91	0x3397aa34	7.062445e-08
92	0x37ac3936	2.0530639e-05
93	0x37a3a39d	1.9507303e-05
94	0x342a9f8b	1.5890525e-07
95	0x36b0ee51	5.2729524e-06
96	0x37362533	1.08567065e-05
97	0x33d6d3c4	1.00036715e-07
98	0x37c1f9b8	2.3123677e-05
99	0x378aa6b7	1.6528515e-05
100	0x3471ae35	2.250825e-07
101	0x374b9cc2	1.2136241e-05
102	0x37a80267	2.002828e-05
103	0x33b4bf53	8.416705e-08
104	0x373c19b5	1.1211659e-05
105	0x371f9c64	9.513551e-06
106	0x344b5744	1.8937595e-07
107	0x365515cd	3.1752163e-06
108	0x370f7fc5	8.553213e-06
109	0x33c6040c	9.2208296e-08
110	0x37dd27a4	2.6363712e-05
111	0x37a9e4aa	2.025285e-05
112	0x345ec48b	2.0746863e-07
113	0x36e8f3bb	6.9425128e-06
114	0x389c5985	7.455334e-05
115	0x34a5c72f	3.087857e-07
116	0x37fcc617	3.0132984e-05
117	0x381ddc26	3.7636746e-05
118	0x353a8006	6.94767e-07
119	0x37382ddb	1.0977931e-05
120	0x370e87b5	8.495456e-06
121	0x341ece42	1.4789933e-07
122	0x38346da6	4.3017462e-05
123	0x382fe776	4.1938816e-05
124	0x34b2a801	3.3277323e-07
125	0x36f9bc84	7.4427244e-06
126	0x3640462d	2.8651077e-06
127	0x330b5e33	3.2449133e-08
128	0x370e40ad	8.478918e-06
129	0x36cd1ba5	6.1126943e-06
130	0x339cc9fb	7.301056e-08
131	0x365b4bb1	3.2677601e-06
132	0x37750ff9	1.4606857e-05
133	0x337ab352	5.8370752e-08
134	0x36fc5736	7.520338e-06
135	0x36e7b9c3	6.905962e-06
136	0x340d04db	1.3133415e-07
137	0x3661866b	3.3605854e-06
138	0x37b0aded	2.1061825e-05
139	0x34098605	1.2807875e-07
140	0x37b02d13	2.1001824e-05
141	0x37905bc2	1.7208866e-05
142	0x349ab6c2	2.881771e-07
143	0x3726c35c	9.939857e-06
144	0x390e6014	0.00013577967
145	0x3520a62c	5.9846457e-07
146	0x3895c982	7.1424074e-05
147	0x388a7d3b	6.603679e-05
148	0x35b4baf7	1.3465459e-06
149	0x37be60a2	2.2694763e-05
150	0x369be6dd	4.646236e-06
151	0x3364885e	5.3209412e-08
152	0x378dff99	1.6927532e-05
153	0x3754bc78	1.2680066e-05
154	0x34008cb2	1.1972114e-07
155	0x36a3a939	4.8774787e-06
156	0x373dab1e	1.1305119e-05
157	0x33bec234	8.88289e-08
158	0x37d47af6	2.5329628e-05
159	0x37912216	1.730122e-05
160	0x34569a75	1.9986494e-07
161	0x36d670e0	6.3908374e-06
162	0x37de5ce1	2.6507712e-05
163	0x3403f57e	1.2289635e-07
164	0x377e989d	1.5175113e-05
165	0x37459431	1.17766185e-05
166	0x3494742e	2.765168e-07
167	0x368f3d39	4.2688594e-06
168	0x37198386	9.150133e-06
169	0x33998991	7.149641e-08
170	0x379ce7e7	1.8704637e-05
171	0x377d6e9c	1.5105728e-05
172	0x342cbac1	1.6086689e-07
173	0x37376825	1.0931898e-05
174	0x36b4bd5a	5.3864615e-06
175	0x33269224	3.87828e-08
176	0x3722766b	9.683524e-06
177	0x36ff0d11	7.6011133e-06
178	0x33bb6470	8.7261355e-08
179	0x36635367	3.3874182e-06
180	0x3734cdcc	1.0776752e-05
181	0x334d1c97	4.7756284e-08
182	0x370d9f2b	8.441314e-06
183	0x36d938d7	6.473721e-06
184	0x33e6c02d	1.0745166e-07
185	0x36bf19d5	5.695251e-06
186	0x38923228	6.971165e-05
187	0x34942fb7	2.7601865e-07
188	0x37da3edd	2.6016898e-05
189	0x38106919	3.4430155e-05
190	0x3526b59c	6.2104095e-07
191	0x372f3529	1.044319e-05
192	0x36928121	4.3661717e-06
193	0x3328186a	3.9137753e-08
194	0x370e332d	8.475775e-06
195	0x36cf50b7	6.178477e-06
196	0x33bd1b71	8.80599e-08
197	0x3686cf1c	4.017622e-06
198	0x3829f061	4.051661e-05
199	0x342d84eb	1.6160236e-07
200	0x37794858	1.48584e-05
201	0x379abf20	1.844723e-05
202	0x34c33590	3.6360552e-07
203	0x367709ff	3.6811687e-06
204	0x372edfe2	1.0423335e-05
205	0x335c493e	5.1289355e-08
206	0x36d2ea13	6.2857375e-06
207	0x36ef7929	7.13686e-06
208	0x33f7d257	1.15400944e-07
209	0x3693f133	4.4090207e-06
210	0x3774e2e4	1.459636e-05
211	0x33ce3572	9.602344e-08
212	0x379ad3a0	1.8456776e-05
213	0x377b263a	1.4969666e-05
214	0x3467fc10	2.1605251e-07
215	0x36dfdac1	6.671384e-06
216	0x36f81185	7.3930155e-06
217	0x330de8ab	3.304073e-08
218	0x36acdb1f	5.1515085e-06
219	0x369aca24	4.61309e-06
220	0x339fa5be	7.434163e-08
221	0x36684110	3.4608565e-06
222	0x364b29be	3.0273654e-06
223	0x32e5b9d1	2.6743608e-08
224	0x36ec65ca	7.045198e-06
225	0x36a75da1	4.9878877e-06
226	0x33813888	6.0173136e-08
227	0x360b2f01	2.0739974e-06
228	0x36b3551a	5.344523e-06
229	0x333e1faa	4.426662e-08
230	0x370fe923	8.577746e-06
231	0x36920069	4.351187e-06
232	0x33d5e3a6	9.9599944e-08
233	0x36f3a18b	7.2607704e-06
234	0x3710a17a	8.6206655e-06
235	0x33230209	3.7953246e-08
236	0x36c894f4	5.977805e-06
237	0x36a3dd29	4.883525e-06
238	0x33b76240	8.539473e-08
239	0x368dface	4.231325e-06
240	0x381c531c	3.72707e-05
241	0x34a28ad7	3.027587e-07
242	0x38859439	6.369543e-05
243	0x3890a1cf	6.896594e-05
244	0x3536dc32	6.812071e-07
245	0x3780b550	1.534322e-05
246	0x3777c6a6	1.4768599e-05
247	0x3377cb1a	5.769389e-08
248	0x37026000	7.770956e-06
249	0x36fd76d2	7.55382e-06
250	0x340b6234	1.298111e-07
251	0x36f4dc8d	7.297442e-06
252	0x36b223e4	5.3089916e-06
253	0x32d67c2d	2.4969347e-08
254	0x36522c66	3.1318282e-06
255	0x362d7d34	2.5851887e-06

exp_avg f4 [128]
0	0xb7781c70	-1.4788573e-05
1	0xb83e0717	-4.5306133e-05
2	0x378620ef	1.598938e-05
3	0x385273b8	5.0175673e-05
4	0xb84bd8ef	-4.8601007e-05
5	0x35b3ad24	1.338693e-06
6	0xb80ba8af	-3.329728e-05
7	0xb8a5af92	-7.9005156e-05
8	0x35c7c608	1.488429e-06
9	0x38350a53	4.3163378e-05
10	0x38716ef6	5.7562218e-05
11	0x3708256c	8.114945e-06
12	0x379814b2	1.8129449e-05
13	0xb73b0d60	-1.1149183e-05
14	0xb8e1c54c	-0.000107655855
15	0xb70ecb4c	-8.511193e-06
16	0xb803b600	-3.1402335e-05
17	0xb696cee4	-4.4944336e-06
18	0xb85bb42f	-5.2381478e-05
19	0xb72b6b18	-1.0217329e-05
20	0x3797552d	1.8040266e-05
21	0x385127ed	4.9866667e-05
22	0x37d11edc	2.4929112e-05
23	0xb836784a	-4.350421e-05
24	0x38ba5216	8.884461e-05
25	0x37efe161	2.859597e-05
26	0xb6811b64	-3.8476883e-06
27	0x37c1b927	2.3093611e-05
28	0x3542a9e0	7.251783e-07
29	0xb8a93c41	-8.069771e-05
30	0xb867e2f7	-5.528607e-05
31	0xb84d4f98	-4.8949936e-05
32	0xb8015c17	-3.0841762e-05
33	0xb832172a	-4.246008e-05
34	0xb75b40b8	-1.3068486e-05
35	0x384577f3	4.708017e-05
36	0xb7d7fa9d	-2.5746698e-05
37	0x38216eb1	3.848848e-05
38	0x382cf9f6	4.124079e-05
39	0x3738d15e	1.1016002e-05
40	0xb7777d66	-1.4751544e-05
41	0x363b92c0	2.7950591e-06
42	0xb783385b	-1.564266e-05
43	0x37b246ef	2.1252285e-05
44	0xb840157d	-4.579638e-05
45	0x362072be	2.3908647e-06
46	0x36bd510c	5.642074e-06
47	0xb7c91dca	-2.3974939e-05
48	0xb8792dd1	-5.9408896e-05
49	0xb7a321ec	-1.944691e-05
50	0x35e6f1f0	1.7206748e-06
51	0xb7d1f7d6	-2.503015e-05
52	0xb85db141	-5.2855587e-05
53	0x3786cf46	1.6070564e-05
54	0xb84beae8	-4.8617745e-05
55	0xb841c1c8	-4.619526e-05
56	0xb68330ba	-3.9097768e-06
57	0xb7826714	-1.5545207e-05
58	0xb8287a30	-4.0168117e-05
59	0xb7448ec6	-1.1715752e-05
60	0x3762dda2	1.3522253e-05
61	0x370e5e6b	8.485843e-06
62	0xb7b3a63e	-2.1415875e-05
63	0x388cd740	6.715814e-05
64	0xb7b22c6a	-2.1239935e-05
65	0xb727c38e	-9.999507e-06
66	0xb5ce9606	-1.5391859e-06
67	0x37b1b43e	2.1183976e-05
68	0x38011958	3.07796e-05
69	0xb62d3c89	-2.5814245e-06
70	0xb87ed9fd	-6.0761336e-05
71	0x36353610	2.700257e-06
72	0xb7a9ca00	-2.0240434e-05
73	0x37865654	1.6014244e-05
74	0x384c4018	4.8697082e-05
75	0x38021960	3.1018048e-05
76	0xb7e2d1ba	-2.7038961e-05
77	0xb7bc7e24	-2.2470085e-05
78	0x368f667a	4.273662e-06
79	0xb7789b09	-1.4818049e-05
80	0x3866a638	5.4991076e-05
81	0xb80f30c2	-3.4139266e-05
82	0x376e55e7	1.4205906e-05
83	0x37ac46d2	2.0536976e-05
84	0xb7ffd158	-3.0495852e-05
85	0x386e3f84	5.6802775e-05
86	0x370610c0	7.990922e-06
87	0x38218478	3.8508762e-05
88	0xb678bbe5	-3.7064249e-06
89	0x37100a22	8.585428e-06
90	0xb79d1256	-1.8724397e-05
91	0xb7fd23a0	-3.017654e-05
92	0x3702e7b1	7.802549e-06
93	0xb79d58bf	-1.8757184e-05
94	0xb84993d7	-4.805982e-05
95	0xb83ec77c	-4.5485314e-05
96	0xb7a8e5cd	-2.013417e-05
97	0xb7c9a8f8	-2.403975e-05
98	0xb6d78556	-6.4230217e-06
99	0x325b8800	1.2778401e-08
100	0xb76985b6	-1.3919014e-05
101	0xb718fb04	-9.11835e-06
102	0xb7cb1a3e	-2.4211706e-05
103	0x378e3c66	1.6955844e-05
104	0x37e3c8a2	2.7153936e-05
105	0x37b2216a	2.1234813e-05
106	0xb6da8d66	-6.513367e-06
107	0xb8072fd8	-3.2231066e-05
108	0xb733483c	-1.068605e-05
109	0x36e2492e	6.743844e-06
110	0x380ca7c0	3.353483e-05
111	0x368d9adb	4.220155e-06
112	0x383552f8	4.3231033e-05
113	0xb78049e7	-1.5293203e-05
114	0x36395d76	2.762155e-06
115	0x383cb98e	4.4995504e-05
116	0x37e0d784	2.6803238e-05
117	0xb631a828	-2.6472935e-06
118	0x36c504f0	5.8716323e-06
119	0x381f5d6a	3.7995553e-05
120	0x35b45b88	1.3437684e-06
121	0x38667247	5.4942702e-05
122	0xb8070609	-3.219213e-05
123	0xb8825f7a	-6.216667e-05
124	0x36f2992b	7.229993e-06
125	0xb8b62680	-8.6856075e-05
126	0xb7cd014a	-2.4438505e-05
127	0xb899d5f9	-7.335464e-05

exp_avg_sq f4 [128]
0	0x33888342	6.356869e-08
1	0x31f7f225	7.2161748e-09
2	0x33257cf1	3.853069e-08
3	0x3274ee81	1.4256899e-08
4	0x339abfd9	7.206081e-08
5	0x3249e019	1.1750694e-08
6	0x3200d9ce	7.500104e-09
7	0x32f7b95b	2.8838874e-08
8	0x31daa6de	6.3636056e-09
9	0x32cbc60d	2.3722373e-08
10	0x334eb7f9	4.8130435e-08
11	0x31a27285	4.72784e-09
12	0x338ab139	6.4583624e-08
13	0x323b6a79	1.0909042e-08
14	0x3389891e	6.404501e-08
15	0x3297aa34	1.7656113e-08
16	0x32d6d3c2	2.5009175e-08
17	0x32b4bf55	2.1041766e-08
18	0x32c60410	2.3052081e-08
19	0x33a5c72d	7.719641e-08
20	0x331ece43	3.6974836e-08
21	0x320b5e30	8.112281e-09
22	0x327ab34e	1.4592684e-08
23	0x33098609	3.2019702e-08
24	0x3420a62e	1.4961617e-07
25	0x3264885b	1.330235e-08
26	0x32bec233	2.2207223e-08
27	0x3303f57d	3.0724085e-08
28	0x3299898e	1.7874097e-08
29	0x32269226	9.695702e-09
30	0x324d1c96	1.193907e-08
31	0x33942fb5	6.900465e-08
32	0x32281868	9.784436e-09
33	0x332d84ea	4.0400586e-08
34	0x325c493f	1.282234e-08
35	0x32ce356f	2.4005855e-08
36	0x320de8a9	8.260181e-09
37	0x31e5b9d1	6.685902e-09
38	0x323e1faa	1.1066655e-08
39	0x32230208	9.488311e-09
40	0x33a28adf	7.5689734e-08
41	0x3277cb17	1.44234695e-08
42	0x31d67c2c	6.2423364e-09
43	0x3275368a	1.4273278e-08
44	0x32cbe034	2.3734266e-08
45	0x331d4e51	3.662564e-08
46	0x31d3f8c2	6.1691887e-09
47	0x32385186	1.0728746e-08
48	0x33315351	4.12868e-08
49	0x316f362e	3.4809875e-09
50	0x32a84236	1.9587883e-08
51	0x33894920	6.392861e-08
52	0x326685ce	1.3418186e-08
53	0x339bf5b5	7.262444e-08
54	0x333ed9c9	4.4435897e-08
55	0x327cabfe	1.4707437e-08
56	0x32a64a4a	1.9358726e-08
57	0x32ee62aa	2.7751714e-08
58	0x3280338c	1.4924602e-08
59	0x3216dc6b	8.781266e-09
60	0x3381f175	6.0509514e-08
61	0x3333e384	4.188361e-08
62	0x3127f8ec	2.4443194e-09
63	0x33427e26	4.5283876e-08
64	0x32afbe42	2.04592e-08
65	0x329735fd	1.7603265e-08
66	0x32e3abc0	2.6504381e-08
67	0x32de0afd	2.5849198e-08
68	0x32d89768	2.5214561e-08
69	0x3195b03a	4.3565054e-09
70	0x330b1a54	3.2387405e-08
71	0x32bd466c	2.203452e-08
72	0x32f0b5e7	2.8022397e-08
73	0x33da804f	1.0174755e-07
74	0x32de29ed	2.5863267e-08
75	0x32979c3b	1.7649759e-08
76	0x32848347	1.542652e-08
77	0x3283876d	1.5311992e-08
78	0x311656c3	2.1877191e-09
79	0x3102d636	1.9039255e-09
80	0x32c42a80	2.283673e-08
81	0x32321399	1.036542e-08
82	0x328876c2	1.5886489e-08
83	0x32e39a0d	2.6496332e-08
84	0x32ce4e73	2.401723e-08
85	0x332a206d	3.96107e-08
86	0x31e386e8	6.6219066e-09
87	0x32a36c1d	1.9024862e-08
88	0x32b07a58	2.0544732e-08
89	0x3325b020	3.857724e-08
90	0x32a76723	1.948826e-08
91	0x33bd78d5	8.8229775e-08
92	0x335a36c1	5.080688e-08
93	0x31a6541e	4.840799e-09
94	0x32d7f886	2.514231e-08
95	0x32dfbd35	2.6046658e-08
96	0x320e8690	8.296084e-09
97	0x331340ff	3.4285218e-08
98	0x33004c90	2.9871956e-08
99	0x326c354c	1.3749126e-08
100	0x33dbef91	1.0241559e-07
101	0x33b3912b	8.361743e-08
102	0x32e3c5a1	2.651615e-08
103	0x31ab6cf1	4.98914e-09
104	0x339f5407	7.419299e-08
105	0x32497b97	1.1727841e-08
106	0x321c3558	9.092524e-09
107	0x32e97144	2.7176277e-08
108	0x32720268	1.4086801e-08
109	0x3262e5f9	1.3207221e-08
110	0x339db039	7.342937e-08
111	0x314dfdab	2.997562e-09
112	0x33631d09	5.2878963e-08
113	0x3207c2d5	7.902334e-09
114	0x320ff319	8.3789695e-09
115	0x337531dd	5.7088858e-08
116	0x3253f21d	1.2336867e-08
117	0x328e06bd	1.653404e-08
118	0x330533de	3.101365e-08
119	0x32495c56	1.1720735e-08
120	0x33116118	3.384875e-08
121	0x32e4be07	2.6629108e-08
122	0x331a02b5	3.585838e-08
123	0x32d34fc1	2.45999e-08
124	0x323243a8	1.0376347e-08
125	0x329e371d	1.8418683e-08
126	0x32d762ea	2.5074275e-08
127	0x32a80d25	1.9563752e-08
