results/Test14/MoveToTarget/MoveToTarget-34556.pt (torch, 443418 bytes, 36 tensors)

network_body._body_endoder.seq_layers.0.weight f4 [128, 6]
0	0xbf453325	-0.77031165
1	0x3db034ae	0.08603798
2	0xbefcdb22	-0.49385935
3	0x3e8ede63	0.27904043
4	0xbedf7de7	-0.43650743
5	0x3e84302a	0.25817996
6	0xbe8247c6	-0.25445384
7	0xbd983bce	-0.07433282
8	0x3f34f221	0.7068196
9	0xbf20bb15	-0.62785465
10	0xbec3c276	-0.382343
11	0x3f323f9c	0.6962831
12	0xbf007e8b	-0.5019309
13	0x3f5cb14a	0.8620802
14	0xbeb3ecee	-0.351417
15	0xbf2d91de	-0.678007
16	0xbd6b8eef	-0.05750936
17	0x3c2703df	0.010193794
18	0x3e83aa5c	0.2571591
19	0x3de416ac	0.11137137
20	0xbf03db7d	-0.5150679
21	0x3d4b1dd7	0.049589004
22	0x3e8471f7	0.25868198
23	0x3eaed07c	0.34143436
24	0xbdafd031	-0.08584631
25	0xbceac02b	-0.028656086
26	0x3dc5d950	0.0966059
27	0x3ec8e848	0.39239717
28	0xbe55fcfd	-0.20897289
29	0x3f01f5a1	0.50765425
30	0xbf095561	-0.536459
31	0x3e0d151f	0.13777588
32	0x3f34349f	0.70392793
33	0xbed0d62d	-0.40788403
34	0x3f8667f3	1.0500473
35	0xbe580015	-0.21093781
36	0x3cc329ba	0.023823608
37	0xbea12892	-0.31476265
38	0xbf091523	-0.5354788
39	0x3e41cc8a	0.18925682
40	0xbca11f0d	-0.019668126
41	0xbd9d776f	-0.07688796
42	0x3e48c446	0.19606122
43	0xbe2d6ace	-0.16935274
44	0x3d1d606a	0.038422026
45	0x3e83b842	0.25726515
46	0xbe1ababe	-0.15110299
47	0xbf005598	-0.50130606
48	0x3d50bbf8	0.05096051
49	0xbd4b9e62	-0.049711592
50	0x3ea6eb72	0.32601506
51	0x3e96615e	0.2937116
52	0xbe30a9ea	-0.17252317
53	0x3e6a4cc3	0.22880845
54	0xbf0c2b8b	-0.5475394
55	0xbdb732b2	-0.08945216
56	0x3f08bd70	0.5341406
57	0x3f892f4a	1.0717556
58	0x3ccef1b2	0.025261734
59	0xbeb596d5	-0.35466638
60	0x3ea39ebe	0.31957048
61	0xbf2ef544	-0.68342996
62	0xbed71c3b	-0.42013726
63	0xbe975e31	-0.2956405
64	0x3c8bd3e8	0.017068818
65	0x3e2cfc33	0.16893081
66	0xbf2dd66b	-0.679053
67	0xbeb06038	-0.3444841
68	0xbd6fa169	-0.058503542
69	0xbe32c0c6	-0.1745635
70	0x3eaca91a	0.33722764
71	0xbe053f36	-0.13012394
72	0x3eecf147	0.4627783
73	0x3f1be293	0.608926
74	0x3ef3c0f4	0.4760815
75	0xbe5f374d	-0.2179844
76	0x3e99cc05	0.30038467
77	0x3e78613a	0.24255839
78	0xbf507e52	-0.8144275
79	0xbfa446b6	-1.2834079
80	0x3d64d937	0.055871215
81	0x3e84a09d	0.25903788
82	0xbeb1ecc3	-0.34750947
83	0x3e362b1b	0.17789881
84	0xbeb13b32	-0.34615475
85	0x3f4f3351	0.8093768
86	0x3e2bf3c5	0.1679221
87	0x3dd0e12d	0.10199199
88	0xbee8fc36	-0.45504922
89	0x3f646e41	0.89230734
90	0xbe09f9f7	-0.1347426
91	0xbed8f536	-0.4237458
92	0xbf0da7fd	-0.55334455
93	0xbf601eed	-0.8754719
94	0x3e828379	0.2549093
95	0xbe6b09c1	-0.2295294
96	0xbea0c44d	-0.31399766
97	0xbdea8f43	-0.11453106
98	0x3d2468be	0.040138952
99	0x3e182211	0.14856745
100	0xbf7b5cd4	-0.9818852
101	0xbee6f4c5	-0.4510862
102	0x3f0b22e0	0.5435009
103	0xbf496566	-0.78670347
104	0x3eb23634	0.3480698
105	0x3f215d3f	0.6303291
106	0xbe9d60c2	-0.30737883
107	0xbf21094d	-0.62904817
108	0x3ed27a69	0.41109017
109	0x3f129c37	0.57269615
110	0xbf396a3f	-0.72427744
111	0x3d3725c2	0.044713743
112	0xbe83d82a	-0.25750858
113	0x3e2e3848	0.17013657
114	0xbe8e78ba	-0.27826482
115	0xbce7464a	-0.028231759
116	0xbec37f22	-0.38182932
117	0xbe07db95	-0.13267358
118	0x3e9b2a9c	0.30305946
119	0xbde2faef	-0.11083018
120	0xbf1b3776	-0.606315
121	0xbec04bb2	-0.3755775
122	0x3e8ba78d	0.2727627
123	0x3eac5cbb	0.33664498
124	0xbf4271b4	-0.7595475
125	0xbe3580c6	-0.17724904
126	0x3ecbcbfa	0.3980406
127	0x3edadc25	0.42746082
128	0xbe9d38a5	-0.3070728
129	0x3eeb5d77	0.45969746
130	0x3dbd1574	0.092326075
131	0xbe9a5239	-0.30140856
132	0x3f1a2912	0.6021892
133	0xbf155183	-0.583275
134	0xbe115b0c	-0.14194888
135	0xbee51ad9	-0.44747046
136	0xbe7de01d	-0.24792524
137	0xbc9e8be2	-0.01935381
138	0xbe6cf395	-0.23139794
139	0x3daa72a8	0.0832265
140	0xbec23d36	-0.37937325
141	0x3d8e1186	0.06936936
142	0x3ea77f5f	0.32714364
143	0xbe38046e	-0.1797044
144	0x3d0d1d9c	0.034452066
145	0x3e4d3fcf	0.20043872
146	0x3ecffd1a	0.4062279
147	0x3f12231b	0.57084817
148	0xbe71535f	-0.2356696
149	0xbdebca35	-0.11513177
150	0x3ea76ff6	0.32702607
151	0x3e761daa	0.24034753
152	0xbee90db1	-0.45518258
153	0xbea00110	-0.3125081
154	0xba38697a	-0.000703476
155	0xbf15cd0e	-0.58516014
156	0xbf006067	-0.501471
157	0x3e2956f5	0.16537078
158	0x3e9e6448	0.30935884
159	0xbf324820	-0.69641304
160	0x3f00f138	0.5036807
161	0xbe2ef821	-0.17086841
162	0xbd486639	-0.048925612
163	0x3e103814	0.14083892
164	0x3ef0f2c6	0.4706022
165	0xbf3d961e	-0.74057186
166	0xbc943a97	-0.018094344
167	0x3db9a3b3	0.09064426
168	0x3f092242	0.535679
169	0xbf23dae0	-0.6400585
170	0xbf27bb97	-0.65520614
171	0xbdc49e54	-0.09600511
172	0xbefd3926	-0.49457663
173	0xbe844ba2	-0.25838953
174	0x3e6ed38a	0.23322883
175	0xbe70a012	-0.23498562
176	0x3efc7977	0.4931142
177	0xbe1d5584	-0.15364653
178	0xbedb06ca	-0.42778617
179	0xbe94f3fb	-0.29092392
180	0xbf063404	-0.5242312
181	0x3f09e0d8	0.5385871
182	0x3f04c09b	0.5185639
183	0xbf8acb16	-1.0843227
184	0x3cb1b61b	0.02169328
185	0xbecf7935	-0.4052216
186	0x3ecf9550	0.40543604
187	0xbf3c6048	-0.73584414
188	0x3e768dcd	0.2407753
189	0x3f09e816	0.5386976
190	0x3eac040e	0.33596843
191	0xbeba18d5	-0.3634707
192	0x3d9566c6	0.07294993
193	0xbe93ddca	-0.2888015
194	0x3dc8ad83	0.0979872
195	0x3e013d97	0.12621151
196	0xbf4acc54	-0.7921803
197	0xbd4f840f	-0.05066305
198	0xbeb00818	-0.34381175
199	0x3eaf982b	0.34295782
200	0x3e9e003c	0.30859554
201	0x3eab6582	0.33475882
202	0xbdd61178	-0.10452551
203	0xbec64faf	-0.3873267
204	0xbde71c38	-0.11284679
205	0xbf7da646	-0.9908184
206	0x3e79b15c	0.24384063
207	0xbeef057c	-0.46683872
208	0x3e1245c9	0.14284433
209	0x3f1dbe6b	0.6161868
210	0xbd261f32	-0.040557094
211	0xbe7b148f	-0.24519561
212	0xbf17a819	-0.5924087
213	0x3dccb845	0.09996084
214	0x3d873923	0.06602695
215	0xbed7ccc3	-0.42148408
216	0x3e8f66e7	0.28008196
217	0xbf132fab	-0.5749461
218	0x3eb84a37	0.3599412
219	0xbe0366b9	-0.12832154
220	0xbc2932ba	-0.010327036
221	0xbea47828	-0.32122922
222	0xbe145aa1	-0.14487697
223	0xbe4110ee	-0.18854114
224	0x3f268a00	0.6505432
225	0xbdf83009	-0.12118537
226	0x3ec43b17	0.38326332
227	0xbdcef3b6	-0.10105078
228	0xbefa89a1	-0.48933128
229	0x3eac86c8	0.3369658
230	0xbe4ebf51	-0.20190169
231	0x3f646948	0.89223146
232	0xbed20c0e	-0.41024822
233	0x3f04de09	0.519013
234	0xbf3bb1e9	-0.73318344
235	0xbedf6e1e	-0.436387
236	0x3d83327e	0.06406115
237	0x3e38128d	0.17975827
238	0xbec3a40f	-0.38211104
239	0x3e86f28e	0.2635693
240	0x3f0af09f	0.5427341
241	0xbd78f482	-0.060780056
242	0x3f5cdef7	0.8627772
243	0x3e4bde43	0.19909005
244	0xbd10681f	-0.035255548
245	0x3db9f91c	0.09080717
246	0xbf290d08	-0.6603551
247	0x3d95be94	0.073117405
248	0xbf0a9bde	-0.54144084
249	0xbe65e7b2	-0.22451666
250	0xbeed208a	-0.46313888
251	0x3f195407	0.5989384
252	0x3db7312a	0.08944924
253	0xbe9a42de	-0.3012914
254	0xbe470546	-0.19435605
255	0x3e1617d0	0.14657521

network_body._body_endoder.seq_layers.0.bias f4 [128]
0	0xbb87cede	-0.0041445335
1	0x3be6ddb9	0.0070454744
2	0x3a639407	0.00086814206
3	0x39968bc6	0.0002871437
4	0x3bb03e81	0.005378545
5	0x3be9fdd0	0.0071408525
6	0x3b245674	0.0025075944
7	0xbc39e4c3	-0.011346045
8	0x3bcb0ba7	0.0061964574
9	0xbac5df0d	-0.0015096382
10	0xbb6d05c2	-0.0036166762
11	0x3bd054d9	0.006357771
12	0xbc015127	-0.007892883
13	0xba1783f3	-0.0005779855
14	0xba84fda0	-0.0010146387
15	0xbb1ace15	-0.002362137
16	0xb9e2e445	-0.00043276153
17	0xbaebbda2	-0.0017985592
18	0xb9245592	-0.00015672136
19	0xba81ce48	-0.0009903396
20	0x3c0006ee	0.007814152
21	0x3a5bc722	0.000838386
22	0x3bef615d	0.007305308
23	0xbbcfeb5a	-0.0063451948
24	0x3b69e277	0.0035687962
25	0x3bb53e90	0.0055311397
26	0x3af70b42	0.001884796
27	0xbb19e007	-0.0023479478
28	0xb90976be	-0.00013109573
29	0xbbfb2438	-0.0076642297
30	0x3b382849	0.0028100184
31	0xbc1912b3	-0.009342837
32	0x3af6a64f	0.0018817874
33	0x3b876fbe	0.0041331938
34	0x3b90f280	0.0044234395
35	0xbbf12b96	-0.007359932
36	0xbb7f7c9d	-0.0038984187
37	0x3bbce82a	0.005764981
38	0xbb3bfb39	-0.0028683676
39	0xbc07f047	-0.008297033
40	0x3c00c550	0.007859543
41	0x3ba33204	0.0049803276
42	0x3bc47683	0.005995573
43	0xbb9f867d	-0.004868327
44	0x3b0f9209	0.0021907112
45	0xba119a69	-0.000555432
46	0x3af5c8ab	0.001875182
47	0xbc04435b	-0.008072699
48	0x3b10fd7d	0.0022123747
49	0x3bac1d5e	0.0052525243
50	0xbb8dceaf	-0.004327617
51	0xbb5bb20e	-0.0033522877
52	0x3a461a3e	0.0007557011
53	0xbaee1821	-0.001816515
54	0x39b1dd49	0.0003392494
55	0x3b90e21f	0.004421487
56	0xbbcc590d	-0.0062362016
57	0x3b49f089	0.0030813536
58	0xb9f867be	-0.0004737954
59	0x3b9d13cd	0.00479362
60	0xbb950b23	-0.0045484467
61	0x3ba09822	0.004900948
62	0x3b959899	0.00456531
63	0xbbd43e6b	-0.0064771674
64	0x3c2910e5	0.010318969
65	0xbbcf6ca4	-0.0063300896
66	0xbbc5cc48	-0.006036315
67	0x3a205d96	0.0006117461
68	0xbbb55cbd	-0.005534737
69	0xbae079f3	-0.0017126187
70	0xbb04082a	-0.0020146468
71	0x3a35bf2b	0.00069330883
72	0xbad3d400	-0.0016161203
73	0x39a86e36	0.0003212557
74	0xbba941c5	-0.005165311
75	0xbb025f6b	-0.00198933
76	0x3bb56508	0.0055357255
77	0x3c02a45a	0.007973755
78	0xba814e93	-0.0009865336
79	0xba20a162	-0.00061275635
80	0x3b595ccf	0.003316689
81	0xbb8e29dc	-0.004338486
82	0xbbd4b441	-0.0064912145
83	0xbc068ad4	-0.00821181
84	0x3bcb319f	0.0062009837
85	0xbc1ae8f9	-0.009454959
86	0xbad49f01	-0.0016221703
87	0xbbd1c4d8	-0.0064016394
88	0x3bdb1ac7	0.0066865417
89	0x3a555a39	0.00081387494
90	0xbbd1a951	-0.006398358
91	0x3bd44bdc	0.0064787697
92	0x3be9ef90	0.007139154
93	0xbbfc7ef5	-0.007705564
94	0x3bcb5d42	0.0062061856
95	0x3b14bdfc	0.0022696247
96	0xbafa3080	-0.001908794
97	0xb978ecea	-0.0002373938
98	0xbc0b7137	-0.008510879
99	0xbb7c4f8f	-0.003849957
100	0x3b9cfd49	0.004790936
101	0xbb8e2977	-0.004338439
102	0x3be0407e	0.0068436256
103	0x3b8f56f2	0.0043743784
104	0xbbdd4c5d	-0.006753488
105	0xbc0edb1d	-0.008719233
106	0x3b4a0fd1	0.0030832181
107	0x3a168424	0.00057417364
108	0x3bf42f81	0.007451952
109	0xba84bdac	-0.0010127327
110	0x3b88029c	0.0041507017
111	0x3b4360ff	0.0029812453
112	0x3a940d09	0.0011295389
113	0xbb75e674	-0.0037521394
114	0xbb09ad93	-0.0021008
115	0xbaaa081c	-0.0012972387
116	0x3ae26d8e	0.0017275081
117	0xb98d99e2	-0.00027008267
118	0xbac5e576	-0.0015098292
119	0xbb7bd228	-0.0038424823
120	0xbabe0988	-0.001449869
121	0x3c4990e6	0.012302613
122	0x3ac8a978	0.0015309295
123	0x3b9c44bb	0.0047689355
124	0x3b1e3ba2	0.002414443
125	0xbadc9165	-0.0016827999
126	0xbbd2e5fa	-0.0064361067
127	0x3b2b9145	0.0026179117

network_body._body_endoder.seq_layers.2.weight f4 [128, 128]
0	0x3d3a735a	0.045520164
1	0xbc17d964	-0.009268139
2	0xbd5f65b1	-0.05454034
3	0xbbd5fd84	-0.0065304656
4	0xbddc5219	-0.107578464
5	0x3c9ce4df	0.019152103
6	0x3d63deda	0.05563245
7	0x3cfcead2	0.03087369
8	0x3df1a91e	0.11799835
9	0x3e70c6dc	0.23513359
10	0x3e0c013e	0.13672349
11	0x3d5c0ada	0.053721286
12	0xbd8a67d1	-0.06758083
13	0xbe264470	-0.16237044
14	0xbca3db3c	-0.020002
15	0xbc9b43bf	-0.018953202
16	0x3de5ad0a	0.11214645
17	0x3e4e6102	0.20154193
18	0x3d0c4210	0.03424269
19	0x3de9ba43	0.1141248
20	0x3aa0d377	0.0012270053
21	0x3deda4c0	0.11603689
22	0xbdc7832a	-0.097418144
23	0xbc8d9f56	-0.017287891
24	0x3ccc34c5	0.024927506
25	0x3e432809	0.19058241
26	0x3dbb0440	0.0913167
27	0x3d99f501	0.07517434
28	0xbd5796fa	-0.052634217
29	0xbdab7738	-0.083723485
30	0x3e0411cc	0.12897414
31	0x3cd8da14	0.026471175
32	0xbd9d5aef	-0.0768336
33	0x3da950bb	0.08267351
34	0xbd2de9d3	-0.04245932
35	0xbd339733	-0.043845367
36	0xbd4a48ba	-0.049385764
37	0xbcb7a1c1	-0.022415997
38	0xbd329ddb	-0.043607574
39	0x3c9bc97f	0.01901698
40	0xbe06fcda	-0.13182393
41	0x3d36a78b	0.044593375
42	0x3de62508	0.11237532
43	0xbd2eb778	-0.04265544
44	0x3dd75c55	0.10515658
45	0x3d8eb528	0.069681466
46	0xbd963f06	-0.073362395
47	0xbd3e1fc3	-0.04641701
48	0x3ddde9e6	0.10835628
49	0xbd01e092	-0.031708308
50	0x3e74d95a	0.23911038
51	0xbd0f7d41	-0.03503156
52	0xbe06fe6f	-0.13182996
53	0x3d3c0103	0.045899402
54	0x3d8294c2	0.063760296
55	0xbcb4c656	-0.02206723
56	0x3d0bc0cc	0.034119412
57	0x3d7ec7ee	0.062202387
58	0xbd41ea05	-0.04734232
59	0x3d3dad64	0.046307936
60	0x3cb6114c	0.022225045
61	0xbd66997d	-0.05629872
62	0x3d230534	0.039799884
63	0x3e0cc477	0.1374682
64	0x3c963ffc	0.018341057
65	0x3d8228e9	0.06355459
66	0xbda984a1	-0.0827725
67	0x3d8524fc	0.06501195
68	0x3d0fff17	0.035155382
69	0x3d3dae51	0.04630882
70	0xbd3a163f	-0.04543137
71	0x3c892797	0.01674251
72	0x3ce7b17e	0.028282877
73	0x3d515d17	0.051114168
74	0x3cf6216d	0.030045236
75	0xbd58b5a6	-0.05290761
76	0xbd0d2eff	-0.034468647
77	0x3e4794ff	0.19490431
78	0xbbbd6259	-0.005779546
79	0xbe0cba11	-0.13742854
80	0x3c4f1f74	0.012641776
81	0x3d5de22d	0.054170776
82	0xbd35183d	-0.04421257
83	0x3cd3d885	0.02586008
84	0x3d1d8ac4	0.038462415
85	0x3d0f5c60	0.035000205
86	0xbdbdff80	-0.092772484
87	0xbd260460	-0.040531516
88	0x3c57ffef	0.013183578
89	0x3d52f7d8	0.051505893
90	0x3d95d8fe	0.073167786
91	0xbd87e7f9	-0.06636042
92	0x3dea3b0c	0.114370435
93	0x3d476fe7	0.048690703
94	0x3d8ec75d	0.06971619
95	0xbd3619e0	-0.04445827
96	0xbc3ca346	-0.011513537
97	0xbbbdb9ca	-0.00578997
98	0x3d566a04	0.052347198
99	0x3d9ab280	0.075535774
100	0x3dbb5a55	0.09148089
101	0x3e07c8dd	0.13260217
102	0x3e0e506c	0.13897866
103	0xbc012484	-0.007882241
104	0xbe0ff31c	-0.14057583
105	0xbe5d344a	-0.21601978
106	0x3d9c9fdf	0.076476805
107	0xbdb78a29	-0.08961899
108	0x3d332f75	0.04374643
109	0x3cdf2f49	0.027244227
110	0x3d915ba5	0.07097558
111	0xbd95f9e2	-0.07323052
112	0xbe0538e3	-0.13009982
113	0x3cbd2db7	0.023093088
114	0xbd0cf008	-0.0344086
115	0xbdd0e020	-0.101989985
116	0x3bda96d6	0.006670813
117	0xbd553fdb	-0.05206285
118	0xbd4bbea6	-0.049742363
119	0x3d2e3e8f	0.04254013
120	0x3e0a3274	0.13495809
121	0x3d6cefcd	0.05784588
122	0x3bcf7b80	0.006331861
123	0x3c6da122	0.014503749
124	0x3e44d601	0.19222261
125	0x3ce280cd	0.027649308
126	0xbe187b04	-0.14890677
127	0xbc04f797	-0.008115671
128	0xbd63c9fd	-0.055612553
129	0xbdc52323	-0.096258424
130	0xbdb8e3d5	-0.090278305
131	0xbd976170	-0.073916316
132	0x3dc03fce	0.0938717
133	0x3d58f96a	0.052972235
134	0xbdd28415	-0.10279099
135	0x3e04ef6f	0.12981962
136	0x3bcd9874	0.0062742773
137	0x3e1dfa04	0.15427405
138	0x3d238896	0.03992518
139	0x3cd8e673	0.026477074
140	0x3d9fcf9f	0.078032725
141	0x3c8b6f5a	0.01702087
142	0xbdd7a677	-0.105297975
143	0xbc747a6a	-0.014921764
144	0x3d02b8a2	0.03191436
145	0xbd991887	-0.07475381
146	0x3d939fe3	0.0720823
147	0xbd56f2b5	-0.052477557
148	0x3d42acda	0.047528125
149	0xbcaa668d	-0.020800853
150	0xbd5f1b0b	-0.05446915
151	0xbcf4ee2c	-0.029898725
152	0xbd897a41	-0.06712771
153	0xbde18036	-0.110107824
154	0x3dc9ca9f	0.098531
155	0xbd33cf36	-0.043898784
156	0x3e0c1d1c	0.1368298
157	0xbce14d71	-0.027502747
158	0xbd868059	-0.06567449
159	0x3dbd2bd5	0.09236876
160	0xbde4cafd	-0.111715294
161	0xbe0cc6ec	-0.13747758
162	0xbdc5edf7	-0.09664529
163	0xbdf47174	-0.11935702
164	0xbe0213ef	-0.12702917
165	0x3d88f60e	0.06687556
166	0x3e3839b9	0.1799077
167	0xbdce5d9d	-0.10076449
168	0x3dc9dca4	0.09856537
169	0xba7d2dcc	-0.00096580083
170	0xbd7dce13	-0.061964106
171	0x3c943097	0.018089576
172	0xbce07491	-0.027399333
173	0xbd81699c	-0.063189715
174	0x3d908800	0.0705719
175	0xbd2b8808	-0.041877776
176	0xbd1429e5	-0.036172766
177	0x3d91c1c7	0.07117038
178	0xbe377d86	-0.17918977
179	0xbdc278b4	-0.094956785
180	0x3d849b85	0.064749755
181	0xbe5a7a2c	-0.21335667
182	0x3d8e316c	0.0694302
183	0xbcf26dea	-0.029593427
184	0x3e553365	0.20820387
185	0xbdd5a58e	-0.10431968
186	0x3e509f54	0.20373279
187	0x3d524bb1	0.051341716
188	0xbd8328ac	-0.06404242
189	0xbd808b99	-0.06276626
190	0x3c62d601	0.013844968
191	0xbd07b488	-0.033131152
192	0x3cd0612d	0.025436962
193	0xbe26e2ea	-0.16297498
194	0x3b52770a	0.003211441
195	0xbd1cf7f8	-0.03832242
196	0xbd4e4e55	-0.050367672
197	0xbc4de721	-0.012567312
198	0x3d212162	0.039338477
199	0xbd600405	-0.054691333
200	0xbe0b0268	-0.13575137
201	0xbc9d69ae	-0.019215431
202	0x3dc76831	0.0973667
203	0xbd20e4b2	-0.0392806
204	0x3dc75189	0.097323485
205	0x3b0b5276	0.0021258867
206	0x3c647df8	0.013946049
207	0xbe0a8d1e	-0.13530394
208	0xbbe7836c	-0.0070652273
209	0x3d77f5d7	0.060537186
210	0x3d802721	0.06257463
211	0xbd6a6261	-0.057222728
212	0xbe3b598f	-0.18295883
213	0xbdc8c43f	-0.09803056
214	0x3d4e1895	0.050316412
215	0x3d3d16d6	0.046164356
216	0x3ddfd265	0.109288014
217	0xbe1e813c	-0.15478987
218	0x3dff4c36	0.12465708
219	0xbd1eb8f6	-0.03875061
220	0x3d3da3a2	0.04629863
221	0x3dadc66e	0.08485113
222	0xbda5cd4b	-0.08095797
223	0x3d370d98	0.0446907
224	0x3d7c50a6	0.06160035
225	0xbbafa05c	-0.0053596925
226	0xbd30d3c1	-0.043170694
227	0x3e05d30b	0.13068788
228	0x3ca598de	0.020214494
229	0x3dc060c8	0.093934596
230	0x3cdba625	0.026812622
231	0xbd0983a8	-0.033572823
232	0xbc1bc23b	-0.009506757
233	0x3b8ca967	0.0042926553
234	0xbdd47f5f	-0.103758566
235	0x3db9b0dd	0.09066937
236	0xbd5520a2	-0.052033074
237	0xbc856157	-0.016281767
238	0xbb9db4f0	-0.004812829
239	0xbdf3eff5	-0.119110025
240	0xbb4e1e9f	-0.0031451357
241	0xbe1cd634	-0.15316087
242	0xbd6f0bb2	-0.058360763
243	0xbe153713	-0.1457179
244	0x3d45113c	0.04811214
245	0x3cb05f67	0.021529866
246	0x3ce257c8	0.027629748
247	0xbdbaf9f6	-0.091297075
248	0x3d64575e	0.055747382
249	0x3cb8fd04	0.022581585
250	0x3d1179f4	0.035516694
251	0xbb3bc6e4	-0.0028652484
252	0x3c7e5a48	0.015524454
253	0xbdb99da9	-0.090632744
254	0x3cddfabe	0.027097102
255	0x3bfa922b	0.007646819

network_body._body_endoder.seq_layers.2.bias f4 [128]
0	0x3b4dda83	0.003141076
1	0x3b77d7d3	0.003781785
2	0xbbbb3029	-0.0057125282
3	0x3bf0bb11	0.007346519
4	0x3c0fa5cb	0.0087675555
5	0xbac29aa9	-0.0014847118
6	0x3b5b9ed6	0.0033511422
7	0xbb96c1f9	-0.00460076
8	0x3bd2fc29	0.0064387512
9	0x3a9556cd	0.0011393667
10	0x3ae27f9b	0.0017280461
11	0x3be9207e	0.007114469
12	0xbbc46545	-0.0059935176
13	0x3b34471e	0.002750821
14	0x3c19d4ef	0.009389146
15	0xbb9fbf20	-0.004875079
16	0x3a984e34	0.0011619986
17	0xbb83084e	-0.0039987927
18	0x3ba54590	0.005043693
19	0x3b77df8a	0.0037822449
20	0xbae963dd	-0.0017806251
21	0x3b08dc40	0.0020883232
22	0xbaae947f	-0.0013319402
23	0xbb434acd	-0.0029799223
24	0xbb758337	-0.0037462243
25	0x3b2c1b33	0.002626133
26	0x3a25194a	0.0006298019
27	0x3be5e9d1	0.0070163985
28	0xbba1f2c9	-0.0049422723
29	0xbbf4943a	-0.007463959
30	0xbb884755	-0.004158894
31	0x3b2a3f44	0.002597765
32	0x3b83a6dc	0.004017694
33	0x3b8d5f0c	0.004314309
34	0xbbd69906	-0.0065490035
35	0x3c04e231	0.008110569
36	0xbba90d33	-0.005159044
37	0xbb064f82	-0.0020494168
38	0x3aaaa641	0.0013019518
39	0xba6ea2fc	-0.0009103266
40	0xbad12bc0	-0.0015958473
41	0x3bee8d6c	0.0072800424
42	0xbb9a6705	-0.004711988
43	0x3c10e72c	0.008844178
44	0xbb207be0	-0.0024487898
45	0x3bed224b	0.007236754
46	0xba23fa85	-0.0006255287
47	0x3a3af294	0.0007131484
48	0xbbc240dc	-0.005928142
49	0x3bb29ee9	0.0054510725
50	0x3bc5c4cd	0.0060354234
51	0x3b8edf14	0.004360089
52	0x3bfd0766	0.007721829
53	0xbb704cf9	-0.0036666973
54	0x3bc1d46a	0.0059152143
55	0xba9dd87e	-0.0012042669
56	0x3b43a31a	0.0029851855
57	0x3b29197d	0.0025802546
58	0xbc029391	-0.007969753
59	0x3b6f4f67	0.0036515833
60	0xbbc95e20	-0.006145254
61	0xbb9d1748	-0.004794035
62	0xbb2994ca	-0.0025876039
63	0xbbb81ed8	-0.0056189112
64	0xbbc9b0b7	-0.0061550993
65	0xbb814ad8	-0.0039456896
66	0xbc00a357	-0.007851443
67	0x3ba6164a	0.005068575
68	0x3b9f5023	0.004861848
69	0xbb20c0fd	-0.0024529092
70	0xbb35ad3d	-0.0027721666
71	0x3c0ee056	0.008720478
72	0xbabe8a08	-0.0014536986
73	0xbb2f9668	-0.002679253
74	0xbb2bf7e2	-0.002624028
75	0xbbb4e080	-0.0055199265
76	0xbbd7b9ff	-0.0065834518
77	0x3a75a1c4	0.0009370113
78	0xbb8ab49c	-0.004232956
79	0xb8b91e2c	-8.8271074e-05
80	0xbb316253	-0.0027066662
81	0x3c63425f	0.013870805
82	0x3ad915de	0.0016562303
83	0x3bad82cd	0.0052951337
84	0xbb66ed15	-0.0035236527
85	0xbb41ea4d	-0.0029589117
86	0x3b0b4503	0.002125085
87	0x3a7315fd	0.0009272991
88	0x3b468136	0.0030289418
89	0x3b3c7de5	0.0028761562
90	0xbbeef369	-0.0072922003
91	0x3bbbf8d0	0.005736448
92	0x3ac15a0c	0.0014751568
93	0xbb77bec5	-0.0037802916
94	0x3b8351a6	0.004007536
95	0x3b7678ab	0.0037608545
96	0x3bd1c782	0.006401957
97	0x3b91c107	0.0044480595
98	0x3b42a0b8	0.0029697847
99	0xba008bad	-0.0004903626
100	0xbbd20c96	-0.0064101918
101	0x3acae480	0.0015479475
102	0xbbb9efaa	-0.005674322
103	0xbb87c6f2	-0.004143589
104	0xbb6cab86	-0.0036112978
105	0xbb8f8e68	-0.00438099
106	0xbb94b5b6	-0.004538263
107	0x3bf29e58	0.00740413
108	0x3ac83313	0.001527401
109	0x3a94ac2f	0.0011342819
110	0xbb8bbe51	-0.004264631
111	0x3b2e4955	0.0026594002
112	0x3b37b9f7	0.0028034428
113	0x3a7c37fa	0.0009621378
114	0xbafbfdd0	-0.0019225422
115	0xbbc86ae5	-0.0061162584
116	0x3b67db9b	0.0035378698
117	0x3b8b2520	0.004246369
118	0x3ba7d59d	0.0051219002
119	0x3b5b2c2b	0.0033443074
120	0x3b0cc002	0.002147675
121	0x3bf6186c	0.0075102355
122	0x3b8954a7	0.0041909995
123	0xbb882439	-0.0041547087
124	0xbaa9e6cf	-0.0012962463
125	0x3bb032fc	0.0053771716
126	0xbc024a92	-0.007952349
127	0xba7de38f	-0.0009685093

action_model._continuous_distribution.log_sigma f4 [1, 3]
0	0xbbd861c6	-0.0066034524
1	0xbb3acb2d	-0.002850245
2	0xbc0b2c39	-0.00849443

action_model._continuous_distribution.mu.weight f4 [3, 128]
0	0x3c975f4c	0.018478058
1	0xbc948ea3	-0.01813442
2	0x3d19098d	0.037362624
3	0xbcbb7d50	-0.022886902
4	0xbb71e3e8	-0.0036909524
5	0xba71fcb5	-0.00092310767
6	0x3c9569f1	0.018238993
7	0xbca3a63d	-0.01997673
8	0x3cc9db34	0.024640657
9	0xbc8dfe99	-0.017333316
10	0xbbf2ea3b	-0.0074131764
11	0x3b172dd4	0.0023068087
12	0xbc614afc	-0.013750788
13	0x3d15141f	0.036396142
14	0xbbd81056	-0.0065937443
15	0x3c4e7804	0.012601856
16	0x3c7b5014	0.015338916
17	0x3bb994f1	0.005663507
18	0x3c764f70	0.015033588
19	0xbc116a99	-0.0088755125
20	0x3c85c6ea	0.016330201
21	0x3cb76d91	0.022391113
22	0xbc286641	-0.0102782855
23	0x3bf56b09	0.007489566
24	0x3c191ac4	0.00934476
25	0x3d0bea41	0.03415895
26	0x3cf5f23b	0.030022731
27	0x3ba65943	0.005076559
28	0x3c090d3f	0.0083649745
29	0xbbe3776e	-0.0069417274
30	0x3c3ecaa9	0.011644998
31	0x3c3ccea9	0.011523881
32	0xbd1e5320	-0.038653493
33	0xba14ff8a	-0.000568383
34	0xbb8dee9d	-0.0043314234
35	0x3c10ecd1	0.008845524
36	0x3b75189e	0.0037398706
37	0xbca22505	-0.019793043
38	0x3c6b1b47	0.014349765
39	0xbd23cab5	-0.03998824
40	0x3ca9181f	0.020641385
41	0xbb8d44e9	-0.0043111932
42	0x3c26844e	0.01016338
43	0x3cae5a6d	0.021283353
44	0x3bdc73f7	0.0067276913
45	0xb993ac04	-0.00028166187
46	0x3c6c9c56	0.01444157
47	0xbd18d4f6	-0.03731247
48	0xbc58332c	-0.013195794
49	0x3d0da22a	0.03457848
50	0xbc1c56a8	-0.009542145
51	0x3b23f9b7	0.0025020668
52	0xbc58c10f	-0.0132296225
53	0x3b8c52d0	0.004282333
54	0xbcca462e	-0.024691667
55	0x3ca3b554	0.019983925
56	0xbc86b137	-0.016441924
57	0x3c7453c2	0.014912548
58	0xbc4d9b51	-0.012549237
59	0x3cde35a7	0.027125193
60	0xbc1ead4a	-0.00968487
61	0xb9c81606	-0.0003816338
62	0xbca5743d	-0.020197028
63	0x3bbd8d59	0.005784672
64	0xbba48259	-0.0050204215
65	0x3c2121f6	0.009834757
66	0x3b01c0d7	0.001979878
67	0xbcb7bdb4	-0.022429325
68	0x3c9ff440	0.019525647
69	0xbb7e667e	-0.0038818414
70	0x3c594d28	0.013263024
71	0x3c6e39aa	0.014540115
72	0xbb9aa942	-0.004719884
73	0x3cc25ce8	0.023725942
74	0x3cc21d8e	0.023695733
75	0xbcd0f5a8	-0.025507763
76	0x3c154a51	0.009111957
77	0xbcb28ff3	-0.021797156
78	0x3c22d649	0.009938785
79	0xbc6921b2	-0.014229225
80	0x3ab55d31	0.0013836977
81	0x3b3d9a04	0.0028930912
82	0xbccea5c4	-0.025225528
83	0xbbf3ca56	-0.007439892
84	0xb9d38fdf	-0.00040352248
85	0x3caa6675	0.020800808
86	0x3b0a97b7	0.0021147558
87	0xbca4b6b7	-0.020106656
88	0x3b34ea71	0.0027605558
89	0xbc07965f	-0.008275597
90	0x3d4300d0	0.047608197
91	0xbca0d77f	-0.019634007
92	0x3cceefed	0.02526089
93	0xbc3934ec	-0.011304121
94	0x3c0d79a6	0.00863496
95	0xba9e3e32	-0.0012072979
96	0xbc904734	-0.017612077
97	0xbbe9c2c8	-0.0071338154
98	0xbc561d34	-0.013068486
99	0x3cf8d9a1	0.030377211
100	0xbbc10acf	-0.005891181
101	0x3ca77c3f	0.020444987
102	0xbb9048f9	-0.0044032303
103	0x3c247523	0.010037693
104	0xbc9196c4	-0.017772086
105	0xbc81e031	-0.015853973
106	0xbd14206b	-0.03616373
107	0xbaf5fde9	-0.0018767688
108	0x3cdcc33f	0.02694857
109	0xbce66a30	-0.028126806
110	0x3bb5b719	0.0055455086
111	0x3cb94633	0.022616481
112	0x3cdfe7a4	0.027332135
113	0xbc015572	-0.007893907
114	0xbd0e0447	-0.034672048
115	0xbd00b7eb	-0.031425398
116	0x3c86d6eb	0.016459903
117	0xbb53aac3	-0.0032297827
118	0xbc3d64a8	-0.011559643
119	0x3bce654e	0.0062986976
120	0x3d12697e	0.035745136
121	0xbc8fa10f	-0.017532853
122	0xbbbe7e97	-0.0058134305
123	0x3c8eeb58	0.017446205
124	0xbc26b19e	-0.010174183
125	0x3c6b08c8	0.014345355
126	0x3c8cc964	0.017185874
127	0xbc0c90ea	-0.008579472
128	0x3c08706a	0.008327583
129	0x3c76d50f	0.015065446
130	0xbd47efb2	-0.048812576
131	0x3cc1c6d7	0.023654385
132	0x3cdcdb4e	0.026960041
133	0x3ba55378	0.0050453506
134	0xbba67d8c	-0.0050808843
135	0xbc45f101	-0.012081386
136	0x3be553da	0.0069985213
137	0x3bbaf971	0.0057060053
138	0xbc5eb605	-0.0135932015
139	0x3d2cffa7	0.042235997
140	0xbcc60e53	-0.024176752
141	0x3c11a527	0.008889473
142	0x3c133917	0.008985779
143	0xbd300175	-0.04297014
144	0x3bbe4d78	0.005807575
145	0xbc829076	-0.015938025
146	0x3cb1ae8f	0.021689681
147	0x3c6afa4e	0.014341904
148	0xbc3ce4bf	-0.011529147
149	0x3c903a81	0.017606022
150	0xbc3374f3	-0.010953176
151	0xbc5827c8	-0.013193078
152	0x3ac5e588	0.0015098313
153	0x3d2e7a72	0.04259724
154	0xbc83fce0	-0.016111791
155	0x3c5ffb03	0.013670686
156	0xbc65008b	-0.01397718
157	0xbcc0dddf	-0.023543296
158	0xbcefa8b1	-0.029255243
159	0x3c3fe6c9	0.011712738
160	0x3c92f08e	0.017936971
161	0x3b225638	0.0024770629
162	0xbba5c8f6	-0.005059357
163	0x3d32700e	0.043563895
164	0xbd0643ce	-0.032779507
165	0xbbdb1d26	-0.0066868244
166	0x3c632b81	0.013865353
167	0x3b19c984	0.002346606
168	0xbc91325c	-0.017724209
169	0x3cd70bb6	0.026250701
170	0xbd177974	-0.03698106
171	0x3c8094f8	0.015696034
172	0x3bd68e31	0.0065477123
173	0x3b28382b	0.0025668244
174	0x3b027288	0.0019904692
175	0x3c70db53	0.0147007285
176	0xbc2b3090	-0.01044859
177	0xbbc9b23d	-0.006155281
178	0x3c0e188b	0.008672844
179	0xbb438435	-0.002983344
180	0xbbac7413	-0.0052628606
181	0xbc5cfee7	-0.013488508
182	0x3cf0c07f	0.029388664
183	0xbc95a044	-0.018264897
184	0x3c2fd50c	0.010731947
185	0x3b95053e	0.004547744
186	0xbc708b3e	-0.014681635
187	0x3d2b5b0f	0.041834887
188	0x3ba71ee6	0.005100119
189	0xbd06a26d	-0.032869745
190	0xbc12941b	-0.008946444
191	0xbcf60abf	-0.030034421
192	0xbbc06165	-0.0058709853
193	0xbcdacebb	-0.026709905
194	0xbc742375	-0.014901032
195	0x3c8d2f2c	0.017234407
196	0x3c99893a	0.018742193
197	0xbc9195c0	-0.017771602
198	0x39fe8152	0.00048543006
199	0x3c864609	0.016390817
200	0x3ba1df4e	0.00493995
201	0xbc1e0b03	-0.00964618
202	0xbba15fcc	-0.00492475
203	0xbc58618a	-0.013206849
204	0xbd221abb	-0.039576273
205	0x3b5c37d9	0.0033602624
206	0xbbc39b8b	-0.00596947
207	0xbb5d2540	-0.0033744127
208	0x3a81851d	0.000988159
209	0x3b267c75	0.0025403772
210	0x3b7e7e8d	0.0038832754
211	0x3c4d52ba	0.012531931
212	0xba643599	-0.00087054964
213	0xbc9d1bbc	-0.019178264
214	0x3c10fd07	0.008849389
215	0x39da2b56	0.00041612488
216	0xbaa62355	-0.0012675325
217	0x3cca6763	0.024707502
218	0xbcbe4086	-0.023224127
219	0x3cf5d0ff	0.030006884
220	0xbbf453ae	-0.0074562645
221	0xbbf76e4b	-0.0075509897
222	0x3bd76d28	0.0065742917
223	0x3b5016a0	0.0031751767
224	0x3cc24abf	0.023717282
225	0x3c834da0	0.016028225
226	0x3ca3c0d8	0.019989416
227	0x3b2799e7	0.002557391
228	0xbd2fdc6c	-0.04293482
229	0x3b9d8153	0.0048066764
230	0xbc906849	-0.017627852
231	0xbbcc469f	-0.0062340046
232	0x3bad81fd	0.005295037
233	0xbb50e365	-0.003187382
234	0xbc7e6fdf	-0.015529602
235	0x3c66433b	0.014054115
236	0x3a9ff0aa	0.0012202461
237	0x3c81278c	0.015765928
238	0xbb82339f	-0.003973439
239	0x3cad34a1	0.02114326
240	0x3beab782	0.007162989
241	0x3a7459ea	0.00093212596
242	0xbbd335c8	-0.00644562
243	0xbc5927f2	-0.013254153
244	0x3c336019	0.010948204
245	0x3c930f0f	0.017951516
246	0x3ce21ae9	0.027600722
247	0xba37cfb9	-0.0007011849
248	0x3c8670ac	0.016411148
249	0x3d1ed9bb	0.038781863
250	0x3c283bb9	0.010268145
251	0xbc6f34df	-0.014600008
252	0xbb236310	-0.0024930872
253	0x3cb82712	0.022479568
254	0xbc9ef459	-0.019403623
255	0x3bfa538a	0.007639353

action_model._continuous_distribution.mu.bias f4 [3]
0	0x3ab03758	0.0013444228
1	0x3bbf0fa3	0.0058307215
2	0x3b04232d	0.0020162568

exp_avg f4 [128, 6]
0	0xb7dbf4c7	-2.6220818e-05
1	0xb6ca3cdc	-6.027154e-06
2	0x36a56278	4.9288465e-06
3	0xb7110fb4	-8.64633e-06
4	0x377f1db6	1.5206102e-05
5	0x37a5013b	1.9670106e-05
6	0x382d724c	4.135286e-05
7	0xb82f4534	-4.17877e-05
8	0xb780df2b	-1.536271e-05
9	0xb7f4477b	-2.9120352e-05
10	0x37472379	1.1869583e-05
11	0xb81416b0	-3.530708e-05
12	0xba170e1e	-0.00057622965
13	0xb99dc9eb	-0.00030095814
14	0x37ea4d5c	2.7930997e-05
15	0xb5cffae8	-1.5495725e-06
16	0xb72dc89b	-1.0358311e-05
17	0x37cdcb8c	2.4532688e-05
18	0x3b8298ef	0.0039855163
19	0xbb4b5b9f	-0.0031029952
20	0xbb777994	-0.0037761675
21	0xb6785c6d	-3.7008679e-06
22	0xb724e45a	-9.828329e-06
23	0x37b5f88d	2.1692622e-05
24	0xb9710fa2	-0.00022989375
25	0xb973ee9a	-0.00023263172
26	0x3786a712	1.6051843e-05
27	0xb62bd7a0	-2.5606496e-06
28	0xb5be9830	-1.4200396e-06
29	0xb74e8bb1	-1.2311081e-05
30	0xb8c1af4f	-9.235611e-05
31	0x38388f99	4.4002754e-05
32	0xb724a106	-9.812653e-06
33	0xb72751c6	-9.973015e-06
34	0xb6c7b9db	-5.9522986e-06
35	0x382cb78a	4.117893e-05
36	0xbbb491d7	-0.0055105495
37	0x3bbd90ae	0.0057850694
38	0x3bbfd238	0.0058539174
39	0xb52a9fb0	-6.356231e-07
40	0x36994e17	4.568846e-06
41	0x37f398c3	2.9038993e-05
42	0x3b444f08	0.0029954333
43	0xbb05d218	-0.0020419415
44	0xbb2fa164	-0.0026799077
45	0x3784ff88	1.5854617e-05
46	0x36b8e063	5.5097494e-06
47	0x378895fc	1.6282305e-05
48	0x379af75c	1.8473416e-05
49	0x38a516e8	7.87208e-05
50	0x385c42aa	5.2514173e-05
51	0x3862aa2a	5.4041077e-05
52	0xb800429c	-3.0579613e-05
53	0x37e10ae7	2.6827167e-05
54	0x370f9360	8.557778e-06
55	0x36f82b7e	7.396039e-06
56	0x37a12e2b	1.9214194e-05
57	0x36c328b3	5.816191e-06
58	0x3680208f	3.8184876e-06
59	0xb65e963e	-3.316803e-06
60	0x39d17700	0.00039952248
61	0xba43cc2c	-0.00074690836
62	0xba162cbd	-0.00057287124
63	0xb7799fb2	-1.48787385e-05
64	0x34557088	1.987811e-07
65	0xb77ce60b	-1.50739315e-05
66	0xb64d0d17	-3.0555e-06
67	0xb5e2f6b4	-1.6910112e-06
68	0x372b04cc	1.0193511e-05
69	0xb6e4fee1	-6.8246013e-06
70	0xb65a741f	-3.2552123e-06
71	0xb5ae70a0	-1.2996788e-06
72	0x38d4276a	0.00010116289
73	0xb8fab2b4	-0.00011954215
74	0xb929e909	-0.00016203908
75	0x3721e95b	9.65068e-06
76	0x369bb923	4.6409127e-06
77	0x36ca1531	6.022536e-06
78	0xbbbd4742	-0.005776317
79	0x3b9db26d	0.00481253
80	0x3bb462d8	0.005504947
81	0xb67df100	-3.7840218e-06
82	0x35dde7e9	1.6533278e-06
83	0xb7108dcd	-8.616084e-06
84	0x3890b04e	6.8992944e-05
85	0x39452b86	0.00018803598
86	0x38883533	6.4948945e-05
87	0x37a467cb	1.9598656e-05
88	0x3705d8a7	7.977861e-06
89	0x38103680	3.4383032e-05
90	0x3aa9948c	0.0012937947
91	0xba6b9b57	-0.0008987686
92	0xba96a040	-0.001149185
93	0x374a855d	1.2071189e-05
94	0x36038af6	1.9601407e-06
95	0x3758376a	1.2887505e-05
96	0x36e993e8	6.9611597e-06
97	0x37042fb0	7.878916e-06
98	0xb78b6bda	-1.6620314e-05
99	0xb719b6cc	-9.162071e-06
100	0x36536d7e	3.1505183e-06
101	0xb6c3aae4	-5.831347e-06
102	0xbc995e77	-0.018721802
103	0x3c9098f9	0.017651068
104	0x3c9a2bfd	0.018819803
105	0xb7d6ba63	-2.5597581e-05
106	0x373c9d96	1.1242364e-05
107	0x37046c7c	7.893072e-06
108	0xbbacdb51	-0.005275168
109	0x3b9c4eca	0.0047701346
110	0x3ba9c68d	0.00518114
111	0xb5b2154c	-1.3268232e-06
112	0x3740492d	1.1461129e-05
113	0x372d32d4	1.0323438e-05
114	0x3bc2d89d	0.0059462325
115	0xbb9c9c8a	-0.004779403
116	0xbbb789c8	-0.0056011416
117	0x3818e064	3.6448604e-05
118	0x3704cb6b	7.915175e-06
119	0x3811c9ee	3.4758756e-05
120	0xb738dabe	-1.10181845e-05
121	0x370f1629	8.528624e-06
122	0x37ba178c	2.2183893e-05
123	0x37ea3822	2.7921113e-05
124	0xb7609e51	-1.3388301e-05
125	0x371982d3	9.1499705e-06
126	0x3bebc448	0.0071950294
127	0xbbcccbd3	-0.0062498837
128	0xbbe3aab2	-0.0069478387
129	0x3776a0c7	1.47001765e-05
130	0xb6d096da	-6.2164445e-06
131	0x36fbfa10	7.509494e-06
132	0xbbd7f965	-0.0065910094
133	0x3be3f31f	0.0069564725
134	0x3be4a255	0.0069773593
135	0x37bd2f7a	2.2552664e-05
136	0x36e1646b	6.7172127e-06
137	0x380bf306	3.3366516e-05
138	0xbc79db40	-0.015250027
139	0x3c4d6874	0.012537111
140	0x3c6cf99e	0.01446381
141	0xb87a022a	-5.960666e-05
142	0x3713492b	8.7789185e-06
143	0xb888ca0c	-6.5226195e-05
144	0x39c7ca4e	0.00038106967
145	0x39cd6af3	0.0003918033
146	0x38ef018a	0.00011396695
147	0x38a96cc9	8.078811e-05
148	0xb7207615	-9.564236e-06
149	0x38747a0e	5.8287806e-05
150	0x3b2827f7	0.0025658587
151	0xbaf5d567	-0.0018755615
152	0xbb14e5a3	-0.0022719882
153	0x381a53e2	3.6794583e-05
154	0xb663a44d	-3.3921272e-06
155	0x3781b5c9	1.5462649e-05
156	0xb7d6b1a8	-2.5593516e-05
157	0xb79455bf	-1.7682903e-05
158	0xb72d3d64	-1.0325897e-05
159	0x35f17670	1.7990369e-06
160	0xb79886da	-1.8182607e-05
161	0xb76d173a	-1.4131709e-05
162	0xb95d3f50	-0.00021099788
163	0xb9ea1e64	-0.000446546
164	0xb8ff1c93	-0.0001216467
165	0xb8df30cd	-0.000106425585
166	0x37e4a105	2.7254699e-05
167	0xb8bf7c6a	-9.130764e-05
168	0xbaec7959	-0.0018041536
169	0x3a522851	0.0008016872
170	0x3ab83386	0.0014053441
171	0xb78316c8	-1.5627025e-05
172	0x362103a4	2.3992989e-06
173	0xb80489d9	-3.1599633e-05
174	0x38a534d1	7.877651e-05
175	0x3883308f	6.2556115e-05
176	0x3803fd57	3.1468775e-05
177	0x37f10637	2.8732333e-05
178	0x36eeab55	7.1128984e-06
179	0x381cbf5e	3.7371523e-05
180	0xb9408288	-0.00018359174
181	0xb8cdd437	-9.81469e-05
182	0xb507aee0	-5.0545896e-07
183	0xb7488166	-1.1951057e-05
184	0x3786db0d	1.6076048e-05
185	0x3822112e	3.863981e-05
186	0x3ac72e00	0.0015196204
187	0xba927e17	-0.0011176494
188	0xbab025e6	-0.0013439029
189	0x379af417	1.8471894e-05
190	0x368cbdca	4.1944195e-06
191	0x38127aa8	3.4923345e-05
192	0xb8bdb440	-9.0457965e-05
193	0x3a1981af	0.0005855811
194	0x39b7a3ee	0.00035026617
195	0x37e5235b	2.7315391e-05
196	0x36769b98	3.6747424e-06
197	0x37fb1f91	2.9936231e-05
198	0x3786f7ef	1.6089498e-05
199	0x391971db	0.00014633632
200	0x38747464	5.828253e-05
201	0x37c81d6e	2.3855562e-05
202	0x36e26d28	6.7480323e-06
203	0x3863e53f	5.433452e-05
204	0x3c955dd5	0.01823322
205	0xbc742e2b	-0.014903585
206	0xbc8dd0b6	-0.017311435
207	0x389b9f47	7.420644e-05
208	0x37040eaf	7.871232e-06
209	0x387a41e2	5.9666003e-05
210	0xbbf1333d	-0.0073608444
211	0x3c01b11d	0.007915762
212	0x3c01405d	0.007888881
213	0x3796bd8d	1.796966e-05
214	0x374c286f	1.2168762e-05
215	0x386616c5	5.485748e-05
216	0xbc1a48de	-0.009416787
217	0x3c00fdc4	0.007873002
218	0x3c1359fa	0.00899362
219	0xb85259b0	-5.015143e-05
220	0xb4f9d5a4	-4.6535308e-07
221	0xb7f4a49e	-2.9163723e-05
222	0xb8984592	-7.260883e-05
223	0xb80b701d	-3.3244596e-05
224	0xb84cca23	-4.8825645e-05
225	0xb801cdf8	-3.094782e-05
226	0xb7ac1531	-2.0513866e-05
227	0xb6ffe3b1	-7.626099e-06
228	0x377a281c	1.49105e-05
229	0x38513c3b	4.9885577e-05
230	0xb7a09b1e	-1.9145718e-05
231	0xb6cde414	-6.136028e-06
232	0xb788d2ba	-1.631059e-05
233	0x37169274	8.9747955e-06
234	0xb65c3284	-3.2811959e-06
235	0x38a23224	7.7341014e-05
236	0x379757c9	1.804148e-05
237	0xb7d62496	-2.5527825e-05
238	0x37f6b7ca	2.9411069e-05
239	0x3808b79f	3.2595937e-05
240	0xbae97d8d	-0.0017813906
241	0x3860f601	5.363487e-05
242	0x3a96157d	0.0011450496
243	0xb88fdeb7	-6.860255e-05
244	0xb7f45928	-2.9128583e-05
245	0xb8b6a287	-8.708709e-05
246	0xb8319e5e	-4.234758e-05
247	0x38ac7dee	8.225055e-05
248	0x3842305d	4.6298246e-05
249	0x3790eeed	1.7277396e-05
250	0xb78bbfea	-1.6659458e-05
251	0x389afb9a	7.390157e-05
252	0x3bfa1726	0.007632154
253	0xbbe7770b	-0.0070637516
254	0xbbf9ff24	-0.007629292
255	0x368e41a8	4.239573e-06

exp_avg_sq f4 [128, 6]
0	0x329fa529	1.8585142e-08
1	0x328a775f	1.6119598e-08
2	0x322ef7c2	1.0184467e-08
3	0x323a45a5	1.084246e-08
4	0x304dc362	7.485622e-10
5	0x323f6897	1.1141444e-08
6	0x324bcb53	1.1862386e-08
7	0x3209b072	8.014569e-09
8	0x31fb22ba	7.3090094e-09
9	0x318a4b6e	4.024904e-09
10	0x2ff0c286	4.3793963e-10
11	0x31ced235	6.019287e-09
12	0x33234a26	3.8018833e-08
13	0x334fa6dc	4.83477e-08
14	0x31aaf242	4.9751927e-09
15	0x313dc744	2.761639e-09
16	0x2fc05bbf	3.4989786e-10
17	0x314f1d84	3.0139242e-09
18	0x39a3f75c	0.0003127408
19	0x395b7141	0.00020927658
20	0x3993e1f9	0.00028206388
21	0x3213974d	8.590928e-09
22	0x2fbcef41	3.4367e-10
23	0x31c461c4	5.7154654e-09
24	0x31db8fba	6.3900787e-09
25	0x323f3718	1.113019e-08
26	0x31d0ebdb	6.0804104e-09
27	0x31589f51	3.1522698e-09
28	0x2ffff608	4.6559046e-10
29	0x31ab3e85	4.9838627e-09
30	0x3295fbb5	1.7460346e-08
31	0x32a0e7b4	1.8731818e-08
32	0x32491654	1.1704817e-08
33	0x3207d639	7.906743e-09
34	0x306c477d	8.595789e-10
35	0x323c3b2a	1.0956493e-08
36	0x3abc70ab	0.0014376839
37	0x3a7c14d5	0.00096161413
38	0x3aa9dccb	0.0012959478
39	0x32fe9a45	2.9639645e-08
40	0x2fdad9dc	3.9808767e-10
41	0x32a8958e	1.9625784e-08
42	0x3964c7dc	0.00021818228
43	0x391a44fa	0.0001471228
44	0x394db476	0.0001961755
45	0x31e600d7	6.6939765e-09
46	0x2e8479ca	6.024299e-11
47	0x318a4a22	4.0247565e-09
48	0x3292bb6c	1.7081867e-08
49	0x32b359e6	2.0879224e-08
50	0x3266ef65	1.3442194e-08
51	0x32549e01	1.237595e-08
52	0x30b64875	1.3262836e-09
53	0x32538d33	1.2313921e-08
54	0x3134229f	2.6213127e-09
55	0x30ce31cb	1.5002625e-09
56	0x31106430	2.1011708e-09
57	0x3125d08d	2.4129208e-09
58	0x2f3612b9	1.6559455e-10
59	0x3108b2a4	1.989215e-09
60	0x37ade435	2.0729474e-05
61	0x3773b3fd	1.45258355e-05
62	0x379f8414	1.901578e-05
63	0x303b8ee0	6.823324e-10
64	0x2f72758f	2.2051537e-10
65	0x2fef0b3a	4.3481824e-10
66	0x323b719a	1.0910663e-08
67	0x3186f6b6	3.927961e-09
68	0x31acc462	5.028185e-09
69	0x3184fb5e	3.8702828e-09
70	0x2fbe893b	3.4658307e-10
71	0x31865ab2	3.910224e-09
72	0x33e5e2e4	1.07049146e-07
73	0x32162e11	8.741623e-09
74	0x330e3905	3.311381e-08
75	0x3191b8d1	4.2410666e-09
76	0x301134cd	5.2825727e-10
77	0x318fd1cc	4.185699e-09
78	0x3ac391ff	0.001492083
79	0x3a87b223	0.0010352771
80	0x3ab105e1	0.001350578
81	0x332eb6da	4.0678835e-08
82	0x308c4d39	1.0208289e-09
83	0x32defb1d	2.5958395e-08
84	0x31729438	3.5299887e-09
85	0x31ca1b88	5.8821037e-09
86	0x3111c279	2.1210822e-09
87	0x308022f6	9.323162e-10
88	0x2f02e6b2	1.190539e-10
89	0x30d51835	1.550467e-09
90	0x38105b17	3.441711e-05
91	0x37c3e1c0	2.3350934e-05
92	0x38022f3f	3.1038417e-05
93	0x30743836	8.8846563e-10
94	0x2db8fc9c	2.103056e-11
95	0x302da90d	6.317727e-10
96	0x31b78efa	5.3422555e-09
97	0x31322ed2	2.5929023e-09
98	0x316da652	3.4582581e-09
99	0x31d79de6	6.2752745e-09
100	0x2f4052ae	1.7491672e-10
101	0x3133f96e	2.6189713e-09
102	0x3c5ecac6	0.01359815
103	0x3c1635a4	0.009168062
104	0x3c491c29	0.01227478
105	0x3499bb1b	2.8634608e-07
106	0x3145e7e6	2.8799092e-09
107	0x343f4267	1.7812418e-07
108	0x3a9e7c13	0.001209142
109	0x3a57ba25	0.0008229337
110	0x3a8f07e4	0.0010912386
111	0x32f3fd88	2.8404216e-08
112	0x2edf9fc2	1.01692446e-10
113	0x329ebebc	1.8480357e-08
114	0x3a96c68f	0.0011503267
115	0x3a4cb766	0.0007809311
116	0x3a882500	0.0010387003
117	0x32d7b611	2.5112088e-08
118	0x2ef74552	1.1244573e-10
119	0x328d8dfe	1.6479131e-08
120	0x320fc63c	8.368769e-09
121	0x3197048c	4.3951953e-09
122	0x31ec8540	6.8836528e-09
123	0x31e47319	6.6487584e-09
124	0x300ac417	5.048277e-10
125	0x3197b380	4.415085e-09
126	0x3ad1630e	0.0015974955
127	0x3a8c9a0f	0.0010727065
128	0x3abd15db	0.0014426069
129	0x33169b46	3.5065817e-08
130	0x307d05cc	9.20491e-10
131	0x32c1d836	2.2566478e-08
132	0x3b090f45	0.0020913642
133	0x3ab8fd0e	0.0014113502
134	0x3af7be31	0.0018901286
135	0x3323dad4	3.8150418e-08
136	0x2fd9eb41	3.9639228e-10
137	0x32d73b8e	2.5056377e-08
138	0x3c052353	0.008126098
139	0x3bb51c79	0.005527076
140	0x3bf0824b	0.007339751
141	0x343b32f8	1.7434274e-07
142	0x301297fe	5.3330484e-10
143	0x33f2f7a2	1.1314047e-07
144	0x32c98ef1	2.3464482e-08
145	0x32f72763	2.8772495e-08
146	0x324075f7	1.1202693e-08
147	0x32758d92	1.4293066e-08
148	0x30a2194c	1.1794241e-09
149	0x322989a2	9.868389e-09
150	0x398dbfe4	0.00027036585
151	0x3941aaa4	0.00018469483
152	0x397f4c15	0.00024347038
153	0x327a402d	1.4566507e-08
154	0x2f28b42e	1.5343524e-10
155	0x32257a64	9.6320925e-09
156	0x331109e3	3.3769435e-08
157	0x32caaaf3	2.3593634e-08
158	0x32cd9d78	2.393675e-08
159	0x32439325	1.1383951e-08
160	0x30cc96bb	1.4885794e-09
161	0x3279617d	1.4515874e-08
162	0x3308a4ed	3.1814967e-08
163	0x338d47ba	6.578871e-08
164	0x32f9c866	2.9078546e-08
165	0x321d56b6	9.1583185e-09
166	0x30b1f4e9	1.2948053e-09
167	0x32816405	1.506306e-08
168	0x39537caa	0.00020168969
169	0x39181a27	0.00014505592
170	0x39405adb	0.00018344393
171	0x32a32719	1.8993477e-08
172	0x3063d617	8.288636e-10
173	0x3233ceb3	1.0466169e-08
174	0x31579c1b	3.1375353e-09
175	0x314ba2a9	2.963285e-09
176	0x30d9a350	1.5835244e-09
177	0x302b85ec	6.239975e-10
178	0x2ea42ff5	7.4663754e-11
179	0x30478dea	7.259745e-10
180	0x3279819d	1.4523178e-08
181	0x32ad9739	2.0208619e-08
182	0x3231560b	1.032232e-08
183	0x317a8b11	3.6458838e-09
184	0x2fe589f1	4.175287e-10
185	0x31c857f6	5.830766e-09
186	0x384a6757	4.8256796e-05
187	0x3805a767	3.1865577e-05
188	0x3836a3d6	4.3544766e-05
189	0x321bab17	9.061089e-09
190	0x3048a623	7.299567e-10
191	0x31b9ac71	5.403813e-09
192	0x37c2282e	2.3145312e-05
193	0x3785b44d	1.5938795e-05
194	0x37b035ce	2.100589e-05
195	0x315176d0	3.048104e-09
196	0x2e335a71	4.0780216e-11
197	0x30ea034b	1.7026677e-09
198	0x31826d05	3.795892e-09
199	0x3182b02c	3.8035264e-09
200	0x312a3d40	2.4773072e-09
201	0x30cb67bb	1.4799676e-09
202	0x2f1a4934	1.4032225e-10
203	0x30e2d3a0	1.6503812e-09
204	0x3c22471b	0.009904648
205	0x3bda0541	0.0066534583
206	0x3c1244e2	0.008927556
207	0x344e8144	1.9232272e-07
208	0x307c9d81	9.190089e-10
209	0x340a4b40	1.2879627e-07
210	0x3b3c1380	0.0028698146
211	0x3afec4e9	0.0019437346
212	0x3b29cd35	0.0025909666
213	0x338c4341	6.5314914e-08
214	0x2f4a8a7e	1.8420995e-10
215	0x33370698	4.2614005e-08
216	0x3b45b14b	0.003016549
217	0x3b061245	0.0020457667
218	0x3b3268e9	0.0027223176
219	0x338c44b0	6.531752e-08
220	0x2e52e354	4.795038e-11
221	0x33352ba6	4.2182045e-08
222	0x32c581d2	2.2992854e-08
223	0x32af78a1	2.0427537e-08
224	0x32945897	1.7269754e-08
225	0x322e2887	1.0137348e-08
226	0x308fcdcf	1.0463114e-09
227	0x323904fe	1.0769552e-08
228	0x321dbc93	9.18148e-09
229	0x32679607	1.3480082e-08
230	0x321c3186	9.091655e-09
231	0x321a52d8	8.982816e-09
232	0x302fa565	6.389967e-10
233	0x31aefee7	5.0930455e-09
234	0x326ba7af	1.3716927e-08
235	0x32129b86	8.53368e-09
236	0x32338a1c	1.0450574e-08
237	0x32073b4e	7.8715185e-09
238	0x308c9010	1.0227286e-09
239	0x32204b8e	9.330405e-09
240	0x343f6da1	1.7828144e-07
241	0x33401869	4.4725684e-08
242	0x339b9dbd	7.2464424e-08
243	0x321e522d	9.215495e-09
244	0x3093b54e	1.0747188e-09
245	0x32290566	9.838322e-09
246	0x32bb78d4	2.1824611e-08
247	0x3275e418	1.4312739e-08
248	0x327a4df2	1.4569638e-08
249	0x320fdc9e	8.373858e-09
250	0x30a51dcc	1.2013799e-09
251	0x3271a129	1.406469e-08
252	0x3b209385	0.002450199
253	0x3ad9c10e	0.0016613321
254	0x3b10f31b	0.0022117558
255	0x3366500d	5.3623854e-08

exp_avg f4 [128]
0	0x35d36880	1.5751139e-06
1	0xb752c9b0	-1.2563934e-05
2	0xb6649821	-3.4063198e-06
3	0xb65b5a26	-3.2686016e-06
4	0xb5d1a4ad	-1.561964e-06
5	0xb4e5feb0	-4.2839883e-07
6	0x36c591bf	5.8880246e-06
7	0x371490a0	8.855161e-06
8	0x377fab48	1.5239064e-05
9	0x35c02f0c	1.4318807e-06
10	0xb6f5d76d	-7.326648e-06
11	0xb6574c2f	-3.2081841e-06
12	0x36defea5	6.64576e-06
13	0x35c6fe0f	1.482609e-06
14	0x37678ec1	1.380191e-05
15	0x36d98433	6.482494e-06
16	0xb6777c1c	-3.687811e-06
17	0xb5f4dee8	-1.8244291e-06
18	0x36e2afc9	6.755789e-06
19	0x37a0af1e	1.9155032e-05
20	0x371476ed	8.849177e-06
21	0x366c2d6c	3.519318e-06
22	0x37924902	1.7438553e-05
23	0xb7c8291c	-2.3861001e-05
24	0x380f10be	3.410945e-05
25	0x373ac0c7	1.1131348e-05
26	0xb6fc454a	-7.5182516e-06
27	0xb82ef730	-4.1715044e-05
28	0xb6e38f32	-6.7817973e-06
29	0x37a25ed4	1.9356063e-05
30	0x36be4a74	5.6711087e-06
31	0x3754770e	1.2663904e-05
32	0x378e08b3	1.693177e-05
33	0x378af8bf	1.6566713e-05
34	0x380c9b43	3.35232e-05
35	0x37b20f87	2.1226484e-05
36	0xb7ac91ff	-2.0571983e-05
37	0xb79b654b	-1.8524608e-05
38	0xb6ed6e00	-7.075956e-06
39	0x36206553	2.3900836e-06
40	0xb867047a	-5.507886e-05
41	0x3726ef94	9.950152e-06
42	0xb71432f4	-8.833351e-06
43	0x383c1c19	4.484886e-05
44	0x37eac36c	2.7985974e-05
45	0xb7141076	-8.82532e-06
46	0x378e30cd	1.6950444e-05
47	0x3645fb42	2.9501539e-06
48	0x35faccf0	1.8686096e-06
49	0xb77d3f80	-1.509476e-05
50	0xb75318b9	-1.2582336e-05
51	0x380635b6	3.199811e-05
52	0x37721973	1.4430249e-05
53	0xb7cac80b	-2.4173429e-05
54	0xb7a4b58e	-1.9634866e-05
55	0x386e564a	5.6823985e-05
56	0x373a9483	1.1121042e-05
57	0x37a3476c	1.9464373e-05
58	0xb7ac26a9	-2.0522e-05
59	0xb7834442	-1.5648202e-05
60	0x37c8ada7	2.3922721e-05
61	0x374fb96f	1.2381336e-05
62	0xb7cbc088	-2.428914e-05
63	0x371e8da5	9.450513e-06
64	0x3805da28	3.1912845e-05
65	0x382572d2	3.9446e-05
66	0x37bb2dad	2.2313407e-05
67	0x382562f0	3.943121e-05
68	0xb65bfe02	-3.2781395e-06
69	0x36c69ef6	5.9193653e-06
70	0x374f3bc2	1.2352075e-05
71	0x37de9104	2.653199e-05
72	0xb77f2b2c	-1.5209236e-05
73	0xb81df193	-3.76567e-05
74	0xb7c8a9b8	-2.392089e-05
75	0x36c41d67	5.844678e-06
76	0xb6da3255	-6.5027657e-06
77	0xb577bb98	-9.2287655e-07
78	0x37624f6e	1.3489143e-05
79	0xb7645b20	-1.3611076e-05
80	0xb8139c4b	-3.519309e-05
81	0x369debce	4.706416e-06
82	0xb6bf9ab0	-5.7102516e-06
83	0x36b55fc4	5.405369e-06
84	0x37cc79d4	2.4375426e-05
85	0xb5d0265c	-1.5508372e-06
86	0x37aac126	2.0355521e-05
87	0x372db5a0	1.0353891e-05
88	0x3603d3c3	1.9643783e-06
89	0x35a1d780	1.2058154e-06
90	0xb72f8404	-1.046155e-05
91	0xb7ee7c74	-2.8429764e-05
92	0xb7890c70	-1.6337464e-05
93	0x351db57c	5.875115e-07
94	0xb7b2106c	-2.12269e-05
95	0x37946f0c	1.7694685e-05
96	0x379dafdf	1.8797755e-05
97	0x380afe34	3.313851e-05
98	0x37bd3687	2.2555947e-05
99	0xb80e66f7	-3.395133e-05
100	0x382d4cec	4.1318053e-05
101	0x35de1127	1.6545281e-06
102	0xb7e8d926	-2.7757673e-05
103	0x3803b415	3.140055e-05
104	0x3698f4b4	4.55844e-06
105	0x36a021a1	4.7722865e-06
106	0xb72a5340	-1.0152173e-05
107	0x37e2c8bf	2.703478e-05
108	0xb80c46ef	-3.3444663e-05
109	0x36f2a238	7.2310468e-06
110	0x37bf1af1	2.278152e-05
111	0x379c6011	1.8641384e-05
112	0xb656ffc1	-3.2037353e-06
113	0x37ebe25a	2.8119586e-05
114	0xb710e847	-8.63715e-06
115	0xb74e6d2d	-1.2303976e-05
116	0xb7b97ca0	-2.2111752e-05
117	0xb7dcd1e9	-2.632379e-05
118	0x378f4d8b	1.7083037e-05
119	0xb82151e8	-3.8461672e-05
120	0xb735e2e0	-1.0841264e-05
121	0x36e7f5c3	6.912947e-06
122	0x37ada366	2.0699295e-05
123	0x35067b58	5.009838e-07
124	0x36076a30	2.0178377e-06
125	0x3750c337	1.2443218e-05
126	0x3869fe0b	5.5788125e-05
127	0xb80eaf2b	-3.4018576e-05

exp_avg_sq f4 [128]
0	0x31652ab6	3.3348164e-09
1	0x30bb85c9	1.3644065e-09
2	0x3078eb31	9.05561e-10
3	0x3109b271	2.0037556e-09
4	0x30792b9e	9.0647656e-10
5	0x313458f0	2.6244003e-09
6	0x31dbe389	6.3996066e-09
7	0x30a370b5	1.1891844e-09
8	0x31816fab	3.7670893e-09
9	0x302ffd7b	6.4024847e-10
10	0x2f4b16db	1.8470862e-10
11	0x30b077b7	1.283971e-09
12	0x30ad02af	1.2588169e-09
13	0x31a64eb9	4.8401856e-09
14	0x2fb34abc	3.2613012e-10
15	0x2f1b47a5	1.4122621e-10
16	0x30c59a22	1.4377444e-09
17	0x33804dd7	5.9746235e-08
18	0x31a28d7d	4.730906e-09
19	0x31970649	4.395393e-09
20	0x310ebf72	2.0772544e-09
21	0x32092430	7.982678e-09
22	0x320b44dc	8.106522e-09
23	0x32feab92	2.9647513e-08
24	0x3182b43a	3.8039873e-09
25	0x31348eb8	2.6274574e-09
26	0x31877c42	3.9431436e-09
27	0x31651b34	3.333935e-09
28	0x3140639a	2.7996294e-09
29	0x2f761eef	2.238456e-10
30	0x30b67832	1.3276404e-09
31	0x31142035	2.1555142e-09
32	0x303550b3	6.5962097e-10
33	0x2fda93c6	3.9758968e-10
34	0x33217f8f	3.7601747e-08
35	0x324b83bf	1.1846111e-08
36	0x323d8903	1.1032401e-08
37	0x316d46ab	3.452821e-09
38	0x31107033	2.1018536e-09
39	0x311d62db	2.29027e-09
40	0x313f63d2	2.78509e-09
41	0x3133fbcf	2.6191065e-09
42	0x322489e3	9.577408e-09
43	0x32464e40	1.1542909e-08
44	0x32dba0f5	2.556815e-08
45	0x30cb777a	1.4804151e-09
46	0x30e85edb	1.6907181e-09
47	0x3143dcc3	2.8501723e-09
48	0x31a3edfb	4.7709796e-09
49	0x2f971efd	2.7488758e-10
50	0x3021bd1f	5.8840216e-10
51	0x2f0759b7	1.2310052e-10
52	0x326898ae	1.3538893e-08
53	0x3159f1c6	3.1715088e-09
54	0x3097b474	1.1037984e-09
55	0x338aad35	6.457632e-08
56	0x302c8803	6.276652e-10
57	0x328b393b	1.6207755e-08
58	0x309eb62f	1.1547793e-09
59	0x30b3e488	1.3088917e-09
60	0x3172235d	3.5235737e-09
61	0x2fe34db0	4.134626e-10
62	0x302cff0d	6.2935684e-10
63	0x312f2da1	2.5491789e-09
64	0x33328401	4.156391e-08
65	0x31cf2f83	6.0298944e-09
66	0x31cb487f	5.9163194e-09
67	0x30bbfc10	1.3677681e-09
68	0x301776eb	5.510247e-10
69	0x324945ab	1.17155805e-08
70	0x3201355e	7.5209226e-09
71	0x30a07562	1.1674894e-09
72	0x32bcf2cd	2.1996494e-08
73	0x313072fd	2.5676734e-09
74	0x31d59859	6.216436e-09
75	0x30792d1e	9.064979e-10
76	0x30cec3c7	1.5044116e-09
77	0x3227110e	9.724557e-09
78	0x30e76987	1.6837455e-09
79	0x332f8f97	4.0875957e-08
80	0x314681b0	2.888651e-09
81	0x30f3625c	1.7708532e-09
82	0x304c15f2	7.4245954e-10
83	0x2ff96564	4.5364879e-10
84	0x312749cb	2.4343645e-09
85	0x3407b964	1.26403e-07
86	0x329d3325	1.8300463e-08
87	0x30e23919	1.6459892e-09
88	0x30935e27	1.0722417e-09
89	0x3067bb1c	8.430321e-10
90	0x31e9bb5f	6.802494e-09
91	0x3180adf5	3.745067e-09
92	0x31da7721	6.3581784e-09
93	0x306e1504	8.661376e-10
94	0x313e640a	2.7705505e-09
95	0x30b91e3c	1.3469115e-09
96	0x306fe356	8.727076e-10
97	0x32e52180	2.6674343e-08
98	0x323bf6e1	1.0940966e-08
99	0x31650a68	3.3329801e-09
100	0x32713c2b	1.4041727e-08
101	0x31865b1e	3.910272e-09
102	0x31ec5b75	6.8789014e-09
103	0x312db3d9	2.5277045e-09
104	0x2fd1cfb9	3.8164474e-10
105	0x31ed22cb	6.9015633e-09
106	0x31ab277d	4.9812443e-09
107	0x3154e8b2	3.0982332e-09
108	0x3128106f	2.445656e-09
109	0x31465009	2.8858287e-09
110	0x3240475f	1.1192099e-08
111	0x319aaeb5	4.501852e-09
112	0x309992bf	1.1173923e-09
113	0x30a87a25	1.2258324e-09
114	0x32c75b45	2.3208154e-08
115	0x30a253ef	1.1810907e-09
116	0x30682e18	8.446661e-10
117	0x3091c52d	1.0606179e-09
118	0x30230345	5.93037e-10
119	0x33629040	5.275092e-08
120	0x3213cc28	8.602946e-09
121	0x318fa04f	4.1800727e-09
122	0x3253abb3	1.2320856e-08
123	0x2fd1ace0	3.8139714e-10
124	0x2fbbdc3c	3.4171588e-10
125	0x30a4d2e2	1.1992507e-09
126	0x31903c26	4.1977897e-09
127	0x32b8f1a8	2.1530312e-08
