results/Test26/-6703.onnx (onnx, 75159 bytes, 6 tensors)

network_body._body_endoder.seq_layers.0.weight f4 [128, 6]
000000 79 59 05 be 3e 81 c0 3e 0b 31 bb 3e c8 eb e4 bd
       -0.13022412 0.37598604 0.36560854 -0.11177784
000010 49 5f 0a bf d1 df 84 be 8d b8 3c 3d 6f 85 93 be
       -0.54051644 -0.25952008 0.04607444 -0.2881274
000020 0a c2 a2 be 0a 7d a7 3c f1 a0 cd 3d e9 d3 1f bf
       -0.31788665 0.020445365 0.10040463 -0.62432724
000030 94 21 b6 3d ea 8a 21 3f cf 4e 0c be 89 61 24 bf
       0.08893123 0.6310259 -0.13701938 -0.64211327
000040 6e 31 96 3d 23 27 8a bc bc 66 e5 be b1 bd 23 bf
       0.07333647 -0.016864365 -0.44804943 -0.6396132
000050 06 26 8a bd a3 19 7f 3e 30 e6 1c bf 4d ee 35 be
       -0.06745534 0.24912123 -0.6128874 -0.17766686
000060 e8 34 ae bd 31 13 80 3f f3 4b df 3e ea 06 85 be
       -0.08506185 1.0005857 0.43612632 -0.25981838
000070 8f 68 2d 3f 07 2c 2f 3e 0b 64 0c be bb 9a 29 bf
       0.6773767 0.17106639 -0.13710038 -0.66251725
000080 33 1e cc be 27 de 2a 3d 17 fc 0b 3e 99 ee 68 3f
       -0.3986679 0.041715767 0.13670383 0.9098907
000090 a7 be 3a bf fc 64 3e 3e a2 04 b2 be 7e c2 f1 be
       -0.7294716 0.1859321 -0.3476916 -0.47218698
0000a0 33 fd 8c 3c 3c 61 fd be ac b3 81 bf 42 eb 01 3f
       0.017210579 -0.49488246 -1.0132957 0.507496
0000b0 fe 4d 05 3f 7d e1 54 3e ed b5 31 3f c9 44 a3 be
       0.5207213 0.20789142 0.6941822 -0.31888416
0000c0 cb 6e 99 3e 8a 72 cf 3e fe 00 99 3e d6 6e 8e 3e
       0.2996734 0.40517074 0.2988357 0.27818936
0000d0 a0 f3 fe bd 37 7d ec 3e da 49 7a 3e dd 67 82 3e
       -0.124488115 0.4618928 0.24442235 0.25469866
0000e0 b5 53 e1 be 62 63 9e 3e 64 ab 25 3e 46 91 d8 bd
       -0.44009176 0.30935198 0.16178662 -0.10574584
0000f0 c8 b5 b2 3e f6 cd a7 bd 28 bd a5 be c1 ff b5 be
       0.34904313 -0.08193581 -0.32370877 -0.35546687
000100 02 7b c0 bd 93 62 56 bf 00 3f f5 3e 23 6e ac bd
       -0.09398462 -0.8374416 0.47899628 -0.084194444
000110 5a 8b 34 be 06 5e 9a 3d ba 30 90 3e 05 8f 37 3e
       -0.17631283 0.07537465 0.28162175 0.17925651
000120 69 e7 84 bc bb e2 85 be cd 25 0b 3e 84 6b 40 3e
       -0.016223626 -0.26149544 0.13588639 0.18791014
000130 cc 95 bd bc 6d 90 5c bf 12 ae 49 3e c4 0f af bd
       -0.023142718 -0.86157876 0.19695309 -0.08547929
000140 0c 49 5f 3d fb e5 1f be db e9 db b7 90 85 5a 3f
       0.054513022 -0.15615074 -2.6215732e-05 0.8536005
000150 9f b4 12 3e e6 54 9c be e0 a6 46 3d 6d ab ae bd
       0.14326714 -0.30533522 0.04849899 -0.085287906
000160 70 ca bb be 9f ee dd be ff 2b 32 be d6 a3 3d be
       -0.36677885 -0.43346116 -0.17399596 -0.1851953
000170 e8 61 a4 be 91 28 b6 3e a5 10 f3 bd 42 ae 3b bf
       -0.32105947 0.35577825 -0.11868409 -0.7331277
000180 1e 5f f1 3e f6 24 c2 3e dc 98 cd 3e 25 0f 21 3f
       0.4714288 0.37918824 0.40155685 0.62913734
000190 a6 f5 0a 3f c6 3e 55 3d c9 b1 af be eb f8 42 be
       0.5428108 0.05206182 -0.34315327 -0.19040267
0001a0 0d c7 7a be 6a 07 bf 3e b0 1e 33 3f 18 33 04 be
       -0.24489994 0.37310344 0.699687 -0.12910116
0001b0 3e b7 51 be c4 ce 45 bf 2c e2 6f bf b6 70 1f 3f
       -0.20480058 -0.77268624 -0.93704486 0.6228136
0001c0 5a a7 eb bd eb 3a 36 3f 65 98 97 3e ea 87 7f 3c
       -0.11506529 0.7118365 0.29608455 0.015596369
0001d0 a7 d8 bf be 32 0f 39 3e 98 18 38 be bb f7 b0 be
       -0.3746998 0.18072203 -0.17978132 -0.34564003
0001e0 95 7b 82 3d 0d 8c e5 3e 2c ce 3b 3e 4f e5 72 be
       0.06371228 0.44833413 0.18340367 -0.23720287
0001f0 be 6a 39 3e 0b 1d 2b 3f 3a 67 c0 3e 8c 0c 0e 3f
       0.18107125 0.6684119 0.37578756 0.55487895
000200 86 60 80 3e 65 2f b1 be 10 61 5c 3e 5b b2 af 3e
       0.25073642 -0.34606472 0.21521401 0.34315762
000210 e6 5f 82 3e c8 53 9e be c7 53 69 3e 75 07 78 be
       0.2546379 -0.30923295 0.22785865 -0.24221595
000220 91 6e ca bd c5 7d 27 bf 15 40 30 3e a3 5f 9a bf
       -0.0988437 -0.65426284 0.17211945 -1.2060436
000230 94 55 eb be 2c dc d9 3e 25 6f 8e be a8 b2 53 be
       -0.45963728 0.4255079 -0.27819172 -0.2067362
000240 78 7d 8d 3e 69 52 fa 3d d7 1a a0 3e f2 61 98 3d
       0.27634788 0.1222275 0.31270477 0.074405566
000250 4f 1b 69 3e 6e be 30 3f c5 7b fb 3d 44 9a c2 3e
       0.22764324 0.6904057 0.122794665 0.3800832
000260 0c c0 2e 3e 37 a8 13 be d0 ad 41 3f 05 e3 0a be
       0.17065448 -0.14419638 0.7565584 -0.13563164
000270 7f f8 fd 3d 96 d9 04 bf cf 53 92 3e b8 ef 86 3d
       0.124009125 -0.5189451 0.28579566 0.065886915
000280 4a 4d 8d be 99 37 0c 3f 6d 3f 4d be 12 ea 59 3e
       -0.2759803 0.54772335 -0.20043726 0.21280697
000290 66 a7 e1 3e 2f c3 23 bd ed 71 b0 3d 9a 65 06 be
       0.44073027 -0.039981063 0.086154796 -0.13124695
0002a0 7f 01 ee 3d e5 54 c7 3d 98 a3 7a bd db 6d 8f 3d
       0.11621379 0.09732989 -0.06119117 0.07003375
0002b0 f1 6d 09 3e fe 30 84 3e 2d 67 ec 3e b2 d9 3c be
       0.13420846 0.25818628 0.46172467 -0.18442419
0002c0 a5 7c 86 3e ce c3 3e 3f d9 c9 1f be 58 ba f5 be
       0.2626697 0.74517524 -0.15604343 -0.47993731
0002d0 b3 36 fd bb b4 77 ab 3c d5 e2 5e 3e 58 43 e1 be
       -0.007727468 0.020931102 0.21766217 -0.43996692
0002e0 83 a9 3f bf 58 f6 21 3e c7 17 92 be 39 cc fa 3d
       -0.7486803 0.15816629 -0.28533766 0.12245984
0002f0 5c ac 5a 3e 22 2b dd bd 71 ba 9f 3d 33 b6 a1 3e
       0.21354812 -0.107992426 0.07799233 0.3158432
000300 75 a6 3d 3d b1 82 b3 3e fd 46 7b bf 89 3c e9 3d
       0.046301324 0.35060647 -0.98155195 0.11388499
000310 00 d0 c0 3e f3 da e6 be 20 a7 57 3e a8 fb bf bd
       0.3765869 -0.4508892 0.21059847 -0.093741715
000320 7d 83 35 3b 20 9e 70 be 4f 8a f3 bc e8 24 04 be
       0.0027696781 -0.2349782 -0.029729037 -0.12904704
000330 17 d6 0e 3f ab 4c 02 be 54 54 0f 3e 96 e2 92 3e
       0.55795425 -0.12724559 0.13997012 0.28688496
000340 a9 7a 21 3e f7 ec f3 bc 4f 6e 1e 3e 02 00 2b bf
       0.15769447 -0.02977608 0.15471767 -0.66796887
000350 8a d3 e7 bd 7f 80 6d bf 3d 47 43 3e 44 c2 5f bb
       -0.11319645 -0.92774194 0.19070144 -0.003414289
000360 bc 48 03 bf 74 0b a6 3e 04 b3 2d 3f dc 0f 7f 3e
       -0.5128286 0.32430613 0.6785128 0.24908394
000370 20 c8 48 3e 26 7d 11 3f 88 4b 9c 3e fb 4c 19 bf
       0.19607592 0.56831586 0.30526376 -0.5988309
000380 1b 96 63 3d 66 95 a9 3e e4 bc d6 be c9 58 48 3d
       0.055563074 0.33121794 -0.41940987 0.048912797
000390 7e 0b 18 bf ba 7a 82 3f c7 ed e5 b9 44 a8 1c 3e
       -0.59392536 1.0193703 -0.00043855442 0.15298563
0003a0 02 27 36 3f 0c 4b ef be a9 30 6d be 0c a8 82 bd
       0.7115327 -0.46736944 -0.23163094 -0.06379709
0003b0 fa c9 ef 3c 4b 64 5e be 50 2c d5 be 94 bf a2 3c
       0.029271115 -0.21717946 -0.4163537 0.019866742
0003c0 c1 22 b3 be 08 68 91 3e 61 d0 27 3e d4 4c 90 be
       -0.34987453 0.28399682 0.16388084 -0.28183615
0003d0 0d 47 98 3e 8f 36 36 bc 2e a1 43 be c4 67 76 3e
       0.29741707 -0.011121406 -0.19104454 0.24063021
0003e0 01 41 61 3f 73 08 51 3e a5 ae 97 3e f7 85 6d 3e
       0.87989813 0.2041338 0.2962543 0.23195635
0003f0 a7 7a f0 3e 91 9b 11 be 43 a2 dc 3e 27 e4 0d 3f
       0.46968576 -0.142195 0.43092546 0.5542626

network_body._body_endoder.seq_layers.0.bias f4 [128]
000000 00 00 00 00 00 00 00 00 00 00 00 00 00 00 00 00
       0.0 0.0 0.0 0.0
000010 00 00 00 00 00 00 00 00 00 00 00 00 00 00 00 00
       0.0 0.0 0.0 0.0
000020 00 00 00 00 00 00 00 00 00 00 00 00 00 00 00 00
       0.0 0.0 0.0 0.0
000030 00 00 00 00 00 00 00 00 00 00 00 00 00 00 00 00
       0.0 0.0 0.0 0.0
000040 00 00 00 00 00 00 00 00 00 00 00 00 00 00 00 00
       0.0 0.0 0.0 0.0
000050 00 00 00 00 00 00 00 00 00 00 00 00 00 00 00 00
       0.0 0.0 0.0 0.0
000060 00 00 00 00 00 00 00 00 00 00 00 00 00 00 00 00
       0.0 0.0 0.0 0.0
000070 00 00 00 00 00 00 00 00 00 00 00 00 00 00 00 00
       0.0 0.0 0.0 0.0
000080 00 00 00 00 00 00 00 00 00 00 00 00 00 00 00 00
       0.0 0.0 0.0 0.0
000090 00 00 00 00 00 00 00 00 00 00 00 00 00 00 00 00
       0.0 0.0 0.0 0.0
0000a0 00 00 00 00 00 00 00 00 00 00 00 00 00 00 00 00
       0.0 0.0 0.0 0.0
0000b0 00 00 00 00 00 00 00 00 00 00 00 00 00 00 00 00
       0.0 0.0 0.0 0.0
0000c0 00 00 00 00 00 00 00 00 00 00 00 00 00 00 00 00
       0.0 0.0 0.0 0.0
0000d0 00 00 00 00 00 00 00 00 00 00 00 00 00 00 00 00
       0.0 0.0 0.0 0.0
0000e0 00 00 00 00 00 00 00 00 00 00 00 00 00 00 00 00
       0.0 0.0 0.0 0.0
0000f0 00 00 00 00 00 00 00 00 00 00 00 00 00 00 00 00
       0.0 0.0 0.0 0.0
000100 00 00 00 00 00 00 00 00 00 00 00 00 00 00 00 00
       0.0 0.0 0.0 0.0
000110 00 00 00 00 00 00 00 00 00 00 00 00 00 00 00 00
       0.0 0.0 0.0 0.0
000120 00 00 00 00 00 00 00 00 00 00 00 00 00 00 00 00
       0.0 0.0 0.0 0.0
000130 00 00 00 00 00 00 00 00 00 00 00 00 00 00 00 00
       0.0 0.0 0.0 0.0
000140 00 00 00 00 00 00 00 00 00 00 00 00 00 00 00 00
       0.0 0.0 0.0 0.0
000150 00 00 00 00 00 00 00 00 00 00 00 00 00 00 00 00
       0.0 0.0 0.0 0.0
000160 00 00 00 00 00 00 00 00 00 00 00 00 00 00 00 00
       0.0 0.0 0.0 0.0
000170 00 00 00 00 00 00 00 00 00 00 00 00 00 00 00 00
       0.0 0.0 0.0 0.0
000180 00 00 00 00 00 00 00 00 00 00 00 00 00 00 00 00
       0.0 0.0 0.0 0.0
000190 00 00 00 00 00 00 00 00 00 00 00 00 00 00 00 00
       0.0 0.0 0.0 0.0
0001a0 00 00 00 00 00 00 00 00 00 00 00 00 00 00 00 00
       0.0 0.0 0.0 0.0
0001b0 00 00 00 00 00 00 00 00 00 00 00 00 00 00 00 00
       0.0 0.0 0.0 0.0
0001c0 00 00 00 00 00 00 00 00 00 00 00 00 00 00 00 00
       0.0 0.0 0.0 0.0
0001d0 00 00 00 00 00 00 00 00 00 00 00 00 00 00 00 00
       0.0 0.0 0.0 0.0
0001e0 00 00 00 00 00 00 00 00 00 00 00 00 00 00 00 00
       0.0 0.0 0.0 0.0
0001f0 00 00 00 00 00 00 00 00 00 00 00 00 00 00 00 00
       0.0 0.0 0.0 0.0

network_body._body_endoder.seq_layers.2.weight f4 [128, 128]
000000 9d 66 ae 3b 10 36 8b 3d dd 5d ef 3d cc 59 8f 3d
       0.005322291 0.06797421 0.11687825 0.06999549
000010 a1 70 5e 3b a5 55 c0 3d e8 81 b2 3d 3f 39 a1 3d
       0.0033941644 0.093913354 0.08716184 0.07872247
000020 7e c9 80 bd 3f c2 85 3d 22 60 88 3d d3 47 29 bd
       -0.062884316 0.0653119 0.06658961 -0.041328263
000030 b9 06 0f bc 2c c2 cd bd 2d 47 4c 3d 46 17 8d bc
       -0.00872963 -0.10046801 0.049872566 -0.017223012
000040 8a 58 8f bc d1 86 c5 bd ef 5b cb bd 7a 6e 08 bd
       -0.017498273 -0.09644855 -0.09929644 -0.033308484
000050 c0 34 84 3c 7e 24 cb 3c 53 bf 08 3d 09 59 00 be
       0.016138434 0.024797674 0.033385586 -0.12533964
000060 c8 9f c5 bc 3d fa df bd 4d 1d 73 bd c2 22 e0 bd
       -0.024124041 -0.10936401 -0.059354115 -0.109441295
000070 56 77 9d 3d 9c 00 4e bc 91 ea 82 bd 2d 1c c3 3b
       0.07688777 -0.0125733875 -0.06392396 0.0059542865
000080 68 8c 2f bd 4e ef 2a bd 0c f4 a1 3d 11 e0 e6 3c
       -0.04285851 -0.041732125 0.07907876 0.028183015
000090 6d 18 01 3d 20 a2 a8 bd cd 27 07 bd e1 0d 68 3e
       0.031517435 -0.08234048 -0.03299694 0.22661544
0000a0 09 6b e8 3c ac 04 42 bd 5e a1 7c 3d 30 1c 9d bd
       0.02837135 -0.047367737 0.06167733 -0.07671392
0000b0 22 c2 93 3c 23 9f 55 3e db 7e 00 bd e7 2e b9 bd
       0.018036906 0.20861487 -0.03137098 -0.09042149
0000c0 6c 4f 9c 3d 4c b4 09 3d d3 f3 cf bd 52 09 e8 bd
       0.07632336 0.03361921 -0.10153928 -0.11329903
0000d0 7e bd 9b bc c6 83 17 be 6e 22 6c 3d 83 c3 c3 3d
       -0.019011255 -0.14796361 0.057650022 0.09558775
0000e0 c3 08 df bc 57 0a 35 3c 16 a2 1f bd bb 85 f3 bd
       -0.027225858 0.0110498285 -0.038972937 -0.118907414
0000f0 b3 c1 2d bd 78 a4 89 3d d0 dc 33 3d 3f 39 44 3d
       -0.042421054 0.06720823 0.043911755 0.047906157
000100 db df 13 bc 9f 8c cd 3d 40 37 13 3e 38 b8 00 be
       -0.009025539 0.10036587 0.14376545 -0.12570274
000110 f3 e7 bb bc ac 5b 50 bd 72 80 4b bc 35 47 b2 bc
       -0.02293775 -0.050868675 -0.0124207605 -0.02176247
000120 3f 61 7f bd 66 56 02 be 4c d7 93 3d 05 2f 32 3d
       -0.0623486 -0.12728271 0.07218799 0.043501873
000130 a5 3a af 3d 78 e4 3c bd a2 8a 9a 3d ac 91 51 bd
       0.085561074 -0.046116322 0.07545973 -0.051164314
000140 19 97 bd 3c 39 f5 45 bc 7f 7e e5 3c 54 1b 34 be
       0.023143338 -0.012082391 0.02801442 -0.1758855
000150 f8 db 8c 3d 76 67 fe bd 18 da 52 3d cf d8 a0 bb
       0.06877893 -0.12422077 0.05147752 -0.004908658
000160 9e 34 c9 3b 4d 83 2e 3d 75 cf 17 3c d1 09 33 3d
       0.0061403057 0.042605687 0.00926577 0.043710534
000170 df c8 a4 bb b5 cb 3b 3d 5f 7d a4 3d 13 3c da 3d
       -0.0050288285 0.045848567 0.08031725 0.106559895
000180 1f 58 aa bb a4 51 45 3d e4 ed 6d 3c d7 ba 8b 3d
       -0.005198493 0.04817356 0.01452205 0.06822746
000190 2d be 29 be 54 32 62 3b c7 37 2c 3c e9 fe 13 3b
       -0.16576453 0.0034514861 0.010511345 0.0022582358
0001a0 68 9b eb bc a5 9a ab 3d 8c 8d de bd cd 15 3e bc
       -0.028760627 0.083791055 -0.10866842 -0.011601877
0001b0 e2 4a f9 3b 29 dc cc bd 73 ae b0 3c 4c c9 7f bc
       0.0076078037 -0.1000293 0.021567559 -0.015611958
0001c0 8d ce 01 3e c5 c8 82 3d ac 4a f2 3d cd b8 f0 3d
       0.12676449 0.0638595 0.11830649 0.11753998
0001d0 cf 99 be 3b d9 23 bd bc 84 02 4f be 0d 88 df 3c
       0.0058166753 -0.023088383 -0.20215803 0.027286554
0001e0 75 e3 dd bd 62 cf bf bd e6 a7 85 bd 18 b7 c4 3b
       -0.108343996 -0.09365727 -0.06526165 0.006003272
0001f0 1f 6e a7 bd 4e 7f 7d 3c 96 1b 79 bc 43 31 78 bd
       -0.08175301 0.015472246 -0.015204331 -0.060593855
000200 3b e2 13 be 75 38 1a bd b1 9a ab bd 5c 94 30 3e
       -0.14441769 -0.037651498 -0.083791144 0.17244095
000210 60 97 02 3d 1e 65 3f bd 1e 5c 52 3e 89 98 31 bb
       0.031882644 -0.046727292 0.20542952 -0.0027098975
000220 7b c3 ea 3d 58 7a a3 bd 94 57 e3 3c f0 ad f7 bd
       0.11463066 -0.079823196 0.027751721 -0.12093723
000230 94 01 fb bd 9e a7 d9 bd 33 0a ab bd 81 5f 8e 3d
       -0.122561604 -0.106276736 -0.08351555 0.0695181
000240 73 24 84 bd 69 53 44 3d 17 51 6a bd 0b b2 be 3d
       -0.06452265 0.04793111 -0.05720624 0.09311303
000250 bd 4d ba 3b 50 d1 3f bc 3b 5b 29 3e 80 dc 2f be
       0.0056855367 -0.011707619 0.16538708 -0.17173958
000260 b8 ff 3b bb e1 b5 14 3e 95 be a0 3d 2a 7e b5 3d
       -0.0028686356 0.14522506 0.07848851 0.088619545
000270 26 37 f2 bb 27 65 aa bc 54 5a 1a 3d 6d 0c 9f 3d
       -0.007391828 -0.020800186 0.0376838 0.07766042
000280 38 47 1e be 5a 6a c7 3d 2d a1 23 3e b0 5f cc 3d
       -0.15456855 0.09737082 0.15979452 0.099791884
000290 96 51 ac 3d 02 b8 74 bd 03 02 7d 3c 0e 78 2e 3c
       0.08413999 -0.059745796 0.015442374 0.01064874
0002a0 9a 83 98 3c 97 28 71 bd d5 b6 e2 bc b2 e6 93 bd
       0.01861744 -0.0588766 -0.027675072 -0.07221736
0002b0 74 09 90 3c 87 69 0b bd 58 96 79 3d f2 90 07 bd
       0.017582633 -0.034036186 0.060934395 -0.033097215
0002c0 cc c4 a6 bb e5 9e 14 bd b9 c1 bd 3d 41 6a 9b 3d
       -0.005089378 -0.036284346 0.09265465 0.07588626
0002d0 76 22 15 3e 3d 5e ec 3d 9e a5 1c be d8 bf e3 3d
       0.14563927 0.11541412 -0.15297553 0.11120576
0002e0 20 14 12 3e 05 06 98 3d a8 ba f6 3d ec 1f ba bd
       0.1426549 0.07423023 0.120473206 -0.0908812
0002f0 21 71 95 3c cc 25 93 bd 16 ed de 37 f5 b2 a1 bd
       0.01824242 -0.071849436 2.6574864e-05 -0.078954615
000300 ab 2f 5d bc e5 95 b5 bd a9 15 ba bc 5d f9 e5 bd
       -0.013500134 -0.08866481 -0.022715406 -0.11229203
000310 37 bc b0 bd 20 16 cf bb 8c 07 96 3c 0e 52 ce 3c
       -0.08629649 -0.006319776 0.018314146 0.025185611
000320 78 6e 31 bc 39 b4 5a bc 9c ad d9 bd d6 43 81 3b
       -0.01082956 -0.0133486325 -0.106288165 0.0039448543
000330 ba 05 b5 bd a4 e6 b0 3c 8f 9e 1f be 0f 95 bf 3b
       -0.08838983 0.021594353 -0.15587829 0.0058466266
000340 c6 2f 92 3d 63 5e 92 38 c5 ba b9 bb c8 94 40 bd
       0.07138018 6.9794034e-05 -0.0056680166 -0.04701689
000350 ec fc 84 bd a6 f2 0b be e9 7c 99 3d e9 0a 64 bc
       -0.064935535 -0.13666782 0.07494528 -0.013918617
000360 2f e4 9d 3d 39 e3 80 bc 06 d7 ad 3c 84 1a 12 3d
       0.07709538 -0.015733348 0.021220695 0.03566982
000370 e1 d2 b1 bc 4f dc b4 bd 58 84 9a 3d d7 7a 67 bd
       -0.021707 -0.08831083 0.07544774 -0.056513634
000380 3e f7 82 bd 4c 6d 99 bc 49 86 22 3c 5e af bb 3d
       -0.06394814 -0.018728875 0.009919711 0.09164308
000390 2f e1 27 bd a1 77 29 be 8c 43 ec bc 4b be 46 3d
       -0.040986236 -0.16549541 -0.028840803 0.04852132
0003a0 80 76 7d bd cb ea 9a 3d 7f c2 c8 bd de 17 a5 3d
       -0.06188059 0.075643145 -0.09802722 0.08061193
0003b0 6f 25 f9 bd 4e 83 0f bd a5 77 63 bd c9 e6 58 3e
       -0.12165343 -0.03503733 -0.055534024 0.21181788
0003c0 4e 83 be bd fb 31 fc bd 06 f6 e0 3d bd 28 5a bc
       -0.09302388 -0.123142205 0.10984425 -0.013315377
0003d0 bf c7 05 be 93 32 d7 bd 89 e8 30 3d e4 5b 3d bd
       -0.13064478 -0.10507693 0.043190513 -0.04623021
0003e0 77 e1 07 3d ee e3 3e 3d f8 7a b8 bd 7a 11 bd bd
       0.033174004 0.04660409 -0.090078294 -0.09231849
0003f0 8b 15 7f 3d 68 55 3d bd cc 60 d0 3c 46 f3 93 3b
       0.062276404 -0.046224028 0.025436781 0.0045150844

action_model._continuous_distribution.log_sigma f4 [1, 3]
000000 00 00 00 00 00 00 00 00 00 00 00 00
       0.0 0.0 0.0

action_model._continuous_distribution.mu.weight f4 [3, 128]
000000 0c 5c 2b bd 19 6c 17 3d 95 94 06 3c 0f d4 b2 bc
       -0.04183583 0.036968324 0.008214136 -0.021829633
000010 ca 50 01 bc 2b eb 91 3a 4f 60 8c bb 63 2f 8e bc
       -0.007892797 0.0011132708 -0.004283942 -0.01735658
000020 8b 62 da bc fb 1e b3 bb 6f be ba 3a ae 6c 04 bc
       -0.026658317 -0.0054663396 0.0014247427 -0.008082552
000030 99 a6 98 3a 5a ae ae 3b 7d ee 36 bc 2f a6 2c bc
       0.001164633 0.005330843 -0.0111652585 -0.010537668
000040 09 e2 0c bc 62 a3 2a 3c 63 12 e3 bb c8 f1 bf 3b
       -0.008598813 0.01041493 -0.006929682 0.00585768
000050 e5 42 ef bb cf 4a ce 3c 3e 55 9b 3c 4f 67 a7 3b
       -0.0073016756 0.025182156 0.018961545 0.005108751
000060 0b 68 cc 3b 78 82 ad 3c 1f b6 e6 bc ba e1 7f bb
       0.006237989 0.021180376 -0.028163014 -0.0039044456
000070 56 c9 92 3a bb fa 82 bc 8b b1 79 3c 45 93 99 bc
       0.0011198919 -0.015988698 0.015240083 -0.018746981
000080 cf fa 7f bc e1 00 a6 bb 90 91 8e bc 87 c7 3a 3a
       -0.015623762 -0.0050660227 -0.017403394 0.0007125069
000090 dd 36 66 3a 5b 2f 5f bb e7 1e c4 bc f4 fc 0d 3b
       0.0008781979 -0.0034055326 -0.023940517 0.0021665664
0000a0 8a 9c 98 3c 4d f2 58 bc 77 82 e1 bc a2 6d 7a bc
       0.018629331 -0.013241363 -0.02752803 -0.015284928
0000b0 2d e5 26 bc 2d 3c 7f bb 67 69 5b 3c f9 86 bb 3b
       -0.010186476 -0.003894578 0.013391829 0.005722877
0000c0 0d d7 33 bc f7 51 89 3b 08 35 e9 bb 72 bc 99 bc
       -0.010976565 0.004190679 -0.0071169175 -0.018766616
0000d0 d6 a9 89 3c ef c5 18 3d 9c 00 bc bb 0a e3 79 bb
       0.016804617 0.03729814 -0.0057373773 -0.003812971
0000e0 b6 cd 8e bc 46 58 01 3c f7 85 20 3b de dc 1f bd
       -0.017432075 0.007894581 0.0024493912 -0.039028995
0000f0 6f 5e 9e 3c b8 e8 e1 ba cb d7 1b 3b d8 39 58 3c
       0.019332139 -0.0017235493 0.0023779746 0.013197385
000100 87 50 a2 bc 8b d0 f1 bb 97 78 4e 3c 65 f9 ef 3c
       -0.019813789 -0.0073795966 0.012601993 0.029293725
000110 85 c9 9e 3b 0b b8 b1 bc e0 df 79 bc 4b 93 06 bd
       0.0048458003 -0.021694204 -0.01525113 -0.032855313
000120 48 47 8d bc d8 72 f8 3a b7 45 d9 bc 79 c5 a7 bc
       -0.017245904 0.0018955125 -0.0265225 -0.020479904
000130 d8 e3 20 bc e5 de 15 bc 15 af 77 3b 48 28 7f bc
       -0.009819947 -0.0091473805 0.0037793566 -0.015573569
000140 80 26 04 3d 12 ba 55 3b 7c 73 95 3c 33 a3 2c 3a
       0.03226328 0.0032612127 0.018243544 0.0006585598
000150 67 8f f0 3c 4b 9c df bc d2 48 dd 3c 4a d2 cf 3b
       0.029365255 -0.027296206 0.027012262 0.006342207
000160 42 97 55 bb 24 e6 34 3c 98 bb 21 bc bd dd 36 3c
       -0.0032591377 0.011041198 -0.009871386 0.011161265
000170 97 f1 a8 3c 33 5a fd bc bd 3f 87 bc 88 35 91 3c
       0.020623012 -0.0309268 -0.016509885 0.017725721
000180 83 df 27 bc 5f 8b 86 bc 18 8c df bb c8 54 3f 3c
       -0.01024616 -0.01642388 -0.0068221204 0.011677928
000190 1f 0b 78 3c 4f d9 5d 3c e1 20 39 bc 0f e3 35 bc
       0.01513937 0.01354058 -0.011299343 -0.011101498
0001a0 e2 77 19 3d e0 2e f0 bb fa 90 6c bc 2a db 29 bd
       0.037467845 -0.0073298067 -0.014438862 -0.041468777
0001b0 27 16 91 bc d8 dc 55 bc df 83 92 3c 2a c5 3a bc
       -0.017710758 -0.0130531415 0.017885147 -0.011399547
0001c0 6b 5e 9a bc 00 be a9 ba bd a5 8b bc 59 10 1a 3c
       -0.01884385 -0.0012950301 -0.017046804 0.009403312
0001d0 1a f4 f7 bc 45 d7 d1 3c dc 4d 98 bb 8b 8a 99 3b
       -0.030267764 0.025615344 -0.0046479534 0.004685705
0001e0 cf ea d4 3c f5 b3 32 3b 5d 19 09 3d c7 0c 76 3c
       0.025990872 0.0027267907 0.033471454 0.015017695
0001f0 b1 b7 0e 3c 85 98 bb 3c c3 90 88 3b 40 ff 0b bc
       0.008710788 0.022899875 0.0041676476 -0.008544743
000200 64 e3 4a 3c eb 47 23 bd 74 a0 1d 3d d5 0c 9d 3c
       0.012383316 -0.03986351 0.0384831 0.019171158
000210 47 fd a3 3a 22 0d 71 bc 5d 6a 93 bc e8 5c dd bb
       0.0012511396 -0.014712604 -0.017995054 -0.00675546
000220 45 16 fd bb 6f 8e bc b9 f8 86 04 ba 4c 6d 43 3b
       -0.007723602 -0.00035964276 -0.00050555123 0.0029819785
000230 f9 5a 00 3d 5e dd 14 3c 50 cb 38 bc fd ca bc 3c
       0.03133676 0.009085981 -0.011278942 0.023046011
000240 4b f3 85 ba ef 42 80 bc 4b 75 8d bc 6b 15 9b 3c
       -0.0010219602 -0.015656916 -0.017267844 0.018931111
000250 91 f5 92 bc b5 4b 49 ba 28 be 9b 3c 35 c0 8d bc
       -0.01793936 -0.0007678823 0.019011572 -0.017303566
000260 5d 50 1b 3c 0c a1 c0 bc e2 85 29 bd 47 92 bb bb
       0.009479609 -0.023514293 -0.041387446 -0.0057242247
000270 6b ef 2f 3d 5d 7c c3 bb 03 80 34 bc e0 57 46 bc
       0.042952936 -0.005965753 -0.0110168485 -0.012105912
000280 53 06 cb bb 73 e4 b9 bb a2 9c fe ba 72 92 2b 3c
       -0.0061958223 -0.005672985 -0.0019425342 0.010471927
000290 f3 23 52 bd 0f f6 ea bc 26 71 c7 bc 8d 0b c0 3c
       -0.051303815 -0.028681783 -0.024345946 0.023443008
0002a0 45 1d 85 3c 1f 8c d0 bb 95 c1 ee bc 78 f0 4d 3c
       0.016249308 -0.00636436 -0.029145041 0.012569539
0002b0 70 be 20 3c 9f f8 5d 3a 1f 84 1c 3d ff ad 3d 3c
       0.009811029 0.00084675284 0.038211938 0.011577128
0002c0 2b cf b6 3c 4a 2a 76 bc fd 63 d5 bc 42 35 b8 b6
       0.022315582 -0.015024731 -0.026048655 -5.4898273e-06
0002d0 2f 95 f7 3b f8 84 13 bc 3a 95 8c bb f8 d7 d9 3b
       0.007555626 -0.00900387 -0.00429025 0.00664806
0002e0 6b 52 da bb db fb 59 3c 50 e8 e4 bb 3a 46 da 3c
       -0.006662657 0.013304676 -0.0069857016 0.026644815
0002f0 0a 04 d1 3a 83 38 1c 3c 95 c4 a4 bc 68 a1 cf bb
       0.0015946638 0.009534958 -0.020113269 -0.00633638
000300 ce 84 16 3d 83 c2 f5 bb a3 38 c0 3c 73 e3 09 bb
       0.036747746 -0.0074999942 0.023464506 -0.0021040111
000310 cd 25 95 bc 5f 1d 4c 3c b5 32 c1 bc 70 8c c2 3b
       -0.018206501 0.0124581745 -0.02358375 0.0059371516
000320 9f 92 a0 ba 33 1d b3 bc 7e 80 2a 3c 26 8b 19 3c
       -0.0012250728 -0.02186451 0.0104066115 0.0093715545
000330 b9 69 c2 bb 22 e5 03 3a 15 23 95 3c 15 1d 9f 3b
       -0.0059330133 0.0005031397 0.018205205 0.004855762
000340 37 6c 81 3b b7 4e ba 3c b0 6f 18 bc 73 c8 d3 bc
       0.003949668 0.022742612 -0.009303972 -0.025852418
000350 bd 83 53 bc 6b 56 d4 3b 28 01 ad 3c 10 28 a5 3c
       -0.012909827 0.0064800284 0.021118715 0.020160705
000360 45 b9 80 3c 53 31 88 bb 90 b1 e4 bc 32 7f d3 3a
       0.015713343 -0.0041562705 -0.0279167 0.001613593
000370 1f 8b 26 3d c1 22 0d 3a e3 36 4d 3c 2f dc b0 bc
       0.04066002 0.0005383902 0.012525293 -0.021589367
000380 3f d6 e7 3c a3 8c 9b bc c6 20 ab bc d1 d9 35 3c
       0.028300403 -0.01898796 -0.020889651 0.011099295
000390 77 a5 c1 bb ff 4b 58 3c ee 39 89 bc 82 74 23 3c
       -0.0059096175 0.013201713 -0.016751256 0.009976508
0003a0 02 45 27 3c eb af 89 3c 45 7b b0 3c 93 19 4e bc
       0.010209324 0.016807517 0.021543154 -0.01257934
0003b0 f3 9a a2 bb 5b f1 ca bc 9d 2a 57 3c e2 75 93 bc
       -0.004962319 -0.02477329 0.013132718 -0.018000547
0003c0 ba b5 d3 3a d3 d9 ad bc 37 15 b5 bc 7d 3e 67 bc
       0.0016152181 -0.02122203 -0.022104843 -0.014114019
0003d0 27 2b e3 3c fa f7 e4 bc b7 a3 c3 3c a2 19 ef ba
       0.027730538 -0.027950276 0.023881776 -0.0018241892
0003e0 e4 79 01 bc fa 24 ea 39 ca b1 0d 3d 1f 55 30 3c
       -0.007902596 0.00044659508 0.03459338 0.010762482
0003f0 95 a6 bf bc 77 51 82 3c 13 de db bc 5f a8 61 bb
       -0.023394862 0.015907986 -0.026839292 -0.0034432632

action_model._continuous_distribution.mu.bias f4 [3]
000000 00 00 00 00 00 00 00 00 00 00 00 00
       0.0 0.0 0.0
