results/Test13/MoveToTarget/checkpoint.pt (torch, 149922 bytes, 12 tensors)

network_body._body_endoder.seq_layers.0.weight f4 [128, 6]
00000000: 481d 38bf 9ecf 173f 8532 593d b830 803d
00000010: 823d 043f 8576 063e b0f0 05bf 9657 123c
00000020: ac2c 5dbf a080 4ebe 542f c6be 2cfc f83e
00000030: 15eb b53c 64ad b6be 5880 203e 7d8f 2f3f
00000040: 3c40 75be 0257 2e3d f6bc 13bf 276b 47be
00000050: 1aa3 40bb 709b d73e 5978 a03e 8443 923e
00000060: 714b 19bf 89b6 d33d 7525 8cbe ef1f d8be
00000070: 320d 47bf 9b73 933e 58e7 1d3f ed92 c7be
00000080: 1dcb 16ba 4b16 bbbe 7380 d5be 46fc d1be
00000090: b9c0 52be 7593 00bf d546 50bf f3d8 073f
000000a0: a99e fc3d 294b 4f3e b6d8 ff3e e888 a1be
000000b0: a52a 44bf 074e 0a3d c7a6 44bf 5769 9cbe
000000c0: 9187 c83c 2d18 023f 3845 743f 48aa 63be
000000d0: 89f2 513e 3646 92be 60ab 643e bac1 4e3e
000000e0: 7b18 d33e 6bfc 84be 5d3c eb3d 5396 873d
000000f0: 06d2 0fbd 326d 3b3d 82ff 143f c6aa a13e
00000100: a3eb 303d 7864 aa3c a543 4bbf d5a7 27be
00000110: 85a8 02bf b9aa 3cbf b13b c93e 6fba 1c3f
00000120: d194 c9bd 4864 1fbe a3e0 d73e 91ad babe
00000130: 2855 d53e 3057 e6bd 38af 2e3e 7e31 d0be
00000140: feff 2b3f 8a26 79be dc3d 253d 178c 7abd
00000150: 7c34 fe3d 3ca9 b33e 0668 463e 79f2 c03e
00000160: bc07 2cbf 1c8a f2be c9b8 043f 5f9c bd3e
00000170: 856c 85bd 54c7 b6be 30e1 b13e b577 313f
00000180: b7cd 8b3d 1eed babe c74f a23e 71de 0e3f
00000190: 072e 5e3f d178 e23e 5039 013f 3da3 933d
000001a0: d64c b23d 9479 1c3c 88c8 17bd 17a0 bdbe
000001b0: 6264 8ebe 7962 acbe a677 83be b734 4ebe
000001c0: 85f3 183e a834 d7be 6eb7 393e 5148 55bf
000001d0: 2a0f 8a3d 15ed eb3e 921e 75be 4c9a cb3e
000001e0: 5ebd 0d3f 4fd6 49bf 84f3 1c3e 6255 d8be
000001f0: ae09 5fbe c5d2 c43e 5ea9 f1be 4039 4a3f
00000200: 60d1 663f 7fad 06be 8707 e43e 57ef 73bb
00000210: 673e babe ee67 08be 7dff bf3e f6de 00be
00000220: 6af5 e2bd 0e95 a8be f3ef 6bbd 428f 613e
00000230: a0cf 01be ec31 b83e 15f6 ec3e c734 cd3e
00000240: dc6b 343f 421f 013f 095c 523f 7cc3 9a3d
00000250: 72a3 cd3d 7df6 85bc dcdc e13e a531 cc3e
00000260: df4a 163e bfdb 543e 6211 8b3e e696 d6bb
00000270: 9cd8 cc3e 43f7 d7bd ae33 aebe d06c 5cbe
00000280: befc abbe 7c6b 5b3e 4aac 29be 040d 1bbd
00000290: d962 b23e db30 d9be d26e 183e 3194 81be
000002a0: ffa9 673e cc75 35bf 0332 19bc b34d 5b3f
000002b0: d6a6 aebe 8836 023f f2e0 31be a6c8 22be
000002c0: e78b 99be 45a6 c13e c2f8 f83e 0257 173e
000002d0: d310 2dbf 2d4c 123e c8ee 6d3e 5cf4 a73e
000002e0: 031f 49be 94ae 613f afdb 293e fe35 3b3e
000002f0: 3be2 b8be 2d9b dabe 5cf2 1d3e b0de fd3d
00000300: 7495 adbe b6f6 d13d ead0 0abf dc88 87be
00000310: a3c4 d43d 06c8 9bbd fb61 7f3e 584a 303f
00000320: c37b 98be 60fa a13e a6c1 883d 4638 3cbc
00000330: 42e3 1ebf f15f 9d3e fe19 773e c640 cabe
00000340: 26ee 31bd c066 313d ca14 a33e b398 7a3f
00000350: 21ce da3e baae ad3b cdf0 c33e ea8b 053f
00000360: d584 293f b273 e4bd 8c7d 193f 26a3 1f3f
00000370: 8ad8 98bd 69c5 413e c4ed 1dbe cf03 b93e
00000380: bc6b 8f3d f885 373e 51c0 9abd 7154 8cbe
00000390: b316 1dbf b35d 143f 180c 893e 7bb5 383e
000003a0: 6021 193f 01bd fb3e 1b2e f0bd 0fd5 553e
000003b0: 9e75 3ebf 1347 743e 54a2 eebd 59fa 473f
000003c0: 632e 06bf a75f a9be b64d 85bd 06f5 eb3d
000003d0: 961c 4b3f c239 3e3e 3b51 cbbe beaa 82bf
000003e0: 4a85 ac3e 39dc e0be 688a d93d 9ef7 3cbe
000003f0: dbaf 073f 27fc 78be 1074 57bf 93c9 ddbc
-0.7191968 0.59301174 0.053026695 0.06259292 0.51656353 0.13131149 -0.52320385 0.008932015
-0.8639629 -0.20166254 -0.38707983 0.48629892 0.022206822 -0.35679162 0.1567396 0.6857832
-0.23950285 0.042563446 -0.57710207 -0.19474469 -0.002939409 0.42110777 0.31341818 0.28567135
-0.5988074 0.1033755 -0.27372327 -0.42211863 -0.7775451 0.28799137 0.6168113 -0.38979283
-0.0005752312 -0.36540446 -0.4169956 -0.41012782 -0.2058133 -0.50225 -0.8135808 0.53065413
0.123349495 0.20243515 0.49970025 -0.31549764 -0.7662757 0.03376582 -0.7681698 -0.30549118
0.024478706 0.5081814 0.9541812 -0.22232926 0.20502676 -0.28569192 0.22331 0.20191088
0.41229615 -0.2597383 0.11486123 0.06620469 -0.035112403 0.045758434 0.58202374 0.31575602
0.04319347 0.02079986 -0.7940009 -0.16372617 -0.5103839 -0.73698 0.39303353 0.61221975
-0.098428376 -0.15565598 0.42163572 -0.36460546 0.41666532 -0.112470984 0.17059028 -0.4066276
0.6718749 -0.24331108 0.040342197 -0.061168756 0.12412354 0.35090053 0.1937562 0.37684992
-0.671993 -0.47370994 0.5184446 0.37033364 -0.06514839 -0.3569895 0.34742117 0.69323283
0.06826346 -0.3650903 0.3170149 0.5580817 0.8678898 0.442328 0.50478077 0.072088696
0.087060615 0.009550471 -0.037056476 -0.370362 -0.2781096 -0.3366888 -0.25677222 -0.20137297
0.14936645 -0.4203236 0.18136379 -0.8331347 0.067411736 0.46079317 -0.23937443 0.39766157
0.55367076 -0.78842634 0.15327269 -0.42252642 -0.21781036 0.38442054 -0.4719953 0.78993607
0.9016323 -0.13152121 0.44536993 -0.0037221515 -0.36375734 -0.13320896 0.3749961 -0.12585053
-0.11081965 -0.3292622 -0.05760188 0.22027305 -0.12676859 0.35975587 0.46281496 0.40079328
0.7047708 0.5043832 0.82171685 0.07556817 0.1004094 -0.016352886 0.44113815 0.39881626
0.14676999 0.20786951 0.271617 -0.00654875 0.4000901 -0.10545208 -0.34023803 -0.21525884
-0.33591264 0.21427721 -0.1656963 -0.03785421 0.3484104 -0.42420086 0.14886025 -0.25308374
0.22623442 -0.7088287 -0.009350303 0.85665435 -0.3411166 0.5086446 -0.17370966 -0.15896854
-0.2998955 0.37822166 0.48627287 0.14779285 -0.67603797 0.14286871 0.23235619 0.3280362
-0.19640736 0.8815701 0.16587709 0.18282315 -0.361101 -0.42696515 0.15424484 0.1239599
-0.33903086 0.102521345 -0.5422503 -0.26471603 0.10389068 -0.07606511 0.2493972 0.6886344
-0.29781923 0.31636333 0.066775605 -0.011488026 -0.6206552 0.3073726 0.24131009 -0.39502543
-0.043440007 0.04331088 0.31851798 0.9788925 0.4273539 0.00530037 0.38269654 0.52166617
0.6621831 -0.1115488 0.59957194 0.6235832 -0.074631765 0.18922962 -0.15422732 0.36135718
0.070029706 0.17922199 -0.07556213 -0.27408174 -0.6136276 0.57955474 0.2676704 0.1803798
0.5981655 0.49167636 -0.11727544 0.20882057 -0.7439822 0.23855238 -0.116520554 0.78116375
-0.5241453 -0.3308079 -0.06508963 0.11521344 0.79340494 0.1857672 -0.3971041 -1.0208356
0.3369544 -0.43918017 0.10622102 -0.18453833 0.5300271 -0.24314938 -0.8416147 -0.027073657

network_body._body_endoder.seq_layers.0.bias f4 [128]
00000000: 0000 0000 0000 0000 0000 0000 0000 0000
00000010: 0000 0000 0000 0000 0000 0000 0000 0000
00000020: 0000 0000 0000 0000 0000 0000 0000 0000
00000030: 0000 0000 0000 0000 0000 0000 0000 0000
00000040: 0000 0000 0000 0000 0000 0000 0000 0000
00000050: 0000 0000 0000 0000 0000 0000 0000 0000
00000060: 0000 0000 0000 0000 0000 0000 0000 0000
00000070: 0000 0000 0000 0000 0000 0000 0000 0000
00000080: 0000 0000 0000 0000 0000 0000 0000 0000
00000090: 0000 0000 0000 0000 0000 0000 0000 0000
000000a0: 0000 0000 0000 0000 0000 0000 0000 0000
000000b0: 0000 0000 0000 0000 0000 0000 0000 0000
000000c0: 0000 0000 0000 0000 0000 0000 0000 0000
000000d0: 0000 0000 0000 0000 0000 0000 0000 0000
000000e0: 0000 0000 0000 0000 0000 0000 0000 0000
000000f0: 0000 0000 0000 0000 0000 0000 0000 0000
00000100: 0000 0000 0000 0000 0000 0000 0000 0000
00000110: 0000 0000 0000 0000 0000 0000 0000 0000
00000120: 0000 0000 0000 0000 0000 0000 0000 0000
00000130: 0000 0000 0000 0000 0000 0000 0000 0000
00000140: 0000 0000 0000 0000 0000 0000 0000 0000
00000150: 0000 0000 0000 0000 0000 0000 0000 0000
00000160: 0000 0000 0000 0000 0000 0000 0000 0000
00000170: 0000 0000 0000 0000 0000 0000 0000 0000
00000180: 0000 0000 0000 0000 0000 0000 0000 0000
00000190: 0000 0000 0000 0000 0000 0000 0000 0000
000001a0: 0000 0000 0000 0000 0000 0000 0000 0000
000001b0: 0000 0000 0000 0000 0000 0000 0000 0000
000001c0: 0000 0000 0000 0000 0000 0000 0000 0000
000001d0: 0000 0000 0000 0000 0000 0000 0000 0000
000001e0: 0000 0000 0000 0000 0000 0000 0000 0000
000001f0: 0000 0000 0000 0000 0000 0000 0000 0000
0.0 0.0 0.0 0.0 0.0 0.0 0.0 0.0
0.0 0.0 0.0 0.0 0.0 0.0 0.0 0.0
0.0 0.0 0.0 0.0 0.0 0.0 0.0 0.0
0.0 0.0 0.0 0.0 0.0 0.0 0.0 0.0
0.0 0.0 0.0 0.0 0.0 0.0 0.0 0.0
0.0 0.0 0.0 0.0 0.0 0.0 0.0 0.0
0.0 0.0 0.0 0.0 0.0 0.0 0.0 0.0
0.0 0.0 0.0 0.0 0.0 0.0 0.0 0.0
0.0 0.0 0.0 0.0 0.0 0.0 0.0 0.0
0.0 0.0 0.0 0.0 0.0 0.0 0.0 0.0
0.0 0.0 0.0 0.0 0.0 0.0 0.0 0.0
0.0 0.0 0.0 0.0 0.0 0.0 0.0 0.0
0.0 0.0 0.0 0.0 0.0 0.0 0.0 0.0
0.0 0.0 0.0 0.0 0.0 0.0 0.0 0.0
0.0 0.0 0.0 0.0 0.0 0.0 0.0 0.0
0.0 0.0 0.0 0.0 0.0 0.0 0.0 0.0

network_body._body_endoder.seq_layers.2.weight f4 [128, 128]
00000000: e8fb 893c ea72 c4bc f98d f3bd ba36 01bd
00000010: efe2 07be 6028 833c d63f 8c3c 95da ff3b
00000020: 8545 d23d f0da cd3c 3a56 21bc 9da0 d2bd
00000030: 6e97 c43d 7cc8 94bd b955 b03d a882 3bbc
00000040: aded 88bd 7379 033e c65b febd 3c7c c8bd
00000050: 7932 15bc eca4 fabc 1d74 b73c 6aae 05bd
00000060: 8fb6 443c a2c6 acbd fd0b 33be 4c35 fd3d
00000070: 35d6 173e 5ee8 173e 6438 0dbe 0a36 0dbe
00000080: 866e e13d bfc5 b2bd 0872 b03d 4321 9a3d
00000090: ff79 8a3c 8090 15bd ff01 1ebd 3cf0 2bbe
000000a0: b6cf 343e df99 d93d b551 01be 035d afbd
000000b0: 01f5 263e adb5 70bd 80f1 343d 229d 2fbd
000000c0: ba02 b4bd 5881 993d e98f 323e c0e9 7d3d
000000d0: 4e6c 763c 2429 0d3d 67c0 20bd d0b1 533d
000000e0: 4570 803c 590f 38bd b9f3 e73d 168b a7bc
000000f0: 3724 7dbd f54c 8e3c a5eb acbd 9f27 223d
00000100: 0549 0c3b 8ed8 663e 53e2 fabd 6771 dabc
00000110: e519 223d eb47 053e 9a17 0dbe fa54 babd
00000120: 6672 883d 5dc6 103e a486 723d f9a4 f8bb
00000130: 9212 903b 347f b43d 14a2 083d 65e2 0dbe
00000140: eaa7 b73c 9757 223d ca4c 093e 9070 473d
00000150: b41c 31bc e845 613d d368 abbd 5232 a5bd
00000160: ec0a f03c 6fea 1d3e ac28 073e 3167 8a3b
00000170: ac56 843d b494 67ba 5777 1d3e 82d7 f23d
00000180: 6210 16bc 933e cbbd dcec b4bd ab5c eebd
00000190: 0a44 ea3d a18f 6dbe 63d3 7a3d 6f7b f23d
000001a0: 74f3 f53c fd0f babd ac6d e13c f8d3 d6bc
000001b0: 28ee b53d c3ea febd caa3 96bd e4e0 d4bc
000001c0: 31eb 60bd 0b68 4a3d 9476 c53d 85eb 89bc
000001d0: 3133 d73d 6bd5 af3d bb56 e43c aade 3cbe
000001e0: 9ef2 9ebd 4e30 efbc 55b3 103e 6fd2 42be
000001f0: d4ec e83d 162f 153e aa86 89bb 74ab 01bd
00000200: 333a 363e a447 c03d 37bd 133e b661 0b3e
00000210: 2019 1e3d 9339 8d3c 421b e0bd 0cd5 8db9
00000220: 4582 3bbd a5d1 b7bd 6891 1cbd 8308 36bd
00000230: c053 393d fe2a bd3d 6036 ef3c b4aa 133d
00000240: eac0 653d 70c5 a5bd 1a1c 463c 2b92 4f3d
00000250: 0e0f 6a3e 3407 78be 8387 0e3b d045 653c
00000260: 9328 abbc 7964 d23d d5cf 52bd 305e 07bb
00000270: 72c9 3a3d 43f1 713e 93e1 f9bd e6b5 0c3c
00000280: 050b 42bd 57d9 c0bd a4da 113e 851f 423a
00000290: e850 67bd 61c8 9b3d ccaa 07be 759b 41bd
000002a0: 1831 1dbc 1765 adbc 9717 23be 8cdc 3d39
000002b0: 646c 5abb 635f 42bd 56e1 5c3d 76e9 b4bd
000002c0: e0dc 933d e0dc 823c debd 91bd 0950 aebc
000002d0: 6767 103e dbb9 33bd 96e7 c6bd 25de d73d
000002e0: cae8 4f3e b6fc da3d e9da 943d 4d49 aebd
000002f0: ba98 2b3d e6a7 28be bb89 063d 4896 243e
00000300: f322 1d3d 9460 9f3b 21fb b7bc 2902 85bd
00000310: e2cc dabd 2f08 563c c33f aabc 9ef7 853d
00000320: d56f 903d 7d4f 5a3c b3ee 093d 37a7 623b
00000330: 1231 973d 925d 5bbd 929d af3d 68b4 133d
00000340: f132 083e 4eb8 963d 392a 8cbc e717 5d3d
00000350: 10b6 18bd 17cf a43c 60cd c5bc 84e7 d73d
00000360: fa71 d83d 6010 48bd 1450 4abd 7a4c 093c
00000370: 2e53 80bd 3c4f 75bd a056 42bd 8a25 103e
00000380: 9507 a53c 2e87 e93d 77a0 29bd 066e 443d
00000390: 4fc9 023e 0698 0d3c 7590 0b3d c1d9 4bbd
000003a0: 49aa a83d e64a 963d 3aa1 243d 4192 ef3c
000003b0: f5e1 543d 56e1 c0bc 4a18 edbd 07cc 47be
000003c0: add1 033e d264 1cbe f178 433b 8138 84bd
000003d0: 308f a23a a906 8b3d 7b77 3e3e 90aa 87bd
000003e0: 740c dfbc b548 ce3d 7858 7cbd 59b1 88be
000003f0: 0634 a1bc 8058 65bd ccfb b73d 0f6f 21bd
0.016843751 -0.023980577 -0.118923135 -0.031546332 -0.13270162 0.016010463 0.017120283 0.0078080394
0.10267166 0.025128812 -0.009847218 -0.10284541 0.095991954 -0.07264802 0.086101 -0.011444725
-0.06685958 0.12839298 -0.12419848 -0.09789321 -0.009106272 -0.030596219 0.022394234 -0.032637037
0.012006416 -0.08436324 -0.17485042 0.12363681 0.14827807 0.14834735 -0.13791043 -0.13790146
0.11007409 -0.08729123 0.086155 0.075258754 0.016903875 -0.03651476 -0.038576122 -0.16790861
0.1765736 0.10625052 -0.12628825 -0.085626625 0.16304399 -0.05876701 0.044175625 -0.042874463
-0.087895826 0.074953735 0.1743771 0.0619905 0.01504047 0.034463063 -0.03924599 0.051683247
0.015678534 -0.04493651 0.11325783 -0.020452064 -0.061802115 0.01737068 -0.08443383 0.039588567
0.0021405828 0.22543547 -0.12250199 -0.026665403 0.039575476 0.13015716 -0.13778535 -0.09098239
0.06662445 0.1413817 0.059210435 -0.0075880256 0.004396745 0.088133246 0.033357695 -0.13855894
0.022418935 0.039634313 0.13408199 0.048691332 -0.010810066 0.05499831 -0.08369603 -0.080662385
0.029302083 0.1542146 0.13199109 0.004223727 0.06461844 -0.0008834109 0.15377556 0.11857511
-0.009159179 -0.099240445 -0.0883424 -0.11638769 0.11438759 -0.23199321 0.06123675 0.11839949
0.030023314 -0.09085081 0.027518116 -0.026224121 0.08883315 -0.12447121 -0.07355459 -0.025986142
-0.054911796 0.04941563 0.096417576 -0.016835937 0.10507811 0.08585628 0.027873388 -0.18444315
-0.07761119 -0.029197838 0.1413091 -0.19025587 0.113732964 0.14568743 -0.0041969614 -0.03165765
0.17795639 0.09388664 0.14427648 0.13611493 0.03859818 0.017239368 -0.10942699 -0.00027052348
-0.04577853 -0.089755334 -0.038224608 -0.04444171 0.045245886 0.09236716 0.029200733 0.036051467
0.05609218 -0.08094299 0.012091661 0.050676506 0.22857305 -0.24221498 0.0021748252 0.013993695
-0.02089337 0.1027307 -0.051467735 -0.0020655505 0.04560227 0.2362719 -0.12201228 0.00858829
-0.04737379 -0.09416454 0.14243561 0.00074052095 -0.056473643 0.076065786 -0.13248748 -0.047267396
-0.009594224 -0.021166367 -0.15926968 0.00018106605 -0.0033328766 -0.04745425 0.053925835 -0.08833592
0.07219863 0.015974462 -0.071162924 -0.021278398 0.14101945 -0.043878417 -0.0971214 0.105404176
0.20303646 0.10692732 0.07268316 -0.08510075 0.0418937 -0.16470298 0.032846194 0.16072953
0.03836341 0.004863808 -0.022458615 -0.06494553 -0.106836095 0.013063475 -0.020782357 0.0654137
0.0705258 0.013324616 0.033674907 0.003458453 0.07382406 -0.053556032 0.08574976 0.03606072
0.13300683 0.07359372 -0.017109977 0.053977873 -0.037283003 0.02011828 -0.024145782 0.10542205
0.10568614 -0.04884374 -0.049392775 0.00838005 -0.06265865 -0.059890017 -0.047445893 0.1407682
0.020145217 0.114027366 -0.041412797 0.04795649 0.12772106 0.008642202 0.03407331 -0.049768213
0.08235604 0.073385045 0.04019282 0.029244544 0.051973302 -0.023544949 -0.115768984 -0.19511424
0.12872954 -0.15272835 0.0029826725 -0.0645609 0.0012402292 0.0678838 0.18600266 -0.06624329
-0.027227618 0.100724615 -0.061607808 -0.26697806 -0.019678127 -0.055992603 0.08983573 -0.039412554

network_body._body_endoder.seq_layers.2.bias f4 [128]
00000000: 0000 0000 0000 0000 0000 0000 0000 0000
00000010: 0000 0000 0000 0000 0000 0000 0000 0000
00000020: 0000 0000 0000 0000 0000 0000 0000 0000
00000030: 0000 0000 0000 0000 0000 0000 0000 0000
00000040: 0000 0000 0000 0000 0000 0000 0000 0000
00000050: 0000 0000 0000 0000 0000 0000 0000 0000
00000060: 0000 0000 0000 0000 0000 0000 0000 0000
00000070: 0000 0000 0000 0000 0000 0000 0000 0000
00000080: 0000 0000 0000 0000 0000 0000 0000 0000
00000090: 0000 0000 0000 0000 0000 0000 0000 0000
000000a0: 0000 0000 0000 0000 0000 0000 0000 0000
000000b0: 0000 0000 0000 0000 0000 0000 0000 0000
000000c0: 0000 0000 0000 0000 0000 0000 0000 0000
000000d0: 0000 0000 0000 0000 0000 0000 0000 0000
000000e0: 0000 0000 0000 0000 0000 0000 0000 0000
000000f0: 0000 0000 0000 0000 0000 0000 0000 0000
00000100: 0000 0000 0000 0000 0000 0000 0000 0000
00000110: 0000 0000 0000 0000 0000 0000 0000 0000
00000120: 0000 0000 0000 0000 0000 0000 0000 0000
00000130: 0000 0000 0000 0000 0000 0000 0000 0000
00000140: 0000 0000 0000 0000 0000 0000 0000 0000
00000150: 0000 0000 0000 0000 0000 0000 0000 0000
00000160: 0000 0000 0000 0000 0000 0000 0000 0000
00000170: 0000 0000 0000 0000 0000 0000 0000 0000
00000180: 0000 0000 0000 0000 0000 0000 0000 0000
00000190: 0000 0000 0000 0000 0000 0000 0000 0000
000001a0: 0000 0000 0000 0000 0000 0000 0000 0000
000001b0: 0000 0000 0000 0000 0000 0000 0000 0000
000001c0: 0000 0000 0000 0000 0000 0000 0000 0000
000001d0: 0000 0000 0000 0000 0000 0000 0000 0000
000001e0: 0000 0000 0000 0000 0000 0000 0000 0000
000001f0: 0000 0000 0000 0000 0000 0000 0000 0000
0.0 0.0 0.0 0.0 0.0 0.0 0.0 0.0
0.0 0.0 0.0 0.0 0.0 0.0 0.0 0.0
0.0 0.0 0.0 0.0 0.0 0.0 0.0 0.0
0.0 0.0 0.0 0.0 0.0 0.0 0.0 0.0
0.0 0.0 0.0 0.0 0.0 0.0 0.0 0.0
0.0 0.0 0.0 0.0 0.0 0.0 0.0 0.0
0.0 0.0 0.0 0.0 0.0 0.0 0.0 0.0
0.0 0.0 0.0 0.0 0.0 0.0 0.0 0.0
0.0 0.0 0.0 0.0 0.0 0.0 0.0 0.0
0.0 0.0 0.0 0.0 0.0 0.0 0.0 0.0
0.0 0.0 0.0 0.0 0.0 0.0 0.0 0.0
0.0 0.0 0.0 0.0 0.0 0.0 0.0 0.0
0.0 0.0 0.0 0.0 0.0 0.0 0.0 0.0
0.0 0.0 0.0 0.0 0.0 0.0 0.0 0.0
0.0 0.0 0.0 0.0 0.0 0.0 0.0 0.0
0.0 0.0 0.0 0.0 0.0 0.0 0.0 0.0

action_model._continuous_distribution.log_sigma f4 [1, 3]
00000000: 0000 0000 0000 0000 0000 0000
0.0 0.0 0.0

action_model._continuous_distribution.mu.weight f4 [3, 128]
00000000: 4b5e f1bc 6ac6 80bc 08e2 d9bb 336d 923c
00000010: 7ba9 323c a570 99bc 6851 14bc fb90 f8ba
00000020: 7db2 ce3c 4f17 a23c 9010 a5bc 6d91 073d
00000030: a0a0 32bd 77b6 00bb 3741 043c d043 7a3b
00000040: 5506 b83c cb07 b4bc e75c 033b fd65 5abc
00000050: 9755 29bc cf25 d43c 200c 7f3c af01 f2bb
00000060: 28fa 58bb f318 16bb 5ab0 9d3c 4c05 b63c
00000070: 057a 533c 9580 78bb 090f 1fbb 8b68 0dbd
00000080: 05ec 843c c2fb 2e3b 5b30 da3a 122c f4b9
00000090: bbdb 413d b766 083c 9741 febb 75c7 c73c
000000a0: 4a80 5f3c 4fec 623b bd34 0a3b 09f2 bdba
000000b0: 9f11 ae3c a380 973c 23a0 1a3b a37c 16bc
000000c0: 107b 8c3c 65a0 1fba b34d 503b e570 863c
000000d0: b278 7cbc 9a10 d6bb 6720 a8bc 05d8 2e3c
000000e0: a2e5 f83b 9580 223d 2f61 93bc c713 acba
000000f0: ddd7 993c 80b6 4abc 4b05 bf3c eba9 e03a
00000100: ef50 05bd 2f4f 83bc 9a4b 64bc b71f b8bb
00000110: 56e4 863b 7372 a9bb 4470 07bc e7fb a5bc
00000120: 95a6 40bc edd4 a8bc f832 803c 8141 b6bc
00000130: e968 073d 2d98 ebbb 1eb0 09bc dc4c 0cbc
00000140: 0218 c03c 4b53 933c 5bb7 20bb f0ef 5f3b
00000150: 1b27 66bc f3f7 083a 869e 8cbc 6033 543b
00000160: f288 c6bc cac1 eeba 3b77 1e3d 872b c83c
00000170: 1c8d 12bc 18e6 853c 300f a3bc 2705 31bc
00000180: c72d 12bc a824 9ebb cbb4 71bb 77ba 513c
00000190: eb63 943c 6d6a 4c3a c79b f3ba 5e9d 3abc
000001a0: c5d0 49bb 4b56 033c 9135 13bc 03e2 45bc
000001b0: f3bf 243d 4ba5 f8bb cb86 d5bc e5b6 a23a
000001c0: e941 97bc f3b6 f73c 692b 053d 393f 933c
000001d0: 9059 81bb 1310 04bb b301 89bb 8931 3dbb
000001e0: d154 013d 007e e6bc 9121 1bbd c52d 973c
000001f0: ab63 7d3c 82da 5ebc 2cc2 b5bc 3947 37bc
00000200: ab22 1b3c 6fcb 5a3b 9346 b43c 22d1 513c
00000210: b4d3 33b8 7f7a cbbb 5c20 14bb a644 90bc
00000220: c632 9d3c d32d 8e3b 3752 17bd 069e 443c
00000230: 6623 16bd d6d8 b63c 5220 033d 382b f03c
00000240: 9306 de3b f0d5 46bc 5809 95bc b75a 85bb
00000250: cbbc 3b3c 480c 99bc 6b83 913c 9759 1abc
00000260: 22d1 e93c 58f2 e43b 8527 c0ba 1729 82bc
00000270: 16ba 083d 4a07 13bc 72c4 703b b4d5 033b
00000280: 4754 903c af9f 223d 8c7e 00bd 6f54 06bd
00000290: 15da c839 78d8 2fbb 6139 25bc b7fa b2bc
000002a0: 9ec1 3ebb 6f1b 77bb 76e8 483c c39f f3bb
000002b0: e03a 013c a23e 03bc eba4 a3bb cd12 6dbc
000002c0: 996b 293d b8ae 58bb 1324 8dbc a769 b13b
000002d0: 9056 fdbb c648 12bc c393 ba3c bd33 f2bc
000002e0: 1591 7b3c 53c0 98ba 92c9 8abb b655 c5bc
000002f0: b594 cf3c f3c8 473c eb0f 76bb 7af2 ac3c
00000300: 4764 d3bc 2195 b9b8 b742 923c d473 1e3c
00000310: 5d85 7dbb fc10 383c bf86 a6bb 0239 2f3d
00000320: 7342 8e3b 0020 633c 8646 2a3c cff6 033c
00000330: 9962 9e3c ed88 27bc b991 19bd 7239 debb
00000340: ea93 4c3c 5364 30bc ab9a cc3c 7057 7c3c
00000350: 9d11 0e3d 9f83 0bbc e363 fc3c 72be cf3c
00000360: 75f2 f73c 6755 a8bc 03a3 bd3b 5398 41bb
00000370: fe54 973c b775 99bb c3bf 8f3a f5b5 f83c
00000380: 1a18 4fbc 5abc 3abc 61b5 2aba e012 253c
00000390: cc92 133b 6590 f33b d305 fe3c baf5 5bbc
000003a0: d0b1 f03a 3dbe 7c3c 6bff 7fbc 0d8c bcbc
000003b0: 0714 9fbc 4259 46bb 87ae 873b 9b49 88bc
000003c0: a2c2 72bb 037b 5ebc 1372 b83a b486 823c
000003d0: 6dac 663b aec1 ccbc 38f2 cebb d381 f1bc
000003e0: bfe2 c43b 2e10 2c3c 0083 f33c a56e 6cb9
000003f0: 1705 9a3c 6098 933b 75d9 52bc 7a60 8fbb
-0.029463908 -0.015719611 -0.0066492595 0.017874336 0.010904665 -0.01873047 -0.009052612 -0.0018964106
0.025231594 0.019786505 -0.0201495 0.033097673 -0.043610215 -0.0019640008 0.008072189 0.0038187392
0.022463957 -0.021976372 0.0020044388 -0.01332998 -0.010335348 0.025896935 0.015566856 -0.0073854546
-0.003310809 -0.0022903054 0.01924913 0.022219323 0.01290751 -0.0037918438 -0.0024270436 -0.034523528
0.016225824 0.0026700352 0.0016646491 -0.00046572142 0.047328692 0.00832527 -0.0077592838 0.0243871
0.013641426 0.0034625714 0.0021088563 -0.0014491688 0.021248637 0.018493956 0.0023593984 -0.009184989
0.017148525 -0.00060892693 0.0031784594 0.016411254 -0.015409635 -0.006532741 -0.020523263 0.01067162
0.0075957337 0.039673407 -0.017990677 -0.0013128453 0.01877969 -0.012372613 0.023317954 0.0017140483
-0.032547887 -0.016028969 -0.01393404 -0.005619015 0.0041165752 -0.005171114 -0.008266512 -0.020261718
-0.011758466 -0.020609343 0.015649304 -0.022248032 0.033059034 -0.0071897716 -0.008403806 -0.008563247
0.023448948 0.017984053 -0.002452335 0.0034170114 -0.014047409 0.00052249356 -0.017165434 0.0032379255
-0.024235222 -0.0018215713 0.038687926 0.024434818 -0.008944776 0.016345069 -0.019904703 -0.010804451
-0.008922047 -0.004826147 -0.0036881443 0.012800804 0.01811405 0.0007797841 -0.0018585854 -0.011390058
-0.0030794602 0.008016179 -0.008984939 -0.012077811 0.04022212 -0.007588064 -0.02606525 0.0012414126
-0.018464046 0.030238604 0.032512102 0.017974483 -0.0039474443 -0.0020151183 -0.0041811108 -0.0028868637
0.031575028 -0.028136253 -0.03787381 0.018454442 0.015465657 -0.013601901 -0.022187315 -0.011186414
0.009468715 0.0033385416 0.022006309 0.012806209 -4.287409e-05 -0.006209671 -0.0022602296 -0.01761086
0.01918925 0.0043389588 -0.03694364 0.012000566 -0.036654852 0.022320192 0.032013245 0.029317483
0.006775686 -0.012135968 -0.018192932 -0.004069652 0.011458586 -0.018682614 0.01776286 -0.009420774
0.028542105 0.0069868974 -0.0014660215 -0.015888734 0.03338059 -0.008973906 0.0036738184 0.002011639
0.017618312 0.039703067 -0.031370685 -0.032795366 0.00038309456 -0.0026831906 -0.010084481 -0.021848066
-0.0029107104 -0.003770556 0.012262454 -0.0074348166 0.007887572 -0.008010538 -0.004994025 -0.0144698145
0.04136238 -0.0033063125 -0.017229116 0.005414206 -0.0077312663 -0.008928483 0.022775536 -0.029565686
0.0153544145 -0.0011653997 -0.004235455 -0.024088722 0.025339464 0.012193906 -0.003754611 0.021111716
-0.025804652 -8.849265e-05 0.017854078 0.00967117 -0.0038684227 0.011234518 -0.005081981 0.042778976
0.0043414175 0.01386261 0.010392791 0.008054449 0.019334124 -0.010225517 -0.037492488 -0.0067817504
0.012486437 -0.010766107 0.024976095 0.015401706 0.034684766 -0.008515268 0.030809348 0.025359366
0.03026698 -0.020548536 0.005787255 -0.0029540255 0.018473145 -0.004683222 0.0010967184 0.030360201
-0.012640024 -0.011397446 -0.0006512013 0.010075301 0.0022517918 0.0074329847 0.031008637 -0.013425285
0.0018363539 0.015426216 -0.015624861 -0.023016 -0.01941873 -0.0030265604 0.0041406783 -0.01663666
-0.003704228 -0.013579133 0.0014072083 0.015933372 0.0035197989 -0.024994697 -0.006315496 -0.02948085
0.0060084756 0.010501904 0.029725552 -0.00022547932 0.018801255 0.0045042485 -0.012869229 -0.0043755146

action_model._continuous_distribution.mu.bias f4 [3]
00000000: 0000 0000 0000 0000 0000 0000
0.0 0.0 0.0

network_body._body_endoder.seq_layers.0.weight f4 [128, 6]
00000000: 461a c0be e94c 9fbb 6c61 fcbe 5c14 9bbb
00000010: a92b 19be 3378 633d c766 80bc 83f0 fa3e
00000020: b016 f5bd 6057 d1be 6757 e9bd 41d5 6dbe
00000030: 2eb5 90be 9fb1 80be b5a8 d73b 578b 5dbe
00000040: b6c2 e43c a451 273f dd03 b13e 22ec 313e
00000050: 7d52 01bd 6b70 223d d548 d73e a624 ff3e
00000060: 4c8d 9abc b07c 353d c5db 34bd 4297 eabe
00000070: 7f0f 28bf 78b9 213f e469 9b3e e108 1ebf
00000080: 91fa 61bf 239c 2b3e 78f8 833e e655 103e
00000090: 736b 92ba 17d2 3d3f d528 403d c358 4ebd
000000a0: f888 9fbe 904f e2be fc23 2c3d 4b4d d43e
000000b0: c597 7e3e d9e1 0e3e 67c7 a1be 7972 87bd
000000c0: 150f 0abf ad2b 183f 4156 45bf 9f33 d0bd
000000d0: cb5b 013d f2ac 813e 240f d93d f118 e2be
000000e0: 92cb 3b3e b91e 013f 48ff e53e 94c2 7c3e
000000f0: 922e 653e 18d4 42bf 62c4 183f 824f 6b3d
00000100: 7da3 88bd 7067 42bf 252c 07be ab4d cd3e
00000110: 2959 983e 5baf 06bd 14f5 fd3d 863e 0bbf
00000120: c8f1 24be d3a6 503e 243a 8fbe abc7 76bf
00000130: 4670 0b3e 87ae fdbe b2bf 153e 8ba0 19bf
00000140: a6dc 563d e587 42bf 2fee a6be fd42 afbe
00000150: 1609 8e3e 3ea2 c43c cf48 063f f640 793e
00000160: c4d1 04bf ef27 abbe 5a05 f73d a396 f73e
00000170: fc54 2d3e 8e21 c6be ea12 283e c0d1 263e
00000180: a6e4 9d3e 89ab 54bf bafe a3be d00d 7ebe
00000190: 9f51 e8bd 7326 983e a807 743e 7146 cd3d
000001a0: 0064 4fbe 451c 6e3e d95a 16bf 2a6a 52be
000001b0: 19e3 bcbe 69cc 9f3d 3be8 283f fb4f 1fbd
000001c0: b9f7 f7be de66 443e 4c3d cd3d ad63 edbd
000001d0: 965c 3b3e 35cf d4be 3345 d1be d016 bdbe
000001e0: 2d6b ccbc 36a5 9cbe 8fd3 bd3e 56ea cabd
000001f0: 1d6a 823c 0161 023f aec0 2f3f bf61 1b3f
00000200: 0fa9 acbe fd23 883f 76cc 0b3f 2e4b d53c
00000210: ccc2 46be c889 243f 0870 06be 0a4b 39be
00000220: 7e7a cc3e 5985 b3be da81 393e f6bd 32be
00000230: 8375 60be a979 533c 1be1 bbbd a2d5 063f
00000240: a5a5 c9be b867 673e 3595 52be 669f debd
00000250: 038a 233e 1a25 733d 79e8 723e dfb3 c4be
00000260: da8a fcbe 5258 52be 1aa4 95be 2a2d a23e
00000270: d3ad 263f 5789 b33e ed3e c2be 1385 673e
00000280: 1285 8f3e 9386 85be b3c5 1dbe ac13 cdbd
00000290: aab6 59bb 3837 343e b317 0c3f e789 08bf
000002a0: 7a24 273d 5dec a4be cc16 d73e 9cb3 ff3e
000002b0: 990c 12be 1c42 123f 97af 98be a927 8bbf
000002c0: b0a5 d63b f64d 9a3e c985 493d b2d3 6f3e
000002d0: 320f 393f 38c2 393f 836f d1be 74cc 45be
000002e0: 2f37 35be 68a4 4abc 85eb 543e b632 443f
000002f0: 7200 1abd 60bb cabe 2ce5 12bf 8995 2b3e
00000300: 21c4 93be a96d bcbe c269 c5be 4999 e8be
00000310: 9e7e 8f3e 351a 17bf 67b3 a83b 0362 ccbe
00000320: ad16 703e 4727 893e f587 06be e597 bfbe
00000330: 569c 2e3f dcdc 0ebd a014 093f 0dbe 3abe
00000340: 5ca5 8bbc 05eb 873e ddcd 003f 149b 19bc
00000350: 2929 b5be fdd1 b43d 05b5 36be bde3 f9bc
00000360: 9a74 afbe 1c95 c0be 2959 81bd e444 44be
00000370: 4445 113e b630 24bf 7e60 bc3d 83bf d2be
00000380: cc3a 8d3e f446 183f 2fc5 2c3e f104 94be
00000390: 8566 e93d a442 383d d9e1 083f 1cc3 a53e
000003a0: 94f8 adbb f8c5 e93d b94a 95bd 529e 393f
000003b0: dd28 30bf afd8 ca3e 0747 c7bc 5255 38bf
000003c0: 1a36 eabe ef2f 24bf d7f8 99be 2894 79be
000003d0: ef1f 91be 3b64 c33d 8c00 3a3e 3664 8ebe
000003e0: 4d20 02be df4f 1c3f 24cd 2dbe 7d82 f53e
000003f0: a7a7 8f3c eba9 bdbc d6ae 953e 2788 9bbd
-0.37520045 -0.0048614633 -0.49293077 -0.0047326516 -0.14958061 0.055534553 -0.015674008 0.4901162
-0.11967218 -0.40886974 -0.11393624 -0.23225881 -0.2826323 -0.25135514 0.0065813907 -0.21635185
0.027924877 0.6535895 0.3457326 0.17375234 -0.031572808 0.03965799 0.42047754 0.49832648
-0.018866204 0.044308364 -0.0441549 -0.45818526 -0.65648645 0.6317363 0.30354226 -0.617323
-0.8827296 0.1675878 0.25775504 0.14095268 -0.0011170938 0.74148697 0.04691394 -0.05037762
-0.31159186 -0.44201326 0.042026505 0.4146522 0.24862583 0.13953342 -0.31597444 -0.06613631
-0.53929263 0.59441644 -0.7708474 -0.10166096 0.03158168 0.2532726 0.10598591 -0.44159654
0.18339375 0.50437504 0.44921327 0.246836 0.22381046 -0.7610488 0.59674656 0.05744887
-0.06671808 -0.75939083 -0.13200434 0.40098318 0.29755524 -0.032882076 0.124002606 -0.5439228
-0.16107857 0.20376138 -0.27974045 -0.9639842 0.13617048 -0.49547216 0.14623907 -0.60010594
0.05245652 -0.7598861 -0.32603595 -0.34230796 0.27741307 0.024003144 0.5245485 0.24341187
-0.51882577 -0.33428904 0.120615676 0.48357114 0.1692695 -0.38697475 0.16413465 0.16290951
0.30838507 -0.8307424 -0.32030278 -0.24809957 -0.11343693 0.29716834 0.23831046 0.10023201
-0.2025299 0.23252971 -0.5873237 -0.20548311 -0.36892012 0.0780266 0.65979356 -0.038894635
-0.48431185 0.19179866 0.10021457 -0.11591277 0.18297037 -0.41564336 -0.40873107 -0.36931467
-0.02495345 -0.30594796 0.3707547 -0.09907977 0.01591974 0.50929266 0.6865338 0.60696024
-0.3372273 1.0635983 0.5460886 0.026036825 -0.19410247 0.6427274 -0.13128674 -0.18095031
0.39937204 -0.35062674 0.1811594 -0.17455277 -0.21919827 0.012907424 -0.09173795 0.5266973
-0.3938419 0.2259816 -0.2056473 -0.108702466 0.15970616 0.059361555 0.23721494 -0.3841848
-0.49324685 -0.20541504 -0.29226762 0.31675082 0.65108985 0.3506572 -0.37938634 0.22609358
0.28031212 -0.26079234 -0.15407448 -0.10013518 -0.0033220449 0.1759919 0.5472366 -0.5333542
0.04080627 -0.3221158 0.4200958 0.4994172 -0.14262618 0.57132125 -0.29821464 -1.0871478
0.006550513 0.30137604 0.049199853 0.23420599 0.7228881 0.7256198 -0.4090539 -0.19316274
-0.17696832 -0.012368299 0.20792969 0.7663988 -0.03759808 -0.3959608 -0.5738094 0.16756262
-0.28860572 -0.36802414 -0.3855725 -0.45429447 0.2802629 -0.59024364 0.0051483396 -0.39918527
0.2344615 0.2678778 -0.13137801 -0.37420574 0.682073 -0.034878597 0.53547096 -0.18236561
-0.017046623 0.26546493 0.5031412 -0.009375352 -0.35382965 0.088291146 -0.17842491 -0.030504102
-0.34268647 -0.3761376 -0.06315834 -0.19166905 0.14186579 -0.64136827 0.09198092 -0.41161737
0.2758392 0.59483266 0.16872095 -0.2891002 0.11396507 0.04498543 0.53469616 0.3237542
-0.005309174 0.11414713 -0.07289643 0.725072 -0.6881235 0.3961844 -0.02432586 -0.7200519
-0.457444 -0.6413564 -0.30072662 -0.24372923 -0.28344676 0.09540602 0.18164271 -0.2781083
-0.12707634 0.61059374 -0.16972786 0.47951117 0.017535998 -0.023152312 0.29234952 -0.075943284

network_body._body_endoder.seq_layers.0.bias f4 [128]
00000000: 0000 0000 0000 0000 0000 0000 0000 0000
00000010: 0000 0000 0000 0000 0000 0000 0000 0000
00000020: 0000 0000 0000 0000 0000 0000 0000 0000
00000030: 0000 0000 0000 0000 0000 0000 0000 0000
00000040: 0000 0000 0000 0000 0000 0000 0000 0000
00000050: 0000 0000 0000 0000 0000 0000 0000 0000
00000060: 0000 0000 0000 0000 0000 0000 0000 0000
00000070: 0000 0000 0000 0000 0000 0000 0000 0000
00000080: 0000 0000 0000 0000 0000 0000 0000 0000
00000090: 0000 0000 0000 0000 0000 0000 0000 0000
000000a0: 0000 0000 0000 0000 0000 0000 0000 0000
000000b0: 0000 0000 0000 0000 0000 0000 0000 0000
000000c0: 0000 0000 0000 0000 0000 0000 0000 0000
000000d0: 0000 0000 0000 0000 0000 0000 0000 0000
000000e0: 0000 0000 0000 0000 0000 0000 0000 0000
000000f0: 0000 0000 0000 0000 0000 0000 0000 0000
00000100: 0000 0000 0000 0000 0000 0000 0000 0000
00000110: 0000 0000 0000 0000 0000 0000 0000 0000
00000120: 0000 0000 0000 0000 0000 0000 0000 0000
00000130: 0000 0000 0000 0000 0000 0000 0000 0000
00000140: 0000 0000 0000 0000 0000 0000 0000 0000
00000150: 0000 0000 0000 0000 0000 0000 0000 0000
00000160: 0000 0000 0000 0000 0000 0000 0000 0000
00000170: 0000 0000 0000 0000 0000 0000 0000 0000
00000180: 0000 0000 0000 0000 0000 0000 0000 0000
00000190: 0000 0000 0000 0000 0000 0000 0000 0000
000001a0: 0000 0000 0000 0000 0000 0000 0000 0000
000001b0: 0000 0000 0000 0000 0000 0000 0000 0000
000001c0: 0000 0000 0000 0000 0000 0000 0000 0000
000001d0: 0000 0000 0000 0000 0000 0000 0000 0000
000001e0: 0000 0000 0000 0000 0000 0000 0000 0000
000001f0: 0000 0000 0000 0000 0000 0000 0000 0000
0.0 0.0 0.0 0.0 0.0 0.0 0.0 0.0
0.0 0.0 0.0 0.0 0.0 0.0 0.0 0.0
0.0 0.0 0.0 0.0 0.0 0.0 0.0 0.0
0.0 0.0 0.0 0.0 0.0 0.0 0.0 0.0
0.0 0.0 0.0 0.0 0.0 0.0 0.0 0.0
0.0 0.0 0.0 0.0 0.0 0.0 0.0 0.0
0.0 0.0 0.0 0.0 0.0 0.0 0.0 0.0
0.0 0.0 0.0 0.0 0.0 0.0 0.0 0.0
0.0 0.0 0.0 0.0 0.0 0.0 0.0 0.0
0.0 0.0 0.0 0.0 0.0 0.0 0.0 0.0
0.0 0.0 0.0 0.0 0.0 0.0 0.0 0.0
0.0 0.0 0.0 0.0 0.0 0.0 0.0 0.0
0.0 0.0 0.0 0.0 0.0 0.0 0.0 0.0
0.0 0.0 0.0 0.0 0.0 0.0 0.0 0.0
0.0 0.0 0.0 0.0 0.0 0.0 0.0 0.0
0.0 0.0 0.0 0.0 0.0 0.0 0.0 0.0

network_body._body_endoder.seq_layers.2.weight f4 [128, 128]
00000000: 7512 e6bc 8151 f43d 9ae7 97bb f3d3 d93d
00000010: 82c1 90bd 217d 34bd c007 a1bd 3077 433e
00000020: 2bc9 44bd c3c5 36bd 2220 82bd 10a4 0a3d
00000030: a13f 81bd ddd9 ce3d 6f9a e5bd 2c2f a6bc
00000040: c23c 993d 8cad be3a e6e0 8cbd 9679 023d
00000050: ad34 26bd dc8c b1bd 8a1e 3cbd 5873 0d3d
00000060: 8b54 a83d 8d14 0a3d 447f a73b 83f0 37be
00000070: 7fa2 63bd fac1 33bd a117 62bd e7fc 2abd
00000080: 2602 0bbd 4632 00bd e51e 30bd 901d 07bd
00000090: d46f a93c 19d6 5bbd c836 51bd 5b26 1a3e
000000a0: fc70 86bd ed91 4d3a e211 83bd 4570 cb3d
000000b0: d235 893d 6e61 d83d 5bf4 16bd cfcb 533b
000000c0: b2a2 ba3b 03a6 1fbe 7d76 dfbc 752c 0bba
000000d0: de7f 24be 80a6 d7bd 7ba8 3e3e 3a73 a73d
000000e0: da82 31bd f78a 4c3d 9ef8 0dbd 0c04 2fbd
000000f0: afd1 47be d58a a63d dfe9 8ebd e45e 53bd
00000100: 102d cbbd 7b30 57bd 1cc0 bb3d e1b7 8e3c
00000110: 0c42 c4bd 8ef9 57bb b9ed 41bd 904c 4ebe
00000120: 617c 87bd b350 223c 2bad 5d3d f03d 2a3d
00000130: 8431 c3bd aa38 b6bd c346 a13d d2b9 2abe
00000140: f3ca cd3d 2515 dabc 7035 b03c 1ab7 823d
00000150: 379d d73c 30b1 8a3c 7109 79bd 0e12 6abc
00000160: 7ee1 c2bd ca26 c8bd 1746 8d3d 2776 a33c
00000170: 9eb4 e03c 332f 1cbc 5bf8 cc3d e0da 0abd
00000180: ff33 0c3e 911d 1bbd 0c6e 343d 3481 60bd
00000190: 2f73 f0bc cbfe 26be aac7 b4bd 4ef1 4e3d
000001a0: 7592 a2bd 61f6 a23d d8c7 a1bd 31de 8a3d
000001b0: 74eb 213d 5840 a23c dbd6 09be 0bad 84bd
000001c0: d29a 8cbc cdcb a0bc 4d51 8d3d 0cf5 ccbd
000001d0: 1667 efbd 589d 4c3c 9afb 83bd 31ba 22bd
000001e0: 1f1d 34bd 59ff 013e 4e24 29be 22b6 a8bd
000001f0: 6353 103e efcf 093e c311 4dbb 2e3f c63d
00000200: 0a33 a73d e91f b1bd f544 413d 8b47 5c3d
00000210: 52e9 30bc 3c5e 25be e29d 04be 5fa3 0ebe
00000220: 620d 903c 64c1 c3bd a6ef e139 ac3b 103d
00000230: 54b4 12be b29e 2dbd fc2c cb3c 1a33 b93d
00000240: 6bf8 3d3d b9b4 193d 4ab0 edbd 7e91 37bd
00000250: 900b d03b b83a fb3d e6df 90bd 8f9c 9f3c
00000260: 7766 f2bd 7e6a 1b3d 2163 24bd c1bc 643d
00000270: 9158 e7bb 1a08 c5bd dd59 af3c fd14 983c
00000280: 2cba 1a3d 61d2 afbd 592e 48bd 2b80 863c
00000290: a34d 233e 7a2c 0bbd 33fc c73d f0e2 803c
000002a0: bfcd d0bd 7144 1f3c 29c8 123d 3df5 0cbe
000002b0: 25fb 9ebd 0d59 dd3d 9268 e03d 60ff 26be
000002c0: 7ede 76bd afd6 4fbd 45cb 5cbc 0cfb 62bc
000002d0: 8089 723c c3bc 803d ea1c a8bd e327 8d3b
000002e0: eca4 5a3c f9f1 bfbd 69ac c1bc 4b50 03bb
000002f0: a294 283d f3f0 d1bc c21b 233d fd70 0b3e
00000300: 326f 043e b1dd 89bd 9cc0 47bd 1007 79bc
00000310: 6834 23bd 1d0a dabd ffcf d23c 7bf4 ccbd
00000320: 5f3c 903d 81c5 15bd b2ea 6abd 486f 663d
00000330: 92a6 243e b9c8 193c 4416 9cbd bb4c 87bd
00000340: c306 d2bd 0fcb 93bd bc6a 903c 9cbe 1abe
00000350: 060a febd 7282 9a3e 523a d1bd 7253 bbbd
00000360: ff0a 023e 2580 c23d 942d 6c3d c5d4 38bd
00000370: 5fc1 eebc 8a60 3bbd 3f0e 463d f13c 903d
00000380: 2399 83bd 6b73 07bc 2401 f0bd 8f4f dbbd
00000390: 81c5 14bd 92c4 463e 520a 393d fdd9 153e
000003a0: 956b a13d c871 dbbd ec07 193d 70f8 0bbe
000003b0: 8784 6e3d 5ba3 3fbd c48c a43d 6ebd edbd
000003c0: b12a 143d f817 cb3d 148d 1cbd 2f46 93bd
000003d0: 6540 29bd 85d3 4cbd d919 94bd a96d 1f3d
000003e0: b10c acbc dcd1 b2bc 5e44 cabb c478 0c3d
000003f0: a079 dabd 74a9 e23d 28ab a3bd 7551 0ebe
-0.028084973 0.11929608 -0.0046357634 0.10636129 -0.07068159 -0.044064645 -0.07862806 0.19088435
-0.04804341 -0.044622194 -0.06353785 0.03384787 -0.063109644 0.10100148 -0.112110965 -0.020286165
0.07482292 0.0014547571 -0.068788335 0.031854235 -0.04057758 -0.08669445 -0.04592756 0.03453383
0.0821925 0.033711005 0.005111607 -0.17962842 -0.05557489 -0.043886162 -0.055198316 -0.041745093
-0.033937596 -0.031297944 -0.042998213 -0.032987177 0.020683207 -0.053670976 -0.051077634 0.15053694
-0.06564519 0.0007841874 -0.06399895 0.09933523 0.066997185 0.10565458 -0.03685413 0.0032317524
0.0056956643 -0.15590672 -0.02727818 -0.0005309054 -0.16064402 -0.10529804 0.18618958 0.081762746
-0.04333768 0.049937215 -0.034660928 -0.04272847 -0.19513582 0.08131949 -0.06978201 -0.051604167
-0.09920704 -0.05253647 0.09167501 0.017421665 -0.0958291 -0.0032955143 -0.04734585 -0.20146394
-0.0661552 0.0099069355 0.054120224 0.041562974 -0.09530929 -0.088975266 0.07874825 -0.16672447
0.10048475 -0.02662141 0.021509856 0.0638258 0.026320083 0.016930193 -0.06080002 -0.014286531
-0.095156655 -0.097730234 0.06898134 0.0199538 0.027429875 -0.009532738 0.100083075 -0.03390014
0.1369171 -0.037869994 0.04405026 -0.054810718 -0.029351799 -0.16308133 -0.088271454 0.050523095
-0.07938091 0.07957149 -0.07899445 0.06780661 0.039531186 0.019806072 -0.13460867 -0.06478318
-0.017163668 -0.01962843 0.069002725 -0.100076765 -0.11689584 0.012488686 -0.064444736 -0.039728347
-0.043973085 0.12695064 -0.16517755 -0.08237864 0.1409431 0.13458227 -0.0031291104 0.09680019
0.08164032 -0.086486645 0.047184903 0.053779166 -0.010797815 -0.16149229 -0.12950853 -0.13929509
0.017584506 -0.09558371 0.00043093896 0.035213158 -0.14326602 -0.04238767 0.024801724 0.0904295
0.046379488 0.037525866 -0.1160589 -0.044816487 0.0063490346 0.12267059 -0.07073955 0.019483833
-0.1183595 0.037943356 -0.0401336 0.055844072 -0.0070601185 -0.09620686 0.021405155 0.018564695
0.037775204 -0.085850485 -0.048872326 0.016418537 0.15947585 -0.033977963 0.097649 0.015733212
-0.10195493 0.009720908 0.03583542 -0.13765426 -0.07762746 0.10808001 0.10957445 -0.16308355
-0.06027078 -0.050741848 -0.013476198 -0.0138538 0.01480329 0.062860034 -0.0820864 0.0043077334
0.0133449845 -0.093723245 -0.023641782 -0.0020036872 0.041157372 -0.025627589 0.039821394 0.1361732
0.12933043 -0.067317374 -0.04876767 -0.015199438 -0.0398449 -0.1064646 0.025733946 -0.100075684
0.07042765 -0.036565308 -0.05735273 0.05625847 0.16079167 0.009386235 -0.07621434 -0.06606432
-0.10255196 -0.07216465 0.01762902 -0.15111774 -0.124042556 0.30177647 -0.10216202 -0.09146775
0.12699507 0.09497098 0.057660654 -0.045124788 -0.02914494 -0.045746364 0.04835343 0.07042874
-0.06425693 -0.008267264 -0.117189676 -0.10708534 -0.036321167 0.19410923 0.045175858 0.14633937
0.07881848 -0.107150614 0.03736107 -0.1366899 0.058231857 -0.046786647 0.080346614 -0.116083965
0.036173526 0.09916681 -0.03822048 -0.07191121 -0.041321177 -0.05000641 -0.072314925 0.03892294
-0.021002145 -0.021828584 -0.006172701 0.03429486 -0.106677294 0.11067477 -0.0799163 -0.13898261

network_body._body_endoder.seq_layers.2.bias f4 [128]
00000000: 0000 0000 0000 0000 0000 0000 0000 0000
00000010: 0000 0000 0000 0000 0000 0000 0000 0000
00000020: 0000 0000 0000 0000 0000 0000 0000 0000
00000030: 0000 0000 0000 0000 0000 0000 0000 0000
00000040: 0000 0000 0000 0000 0000 0000 0000 0000
00000050: 0000 0000 0000 0000 0000 0000 0000 0000
00000060: 0000 0000 0000 0000 0000 0000 0000 0000
00000070: 0000 0000 0000 0000 0000 0000 0000 0000
00000080: 0000 0000 0000 0000 0000 0000 0000 0000
00000090: 0000 0000 0000 0000 0000 0000 0000 0000
000000a0: 0000 0000 0000 0000 0000 0000 0000 0000
000000b0: 0000 0000 0000 0000 0000 0000 0000 0000
000000c0: 0000 0000 0000 0000 0000 0000 0000 0000
000000d0: 0000 0000 0000 0000 0000 0000 0000 0000
000000e0: 0000 0000 0000 0000 0000 0000 0000 0000
000000f0: 0000 0000 0000 0000 0000 0000 0000 0000
00000100: 0000 0000 0000 0000 0000 0000 0000 0000
00000110: 0000 0000 0000 0000 0000 0000 0000 0000
00000120: 0000 0000 0000 0000 0000 0000 0000 0000
00000130: 0000 0000 0000 0000 0000 0000 0000 0000
00000140: 0000 0000 0000 0000 0000 0000 0000 0000
00000150: 0000 0000 0000 0000 0000 0000 0000 0000
00000160: 0000 0000 0000 0000 0000 0000 0000 0000
00000170: 0000 0000 0000 0000 0000 0000 0000 0000
00000180: 0000 0000 0000 0000 0000 0000 0000 0000
00000190: 0000 0000 0000 0000 0000 0000 0000 0000
000001a0: 0000 0000 0000 0000 0000 0000 0000 0000
000001b0: 0000 0000 0000 0000 0000 0000 0000 0000
000001c0: 0000 0000 0000 0000 0000 0000 0000 0000
000001d0: 0000 0000 0000 0000 0000 0000 0000 0000
000001e0: 0000 0000 0000 0000 0000 0000 0000 0000
000001f0: 0000 0000 0000 0000 0000 0000 0000 0000
0.0 0.0 0.0 0.0 0.0 0.0 0.0 0.0
0.0 0.0 0.0 0.0 0.0 0.0 0.0 0.0
0.0 0.0 0.0 0.0 0.0 0.0 0.0 0.0
0.0 0.0 0.0 0.0 0.0 0.0 0.0 0.0
0.0 0.0 0.0 0.0 0.0 0.0 0.0 0.0
0.0 0.0 0.0 0.0 0.0 0.0 0.0 0.0
0.0 0.0 0.0 0.0 0.0 0.0 0.0 0.0
0.0 0.0 0.0 0.0 0.0 0.0 0.0 0.0
0.0 0.0 0.0 0.0 0.0 0.0 0.0 0.0
0.0 0.0 0.0 0.0 0.0 0.0 0.0 0.0
0.0 0.0 0.0 0.0 0.0 0.0 0.0 0.0
0.0 0.0 0.0 0.0 0.0 0.0 0.0 0.0
0.0 0.0 0.0 0.0 0.0 0.0 0.0 0.0
0.0 0.0 0.0 0.0 0.0 0.0 0.0 0.0
0.0 0.0 0.0 0.0 0.0 0.0 0.0 0.0
0.0 0.0 0.0 0.0 0.0 0.0 0.0 0.0

value_heads.value_heads.extrinsic.weight f4 [1, 128]
00000000: d078 873d 30aa 763d 509b 4a3e 2e23 95bd
00000010: f073 7dbc cf8e e9bd 80d4 ed3d 144c 7cbd
00000020: 3444 0d3e 7c8e 133e f431 073d 0987 f0bd
00000030: 2a07 413e bac9 88bd 240b 58bd 7f42 3bbe
00000040: c77b 45be 541e b13d d1c5 e9bd a829 753d
00000050: 887d d93d e5d9 35be 9038 523d 8018 49be
00000060: 98f1 f73d 90e4 5abe 3449 c03d 88e3 9c3d
00000070: bb2a cabd 5821 393e 2a3f 4a3e 00fc abbc
00000080: 28a3 c13d faeb 4d3e 443b 0f3e 80c2 e43b
00000090: bc55 a73d 68d4 b0bc ba36 19be 805c 063c
000000a0: ce4d 2bbe 801a 8abc c870 393d 9812 243e
000000b0: a4e0 ed3d 38a2 2cbe b65f fcbd 00ce 383a
000000c0: 08de bf3c 3445 4d3e b4a2 ee3d 683e 993d
000000d0: 3055 33bc f894 443e 212f 3cbe 9876 9ebc
000000e0: 5a67 023e ddda 11be 2c1f 923d f89b 2b3e
000000f0: 0040 ab3d 8a00 04be bc2b cd3d 9adb 3e3e
00000100: f686 3bbe 8eab 31be a18c babd 88cd df3d
00000110: 10bb 323c a0bb 84bc a080 f33b 583a 2f3d
00000120: 00ad 1b3a de0f 0fbe 98d1 853d 196d d0bd
00000130: d851 d83d 582a 813d 168f 44be 3c90 3abe
00000140: 580d b13d a036 723d 5693 0f3e ec2e 82bd
00000150: b811 a5bc 287c cf3c f482 023d 8c6b 80bd
00000160: 62e2 393e 58bb bbbd 00b1 413d 609b 83bc
00000170: dc35 14be 702f b93d 1025 ad3d dcee 583e
00000180: f5f9 d0bd a246 42be 4a4f 2abe d869 863d
00000190: 602e 0f3d b0b5 ff3d 959c 18be 4e4e 0cbe
000001a0: 102f 2fbe 9c0c 163e 5d6b 3bbe 58e1 433e
000001b0: dc05 a33d 7ec7 3abe fb57 36be f08d 56be
000001c0: 1190 52be 58b6 423e a255 5a3e 4ee1 3b3e
000001d0: 800f c13d 3ca8 e33d d089 b63d 603b 563d
000001e0: a01d b73d ba35 44be a030 183d 9239 5cbe
000001f0: 2827 45be 5424 d93d ec52 40be f82e 633d
0.0661484 0.060220897 0.1978581 -0.072821006 -0.015469536 -0.11404192 0.11612797 -0.06159599
0.13795549 0.14409822 0.033006623 -0.11744506 0.18850389 -0.06679101 -0.052745 -0.18287085
-0.19285499 0.08648363 -0.114146836 0.05985418 0.10619646 -0.17758901 0.051323473 -0.19638252
0.12106627 -0.21376252 0.093889624 0.07660586 -0.098714314 0.18079126 0.19750658 -0.020994186
0.09454948 0.20109549 0.13987452 0.006981194 0.081706494 -0.021585658 -0.14962283 0.008200765
-0.16728899 -0.01685834 0.045273572 0.16022718 0.116151124 -0.16858757 -0.12322943 0.00070497394
0.023421302 0.2004593 0.11652127 0.07482606 -0.010945603 0.19197452 -0.18377353 -0.01934366
0.12734738 -0.14243646 0.07134852 0.16758716 0.083618164 -0.1289083 0.10018107 0.18638459
-0.18313202 -0.17350599 -0.09108854 0.10927874 0.010908857 -0.016202748 0.007431105 0.04278025
0.000593856 -0.13970897 0.065341175 -0.10177059 0.105624855 0.063069046 -0.19195208 -0.18219084
0.08645123 0.059134126 0.14021048 -0.06356606 -0.02015005 0.025327757 0.031863168 -0.06270513
0.18152764 -0.09166592 0.04728794 -0.0160653 -0.1447367 0.09042251 0.08454335 0.21184868
-0.102039255 -0.18972257 -0.16631809 0.06563157 0.034956336 0.12485826 -0.14903481 -0.13701746
-0.17107797 0.14653248 -0.18302675 0.1912893 0.07960102 -0.18240163 -0.17807 -0.20952582
-0.2056277 0.19014871 0.21321729 0.18347666 0.094267845 0.111160725 0.089130044 0.05230272
0.089411974 -0.1916112 0.037155747 -0.21506336 -0.19253218 0.10602632 -0.18781632 0.055464715
